models/Level2/checkpoint_2000/critic.pth (torch, 320618 bytes, 9 tensors)

net.0.weight f4 [256, 47]
000000 84 b7 e6 3e 13 1b 26 3d fc e4 43 be e0 54 15 bc
       0.45061886 0.040553164 -0.1913032 -0.009114474
000010 e7 52 e3 3d 0f fc d2 3e c2 f5 f7 bc 18 cb ce 3a
       0.11099797 0.4120793 -0.030268554 0.0015777079
000020 f9 ea 06 3e a6 ff 3b bf aa c2 ac 3e f9 09 10 3c
       0.13175572 -0.73436964 0.33742267 0.00879144
000030 ce 68 ee 3d 4a 2a 42 bf 25 40 bb be 04 5c e1 3d
       0.11641084 -0.7584578 -0.36572376 0.11003879
000040 a7 2f db 3d 57 87 80 be 6a 65 d2 bd 3a f1 1f 3d
       0.10702448 -0.25103256 -0.102732494 0.03904841
000050 2a 51 cf 3e dd 8d 4c 3d 5a 66 c0 3e f3 56 b5 bd
       0.4049161 0.04993998 0.37578088 -0.08854475
000060 92 24 49 be 61 9b 5b 3e 8a 77 4a 3c 7e b5 85 be
       -0.19642857 0.21445991 0.012357602 -0.2611503
000070 35 b0 45 bd 4f 5f 0d 3d 34 57 79 bd f4 a7 12 bf
       -0.048263747 0.03451472 -0.06087418 -0.57287526
000080 33 93 0b bf 89 34 f5 3e 3a ce b7 3e 63 df dc be
       -0.54521483 0.47891644 0.35899526 -0.4313918
000090 2a 00 73 be d6 13 a7 bc 5b 6b 58 bd e1 4c 5c bd
       -0.23730531 -0.0203952 -0.052836757 -0.053784255
0000a0 fc 78 d8 3e 85 d4 d6 be e2 e7 6a 3e a1 0c 2c bf
       0.42279804 -0.41959015 0.22940019 -0.6720677
0000b0 e7 42 df be 12 a8 0f 3e ea 7f d9 3d 12 64 c1 3e
       -0.4360573 0.14028957 0.10620101 0.3777166
0000c0 57 9f be be 89 83 b7 be 51 01 a9 3e ec e9 1d be
       -0.37230942 -0.3584254 0.33008817 -0.15421265
0000d0 6d bc 99 be fe 71 a4 3d 5b 43 3d be ad e1 00 3d
       -0.3002657 0.08029555 -0.18482725 0.03146522
0000e0 1d d1 ab be 40 c1 a1 3e b1 ee da bc c0 6b 0a be
       -0.33557978 0.3159275 -0.026725145 -0.13517666
0000f0 65 d9 91 be 0c a7 c0 be 50 4e e8 3d 2d ee de bc
       -0.2848617 -0.37627447 0.11343062 -0.02721318
000100 ab b6 b9 3e 79 1c a1 3b 48 27 66 3c cc f8 a1 3e
       0.36272177 0.0049167243 0.014047451 0.3163513
000110 06 25 5a 3c 5a 98 ce 3e 3d 69 a6 bb fb de 5e be
       0.013314491 0.4035061 -0.0050784633 -0.21764748
000120 5a 5a bf bd 58 2d da 3d 3b e5 44 3e 5b f9 5a be
       -0.09343405 0.1065318 0.1922807 -0.21384184
000130 a5 47 d1 bc c0 66 67 be 85 1a c3 be 47 e0 99 be
       -0.025546858 -0.2259779 -0.3810617 -0.30053923
000140 8a 7d 5e be 7f a0 04 3e d0 1e fd 3d ce f8 88 be
       -0.21727577 0.1295185 0.12359393 -0.26752323
000150 09 3b f4 be 46 91 e7 3e 41 b2 d6 3d 82 4d a1 3e
       -0.4770129 0.45228022 0.10483218 0.31504446
000160 06 e8 8b be 72 25 53 be f7 0c 8a be e3 91 80 3e
       -0.27325457 -0.20619753 -0.26963016 0.25111303
000170 03 ca b2 3e 98 3b 1f bf 6e a4 78 3f 87 30 7c bd
       0.34919748 -0.6220031 0.971259 -0.061569717
000180 8e 55 7c 3e a4 69 f1 3c 0b f0 05 be e7 48 d0 3d
       0.24642012 0.029469319 -0.1307985 0.10170155
000190 9a 22 7c 3b 6d 3d ca bd 9f 24 a7 3e ae fe 16 be
       0.0038472773 -0.09874997 0.32645127 -0.1474559
0001a0 c7 a5 54 bd 7b 9c fb be a9 3c 90 3e 25 00 36 3d
       -0.05191591 -0.49142823 0.2817128 0.04443373
0001b0 4d 92 56 3e 4c 09 68 3c 5a b6 bb 3d af f5 bc bd
       0.20954247 0.014162373 0.0916564 -0.09226548
0001c0 34 03 c9 3d 31 68 b7 bd 0d 5e eb 3c c9 54 17 bf
       0.09815064 -0.0895542 0.02873137 -0.59113747
0001d0 7c 97 aa bd 29 54 2e bf 97 2c c2 3c 61 dc 2c 3d
       -0.083296746 -0.6809717 0.023702903 0.042202357
0001e0 31 0c 54 3e a3 94 5c 3d 09 fc 54 bb 19 84 de bd
       0.20707776 0.05385269 -0.0032498857 -0.108650394
0001f0 dd cc e8 3e d6 94 15 be a6 0b 42 bf 8e a6 3f 3f
       0.45468798 -0.14607558 -0.75799024 0.7486352
000200 d3 4e 3e bf 0f 00 34 3f f9 67 cf be 31 68 4c 3c
       -0.74339026 0.7031259 -0.40509012 0.012476013
000210 43 a7 e8 3e f1 af 0b 3f b1 18 79 bf d1 ba c9 be
       0.4544011 0.5456534 -0.973033 -0.39400342
000220 7b 0e cf bd 2d cf d0 be 7e 2f ef be 34 b6 4f bf
       -0.10110184 -0.40783063 -0.4671592 -0.81137395
000230 2b 6e 43 3d 50 d5 f9 3e 2c ac 29 bf 56 0e 54 3e
       0.047712486 0.48795557 -0.6627834 0.20708594
000240 ab b7 91 bc d2 dc b7 3c 64 74 0a bd bd 86 00 3e
       -0.017787775 0.022444163 -0.033802405 0.12551399
000250 b1 2d a8 3d bb a8 f4 bc db 50 e3 be 4f f7 81 3e
       0.0821184 -0.029865613 -0.44397625 0.25383994
000260 76 45 ee 3d 03 57 11 3e f4 60 8d be 3c 12 bc 3e
       0.11634342 0.14193349 -0.27613032 0.36732662
000270 7d 06 75 3d ed 79 bf 3d e6 92 8d bd 77 08 31 bd
       0.05982064 0.09349427 -0.06912784 -0.043220963
000280 ef ef e8 3d 20 54 42 3e bb f0 3a bc 45 fb 82 3e
       0.11373889 0.18977404 -0.011409934 0.25582328
000290 00 df 0b 3e 0d 3b 61 3e ac 71 be bd 4d c0 0b be
       0.13659286 0.21995182 -0.09299025 -0.13647576
0002a0 aa 94 ce 3c d8 cf 66 3d b8 7d b3 bc 07 13 eb bc
       0.025217373 0.05635056 -0.021910533 -0.028695596
0002b0 57 ec a4 be 15 58 c6 bf 44 e1 5a bf cc 22 e9 bd
       -0.32211563 -1.549563 -0.8549998 -0.1138359
0002c0 d6 62 54 bf 7c 76 3c be ff 31 7e be c7 90 50 3e
       -0.8296331 -0.18404573 -0.2482376 0.20367728
0002d0 bc e0 95 be fd 7a 0a be 68 e1 06 bf 55 b6 08 3f
       -0.2927302 -0.13523479 -0.5268769 0.53403217
0002e0 d5 b0 50 3f a3 97 a0 bd 42 62 11 3f 7a cf a9 bd
       0.81519824 -0.078414224 0.56790555 -0.08291526
0002f0 64 24 59 bf 2c c8 24 be d6 f1 e5 be 34 45 24 3e
       -0.8482115 -0.16091985 -0.4491107 0.16042024
000300 21 65 3b bd 8f 09 d2 3c a7 44 7a bd 79 9a be 3d
       -0.04575074 0.025639324 -0.06110063 0.09306807
000310 f9 87 ad be 54 0a 26 be ac 4c e4 be 6b 56 f8 3d
       -0.338928 -0.16214877 -0.44589746 0.12125858
000320 ad 87 b6 be 25 25 99 bd f8 ee 6e bf f9 8f 52 3e
       -0.35650387 -0.07477788 -0.9333339 0.20562734
000330 2f b4 56 3e e4 49 03 3e 66 2a 25 be 97 df 16 3e
       0.20967172 0.12821156 -0.16129455 0.1473373
000340 e7 66 1c bf aa 44 1d 3e 66 67 b2 be 1d 17 f5 3d
       -0.61094517 0.15358225 -0.34844512 0.11967299
000350 aa 32 17 bf 9f f4 15 3e 23 4d dc 3d 64 26 0b be
       -0.5906168 0.14644097 0.107569 -0.13588864
000360 0f 0b 7d bc b3 27 a5 3b f5 e6 d4 be b0 d2 4a 3d
       -0.015444531 0.005040133 -0.41582456 0.049517334
000370 04 c5 ea be ad 0f 28 3f 7e ba 8a 3d 8a 20 9c 3e
       -0.45853436 0.6564892 0.06773852 0.30493575
000380 0c 5f 2d bf 33 fa 07 bf 0a 32 1a be 75 6f c1 3e
       -0.67723155 -0.5311615 -0.15058151 0.37780347
000390 fd a7 c5 be 40 3c 1d 3c 3f fe 6d be 15 5e 19 be
       -0.38604727 0.009596884 -0.23241518 -0.14977296
0003a0 52 3f 9e bf 0c 34 5e 3f f6 32 3f 3e 02 3b 58 3f
       -1.2363074 0.8679817 0.18671784 0.8446504
0003b0 6d a2 e5 be a2 c0 21 3d 89 19 d9 3d 71 4e 08 3f
       -0.44850484 0.03949035 0.106005736 0.5324469
0003c0 9b 92 a4 bc a9 ce d0 bd 69 5d df bc 5f 2e 6a be
       -0.020089438 -0.10195667 -0.027266221 -0.22869252
0003d0 1e 1f a4 be ee 38 4c 3e 5e 2a cd bd ab 13 ae be
       -0.3205499 0.19943592 -0.100178465 -0.3399938
0003e0 b0 05 b5 be c3 c6 a6 3e cd 36 57 3e 53 bb 7d be
       -0.35355902 0.32573518 0.21016999 -0.2477849
0003f0 bb 20 c4 3c 4e b0 31 be e8 8a 5d bd 87 42 83 bd
       0.023941388 -0.17352411 -0.05408755 -0.064091735

net.0.bias f4 [256]
000000 f4 ff 1b bf 7f 59 1b 3f 52 eb 4b 3e 7b 29 3c bd
       -0.6093743 0.60683435 0.19913986 -0.045937996
000010 8c e6 7a bf 54 ba 16 bf 24 59 06 3e 3b 14 10 3f
       -0.98008037 -0.58878064 0.13119942 0.5628087
000020 d6 db 39 3e 3a 76 3e be c0 06 68 bf 82 69 52 be
       0.18150267 -0.18599787 -0.906353 -0.2054806
000030 d3 1d b4 bf 92 78 15 3f e3 74 90 be 17 64 23 3f
       -1.4071602 0.583871 -0.28214177 0.638246
000040 69 4a 84 bf 8d a2 64 be 72 60 60 bf d6 d3 ba 3d
       -1.0335208 -0.22327633 -0.87647164 0.09122436
000050 21 57 99 be ca ba a7 3e 94 3e 2e be 06 35 9e 3e
       -0.29949287 0.32759696 -0.17016059 0.3089983
000060 f0 f1 a5 be d7 f0 48 3f 84 c0 bd be 25 9e 80 be
       -0.32411146 0.7849249 -0.3706094 -0.25120655
000070 35 b5 43 bf 2f 1e 34 3f 38 ec 21 3d ad 07 00 bf
       -0.76448375 0.70358557 0.039531916 -0.5001171
000080 f5 87 d8 be 21 9e b1 3e ea 8d 94 be 14 ce 1a ba
       -0.42291227 0.34690955 -0.29014522 -0.0005905342
000090 cd 8f 2c 3e 7f 46 af 3e 38 d1 cd be c4 91 b3 bc
       0.1685173 0.34233472 -0.40198684 -0.021920092
0000a0 b6 9c 11 3e fd a7 88 3e cd 3d 31 bf 85 18 27 be
       0.14219937 0.26690665 -0.69234926 -0.16317947
0000b0 03 40 c1 3e c6 50 26 bf 3f a7 15 3f af 1b 39 3e
       0.3774415 -0.64967 0.5845832 0.18076967
0000c0 0f 8c c8 be d8 21 26 bf f5 39 4a be 43 c1 18 3e
       -0.39169356 -0.6489539 -0.19748671 0.14917473
0000d0 29 ac 4d be 13 2f 3e be 8e d5 8f 3e e4 8e 17 bf
       -0.20085205 -0.18572645 0.28092617 -0.5920241
0000e0 f4 02 61 bf d8 0c 3f bf ff 27 d3 be 88 00 c2 3e
       -0.8789513 -0.74628973 -0.41241452 0.3789103
0000f0 1c 9c c9 be 7e a5 e0 3e 5a 44 e1 be 55 bd f7 3e
       -0.39376915 0.4387626 -0.4399746 0.48386636
000100 95 16 55 3e f7 39 06 be a4 02 0e bf 1b 71 18 bf
       0.20809396 -0.1310805 -0.5547278 -0.59547585
000110 34 04 a9 bd 3f 2f 89 3f 91 a9 c8 be 93 95 82 3f
       -0.08252755 1.0717543 -0.3919187 1.0201896
000120 7a 54 6e bf 8d b9 a9 bb 58 4e 98 3e 7f 80 41 be
       -0.9309765 -0.00517959 0.29747272 -0.18896674
000130 b8 9a 32 3f a0 f3 d2 be b6 57 2c bf 34 35 1d 3d
       0.6976733 -0.41201496 -0.67321336 0.038380817
000140 56 41 ef 3e ba 99 4b bf 79 5a 65 3d 04 f2 95 bf
       0.46729535 -0.79531443 0.055994485 -1.1714482
000150 85 68 00 3f 4b 55 ba 3d ed 4b 21 bf 69 65 e8 3e
       0.50159484 0.090982996 -0.6300648 0.4538987
000160 1d 9a 50 3f 74 05 9d 3d bb 8c 86 bf a6 0a 3e bf
       0.8148516 0.07667056 -1.0511698 -0.74235
000170 4d 4b d0 be 3b 50 42 3e b1 13 b0 3c ff e8 3e be
       -0.4068245 0.18975918 0.021493765 -0.18643568
000180 ac a6 d5 bd 6a b5 2b bf f2 3f 36 3f b2 de 70 bf
       -0.10432181 -0.6707369 0.7119132 -0.94089806
000190 ac bc 21 be 05 99 f9 bd 48 12 a7 3e a7 92 50 bf
       -0.15794629 -0.12187389 0.32631135 -0.81473774
0001a0 fe b2 43 bf f7 5d d5 3e 09 3f 02 3e e4 3c 2a 3f
       -0.76444995 0.41673252 0.12719359 0.6649916
0001b0 11 19 95 bf c5 a1 ae bd 30 18 aa be 43 64 88 3e
       -1.1648275 -0.08526949 -0.3322158 0.26638994
0001c0 92 73 f4 bc c6 fc f8 3e f0 5e 4c 3e 9d 5a 2e 3e
       -0.029840264 0.4863035 0.19958091 0.17026754
0001d0 f2 2e 8e bf 73 69 d8 3d d5 4f 81 be 0d 2b 7b bf
       -1.1108077 0.10566988 -0.2525622 -0.98112565
0001e0 3d 0a 92 bf 1d 42 0e bf 4c 10 75 bf be 3e 44 bf
       -1.1409374 -0.5556963 -0.9572799 -0.76658237
0001f0 b0 53 08 be 0d 91 a5 be 70 b4 5d 3f 71 14 8e 3d
       -0.13313174 -0.32337227 0.8660345 0.06937493
000200 49 1c f5 3e 3a fc e6 be e0 aa 10 bf 4a 37 a4 be
       0.47873142 -0.4511431 -0.56510735 -0.32073432
000210 9c 96 1d bf 9c b6 9a 3e fb e1 b1 3c fe 7e 42 bf
       -0.61557937 0.30217445 0.021714201 -0.75975025
000220 c8 26 87 bf 85 0b d2 be c8 82 af be 25 fe 42 3e
       -1.055871 -0.41024414 -0.34279466 0.19042261
000230 5d d8 c6 3e b3 a4 85 3d 83 45 0f bf 89 ef 61 be
       0.38836947 0.065255545 -0.5596544 -0.22064032
000240 26 69 d9 3e 86 9a 32 bf 00 21 82 be 8c 71 93 3e
       0.42463034 -0.69767034 -0.25415802 0.28797567
000250 4c 64 61 bf 12 df 02 bf 32 f5 ee bd 7f c9 12 bf
       -0.88043666 -0.5112163 -0.11667861 -0.5733871
000260 e7 b0 a2 bf 1b 65 1d bf f4 58 5c bf 02 7d 59 bf
       -1.2710236 -0.614824 -0.8607323 -0.8495637
000270 fc 38 47 bf 57 50 d7 be 2a 5f 4b bf 84 3f f6 3d
       -0.77821326 -0.42053482 -0.79442084 0.120238334
000280 bf 35 6c be 2e cc 85 be 7a d9 34 3e 97 6d de be
       -0.23067378 -0.2613234 0.17661086 -0.43442985
000290 d4 c2 ce 3e c9 8c 44 bf 49 7f 2f bf 94 e5 33 3e
       0.40383017 -0.7677732 -0.68553597 0.17568046
0002a0 40 7f 10 bf b5 2f 21 bf 28 52 e7 3e c1 aa 95 bf
       -0.5644417 -0.6296342 0.45179868 -1.1692735
0002b0 da b7 bd be af eb 26 be ef 37 0b bf 12 c3 85 3e
       -0.3705433 -0.16300844 -0.5438222 0.2612539
0002c0 07 a6 9e be d3 fb 09 bf f5 f7 26 bf 50 04 4a 3f
       -0.30986044 -0.5389988 -0.652221 0.7891283
0002d0 71 62 d7 be 97 a9 d4 be 93 d9 2b bf 51 8b 8f 3d
       -0.42067292 -0.41535637 -0.67128867 0.07008994
0002e0 55 63 25 be ad d2 44 bf 9b 1c 8e 3e 78 9a 96 3e
       -0.16151173 -0.76883966 0.277562 0.29414725
0002f0 e3 55 4b bf e0 23 bb bd ef 9a ef be 94 a7 84 be
       -0.7942793 -0.09137702 -0.46797892 -0.25909102
000300 e8 3e 50 3b 41 21 03 bd ad 08 e7 be a1 90 06 3d
       0.0031775776 -0.032014135 -0.45123807 0.032852773
000310 00 51 c4 3e fc 02 5c bf 99 4e 3b be f9 09 16 be
       0.38343048 -0.85942054 -0.18291701 -0.14652242
000320 3c 24 0d bf 23 1f 1c bf 94 91 60 bf 3c cc 04 3e
       -0.55133414 -0.6098501 -0.87722135 0.12968534
000330 91 33 01 be 8a 7c a3 be 95 97 bf 3e 69 a5 bf 3e
       -0.12617327 -0.31930953 0.37420335 0.37430885
000340 c6 ed 25 3f 22 e8 18 bf 02 69 92 bd 0f 9a 17 bf
       0.6481594 -0.59729207 -0.07148935 -0.5921945
000350 20 72 ea be b8 35 af be 5f e7 c2 be a1 3c 73 3e
       -0.45790195 -0.34220672 -0.38067147 0.23753597
000360 0b 84 1d 3f 02 32 4f bf d2 f3 65 be 6b 7a ad bc
       0.61529607 -0.8093568 -0.22456291 -0.021176537
000370 09 b0 eb be 24 98 df 3e a2 ed f3 bc 0d aa cd bd
       -0.46032742 0.43670762 -0.029776398 -0.100422
000380 1e c8 ee bd 2c 42 5d be 13 2e 8f bd 10 29 57 3e
       -0.11659263 -0.21607274 -0.0699121 0.21011758
000390 68 bf 64 bd e1 23 c4 3d 81 71 3d bf e3 4b 7b 3e
       -0.0558466 0.09577156 -0.7400132 0.24540667
0003a0 ae 84 b0 3e 7a d1 68 be 89 da 47 bf 63 0b 8c bf
       0.34476227 -0.22736159 -0.78067833 -1.0940975
0003b0 78 35 86 3f 15 81 56 bf 1e d9 43 3f b5 6e 57 bf
       1.0485067 -0.83790714 0.7650317 -0.841533
0003c0 38 2f 56 bf 80 7d 76 be f3 ae 3d bf 6c 89 34 bf
       -0.836658 -0.24071312 -0.74095076 -0.7052219
0003d0 96 64 d9 bb f0 45 30 be ef 1f a0 bd fd 1c 0b 3e
       -0.006634305 -0.17214179 -0.07818591 0.13585277
0003e0 fa 77 26 be f5 2d 73 3e fd 29 ee 3d d0 a5 46 bf
       -0.16256705 0.23748 0.116291024 -0.7759676
0003f0 80 11 03 3d 4e 9e 90 be f5 f3 1a bf 9d a0 57 3d
       0.03199911 -0.28245777 -0.605285 0.052643407

net.2.weight f4 [256]
000000 94 80 41 3f 53 60 15 3f 6e c2 81 3f 8d 86 51 3f
       0.7558682 0.58350104 1.013746 0.81845933
000010 6e 7d c6 3f 52 37 97 3f 75 f1 7f 3f b6 23 8a 3f
       1.5507028 1.1813757 0.9997781 1.0792148
000020 a6 6c a0 3f 16 49 99 3f 72 e8 3e 3f 49 6a 3d 3f
       1.2533157 1.1975429 0.74573433 0.73990303
000030 0c 88 8d 3f fb 0b 52 3f 00 36 93 3f fd 10 8e 3f
       1.1057143 0.8204953 1.1500854 1.1098934
000040 8e e3 34 3f 91 de 33 3f a9 d2 79 3f a3 81 85 3f
       0.7065972 0.70261484 0.97587067 1.0430187
000050 a3 6e 50 3f bd 17 84 3f af 8a 4e 3f 0f 0f 4e 3f
       0.8141882 1.0319744 0.80680364 0.8049173
000060 c0 88 39 3f 33 75 48 3f e9 54 91 3f 35 f3 a8 3f
       0.7247429 0.7830383 1.1354038 1.3199221
000070 d4 a0 46 3f e2 bc ab 3f e9 a3 7b 3f d8 3a 64 3f
       0.77589154 1.3417017 0.9829698 0.8915229
000080 7e ab 55 3f a8 68 98 3f 5a 65 38 3f fa e2 58 3f
       0.834648 1.1906939 0.7202965 0.8472134
000090 2f fb 57 3f f4 40 94 3f 12 88 87 3f 4b 7e b6 3f
       0.8436765 1.1582322 1.05884 1.4257292
0000a0 59 a4 2e 3f 91 ed 38 3f 81 74 5c 3f f6 a0 35 3f
       0.68219525 0.722375 0.8611527 0.7094873
0000b0 dd 94 bc 3f 79 87 a4 3f 70 11 b5 3f 1a 75 b0 3f
       1.473293 1.2853843 1.4145947 1.3785737
0000c0 5f 5b 89 3f 4b 80 9b 3f 87 3d a2 3f ac 7b 8c 3f
       1.0731009 1.2148527 1.2675027 1.0975242
0000d0 20 f4 c0 3f 81 b6 c0 3f 36 c4 4b 3f 0d fd e8 3f
       1.5074501 1.5055696 0.7959627 1.8202225
0000e0 f9 96 8b 3f 22 c3 e7 3e 17 9a 86 3f 47 24 95 3f
       1.0905448 0.45266062 1.0515774 1.1651696
0000f0 d3 2b 36 3f c5 db 6c 3f 12 de 9a 3f 4d 8c 7d 3f
       0.7116062 0.9252284 1.209902 0.99042207
000100 45 56 4a 3f 03 09 5d 3f 2c 16 70 3f 53 88 96 3f
       0.79037887 0.86341876 0.9378383 1.1760353
000110 0b 56 8b 3f 9c 19 73 3f ae be 2d 3f 30 99 71 3f
       1.0885633 0.9496095 0.6786908 0.9437437
000120 18 e7 3e 3f f3 97 7e 3f 41 b0 7f 3f 11 93 71 3f
       0.7457137 0.99450606 0.9987832 0.9436503
000130 5c 22 c5 3f f6 b4 95 3f fe 04 cc 3f af f5 42 3f
       1.5401111 1.169585 1.5939023 0.76156133
000140 f4 a3 64 3f 97 35 b8 3f 18 09 ad 3f 2a af d1 3f
       0.8931267 1.4391354 1.35184 1.6381581
000150 be 3d 4c 3f fd f0 53 3f 78 f2 36 3f 1b f5 ad 3f
       0.7978171 0.82789594 0.7146373 1.3590425
000160 96 9e b2 3e c1 3e 22 3f b7 d0 80 3f de 71 64 3f
       0.34886616 0.63377005 1.0063695 0.8923625
000170 48 92 76 3f b8 77 61 3f ff 9d 7c 3f c0 3d 51 3f
       0.9631696 0.880733 0.9867858 0.8173485
000180 9c e2 17 3f f8 9a ab 3f 06 eb 8a 3f 7f 9a 74 3e
       0.59330153 1.3406668 1.0852973 0.2388706
000190 b3 84 9c 3f 62 48 6f 3f 6d 49 40 3f 3c c3 9e 3f
       1.2227997 0.9346982 0.7511204 1.2403331
0001a0 3d c9 ad 3f e3 d5 69 3f af e5 8b 3f 15 27 44 3f
       1.3577038 0.9134199 1.0929469 0.76622134
0001b0 c8 ec 82 3f 6b 13 9f 3f d6 dd 3f 3f 8d 46 71 3f
       1.022851 1.2427801 0.7494787 0.94248277
0001c0 89 43 95 3f 6a 37 1a 3f 0c 10 ec 3e 74 55 64 3f
       1.1661235 0.60240805 0.46105993 0.8919289
0001d0 46 2b ad 3f 2d b0 7d 3f 01 53 b9 3f 3d cb 8d 3f
       1.3528831 0.9909695 1.4478456 1.1077648
0001e0 02 49 83 3f db 58 28 3f a2 24 ca 3f 12 7e aa 3f
       1.0256655 0.6576058 1.579243 1.3319724
0001f0 35 4e 1d 3f 56 c1 a6 3f 4c 61 95 3f e7 4a af 3f
       0.6144746 1.3027751 1.1670318 1.3694733
000200 16 22 a2 3f ad 49 fb 3e 25 cb 91 3f 1c b4 66 3f
       1.2666652 0.49079648 1.139012 0.90118575
000210 2c 18 ba 3f 95 61 96 3f b8 75 6c 3f 96 84 ea 3f
       1.4538627 1.174853 0.92367125 1.8321712
000220 06 ee 5d 3f ca f4 89 3f 3a e2 cb 3f ad 45 97 3f
       0.8669132 1.0777829 1.5928414 1.1818138
000230 60 1d 7f 3f 30 4b 61 3f 09 57 76 3f eb 35 90 3f
       0.996542 0.8800535 0.96226555 1.1266454
000240 b0 2d 81 3f ff d6 90 3f 1c 9f cd 3f 5e 00 a0 3f
       1.0092068 1.1315612 1.6064181 1.2500112
000250 cf 79 1a 3f 8f bf 80 3f 15 19 6d 3f 86 9e 9c 3f
       0.60342115 1.0058459 0.926164 1.2235878
000260 ad 80 8b 3f f6 08 ec 3f ea 50 b9 3f 7d fa 94 3f
       1.0898644 1.8440235 1.4477818 1.1638943
000270 5f b5 4b 3f f3 1d 60 3f 39 1e 87 3f ea 13 b7 3f
       0.79573625 0.875457 1.0556098 1.4302952
000280 d6 e0 c6 3f dc 4f a5 3f 30 b5 59 3f c9 cd 51 3f
       1.5537364 1.2914996 0.85042095 0.8195463
000290 3c 40 5d 3f 18 46 b3 3f af bc 8a 3f c6 e2 5b 3f
       0.8642614 1.4005766 1.0838832 0.85892904
0002a0 eb 4a a8 3f 83 7f 85 3f 36 84 83 3f b1 d6 79 3f
       1.3147863 1.0429538 1.0274723 0.9759322
0002b0 58 89 78 3f 68 a8 ab 3f 37 ec 83 3f ce a9 86 3f
       0.9708457 1.3410769 1.0306462 1.052057
0002c0 65 a1 60 3f b8 b0 29 3f 3b 36 c9 3f 80 a4 be 3f
       0.8774627 0.66285276 1.5719675 1.4893951
0002d0 3f 49 b5 3f 85 66 65 3f ad e7 b6 3f 7c a2 64 3f
       1.4162978 0.8960956 1.4289452 0.8931043
0002e0 e3 7b 51 3f 9e a8 9c 3f 79 49 4a 3f e8 6f 94 3f
       0.8182966 1.2238958 0.7901836 1.1596651
0002f0 b2 99 53 3f 98 8d a4 3f e9 5b d1 3f 4d f1 9b 3f
       0.82656395 1.2855711 1.6356174 1.2183014
000300 70 7e 5c 3f 31 9c 91 3f 37 b7 c6 3f ea 0f 90 3f
       0.8613043 1.1375791 1.5524663 1.1254857
000310 3e c9 e3 3e a0 3d 0f 40 b7 40 91 3f 97 c0 5a 3f
       0.44489473 2.2381363 1.1347874 0.8545012
000320 0b 1d 35 3f 9b ea 93 3f c7 9e a6 3f 4b 9d 16 3f
       0.7074744 1.1555971 1.3017205 0.5883376
000330 68 42 55 3f da cc 48 3f a4 ba 79 3f 03 c5 90 3f
       0.8330445 0.7843758 0.97550416 1.1310123
000340 c3 2e 4b 3f c0 07 f6 3f e8 54 82 3f 6f 70 b7 3f
       0.7936823 1.9221115 1.0182161 1.4331187
000350 22 0b 84 3f 98 56 49 3f d3 31 03 3f 62 9a 3e 3f
       1.0315897 0.78647757 0.512479 0.7445432
000360 95 69 57 3f 63 f6 34 3f e4 04 c2 3f 51 91 9d 3f
       0.8414548 0.70688456 1.5157743 1.2309972
000370 27 9c 9f 3f 4b 91 82 3f 2f 06 52 3f 29 18 37 3f
       1.2469529 1.020059 0.82040685 0.7152124
000380 c4 b6 90 3f cd 54 a1 3f d6 b3 a7 3f 11 61 74 3f
       1.1305776 1.2604004 1.3101757 0.9546061
000390 8e 5f 7e 3f 8a 11 35 3f f7 ba 68 3f 91 6e a2 3f
       0.99364555 0.7072989 0.90910286 1.2689992
0003a0 ec 20 91 3f 71 34 7b 3f 02 19 a5 3f d9 a6 e3 3f
       1.1338172 0.98126894 1.2898257 1.7785293
0003b0 fb a2 9c 3f e2 aa 44 3f 16 1d 9b 3f 18 b1 70 3f
       1.2237238 0.76823246 1.2118251 0.94020224
0003c0 6c 45 0f 40 e0 f4 8b 3f b3 06 95 3f f1 b5 64 3f
       2.2386122 1.0934105 1.164267 0.8934012
0003d0 79 af 97 3f 33 0d 71 3f 85 23 2b 3f c7 60 5f 3f
       1.1850425 0.94160765 0.66851074 0.87257046
0003e0 bf b4 43 3f a1 b7 1b 3f 38 ae 6e 3f 2c 4b 4a 3f
       0.7644767 0.6082707 0.93234587 0.79020953
0003f0 2d cf 77 3f 5b 98 88 3f b2 2d 96 3f 60 af 0d 3f
       0.968005 1.0671495 1.1732695 0.55345726

net.2.bias f4 [256]
000000 49 39 1a 3f 02 30 55 3d 16 19 f8 3e 48 29 0d 3f
       0.6024366 0.052047737 0.4845664 0.55141115
000010 8c 00 c2 3e eb 7c d6 3e 37 24 62 3e b1 2c 0a 3f
       0.37891042 0.4189218 0.22084127 0.53974444
000020 c1 3a ba 3e 5e 14 09 3f c2 22 be 3e 09 cc fa 3d
       0.3637295 0.535467 0.37135893 0.12245948
000030 64 ad 91 3e b6 b9 fe 3e 55 39 84 be dc dc 1c 3f
       0.284526 0.4975106 -0.2582499 0.61274505
000040 4c 31 f1 3e ca 53 17 3e 5f 44 c3 3e 31 59 55 bd
       0.47107923 0.14778057 0.381381 -0.052087013
000050 cc f0 25 3e e7 c8 12 3f 1c 65 06 3e 15 db d3 3e
       0.16205138 0.573378 0.13124508 0.41378084
000060 8e ae 6d 3e 5c 03 9e 3e 22 87 c8 3d 10 b6 1b 3e
       0.23211119 0.30861938 0.097913995 0.1520617
000070 c6 74 49 3e fa 69 46 3f 78 52 ac 3e db 29 a8 3e
       0.19673452 0.7750546 0.3365667 0.32844433
000080 11 aa 8e 3e 92 13 b8 3e 30 9f 1a 3e 46 bd ac 3e
       0.27864125 0.3595243 0.15099788 0.33738154
000090 1b cc 0b 3f db 0d d8 3e 47 82 bf 3e b6 c7 db 3e
       0.54608315 0.4219807 0.3740408 0.42925805
0000a0 96 e6 0c 3e a2 34 1d bd 6e e5 7e 3e 5f 79 93 3e
       0.13759837 -0.038380273 0.24892208 0.28803536
0000b0 49 d7 6f 3f 07 5c 8a 3e d2 a1 b0 3e 56 7a b5 3e
       0.93687874 0.27023336 0.3449846 0.35444897
0000c0 8b 90 f7 3e 1e 7c bf 3d ae db fe 3e f9 8c b4 3e
       0.48352465 0.09349845 0.49776977 0.35263804
0000d0 0b 79 fb be 6b e9 dd be 18 97 31 3e 50 5c f7 3e
       -0.49115786 -0.43342146 0.17342794 0.48312616
0000e0 38 3d a2 3e 1c c5 25 3e 4e cf 17 be cb 29 7c 3e
       0.3168733 0.16188473 -0.14825174 0.24625318
0000f0 f4 ee 94 3e 4f b6 8f 3e 97 e6 67 3d 81 d7 0c 3f
       0.29088557 0.28068778 0.056616392 0.5501633
000100 ec 53 7b 3e 6f 30 2b 3f 38 d0 14 3f 0d 18 a2 3e
       0.24543732 0.6687078 0.58130217 0.31658974
000110 a5 47 1e 3f 88 97 39 3f 61 b4 03 3d 42 9f c4 3e
       0.6182807 0.72496843 0.032154445 0.38402754
000120 c8 b9 8d 3e 4f 00 5a 3e c7 97 02 3e 85 dd 8c 3e
       0.27680802 0.2128918 0.12753211 0.27512756
000130 02 ff f6 3e 5c bc 09 3f 85 e5 be 3e 7a 25 61 3e
       0.4824143 0.5380304 0.37284485 0.21986952
000140 43 96 d1 3e 8d f5 ef 3e 0b 6f e1 3e f7 25 63 3e
       0.40934953 0.46867028 0.44030032 0.22182451
000150 07 d8 d7 3e a4 7a 16 3f 47 e5 db 3e ff 62 21 3f
       0.42157003 0.58780885 0.42948362 0.6304168
000160 12 ad bf 3d f7 9e 87 3e f5 cc a8 3e 47 5a 95 3e
       0.093591824 0.26488468 0.3296887 0.2917044
000170 1f 80 dd 3d f8 53 b4 3e 8d 21 d7 3e d3 60 fd 3e
       0.10815453 0.35220313 0.42017785 0.49487934
000180 2e 07 9e bd 1d d2 af 3e c0 ab e0 3e 08 b3 8c 3e
       -0.07716213 0.3433999 0.43881035 0.2748034
000190 56 e9 c2 3e 86 2a c5 3e d3 28 15 3e 18 1a 05 3f
       0.38068646 0.38509005 0.14566354 0.5199294
0001a0 86 a0 fb 3e 10 24 fe 3e 47 95 d9 3e 82 77 15 3f
       0.49145907 0.49636889 0.42496702 0.5838548
0001b0 e4 a0 c3 3e 39 d1 44 3e 62 5e ae bc 61 c7 90 3e
       0.38208687 0.19220437 -0.02128524 0.28277114
0001c0 1b 6c c5 3e 95 20 c3 3e 17 28 a2 3e 6e e0 0d 3e
       0.3855904 0.38110796 0.3167121 0.13855144
0001d0 14 3a aa 3e b7 72 40 3e 43 46 c4 3e 8e 89 ed be
       0.33247435 0.1879376 0.38334855 -0.46394008
0001e0 31 e3 b9 3e 24 8e ae 3d f6 60 81 3d 2c be f6 3e
       0.36306146 0.08523205 0.06317322 0.48191965
0001f0 9d 32 c8 3e eb 86 c0 3d 1f 00 20 3f 93 8f 9f 3e
       0.39101115 0.094007336 0.62500185 0.31164226
000200 7d aa fa 3e ff fd 2f 3e d5 0f c5 3e 99 71 da 3e
       0.48958197 0.17186736 0.3848864 0.42664793
000210 1b 4d ea 3e 22 1b 09 3f 1e 17 f9 3e e8 4c ab 3e
       0.45761952 0.53557026 0.4865045 0.33457112
000220 94 bf b3 3e 59 2b 5c 3e 2f ca 1f 3f fc 00 06 3e
       0.351071 0.21500911 0.6241788 0.13086313
000230 48 b8 0d 3f ca af b9 3e b5 3e ab 3e db f9 5a 3e
       0.55359316 0.3626693 0.3344628 0.21384375
000240 7f ac bd 3e 2b cd a9 3c 9a 5c 3a bf 61 9b ab 3e
       0.37045667 0.020727715 -0.7279755 0.33516982
000250 b1 e0 11 3e b4 ed be 3e a3 b5 e1 bc 4e 47 9d bd
       0.14245869 0.37290728 -0.027552431 -0.07679616
000260 08 6f 1a 3e 8d 64 8a be 3d d6 80 3e ad f6 53 3e
       0.15081418 -0.2702984 0.2516345 0.20699568
000270 e3 17 2a bf 12 ca e2 3e d0 bf 92 3e 69 a5 f8 3e
       -0.664427 0.44294792 0.28661966 0.48563698
000280 40 67 16 bf 8c b4 76 3e b5 f2 8d 3e c0 a9 b1 3d
       -0.58751297 0.2409231 0.27724233 0.08674955
000290 61 ba 00 3f 8a 26 cb 3e 3e c8 ab 3e d2 20 bb 3e
       0.5028439 0.3967784 0.3355121 0.36548477
0002a0 a1 3e 91 be 60 22 b1 3e d2 cf e7 3e 0c 9c 29 3f
       -0.28368095 0.3459654 0.45275742 0.66253734
0002b0 6a 4b cc 3e ba b8 f9 3e 01 22 db 3e ca f3 83 3e
       0.39901286 0.48773748 0.4279938 0.25771934
0002c0 9a 1f 99 3e cc 9a a6 3e ba 4b 3d 3e a5 45 7c 3f
       0.29906923 0.32539976 0.18485919 0.9854377
0002d0 1b 9c 0d 3e dc 36 8e 3e 39 10 15 3f dc b7 9d 3e
       0.13829081 0.2777623 0.5822788 0.30804336
0002e0 30 82 26 3f 0c 1e d7 3e 27 0f 13 3e 72 9f 3e 3f
       0.650424 0.4201511 0.14361249 0.74462044
0002f0 e7 e4 50 3e 2e 3b b7 3e e2 73 d3 3e 93 b8 e5 3e
       0.2039982 0.35787338 0.4129935 0.4486738
000300 97 04 67 3d 2c e5 30 3e 02 b0 10 3f 9a fa 78 3e
       0.05640086 0.17274922 0.56518567 0.24314347
000310 c9 14 13 3e d8 49 52 be be a1 1d 3d 7e 5e 2d 3d
       0.14363398 -0.20535982 0.038484327 0.042326443
000320 f3 a4 ad 3e 9f 1c de 3e 8a f1 fc 3e ee 62 b0 3e
       0.3391491 0.4338121 0.4940303 0.34450477
000330 fa f7 ad 3e 4b 2c 95 3e f0 e1 81 3e 6f 74 e7 3e
       0.33978254 0.29135355 0.2536769 0.4520602
000340 a4 82 b1 3e af d4 a4 3e 17 ac f2 3e 23 84 9b 3e
       0.34669983 0.32193515 0.4739692 0.3037425
000350 71 4d 0f 3f 64 d5 c8 3e 91 de 9e be 4a 13 72 3e
       0.5597754 0.39225304 -0.3102918 0.2364017
000360 13 35 be 3e f0 71 58 3e 6e f4 19 be 4e 46 cc 3e
       0.37149867 0.21137214 -0.15034649 0.39897388
000370 83 a5 87 3e c1 a1 d1 3e e3 7e b1 3e 2a ed 74 3e
       0.26493463 0.4094372 0.3466712 0.23918596
000380 5b e1 04 3e b4 3a 08 3e 35 e9 a1 3e 0f af 53 3b
       0.12976591 0.13303643 0.31623235 0.0032300388
000390 4d 1c af 3e ad 08 11 be 21 ec 50 be 5a 2e f6 3e
       0.3420128 -0.14163466 -0.20402576 0.48082238
0003a0 3b fc 5b 3e eb 24 19 3e 84 e0 86 be db db 8c 3e
       0.21482937 0.1495549 -0.26343167 0.27511486
0003b0 f0 75 64 3f b4 a1 a9 3e a6 1a 0e 3f 2d 60 80 3e
       0.8924246 0.33131182 0.5550941 0.25073376
0003c0 be 9f 23 bf 52 6d b2 3e cd 50 c7 3e 48 7c 37 3e
       -0.6391562 0.3484903 0.38928834 0.17918503
0003d0 52 a9 b2 3d a5 9a d9 3d 5c f2 13 3e 84 0a 8a 3e
       0.087237015 0.10625199 0.14447922 0.26961148
0003e0 08 ee 89 bd 63 30 98 3e a1 14 c5 3e 22 85 7c 3e
       -0.06734854 0.29724416 0.384923 0.24660161
0003f0 9c 20 2c 3e 8f e8 b2 3e bd 9c 06 3f e4 74 cc bd
       0.16809314 0.34943053 0.52582914 -0.099832326

net.3.weight f4 [256, 256]
000000 57 a0 de 3e a8 be 05 be 6c b1 58 be 4e f0 b4 be
       0.43481705 -0.13061011 -0.21161431 -0.35339588
000010 15 e6 c3 3e a1 fa d4 be d6 60 1b be e2 ad e1 be
       0.38261476 -0.41597465 -0.15173659 -0.44077975
000020 3f d6 1b 3e b4 7f cd 3d 92 d4 16 3f d4 02 84 bd
       0.15218447 0.10034123 0.58918107 -0.06445852
000030 ec 0d b1 3c e5 97 9a bd b5 24 07 3e 9a 79 51 be
       0.021613084 -0.07548503 0.13197596 -0.20456544
000040 46 2b a1 3e a0 41 71 3f d2 9b 92 3e f0 a5 d2 bc
       0.31478328 0.9424076 0.28634506 -0.02571389
000050 e0 ff de 3d da ff 27 be 76 e3 85 be 64 22 93 bf
       0.10888648 -0.16406193 -0.261501 -1.149487
000060 6f 22 52 be 9e 24 be bd 62 ae 75 be 7c 1b d8 be
       -0.20520948 -0.09284328 -0.23992303 -0.4220847
000070 f8 df 66 bf eb 86 54 3e 03 9a 66 bd 76 97 c2 be
       -0.901855 0.20754592 -0.05629922 -0.3800618
000080 67 1d 83 be 58 f9 18 bd 00 4d 70 be dc 63 1b bf
       -0.2560837 -0.037347168 -0.23466873 -0.6069925
000090 83 50 21 bf fe 39 97 3e 00 ce d9 3d 91 5a 3b 3d
       -0.63013476 0.29536432 0.106349945 0.045740668
0000a0 a5 28 00 be b3 ea b4 3d e5 1d 6d 3f 3f 91 d4 be
       -0.12515505 0.08833828 0.9262374 -0.41517064
0000b0 33 73 70 3e 2d be 99 3d fd 2a b2 bd 89 e2 9c 3e
       0.23481445 0.07506976 -0.086996056 0.30641583
0000c0 46 d4 6d bf bc fe af 3d bf f4 b5 be cd 1d 27 be
       -0.9290203 0.085935086 -0.3553829 -0.16319962
0000d0 7c 14 58 3e 11 70 8c 3e 96 97 6e bf a6 be 7a be
       0.21101564 0.2742925 -0.9320005 -0.24486789
0000e0 a3 8c 41 3e 37 f2 02 be bc 9f a5 3d 2c 09 00 3f
       0.18901305 -0.1278771 0.080871075 0.50013995
0000f0 c5 43 38 be 88 bf 13 be 27 ef f3 3d c4 d2 76 be
       -0.17994602 -0.14428532 0.11910849 -0.24103838
000100 7b 2e 5b be 5b 72 cd bd 0d d9 b6 be 29 b5 d9 3d
       -0.2140445 -0.10031577 -0.35712472 0.10630257
000110 e1 cc d6 bd 1a 28 17 bf 92 28 96 be 49 d8 88 bf
       -0.10488296 -0.59045565 -0.29327828 -1.0691005
000120 fc 8a d3 3e 38 22 21 bf 20 d2 7b be 3e 77 ab be
       0.41316974 -0.6294284 -0.24591875 -0.33489412
000130 fc f4 55 bd b6 d7 48 be b2 30 8f bd 30 6c fd be
       -0.05223559 -0.19613537 -0.0699171 -0.49496603
000140 e5 9a 66 bf 58 dd 5a be 63 c9 8f 3e e9 0b db bd
       -0.900801 -0.21373498 0.28083333 -0.10695631
000150 62 83 19 bf 23 80 2b be 90 9d 4b 3e 64 ea cb 3d
       -0.599661 -0.16748099 0.19884324 0.09956816
000160 eb bc ac 3e 0e 2d 17 be 57 97 1c 3d 1d f3 92 be
       0.33737883 -0.14763281 0.038230266 -0.28701106
000170 6e f1 1f be 6e 80 30 bf 03 d4 9b bf 09 7e 71 3c
       -0.15619442 -0.6894597 -1.2174076 0.014739522
000180 d4 e5 31 be d7 51 a9 be 13 95 b9 be aa 75 06 bf
       -0.17372829 -0.3307025 -0.36246547 -0.5252329
000190 64 c6 2b bf 37 cc 63 be 99 bc a7 3e 70 06 28 be
       -0.67099595 -0.2224587 0.32761076 -0.16408706
0001a0 6a 5a 06 bf fa a8 98 be e4 cb fc bd c2 47 0c bf
       -0.5248171 -0.2981642 -0.123435766 -0.54796994
0001b0 23 42 8c be 23 2d 2a 3c 0d 9f 24 3d f7 59 83 be
       -0.27394208 0.010386738 0.040190745 -0.25654575
0001c0 22 15 b4 3e 7c 9d da 3e 23 25 c7 3e 5c 65 17 3f
       0.35172373 0.42698276 0.3889552 0.5913904
0001d0 3a 53 18 3e 6a e6 f6 be f9 3e da be 47 c4 87 3e
       0.14875498 -0.48222667 -0.4262617 0.26516935
0001e0 d8 ad 05 be b3 6c 8b bc 17 c7 36 3e 68 fc 33 3e
       -0.13054597 -0.017019605 0.17849384 0.17576754
0001f0 82 e3 ea bd 5f a8 ee 3e 69 ab fb be f4 79 3e 3e
       -0.11469175 0.46612832 -0.49154213 0.18601209
000200 c6 be 5b bf bc 19 a3 be 2c 11 96 bd 96 9b b3 3c
       -0.8583797 -0.3185557 -0.07327494 0.021924775
000210 1a d5 f3 3c 4c 9b 75 bf df 2a 6a 3e d8 58 0d 3e
       0.0297647 -0.9594009 0.22867917 0.13803422
000220 b2 9b ed bd 5e 97 c7 be cd 40 c7 bd c5 7d 18 be
       -0.11601962 -0.38982671 -0.09729157 -0.14891727
000230 ee e9 ef be 67 9c 5d 3e 72 d8 0e be e7 ab ce bc
       -0.46858162 0.21641694 -0.13949755 -0.025228454
000240 f7 7a 66 bf d6 d3 35 bf 95 f3 86 3e 57 7c 03 be
       -0.9003138 -0.7102636 0.26357713 -0.128404
000250 05 8b 60 3d 6f 46 c7 be a1 ec 66 3c de fb 16 3e
       0.05482008 -0.38920924 0.014094503 0.14744517
000260 2b f4 9f bd 6f a8 6d 3e 1e ce 95 bd 7c f1 e2 bd
       -0.07810243 0.23208784 -0.07314704 -0.11081216
000270 ba 0c f4 3d 29 13 35 be ee 43 24 bf 44 85 38 3d
       0.1191649 -0.1768309 -0.6416615 0.045048967
000280 fc c3 5f 3e 31 c0 c0 3d 48 ad f6 bc dc 76 36 bf
       0.21852106 0.094116576 -0.030111924 -0.71275115
000290 d0 dd c4 be 1c a6 1f bf 97 10 38 3e 4a cd 8f bc
       -0.3845048 -0.6236284 0.17975079 -0.017553944
0002a0 3e e0 03 be 68 f8 ae bd a5 25 89 bf 5c fb 38 be
       -0.1287851 -0.085434735 -1.0714613 -0.18064636
0002b0 26 09 c8 bb c6 74 22 bf 0b dd d3 3d 4f ab 72 3e
       -0.006104606 -0.6345943 0.10344895 0.23698162
0002c0 fd a5 a0 3d 23 8a ce 3d 29 e1 21 3f c6 35 5e bf
       0.0784416 0.10084941 0.6323419 -0.868008
0002d0 ff 44 d9 3d c6 07 12 bf f4 eb a9 be 65 3c b3 bd
       0.10608863 -0.5704311 -0.3318783 -0.08751754
0002e0 14 1d f7 be 61 0f 84 3e e6 d2 9d be b3 3e 42 be
       -0.48264372 0.25792983 -0.30824965 -0.1896923
0002f0 ba be e6 3d d3 73 58 3e aa 91 c7 bd 84 ba 33 bd
       0.11266847 0.21137933 -0.0974458 -0.043879047
000300 30 a9 0b bf 7d 7a de bc 4a 71 d6 bd e4 ba 4d be
       -0.54555035 -0.027158016 -0.10470827 -0.20090824
000310 64 8f b6 be 6d 02 9e bd c8 27 a1 bf 2f f3 e5 3d
       -0.35656273 -0.077153064 -1.2590265 0.11228024
000320 96 d4 37 bf b3 8e 2a bf 38 bb a3 be d5 b1 ce bf
       -0.71808755 -0.6662399 -0.31978774 -1.614802
000330 b3 c3 58 3f 45 e7 1d be 75 9c 5d bc 09 7f 83 be
       0.84673613 -0.15420254 -0.013526072 -0.25682858
000340 6c 3a ce 3e 7f 1e a6 3f fc b0 26 bf 76 e5 19 3e
       0.40278947 1.2978057 -0.65113807 0.15028939
000350 93 2a b8 3d 96 65 03 3d 70 5d 9e bc 50 80 83 be
       0.089924954 0.0320793 -0.019331664 -0.25683832
000360 9f 75 12 3e 4b 8a 04 bf 70 0c 07 3e f7 20 0e bf
       0.14302681 -0.5177352 0.13188338 -0.5551905
000370 db 84 ca bf 32 d7 2c be 52 20 87 be f4 dd 8e 3e
       -1.5821794 -0.16878965 -0.26391846 0.27903712
000380 89 bd be 3d dc fe f4 be b4 47 1c 3f 72 62 39 bf
       0.09313495 -0.47850692 0.6104691 -0.7241584
000390 bf 49 c5 3d fd be ad 3e a1 f2 30 3e f5 37 2d 3d
       0.096332066 0.33934775 0.17280056 0.042289693
0003a0 c3 0b 4d 3c 68 1c f7 3c fc 33 e3 3d 4f 1e ed 3d
       0.012515011 0.030164912 0.110938996 0.115780465
0003b0 7f 82 3c bf d2 7e b5 bd 9f 46 be bd e5 81 9b 3e
       -0.7363662 -0.0886208 -0.09290814 0.3037254
0003c0 6c c0 2f 3e bc 9b 45 be 22 64 05 3d 94 24 4b bf
       0.17163247 -0.19297689 0.032566197 -0.7935269
0003d0 69 e0 91 be 48 b5 7d be 43 09 92 be c8 49 1d bf
       -0.28491524 -0.24776185 -0.2852269 -0.61440706
0003e0 1f c3 8e 3d da ea 09 bf 7f 38 11 bf 20 2d 04 be
       0.0697081 -0.5387398 -0.5672683 -0.12907839
0003f0 59 78 a8 3d 38 89 27 3f 04 ee 17 be 8c 59 60 bf
       0.082260795 0.65443754 -0.1483689 -0.8763664

net.3.bias f4 [256]
000000 eb 9c 91 be 76 65 87 be b9 32 6e be 7f 01 9c be
       -0.2844003 -0.26444596 -0.23261537 -0.3046989
000010 0b c3 0a bf 1c 09 04 bf bc 6c 98 bd b0 00 d2 be
       -0.5420386 -0.515764 -0.074426144 -0.4101615
000020 50 d6 f6 be a4 14 b8 be a6 0f 4d bf e1 c6 d3 be
       -0.48210382 -0.35953248 -0.80102 -0.4136267
000030 3e 34 d6 be 76 8d e2 be 11 63 e0 be d0 4a bc be
       -0.41836733 -0.4424855 -0.43825582 -0.36775827
000040 67 b7 5a be 28 d7 2d bf bb 29 7b be 91 e5 ca be
       -0.21359025 -0.6790643 -0.24527638 -0.3962827
000050 64 d4 54 be a6 06 1c bf c9 24 f0 be 32 13 85 be
       -0.20784146 -0.60947645 -0.46903065 -0.25991207
000060 d8 6b ea be 30 61 fe bd e9 f7 1b be e8 c8 10 bf
       -0.45785403 -0.12420881 -0.15231289 -0.5655656
000070 a1 22 f8 be b1 40 f0 be 6e d0 74 be 56 d8 a5 be
       -0.4846392 -0.46924356 -0.23907635 -0.32391614
000080 ab 77 dd be 75 91 b5 be d7 6e 65 be 5a 38 0c bf
       -0.43255362 -0.35462537 -0.22405563 -0.54773486
000090 64 b3 88 be 8d d9 09 bf f0 0d d5 be 9b 90 0d bf
       -0.26699364 -0.5384758 -0.41612196 -0.55298775
0000a0 55 74 9b be da 86 f7 be e0 76 5f be 6b 82 f8 be
       -0.30362192 -0.4834507 -0.21822691 -0.48537
0000b0 67 f6 fa be 7c e2 84 be 33 e0 cb be 87 11 a5 be
       -0.49016115 -0.25954044 -0.39819488 -0.32239935
0000c0 55 8e 11 bf 9d 49 8c be 63 17 c4 be 33 24 ab be
       -0.56857806 -0.27399912 -0.38299093 -0.33426055
0000d0 93 16 c0 be 18 38 ba be 44 4c cd be 95 f8 12 bf
       -0.37517223 -0.3637092 -0.4009725 -0.57410556
0000e0 5a d4 b9 be 73 de 28 bf 49 a6 e6 be 04 95 9f be
       -0.36294824 -0.6596443 -0.4504874 -0.31168377
0000f0 31 9e 51 be 1a c7 ca be 33 24 9d be 0c 03 2d bd
       -0.20470501 -0.39605027 -0.3069168 -0.042239234
000100 bd f0 dd be 4a a7 23 bf 69 48 ae be 69 57 47 be
       -0.4334773 -0.6392714 -0.3403962 -0.19466938
000110 ff f9 1c bf 13 c6 f9 be e1 8d f6 be a3 ff 0f bf
       -0.61318964 -0.4878393 -0.4815512 -0.56249446
000120 4c 33 f6 be 9d 7c fa be af 4f 38 bf 50 0c 01 bf
       -0.4808601 -0.48923197 -0.7199659 -0.5040941
000130 ef 2a e8 be 54 2a ca be 7e 21 06 bf 69 01 75 be
       -0.45345256 -0.3948542 -0.52394855 -0.23926319
000140 05 07 ec be 48 d1 0b bf 58 2d 99 be 25 5a c5 be
       -0.46099105 -0.5461621 -0.29917407 -0.38545337
000150 5c 57 49 be 8c 59 f9 bc 07 c8 c1 be 36 7a b1 be
       -0.19662231 -0.030438207 -0.3784792 -0.34663552
000160 a2 c2 b4 3c 1d 2c 12 bf bb 68 b5 be 76 cf 02 bf
       0.022065464 -0.5709856 -0.35431466 -0.5109781
000170 25 b0 fd be 9a 23 8f be 88 c3 00 be 36 35 a2 bd
       -0.4954845 -0.2795685 -0.12574589 -0.079203054
000180 03 d2 99 be fc ee cb be af 9f 0c bf 4e 94 c6 bd
       -0.3004304 -0.39830768 -0.5493116 -0.096962556
000190 dc fd 12 bf 6e f4 04 bf 01 99 9e be d4 30 d5 be
       -0.5741861 -0.5193547 -0.30976108 -0.41638815
0001a0 f0 eb b9 be bb 54 68 bd 53 5e b0 be 9f 0e b6 be
       -0.3631282 -0.05672143 -0.34446964 -0.3555803
0001b0 6a 9d f5 be 20 43 03 bf f3 e8 14 bf 5c f5 0c bf
       -0.4797166 -0.512743 -0.5816795 -0.5506189
0001c0 04 27 00 bf 96 28 b0 be 7c 9f 1f bf 31 99 f9 be
       -0.50059533 -0.34405965 -0.6235273 -0.48749688
0001d0 57 6a a0 be 88 a3 87 be a4 da 85 be fc b7 1a bf
       -0.3133113 -0.26491952 -0.26143372 -0.6043699
0001e0 5a a8 bc be ac 69 ce be 93 e3 10 bf 91 ee ce be
       -0.36847192 -0.40314996 -0.5659725 -0.40416387
0001f0 8f e6 8b be bd b9 df be e3 5f fc be 1d 0a a5 be
       -0.2732434 -0.43696395 -0.49291906 -0.32234278
000200 49 8e d5 bd 43 f3 e0 be 9f e6 d1 be ff fd b0 be
       -0.10427529 -0.43935594 -0.40996262 -0.34568784
000210 44 41 d0 be 73 03 56 be 09 f2 00 bf 3e 2d 33 be
       -0.40674794 -0.20899753 -0.50369316 -0.17497727
000220 7f e1 a7 be e5 35 0a bf b9 de 2e bf 58 1f f4 be
       -0.32789227 -0.53988487 -0.683086 -0.47680163
000230 ba 6d a7 be 28 7d 94 be cb 3a 9a be d7 f2 f4 be
       -0.32700902 -0.29001737 -0.3012298 -0.47841522
000240 95 1e 8a be 7f 28 11 bf b8 a2 c8 be ae fb 14 bf
       -0.26976457 -0.5670242 -0.39186645 -0.5819653
000250 26 5f cb be 03 ab 01 bf 01 7b 4b be 20 fa d4 be
       -0.3972103 -0.5065157 -0.19871141 -0.4159708
000260 d6 01 09 bf 31 2c db be f5 e7 e5 be fc 3d 5b be
       -0.53518426 -0.42807153 -0.44903532 -0.21410364
000270 f9 90 bc be 50 90 b6 be f2 19 af be d3 fb 86 be
       -0.36829355 -0.35656977 -0.34199482 -0.26364002
000280 f0 58 c8 be 35 41 f1 be f1 5b 20 be 2a a9 23 be
       -0.39130354 -0.47120062 -0.15660073 -0.159825
000290 ea 7f 7b 3c 55 62 3c bf dd 78 dd be 07 93 61 be
       0.015350321 -0.7358754 -0.43256274 -0.22028743
0002a0 97 2c 93 be 68 b6 b7 be aa 12 19 bf 43 1c f0 be
       -0.28744957 -0.35881352 -0.59794104 -0.46896562
0002b0 5a da ea be 8b e0 b8 be 72 62 c3 be de 12 d2 be
       -0.45869714 -0.36108813 -0.38161045 -0.4103002
0002c0 9f 4c 89 be cc fd 9b be 9f e5 50 be 94 ac dd bd
       -0.2681627 -0.3046707 -0.20400093 -0.10823932
0002d0 25 b3 e0 be b5 5e 00 bf 2b 0f f4 be 2b 3a c8 be
       -0.43886676 -0.5014451 -0.47667822 -0.3910688
0002e0 e9 d4 bd bd 82 26 1b be 64 4f 5a be a3 18 bc be
       -0.09269125 -0.15151408 -0.21319348 -0.36737546
0002f0 c4 9e d0 be 25 20 c1 be 18 79 c1 be eb 33 38 bf
       -0.4074613 -0.37719837 -0.377877 -0.7195422
000300 32 ad 85 be fd 46 a9 be 0d c9 ab be d8 52 b7 bd
       -0.261087 -0.33061972 -0.33551827 -0.08951348
000310 66 ea e7 be 0e 08 8a be e8 2a d1 be 9d 25 26 bf
       -0.4529602 -0.2695927 -0.40853047 -0.64901143
000320 81 70 c1 be 8c d1 33 bf 57 db 90 be 5a ee 90 be
       -0.37781146 -0.7024162 -0.28292343 -0.28306848
000330 33 78 0d bf 79 d7 a5 be 2a 67 c7 be 00 65 b7 be
       -0.55261534 -0.32390955 -0.38945895 -0.35819244
000340 da 0b 8f be fc 74 0f bf 49 c0 b9 be 0d ff 9d be
       -0.2793873 -0.5603788 -0.36279514 -0.3085865
000350 e3 1e 05 bf dd 54 11 bf 17 4a b0 be df cd 0d bf
       -0.52000254 -0.56770116 -0.34431526 -0.5539226
000360 00 9a 00 3d 91 6a 08 bf 58 f0 6d bd 8b 5c b2 be
       0.031396866 -0.5328761 -0.058090538 -0.3483623
000370 62 9a e5 be f9 83 d6 be f6 ae a7 be 6d 27 86 bd
       -0.44844347 -0.41897562 -0.32750672 -0.065504886
000380 a9 d6 39 be 3c 66 85 3d b6 89 06 bf 12 e9 aa be
       -0.18148293 0.0651364 -0.5255388 -0.33380944
000390 b3 b0 dc be 8b 45 0a bf 91 2e ad bd f4 16 e6 be
       -0.4310356 -0.54012364 -0.084561475 -0.44939387
0003a0 85 21 0f bf 7b 5a c6 be d8 7f 04 bf 3b 51 1c bf
       -0.5591052 -0.38740906 -0.51757574 -0.6106145
0003b0 98 c5 06 bf e3 f0 b8 be af ce 01 bf 9e 01 b6 be
       -0.52645254 -0.36121282 -0.50706 -0.3554811
0003c0 d8 d5 29 be ae 31 d6 be e5 cd e4 be 89 b5 09 bf
       -0.16585481 -0.41834778 -0.44688335 -0.53792626
0003d0 6f 60 eb be 56 ce 61 be 16 16 76 be f7 f3 a7 be
       -0.4597201 -0.22051367 -0.24031863 -0.32803318
0003e0 c3 0b 88 be e7 34 00 bf aa 94 f8 be 97 2b 91 be
       -0.26571473 -0.5008072 -0.48550922 -0.2835357
0003f0 58 69 95 be 76 a4 1d bf 66 6f c8 be 8d 73 f9 bd
       -0.29181933 -0.6157907 -0.3914749 -0.12180243

net.5.weight f4 [256]
000000 3e c5 a5 40 d7 c3 ef 3f 04 0e 8f 40 38 5f 86 40
       5.1803274 1.873164 4.470461 4.1991234
000010 10 43 8e 40 c3 a6 de 40 0c 4d 21 41 e2 9a c8 40
       4.4456863 6.9578567 10.08131 6.2689066
000020 06 3d bc 40 33 92 b7 40 df 5f fe 40 7f 9b 96 40
       5.882449 5.7365966 7.949203 4.7064815
000030 b2 7e da 40 03 a8 f1 40 cf ef d3 40 e3 bb b0 40
       6.8279657 7.5517592 6.6230235 5.5229354
000040 e2 a3 68 40 8b 3f b9 40 b3 90 a0 40 86 c5 c6 40
       3.6350026 5.7890067 5.0176635 6.2116117
000050 ea 22 ae 40 2c 14 c5 40 b5 cf 34 40 bd 78 e6 40
       5.441762 6.1587124 2.8251774 7.2022386
000060 e0 92 95 40 80 d8 e7 3d 61 b0 d5 40 7e c5 cc 40
       4.674179 0.11320591 6.6777806 6.399108
000070 2e a3 99 40 49 49 c7 40 6f 97 b3 40 e2 63 e4 40
       4.8011694 6.227696 5.6122355 7.1371927
000080 fe 13 ba 40 ee 4b cf 40 be ee d2 3f 91 86 9e 40
       5.8149405 6.4780188 1.6479108 4.9539266
000090 74 a9 51 40 a6 e1 bc 40 71 21 cb 40 55 04 52 40
       3.2759676 5.902545 6.347832 3.2815144
0000a0 4d 3d b6 40 9c 66 f6 40 46 b2 a6 40 50 61 cb 40
       5.694983 7.7000256 5.209262 6.355629
0000b0 54 60 ee 40 55 bf c9 40 91 77 ea 40 c1 6b cc 40
       7.449259 6.304606 7.3270955 6.3881536
0000c0 aa 48 b4 40 bf 93 d1 3f 25 3e e2 40 28 3b c1 40
       5.63387 1.6373214 7.070086 6.038471
0000d0 00 d4 b6 40 da 02 dc 40 55 64 6c 40 3b b0 9d 40
       5.713379 6.875348 3.6936238 4.9277625
0000e0 01 00 84 40 b6 b3 cd 40 7e b2 8b 40 e9 ef c6 40
       4.1250005 6.4281874 4.3655386 6.216786
0000f0 b9 50 73 40 1b 31 ad 40 19 ef b3 40 eb 97 0d 41
       3.801802 5.4122443 5.6229367 8.849589
000100 5a b1 dc 40 61 48 d7 40 ed aa ce 40 e5 9a 04 41
       6.8966494 6.7275853 6.458365 8.287816
000110 11 77 a5 40 fa 60 a6 40 11 29 dd 40 df 56 a6 40
       5.1707845 5.199338 6.911263 5.1981044
000120 72 64 ca 40 d4 87 84 40 26 06 ab 40 09 99 e1 40
       6.3247614 4.1415806 5.3445005 7.049931
000130 12 fe dc 40 ed c2 4e 40 e3 0f 68 40 9b 5a 1c 40
       6.9060144 3.2306473 3.6259696 2.44303
000140 39 c5 46 40 10 a7 bb 40 51 d1 ae 40 c4 fc b5 40
       3.1057875 5.8641434 5.4630513 5.687105
000150 83 02 b4 3e a4 3b 3a 41 08 8f 40 40 5f 1f bf 40
       0.35158166 11.639561 3.00873 5.9725795
000160 69 5c 44 41 32 6d f8 40 b5 b6 75 40 5f d8 6c 40
       12.272561 7.7633295 3.8392766 3.7007062
000170 30 b9 82 40 be 41 a9 40 f5 44 8f 40 e1 81 9e 40
       4.085106 5.289275 4.4771676 4.9533544
000180 eb b4 85 3f c8 09 ee 40 b9 79 bb 40 5b 52 2a 40
       1.0445837 7.438694 5.8586087 2.6612766
000190 45 44 96 40 29 74 47 40 0e 8d bd 40 d9 17 cd 40
       4.6958337 3.1164649 5.9234686 6.409161
0001a0 ed e2 b8 40 96 e9 1d 40 b1 46 05 41 31 4d bd 40
       5.777701 2.467382 8.329759 5.915673
0001b0 48 c2 d9 40 32 4e a2 40 68 ad b0 40 a9 6e e7 40
       6.804966 5.0720453 5.5211678 7.2322583
0001c0 de f4 01 41 91 ee b0 40 bc b8 d9 40 c2 85 fa 40
       8.122282 5.529122 6.8038006 7.828828
0001d0 f3 36 e2 3f f2 5e 31 40 3f e7 67 40 32 ef e4 40
       1.7673019 2.77142 3.6234891 7.1541986
0001e0 85 3d e2 40 60 27 ad 40 25 28 b3 40 c1 88 e7 40
       7.0700097 5.4110565 5.5986505 7.2354436
0001f0 2d 43 01 40 bc 3f d0 40 e1 51 b7 40 96 ea dd 3f
       2.019725 6.50778 5.728745 1.7337215
000200 20 0f 53 40 e6 be b0 40 7b aa 9e 40 a9 c9 c8 40
       3.2977982 5.523303 4.9583106 6.2746167
000210 28 88 8e 40 9e 75 f7 3f 19 87 b6 40 2e fa b4 3f
       4.4541206 1.9332769 5.7039914 1.4138849
000220 f8 45 7f 40 7b 80 87 40 5a c7 a5 40 0b 97 e8 40
       3.9886456 4.2344337 5.180585 7.268438
000230 76 32 f9 40 d1 22 5f 40 f1 88 9a 40 94 fd de 40
       7.78741 3.4865 4.8292165 6.9684544
000240 23 a8 d3 40 9d 7a fa 40 88 16 cc 40 24 73 ca 40
       6.6142745 7.8274674 6.3777504 6.3265553
000250 f5 58 d5 40 00 98 b5 40 73 3d 92 40 f3 c5 e6 40
       6.667109 5.6748047 4.570001 7.2116637
000260 26 cc f8 40 07 ce c0 40 45 ac fb 40 82 ad a0 3f
       7.7749205 6.02515 7.864779 1.255295
000270 6e 1e 6a 40 45 99 cf 40 e1 f0 ab 40 f6 88 29 41
       3.6581073 6.4874597 5.373154 10.595938
000280 8f 21 bf 40 5c 05 bb 40 22 24 67 40 9d 77 3e 41
       5.9728465 5.844404 3.6115804 11.904202
000290 47 7f 4a 41 02 d4 e8 40 55 dd e7 40 7e 76 2a 40
       12.656074 7.27588 7.245768 2.6634822
0002a0 13 b7 8f 40 8c 40 be 40 c2 e3 8f 40 b3 26 b8 40
       4.491098 5.9453793 4.4965525 5.754724
0002b0 15 2f dc 40 76 98 35 40 10 30 c5 40 4b 5c e3 40
       6.8807473 2.8374305 6.162117 7.105016
0002c0 b4 f5 ea 3f bc 8a c6 40 aa 04 50 40 2b 41 2b 41
       1.8356233 6.2044353 3.2502847 10.70341
0002d0 6e ab e4 40 2c f9 76 40 53 4b db 40 80 da eb 40
       7.1459265 3.8589582 6.852945 7.3704224
0002e0 a0 a3 1d 41 77 5b da 40 40 c4 3b 40 50 ce d0 40
       9.8524475 6.823665 2.9338531 6.5251846
0002f0 9b bb f3 40 d4 6a f3 40 c5 ac ff 3f d2 8d d7 40
       7.616651 7.6067905 1.99746 6.736062
000300 ed 0c 51 40 7e b6 94 40 aa ac cf 40 ff 7a ba 3e
       3.266414 4.647277 6.489827 0.36421964
000310 0e ef e3 40 7c c3 b6 40 77 39 e4 40 cc 68 c5 40
       7.1229315 5.711363 7.1320148 6.1690426
000320 d3 ad 28 40 87 41 de 40 a7 16 12 40 25 72 df 40
       2.6356094 6.945499 2.2826326 6.9826837
000330 8c fa e2 40 a4 68 eb 3e a2 0b e5 40 10 f1 ba 40
       7.0930843 0.45978272 7.15767 5.8419266
000340 f1 c7 ef 40 c3 49 00 41 37 83 67 40 28 78 30 40
       7.493157 8.018008 3.6173837 2.7573338
000350 3f 8a b2 40 39 e9 b5 40 19 76 ff 40 cc 32 dd 40
       5.5793757 5.6847196 7.983166 6.912451
000360 60 a8 40 41 e3 58 d3 40 2b 55 dc 40 80 e4 c2 40
       12.041107 6.6046004 6.8853965 6.090393
000370 4b a5 02 41 0a c2 ce 40 2e 01 99 3f c5 ae 2d 40
       8.165355 6.4611864 1.1953485 2.713792
000380 5f 85 21 40 12 c2 41 41 3e 7c dc 40 f0 38 61 40
       2.5237653 12.10988 6.8901663 3.5191002
000390 d4 75 ab 40 94 c6 af 40 e8 b0 23 41 d4 20 cd 40
       5.3581333 5.4929905 10.23069 6.4102573
0003a0 15 ac f3 40 e1 26 a1 40 e8 fa a0 40 58 1e 8e 40
       7.614756 5.035996 5.030628 4.441204
0003b0 f0 ad c3 40 ed e6 d5 40 88 ef bd 40 6d 3e 44 40
       6.1149826 6.684439 5.9354897 3.0663102
0003c0 ac c3 a0 3f fa f8 84 40 80 3d fd 40 1c 09 a3 40
       1.2559714 4.1553926 7.9137573 5.094862
0003d0 ef 66 a8 40 ed 98 06 41 b7 fa 40 40 42 d6 a4 40
       5.262565 8.412335 3.0153024 5.1511545
0003e0 88 1c bf 40 75 03 e6 40 80 54 5f 40 60 2e 79 40
       5.972233 7.187922 3.4895325 3.8934555
0003f0 2d 05 d4 40 fa 8c 99 40 52 be e7 40 15 30 83 40
       6.625632 4.798459 7.2419825 4.0996194
