models_backup/level2_medium/checkpoint_ep350/adversary_0.pth (torch, 653410 bytes, 44 tensors)

network.0.weight f4 [128, 12]
000000 10 94 c3 bd 08 5e f9 3c 74 66 63 be f0 5d 7c 3e
       -0.09549725 0.030440345 -0.22207052 0.2464521
000010 69 02 1f 3e fa 4e 94 be 70 62 4b 3b 66 1f 7d 3e
       0.15528263 -0.28966504 0.0031034015 0.24719009
000020 ee 6c b0 bd dc d7 4e 3e 29 b0 0d 3e cc 81 85 3e
       -0.08614527 0.20199531 0.13836731 0.2607559
000030 86 36 19 3e 8a b8 ca bd f2 dc 03 3e 2a 97 2e bd
       0.14962205 -0.09898479 0.12877253 -0.04262463
000040 38 cc f2 3d b0 ed 36 bc fb 41 94 be f1 3b 85 3d
       0.11855358 -0.011165068 -0.2895659 0.065055735
000050 43 4c f0 3d 60 0a 1f be 2c 99 4d 3e 12 bb 72 bd
       0.11733296 -0.15531301 0.20077962 -0.059260435
000060 36 9d 41 be cf 7c dc bd 2d cf 64 bd 91 5c 56 3e
       -0.18907627 -0.10765993 -0.05586164 0.20933749
000070 12 30 4e be 1a 10 89 be 16 4e 19 bd 4d ac 9f be
       -0.20135525 -0.26770097 -0.037427984 -0.31186143
000080 1d 7c 1f bd f1 53 31 3d b3 7e 2b bd f7 7d a0 3e
       -0.038936723 0.043292943 -0.041868877 0.31346104
000090 d7 81 d7 3c 96 42 2b bd cb 40 9b be 2e 24 bf bd
       0.02630703 -0.04181155 -0.3032287 -0.093330726
0000a0 92 7b 31 3e ae 27 54 3e 7a d5 5c be 3d 06 99 3e
       0.17332295 0.20718262 -0.2156581 0.29887572
0000b0 70 c5 7b 3e c1 e4 0b 3e 49 54 96 bc df b7 99 3e
       0.24587035 0.13661481 -0.018350737 0.30023095
0000c0 09 b8 2c 3e d4 16 c7 3d c5 4e 75 3e d9 17 99 3e
       0.16867079 0.09721151 0.2395583 0.29901007
0000d0 ea 79 d9 bd 24 48 5c bb 3e 23 15 be 58 c7 9e bd
       -0.106189564 -0.0033612335 -0.14564225 -0.077528656
0000e0 79 4c 23 3e fe 94 d5 3c 6a e5 82 be fa 02 98 3e
       0.15947141 0.026072022 -0.25565654 0.2968977
0000f0 59 9f 98 3d f2 00 30 3d 4a b4 43 3e 9a ca 40 be
       0.07452268 0.04296965 0.19111744 -0.18827286
000100 0f 5d 15 be 6c 84 74 be 44 48 d4 bd ec df 01 3e
       -0.1458628 -0.2387864 -0.10365346 0.12683076
000110 0d 04 77 bd fe 66 09 3e b5 5e d7 bd a3 b5 5d 3e
       -0.060306598 0.13418195 -0.10516111 0.2165132
000120 4e 0e a3 bd 6d 23 0d 3d db e2 4e 3d a0 18 25 be
       -0.07961713 0.034457613 0.050509315 -0.16122675
000130 bc dc f5 3c a1 da 2e 3e 69 c6 e9 bd c3 14 eb bc
       0.03001248 0.17075588 -0.11414797 -0.028696423
000140 f2 f1 02 be da bf de 3d 52 d8 53 be 68 0e 90 3c
       -0.12787607 0.108764365 -0.20687988 0.017584994
000150 94 6e a9 3d 9a 63 85 3e 98 d8 1b be 0d f3 6a bd
       0.08273044 0.26052552 -0.15219343 -0.057360698
000160 6c 68 95 3d 27 d2 fc 3d c6 ea 02 be 21 84 91 3e
       0.072953075 0.12344771 -0.12784871 0.2842112
000170 93 ff 3a be 60 9f 97 3d bf 9a a0 3d f8 94 86 be
       -0.18261556 0.07403445 0.078420155 -0.2628553
000180 96 0f 1e be fd a2 3a be 4f 4e 42 3e 8d 33 9f 3e
       -0.15435633 -0.18226238 0.18975185 0.31094018
000190 a0 b5 29 be 78 fa 83 be 78 47 1d be bb c5 81 3e
       -0.1657319 -0.2577703 -0.15359294 0.2534617
0001a0 59 c1 eb bc af 7a 9d be 1e 56 d4 bd be a0 a8 3a
       -0.028778719 -0.30757663 -0.10367988 0.0012865288
0001b0 f4 16 c7 bd c8 8f 45 be d5 aa c9 bd d2 5a 97 be
       -0.09721175 -0.1929313 -0.09847037 -0.29561478
0001c0 c5 4a be 3d 41 3d fc bd 82 bd a1 3e a4 73 93 be
       0.09291605 -0.12316371 0.31589895 -0.28799164
0001d0 af 3d 80 3e 69 e4 82 3e d9 40 f3 bd 96 ea ea bd
       0.2504706 0.25564888 -0.11877603 -0.11470525
0001e0 50 a1 be 3d 9a 62 18 bd 1a e8 c8 bc 76 42 c1 3d
       0.09308112 -0.03720341 -0.024524737 0.094365045
0001f0 4c 2e 80 be 30 03 14 3e 3b 34 91 be 81 ea 85 bd
       -0.25035322 0.14454341 -0.2836016 -0.06538869
000200 0f 5a 35 bc f4 44 9a 3e d5 0d 88 be 29 fd f9 3c
       -0.011068835 0.30130732 -0.26573053 0.030516224
000210 30 42 70 bd db 93 80 3e 8b 3a 36 be 0c 79 81 3d
       -0.05865687 0.25112805 -0.1779577 0.06321916
000220 ce b8 42 bd ee b8 07 3e 5a c7 98 3e 82 06 a1 3d
       -0.047539525 0.13254139 0.29839593 0.078625694
000230 45 30 8c be a8 02 1b bd 00 0b 80 3e 38 4e 07 be
       -0.27380577 -0.03784433 0.25008392 -0.13213432
000240 68 55 39 3d 10 76 fd bc 72 0d 8f 3e d1 55 b7 bd
       0.045247465 -0.030940086 0.27939945 -0.08951915
000250 05 6f 9a bd a9 e6 67 be e1 28 69 be dd ba 84 3d
       -0.075407065 -0.22646584 -0.227695 0.06480954
000260 dd b8 60 be 6a 86 06 3e 01 15 69 3e 65 f3 ca bc
       -0.2194552 0.13137212 0.22761919 -0.024774263
000270 ce c8 9b be 2a 4b e2 3d 77 15 49 be e2 fd 77 3e
       -0.3042664 0.11049493 -0.19637094 0.24217942
000280 a1 bf 28 3e 0e 14 5c 3d c2 33 7d be 4d 3e 5e be
       0.1647935 0.053730063 -0.24726775 -0.21703453
000290 2d 40 25 be 57 3d 33 be d7 94 1a 3e 0b 85 e0 bd
       -0.16137762 -0.17503868 0.1509584 -0.10962876
0002a0 8b ed 1a be a2 4d 40 3d 31 d3 4e 3e 27 10 18 be
       -0.15129678 0.046949036 0.2019775 -0.14849912
0002b0 fa d7 93 be 92 2b 4a be ee 77 71 be f3 ea 56 bd
       -0.28875715 -0.19743183 -0.23580906 -0.05247016
0002c0 ed 31 da 3c a5 c9 33 3e dd dc 6e be 55 21 92 3e
       0.026635135 0.1755739 -0.2332644 0.28541055
0002d0 8e 12 37 3e 2f 08 7e 3b 5e e0 19 3e 3f d7 f2 bd
       0.17878172 0.0038762202 0.15026996 -0.11857461
0002e0 c3 09 9f 3e 60 8e f7 bc b3 03 3c be dd c7 8a bd
       0.31062135 -0.030219257 -0.18360786 -0.06776402
0002f0 29 e1 95 3e 67 33 35 3e f1 bb 2f be fb 63 1a bd
       0.29273346 0.1769539 -0.17161538 -0.037693005
000300 ef a0 2a bc 2b 05 19 be 3e c4 f1 bd 8e 13 91 bd
       -0.010414346 -0.14943378 -0.11805008 -0.07083808
000310 91 e5 c7 3d d9 eb 8b 3e d5 dd 02 bd 73 2c 73 3e
       0.09760583 0.27328375 -0.031949837 0.23747425
000320 84 8e 65 3e 15 bc 80 bd 2e 50 34 3e d9 e0 64 be
       0.22417647 -0.06285874 0.17608711 -0.22351398
000330 59 b9 1b 3e 2c ff 94 3d e3 d6 86 be 2d fb 81 be
       0.15207423 0.07275233 -0.2633582 -0.25386944
000340 29 95 8c be 22 2c 91 3e 37 ab 56 3d 78 5b 63 bd
       -0.2745755 0.28353983 0.052409377 -0.055507153
000350 15 08 1d 3e 25 43 69 be 4a 16 10 3a c3 de 08 3c
       0.15335114 -0.2277952 0.00054964854 0.008353892
000360 fc 68 08 be 7b 11 69 be c1 7c 35 be 24 03 3f be
       -0.13321298 -0.22760575 -0.17723371 -0.18653542
000370 fa b4 65 3e 34 15 26 3e 68 2f 91 3e 5d 42 2f 3e
       0.22432318 0.16219026 0.2835648 0.1711516
000380 ce fc 60 3d a7 d0 97 3d 81 0b 47 3e c2 16 66 3d
       0.054928593 0.07412844 0.19437982 0.056174047
000390 74 9d 7a 3e fa 99 4e 3e c9 48 23 be 87 86 3c be
       0.24474126 0.20175925 -0.15945734 -0.18410693
0003a0 c4 92 43 3e b7 7d 14 3e ad f6 5f 3e 78 81 4f 3e
       0.19098955 0.14501081 0.21871443 0.20264232
0003b0 31 a9 89 be c1 91 ee bd af 5a 8b 3e 4b 34 9d 3e
       -0.26886895 -0.11648894 0.27217624 0.3070396
0003c0 c4 c8 79 3e 88 ab 60 3e 55 f5 ae bd 93 7e 2d 3e
       0.24392992 0.21940434 -0.08542887 0.16942815
0003d0 95 22 4b 3d e9 71 92 3e 70 4d 8c 3e 03 93 42 be
       0.049593527 0.28602532 0.2740283 -0.19001393
0003e0 49 44 a0 3e f3 b4 4b be f7 4f ef bd a7 a7 80 3c
       0.31302097 -0.19893245 -0.11685174 0.015704943
0003f0 cb 53 a1 be d5 95 01 3b be 30 85 be 3b 50 ee bd
       -0.3150924 0.0019773145 -0.2601375 -0.116363965

network.0.bias f4 [128]
000000 f6 b4 64 3c cf a4 ee 3d 03 ca 40 be cf 19 7f be
       0.01395916 0.116525285 -0.18827061 -0.24912189
000010 e6 79 32 3d c5 92 5c 3e e7 11 8e 3e 3f f0 08 bd
       0.043573283 0.21540363 0.27748033 -0.03343224
000020 4e 5f 89 3e 5d 07 5c 3e 33 bc 88 bd 31 d3 3c be
       0.26830524 0.21487184 -0.06676521 -0.18439938
000030 23 9a 72 3e ad 64 6e be 30 e5 e2 3d 0e 21 90 be
       0.23691611 -0.23280592 0.1107887 -0.2815022
000040 49 1c 85 be 99 c1 97 bd 5c 75 85 be 77 c6 8d be
       -0.25998142 -0.07409973 -0.260661 -0.2769048
000050 e6 f6 e4 3d a3 3b 7f be 78 fa c7 3e d0 0f 29 3e
       0.11179905 -0.24925093 0.3905828 0.16509938
000060 d7 ae 9f 3d 1f e3 bd 3e 29 f4 45 3e fe b6 96 be
       0.0779702 0.37087342 0.19331421 -0.29436487
000070 5b 6f 6f bc 05 9c 88 3e 9b 5c ef bd 81 5f 9b 3e
       -0.014613952 0.26681533 -0.11687585 0.303463
000080 d3 c6 14 bd a6 75 c8 3e 98 41 27 3e 7b 9e 28 3e
       -0.036322426 0.3915226 0.16333616 0.16466706
000090 ac 08 2d 3d 3c b4 28 be 1c 1a 6a 3d ea de 8b be
       0.0422446 -0.16475004 0.057153806 -0.27318507
0000a0 42 9a dd 3c b1 cd b4 3e c3 7b 66 be af 1b ab be
       0.027051095 0.3531318 -0.22508149 -0.33419558
0000b0 36 5f 28 be f1 e9 50 3e 78 36 a1 3e 21 50 59 3d
       -0.1644257 0.20401742 0.3148687 0.053054933
0000c0 d2 e5 85 be c9 97 19 3e 6f a1 38 3e 2c ed 0f be
       -0.261519 0.14999308 0.18030332 -0.14055318
0000d0 23 fd 96 be 1f 04 03 3e c0 f8 62 be 36 71 b7 3e
       -0.29490003 0.12794541 -0.22165203 0.3582856
0000e0 f0 dd 7c 3e b9 7d 51 3e 8c 03 06 be 7c a4 fb bd
       0.24694037 0.20458116 -0.1308729 -0.12287232
0000f0 d6 1c 4d bd 31 12 df bb 30 3f 8a 3e 6b 60 da bd
       -0.05007633 -0.0068075885 0.27001333 -0.106629215
000100 33 12 22 3e 25 b6 7e bd e2 7b 70 3e 7d dc 8c 3d
       0.15827255 -0.062185425 0.23484758 0.06877992
000110 d4 c3 72 bd a4 d3 3b 3e 64 bf b7 3e 44 b1 0b 3e
       -0.059268788 0.18342453 0.35888207 0.1364184
000120 3d 7b c3 3e d2 35 32 3e 46 07 8f 3e 48 a0 11 bd
       0.3817996 0.17403343 0.27935237 -0.035553247
000130 96 40 a0 3e 7a ae 24 3e cd d8 42 be 3e 41 54 bc
       0.31299275 0.16082183 -0.19028015 -0.012955008
000140 e6 c8 8d be 1e 81 90 be cb 06 91 be 40 5c 8a 3e
       -0.27692336 -0.2822351 -0.28325495 0.27023506
000150 26 9e 81 be 33 df 42 3e e3 6c 97 3e c8 ce a1 3e
       -0.2531597 0.19030456 0.2957526 0.31603074
000160 95 95 45 be 32 f2 79 bd b9 09 de 3d 3c 88 74 be
       -0.19295342 -0.06102199 0.10841698 -0.23880094
000170 9b fb 85 be cc 43 c8 3d 62 67 75 3e eb e0 0a be
       -0.26168522 0.09778556 0.23965219 -0.13562362
000180 7d 6b 5a be 5d 39 83 bd 43 cc 57 3e b9 14 31 bd
       -0.21330066 -0.064074256 0.21074013 -0.043232653
000190 aa 79 ab bd 62 2f f4 3c b4 06 24 be 24 9f 31 3e
       -0.08372815 0.02980775 -0.16018182 0.17345864
0001a0 c1 8d 18 be e5 32 88 3e e7 3e 81 3d 3a d1 20 3d
       -0.14897825 0.2660133 0.06310826 0.039262034
0001b0 77 48 36 bd 75 dd b9 3e 12 d6 91 3e 65 55 07 3e
       -0.0445027 0.3630177 0.28483635 0.13216169
0001c0 ed 34 af 3e b9 2b 59 bd af ed 70 be 32 89 38 be
       0.34220067 -0.053020213 -0.23528169 -0.18021086
0001d0 74 64 79 be 81 cd 73 3e 47 8b 87 3e 23 43 f7 bd
       -0.24354726 0.23808862 0.26473448 -0.12073352
0001e0 48 ac 5e 3e 92 9c 63 be 75 63 a2 3e f6 8a a7 3c
       0.21745408 -0.22227696 0.31716505 0.020452004
0001f0 0c 27 c2 3e 4e fa 72 be f6 cf 84 3e 4f 89 1d 3c
       0.37920415 -0.23728296 0.25939912 0.009615256

network.2.weight f4 [128, 128]
000000 d2 9a aa bc 67 66 e6 3d 6f eb c2 3d cc 05 95 bd
       -0.020825777 0.112500004 0.09517562 -0.07276496
000010 ec 5c 30 3c e3 e6 09 3c 55 c4 66 3d 90 97 90 bd
       0.010764342 0.008416864 0.05633958 -0.07060158
000020 50 96 d6 bc 48 f1 18 bd e6 75 cc 3d 70 f3 e7 bc
       -0.026194721 -0.03733948 0.09983425 -0.028314322
000030 9d 99 23 3d 1d d2 79 3d 97 36 9a 3c 6a 10 a3 bd
       0.03994142 0.060991395 0.018824859 -0.07962115
000040 fb da b5 3d 98 ec b6 3d 35 93 68 3a 9a 80 07 bb
       0.08879658 0.089318454 0.0008872033 -0.0020676018
000050 08 d9 4f bd 91 36 ad 3d d7 a0 01 3e 1d 78 b4 3d
       -0.050744087 0.08457673 0.12659012 0.08811972
000060 32 2f ae 3d f6 cc 11 bd d0 ec d4 3d be 61 81 bd
       0.085050955 -0.035595857 0.10396731 -0.06317471
000070 27 e8 ad 3d 24 9c 56 bd 58 e2 d5 bb 23 bd 09 bd
       0.08491545 -0.052395 -0.0065272264 -0.03362764
000080 64 cc 3c bd ea 29 9c 3d cf 54 24 bd 56 91 f0 bc
       -0.04609336 0.07625182 -0.040119942 -0.029366177
000090 56 50 57 bc 70 72 9b 3d 01 3e 9c 3c 35 30 dc 3d
       -0.013141712 0.075901866 0.019072535 0.10751382
0000a0 c1 22 03 3d 07 27 83 bd 6e 88 cb 3c d1 dc 11 bc
       0.032015566 -0.06403928 0.024845328 -0.008902744
0000b0 ea ca 66 bd 9b 5d 03 3d 98 ca 04 3d f5 53 4c bd
       -0.056345858 0.03207169 0.03241977 -0.049884755
0000c0 83 2c e1 bc bd 51 92 bc cb cf b2 3c ba b7 21 3d
       -0.027487045 -0.017861241 0.021827599 0.039481856
0000d0 aa cd c4 bd 77 1b 0d bc 3f cb bf 3d 4d 56 bc 3d
       -0.0960954 -0.008612505 0.09364938 0.09196148
0000e0 87 e4 a2 3d ec d1 df 3d a0 31 fd 3d 4b 6c ac 3d
       0.079537444 0.10928711 0.12362981 0.08419093
0000f0 9b cf b1 3d c2 1b 3f bd 00 da 4d bd 9e 4c 0b bc
       0.08682176 -0.04665733 -0.05025673 -0.008502154
000100 ec 86 57 3d e5 d1 9d bc 12 12 9a bc 5a 8e db 3c
       0.052618906 -0.019265125 -0.018807445 0.026801277
000110 bb 39 6c 3d c9 dd 86 3c b2 8d f2 3c 21 7b d7 bb
       0.057672244 0.016463177 0.029608581 -0.0065759574
000120 13 ca e6 bc 3f 5a 84 3d 4b 11 35 bd af c7 90 3d
       -0.028172528 0.064625256 -0.044205945 0.070693366
000130 01 86 e9 3c c4 a8 be 3d 56 0e df 3d b4 cf 6a bd
       0.02850628 0.09309533 0.10891406 -0.057326987
000140 94 f7 eb 3a 59 2e 49 bc 3b 76 a3 bc 36 e2 7f bc
       0.0018002861 -0.012279117 -0.019953838 -0.015617898
000150 86 b8 a9 bc 28 78 85 3d 7b f9 b2 bc 23 35 16 3d
       -0.02071787 0.065170586 -0.021847477 0.03667177
000160 e5 16 4e bd 02 52 9a bd a8 71 e7 3d cc 18 9b 3d
       -0.050314803 -0.07535173 0.11300975 0.07573089
000170 1e b3 92 bd d4 8e 1b 3b c1 e9 a0 3d cb a6 32 bd
       -0.0716307 0.0023736255 0.07857085 -0.043616097
000180 47 23 61 3d 01 a9 22 bd 3f cb a7 bc 92 7f 2f bd
       0.054965284 -0.039711956 -0.020482657 -0.04284627
000190 70 15 34 bd 71 a6 97 3d 4f da 70 bd 28 c8 df 3d
       -0.043965757 0.07404793 -0.058801945 0.10926849
0001a0 0e 0e 2f 3d 23 ac b3 3d 51 4c 99 3c a9 fb 1d bc
       0.042738013 0.08773067 0.018713148 -0.00964252
0001b0 4f 27 2a 3d f6 cf 79 bb 93 ad 57 3c d6 9d 6a 3d
       0.041541394 -0.003811834 0.013163942 0.05727943
0001c0 88 d8 5f 3d 07 9d cf 3c eb a4 5f bd dc 8b a5 3d
       0.05464986 0.025343431 -0.054600637 0.08083317
0001d0 ee 93 bf 3d 1f 7f 57 bc b1 62 a0 3d 0d 67 38 bd
       0.09354387 -0.013152867 0.07831324 -0.045020152
0001e0 11 83 cd 3b 70 e9 32 bd c6 d9 a7 3d 25 49 78 3c
       0.006271728 -0.043679655 0.08195834 0.015154158
0001f0 19 4c 69 3b 5f 39 20 3d 5b d2 57 bd 29 f1 8c 3d
       0.0035598336 0.039117213 -0.052690845 0.06881935
000200 d6 9b ad bd 82 3c 92 bd f9 e9 83 3c ad 5a 2b 3d
       -0.08476989 -0.07140447 0.016102778 0.041834522
000210 1f 9d a2 bd 71 27 34 bd df e3 01 3d b0 39 95 bd
       -0.07940125 -0.043982927 0.031711455 -0.07286394
000220 75 3b 9f 3d 1d 63 3d 3d 2b 63 53 bc fe 06 51 3c
       0.077750124 0.0462371 -0.012902061 0.012758015
000230 dc 50 28 bd c2 f1 7e 3b dd 73 21 3d 28 6c 47 bd
       -0.04109274 0.0038901423 0.039417136 -0.04868713
000240 0f 56 33 3c 90 a2 ac 3d 3c 70 59 3b b8 d3 cb bd
       0.010945811 0.08429444 0.003317847 -0.099524915
000250 0e 3b 3c bd 99 30 96 bd 87 32 a0 3d 25 d1 1e 3d
       -0.045954756 -0.07333488 0.07822137 0.038773675
000260 9f 15 81 bd 9d 6d bb 3c 7e 19 dd bc 73 8b 98 bd
       -0.06302952 0.022879416 -0.026989695 -0.07448473
000270 ff e3 96 3d 0b c1 a4 bc d1 7b 8a bd 56 de 05 3c
       0.073677056 -0.020111581 -0.06761897 0.008170685
000280 fc e5 bc bd e3 4a 1d bd 3e dc 3b bc ae 59 24 bd
       -0.092235535 -0.038401496 -0.011466084 -0.040124588
000290 1b f5 b1 3c ec d4 1f bd 0b 35 a2 3c 8f 22 ee bc
       0.02172332 -0.039021417 0.019800683 -0.029069213
0002a0 28 69 22 3c cf 4f 85 bd e2 62 85 bd 65 6d 31 bd
       0.0099127665 -0.06509363 -0.06513001 -0.043317217
0002b0 55 0a cd bb 35 af df bc 14 80 b6 bd 0b 64 fa 3c
       -0.006257335 -0.027305225 -0.08911148 0.030565282
0002c0 39 54 32 3d b2 fd 95 3d 73 c3 71 3d 0a b9 e2 bc
       0.043537352 0.07323779 0.059024286 -0.027676124
0002d0 90 ec 83 bd 2d c5 17 bc 9c 73 08 3d be 5b f6 3c
       -0.06441605 -0.009263319 0.03331338 0.030073043
0002e0 92 23 e5 bc ba ac a2 bd cf 1a 9f 3d e6 b9 a6 3d
       -0.027971063 -0.07943101 0.07768785 0.08140926
0002f0 44 e7 93 bd 79 16 b9 3c be fd ad 3d 84 2d 96 bd
       -0.07221845 0.022593724 0.08495663 -0.073329
000300 ac e0 b3 bd 2c 60 a7 3d 23 d9 b0 3d 4b 9d 73 3d
       -0.08783087 0.0817264 0.086351655 0.05947618
000310 07 5a a2 3c 8e 73 a9 3d 7e 8a 94 bd 7d c7 4e bd
       0.019818319 0.082739934 -0.07252978 -0.050483216
000320 79 bd ad 3d 37 a8 ba bd 23 57 93 bd 10 4d b1 3d
       0.08483405 -0.09114116 -0.071943544 0.08657277
000330 0e 2f 3b bd 39 17 98 3d ff 60 97 3c b3 a4 8c bd
       -0.04569917 0.07426304 0.018478869 -0.068673514
000340 4e e0 30 3d cf c1 f0 3c 9f 69 91 3d 8c 59 9f 3d
       0.043182664 0.02938929 0.07100224 0.077807516
000350 27 b2 51 bc 90 79 a3 bd 1c fc 2d 3d 15 78 77 bc
       -0.0127988225 -0.079821706 0.04247676 -0.015104313
000360 19 a1 17 3d 3c 0c 8d bb 47 fa 78 bd 0a 21 19 bc
       0.03701887 -0.004304437 -0.060785558 -0.009346256
000370 8a 1d ab bc a3 90 58 bc c1 f5 96 3c d9 49 c1 bd
       -0.020888109 -0.013218078 0.018427731 -0.094379134
000380 36 aa 84 bd d4 78 2a bd 8f 47 9d 3d 1a 16 b2 3c
       -0.06477778 -0.041619137 0.07679664 0.021739054
000390 c0 95 71 bc 87 9d ff 3c 21 e0 35 bd 07 7b 88 bc
       -0.014745176 0.031203045 -0.0444032 -0.016660227
0003a0 c6 fd a8 bd 2e 84 27 bd d5 28 46 3d 95 76 3a bb
       -0.082515284 -0.04089754 0.048378784 -0.0028452028
0003b0 82 5a 41 3d 78 1b 8c bd 53 c9 03 3d 4c 67 1b bd
       0.047205456 -0.06841177 0.03217442 -0.03794031
0003c0 d9 a7 0f bd 44 15 84 bd 69 8d 98 3b 5a 98 97 3d
       -0.03507218 -0.064493686 0.0046555293 0.07402106
0003d0 bc ed ef 3c 68 d7 e4 bc 86 cb 2c 3c 05 1e 9c bd
       0.029288165 -0.027934745 0.010546571 -0.07622913
0003e0 37 2d 40 bc d7 e8 33 3d 05 87 38 3d 1b 1c 87 bd
       -0.01172953 0.043923225 0.04505064 -0.065971576
0003f0 02 75 a9 3d 95 0b 2b 3d 9a 0b 33 bd a7 e0 c0 bc
       0.082742706 0.041759092 -0.043712236 -0.023544623

network.2.bias f4 [128]
000000 78 ab dd 3b 78 bf a7 bd b6 87 88 3d a5 89 1c 3c
       0.0067648254 -0.08190817 0.0666651 0.009554301
000010 9c 72 2a bd 10 db 81 3d 12 0f 71 bb 27 a6 ed 3d
       -0.041613206 0.06340611 -0.0036782664 0.11603957
000020 1f 4f 3b 3c 4b bb 22 bb 48 ab bd bc ff 9a 27 bd
       0.011432438 -0.0024830874 -0.023152962 -0.0409193
000030 08 26 b9 3c 88 ea 3d 3d 0d 1a d7 bc bd e1 f3 3d
       0.022601143 0.046366245 -0.02625754 0.119082905
000040 89 c3 a3 3a 6d 57 82 bc 3e 19 a0 3d 44 fd 2d 3d
       0.0012494187 -0.015910828 0.078173146 0.04247786
000050 39 b4 2a bd 6f 4c 4d 3d f5 87 5b bc b7 58 fd bc
       -0.04167578 0.05012172 -0.013399114 -0.030926092
000060 2d b1 a0 3c aa 4e bd 3d 9b 4a ac 3d 0e f8 3d 3d
       0.019615734 0.092435196 0.08412667 0.04637914
000070 99 ca 98 3d 62 9e 3c bd 7a e8 0d bc 49 9c 16 bd
       0.074605174 -0.046049483 -0.008661384 -0.03677014
000080 0b 68 37 bd e1 d9 a8 bd f5 ef 58 3d ba e9 7c 3d
       -0.044776957 -0.08244682 0.052963216 0.061746337
000090 e5 94 4c bd d7 00 c0 bc 6c 75 6a 3b 73 c1 f7 bc
       -0.049946684 -0.0234379 0.0035775555 -0.030243611
0000a0 78 33 56 3c e4 59 80 bd 67 17 a5 3d e5 39 a9 3d
       0.013073795 -0.06267145 0.08061104 0.08262996
0000b0 ae 70 1b bd 58 69 8d 3c 20 81 84 3b de 96 ba 3d
       -0.037949257 0.017262146 0.004043713 0.09110807
0000c0 f4 34 00 bb 7a e7 25 3d 4b 11 77 3d 2d 7f 0f bd
       -0.0019562813 0.040503956 0.060319226 -0.035033394
0000d0 00 7f 48 3d ae f6 c2 3d c4 51 db 3d c4 e8 fe 3c
       0.04894924 0.09519707 0.10708955 0.03111685
0000e0 26 64 5a 3d 46 03 ab 3d 24 f5 95 3d 31 51 15 bd
       0.053318165 0.08350234 0.073221475 -0.036454383
0000f0 27 7d aa bc b7 02 4a bd f0 e5 19 bd 09 ec 23 3d
       -0.02081163 -0.049318995 -0.0375728 0.040020023
000100 e1 08 26 bc 2c 0f 7e 3d 94 9a c0 3d 7c ba 2c bd
       -0.010133953 0.062026188 0.094044834 -0.042170033
000110 24 e5 88 3d 78 55 c3 3d 0f eb aa 3d 95 d3 ca 3d
       0.0668433 0.09537786 0.08345615 0.09903637
000120 60 6c 3f 3d f8 b2 83 bd 16 e5 a0 3d 54 bd 4c 3d
       0.046734214 -0.0643062 0.07856195 0.049985245
000130 4c a1 07 bd 5a ad 03 3c 4a 34 aa 3d 4a 0f 41 3d
       -0.03311281 0.008036936 0.083107546 0.04713372
000140 54 34 66 3c cb fd 6e bc d2 69 20 3d 19 ba 2b bd
       0.014050562 -0.014586876 0.039163418 -0.041925523
000150 ff 48 ed 3d 3b 6f e6 3c 25 93 6f 3d d3 e4 89 3d
       0.115861885 0.02812921 0.058489937 0.06733098
000160 30 5b 64 3d 22 ee 19 bd ef 75 41 3d ac 6e d7 3d
       0.055751026 -0.037580617 0.04723161 0.10519156
000170 96 45 ee 3d 83 bd f6 bc cf 15 d4 3d f3 db b3 3d
       0.11634366 -0.030119663 0.10355722 0.08782186
000180 46 f1 a6 bd af bc 87 3d 35 9f d0 3d aa 0c 83 bc
       -0.08151488 0.066277854 0.10186616 -0.01599725
000190 8a ff 9f 3c 03 e4 2c 3d 88 01 70 3c 04 b6 98 bd
       0.01953103 0.042209636 0.014648803 -0.07456592
0001a0 2a 4c 2e 3c 03 51 1f bd 64 77 12 bd a9 a0 b6 3d
       0.010638276 -0.03889562 -0.03575839 0.08917362
0001b0 06 d8 cc 3d 24 66 4b bc de 0c 2f bd 50 17 a5 3d
       0.10002141 -0.012414489 -0.04273688 0.08061087
0001c0 65 48 8b bd 7f 6a ff bc 60 08 8d 3c 6e 79 16 bc
       -0.068009175 -0.031178711 0.017215908 -0.0091842245
0001d0 db b5 ce bc 6e 77 57 bd 3c 8c ca bc dd 86 c9 3c
       -0.0252332 -0.05260413 -0.024725072 0.02460044
0001e0 1b 02 c7 3b 9a 1b d9 bc e0 bc 1d bd 87 0e 5c 3c
       0.006073249 -0.02650242 -0.038510203 0.013431198
0001f0 82 e6 ea 3d c3 5c 98 bc 73 fc 2a 3d 7d 73 3e bc
       0.11469747 -0.01859892 0.04174466 -0.011624214

network.4.weight f4 [5, 128]
000000 f3 e3 85 3d 86 4a 23 3c 5a d3 49 3d 8d 5e a7 bc
       0.065376185 0.009966498 0.049273826 -0.020430828
000010 d2 88 75 3d 3e 9d a4 3d 4c 1e e9 3d 34 bf 3e 3a
       0.059944935 0.08037804 0.11382732 0.0007276416
000020 4a b8 a0 3c a2 56 5a bc f1 8f f0 3d 90 97 63 3c
       0.019619126 -0.013326319 0.11746205 0.013891116
000030 8c f5 d6 3d e6 30 c0 3d 26 8d 93 3d 15 0b 48 3d
       0.10496053 0.09384327 0.07204656 0.048838694
000040 94 fb 66 bc 41 1b 93 bc a7 34 00 3e 23 86 90 bb
       -0.014098067 -0.017957332 0.12520085 -0.0044105216
000050 26 59 f6 3d 54 93 51 3d b9 b2 d5 3d 39 3e 29 bd
       0.120287225 0.051165894 0.10434479 -0.041319106
000060 7b 6d a7 3d c2 43 da 3d e2 25 e0 3d 8e 01 28 bd
       0.081751786 0.10657455 0.109447256 -0.041017108
000070 48 d7 d8 3d 30 87 8c bd 25 dc d1 3c 51 9d 68 3d
       0.10587937 -0.068617225 0.025617668 0.056790654
000080 ce b9 3f 3d c9 eb 0b bb 6e cd 9a bd 39 43 43 3d
       0.046808057 -0.0021350256 -0.07558714 0.04767153
000090 09 be 78 bb 6b 3c f0 3d 85 6d 80 bd f7 77 64 3d
       -0.0037955067 0.11730274 -0.06270889 0.05577847
0000a0 06 be 2f bd be ce bd bc 54 88 8b 3d 0e 5d 16 3d
       -0.04290583 -0.023169871 0.06813112 0.036709838
0000b0 a3 8b ad bc 73 ff 8d bc 48 f4 0d bc e1 f5 bf bc
       -0.021184748 -0.017333722 -0.008664198 -0.023432674
0000c0 6f c7 d2 3d 02 c1 be bc b8 95 d6 3c 53 8c 1e bd
       0.10291945 -0.023285393 0.026194438 -0.038708042
0000d0 9d f5 a6 3d 2b 28 8a bc 04 8c e7 3d 2c b7 7d 3c
       0.08152316 -0.016864857 0.11306003 0.015485566
0000e0 f5 aa b8 3d 0f d1 93 3d c5 49 e4 3d 76 dd d2 3d
       0.090169825 0.07217609 0.11146883 0.102961466
0000f0 0e 00 b3 3d 2e e0 2d 3d 2c 8e 7c bd 91 27 56 3d
       0.08740245 0.042450123 -0.061659023 0.052283827
000100 b7 22 bb 3c 69 0e 52 bc 98 7f 73 3d 78 d9 80 bd
       0.022843702 -0.012820818 0.059447855 -0.06291479
000110 8c 9e 7b 3d f2 7b d8 3d 05 a4 be 3d 72 0e b6 3d
       0.0614305 0.10570516 0.09308628 0.08889474
000120 83 b9 d4 3c e8 f9 d9 bc 0c ce a6 3d f1 a6 0d bd
       0.025967365 -0.026608422 0.08144769 -0.034583036
000130 67 d0 6b 3d 81 1c 76 bd 27 4c 97 3d f3 2c 69 3d
       0.057571795 -0.060085777 0.07387572 0.056927633
000140 26 03 3a 3d 53 cb 34 bc 8f 88 ae 3d 43 be f7 bc
       0.04541316 -0.011034804 0.0852214 -0.030242091
000150 e8 a5 2a 3d bc 7e ea 3d df 2d 0f bb da 55 90 3d
       0.041662127 0.11449954 -0.002184741 0.07047625
000160 0a 7c 26 bd 86 89 c9 bc 5b e5 d3 3d e6 37 4f 3d
       -0.040645637 -0.02460171 0.103464805 0.05059042
000170 c4 31 e6 3d 2e 30 c5 3d 69 f8 23 bd e4 7b d0 3d
       0.11239961 0.0962833 -0.040031824 0.1017988
000180 f1 8c 9e bd 17 fb 5a 3a 82 f9 eb 3d b1 d5 a4 bd
       -0.07741726 0.00083534553 0.11522199 -0.08048571
000190 8e 1d 0f 3d 56 9a 8a 3d 68 c4 49 3b be 2e d5 bc
       0.034940295 0.067677185 0.0030787233 -0.026023265
0001a0 74 36 65 bd 41 7b db bc f1 8c 1b bd c6 92 5c bd
       -0.055960134 -0.02679217 -0.03797621 -0.05385091
0001b0 86 f1 a2 3d 9e 5a c5 3d 76 a2 64 bc f6 b8 dc 3d
       0.07956223 0.096364245 -0.013954749 0.10777466
0001c0 ce 29 09 bd e1 99 8a bd ff bc a0 3d e7 fa ab 3d
       -0.033487134 -0.06767631 0.07848548 0.08397465
0001d0 5e 5e 59 3d 13 25 95 bd 65 1b 8c bd 8d a1 20 3d
       0.05306851 -0.07282462 -0.068411626 0.039216567
0001e0 f7 7c 07 3e 62 02 a9 bc fc f5 5c ba 58 b7 e5 3b
       0.13231264 -0.020631019 -0.00084289885 0.0070103817
0001f0 f2 4b b0 3d 83 4a 7c bd 53 7a 32 3d 5b 3b 24 3d
       0.086082354 -0.061594497 0.04357369 0.04009567
000200 a2 e6 f0 bc 13 c8 c6 3d 0b 8b a0 3d ab 65 9c 3c
       -0.02940685 0.0970613 0.0783902 0.019091448
000210 09 ca 3f 3d 45 23 21 bd 5c 1e d9 bb ac 09 71 3d
       0.046823535 -0.039340276 -0.0066259336 0.058847114
000220 fd 23 2f 3b fd db 45 3d 9f d9 8b 3c f8 b1 06 bc
       0.0026724332 0.0483055 0.017071543 -0.008221142
000230 50 88 0d bd df 73 04 3d 9c 7a f6 3b 12 1a bf 3d
       -0.034553826 0.032337066 0.0075219404 0.093311444
000240 95 05 b6 3d 6f 99 2c bc 58 eb 49 3d 3b 63 ef 3d
       0.088877834 -0.010534628 0.049296707 0.116888486
000250 40 4c 4d 3d 1e bd 88 bc 73 d0 ff 3b 7b c8 2d bd
       0.050121546 -0.01669174 0.0078068315 -0.04242752
000260 26 5a 42 bc ab a1 e1 bc 23 6e fa 39 b2 cd d2 3d
       -0.011862313 -0.02754291 0.00047765774 0.102931395
000270 7c cb eb 3c 0a 61 ba bd e5 a1 b1 bd 14 de 99 3d
       0.028783552 -0.0910054 -0.08673457 0.07513061
000280 13 b4 8c bd 6f 9f a6 3d 60 b7 5b 3d 76 f0 27 3d
       -0.06870284 0.08135878 0.053641677 0.041000806
000290 0e 79 94 bd eb 96 45 3d 76 8e 68 bd ce c1 b7 bd
       -0.07249652 0.04823963 -0.056776486 -0.08972512
0002a0 f5 fe f3 3d f0 72 c7 bd a4 01 80 3d 6d e1 ae bc
       0.119138636 -0.097387195 0.06250313 -0.021347726
0002b0 4d 46 ee bc e5 00 c4 3b f0 d2 fe 3b d6 5d ca 3d
       -0.029086256 0.005981552 0.0077766106 0.09881179
0002c0 ac 2a 88 3d 3e 03 36 bd d5 7a d2 3b 64 63 85 bd
       0.06648764 -0.044436686 0.006423334 -0.06513098
0002d0 ab 8d 21 3c 39 ce ba 3d 6b 62 93 3b 9c 93 70 3d
       0.009860436 0.09121365 0.0044978163 0.05873452
0002e0 08 cb 4c 3d a5 73 05 3c a0 76 e8 3d 09 e9 e5 3d
       0.049998313 0.008145248 0.11350751 0.112260886
0002f0 73 e3 90 3d ad 1a d5 3c c4 7a 81 39 1c fa 95 bc
       0.070746325 0.026013697 0.00024696265 -0.018307738
000300 6f d9 bd b9 4c 7e 5a bd 2d 4c c3 3d 13 64 00 3c
       -0.0003621089 -0.053343102 0.09536014 0.00783636
000310 03 cb 6d bd 24 5e b5 3d a1 61 79 ba 6a c0 10 3d
       -0.058054935 0.088558465 -0.0009513144 0.03533975
000320 83 27 96 bc 38 9c 6c 3c ef f8 aa 3d f5 7a 17 bb
       -0.018329388 0.014441542 0.083482616 -0.002311406
000330 72 d6 d2 3d 4d 22 95 bd d7 ae fa bc 90 a8 ff 3c
       0.102948084 -0.07281933 -0.030600948 0.031208307
000340 1a 35 ed 3c 09 1b bb b8 3e bb 54 3d 63 61 29 bd
       0.028955985 -8.9218905e-05 0.05193638 -0.04135264
000350 fb 7e 83 bc a3 98 7e bd 23 75 ad 3c 33 bd 7d 3d
       -0.01605176 -0.062157284 0.02117402 0.061948013
000360 33 12 2f bd 8d f2 90 3d bb 14 1a bd 12 1b f6 3b
       -0.042741966 0.07077513 -0.037617426 0.0075105513
000370 17 b9 88 bd f9 2a 78 3d 0c fa 2f 3d bf 1d 33 bd
       -0.06675928 0.060587857 0.042963073 -0.04372954
000380 b1 86 34 bd db d7 a0 3d 79 ca ce 3d a3 e3 0d 3d
       -0.044073764 0.07853671 0.10097212 0.03464092
000390 15 7f 89 bb 53 28 39 3d ad 44 46 bb 95 52 75 3c
       -0.0041960576 0.04520447 -0.0030253336 0.014973302
0003a0 2b ae a4 3d 0f 33 cc 3d fe 97 a1 bd 07 4a 9b 3d
       0.080410324 0.09970676 -0.07890318 0.07582479
0003b0 df 99 6c 3b 49 ed f7 ba f5 6d b4 3d 5a 6a 15 bd
       0.0036102457 -0.0018915321 0.08810035 -0.036478378
0003c0 d8 fe fd bc 65 19 21 bd 24 46 5f 3d ed b7 cf 3d
       -0.031005308 -0.03933086 0.05451025 0.10142503
0003d0 a3 66 b6 3d b6 c7 80 3d 5b 6c 6e bc 61 f7 8e 3d
       0.08906295 0.06288092 -0.014552201 0.069807775
0003e0 04 2f 93 3d 56 4e 17 bd ea 39 c4 3d ff 14 c2 3d
       0.07186702 -0.03693994 0.09581359 0.09476661
0003f0 4e 11 30 3d 72 76 54 3c 7e 16 12 3d 65 46 5a bd
       0.042985253 0.012967693 0.03566598 -0.05328979

network.4.bias f4 [5]
000000 11 ed 28 bc a3 e9 7e bd c8 3b dc bc 7c 8b 7b 39
       -0.010310427 -0.062234532 -0.026883975 0.00023989187
000010 1c 43 7b 3c
       0.015335824

network.0.weight f4 [128, 32]
000000 7d a5 ef bb 52 65 0a bd b0 83 75 be e8 ae 44 3c
       -0.007313429 -0.033788033 -0.23976016 0.0120045915
000010 f1 bb fe bd b8 25 26 3e 21 70 12 3e f7 de dc 3d
       -0.12438191 0.16225326 0.14300586 0.10784715
000020 6b 8b 7b 3d 35 e8 91 bd e0 78 8b 3d fb cd 14 3d
       0.061412256 -0.07124368 0.068101645 0.03632925
000030 cd 45 b5 bd 7d 2e 2c be 37 41 5b be 1f 4b 44 bd
       -0.08851204 -0.16814609 -0.21411596 -0.047923204
000040 df 37 8f 3c 64 fa e2 3c cc 23 ab 3d 3e b0 36 be
       0.017482696 0.027707286 0.08356437 -0.17840669
000050 e9 06 c7 bd 99 54 b5 bd 7a 1b fe 3c 2d a6 23 3d
       -0.09718115 -0.08854026 0.031018961 0.0399534
000060 69 83 c4 3d f6 88 0a bb c1 f9 e3 3d 2c b2 47 bc
       0.09595377 -0.0021138764 0.11131621 -0.012188476
000070 42 52 ea 3d 19 ce 38 3e 5d 88 fd bd d9 5d 5d 3e
       0.11441471 0.1804737 -0.12379525 0.21617831
000080 b0 45 54 bd 92 5b 4d 3c 72 8e 4b be c5 71 8e 3c
       -0.05182427 0.012534039 -0.19878557 0.017388234
000090 16 03 7d bd b3 05 4b be c2 e2 34 3e 08 50 03 3d
       -0.06177052 -0.19826393 0.17664626 0.032058746
0000a0 0c 33 0c 3d 91 a5 de 3d 9e 07 0b be bb 51 d9 bd
       0.03422837 0.10871423 -0.13577124 -0.10611292
0000b0 aa f9 ce 3d 89 7c cd bd 00 0c 13 bd 55 fe 86 bd
       0.101062134 -0.10033519 -0.035900116 -0.06591479
0000c0 83 60 29 bd 72 05 b0 3d be 48 6a bd 1f ca b4 3d
       -0.041351806 0.085947886 -0.05719828 0.08827614
0000d0 4f 47 af 3d 61 32 8f 3c 9b 8b 27 3e 60 3f 27 3e
       0.08558523 0.017480077 0.16361849 0.1633277
0000e0 c0 98 c7 3b 48 6b dd bb 70 a4 ab 3d bf dd 78 3e
       0.0060912073 -0.0067571737 0.08380973 0.2430334
0000f0 34 c2 85 bd 0a 47 af 3d d3 d8 d7 bd 99 6d 3b 3e
       -0.06531182 0.085584715 -0.10539403 0.18303527
000100 cf 08 20 be 34 23 35 3e 63 25 f9 bb 90 b9 79 3e
       -0.1562836 0.1768921 -0.007603334 0.24387193
000110 52 99 26 be cb d6 2b be da 06 ac bd 6a 08 25 be
       -0.16269425 -0.16781156 -0.08399744 -0.16116491
000120 13 15 50 bd 4c c7 e3 bd c0 d5 6c 3d d5 ef 1d 3e
       -0.050801348 -0.11121997 0.057821035 0.1542352
000130 40 13 a5 bd 79 de 88 3d 9d 09 de bd eb 09 b5 3d
       -0.08060312 0.06683058 -0.10841677 0.08839782
000140 b4 72 da 3d 2e 99 ad bd 82 57 ef 3d 5b 95 61 3b
       0.10666409 -0.08476482 0.11686613 0.0034421298
000150 31 d4 51 3e 7d c1 d7 bc d7 09 3f be f2 10 66 3e
       0.20491101 -0.02633738 -0.18656097 0.22467402
000160 42 df 1a be 91 d9 34 bc e0 73 b3 bd 4c ae 20 be
       -0.15124229 -0.0110382 -0.08762336 -0.15691489
000170 48 f9 19 be dd 80 65 bd 2f 02 19 be 6b 86 d7 bd
       -0.150365 -0.056031097 -0.14942239 -0.10523685
000180 74 1d d0 3c 8d aa 11 3e ba e4 3b be 2f 2b 2e bd
       0.02540467 0.14225216 -0.18348971 -0.04252165
000190 61 a6 e1 bd b4 bf 40 be ea 72 db 3c c0 fb e6 bd
       -0.110180624 -0.18823129 0.026788194 -0.11278486
0001a0 95 c0 0d 3e 8a a6 e8 bd f8 b5 79 3e 61 90 27 bd
       0.13842995 -0.1135989 0.24385822 -0.040909175
0001b0 65 93 4e 3d d3 76 d9 bd 0d aa 0b be df 35 8b 3d
       0.050433535 -0.10618367 -0.13639088 0.067973845
0001c0 5b 75 49 be f0 8f 09 bd f4 b4 fd 3c 61 78 f4 3c
       -0.19673674 -0.033584535 0.030970074 0.029842557
0001d0 4c f5 9c 3c ec 5b 63 3d 19 15 3c 3e 8d ff 58 bd
       0.019159935 0.055507585 0.18367423 -0.052978087
0001e0 3d f8 08 3d b9 d9 1d 3e b7 c5 36 3c 6d ce 68 3e
       0.033439863 0.15415086 0.011155537 0.22734995
0001f0 64 b1 ad bb 0d 93 40 3d 5b bf 2b 3e dd 53 ab bd
       -0.0053006876 0.04701524 0.16772215 -0.08365605
000200 b5 fc 90 bc 30 e3 06 bd 16 cc a6 3c 77 5e 09 3d
       -0.017698625 -0.032931507 0.020360988 0.033537354
000210 67 94 37 3e f7 72 86 3d 77 7f a1 3b 07 93 97 bc
       0.17927705 0.065648966 0.004928525 -0.018502725
000220 18 41 68 3d d2 30 01 3d fe d3 2d 3e 14 5e 59 3d
       0.056702703 0.0315407 0.169754 0.053068236
000230 f4 13 0e be 32 11 f1 bd bb d1 59 be 71 60 6f 3d
       -0.13874799 -0.11770858 -0.21271412 0.058441583
000240 0b fe 74 3d cc 87 0a be 1d f0 01 bd 3a d3 51 be
       0.059812587 -0.13528365 -0.03172313 -0.20490733
000250 2e 9e b0 3b f1 74 d0 3c 85 61 b1 3c 21 62 25 be
       0.0053899502 0.025446387 0.021652946 -0.16150714
000260 48 c1 41 3e d4 d2 05 be 14 af 69 3b fd a7 08 bd
       0.18921387 -0.13068706 0.0035657333 -0.03336333
000270 c5 9d 98 bd 60 c8 a1 3d cd 93 22 3d 27 20 8d 3d
       -0.07451967 0.078995466 0.039691735 0.06890898
000280 5f 53 c2 bc 87 ea 52 be d2 ae 22 be 79 0b 17 3b
       -0.023721395 -0.20597278 -0.15887001 0.002304761
000290 0c 01 25 3c bd 40 27 3e 0b d3 8f bd fd c1 e3 3d
       0.01007105 0.1633329 -0.07022675 0.11120985
0002a0 6c 40 69 bd 1a 81 6a 3e 52 dc 07 3d f8 5c 94 bd
       -0.056946203 0.22900811 0.0331691 -0.07244295
0002b0 2d 0a f5 bd 07 f1 56 be 63 f8 01 3e 02 4c 1b 3d
       -0.119648315 -0.20990382 0.12692408 0.037914284
0002c0 ea 85 50 bd c8 c6 08 3e 94 f8 21 bd 15 f7 19 3d
       -0.05090896 0.13357079 -0.039543703 0.03758915
0002d0 7b dd 75 3c c7 b5 1e be 23 0c 03 be 10 67 ac 3d
       0.015006418 -0.1549903 -0.12797599 0.08418095
0002e0 82 fb 44 3e 79 37 07 3e a9 8a 94 3c 54 d4 02 bd
       0.19236568 0.13204755 0.018132525 -0.031940773
0002f0 4f 8d 35 3e 94 01 d1 bd 49 dc 30 be a5 5a 48 be
       0.17729686 -0.10205379 -0.17271532 -0.19565828
000300 c9 2a 59 3e 17 31 42 be 90 82 5f be 4c ea a4 3d
       0.21207727 -0.18964039 -0.2182715 0.08052501
000310 07 14 0f 3e 87 4b 8d 3d 8a 93 59 3e 27 5a de 3d
       0.13972484 0.06899171 0.21247688 0.10857039
000320 97 36 b0 3d db 5b 8f 3d 8e ad 53 3e 37 d9 a8 3d
       0.08604162 0.06999942 0.20671675 0.082445554
000330 1c 68 be 3d 8e 01 b4 3d af 41 d1 3d 27 50 10 be
       0.09297201 0.08789359 0.10217606 -0.14093076
000340 05 e5 09 be 34 46 0f be f2 0b b5 bd 6c ac 33 be
       -0.1346627 -0.13991624 -0.08840169 -0.17546242
000350 e9 8b 57 be 6d 1c 24 3e af 47 2d 3e 79 c0 b1 bc
       -0.21049465 0.16026469 0.16921876 -0.021698223
000360 68 66 53 3e 88 e5 50 3e 20 4e aa 3d 44 d0 e2 3d
       0.20644534 0.20400059 0.083156824 0.1107488
000370 18 8c 34 3d c3 e9 b5 bd 66 89 e4 3d 6d 93 49 3e
       0.044078916 -0.08882477 0.11159019 0.19685145
000380 7a 4e 09 bd 98 0e f6 3d 99 70 a2 bb 1d 79 0b 3d
       -0.033522107 0.12014502 -0.0049572703 0.03405105
000390 9d 3d 33 3d a3 d4 17 be b6 8b 09 3d df 51 52 be
       0.04375993 -0.14827208 0.033580504 -0.20539044
0003a0 f8 93 f0 3c 28 55 0b 3e ed 32 16 3e 11 be 9c be
       0.029367432 0.13606703 0.14667864 -0.3061376
0003b0 bc 5c ad 3d cb 55 3c be 3b 42 14 be c6 c5 c6 bd
       0.08464953 -0.18392102 -0.1447839 -0.09705691
0003c0 a3 0d 7b bd 3e be 9d 3c ec a9 94 3d 82 96 22 be
       -0.061292302 0.019255754 0.072589725 -0.15877727
0003d0 c2 30 a9 bd b9 73 f5 3d e8 1a ec 3d 32 dc 85 bd
       -0.08261253 0.11984963 0.115285695 -0.065361395
0003e0 72 ed 13 be 2e 7d cf bc ad 4a 9f bb 6b 1d 8e bd
       -0.14446047 -0.025328245 -0.004861197 -0.06939205
0003f0 fc 81 eb 3d 4b 90 c4 3d 4b 93 c9 bd 1c 39 6e bb
       0.11499402 0.09597834 -0.09842547 -0.0036349958

network.0.bias f4 [128]
000000 b1 95 11 3d 3d 17 14 3d fd 92 c5 3d ea ed 25 3e
       0.035543147 0.036154974 0.096471764 0.16204038
000010 cb 63 c7 bd 01 5a e0 bd 35 23 37 3e df bd 60 3e
       -0.09735831 -0.10954667 0.17884524 0.2194743
000020 c0 cc 36 3d 6e 3e 2b bd d6 8a 4d 3e fb 09 4f 3e
       0.04462886 -0.041807584 0.20072493 0.20218651
000030 f5 d0 76 bc d3 2f a0 3d c4 62 9f bd 7e 71 18 be
       -0.015064468 0.07821622 -0.0778251 -0.14887044
000040 47 19 ad bd cf d5 1b 3d bb 97 b3 3d 54 d9 6b 3e
       -0.08452087 0.0380457 0.08769175 0.23032123
000050 40 ee 06 bc 30 a8 24 3e c4 00 68 ba ff ac ca 3d
       -0.008235514 0.16079783 -0.0008850212 0.09896278
000060 87 e1 e2 3d 84 d1 14 be 6d bd 4b 3e 15 dc a5 3d
       0.11078172 -0.14533049 0.19896479 0.08098618
000070 aa 45 2f 3d 2a 0b 58 3c 93 67 2f bd 08 be d5 3d
       0.042791046 0.0131862555 -0.042823385 0.10436636
000080 22 aa 22 3e 58 99 4b 3e 87 05 b2 3d 3d ff 0c 3e
       0.15885213 0.19882715 0.086924605 0.1376924
000090 6e 36 b1 3d 03 77 8e 3d 09 4d b7 3c ba 35 97 bd
       0.0865296 0.069562934 0.0223756 -0.073832944
0000a0 50 34 01 be 5a 72 09 3e 93 a7 c7 bd 91 f7 ba 3d
       -0.12617612 0.13422528 -0.09748759 0.09129251
0000b0 ac 7b fb 3c 20 6e 65 3e 34 16 16 3e da a6 00 be
       0.03069862 0.2240529 0.14656907 -0.12563649
0000c0 1a f2 d0 bd b7 aa b6 3d 25 91 b9 3d 9e fd 14 3e
       -0.10202427 0.0891928 0.09060887 0.14549872
0000d0 c2 d3 72 bd 19 bb 50 bd 23 e6 1f 3e ed 74 40 3e
       -0.05928398 -0.05095968 0.15615134 0.18794604
0000e0 97 fc b2 bd a3 c5 c3 3d a9 a9 ff 3b 5e 44 f1 3d
       -0.08739584 0.095591806 0.0078022075 0.11780618
0000f0 2d 81 27 3e 99 7a 51 3d 71 9d 95 3d e9 59 0f be
       0.1635787 0.05114231 0.0730542 -0.13999142
000100 03 a9 16 3d 35 77 a6 3d ee 16 d2 bd da 0d 46 3d
       0.036782276 0.08128206 -0.1025828 0.048353054
000110 72 25 80 3e d6 a1 86 3d 97 1f 37 3e a1 78 5f bd
       0.25028569 0.065738365 0.17883144 -0.0545584
000120 ca 8d ac bd 7f 43 e0 3c b4 90 5c 3d 97 33 95 3d
       -0.084254816 0.027375935 0.053848937 0.072852306
000130 99 d4 48 3c 5a 5b 68 bd bc 5f 88 bd e2 e1 c4 bd
       0.0122577185 -0.056727745 -0.06658885 -0.09613396
000140 82 b6 49 3e 11 01 e4 3d 47 de 3c 3e 7c 55 09 3d
       0.19698527 0.11133016 0.18444167 0.03352879
000150 a8 6a 5b 3d 99 40 be bc cb 4f 22 3e f9 f2 f7 3c
       0.053568512 -0.023224162 0.15850751 0.030267226
000160 cb 31 ed 3b db 7f 17 3c 79 b5 84 3a 2c cc 0f 3e
       0.007238602 0.009246792 0.0010124884 0.14042729
000170 4e 83 8f 3d fc 6b 05 3e ed a9 9b bc 43 f6 13 3e
       0.07007466 0.13029474 -0.019001925 0.1444941
000180 b8 90 45 bc b4 be ee 3d 9e 45 d6 bd 8f 4e d4 bb
       -0.012058429 0.116574675 -0.10462497 -0.0064790915
000190 b2 e0 c8 3d 76 7f e2 3d 92 0d 44 3e 7c 34 7f 3d
       0.09808482 0.110594675 0.19145802 0.062305912
0001a0 47 36 8a bd 12 7f 58 3d bf c8 c3 bb 47 d2 0f be
       -0.06748634 0.05285556 -0.0059748585 -0.14045058
0001b0 66 71 39 3e 4b 12 76 3d e4 cc 72 bd 71 0c 47 3d
       0.18109664 0.06007604 -0.05927743 0.04859585
0001c0 48 ba c7 3d 8e da 18 3e b5 22 b4 3d 94 85 c0 bd
       0.09752327 0.14927122 0.08795682 -0.09400478
0001d0 35 f4 23 3e a3 87 40 3d 0e c6 01 3e 17 21 f8 bd
       0.16011126 0.047004353 0.12673208 -0.121156864
0001e0 2a 41 de 3d 9e 6e 39 3e 96 9f 16 3e 3e 2b 47 3e
       0.10852273 0.18108603 0.14709315 0.1945009
0001f0 64 8a a9 bc a5 54 29 bd 44 8e 78 3d 33 07 d8 bd
       -0.020695873 -0.04134049 0.06068255 -0.10548248

network.2.weight f4 [128, 128]
000000 fc 62 ca bd e6 7e 96 3d f7 86 8c 3d 55 76 87 bd
       -0.09882161 0.07348423 0.0686168 -0.06614367
000010 9a b3 f3 3c 28 06 d7 3c 8d 0b 8b ba ca 4c 77 3d
       0.029748727 0.026248053 -0.0010608301 0.060375966
000020 26 c0 3a bb d1 43 35 3d e3 69 a2 3b 55 82 e4 3b
       -0.0028495877 0.044254128 0.0049564703 0.0069735446
000030 c8 94 7d bd 31 da c8 bd 10 a7 3c bb c3 83 73 bd
       -0.061909467 -0.09807242 -0.00287861 -0.05945183
000040 bc a4 6f 3d ff 90 4f bd 7e 37 79 bd ff 6a c1 bd
       0.058506712 -0.05067539 -0.060843937 -0.09444236
000050 b2 0b cb bd be 35 dd 3b fb 68 64 bd cf e7 ec 3c
       -0.0991434 0.0067507913 -0.05576418 0.028919129
000060 62 09 3b bc 5a 01 cc bd 4a c7 b3 bd 01 17 21 bd
       -0.011415811 -0.09961195 -0.08778246 -0.03932858
000070 d9 ac cb bb d3 63 5b 3c 09 03 2c 3d 19 a7 40 3d
       -0.0062156734 0.013390499 0.041995082 0.047034357
000080 70 d7 75 bd 8e 6e 9b bd 45 66 b3 3c 37 d9 5f bc
       -0.06001991 -0.07589446 0.021899352 -0.013662628
000090 cb 1a 3e bb 74 63 46 3b f2 c2 4c bd 4a 4e 24 bd
       -0.002900767 0.003027168 -0.0499906 -0.040113725
0000a0 52 c0 f8 bc c1 2e d9 bc f5 1b bb bd fc 66 7a bd
       -0.030365143 -0.026511552 -0.09136192 -0.06113337
0000b0 81 4c 8b 3d c2 ba 85 bc 7b 0f 11 3d 1a 2c 29 bd
       0.06801701 -0.016324405 0.035415154 -0.041301824
0000c0 a6 7a 56 bd 56 50 8d bd e3 30 7d bd fb 69 ac bc
       -0.05236306 -0.069000885 -0.0618142 -0.02104663
0000d0 2a f3 a0 bd b2 91 ac bd c1 42 3c bd 13 dd 40 bd
       -0.0785888 -0.08426227 -0.0459621 -0.047085833
0000e0 68 bc 3b bc ca 07 f9 3c 56 3b 89 bd 0c 17 e7 bc
       -0.011458494 0.030399222 -0.067007706 -0.028209232
0000f0 7c a9 38 3b ed 7d 9d bd e1 d2 18 bc 36 30 36 3d
       0.0028177192 -0.07690034 -0.009327621 0.04447957
000100 3e b8 d2 3c d0 61 f8 bc ee fd 11 bd 8e 5e 8a 3c
       0.02572262 -0.030320078 -0.035642557 0.01689079
000110 8d 6f 8a bd 1e e0 1e 3d cc c7 87 bd 78 78 66 bd
       -0.06759558 0.038787954 -0.06629905 -0.05626723
000120 ca 5a b8 bc 9a 93 20 bd 69 05 9d bd b9 ab ae ba
       -0.02250423 -0.039203264 -0.076670475 -0.0013326324
000130 bc 3e 23 3d 75 8a 9e bd b8 97 40 bd 1b 12 3a bd
       0.03985475 -0.07741252 -0.04701969 -0.045427423
000140 db 8a 45 3d e4 6e 15 bd b2 be de bc bc 95 1e bd
       0.048228126 -0.036482707 -0.02719054 -0.038717017
000150 98 77 4d bd b1 fb 12 3d e7 53 4a bd 6e 86 ef bc
       -0.05016288 0.035884563 -0.04939642 -0.029238906
000160 2d 0a 87 3d cc da 79 bd 3f 70 18 bd e0 9a 22 3d
       0.06593738 -0.060999677 -0.03721642 0.03969848
000170 23 5b 40 bd 88 9e 92 3c 99 9f ab 3d 76 4b af bd
       -0.046961915 0.01789786 0.0838005 -0.08559315
000180 19 3c 5e 3b 3a d5 c1 3c f3 f4 e2 b9 9a 7c a8 bd
       0.0033910333 0.023661245 -0.0004328858 -0.08226891
000190 64 a3 4b bc 43 fc 91 3d e2 9b 63 3c 97 82 ae bd
       -0.012429092 0.07128193 0.013892146 -0.08521002
0001a0 7e 69 40 bd 81 49 79 bd 59 81 7d bd 0d d4 ab bd
       -0.046975605 -0.060861114 -0.061890934 -0.08390055
0001b0 ef ab 3c bc 40 d1 6a 3d 2a cd 6a bd 9f fe 54 3d
       -0.011515602 0.057328463 -0.057324566 0.052000638
0001c0 bc 05 17 3d 1f ce 66 3d ab 46 d3 bd b4 cc 83 bc
       0.036870703 0.056348916 -0.10316213 -0.016088821
0001d0 8b 1b 22 3d ef 23 4a 3d ac 58 7a bd 84 90 4f bd
       0.03957705 0.049350675 -0.06111972 -0.05067493
0001e0 29 61 25 3d a3 c8 bf 3c f1 ca 37 3d 5a 8a bb 3c
       0.040375862 0.0234111 0.044871274 0.02289312
0001f0 ab d8 a5 bd 80 85 7c bc 37 2a 44 bc fe 3c 84 bd
       -0.08097967 -0.015412688 -0.011972955 -0.06456946
000200 07 de 75 bd 95 6c 99 3d 47 c1 2b 3d a7 f3 06 be
       -0.060026195 0.074914135 0.04193237 -0.13178883
000210 63 30 dd bc 6b b0 bc bb 01 37 f3 bb e3 5b e1 bd
       -0.027000612 -0.0057583353 -0.0074223285 -0.11003854
000220 8a 93 3a 3e aa 8c 90 3d 9a 3b 6f 3c 2c 3b 38 bd
       0.18220344 0.070580795 0.014601612 -0.044978306
000230 ca db 22 bc 62 02 c6 3d 36 d8 13 ba 0c 3b 2e 3e
       -0.009940097 0.09668423 -0.0005639823 0.17014712
000240 7f 7f cd 3c e4 5f 33 3c 73 7a 02 be 1b d7 3c 3d
       0.025085209 0.010948155 -0.12742023 0.046103578
000250 08 a2 4f 3c 9d 59 ef 3c 86 e7 19 3e 84 bf 20 be
       0.012672909 0.029217536 0.15029725 -0.15698057
000260 9e de 9c bd e3 f7 1d 3c 6c af 29 bd 0d cf bb bd
       -0.07659648 0.00964162 -0.04142706 -0.09170351
000270 d3 0a 24 3e 04 61 b6 bc f4 58 33 bc 72 ef 89 3d
       0.16019754 -0.022263058 -0.010946501 0.06735124
000280 77 7f aa 3d 96 c9 90 3c d4 fe 46 bd df 45 1f be
       0.08325093 0.017674249 -0.048582867 -0.15553997
000290 1b ea e7 3c 97 84 f6 3d a3 f6 07 3c 98 3a 06 be
       0.028309872 0.12037008 0.008298549 -0.13108289
0002a0 b3 1b da 3d 09 be e8 3d 4c 9f 30 bd 54 dc 17 be
       0.106498145 0.11364371 -0.043120667 -0.14830142
0002b0 84 e7 68 3d 22 4e 6f 3c 8e 46 ab bd 26 a0 17 3e
       0.056861416 0.014606031 -0.083630666 0.14807186
0002c0 4d 48 b5 3d 36 cb 00 3e 8b 36 2c 3d 96 69 d0 3d
       0.08851681 0.12577519 0.042044204 0.10176389
0002d0 84 7a 25 bc 02 b2 38 be 1f ee 0b bd cb db 85 bd
       -0.010100011 -0.18036655 -0.034162637 -0.06536063
0002e0 5a da 8d 3d a6 1d 33 bd 48 9f 83 3c e9 09 b6 3d
       0.06926413 -0.043729447 0.016067162 0.08888609
0002f0 b4 48 eb 3d b1 16 07 3e 9a d9 03 3d 27 02 5c 3d
       0.114884764 0.1319225 0.032189943 0.05371299
000300 63 96 28 be e1 c6 b3 bd 44 e7 df 3d 90 9f 88 3d
       -0.16463618 -0.087781675 0.10932782 0.06671059
000310 e0 c5 65 bd ba 01 9f 3d e3 38 39 3d 33 cf bf bd
       -0.05609691 0.07764001 0.045220267 -0.09365692
000320 26 da c0 3c b6 a8 c0 3d 26 5f c7 3c 24 18 23 3c
       0.023541521 0.09407179 0.024337362 0.009954486
000330 fd 69 e2 bd 21 c7 d6 3c c2 c5 f0 3b 25 6b b6 bc
       -0.11055372 0.026217999 0.0073477933 -0.022267887
000340 33 5a 71 bd d5 69 0e bd ca 42 c2 3d 80 0a 4c 3d
       -0.05892391 -0.034768898 0.09485395 0.0498147
000350 b2 d5 50 3d 09 5d cc 3c ca ee da 3c 16 ed 8f 3c
       0.050985046 0.024946706 0.026725192 0.017569106
000360 d7 33 73 3c 27 b6 e4 3d b6 42 41 bc 51 9a 05 3d
       0.014843903 0.11167555 -0.01179569 0.03261787
000370 d8 be cb 3b 76 6e 02 be b6 99 f8 3d 26 74 dc bd
       0.0062178187 -0.1273745 0.12138693 -0.10764341
000380 c5 46 1f 3d 12 06 30 bd 3c 88 ea bc 69 1a f0 bd
       0.03888585 -0.04297454 -0.028629415 -0.11723787
000390 58 91 8f 3c 04 36 63 bc 99 67 28 bd 88 32 73 3d
       0.01752536 -0.013867859 -0.041114423 0.059374362
0003a0 25 da 10 3e 7b f1 d3 3d b1 4c dc 3d ec 00 01 3d
       0.14145716 0.10348793 0.10756815 0.03149502
0003b0 41 9e 82 3d f4 3c 93 bc e7 62 22 3e a6 b5 14 3d
       0.06377841 -0.0179734 0.15858041 0.036306046
0003c0 4e 45 94 bc da 3d 13 3e cc 6b 20 bd 39 87 70 3c
       -0.018099453 0.14379063 -0.039165303 0.014680677
0003d0 8d 6b 1a 3e 6f 85 1e 3e a0 1c 2b be 16 da 26 bd
       0.1508009 0.15480588 -0.16710138 -0.040735327
0003e0 e3 a9 e2 3d 9a 8f 04 be c7 0d 93 3d e0 6a 47 3d
       0.110675596 -0.12945405 0.07180362 0.04868591
0003f0 54 ee d7 3d 30 87 8f 3d e4 7c 43 3d e3 4d a3 3d
       0.10543504 0.07008207 0.047726527 0.0797384

network.2.bias f4 [128]
000000 3c 16 c1 3c f9 4a 5f ba b8 7c 3e 3c bd 00 dd 3d
       0.023570172 -0.00085179467 0.011626415 0.107911564
000010 56 f4 88 bc 2e a1 54 3d 3c a9 3f bc 5d b5 c5 bd
       -0.016718071 0.051911525 -0.011698063 -0.09653733
000020 57 e4 97 bd cb 04 a4 bd 85 37 f2 3d 72 57 2c 3d
       -0.07416599 -0.08008727 0.11826996 0.04207558
000030 34 25 88 3d c2 30 c8 bd f6 39 ab 3d d2 f3 63 bd
       0.06647721 -0.09774925 0.083606645 -0.055652447
000040 fc 3e 81 3d f4 37 ba 3c 63 e2 90 bd e2 81 68 bc
       0.063108414 0.022731759 -0.0707443 -0.014191123
000050 28 79 3c 3d e1 26 39 bd c6 20 f8 3d 62 08 43 bc
       0.04601398 -0.045203093 0.12115626 -0.011903854
000060 e5 0e 15 3d 58 33 a3 bd 08 28 ad 3d aa b7 05 3e
       0.036391158 -0.079687774 0.08454901 0.13058344
000070 39 6b 35 3d 6f 5a b1 bc 59 d2 3c 3d c0 0b 03 bd
       0.04429171 -0.021649567 0.04609904 -0.031993628
000080 a7 69 0a bd 89 88 cf 3d 72 5f f3 3d 36 1d 62 bb
       -0.033792164 0.10133464 0.11883439 -0.0034502274
000090 dd 3c 59 3d 07 29 17 bd ca 0c 48 3d 63 d6 a5 3d
       0.05303656 -0.03690436 0.04884032 0.08097532
0000a0 69 e8 3e 3d 72 95 84 bc 90 fb 8a bc e3 0f a8 bd
       0.046608362 -0.016184542 -0.016965657 -0.08206155
0000b0 14 fe e8 3d 3c 9c 84 3b e7 d7 43 bc dc 50 33 bd
       0.113765866 0.004046945 -0.011953331 -0.043778285
0000c0 69 7d 9a bd e9 c5 07 3d db 3d b7 bd 43 29 a9 bc
       -0.07543451 0.033147726 -0.08947345 -0.020649558
0000d0 d6 33 36 3d 06 98 26 3d a9 33 0c bc 12 62 79 3d
       0.04448303 0.040672325 -0.008557239 0.060884543
0000e0 28 db 9c 3d c8 9c b2 bb 5a f6 30 bd b1 dd f2 3d
       0.07658988 -0.0054508187 -0.04320369 0.118586905
0000f0 d0 01 87 bd 3e 3c 22 3d 89 76 25 3e 67 4c 0e 3e
       -0.065921426 0.039608233 0.16158499 0.13896333
000100 70 ed 70 bd fe 12 1d 3e f5 83 08 bc 09 ce b0 bd
       -0.058820188 0.15339276 -0.008332242 -0.08633048
000110 f3 a1 c9 bd 0f 57 cb 3c 69 58 c5 3d 43 12 8f bd
       -0.098453425 0.024821786 0.096360035 -0.06985905
000120 87 40 31 3d d3 48 8d bd f8 e0 7c bd 10 8e a1 bd
       0.04327443 -0.06898656 -0.061737984 -0.078884244
000130 04 9d 44 bc 6c bb f9 bc d1 6a da 3d f4 54 79 bd
       -0.012000326 -0.030484878 0.10664905 -0.060872033
000140 1e 7b 22 3b a9 79 50 bb de 66 08 3e dd a8 e3 3d
       0.0024792622 -0.0031810796 0.1332049 0.111161925
000150 8f b6 20 3e 08 ec 22 3c 83 bd e7 3c b0 4b 31 bc
       0.1569464 0.00994397 0.028288608 -0.010821268
000160 16 ef 81 3d a6 de 1d 3d 36 75 87 3d e8 41 f7 3c
       0.0634443 0.038542412 0.06614153 0.030182794
000170 84 17 81 3d a4 f4 e0 bc 07 a6 5a bd 92 61 25 bd
       0.063033134 -0.027460404 -0.053380992 -0.040376253
000180 b2 75 87 bd 15 51 32 bc d8 e9 97 bd 55 77 cd bb
       -0.066142455 -0.010883589 -0.07417649 -0.006270329
000190 37 4a 4d bd 2e 0e 8f bb da e6 d9 3d 56 1c 13 bd
       -0.050119605 -0.004365704 0.106397346 -0.035915695
0001a0 9c 16 a9 bc 31 8a ab 3c bb 1f 40 bc 99 7a 19 3d
       -0.020640664 0.020939918 -0.011726315 0.037470434
0001b0 77 64 98 bd e2 ed c2 ba 93 1b 74 3d aa d8 2e bd
       -0.07441037 -0.001487192 0.05959661 -0.042687096
0001c0 17 c4 89 bd 18 2e 13 3c 33 d1 62 bd 7f d7 2d bc
       -0.06726854 0.008983158 -0.05537529 -0.01061046
0001d0 07 27 4d 3d 85 bc 12 bd b9 32 b1 3c 20 ab 79 3d
       0.050086048 -0.035824317 0.021630632 0.060954213
0001e0 d2 05 03 3e fa f1 db 3c 4c 56 ae 3c 4e ad 39 bd
       0.12795189 0.026848782 0.021281384 -0.04533129
0001f0 32 e8 11 3e 1b b2 13 bd fe b7 8e 3d 17 e6 9a bd
       0.14248732 -0.036058526 0.069686875 -0.075634174
