models/level1_simple/checkpoint_ep250/adversary_0.pth (torch, 628834 bytes, 44 tensors)

network.0.weight f4 [128, 8]
000000 14 a7 e5 3d cc 69 b6 be 4f 48 a0 3e 11 0d 97 be
       0.11213508 -0.35627592 0.31305167 -0.29502156
000010 ba d0 39 be 54 ef 9e bd 9a 72 88 be 98 d8 4a 3e
       -0.18146029 -0.07760492 -0.26649934 0.19809186
000020 ec 2c d6 bd 1b 05 d8 3d 73 aa 9b bc 78 d3 66 be
       -0.10457787 0.10547849 -0.019002175 -0.22541606
000030 8d 8f d9 bd 3a 50 01 bd 73 1c b5 3d c7 50 fe 3d
       -0.10623083 -0.03157065 0.08843317 0.12417751
000040 36 b3 82 3e 79 4b e4 bb ce 2c 08 be 1a 9f a6 3e
       0.25527352 -0.006967005 -0.13298342 0.3254326
000050 91 26 85 be 81 10 33 3c 90 37 a6 bd b9 03 02 3e
       -0.26005986 0.010929228 -0.081160665 0.12696733
000060 1f 2b c4 bd 0b 64 1f be 61 0d a4 be de 4c b3 be
       -0.09578537 -0.15565507 -0.32041457 -0.35019583
000070 90 85 a9 be 41 6a 81 3e dd 1b b5 3e 39 e8 a2 bd
       -0.33109713 0.25276378 0.3537282 -0.07954449
000080 76 bb 44 be ca 96 85 3e 22 30 a8 be 61 48 9a bd
       -0.19212136 0.26091605 -0.32849222 -0.075333364
000090 e5 d1 81 3e 81 9f a2 3e a2 12 b9 3e ad a7 39 3d
       0.2535545 0.31762317 0.36147028 0.045325924
0000a0 00 a6 63 3c c8 80 1c bd 38 ba ae be 07 a7 85 3d
       0.013894558 -0.038208753 -0.3412645 0.065259986
0000b0 cd 5e 55 3e 3f 47 b9 be 49 d6 61 bd 22 c7 ad 3e
       0.20836945 -0.3618717 -0.055136 0.3394099
0000c0 32 ba 8d be f5 7e 97 be b3 7f 7c bd 28 81 94 be
       -0.27681118 -0.29589048 -0.06164522 -0.29004788
0000d0 d6 0c 43 bd 57 72 6c be c1 f9 92 bc dc 2a 98 bc
       -0.047619663 -0.23090492 -0.017941358 -0.018575124
0000e0 ef 8e af 3e 2b d6 99 3d 63 e4 37 be f5 5a 95 bd
       0.34288737 0.075115524 -0.17958216 -0.07292739
0000f0 8b 6b 5d 3c 51 5a 5f 3e 58 a9 5a 3d 2b 88 84 bc
       0.01351441 0.21811797 0.053384155 -0.016178211
000100 e4 69 80 be 7c 7d a1 3d 2b cb 82 bb 6f fb 79 be
       -0.25080788 0.07885262 -0.0039915047 -0.2441232
000110 97 e1 f0 3d da 58 ae 3e a6 5e bc 3e 25 e1 a7 be
       0.11761778 0.34052163 0.3679096 -0.3278896
000120 c6 4e c0 bd af 5a b9 be 6c ac 9c 3d 13 e9 9a 3e
       -0.09390025 -0.36202 0.07650074 0.30255947
000130 7b fb 88 3e 70 03 a7 3c 45 95 7c 3d 28 2a 96 be
       0.26754364 0.020387381 0.061665792 -0.29329038
000140 38 a6 ef 3d 2f b0 b7 be 18 ad 5b 3e 98 0f cc bd
       0.117016256 -0.35876605 0.21452749 -0.09963912
000150 b3 ee 3c 3e d4 3a c1 3e 55 90 89 3e b6 e1 f8 bd
       0.18450432 0.37740195 0.2686793 -0.12152426
000160 1a c2 59 bc e3 9a 8e be 75 99 aa be 5f a2 a7 3e
       -0.013290906 -0.27852544 -0.33320203 0.32741067
000170 61 9c 88 3e 54 da c9 bc 38 91 58 be 17 a0 2c be
       0.26681808 -0.02464024 -0.21149147 -0.16857944
000180 a2 77 46 be 39 f8 4e be 49 c9 39 3e 30 28 8d 3e
       -0.19381574 -0.20211877 0.1814319 0.27569723
000190 f5 02 30 bd 19 77 37 3b 22 66 b0 be a2 1c 68 3e
       -0.04297157 0.0027994572 -0.3445292 0.22667173
0001a0 b2 49 8e be 86 e7 67 3e de 0c a4 be b3 a7 c8 3c
       -0.277906 0.22646913 -0.32041067 0.024494028
0001b0 cb 82 96 3e f8 ae b7 3e fe 38 24 3e ad c7 bc 3e
       0.29396662 0.35875678 0.16037366 0.3687109
0001c0 4c 4e 14 be f3 2b e4 ba 6d 7c 9a 3d 35 b8 9e be
       -0.14482993 -0.0017408117 0.075432636 -0.30999914
0001d0 65 77 53 3d 2a 71 ba 3e 42 54 1c be d2 05 8f 3e
       0.051627535 0.36414462 -0.15266517 0.27934128
0001e0 c0 69 db bd 15 fb 22 bd 5a ae 9d 3c f5 a7 20 3d
       -0.107135296 -0.03979023 0.019248176 0.039222676
0001f0 b0 fd 00 be 8d 44 2a be 41 29 6d 3e cd ff b4 be
       -0.12596774 -0.16627713 0.23160268 -0.3535141
000200 9e 09 59 be ea 7a 73 bd 73 ca bc be 6d 90 8e 3e
       -0.21195075 -0.05944339 -0.36873206 0.27844563
000210 12 8d 07 3c 83 79 64 be a0 bb 91 3e 3f ca bd 3e
       0.00827338 -0.22311978 0.2846346 0.37068364
000220 39 d6 77 be 1e 30 4d be a4 00 1c 3e 51 60 6b 3e
       -0.24202813 -0.20037887 0.1523462 0.2298596
000230 a8 33 a4 be 33 ce 0c be 01 c3 20 3e af 49 87 be
       -0.3207066 -0.13750534 0.15699388 -0.26423404
000240 5c 13 88 be b5 b6 fd bd f1 b1 10 be 46 e9 dd bd
       -0.2657727 -0.12388364 -0.1413038 -0.10835509
000250 d2 c8 2e be a6 06 4a be f3 9a 8c 3d b7 bc ff bd
       -0.17068794 -0.19729099 0.06865492 -0.124871664
000260 c7 87 60 3d 6b 57 c4 bd 6c 85 91 be 71 63 b8 3e
       0.054816987 -0.09586986 -0.28422105 0.36013368
000270 41 d3 99 3e 4f 67 3a 3e 83 1c 88 3e 5a 05 11 3e
       0.30043986 0.18203472 0.26584253 0.14162198
000280 19 5f 72 3d 67 4e a1 3e 26 15 4b 3e 8d 91 17 be
       0.059172723 0.3150513 0.19832286 -0.14801617
000290 df 9a 38 be 0a 6f 8a 3d 03 57 11 be 95 eb ad 3e
       -0.18027829 0.0675946 -0.14193349 0.33968797
0002a0 2c 87 82 be 91 1c be 3c 5f 1b ad bd 6f 7b 90 be
       -0.25493753 0.02320698 -0.08452486 -0.28219172
0002b0 e7 c1 8c be 72 5c 92 3e 02 22 19 3e a3 d9 8d 3e
       -0.27491686 0.28586155 0.14954379 0.27705106
0002c0 9c 7c a3 3e e3 cf f6 bd 38 40 a6 be 63 9e 15 3e
       0.31931007 -0.1205137 -0.3247087 0.14611201
0002d0 d5 7c 69 be 91 46 4e be f6 45 f9 ba 03 ad 48 bd
       -0.22801526 -0.20144106 -0.0019018042 -0.04899312
0002e0 da 71 fc bd 78 7c c3 bb 2f 5d 8c 3e 2a ea 55 be
       -0.12326403 -0.0059657656 0.27414843 -0.20890108
0002f0 ef a5 d0 bd 59 5a 7c 3e 59 96 94 bd b4 e1 17 3e
       -0.10187899 0.2464384 -0.07255239 0.14832193
000300 2e e9 94 3e bc 13 9f 3e 63 c4 a8 be 1e 37 3f 3e
       0.29084152 0.31069744 -0.3296233 0.1867337
000310 04 9f 1a 3d ba be a6 be 04 2b 49 be 2c 86 88 be
       0.037749305 -0.32567388 -0.19645315 -0.26664865
000320 fb 80 68 3b 24 ae 51 3e 60 d5 86 be 4f 2c 7a 3d
       0.003547727 0.20476586 -0.26334667 0.061077412
000330 13 b3 a0 3e cf 66 de 3d f4 ba e8 3d 08 6c 99 3e
       0.31386623 0.10859453 0.113637835 0.29965234
000340 ee b4 1b 3d cd 23 9e b9 3c d4 79 bd e3 25 ea bc
       0.038014345 -0.00030162782 -0.060993418 -0.028582519
000350 75 6e 9a bb 0d 3f ff 3b 47 db ac be 37 99 70 3e
       -0.0047128745 0.0077894987 -0.33761045 0.23495947
000360 ab e8 0a bc 9f 64 9e be db 34 ff bc e5 2c c6 be
       -0.008478324 -0.30936143 -0.031153133 -0.38706127
000370 d6 ee 34 be 06 33 82 be f0 35 80 be be 1d 92 3e
       -0.17669234 -0.25429553 -0.2504115 0.28538316
000380 65 ba 4d 3e 24 5a cf 3d 6c aa b0 bd 94 01 ef 3c
       0.20090635 0.10124615 -0.086262554 0.029175557
000390 cb 68 f2 3c df 5c 98 3e d3 41 6d be e6 2c a3 3e
       0.029590985 0.29758355 -0.23169641 0.31870192
0003a0 1e 3c 35 bd c6 c1 05 be 9c c9 ab be 57 c3 88 be
       -0.044246785 -0.130622 -0.33552253 -0.26711532
0003b0 36 ac 15 3e 27 0c f2 bd d9 93 d0 bd bb b6 6d be
       0.14616475 -0.11818724 -0.1018445 -0.23214237
0003c0 da 70 79 3d 26 92 1c be 63 af 76 3e 9d 04 98 3e
       0.06089864 -0.15290126 0.24090342 0.2969102
0003d0 7b 84 67 3e d1 f9 b9 3c 78 1b ab be 27 87 b8 be
       0.22609131 0.02270213 -0.33419394 -0.36040613
0003e0 ac bf 0c be a5 2f 2c 3d 46 3d 68 3e 2d 5b b3 3e
       -0.13744992 0.042037625 0.22679624 0.350305
0003f0 4e 55 71 be 97 19 79 3e 81 de 54 3e 20 d5 87 3e
       -0.23567697 0.24326168 0.20788004 0.2652979

network.0.bias f4 [128]
000000 9d ee 27 3c 50 76 e8 3d d7 38 44 be 84 72 8d be
       0.010249761 0.11350691 -0.19162308 -0.2762643
000010 40 c0 29 3d 18 ec 51 3e 87 96 89 3e 5b a1 3b bd
       0.04144311 0.20500219 0.26872656 -0.045808177
000020 e2 60 81 3e e7 fb 5c 3e dc 30 9a bd 1a 26 48 be
       0.25269228 0.21580468 -0.075288504 -0.19545785
000030 08 42 62 3e 75 a8 72 be 69 03 9a 3d 78 ad 96 be
       0.22095501 -0.23697074 0.07520182 -0.2942922
000040 a2 98 8a be 6a cd a6 bd 8d 88 9b be 4c eb 95 be
       -0.27069575 -0.081446484 -0.30377617 -0.2928108
000050 88 a2 d0 3d 54 62 85 be 1d 54 b5 3e 83 36 0c 3e
       0.101872504 -0.2605158 0.35415736 0.1369267
000060 05 21 86 3d f9 b5 bd 3e ae 6e 3f 3e 0d 54 94 be
       0.06549267 0.37052897 0.18694565 -0.28970376
000070 52 7a b4 bc 0f ab 83 3e 42 d0 08 be 89 7d 97 3e
       -0.022030983 0.25716445 -0.13360694 0.29587963
000080 dc a3 05 bd fa 9f bb 3e 55 4b 14 3e 35 de 0f 3e
       -0.03262697 0.3664549 0.14481862 0.14049609
000090 c4 0e f1 3c 35 29 30 be 19 b5 7a 3d 0e 2c 9c be
       0.029425986 -0.17203219 0.061207864 -0.3050236
0000a0 82 34 f6 3c 5e c3 af 3e f1 eb 5b be b1 1f b5 be
       0.030054335 0.3432874 -0.21476723 -0.3537574
0000b0 51 43 32 be a1 7f 4d 3e f3 7c 9f 3e d7 bd f0 3c
       -0.17408492 0.20068218 0.31150016 0.029387398
0000c0 ae 5d 89 be e3 da 06 3e 3b e7 2a 3e d7 73 26 be
       -0.26829284 0.13169436 0.1668977 -0.16255127
0000d0 f2 65 a4 be e8 be 01 3e 70 88 6d be 51 78 a6 3e
       -0.32109028 0.12670481 -0.23196578 0.3251367
0000e0 25 0b 76 3e fd b0 4a 3e a1 1e 02 be 74 dd 08 be
       0.24027689 0.19794078 -0.12706997 -0.13365728
0000f0 59 b4 6a bd da 45 52 bb f3 3f 67 3e 88 4c fa bd
       -0.0573009 -0.0032085092 0.22582988 -0.122216284
000100 d1 18 13 3e c0 9c 9c bd 2a 1f 69 3e 46 71 78 3d
       0.14364935 -0.07647085 0.22765794 0.0606549
000110 84 9e 97 bd 5b a8 2c 3e ce a7 b5 3e ae 6f 0b 3e
       -0.07403281 0.16861098 0.35479587 0.13616821
000120 52 04 b7 3e 7c 8c 1a 3e 5a ee 92 3e 19 f8 27 bd
       0.35745484 0.15092653 0.28697473 -0.04100809
000130 f8 82 9c 3e 15 c3 2b 3e a3 a5 3d be 98 3d a8 bc
       0.3056867 0.16773637 -0.18520217 -0.020537183
000140 0e 09 8f be d6 1b 96 be 48 2c ac be e0 2d 8c 3e
       -0.27936596 -0.29318112 -0.33627534 0.2737875
000150 30 77 89 be d1 15 2e 3e bc 10 93 3e 6f 36 9d 3e
       -0.26848745 0.1700051 0.28723705 0.30705592
000160 7a 61 5b be b1 db 59 bd e0 b0 b5 3d 73 d8 85 be
       -0.21423903 -0.05318803 0.08871627 -0.261417
000170 21 cb 89 be e1 4e b7 3d 6a 87 4a 3e b0 ad 1e be
       -0.26912788 0.08950592 0.19778219 -0.15495944
000180 9a 50 75 be 39 59 b7 bd 4e 70 30 3e 4b f0 44 bd
       -0.23956528 -0.08952565 0.17230341 -0.048080724
000190 9d 46 be bd 04 bc 6b 3c 9e cd 5b be d9 81 2a 3e
       -0.09290812 0.014388088 -0.21465155 0.16651095
0001a0 ed 53 03 be d9 90 83 3e 5d 66 4f 3d 87 04 07 3d
       -0.12824984 0.25696447 0.05063473 0.032963302
0001b0 5f 84 88 bc b6 3d b7 3e 52 58 99 3e 92 e5 fb 3d
       -0.016664682 0.3578927 0.29950196 0.122996464
0001c0 39 c1 a9 3e 2b 5e 92 bd 36 36 85 be f0 0a 3e be
       0.3315523 -0.07146867 -0.26017922 -0.1855886
0001d0 c6 cc 84 be 5d 50 5c 3e 9c 24 83 3e 8d 9d 08 be
       -0.2593748 0.21515031 0.25613868 -0.13341351
0001e0 aa 17 50 3e e8 d0 70 be ee 71 a1 3e 98 d7 7d 3c
       0.20321527 -0.23517191 0.31532234 0.015493296
0001f0 f2 48 b7 3e 56 a8 80 be 14 6e 88 3e 9c 77 bb 3b
       0.3579784 -0.2512843 0.26646483 0.0057210457

network.2.weight f4 [128, 128]
000000 22 0f 0d bc b9 27 f4 3d 74 5d 9d 3d a9 07 0e bd
       -0.008609565 0.11921639 0.076838404 -0.034675274
000010 ec b1 5f 3c 52 08 91 3a b8 cc 8a 3d 27 40 64 bd
       0.01365326 0.0011065102 0.06777328 -0.055725243
000020 97 1f b2 bc 27 f0 05 bd 99 fc de 3d 1a 82 e4 bc
       -0.021743579 -0.03269973 0.10888023 -0.027894069
000030 8a e2 3c 3d a6 65 80 3d 8e 39 c6 3c 2f 4e 84 bd
       0.046114482 0.06269388 0.024197366 -0.06460225
000040 2c 7b c1 3d e2 60 b6 3d ac c8 a0 3c b8 9f 08 3d
       0.09447321 0.08905198 0.019626938 0.033355445
000050 b8 40 55 bd a5 ad e2 3d f5 12 de 3d cc 46 c4 3d
       -0.052063674 0.11068276 0.108434595 0.09583816
000060 4a 79 8a 3d 30 8b 26 bd 99 62 dc 3d dd 7d 5f bd
       0.06761415 -0.040660083 0.107609935 -0.054563392
000070 20 0f ca 3d 0a cb 23 bd d7 d5 e2 ba 10 8d cc bc
       0.09866166 -0.039988555 -0.0017306161 -0.024969608
000080 65 65 8b bd 2e de a8 3d 8f 86 1f bd a9 e1 0e bd
       -0.06806449 0.082455024 -0.038946684 -0.034883175
000090 9f 87 bf bc df 19 9b 3d 05 a6 1a 3c 36 1d dc 3d
       -0.023380099 0.07573294 0.009438996 0.10747759
0000a0 0c 3e 26 3d 7f 2d 60 bd d5 ce 6c 3d 41 8e 73 3c
       0.040586516 -0.05473089 0.057814438 0.014865459
0000b0 48 ef 7d bd 26 b2 30 3d 37 54 e6 3c c0 58 44 bd
       -0.061995775 0.043138646 0.028116329 -0.0479362
0000c0 39 71 a4 bc 6f a4 c0 bc 18 a5 c0 3c 5f 42 4e 3d
       -0.02007352 -0.023515908 0.023516223 0.050356265
0000d0 68 12 81 bd cc 39 d0 39 50 7b d8 3d 64 9e c8 3d
       -0.06302339 0.00039715914 0.10570395 0.097958356
0000e0 62 86 b0 3d 57 a3 f2 3d 3b 27 f7 3d 57 a6 9d 3d
       0.086193815 0.11847561 0.120680295 0.076977424
0000f0 b8 65 bf 3d 0d 70 4a bd 54 35 4e bd c0 b5 88 bc
       0.09345573 -0.049423266 -0.050343826 -0.016688228
000100 12 79 71 3d be cf 35 bd 99 13 03 bc 66 23 71 3d
       0.058953352 -0.04438757 -0.008000278 0.05887165
000110 1b 02 95 3d 49 f4 b1 3c 26 e0 20 3d 40 4e 03 3c
       0.07275792 0.02172293 0.039276265 0.008014262
000120 92 b9 06 bd ff c9 68 3d 77 ba 6b bd 6b c2 5f 3d
       -0.032891817 0.056833263 -0.057550874 0.05462877
000130 c9 46 12 3d f0 3e cb 3d 89 6e d4 3d 56 4a c0 bc
       0.035712037 0.09924114 0.103726454 -0.023472946
000140 a1 b6 d0 3c 6f ca be bb 83 c8 b0 ba 01 3d 78 bc
       0.02547771 -0.005822472 -0.0013487492 -0.015151263
000150 64 c5 aa bc 8f b7 8d 3d 9f a5 63 bc d6 02 fb 3c
       -0.020846076 0.06919777 -0.013894468 0.030641
000160 75 6c 86 bd 55 fe 0d bd 3b 43 f2 3d 04 67 b0 3d
       -0.06563655 -0.034666378 0.118292294 0.08613399
000170 1b d2 c2 bc a7 98 3c 3c eb 6c 9e 3d b4 b3 c3 bc
       -0.023781827 0.0115110045 0.07735618 -0.0238894
000180 37 e5 55 3d 44 f6 60 bd da 38 74 bc 14 e5 04 3a
       0.05222055 -0.054922357 -0.014906133 0.00050695357
000190 1c 17 32 bd 24 18 bf 3d 27 b4 a1 bd e0 1e e5 3d
       -0.04347907 0.09330776 -0.078956895 0.111875296
0001a0 01 f3 3b 3d 1c 0f ba 3d a9 80 c9 3c 70 59 3f bb
       0.045886043 0.09084913 0.024597483 -0.0029197596
0001b0 c1 55 4b 3d 9b 75 be 3a c8 05 91 ba c2 41 86 3d
       0.04964233 0.0014530899 -0.0011064345 0.06555511
0001c0 76 09 79 3d 27 79 5f 3d 0b e9 59 bd 10 99 f3 3d
       0.06080004 0.0545589 -0.053200763 0.11894429
0001d0 ef 4f a6 3d 18 a8 38 bc 5a 7b a7 3d 73 54 e6 bc
       0.08120715 -0.011270545 0.08177824 -0.02811644
0001e0 83 3a 7c 3c 13 77 80 bd 48 91 b5 3d b7 5c 17 3d
       0.01539481 -0.062727116 0.08865601 0.036953654
0001f0 2c 95 44 3c 20 f4 70 3d c9 38 63 bd eb 63 86 3d
       0.011998456 0.058826566 -0.055474076 0.065620266
000200 df 6b b6 bd 16 d8 9c bd 1c 33 ca 3c dd 5b d2 3c
       -0.089072935 -0.076584026 0.024682574 0.02567857
000210 3e bf b1 bd 38 87 4b bd ed 48 f1 3c 36 08 a2 bd
       -0.08679055 -0.0496895 0.029453719 -0.07911722
000220 2c b9 9c 3d a9 c9 03 3d 68 e0 55 bc ce b0 8f 3c
       0.07652506 0.03217474 -0.013053991 0.017540362
000230 e7 f9 31 bd d0 44 c9 3b e2 69 0c 3d 8a ef 6f bd
       -0.043451216 0.0061422363 0.034280665 -0.05857805
000240 c0 09 4e 3b 4b e7 a4 3d 70 f1 fa bb 95 31 bd bd
       0.0031438917 0.08051928 -0.007658176 -0.09237973
000250 ec c7 5b bd 3a ed 9c bd 14 6b 91 3d 47 d1 1c 3d
       -0.053657457 -0.07662435 0.07100502 0.03828552
000260 eb a2 7d bd af 84 81 3c b0 26 1a bd dd 01 94 bd
       -0.06192295 0.015810339 -0.03763455 -0.07226918
000270 b8 7a 80 3d 8f 6e ac bc 60 8f 75 bd 6c 87 db 3b
       0.06273407 -0.021048812 -0.059951186 0.006699493
000280 ff 3b b1 bd 2b 29 48 bd c6 6b 9a bc 20 6b 30 bd
       -0.086540215 -0.048867386 -0.018850219 -0.043070912
000290 d7 db 1a 3c 14 10 f5 bc b9 4b 52 3c eb 34 0a bd
       0.009451828 -0.029914893 0.0128354365 -0.033741873
0002a0 a2 6f 7a 3c 1b a8 98 bd 9d 9c 99 bd 82 a1 31 bd
       0.015285404 -0.074539386 -0.07500575 -0.043366916
0002b0 70 a0 f6 bb fe 9c bf bc 20 5d b6 bd 3d 3b df 3c
       -0.00752645 -0.02339029 -0.08904481 0.027249927
0002c0 f8 21 43 3d 54 14 93 3d 7c 07 73 3d 44 60 ee bc
       0.047639817 0.07181612 0.05933331 -0.029098637
0002d0 4b d1 8f bd d8 a3 13 bc b3 0a 0d 3d b9 64 de 3c
       -0.07022341 -0.009011231 0.03443403 0.027147638
0002e0 da 3b 23 bd 19 01 a1 bd bb bf 95 3d 9e 24 98 3d
       -0.039852 -0.078615375 0.0731196 0.07428859
0002f0 59 4b 95 bd a5 f9 e1 3c 68 fb 95 3d 18 67 a4 bd
       -0.07289762 0.02758486 0.073233426 -0.08027476
000300 19 4c b1 bd 84 1c a0 3d 5f ab 94 3d 43 8e 32 3d
       -0.086570926 0.07817939 0.07259249 0.043592703
000310 d5 51 ba 3a 05 6c 8f 3d ba 52 a4 bd b2 5b 85 bd
       0.0014215062 0.07003025 -0.08023591 -0.0651163
000320 77 bc a2 3d 00 8d b0 bd 43 22 a1 bd af 1e a0 3d
       0.07946103 -0.086206436 -0.07867863 0.078183524
000330 27 e3 5d bd a3 e1 9d 3d 70 ef 40 3c d1 66 a9 bd
       -0.054171707 0.077090524 0.011775836 -0.08271564
000340 18 fe 09 3d 5e 38 17 3d 00 a7 8d 3d 5b 2a 96 3d
       0.03368959 0.03691899 0.06916618 0.073322974
000350 40 db 00 3b e8 57 aa bd be 42 09 3d 7c 81 85 bc
       0.0019661933 -0.08317548 0.033510916 -0.016297095
000360 02 e8 27 3d 9a aa 9d bc 9a 7b 80 bd 97 0a 21 bc
       0.040992744 -0.019246388 -0.06273575 -0.009829185
000370 4f 9b 14 bd 8d 8a 77 bc a4 f3 62 3c ff a9 b4 bd
       -0.036280926 -0.015108717 0.013852034 -0.08821487
000380 e0 22 8b bd 53 1a 14 bd 51 87 9d 3d 8a a4 67 3c
       -0.06793761 -0.036157917 0.07691825 0.01413835
000390 d1 30 e2 bb d7 1d 77 3c 88 5c 35 bd f9 da d6 bc
       -0.006902792 0.015082798 -0.044277698 -0.026227461
0003a0 e6 b3 ae bd b4 cb 2b bd 88 0b 55 3d 03 c5 20 3a
       -0.08530407 -0.041942313 0.05201295 0.00061328727
0003b0 ba 31 41 3d db 2e 9d bd b4 a0 f9 3c e6 64 36 bd
       0.047166564 -0.076749526 0.030472137 -0.044529818
0003c0 0e 3f 36 bd b5 1f a8 bd 40 7d 0d bc 5d 4a 85 3d
       -0.044493727 -0.08209173 -0.008635819 0.06508324
0003d0 f9 71 be 3c 92 80 dd bc a3 da 11 3c 45 3c b1 bd
       0.023247706 -0.027038846 0.008902225 -0.086540736
0003e0 8e e5 24 bc 92 67 2c 3d 51 1e 46 3d 9a fc a4 bd
       -0.010064496 0.04209096 0.048368756 -0.080559924
0003f0 4f c4 9b 3d 54 08 fc 3c 2c d3 51 bd f8 cd be bc
       0.07605802 0.03076569 -0.05122678 -0.023291573

network.2.bias f4 [128]
000000 64 5f 4e 3c 5e 6a b2 bd 9c 24 7c 3d 95 b7 a5 3b
       0.012595985 -0.08711694 0.06155835 0.005057285
000010 0f 45 97 bd 33 7b 84 3d 14 a9 29 bc 65 9f d6 3d
       -0.07386219 0.06468811 -0.010355253 0.10479621
000020 3e 6e 7d 3c bf a9 65 ba a3 6b ea bc 91 a9 c6 bc
       0.015468178 -0.0008760951 -0.028615778 -0.024250777
000030 7a a1 89 3c 0d e2 03 3d fd b1 eb bc 56 da d8 3d
       0.01680063 0.032198 -0.028771395 0.10588519
000040 21 28 1d bc 59 ab 8c bc fb 85 fb 3c c7 fc a9 bb
       -0.009592087 -0.017171549 0.030703535 -0.005187604
000050 5e 47 2c bd 34 0c 33 3d 74 fb a4 bc f1 77 aa 3a
       -0.04206025 0.04371281 -0.020139433 0.0013005716
000060 2b 71 aa bb 55 fe b0 3d c5 00 b8 3d af 2d 91 3c
       -0.005201479 0.0864226 0.08984522 0.017721979
000070 d9 50 e0 3c 96 9b 38 bc da 73 9c bb a1 1b 23 bd
       0.027382301 -0.011267563 -0.004774553 -0.03982127
000080 0b 68 37 bd ce 55 a6 bd 48 34 59 3d 4d c6 5c 3d
       -0.044776957 -0.08121835 0.053028375 0.05390005
000090 eb be 2c bc bc 7b ca bc 2b 14 15 3d b2 d7 4e bc
       -0.010543565 -0.024717204 0.036396187 -0.012624668
0000a0 f8 36 0e bd 06 34 fe bc f0 ef 99 3d 74 2a ad 3d
       -0.03472039 -0.031030666 0.075164676 0.08455363
0000b0 b8 1e 03 bd 86 a6 97 3c 20 81 84 3b a9 bb 58 3d
       -0.032011718 0.018512022 0.004043713 0.05291334
0000c0 05 fb 5c bb 1d 5a 73 3d a3 c8 a7 3d 7d b6 8a 3b
       -0.0033718955 0.05941211 0.08192565 0.00423318
0000d0 82 ea 38 3d ba d8 86 3d 70 8b da 3d b2 af 44 3c
       0.04514552 0.06584306 0.10671127 0.01200478
0000e0 2c 4b 15 3d f8 3b a1 3d ba 6a 02 3d 63 06 89 bd
       0.036448643 0.07872766 0.031840064 -0.06690671
0000f0 9a 18 4e bd 25 47 4e bd a9 34 11 bd 37 43 1c 3d
       -0.05031643 -0.050360817 -0.03545061 0.03815004
000100 54 ca cc bc ef 4e 91 3d dd b0 b0 3d 06 8f 11 bd
       -0.024998821 0.070951335 0.08627484 -0.03553679
000110 2b ea e1 3d 3a 70 9c 3d 4e d1 a2 3d 2c 77 c4 3d
       0.11030992 0.07638593 0.07950078 0.09593043
000120 98 db 43 3d 16 c0 02 bd e3 44 1c 3d 32 ee 9c 3d
       0.047816843 -0.03192147 0.038151633 0.0766262
000130 07 af a7 bd 78 d6 3d 3d 3f 00 aa 3d f3 c3 0d bb
       -0.08187681 0.04634711 0.08300828 -0.0021631687
000140 fb 79 f1 3b f3 4c 98 3c bb 19 04 3d 98 1e 29 bc
       0.0073692775 0.01859138 0.0322511 -0.0103222355
000150 cb 9f e9 3d 2e bd 12 3d 7b ff c5 3d 9b 39 f8 3c
       0.11407431 0.035824947 0.0966787 0.030300906
000160 c3 39 be 3d 24 82 91 bd 05 a2 3d 3d a9 ea c9 3d
       0.09288361 -0.071049005 0.046297092 0.09859211
000170 df b5 e9 3d b2 d6 95 bd f8 4f c7 3d 70 90 a4 3d
       0.11411642 -0.073163405 0.0973205 0.08035362
000180 f1 64 95 bd d1 02 79 3d 38 c4 66 3d 6c e2 11 3c
       -0.07294644 0.0607937 0.056339473 0.008904081
000190 af 45 15 3c 4b 30 d9 3c aa 76 64 3b 9c d7 98 bd
       0.009110852 0.026512286 0.0034860768 -0.07462999
0001a0 37 b0 84 3b 8b d5 86 bd 10 ce 8f 3b a0 01 b7 3d
       0.0040493268 -0.06583699 0.0043885782 0.08935857
0001b0 64 91 cb 3d 3a eb 57 bd 2b ba 3b bd fd f6 a4 3d
       0.099398404 -0.052714564 -0.04583184 0.08054922
0001c0 65 48 8b bd 28 b8 42 3b e8 05 d4 bb 4c cd 3c bd
       -0.068009175 0.0029711816 -0.0064704306 -0.046094224
0001d0 6f 1a 37 bd 9d 1f 43 bd 0d 90 ba 3a bf 9d 5a bc
       -0.044702943 -0.04763757 0.0014233604 -0.013343274
0001e0 5d de 29 bd b6 02 19 3c 82 79 b3 bd 4f 78 26 3c
       -0.041471828 0.009339025 -0.0876341 0.01016052
0001f0 a1 69 93 3d 6a 43 5f bc 75 19 16 3d 7c cf 5e bc
       0.071978815 -0.013626913 0.03664537 -0.013599273

network.4.weight f4 [5, 128]
000000 f8 af 6b 3d a4 1e c0 bb 41 2d fb 3c e6 94 81 bd
       0.057540864 -0.0058630276 0.030661227 -0.06327228
000010 67 34 0b 3d 9c 54 51 3d e1 38 b4 3d 15 a8 e4 bc
       0.03398552 0.05110608 0.08799911 -0.027912179
000020 7e dc ed 3b 22 78 3d bd 47 47 d8 3d ee ef da 3c
       0.0072589507 -0.046257146 0.1056047 0.026725736
000030 2f 00 c6 3d 95 69 84 3d 02 a4 2c 3d dd 23 3e 3c
       0.09668004 0.06465451 0.042148598 0.01160523
000040 7b 36 36 bd c0 3f 92 bc 98 92 ab 3d 29 4c 32 bd
       -0.04448555 -0.017852664 0.0837757 -0.043529663
000050 a6 68 f3 3d 6c 21 a2 3c 5a e4 b6 3d 9e 06 31 bd
       0.118851945 0.019791327 0.08930273 -0.0432192
000060 33 23 27 3d 9a 7c 9c 3d d5 bb b9 3d 10 0f a8 bd
       0.040805053 0.07640953 0.09069029 -0.08205998
000070 4f fe 86 3d f9 79 9f bd 9f f1 59 bc 84 c0 0e 3d
       0.06591474 -0.07786936 -0.013302236 0.034851566
000080 ce b9 3f 3d f4 74 92 bc 54 0f b8 bd 02 c0 bb 3c
       0.046808057 -0.017878033 -0.089872986 0.022918705
000090 1d 74 0e bc 38 aa a7 3d 08 e4 94 bd b1 6c e5 3c
       -0.008694676 0.081867635 -0.07270056 0.02800593
0000a0 16 00 a4 bd b9 7a 80 bd f3 1d d1 3c ee ef 04 3b
       -0.08007829 -0.062734075 0.025526976 0.002028461
0000b0 76 9f f0 bc f7 ef 20 bd 48 f4 0d bc 48 d4 4c bd
       -0.029372912 -0.03929135 -0.008664198 -0.050007135
0000c0 7f b2 b6 3d 40 91 04 bd 44 a2 86 3c f5 60 81 bc
       0.08920764 -0.032365084 0.016434796 -0.015793303
0000d0 b9 45 70 3d 7f 2e 35 bd 18 eb b2 3d a9 56 bc 3b
       0.058660243 -0.044233795 0.08736247 0.0057476354
0000e0 93 1d a3 3d ab 53 13 3d 90 18 a6 3d dd 9a 91 3d
       0.07964625 0.035968464 0.08110154 0.07109616
0000f0 8d 6f 5b 3d 11 b7 4d 3c cc e5 81 bd 36 ec dc 3c
       0.05357318 0.012555853 -0.063426584 0.026968103
000100 08 a3 52 bc 3a f5 39 bd 8d 07 9f 3c 95 5e 92 bd
       -0.0128562525 -0.045399882 0.01941278 -0.07146946
000110 25 07 5f 3d b2 62 b2 3d 34 f6 b2 3d dc a5 91 3d
       0.054450173 0.08710231 0.08738366 0.07111713
000120 fe 31 db 3c 52 9c 33 bc 27 44 02 3d 84 1b 9c bc
       0.026757237 -0.010962563 0.031803276 -0.01905609
000130 9f 5d 70 3c aa 51 99 bd 80 c1 20 3d a5 2c 1d 3c
       0.0146707585 -0.07486279 0.039247036 0.009593164
000140 4b 1f ae 3c e6 c7 96 bc 88 3e 62 3d 4d be ae bc
       0.021255156 -0.018405866 0.055235416 -0.021330977
000150 89 e9 7d bb ef 85 ab 3d ec 9d e1 bc 31 05 0b 3d
       -0.0038743934 0.08375155 -0.027541123 0.033940498
000160 6c fb 32 bd ce 08 99 bd 64 17 b5 3d 1c 9b 31 3d
       -0.043696806 -0.074723825 0.08842352 0.043360814
000170 3f cd 96 3d 25 a0 5a 3d 9c 92 ae bd 0f ea 96 3d
       0.07363366 0.053375382 -0.08524057 0.07368862
000180 5d 2c ab bd b7 8f 87 bc 7e 81 9c 3d e4 2c b3 bd
       -0.08358071 -0.01654802 0.07641886 -0.087487966
000190 46 85 2c bc 26 11 04 3d c2 6f 99 bc cf fc d1 bc
       -0.010529822 0.032242917 -0.018730048 -0.025633244
0001a0 c6 13 81 bd 5a 5a 9e bd eb da 1a bc 30 61 a4 bd
       -0.063025996 -0.07732077 -0.009451608 -0.080263495
0001b0 d4 00 61 3d 89 4e 58 3d a2 ba 46 bc 36 9f a3 3d
       0.05493243 0.052809272 -0.012129458 0.079893515
0001c0 ce 29 09 bd 12 aa 82 bd 4e 31 6f 3d af 57 60 3d
       -0.033487134 -0.063800946 0.05839663 0.05477112
0001d0 77 03 dd 3c c7 06 a9 bd 95 0a 84 bd 35 c6 80 3b
       0.026979191 -0.08253246 -0.06447331 0.003929878
0001e0 77 2a bb 3d 70 9b 74 3a 99 7c 4d bd 2e 03 14 bc
       0.09138959 0.00093310233 -0.050167654 -0.009033961
0001f0 ae e0 58 3d 6a 1d 88 bd 17 62 63 3c 7b f1 92 3a
       0.052948646 -0.06646235 0.013878367 0.0011210883
000200 bc 1f ac bd 01 0b 97 3d 5a aa 8b 3d a5 3d 2f bd
       -0.0840449 0.07375146 0.06819601 -0.0427834
000210 44 0e 30 3b 09 e3 aa bd 01 2a 8e bd 2b e7 54 3b
       0.0026863972 -0.08344085 -0.06941605 0.003248642
000220 c0 18 55 bd 48 eb 84 bc f9 30 fd bc 40 9c 18 bd
       -0.052025557 -0.016225472 -0.030907141 -0.037258387
000230 65 cf b5 bd df 42 a3 bc a9 d9 29 bd 6d 97 10 3d
       -0.08877448 -0.019929348 -0.041467343 0.03530066
000240 f6 1f 5a 3d a1 8f 64 bc 3e 51 29 3c ba bd a6 3d
       0.053253137 -0.013950259 0.010334311 0.08141656
000250 af 28 c5 bb fc f1 91 bd 0f 0d 4c bd 01 11 a9 bd
       -0.0060168128 -0.07126233 -0.04981714 -0.08255196
000260 e8 08 88 bc ed 30 bd bd 5d fb 58 bd cb 88 7b 3d
       -0.01660581 -0.092378475 -0.052974094 0.061409753
000270 65 b9 4c bc c3 85 f7 bd d8 db ee bd 28 7e 60 3d
       -0.012495373 -0.1208606 -0.116630256 0.054807812
000280 13 b4 8c bd ba a3 83 3d 29 73 25 3d b2 9e 1e bc
       -0.06870284 0.06427713 0.04039303 -0.009681391
000290 8f 4d e9 bd da a4 eb bb 35 d6 c9 bd 29 80 ea bd
       -0.11391746 -0.0071912827 -0.0985531 -0.11450226
0002a0 db f3 a1 3d 75 8e ef bd 1e 45 47 3c 26 11 8b bd
       0.0790784 -0.116970934 0.012162475 -0.0679038
0002b0 26 51 66 bd 65 31 c2 bc f0 d2 fe 3b 89 a2 3f 3d
       -0.056229733 -0.023705194 0.0077766106 0.046785865
0002c0 20 89 41 3c 7f 09 97 bd 4a e2 06 bd 90 35 d2 bd
       0.011812478 -0.07374858 -0.03293065 -0.102641225
0002d0 75 41 45 bd 64 48 66 3d 49 a8 43 bd 2d 69 0e ba
       -0.048158128 0.05622138 -0.04776791 -0.00054325425
0002e0 da 9f 47 ba 42 46 47 bd 9b e5 9c 3d 7e 01 a3 3d
       -0.00076150673 -0.048650987 0.07660981 0.07959269
0002f0 a5 8e 21 3d 6a 7c da bc f9 cd 42 bc 4e dc 6f bc
       0.039442677 -0.026670653 -0.011889928 -0.014639927
000300 a7 5a 6b bd ac ec c9 bd b8 9b 0b 3d e0 b6 b6 3b
       -0.0574595 -0.09859595 0.03408405 0.0055759996
000310 4c 8e c1 bd fd 6b 10 3d ff 7c 69 bd a6 0f 7f bc
       -0.09450969 0.035259236 -0.05700397 -0.015567696
000320 10 d5 d7 bc 79 6c a7 bc a1 ad 1a 3d ab 24 4b bd
       -0.026346713 -0.020437466 0.03776324 -0.049595516
000330 71 04 8c 3d ba f2 e3 bd 6a 46 b2 bd 5c d9 2b bc
       0.06836785 -0.11130281 -0.08704837 -0.010488834
000340 ac ce ed bc 45 c9 2a bd 20 a4 33 bb a8 43 8e bd
       -0.029029213 -0.04169585 -0.0027411059 -0.06946498
000350 30 34 96 bd e6 f3 e3 bd ff 32 a9 bc bf a1 79 3c
       -0.07334173 -0.11130504 -0.0206542 0.015236317
000360 52 01 9e bd 5e 88 23 3d 1f 25 be bd ae 3e 46 bd
       -0.077150956 0.03992497 -0.09284424 -0.04839962
000370 e3 24 d1 bd 28 be cd 3c 4a 53 6a bc 0d d2 ce bd
       -0.10212114 0.025115088 -0.014302084 -0.10098658
000380 d4 aa 27 bd 6c 2b 44 3d 9f 58 8c 3d e0 f5 41 bb
       -0.0409344 0.047892973 0.06852841 -0.0029596016
000390 bf 97 84 bd d4 42 82 bc 1f 59 e2 bc 7d 74 69 3c
       -0.06474256 -0.015901007 -0.027630387 0.014248964
0003a0 89 79 6c 3d 70 31 8d 3d 70 48 e6 bd af 82 c7 3c
       0.057733092 0.06894195 -0.11244285 0.024354307
0003b0 16 89 45 bd af b7 2c bd d9 8a aa 3d 28 4d b2 bd
       -0.04822644 -0.04216736 0.08327264 -0.08706123
0003c0 d8 fe fd bc ff 57 93 bd 1b 3b 59 bb ca 2c 9b 3d
       -0.031005308 -0.07194518 -0.0033146802 0.07576902
0003d0 e7 e0 63 3d 4a d8 47 3d bd 6d 61 bd 9e 50 12 3d
       0.055634405 0.048790254 -0.055036295 0.035721414
0003e0 cc fd 05 3d 4e 3f 98 bd fd f3 46 3d 89 7b 93 3d
       0.032712743 -0.074339494 0.04857253 0.07201297
0003f0 26 ce 41 bb 94 38 42 3c ce 2e 9d bc 86 a7 cf bd
       -0.0029572337 0.01185431 -0.019187357 -0.101393744

network.4.bias f4 [5]
000000 15 48 10 bd 01 b1 d8 bd 93 d6 62 bb ea a0 63 bb
       -0.035224993 -0.10580636 -0.003461276 -0.0034733363
000010 df cb 80 bc
       -0.015722213

network.0.weight f4 [128, 24]
000000 c0 b5 62 3d d6 66 67 be 48 00 da bc 89 4c ac 3d
       0.05534911 -0.22597823 -0.026611462 0.084130354
000010 65 8c 86 3d 26 95 50 3e 11 42 b1 3d 9f 50 b8 3d
       0.06569747 0.20369396 0.08655179 0.08999752
000020 f1 0e 62 3e 33 9d 9d bd 76 40 1d 3e 29 df a2 3c
       0.22076012 -0.07695999 0.15356621 0.019881802
000030 4e 89 ad 3d 94 70 6b be 53 82 ce 3d b4 a2 5c be
       0.084734544 -0.22992164 0.10083451 -0.21546441
000040 63 2c 90 3c 82 eb 67 bd 97 ff 50 3e ba 09 fb bc
       0.01759929 -0.056621082 0.2041 -0.030644286
000050 3e 87 53 bd a4 48 c5 3d 35 ea 0a bd ba 89 e9 3c
       -0.05164265 0.09632996 -0.033914763 0.028508056
000060 d0 7d 66 bd bc 08 e7 bc f9 6d e7 bd 23 83 06 be
       -0.056272328 -0.028202407 -0.113002725 -0.13135962
000070 66 1a 3c 3e 0d a5 22 be 31 7b 19 be ae 69 db 3d
       0.18369445 -0.15883274 -0.149884 0.10713516
000080 3c 44 c2 bd 75 6c 30 be 57 7b 25 be 85 ef 45 be
       -0.09485671 -0.17228873 -0.16160332 -0.1932965
000090 c6 51 3f 3e ae c6 18 3e d6 86 da bd 13 79 c9 bc
       0.18683538 0.1491954 -0.10670249 -0.024593865
0000a0 c6 77 cf 3c 1f a0 ba 3d 78 13 ea bc da 13 20 be
       0.025325667 0.09112572 -0.028573737 -0.15632573
0000b0 34 14 bd bd fe 12 4a be c2 b5 06 bd 4e 8a a6 3d
       -0.09232369 -0.19733807 -0.03288818 0.08131848
0000c0 6d 42 72 3d e5 18 1f bd d0 0f 7a 3e 52 5a 03 3e
       0.05914538 -0.0388421 0.24420094 0.12827423
0000d0 00 d3 8b bd ee 20 1f be 32 8f d9 bd da 41 02 be
       -0.068273544 -0.15539905 -0.106230155 -0.12720433
0000e0 10 47 b9 bd 51 65 3f bd e1 fb 07 3e c5 f9 34 3b
       -0.09046757 -0.046727482 0.13279678 0.0027614695
0000f0 e5 f8 7f bd 88 bd f9 bc 44 61 2a be 4b ac 32 3e
       -0.062493224 -0.030485883 -0.16638666 0.17448537
000100 38 dc c0 3c 61 06 19 3e c9 21 71 bd 01 53 3f be
       0.023542508 0.1494384 -0.05887011 -0.18684007
000110 02 98 20 bc e9 f1 dc 3d 47 68 c2 3c a1 0b 44 bd
       -0.0098018665 0.10788328 0.023731364 -0.047862653
000120 46 98 7a be 44 5b 4a 3e 01 1e 6a be 88 9e 06 bd
       -0.2447215 0.19761378 -0.22863008 -0.03286603
000130 fc 80 83 bd 69 50 cb 3d 20 72 05 3e 2b e0 44 bd
       -0.06421086 0.099274464 0.13031816 -0.048065346
000140 22 c9 22 be a3 2d 75 be 95 6c b7 3d 32 e9 08 3d
       -0.15897039 -0.2394319 0.08956257 0.033425517
000150 ff ae f1 3c 6d 69 34 3e 68 cd 1c 3e a4 d9 0b 3d
       0.02950239 0.17618342 0.15312731 0.034143105
000160 e1 c2 f9 3d 7c b1 c4 bd 0a 41 8d bd 69 bb cd bd
       0.12195373 -0.09604165 -0.06897171 -0.10045511
000170 f4 89 17 3e 06 35 a8 3d 66 9c bf 3b 0a b2 1d 3d
       0.14798719 0.082132384 0.0058475016 0.03849987
000180 3f 6f 17 3c 78 43 06 bd 69 92 0d be be a8 e9 3d
       0.009242832 -0.032779187 -0.13825382 0.11409138
000190 c2 d5 95 3d 3b b6 05 3e 7a 85 b9 bc 4f 20 b7 3d
       0.07316162 0.13057797 -0.022646654 0.08941709
0001a0 83 cb a5 bb 94 23 b6 bd fa 26 e8 bd 6f 1d ff bd
       -0.005059661 -0.08893505 -0.11335559 -0.12456786
0001b0 e3 90 7e be 68 a3 ef bc dd 4d 0e 3e 97 ef 19 be
       -0.24859957 -0.029252723 0.1389689 -0.15032803
0001c0 c8 a9 30 3e ae 98 b8 bc 16 72 26 3e ac 29 86 bd
       0.17252266 -0.02253374 0.16254458 -0.06550917
0001d0 90 6f 70 bd ef 86 d3 3c 90 ed 9c bb c2 ff af bd
       -0.058700144 0.025821177 -0.004789062 -0.08593704
0001e0 34 07 29 3e 69 55 cb bd 41 d3 21 be 9f 4c 19 bd
       0.16506654 -0.099284 -0.15803243 -0.037426587
0001f0 09 79 16 bd fb 9a fd 3d 61 69 96 3c 73 e9 af bd
       -0.036736522 0.12383076 0.018360795 -0.08589449
000200 86 b0 50 be 0e cd 3e be bc 7c f1 bd f7 08 ea bd
       -0.20379838 -0.1863291 -0.11791369 -0.11427491
000210 a8 54 eb 3b 0c a4 47 3c 74 77 f5 3d a2 42 6c be
       0.0071817227 0.012185108 0.119856745 -0.23072293
000220 73 5d 43 3d f1 ac 59 3e f6 d6 4e be 67 93 64 bd
       0.047696542 0.21257378 -0.20199189 -0.055804636
000230 b6 dd 33 be 9c 6e 0b be 28 a9 1e bd ba 5c 57 3e
       -0.17565045 -0.13616413 -0.03873554 0.21031466
000240 53 fd 6a be 09 06 d3 3c 19 79 1d bc 0b 35 1f 3e
       -0.22948198 0.025759714 -0.009611391 0.15547578
000250 ba b4 95 bc f6 43 26 bd c5 2e 4d 3e c2 ed c2 bd
       -0.018274654 -0.040592156 0.20037372 -0.09518005
000260 af 6a df 3d 6e d0 36 3e a1 04 fe 3b da 3c 7f 3d
       0.1090902 0.17852947 0.0077520167 0.062313892
000270 44 eb a5 3d 53 6e ba bd e1 2b 17 3d 0a c5 75 be
       0.08101514 -0.09103074 0.03690708 -0.24000946
000280 9f be 81 3d 22 73 1a 3d bb 50 15 3d 89 d3 cc bd
       0.06335186 0.037707455 0.036453944 -0.10001285
000290 70 29 de bc 88 8f 31 3b c1 be 05 be 8f 60 da bc
       -0.027119368 0.0027093608 -0.13061048 -0.02665737
0002a0 3f 81 02 3e 9b 56 b4 3d 21 de 1b 3d b5 49 6e 3c
       0.12744616 0.08805581 0.038053636 0.01454394
0002b0 d3 3e 54 be 00 79 a7 bd 31 67 ad bc af 8f b5 3d
       -0.2072709 -0.08177376 -0.02116737 0.08865296
0002c0 dd cd d4 3c a9 d1 7d 3e 2f 40 5c be 0b 4d 93 bd
       0.02597707 0.2478701 -0.21508859 -0.07192429
0002d0 8b 85 61 3d 2d c3 1b 3d 0c 43 d9 3d 8d 9b c9 bd
       0.055058997 0.03802793 0.10608491 -0.09844122
0002e0 f8 fa 86 bd b7 2d 0b 3e 96 c6 5f 3e cf ae c2 3d
       -0.06590837 0.13591658 0.21853098 0.09505998
0002f0 2b 34 81 bc 96 39 04 3d 0d 50 c6 bd dc 71 51 bd
       -0.015771946 0.03228148 -0.09683237 -0.051133975
000300 33 61 05 be 5e 0f a7 bd bc 05 15 3d 39 d5 9f 3d
       -0.1302536 -0.08157228 0.03638242 0.07804341
000310 55 62 73 3e 64 66 18 be 3a 77 04 3e b1 d9 84 be
       0.2376798 -0.14882809 0.12936106 -0.25947335
000320 71 63 2c be 38 3b 4e bc f8 87 3a 3d 1f ef 8b bd
       -0.16834809 -0.012587361 0.045539826 -0.06832718
000330 cc 68 2d 3c ee f3 0b 3e a1 fd 24 3e 44 9a f3 bc
       0.010584068 0.1366727 0.16112377 -0.029736646
000340 87 06 e9 bd 0a c1 dc 3c 9e 91 0a be 9c 73 1e bc
       -0.11378198 0.026947517 -0.13532111 -0.009671118
000350 da 11 81 bd bb 74 fb bd 62 4c 83 3c 09 87 8c 3d
       -0.06302233 -0.12278124 0.016027633 0.068616934
000360 18 d9 92 bd e6 66 74 3e af 71 a9 3d 60 2d 0d 3e
       -0.071703136 0.23867378 0.082736365 0.1378684
000370 5a e5 d9 3c 50 2c 15 3e 4c 6d 38 be 85 ee f6 3d
       0.026598621 0.14567685 -0.18010443 0.12057213
000380 e8 8d 36 be 11 dd 08 be 06 84 50 3d 3a cb d6 3d
       -0.1782757 -0.1336558 0.050907157 0.10487981
000390 04 16 2c be b7 07 14 3e 3f 4f 63 3e 11 19 a7 3d
       -0.16805273 0.14456068 0.22198199 0.08159078
0003a0 45 1a 61 3e 8a c9 4e 3e c6 f5 d4 3d 88 28 59 3e
       0.21982677 0.20194069 0.1039844 0.21206868
0003b0 3d 60 91 bd 18 d3 d0 3d 24 33 26 be bb 00 10 3e
       -0.07098434 0.10196513 -0.16230446 0.14062779
0003c0 33 46 13 3c 60 44 51 3d dc b4 88 bc 45 eb 9e 3d
       0.008988905 0.051090598 -0.016687803 0.07759718
0003d0 91 8c 85 3d b4 67 a0 bd 1d 7c 20 3e 83 3f 16 be
       0.065209515 -0.0783228 0.15672345 -0.14672665
0003e0 ad b6 3c 3e 1c 3b 0a 3e cd 34 05 3c c3 2f dc 3d
       0.1842906 0.13499111 0.0081302645 0.10751297
0003f0 bf d8 ca bd 49 c1 c4 3d ad 4e 1f bd a1 8d 9d 3d
       -0.09904622 0.09607179 -0.03889339 0.07693029

network.0.bias f4 [128]
000000 71 28 a8 bd 7c 36 5f 3e fa 61 d2 3d 0a 00 8d bb
       -0.082108386 0.21798128 0.10272594 -0.004302983
000010 f3 32 46 bd ec 13 50 bd 45 a7 a2 bd 08 12 f7 bd
       -0.048388433 -0.05080025 -0.079420604 -0.12063986
000020 73 28 32 be ba 88 c9 3d 31 9c 38 3e 47 3a e3 bd
       -0.17398243 0.09840532 0.18028332 -0.110951
000030 f4 01 26 3e 2f 64 8f 3d a2 aa 29 bd b1 58 c3 3d
       0.16211683 0.070015304 -0.041422494 0.09538401
000040 b5 b0 82 bd aa c2 ae 3d ae ff 09 be d4 ee 1f 3d
       -0.063813604 0.08533223 -0.1347644 0.039046124
000050 7b 94 59 3e a7 ca 90 bb 51 39 0a 3d 75 fa 87 bc
       0.21248047 -0.0044186893 0.033746067 -0.01659892
000060 82 a1 a1 3d 88 eb 42 be bf 10 f0 bc fc 47 b5 3d
       0.07892133 -0.1903516 -0.02930486 0.088516206
000070 2d 0c 3c be 52 f0 4b bd f1 bb 52 3e 9b 8f 8e bd
       -0.1836402 -0.049789734 0.20579506 -0.06960984
000080 18 84 41 be 9c a5 3f bd 84 4b 98 3d c4 e8 f2 3d
       -0.18898046 -0.046788797 0.074362785 0.11860803
000090 25 a7 b9 3d f9 20 50 3e 51 98 a8 3d e4 6f da bd
       0.090650834 0.20325078 0.08232177 -0.10665873
0000a0 37 e0 fd bd 2e f5 f4 bc 3c c2 87 bd 4b 76 bb 3d
       -0.12396281 -0.029902067 -0.06628844 0.09153422
0000b0 c4 93 a9 3d 0a 54 97 bd 67 74 10 3e cc dd 7d 3c
       0.08280137 -0.07389076 0.14106904 0.015494775
0000c0 ec cd 20 be 8b 4d 67 3b 9e f2 86 3d 6a 92 02 be
       -0.15703553 0.0035294022 0.06589244 -0.12751165
0000d0 34 08 da bd 82 56 6c bd a5 71 00 be 76 92 2a 3d
       -0.10646096 -0.057699688 -0.12543352 0.041643582
0000e0 f7 5d fc 3d 51 b7 9b bd 02 85 16 3e 5d ec ac 3d
       0.1232261 -0.07603324 0.14699176 0.0844352
0000f0 92 ed f3 3d 73 1d 64 bd 6e df 1b be 7e 68 1e be
       0.11910547 -0.055692147 -0.1522195 -0.15469548
000100 a0 3f 3b 3e d3 c6 70 bc a8 ad 04 3e c2 55 1d 3e
       0.1828599 -0.014695841 0.1295687 0.15364745
000110 fe a2 95 3d 6e a0 b2 bd 75 c4 d8 b9 4d 37 65 3e
       0.07306479 -0.08722006 -0.00041345102 0.22384377
000120 1d 8d 3b 3e ee 48 8e 3d a0 9b ea bb 55 2b 1f be
       0.18315549 0.06947504 -0.007159665 -0.15543874
000130 23 ed fa bb 4c ac 1f be 8c 6a 45 3e 27 ee 80 bc
       -0.0076576634 -0.1559307 0.19278926 -0.01573856
000140 eb 4a 51 3e 96 d4 36 3e 6a 65 45 3e 8f 1d ae bd
       0.20438735 0.17854533 0.19276968 -0.085017316
000150 e5 32 aa 38 04 94 3e 3e 20 7a ee 3d d4 e8 69 3d
       8.1157115e-05 0.18611151 0.11644387 0.057106808
000160 c7 0b 8f 3c 7f 1a 67 bd b8 36 26 bd 55 f0 47 3e
       0.01746167 -0.056421753 -0.040579528 0.19525273
000170 0d 58 07 bd 00 cc 95 bd 16 7c 70 bc 85 89 17 3e
       -0.033042956 -0.073143005 -0.014678022 0.14798553
000180 fb e0 e5 3d fa b6 30 3e 2f 46 e9 bd dd a5 b9 bd
       0.11224552 0.172573 -0.113903396 -0.09064839
000190 a0 21 d0 3c d8 e3 cf 3d cc 4b 8f 3d 90 4c ac 3d
       0.025406659 0.101508796 0.06996879 0.08413041
0001a0 92 bf 5f 3d 03 e1 f8 3d df 16 63 3e 38 37 db bd
       0.054626055 0.121522926 0.22176693 -0.107038915
0001b0 45 99 a8 ba e9 37 40 be bb 7b 45 3d 46 8f 82 3d
       -0.0012863061 -0.18771328 0.0482137 0.063749835
0001c0 8a a7 bb 3d 96 a4 c4 3d f2 a9 a0 3c c0 25 df 3d
       0.09162815 0.09601705 0.019612286 0.10895872
0001d0 d1 a8 9e bc 38 4b 6c 3e e2 aa ac bd 52 d9 54 3e
       -0.019367607 0.23075569 -0.08431031 0.20786026
0001e0 7d 2f 19 3e 96 c8 2d 3e 3d 01 4d 3e ff 93 a0 bd
       0.14959522 0.16971049 0.20020004 -0.07840728
0001f0 85 13 79 3d 60 b3 0c 3e 2d 33 fb 3d bf ea d3 3d
       0.06080963 0.13740301 0.122656204 0.10347509

network.2.weight f4 [128, 128]
000000 d3 63 60 3d 4e 7b 36 3d 8b 34 da bc 62 05 6a bd
       0.0547827 0.044551186 -0.026636383 -0.05713404
000010 87 58 06 3d 97 ca f0 3c 19 f6 8a bc 8d b0 b2 3c
       0.03279927 0.029393477 -0.016963052 0.021812702
000020 65 8e 0b 3e 1f 56 ac bc f3 a0 82 3d ab bc 21 bb
       0.13628538 -0.02103716 0.06378355 -0.0024679105
000030 80 f3 06 bd 9e eb 46 3b e3 65 5d bd 63 0d 89 bd
       -0.032947063 0.003035284 -0.054052245 -0.066920064
000040 ef f9 3c 3d 03 7f 63 bb a0 80 f9 3d d6 48 af 3d
       0.046136793 -0.0034713156 0.121827364 0.08558814
000050 8c fc b3 3d b7 87 94 3b 58 93 2f 3d 4e 89 2d 3d
       0.08788404 0.00453278 0.042865127 0.042367272
000060 fa 2d c9 bd a2 c6 c1 bd b6 e6 b8 3d 90 c3 9e 3d
       -0.098232225 -0.09461714 0.090283796 0.07752144
000070 00 3e 18 3d e6 e8 56 3d ae ec c0 3c 44 66 c8 3d
       0.037168503 0.052468203 0.023550358 0.097851306
000080 0c 3b e0 3d fb 28 7a bd b6 8d 9d 3b 3a 85 72 3d
       0.10948762 -0.06107424 0.004808153 0.059209086
000090 61 6a 2a bd 1a e4 95 3c 77 00 20 3c 59 2c 0c 3c
       -0.041605357 0.018297244 0.009765736 0.008555495
0000a0 d7 d2 09 bd dd cc 4e 3d f1 09 98 bc 97 b3 04 bd
       -0.03364834 0.05048834 -0.018559428 -0.032397833
0000b0 88 b2 b3 3c 61 6c 8b 3d da 86 8f bd 29 01 83 3d
       0.021935716 0.06807781 -0.07008143 0.06396706
0000c0 37 f9 85 3d 9c ef 12 bc 5e 7e 0b bd 16 74 08 bc
       0.065416746 -0.00896826 -0.03405606 -0.008328458
0000d0 5d ef 26 bd d1 c2 9a 3d 9b 99 95 3d b8 cf 97 3d
       -0.04075562 0.075566895 0.073046885 0.07412666
0000e0 7e 7d 56 bc ff 0a 50 bd 81 79 66 3b 86 35 8e bd
       -0.013091443 -0.050791737 0.0035167637 -0.069438025
0000f0 c5 58 b7 3d 33 73 1c 3b e0 ba f2 bc 2a 03 1c 3d
       0.08952478 0.0023872375 -0.029630125 0.038088955
000100 49 65 68 3d 3b 2d 6a 3c d8 73 79 bd 73 04 2f bc
       0.056737218 0.01429301 -0.060901493 -0.010682213
000110 fe 9a 96 3c 9d 14 e6 3c 99 ba 8a bd ae 31 84 bd
       0.018384453 0.028086001 -0.06773872 -0.06454788
000120 d6 d2 ce ba 9f 09 26 bd 07 f6 26 3d 3a 45 13 3d
       -0.0015779387 -0.04053652 0.040761974 0.03595469
000130 f9 22 46 3c bc b3 24 3c f8 e7 5d 3d 78 bf 7e bd
       0.012093299 0.010052618 0.0541763 -0.062194318
000140 2e b3 cc bc 36 7b 81 bd 3c b3 86 3d c4 42 3b 3b
       -0.024987783 -0.06322329 0.06577155 0.002857373
000150 05 76 70 bc f2 29 25 bc 05 4a bf bd 4e e1 d8 bc
       -0.014676576 -0.010080801 -0.0934029 -0.026474621
000160 8a 86 b6 3b 7a bd a9 bc 6f 00 b7 3d 55 47 e5 bd
       0.0055702375 -0.020720232 0.089356296 -0.11195246
000170 21 90 61 bb 6f 42 85 3d 91 20 07 bd 01 b6 e3 3c
       -0.0034418183 0.06506812 -0.032990042 0.027796747
000180 a4 bb 65 bd 94 1b 41 3c 62 20 96 3c 39 bf 87 3d
       -0.05608715 0.01178636 0.018325988 0.0662827
000190 33 77 74 bc e5 2b 64 3d 52 2b 33 3c 6b d3 c8 bb
       -0.014920997 0.055705924 0.010935621 -0.0061287186
0001a0 d3 1a 5a 3c 71 00 5e 3c 30 91 94 3d 60 72 a9 3d
       0.013312059 0.01354991 0.07254255 0.082737684
0001b0 73 6c cc bd 11 2c 67 3d 2e 94 65 bd 36 d0 50 3d
       -0.099816225 0.05643851 -0.05604952 0.050979815
0001c0 a8 5a 11 bd 67 f9 d9 bb 3b 78 b7 bc 41 18 b3 3d
       -0.035486847 -0.0066520455 -0.022396198 0.087448604
0001d0 3d da 0d bd eb ba fa bc 78 41 95 bc aa 25 48 3c
       -0.034631956 -0.030606708 -0.018219694 0.012216011
0001e0 50 39 89 bd dc 20 8f bd f6 af 95 3c 55 f0 0f 3d
       -0.067003846 -0.06988689 0.018272381 0.035141308
0001f0 cb ee 5c 3d cd 97 71 3d f8 05 e5 bd 02 66 c5 3c
       0.05393867 0.05898266 -0.11182779 0.024096493
000200 9a e2 ec bc cd 69 0f bd 83 17 6b bd b4 21 e8 3c
       -0.028916646 -0.03501301 -0.05739547 0.028336383
000210 7f 5e d1 3d ce 7b 6d bc af f5 1f 3d 5b 24 c4 bc
       0.10223102 -0.014494849 0.03905266 -0.023943117
000220 e4 8b 54 3d ad 7b ad bd f6 55 10 bd d9 bb 9a bd
       0.051891223 -0.08470855 -0.03523823 -0.0755536
000230 07 13 48 bd c0 28 7a 3c e3 67 f9 3d 92 1d 11 bb
       -0.04884627 0.015268505 0.12178018 -0.002214287
000240 f8 ec 08 bb d3 2c bb 3c ee f8 f2 bb d4 00 36 3d
       -0.0020893198 0.022848522 -0.0074149286 0.044434384
000250 3a 2b 96 3d f0 c4 86 3d 3c 11 2d bd 37 f5 40 3d
       0.073324636 0.065805316 -0.042252764 0.047108855
000260 6a ec f9 3c 95 e2 bb bd 9b 70 ad bd 3f 45 80 bd
       0.030508239 -0.091740765 -0.084687434 -0.06263208
000270 70 1e 9d 3d 04 8d 04 3c 94 1c 60 3c 17 f5 2c 3d
       0.07671821 0.008090261 0.013678689 0.042225923
000280 cb cc 13 be ec ab 9a bc 2d f8 56 3d db 8d c2 3c
       -0.14433591 -0.018880807 0.052482773 0.023749283
000290 87 6d a6 3d 84 f5 6d 3d 84 dc e3 3d c0 4b 31 3d
       0.081263594 0.05809547 0.111260444 0.04328513
0002a0 43 5a 14 bc 7e 36 07 3e b0 77 bf bd 0f 12 96 bd
       -0.009054723 0.13204381 -0.093490005 -0.07327663
0002b0 43 c3 3d 3d 14 34 30 3d 8d 0c 70 3d 25 23 c9 3d
       0.046328794 0.043018416 0.05860572 0.098211564
0002c0 2e b1 fb 3c 92 85 3b 3d 64 61 41 3a cd 3f d5 3d
       0.030724134 0.04578168 0.0007376878 0.1041256
0002d0 48 0d 0b 3d 1b 95 a3 3d 98 f4 29 3e 35 94 83 3d
       0.033948213 0.07987424 0.16597211 0.064247526
0002e0 bd 3f 97 3d a4 16 6c bd 40 68 6c 3d 8d 09 19 3d
       0.07385204 -0.05763878 0.057716608 0.037362624
0002f0 35 57 b2 3d 4b 29 6b 3d 36 4e 32 3d f1 34 56 bd
       0.0870804 0.057412427 0.04353162 -0.052296583
000300 a8 14 c7 bd 6e 13 62 3d 8a 09 02 3d d3 f5 20 3c
       -0.09720737 0.05519431 0.03174738 0.009824234
000310 d0 da 44 3c bd 7b cf 3d 6e 17 46 bd df 6e a0 3d
       0.01201506 0.10131023 -0.048362188 0.07833647
000320 fe d9 3a bd 81 8a b1 bb d9 98 9d 3c ca 61 9a 3d
       -0.04561805 -0.0054181223 0.019237923 0.07538183
000330 eb 09 b3 bd d6 22 3e bd 80 5a c1 bd bd 6c 08 3a
       -0.08742126 -0.04641994 -0.0944109 0.00052041915
000340 7a 0c de b7 13 da 84 3d 39 e4 b4 3d da 26 ef 3d
       -2.6470272e-05 0.06486907 0.088325925 0.11677332
000350 34 d8 87 bd 72 d8 84 bd 46 54 25 bd 0d 45 24 3d
       -0.06633034 -0.06486596 -0.040363573 0.040104914
000360 31 6f 89 3c f1 ef 36 3d c6 60 b5 3d a4 ed 9d bb
       0.016776653 0.04466242 0.08856349 -0.0048195887
000370 42 2b 4f bd bd 56 a1 bd 5c 45 09 bd e8 d1 12 3d
       -0.050578363 -0.07877872 -0.033513412 0.035844713
000380 ee 3e 94 3d 4f f0 45 bd e2 38 c4 bc 88 62 a1 bd
       0.072385654 -0.04832488 -0.023952905 -0.078801215
000390 fa e1 6e 3d f7 55 12 3e 06 50 0f 3d 29 f8 83 3c
       0.058320977 0.14290605 0.034988426 0.016109543
0003a0 5b 9e aa bb fe 19 a9 bd f3 5c e9 bc c4 16 29 3d
       -0.0052068657 -0.08256911 -0.028486704 0.041281477
0003b0 31 2d d0 bd f2 dd eb 3d 61 17 5f 3b e9 e7 82 3d
       -0.101648696 0.11516942 0.0034041035 0.063918896
0003c0 36 ed 19 bd 5f b3 a6 bb e3 ec a7 bd d1 c2 7c 3d
       -0.037579738 -0.0050873007 -0.081994794 0.06170923
0003d0 89 41 b8 3c 70 a2 54 3d 46 94 98 3d 8a 72 ff bc
       0.022492187 0.051912725 0.07450156 -0.031182546
0003e0 32 ae 2b bd 8e 8b be 3c e8 b2 d3 3c f7 fb 50 bd
       -0.041914172 0.023259904 0.025842145 -0.051021542
0003f0 10 dc 4e bd 37 6b 01 be 5f ed 3e 3d 09 5e ce ba
       -0.050502837 -0.12638555 0.046613093 -0.0015744577

network.2.bias f4 [128]
000000 2d 47 c6 3c 8f 46 a7 bc b8 2b a0 ba 43 e0 9e 3b
       0.024203861 -0.020419387 -0.001222006 0.0048485114
000010 49 8a e9 3c 8f 72 a4 bd 4a 9a bb 3d 81 bd 5c bc
       0.028508322 -0.08029663 0.09160288 -0.013472916
000020 08 72 07 3c 46 b8 9a bd 1e e3 8f bd 31 74 04 3e
       0.008266933 -0.075546786 -0.07025741 0.12934949
000030 29 df 35 bb db 77 83 bc ca e5 0c 3e 61 eb 60 3d
       -0.0027751422 -0.016048362 0.13759533 0.054911975
000040 71 a7 02 3d d6 63 d7 3c 82 2a 9d bc 02 d0 ef 3d
       0.031897966 0.026292723 -0.019185308 0.11709596
000050 e2 94 c1 3c 6f 2d 48 3d 31 89 25 3d 68 fe 13 3e
       0.023630563 0.048871454 0.04041404 0.14452517
000060 fb 4f d3 3a 80 2a 44 3d c6 21 a4 bd c8 b5 1b 3c
       0.0016121858 0.047892094 -0.08014254 0.009503789
000070 6a 3d f7 bc bc 4d 3e 3c 9a 0f 8f 3d 6e 63 cb bc
       -0.030180652 0.011615213 0.06985398 -0.024827685
000080 e7 57 7f bd 9b d1 2d bd cd cd a7 bd 04 14 aa 3c
       -0.06233969 -0.042436223 -0.0819355 0.020761497
000090 04 fa e9 3d 90 59 82 3d 34 c0 8f 3d 08 68 96 bd
       0.1142464 0.06364739 0.07019082 -0.07344061
0000a0 7a 29 89 3c e0 99 a9 3c 98 4f a1 bc 3d 1a f7 3d
       0.01674341 0.020703256 -0.019691274 0.120655514
0000b0 c3 1e 7f 3d f4 cc 0b 3e d4 49 88 bd 95 70 16 3d
       0.062285196 0.13652402 -0.066547066 0.03672846
0000c0 a0 e3 87 bd 05 30 da 3c cf fc c6 bc 72 b7 58 3d
       -0.06635213 0.026634226 -0.02429047 0.052909322
0000d0 39 f6 8d bc b7 42 7a bd b5 5e 9b bd 4c f8 0a 3d
       -0.017329322 -0.06109878 -0.07586423 0.0339282
0000e0 d4 c4 5b bd 1f dd c7 3d 65 af 7f 3a e1 34 b1 3d
       -0.053654507 0.097589724 0.0009753614 0.08652664
0000f0 b3 8c 0b 3e 07 b8 ab 3c 2e 7f db 3d 92 3b b7 bc
       0.13627891 0.020961775 0.10717617 -0.022367273
000100 66 b9 9c 3c b0 73 a0 3d d9 68 96 bd 09 c9 1c bc
       0.019131374 0.07834566 -0.07344217 -0.009569415
000110 1d 6d 86 bd 09 ca 8f 3d 9c e5 78 39 24 72 37 bd
       -0.065637805 0.07020957 0.00023736659 -0.044786587
000120 4b ec 1f 3d 36 64 05 bd 9d 8d 0b 3e 16 60 77 bd
       0.039043706 -0.03256627 0.1362824 -0.06039437
000130 b5 36 ce bc 0a 81 12 3e 22 4f e3 3c 89 18 7d bd
       -0.02517257 0.14307037 0.027747694 -0.061790977
000140 7e 16 3d bd 83 8b 97 bd b1 c9 6e bb b1 d1 89 bd
       -0.04616403 -0.073996566 -0.0036436135 -0.067294486
000150 dd df e4 3b b2 e8 05 3d 87 f8 e3 3c c3 e5 6e 3d
       0.0069846944 0.03269262 0.027828468 0.058324587
000160 44 52 09 3d ea 5e 18 bd d5 2e 26 3d 22 55 8f 3c
       0.03352572 -0.037199892 0.040572006 0.01749665
000170 e6 39 34 3d 22 7a 42 3d e0 ce 3c bd 3b 67 29 3d
       0.04400053 0.047479756 -0.04609573 0.041358214
000180 e1 e4 77 3d f4 d2 8e 3d 72 d8 68 bd cb c7 d1 3c
       0.06052101 0.0697383 -0.056847043 0.025607964
000190 5e d8 a7 3d 76 6c e4 3d ac 6c 0b 3e ab 12 9f 3d
       0.08195566 0.111535 0.13615674 0.077672325
0001a0 80 1d 83 3c 20 74 27 3d b1 40 dc 3d 05 cb 3f 3d
       0.016005278 0.04088223 0.107545264 0.046824474
0001b0 b2 a5 68 bd f7 ab 14 3d 5f bb 81 bd 3b b2 8f bd
       -0.056798644 0.03629681 -0.06334566 -0.07016417
0001c0 69 4d 26 bd 61 dd 61 bd 3a 08 d5 3c 23 26 e9 3c
       -0.040601168 -0.055142764 0.0260049 0.028460568
0001d0 cd 63 96 3d 10 b1 8c bc 63 33 8d 3d 60 ca 8e 3d
       0.07343254 -0.017174274 0.06894567 0.06972194
0001e0 7a 83 41 3d 50 73 09 3d fc 35 91 bd a0 1b 28 3d
       0.047244526 0.033557236 -0.07090375 0.04104197
0001f0 56 98 1f bd bd 53 38 3c 0b e6 32 3d f6 1e d4 3d
       -0.03896364 0.0112504335 0.043676417 0.10357468
