models_backup/maddpg/checkpoint_ep650/adversary_0.pth (torch, 764002 bytes, 44 tensors)

network.0.weight f4 [128, 16]
000000 ac 9c 90 be 67 d2 01 3e cc cb 26 3e 30 15 d6 3d
       -0.2824453 0.12677918 0.1628868 0.1045326
000010 05 ab ea 3d 49 b9 43 be 4d 92 19 be a4 2b 2d be
       0.11458401 -0.1911365 -0.14997216 -0.16911179
000020 a3 42 a5 3d a8 a6 80 bd c8 8a 94 bb 67 9a 0d 3e
       0.080693506 -0.06281787 -0.0045331456 0.13828431
000030 00 b8 49 3e 06 df a0 3c 94 be 64 3e 7b 32 23 3e
       0.19699097 0.019637596 0.22338325 0.15937226
000040 6a f8 21 3e 77 5e 9f bd d7 2f 35 bd c7 7c c5 3d
       0.15817419 -0.077816896 -0.044235077 0.0964294
000050 72 59 f3 bd c7 14 a3 bd 00 7d 90 3e cc 54 2b 3e
       -0.11882295 -0.07962947 0.28220367 0.16731566
000060 77 ad ff 3c 01 fd 04 3e 45 b7 ca bd a4 c4 3b 3e
       0.031210644 0.12987138 -0.09898237 0.18336731
000070 60 7b 6d 3e d1 09 8a 3d f6 5c 28 3e d9 ad 8d 3e
       0.23191595 0.067401536 0.16441712 0.27671698
000080 6e d2 7a be 02 6f 1e 3e 26 d3 eb bc ec 24 9b 3c
       -0.24494335 0.15472034 -0.028787207 0.018938504
000090 ee 0b 9e bd d8 b9 f5 bd d9 cb 4a be d4 85 79 bd
       -0.07717119 -0.119983375 -0.19804324 -0.060918644
0000a0 83 cf 2c be ea 44 61 3d 7d 3a 7d be 9b 73 86 3e
       -0.16876034 0.054997362 -0.24729343 0.26260075
0000b0 7f 11 6b be b9 1d 20 bc 36 c6 94 bd a5 4b 79 3e
       -0.22955893 -0.009772711 -0.07264368 0.24345262
0000c0 a5 2f 0e be 87 2a 9a bd fa 10 04 be 36 cc 7f be
       -0.13885362 -0.07527643 -0.12897101 -0.24980244
0000d0 a1 5d 37 3e 78 1e 66 3e 46 9e 0d bd f9 d9 4e be
       0.1790681 0.2247256 -0.03457477 -0.20200337
0000e0 4f 0f 6c be 2e b4 50 bc 43 12 33 bd 99 b7 77 be
       -0.23052715 -0.012738271 -0.043718588 -0.2419113
0000f0 32 8c 2a 3e 10 a5 35 3e a6 29 81 3c 33 ef c7 bd
       0.16655043 0.17738748 0.01576693 -0.097624205
000100 f9 4e 1d 3e dd dc 34 3e 7d 67 47 be f3 0b 77 3e
       0.15362157 0.17662378 -0.19473071 0.24125652
000110 b9 2f b3 bd 7a 63 1d be 8d 11 1d be 42 ee f1 bd
       -0.08749337 -0.15369979 -0.15338726 -0.11813022
000120 ba 20 43 3e fd e3 87 be 22 6e 7f 3e 42 08 00 3e
       0.19055453 -0.2654113 0.24944356 0.1250315
000130 33 b8 8c 3e ca 3c 32 be e4 bc 10 be b8 eb 3f 3e
       0.27484283 -0.17406002 -0.14134556 0.18742263
000140 e1 86 78 3e fd 0f cf 3d 85 80 03 bc eb f8 1c 3e
       0.24270202 0.101104714 -0.008026247 0.1532933
000150 cd 7b 0a 3c 07 67 ee bd fa 4f 37 3e 70 46 98 bd
       0.008452368 -0.11640745 0.17901602 -0.0743531
000160 25 06 3b bc aa 5d 20 be 58 c0 ff bc e0 d6 56 bd
       -0.011415039 -0.1566073 -0.031219646 -0.052451015
000170 27 b5 72 3e 41 0b e5 bd b9 a0 1e 3e 77 3c 80 be
       0.23701917 -0.11183787 0.15490998 -0.2504613
000180 e4 93 4d be 35 6a 13 3e 37 1f ba 3d 30 18 fd 3d
       -0.20075947 0.14395984 0.09087985 0.12358129
000190 6b 79 86 bd 5a 95 ef bc a3 9e 4d bd ca d9 1a bd
       -0.065661274 -0.029246021 -0.050200116 -0.037805356
0001a0 c2 8b 34 be 86 9d 80 be 90 c1 8e be 71 d6 f6 3d
       -0.17631438 -0.2512018 -0.2788205 0.1205262
0001b0 95 19 13 be d8 11 eb 3d 89 76 da 3d 22 dc 3e bd
       -0.14365228 0.11478013 0.1066714 -0.046596654
0001c0 fb ad 8c 3d fb a3 1f 3e e6 59 8c bd 9e 1c 00 be
       0.06869122 0.15589897 -0.06853084 -0.12510917
0001d0 43 c7 51 3e 1b f1 6d 3d 17 3d 7b 3d f6 73 f8 3d
       0.20486169 0.058091264 0.061337557 0.12131493
0001e0 99 4c 54 3e 5a 12 50 be 30 52 79 bd 66 ca c2 bd
       0.20732345 -0.203195 -0.060869396 -0.09511261
0001f0 b5 1f 0d 3d d5 d0 e3 3c 0f 91 f7 bc 7c 1d f5 3d
       0.034454066 0.02780954 -0.030220537 0.11968514
000200 b3 a9 07 3e 45 a2 39 be 59 46 37 3e 7c 4b 52 be
       0.13248329 -0.18128307 0.17897929 -0.20536608
000210 4f e5 11 be d4 63 06 bd 5c 65 4d be f5 4b c2 bd
       -0.1424763 -0.032810047 -0.20058197 -0.09487144
000220 bb a6 93 be 26 30 2f be 75 14 8c be fa 99 59 3e
       -0.28838143 -0.17108211 -0.27359357 0.21250144
000230 b9 c0 43 3c 3e b9 dd 3d 82 2d 1b 3e 12 b4 b4 bb
       0.011947804 0.10826348 0.15154079 -0.00551463
000240 8c 33 3e 3e ed d8 b7 bd 98 07 f1 3c 97 a0 23 bb
       0.18574351 -0.08976922 0.029422566 -0.0024967545
000250 a2 b9 86 3e b3 3f 13 be bd 02 32 3e 92 1b ff bd
       0.26313502 -0.14379768 0.17383857 -0.124564305
000260 67 99 d4 bd 6d 86 8b be ca ae 1c 3e 0e 9c 8b be
       -0.10380822 -0.27250996 0.15301052 -0.27267498
000270 58 5f 4f 3e 49 6f 3d 3e 82 08 12 be 9e 50 ab 3d
       0.20251215 0.18499483 -0.14261058 0.08364986
000280 fd b2 28 be 68 5d d4 3d bf ca 25 3e 09 c9 c8 bb
       -0.16474529 0.10369378 0.16190623 -0.006127481
000290 a2 8c 44 bd 5c c3 8c 3e 1f dc 02 be 04 7f 0d bd
       -0.04798568 0.27492797 -0.12779282 -0.03454496
0002a0 e2 35 34 3e 9f 30 ff bc a2 8c 24 3d 4d e1 75 3d
       0.1759868 -0.031151114 0.04017318 0.060029317
0002b0 b8 7d 34 be 5b f5 73 3e 6c 60 53 bd 9f 3b 2c be
       -0.17626083 0.23824064 -0.051605627 -0.16819619
0002c0 d9 ba 94 bd ce b9 7f be 09 c5 58 3e 26 61 63 3e
       -0.07262201 -0.24973223 0.21168913 0.22205028
0002d0 16 60 8c 3e a2 c5 39 be 7a e4 4c 3e 4f 74 4b be
       0.27417058 -0.18141797 0.20009032 -0.19868587
0002e0 71 16 e0 3d 15 29 34 3e 24 14 47 3d b1 94 17 be
       0.1094178 0.17593797 0.048603192 -0.14802815
0002f0 82 86 c1 bd a8 77 87 be 18 33 89 be 01 cd 1b 3e
       -0.094494835 -0.26458478 -0.26796794 0.15214922
000300 99 bd b9 bd 8e 4f c7 bc dd 21 f3 3c 22 1b 97 3d
       -0.09069366 -0.024329927 0.029679233 0.07378222
000310 6a 74 75 3e f0 6f 75 bd 48 48 8f be d0 06 03 3e
       0.2397019 -0.059921205 -0.27984834 0.12795568
000320 60 1b 8d bd 78 04 5a be 72 55 5f be f5 fa 18 be
       -0.06889987 -0.21290767 -0.21809939 -0.14939483
000330 87 0d 2d 3e 5b 46 c3 3b f3 99 ad bd 73 f4 a6 3c
       0.16899692 0.0059593148 -0.08476629 0.020380234
000340 8d 34 f6 3d a4 3b 0c 3e 39 ed 0a be 72 69 90 3e
       0.12021742 0.13694626 -0.13567056 0.28205448
000350 db 36 58 3e 3f ce 1b be 28 a7 ed 3d f3 05 43 be
       0.21114676 -0.15215395 0.11604148 -0.19045238
000360 12 14 2f bd 36 80 dd 3d 41 79 00 be 6d 74 77 3e
       -0.04274375 0.1081547 -0.12546255 0.24165507
000370 b9 95 1e 3e ae b0 8c be d2 1f 6d 3d 41 ac 45 be
       0.15486802 -0.27478546 0.057891674 -0.19303991
000380 9f 1f 04 be 26 80 27 be bd 88 22 3d be f8 de bd
       -0.12902687 -0.16357478 0.039681185 -0.108872876
000390 d5 49 22 3d d7 d5 0d be 2d 2e 79 be 72 4a 7c 3e
       0.039621193 -0.13851105 -0.24334021 0.24637774
0003a0 19 59 91 3d 73 ba 81 3e ea 78 e7 3d 7c 4a 84 3d
       0.07097072 0.25337562 0.113023594 0.06459519
0003b0 56 8e 05 be c8 90 2f 3b ea 3b b6 3d bb 0c ad 3d
       -0.13042578 0.0026789177 0.088981465 0.08449694
0003c0 74 b1 4d 3e c0 62 2f bd 30 7a 81 bd 4d ae f9 3c
       0.20087224 -0.042818785 -0.063221335 0.03047862
0003d0 d5 fa 34 be 36 17 01 be 84 76 b0 bd 1d 5e 24 3e
       -0.1767381 -0.1260651 -0.08616355 0.16051526
0003e0 47 49 66 3e f0 06 09 bd 89 6e 3e 3e 87 ad e0 bd
       0.2248889 -0.03345388 0.18596853 -0.10970598
0003f0 c0 5e db 3b 90 cb 8f be c8 b2 fe bc 9d db 6d be
       0.0066946447 -0.28084993 -0.031091109 -0.23228307

network.0.bias f4 [128]
000000 2d a7 50 3d 4e dd 39 be 25 98 20 3e f0 cf 07 bc
       0.05094068 -0.18150827 0.15683039 -0.008289322
000010 8b f2 94 3c 7d 34 91 3d 4d 7a 7b 3e 82 e3 e7 3d
       0.01818206 0.070900895 0.24558373 0.113226905
000020 6f 18 f5 3d 2e 9e 27 be de d1 22 3e 6f 5f 83 3d
       0.11967551 -0.16368935 0.1590037 0.06414687
000030 d6 b0 10 bd 1c 83 3e be 4f 47 bd bd 8b ac 06 3e
       -0.035324894 -0.18604702 -0.09242117 0.13151757
000040 44 56 1a be 31 37 5a be a8 c0 c5 bd d6 83 26 be
       -0.1507197 -0.21310116 -0.09655887 -0.16261229
000050 11 94 41 3e 01 f0 0a be dc de 74 3e 8d 69 0c be
       0.18904139 -0.13568117 0.23913139 -0.1371214
000060 6b 35 65 3d eb c2 ad bd f1 39 c4 3d 45 da 49 3d
       0.055959146 -0.08484443 0.09581364 0.049280424
000070 06 7c 57 3e 85 57 db 3d 29 dd 1a be 37 65 f4 bd
       0.21043405 0.107100524 -0.15123428 -0.11933368
000080 79 21 86 3d a2 5d ca 3d 0f cf 70 3e 5b 4a e8 bc
       0.06549353 0.0988114 0.23516487 -0.028355768
000090 4d c2 61 3e e8 a6 d4 ba 76 a4 d3 3d ba 04 84 3e
       0.22046776 -0.0016224058 0.10334103 0.25784856
0000a0 c1 ca 91 3e d4 87 62 3e 7b 84 5e 3e bd 43 a5 bd
       0.28475 0.22122127 0.21730225 -0.08069561
0000b0 c4 a5 c1 bd 6a 2a 95 bd 89 28 4b bc 92 e2 75 b8
       -0.094554454 -0.072834805 -0.012399801 -5.8623562e-05
0000c0 ce 02 26 be 83 d1 3d be cc 30 72 bc 62 fd b9 3d
       -0.16212007 -0.18536954 -0.014782142 0.09081532
0000d0 ea c0 15 3e 9e b2 1e be c1 06 88 3e 89 3a 46 3e
       0.14624372 -0.15497825 0.26567653 0.19358267
0000e0 5e 50 ad bd 66 32 36 3e 2e 63 6d 3e 1f 0b 40 be
       -0.084625944 0.17792663 0.23182365 -0.18754242
0000f0 6c 4a 90 3e d6 20 7f 3e 75 48 61 3e b7 56 92 3e
       0.2818178 0.2491487 0.22000296 0.28581783
000100 79 a9 c3 bd 13 0d 5e bd 3f 41 6f 3e 2d 74 71 3e
       -0.09553809 -0.054211687 0.23364733 0.23579474
000110 31 f8 06 3e f1 02 41 be 63 65 01 bd 12 1b d4 3d
       0.13180615 -0.18848778 -0.03159083 0.10356726
000120 7f 7e 5f 3e 5e 62 5c 3e 2e a8 15 bd e4 3a 81 3e
       0.21825598 0.21521899 -0.03653734 0.25240242
000130 ff d3 3c 3d 6d 0b a3 bd 89 38 fd 3d 37 fa 0e 3e
       0.046100613 -0.07961164 0.12364299 0.13962637
000140 09 66 12 3e 39 8d f9 3d 26 14 61 3e d5 bf 13 be
       0.14296736 0.12185139 0.21980342 -0.14428647
000150 6e f9 51 3e bf ba 7a 3e 1a 85 05 be b5 30 9e bd
       0.20505306 0.244853 -0.13039055 -0.07724134
000160 39 bf 4f be 04 04 0b 3e c5 9d 94 3e c3 79 75 3e
       -0.2028779 0.1357575 0.2902662 0.2397223
000170 19 57 d1 bc a4 0b 4e be 4b 03 64 be 1d e3 29 3e
       -0.025554227 -0.20121628 -0.22266881 0.16590543
000180 7a 91 68 bd d5 43 59 3e 21 8d 89 3e a1 6b 56 3e
       -0.056779362 0.21217282 0.26865485 0.20939495
000190 54 3d 89 bd 73 27 57 3e d5 19 16 be f7 97 17 be
       -0.067011505 0.21011142 -0.14658292 -0.14804064
0001a0 98 cd a8 3d b3 41 2f 3e da e6 79 bc a6 45 27 be
       0.08242339 0.17114906 -0.015252793 -0.16335163
0001b0 71 88 30 3e 58 0b 41 3e 9c 2e 4b be ed 11 54 3e
       0.17239548 0.18851984 -0.19841999 0.20709963
0001c0 08 79 2a be cb 49 4b be 49 dc 3a 3e 6e 66 c1 3c
       -0.16647732 -0.19852369 0.18248095 0.023608413
0001d0 21 b2 73 3e b0 20 0d bd b5 ae 0b 3d c8 76 7e 3e
       0.2379842 -0.034455 0.03410216 0.24849999
0001e0 8f a5 81 3e da 3d 9c bd 57 fa 3b bd ae db f6 3d
       0.25321624 -0.07628985 -0.04589304 0.12053619
0001f0 95 27 95 3e 53 c8 09 be ee bc cf 3d f5 19 41 3e
       0.2913176 -0.13455324 0.10143457 0.18857558

network.2.weight f4 [128, 128]
000000 9e 45 99 bd 87 00 9d 3d 75 5d 7b 3c ee 20 42 bd
       -0.074839815 0.07666116 0.015342106 -0.047394685
000010 e9 24 a1 3d f1 32 a2 bd 43 b5 32 3d d7 d0 97 bd
       0.07868368 -0.079198726 0.043629896 -0.0741288
000020 2d 8f 23 bd 58 88 9b 3c ca f4 84 3d c8 8c 92 3d
       -0.039931465 0.018985912 0.06492002 0.07155758
000030 3d cb 9d bd bf 4b e2 3c 76 9d 87 3d e5 39 c3 3c
       -0.0770478 0.02762401 0.0662183 0.023831317
000040 de b1 27 bd 34 64 8f 3d fe 5b 5c 3d be 93 ca 3c
       -0.04094111 0.07001534 0.053798668 0.024728652
000050 99 40 41 bd 31 b0 e5 bc b7 89 b5 3c 66 63 86 bd
       -0.047180746 -0.028038116 0.022160394 -0.065619275
000060 0c 02 ab ba 12 76 8a 3b 0c 7d 91 bc 9d d2 96 3b
       -0.0013046875 0.004225501 -0.017759822 0.004602744
000070 7e 05 61 3c 26 34 44 bd 88 19 d7 bc b1 99 92 3d
       0.01373422 -0.047901295 -0.026257291 0.071582206
000080 9b 35 bf bd 19 69 9a bd 93 1c 2a 3d 4f e5 cf bc
       -0.09336396 -0.07539577 0.041531157 -0.025377898
000090 99 51 57 bd 9c cf a8 3c 08 f9 1f 3b e0 f7 10 3c
       -0.052568052 0.020606808 0.0024409909 0.0088481605
0000a0 22 37 31 3d 3a bb d8 3c d0 47 6e 3c 06 a1 24 3d
       0.04326547 0.026456464 0.014543489 0.040192626
0000b0 7e 28 bf bd ae 64 8d bb e5 a2 ed bc 8b 4f c8 bb
       -0.09333895 -0.0043149805 -0.029008338 -0.006112998
0000c0 8e 85 86 bc 9c 97 1b bd 1a ac 20 bd a2 c6 c5 bd
       -0.016421106 -0.037986383 -0.03922663 -0.09657027
0000d0 16 f1 1e 3a bd a8 82 bd ba 8a 38 3c 6f 2e 99 bc
       0.0006063146 -0.063798405 0.011263544 -0.0186989
0000e0 a6 e5 62 bd ad c7 48 bd 27 c3 09 bd aa 9a a1 bd
       -0.05539479 -0.04901855 -0.033633377 -0.07890828
0000f0 5c 1b 31 3c 46 0f 4d bd fc a3 9f bd d8 e1 8c bd
       0.010809746 -0.050063394 -0.077949494 -0.06879014
000100 88 3f 15 bd 6d 00 47 3d 72 50 47 3d 36 ad 50 bd
       -0.03643754 0.04858439 0.048660703 -0.050946437
000110 31 ec 61 bd ff 14 a3 bc 92 17 60 3c 28 86 85 bd
       -0.05515689 -0.019907473 0.013677495 -0.06519729
000120 9b cf bb bc de c0 5f bd fc 07 80 bd a6 aa 98 3d
       -0.022926142 -0.05462729 -0.06251523 0.074544236
000130 b4 2e 99 bd 96 72 1b bd e4 98 76 bd 87 75 b6 bd
       -0.07479611 -0.037951075 -0.0602044 -0.08909135
000140 57 a7 0b 3d b7 35 09 bb ac bd 56 3d d3 04 67 bd
       0.034095135 -0.0020936558 0.05242698 -0.056401085
000150 35 2f bf 3c cd 29 a3 bd bf 1b 5c 3d 70 fa 51 3d
       0.02333794 -0.07966957 0.0537374 0.051264226
000160 f3 78 8c 3d 4a ff 19 3c 12 a0 b2 bd 15 a2 82 3d
       0.06859007 0.009399245 -0.08721937 0.06378571
000170 33 50 41 3d 92 dd 8a bd 45 f4 8c bd 29 19 ed 3c
       0.047195625 -0.067805424 -0.06882528 0.028942661
000180 03 60 89 bd 81 35 64 3d 0a d9 e3 3b bd 93 6b 3c
       -0.06707766 0.055715088 0.0069533633 0.014378485
000190 fd 9b 85 bd dc 96 ef bc 2f 7a 49 3d 83 9c a1 3b
       -0.06523893 -0.02924674 0.04918879 0.0049319877
0001a0 e0 7c 5b bc 92 2b 80 bd 2a 34 90 3d 21 66 33 bd
       -0.013396472 -0.062583104 0.070411995 -0.04379857
0001b0 6d e2 2f bd 02 ef 0d bd e4 92 d1 bc fe b7 3d bd
       -0.042940546 -0.034651764 -0.025582738 -0.046318047
0001c0 4f 97 cd 3c f2 69 fd 3c 8c 0e 01 3d 80 1c 72 3c
       0.025096564 0.030934308 0.031508014 0.014777303
0001d0 e0 fa 9b bc db 2a 81 3d 34 63 57 bd ad bd ad bc
       -0.019040525 0.06307002 -0.05258484 -0.021208609
0001e0 c1 6c d7 bc 0b 77 66 bd 03 9a c9 3c 50 3f fe bc
       -0.026296975 -0.056265872 0.024609571 -0.03103605
0001f0 a7 d7 a8 bd 1a ca 90 3d df 8c 14 bd 62 6d e0 bc
       -0.082442574 0.07069798 -0.036267158 -0.027395908
000200 2c c1 26 bd 8d 9c 21 3d a0 5b fa 3c 9c 91 db bc
       -0.040711567 0.03945594 0.030561268 -0.02680283
000210 21 2e 8a 3d f0 58 ad 3c e6 c3 ef 3d d4 77 15 3d
       0.0674708 0.021160573 0.117072865 0.03649123
000220 f5 ee 3c 3c 9b 45 d1 3d 64 77 c9 bc 4e 17 e9 bc
       0.011531581 0.10218354 -0.024593063 -0.028453495
000230 6f 29 8a 3d 20 92 87 3d e6 01 75 3c 25 b5 00 bc
       0.06746184 0.06619668 0.014954066 -0.007855688
000240 16 a0 a9 3d fe b5 6f 3d 79 e2 3c bd 8e b1 b6 3c
       0.08282487 0.05852317 -0.04611442 0.022301462
000250 27 1f e7 bc 78 e6 5f 3a 37 ea 60 bc 32 36 2f 3d
       -0.028213097 0.00085411174 -0.013727716 0.042776294
000260 db 8b af 3b 97 bc 3f 3d 7f df 8d 3b e1 f3 25 3d
       0.0053572482 0.046810713 0.0043296213 0.040515784
000270 6e 10 c6 3d de 85 11 3d ed 4e 00 bd 8b f6 d0 3c
       0.096711025 0.035528056 -0.03132527 0.025508186
000280 8f bd 99 3c a6 f6 53 bc 86 12 fc 3d 4a 67 4f 3d
       0.018767146 -0.012937224 0.123082206 0.050635614
000290 0d 00 31 3d 24 7e 2e 3a af b0 9c 3d 86 72 6c 3d
       0.04321294 0.00066563697 0.07650887 0.057726406
0002a0 24 4e e0 3d 29 e7 02 bd 4e 53 a1 3b 65 a0 90 3d
       0.10952404 -0.031958733 0.004923261 0.07061843
0002b0 86 ae 83 3c be 92 2d 3d a7 1e f6 bc 07 0e 85 3c
       0.01607443 0.042376272 -0.030043913 0.01624204
0002c0 21 a1 e2 3d b8 7f c4 3d 94 2c 09 3d f3 3f 0a 3d
       0.11065889 0.09594673 0.03348978 0.033752393
0002d0 cb b8 e8 bc dd ca 81 bc db 80 fc 3d 1e 66 0c 3d
       -0.028408429 -0.015843803 0.12329265 0.034277074
0002e0 dc 00 d7 bc db 57 f9 3d 3e 4e a9 3d 96 7f 0e 3d
       -0.026245527 0.1217496 0.08266877 0.034789644
0002f0 f7 6b 3d bd 27 98 92 3d f2 cf 73 bc c6 02 a1 bb
       -0.04624554 0.07157927 -0.014881121 -0.0049136607
000300 1d 56 a3 3d 6f 08 b8 3c 9b fa ae 3d aa f2 e1 3b
       0.07975409 0.022464959 0.08543893 0.006895383
000310 07 2c 00 3c 9c 79 ca 3a 52 bf c1 3c e7 d0 89 3d
       0.007822997 0.0015447619 0.023650799 0.06729298
000320 20 d5 0a bd 1d 75 82 3c 52 6e 9d 3d 61 86 19 3d
       -0.033894658 0.015924985 0.076870576 0.03748167
000330 3f cb fb bc 10 47 44 3c 02 3d 1b bd 1f 05 ad 3c
       -0.030736564 0.011979833 -0.03789998 0.021120606
000340 26 13 bf 3d b8 55 db 3d 02 f8 24 bd 74 42 f4 3d
       0.09329824 0.10709709 -0.04027558 0.119267374
000350 72 e9 5d 3d e7 bd ac bc 60 e9 b0 3d 82 36 12 3d
       0.05417771 -0.021086646 0.08638263 0.035696514
000360 4b 9f b3 bc 20 c6 ef 3d 73 31 03 bd 4f 6c a9 3d
       -0.021926543 0.11707711 -0.03202958 0.08272611
000370 53 c9 a3 3a 5b 5b ed bb 83 81 5e 3c b0 6f 1a 3d
       0.0012495912 -0.0072435564 0.013580683 0.03770417
000380 e6 0d c5 bc 3d 52 9d bc dd eb 9a 3d 69 de 09 3d
       -0.024054479 -0.019204253 0.075645186 0.033659372
000390 f0 53 82 3a de 5d b9 3d 4d ce 23 bc b4 83 39 3d
       0.0009943228 0.09051107 -0.009997916 0.045291618
0003a0 91 50 b4 3d 9f d5 1e bd 9c 31 0c 3d 0d 31 89 bc
       0.08804429 -0.038777944 0.034227 -0.016747022
0003b0 01 5d 7e bc 56 cb 36 bd d1 72 0f bd 97 98 31 3d
       -0.015525104 -0.04462751 -0.035021607 0.04335841
0003c0 85 91 bf 3d 7a 56 a5 3c 53 fa f6 3d 2f 7c ad 3b
       0.093539275 0.020182837 0.12059464 0.005294345
0003d0 eb 98 aa 3d 68 13 91 bb db 21 0b bd 15 7a 08 bc
       0.08329948 -0.0044273622 -0.033967834 -0.008329888
0003e0 b7 35 c7 3c 49 0a 11 bb 66 a4 fd 3b 2c e5 8c bb
       0.024317605 -0.0022131375 0.007740545 -0.0042997804
0003f0 8b d9 95 3d 98 b8 c3 3d 49 4e e4 3c c0 bc 2a 3c
       0.07316884 0.09556693 0.02786936 0.010420978

network.2.bias f4 [128]
000000 9a 0c 64 3d fe 05 af 3d 3b 1c 85 3d 88 00 af 3d
       0.05567608 0.08546065 0.06499525 0.08545023
000010 9c a7 a0 bc 3e b2 a1 3d 3c af 99 3d 56 50 bf 3b
       -0.019611172 0.07895325 0.075041264 0.005838434
000020 37 85 4d 3d 06 bf 6b bb 09 ab b6 3d 62 2f ae bd
       0.05017587 -0.0035972013 0.08919341 -0.08505131
000030 ed d4 83 bb 15 a1 f0 bb 3e 29 ec 3c ed 45 ad 3d
       -0.0040231855 -0.007343421 0.02882826 0.08460603
000040 ac 63 89 3d 6c 84 45 3d ec fd a0 3c 73 d9 03 bd
       0.06708464 0.04822199 0.01965233 -0.032189798
000050 42 8c 0d 3c 54 01 60 3c 24 69 41 bd a4 18 5c 3d
       0.008639397 0.013672192 -0.04721941 0.053734437
000060 8b dd 86 3d d6 03 3b bd a0 44 f6 3c 35 11 a8 3c
       0.06585225 -0.045657955 0.03006202 0.020516017
000070 92 23 4e bb ee 86 34 bd b9 ba 43 3d 27 cf 80 bd
       -0.0031454307 -0.04407399 0.047785494 -0.06289511
000080 06 37 28 3d 30 4d d7 3d c1 e3 ff 3d 99 15 bd bd
       0.0410681 0.10512769 0.124946125 -0.09232635
000090 e7 7e 6d bd fc 27 99 3d 3f 43 52 3d 44 92 03 bd
       -0.05798235 0.074783295 0.051333662 -0.03212191
0000a0 c7 78 e9 3d 78 57 ae 3d 8d 07 43 3b ad a1 ef 3d
       0.113999896 0.08512777 0.002975914 0.11700759
0000b0 08 9f 45 3c 04 92 e0 3d 3d 19 e6 3d f2 68 58 bd
       0.012061842 0.1096535 0.112352826 -0.05283446
0000c0 a9 ad a4 3d 98 6d f5 3d c0 58 5a bd 1c cd d5 3d
       0.080409355 0.11983794 -0.053307295 0.10439512
0000d0 ec 50 b8 3c 1c fe 4f 3d 5d cb d6 3c 38 d3 bc 3d
       0.022499524 0.050779447 0.026220018 0.09219974
0000e0 2c 38 0c bd 3d a9 e4 3c ba fc 8d 3d 4b 7e 8a 3d
       -0.034233257 0.02791273 0.069329694 0.0676237
0000f0 38 8c e5 bc 58 fe 9b 3c 65 ba ec 3c 3d a8 9d 3d
       -0.028020963 0.019042179 0.028897474 0.076981045
000100 c4 4c a6 3c 1d a5 2d 3d c2 16 4a 3d 80 ac 42 3b
       0.020300277 0.042393792 0.04933811 0.0029704869
000110 47 c2 d6 3c 9f d9 05 3d c8 b6 26 bd 9a a9 de 3d
       0.026215686 0.032678243 -0.040701658 0.10872193
000120 30 b8 af 3c 2d 6f 30 bd 02 8a ab 3d ca 87 d2 ba
       0.021450132 -0.043074775 0.08375932 -0.0016062197
000130 a2 9d 1b bd 45 9b 0b bd c8 37 e9 3d 09 c3 88 3d
       -0.037992127 -0.034083623 0.113875926 0.06677825
000140 40 83 a5 bc 8a 02 a2 3b 34 70 2c bd 6e dc 21 bd
       -0.020204186 0.0049441503 -0.042099193 -0.03951686
000150 ad ff a2 3d 56 58 59 3d a4 73 c0 3d a2 c6 5e 3d
       0.079589225 0.05306276 0.09397057 0.05438865
000160 05 fc e7 3d 78 71 84 3d 3a de c1 3c dd f4 c4 bd
       0.11327366 0.06466955 0.023665536 -0.096170165
000170 c7 a1 4f 3d 10 4a 60 3d 90 b4 3b 3d b2 ad 09 bc
       0.050691392 0.05475813 0.045826495 -0.008403229
000180 5c b6 c6 3d cd d3 d2 3d 82 c1 be 3d 11 5b 4a bd
       0.09702751 0.10294304 0.093142524 -0.049403254
000190 d0 f1 b0 bb 9d 1e ef 3d d7 e3 8d 3d 3d aa 24 3d
       -0.00539992 0.11675761 0.069282226 0.040201414
0001a0 65 da 8d bc 79 b2 b2 bc c1 d4 25 3d ff 80 9c 3d
       -0.017316053 -0.021813618 0.0404861 0.076417916
0001b0 eb 14 91 3d d1 97 9c 3d 62 0b a7 bc 63 30 42 3d
       0.07084068 0.07646144 -0.02039117 0.047409426
0001c0 63 28 8f 3c 0a f8 1f 3d 3a a8 33 bd c3 6e 25 bd
       0.017475313 0.039054908 -0.043861605 -0.040388834
0001d0 00 10 5e bd 98 99 67 3d ec fc f8 bc de 94 4b bc
       -0.054214478 0.056542963 -0.03039404 -0.012425629
0001e0 32 24 5c bc ba c8 7d 3d 8b d7 e3 bc 5a af c1 3d
       -0.013436364 0.061959006 -0.02781274 0.09457274
0001f0 03 3b 40 3d 95 3e a2 3d 4b e1 fe bc 41 77 34 bc
       0.046931278 0.07922093 -0.031113287 -0.0110147605

network.4.weight f4 [5, 128]
000000 e5 3a 4b bd 8d 27 86 bd 46 37 6e bd 4b fa 61 bd
       -0.049616713 -0.065505125 -0.05815818 -0.05517034
000010 19 d6 cc bd ac 30 11 3b 84 42 58 bd 13 31 81 bc
       -0.100017734 0.0022154255 -0.05279781 -0.01577047
000020 14 4b 80 bd 14 50 d4 bd ad a8 09 3d e0 fc 79 3d
       -0.0626432 -0.10366836 0.033608127 0.061032176
000030 71 f5 a5 bc dc b2 6c bc a7 a1 25 3b e0 4b bd 3c
       -0.020258637 -0.01444694 0.0025273354 0.02310747
000040 b2 a7 82 bd 6f 8a 69 3c c0 91 e1 3c aa 9d 98 3c
       -0.063796416 0.014254197 0.02753532 0.018629868
000050 84 8e 0c 3b 9e 99 19 ba 0f c1 88 bc 77 2e d0 bd
       0.002144725 -0.00058593776 -0.01669362 -0.101651125
000060 33 8e 02 bc 9a 72 93 bc ee 18 26 bd b1 1e ad bd
       -0.007968473 -0.017998982 -0.04055112 -0.084531195
000070 df a5 d0 bc 81 5d ba 3c be 74 a7 bd 5b 35 a4 3d
       -0.025469719 0.022749664 -0.08176564 0.08017989
000080 ba 53 1c 3c 20 b3 02 bd 3f 56 09 bd e6 ef 6c bb
       0.009541446 -0.03190911 -0.033529516 -0.0036153733
000090 7c 0e b1 3d cf 40 f1 ba ca 27 4f 3d 70 e3 f1 bc
       0.08645341 -0.0018406155 0.050575055 -0.029527396
0000a0 58 c3 99 bd 46 7c f9 3b 0a cd d0 bc f0 cd ea bc
       -0.07507962 0.0076136915 -0.025488395 -0.028662652
0000b0 1d 61 84 bd af c5 65 bd 04 85 1a 3d dd 98 ad bd
       -0.064638354 -0.05609673 0.03772451 -0.08476422
0000c0 40 0a b1 bd b0 5f be bd af 70 97 bd 26 9e 99 bd
       -0.08644533 -0.09295595 -0.073945396 -0.075008675
0000d0 c8 9e a9 bd ff 0c fb bc 4a 3a 3b 3d b1 22 c2 bd
       -0.08282238 -0.030645845 0.045709886 -0.09479273
0000e0 3c 51 1d 39 79 f0 57 bd f7 31 66 bd e3 7b df 3c
       0.00015002949 -0.052719567 -0.056199994 0.027280753
0000f0 66 56 df bc 2f 23 cb bc 40 3b 8c 3d ee 13 46 3d
       -0.027262878 -0.02479705 0.068472385 0.04835885
000100 82 0c 04 3d 0f 76 50 bd 60 c1 d2 bd aa 4b cb 3b
       0.03223849 -0.05089384 -0.102907896 0.006204088
000110 30 16 4b 3d d1 22 59 3b 1a 9b a5 bc 93 9d 9f bd
       0.049581707 0.0033132324 -0.02021556 -0.07793727
000120 33 5e 36 3d 7d c1 cc bd 47 8d d6 bd 33 ed 9a 3d
       0.04452343 -0.099978425 -0.10476165 0.075647734
000130 d5 14 43 bd ac 04 97 bd d6 ad dc 3c a3 96 a3 bc
       -0.04762729 -0.07373938 0.02693836 -0.01996929
000140 06 3c 7e bd b5 5b bb bd 3b d6 98 bd 31 78 3b bd
       -0.06206896 -0.09148351 -0.07462736 -0.04576892
000150 48 e4 96 bd 53 fa 90 bd 71 b0 9f bd 7c 3b 93 3d
       -0.0736776 -0.070789956 -0.077973254 0.0718908
000160 b9 cd 65 3d c4 16 5d bd a5 54 d3 bc 4c af a4 3d
       0.056104396 -0.05397679 -0.025797198 0.08041248
000170 f4 f7 9a bd 0c 11 36 3d f7 88 18 3d 8b 98 b3 bd
       -0.075668246 0.04444985 0.037239995 -0.0876933
000180 c5 29 99 bd 78 1d d3 bd fd 75 08 3d 12 03 23 bd
       -0.0747867 -0.10308355 0.033315647 -0.03979785
000190 76 e9 50 3d d0 7f 05 bd 77 5a 3b bd b1 93 fb bb
       0.051003896 -0.032592595 -0.04574057 -0.0076775183
0001a0 20 1c e8 bd fb 55 8d 3c 21 fd a7 bd 20 bf 07 bd
       -0.113334894 0.017252913 -0.082025774 -0.033141255
0001b0 53 25 df bd cf 06 c1 bd 05 ba 87 3c a9 85 c1 bd
       -0.10895791 -0.09425127 0.016568193 -0.09449322
0001c0 55 6a e5 bd 54 30 0e bd c9 8c dd bc 95 c2 ab 3d
       -0.11201922 -0.034714058 -0.02704467 0.08386723
0001d0 f5 1d 00 3c d7 09 3f bd 35 b3 9f bd c3 70 16 3d
       0.007819642 -0.046640243 -0.07797853 0.03672863
0001e0 1c 32 b1 bd 7a 99 83 3d 85 38 ba bd 49 af 6d bd
       -0.08652136 0.06425758 -0.090928115 -0.058028493
0001f0 c6 fb 8a 3d a3 81 76 bd 06 a3 2e bd b2 0b 94 3d
       0.06786303 -0.060182225 -0.04263594 0.07228793
000200 68 58 03 bd 62 39 de 3d 57 49 e9 3d 72 43 f2 3d
       -0.032066733 0.10850789 0.113909416 0.118292704
000210 89 de 78 3d f5 d1 78 3b 9a b8 ae 3d 42 5b 82 3d
       0.0607591 0.003796694 0.08531304 0.06365062
000220 9c 7e 8f 3d 5f 6a cb bc 19 7e ad 3d 16 5d 25 bd
       0.07006571 -0.024830995 0.08471317 -0.040371977
000230 4a 78 e5 3d 25 cf b5 bc 7a 53 9f 3d 0d fc c7 3d
       0.11204584 -0.0221935 0.07779594 0.09764872
000240 29 06 74 bd 91 b2 d2 3d ab 6d 32 3d 93 99 f3 3d
       -0.059576187 0.10287965 0.04356162 0.11894526
000250 84 42 1b 3d f0 e0 b5 bc 67 23 e6 3d 8f eb c2 3d
       0.03790523 -0.022201985 0.11237221 0.095175855
000260 fe ed ab bc 83 77 0a 3d d2 d1 a2 bd 06 5c d9 3d
       -0.020987507 0.03380538 -0.07950176 0.10613255
000270 e1 a2 d2 3c f1 aa 10 3d 06 31 be 3d cb 12 f5 3b
       0.025712432 0.035319272 0.09286694 0.007479047
000280 c6 c1 f6 3d a7 2f 83 3d 39 1c 0e 3d e0 66 57 bd
       0.12048678 0.06405573 0.034694884 -0.052588344
000290 9c 24 57 3d fb fd be bc 7a 7e c8 3d 59 91 e5 3a
       0.052525148 -0.023314467 0.097897485 0.001751463
0002a0 a9 b6 e7 3d ff 29 63 3d 6c a5 12 bc 8f a2 61 3d
       0.113141365 0.055459972 -0.008950572 0.05508667
0002b0 1d 7b 7a 3d f8 44 d0 3d 63 8c e7 3d 89 58 bc 3c
       0.061152566 0.10169405 0.113060735 0.022991436
0002c0 a3 c8 b3 3d 36 f1 a4 3b af e1 5e bd 17 19 00 bd
       0.08778503 0.0050336374 -0.054414447 -0.031273928
0002d0 f7 9e 3f 3d 90 c1 40 3d c1 fa 91 bd a4 b2 09 3d
       0.04678246 0.047059596 -0.07127906 0.03361763
0002e0 dc 87 06 3e 76 1b d1 3d 85 64 9d 3d 38 3b 12 bd
       0.13137764 0.10210316 0.07685188 -0.035701007
0002f0 6d 2d d4 bc 7f 6e b4 3d 94 9f 66 3d b5 1b a3 3d
       -0.025900567 0.08810138 0.05630453 0.07964269
000300 9e 67 09 3b 42 f7 ee 3c 95 51 f4 3d 30 7a 9c 3d
       0.0020966302 0.029170636 0.11929623 0.07640493
000310 34 c9 d9 3d 33 73 05 3e 6e 73 8c bd 8e 8b 86 3d
       0.106340796 0.13032226 -0.06857954 0.06569587
000320 f6 0a 72 3d bb d5 89 3d 5b 73 a9 3d 04 b8 ff bc
       0.059092484 0.06730219 0.082739554 -0.031215675
000330 b6 8c 91 3d 99 ab 04 3e 60 cc ab b8 7d 28 fb 3d
       0.071069166 0.12956084 -8.191983e-05 0.12263582
000340 3e ec e3 3d 8d 0f be 3d e2 f7 94 3d 3c bf f7 3d
       0.11129044 0.0928031 0.072738424 0.12097022
000350 44 e6 bb 3d 73 c2 a2 3d 80 07 b0 3d 0e d3 31 bd
       0.09174779 0.079472445 0.085951805 -0.043414168
000360 5c f0 a6 3d e2 a5 fc 3d bd 54 8e 3d 01 92 84 bd
       0.08151314 0.12336327 0.06949756 -0.064731605
000370 3b 9a 75 3d e5 b2 38 bd 57 66 a5 bc 17 a7 6f bd
       0.05996154 -0.045092482 -0.020190401 -0.05850896
000380 e8 49 c9 3d 39 61 8d 3d e1 37 64 3c bb c9 45 bd
       0.098285496 0.069033094 0.013929338 -0.04828809
000390 5f 1a f9 3c 7b 35 c5 bc 63 5c 96 3d d5 1e ed 3d
       0.030408083 -0.024073353 0.0734184 0.11578146
0003a0 66 47 82 3d 82 ac f1 b9 fa 36 01 3e 73 70 93 bb
       0.063612744 -0.0004609563 0.12618628 -0.004499489
0003b0 69 d5 bb 3d 2a 26 d9 3d 28 4d 8e bd b0 a2 a1 3d
       0.09171564 0.10602982 -0.0694831 0.07892358
0003c0 d9 8e d1 bb 33 c7 b2 3d 71 11 65 3b 3f c7 36 3c
       -0.0063952026 0.087294005 0.0034953023 0.011155902
0003d0 ce 9a 28 bd 46 06 1a bb da 89 40 bd c9 7a 86 bc
       -0.04116326 -0.0023502274 -0.047006465 -0.01641597
0003e0 d2 e8 10 3d 42 3a 93 bd 82 85 3d 3d 27 ab 8b 3d
       0.035378285 -0.07188846 0.0462699 0.06819754
0003f0 ca 57 95 3d 45 dd 2d bd b1 f5 43 bb 8e ed 05 bd
       0.07292135 -0.042447347 -0.0029901082 -0.032697253

network.4.bias f4 [5]
000000 e9 94 12 3d 83 9a 1d bd da 9d 47 bd 84 ba 80 3d
       0.035786543 -0.038477432 -0.048734523 0.06285575
000010 4e 3f e2 bd
       -0.11047231

network.0.weight f4 [128, 82]
000000 1c be de 3d 4f e9 c7 3d f6 de aa bb 90 5f d3 bb
       0.10876104 0.09761297 -0.0052145673 -0.006450601
000010 2c e6 df bd a0 a3 a9 bd cd 25 9c bc 4d f0 8c bd
       -0.10932574 -0.08283162 -0.019060994 -0.06881771
000020 7f fe f6 3d eb 4b e6 3c 00 45 8d bc 26 4f 18 3d
       0.1206026 0.028112372 -0.017244816 0.037184857
000030 9a 24 ad 3d 38 65 d2 3c 6f 93 52 be aa a5 1b be
       0.08454247 0.02568303 -0.20564054 -0.15199915
000040 98 29 55 3b 3f 45 37 3e e8 a7 97 bc 7f 0c 29 3e
       0.0032526013 0.17897509 -0.018512681 0.16508673
000050 80 5d 7b bd f9 ec c8 bd 04 64 f7 3c 8d dd 06 bc
       -0.061368465 -0.09810824 0.030199058 -0.008231533
000060 b8 0b d0 bd c8 77 ae bd fb 1f 4c 3d 68 d0 b8 bd
       -0.10158485 -0.0851894 0.049835186 -0.09024125
000070 49 9d 20 be e2 a8 56 3d c0 94 ad bc 11 83 a6 3c
       -0.15685 0.052407153 -0.021189094 0.02032617
000080 89 36 ab bd 91 c3 82 3c 17 5b af bd e4 cc 0a bd
       -0.08360011 0.015962394 -0.08562296 -0.033886805
000090 06 7f 5c 3d ce 20 bd bd 00 cb 11 bd e2 4c c4 bd
       0.053832076 -0.092347726 -0.035593987 -0.09584977
0000a0 e8 21 f7 bd 40 4a 45 3d c3 43 9a 3c 91 82 d1 3c
       -0.12067014 0.048166513 0.01883114 0.025574954
0000b0 28 6f b3 3c 44 2a b6 bd b0 20 db bd 39 19 7a 3b
       0.02190359 -0.0889478 -0.10699594 0.0038162007
0000c0 99 11 3c be 30 e0 e8 bd 76 27 aa bc 52 b0 f3 3d
       -0.18366088 -0.11370885 -0.02077077 0.11898865
0000d0 53 1a 08 be bc 4f e6 bd 0d a3 8f 3d 44 66 ec 3c
       -0.13291292 -0.11245677 0.07013521 0.028857358
0000e0 12 23 7f 3c c6 1b 80 bd 3f 11 14 3e a5 eb b3 3d
       0.015572326 -0.06255297 0.14459704 0.0878518
0000f0 e0 05 ef 3d 90 b0 7a 3d 46 88 6e bd f9 80 fa bb
       0.116710424 0.06120354 -0.05823543 -0.0076447693
000100 35 ac 2b 3e b7 43 86 3d 75 20 d1 bd 15 da fe ba
       0.1676491 0.06555884 -0.10211269 -0.0019443656
000110 c7 b5 88 3c 4e 18 81 bb 31 fc 67 3d eb cc 97 3b
       0.01668824 -0.003939665 0.056636993 0.0046325824
000120 d0 08 59 bd 24 ff ba bb a6 b7 af bd ad f9 1a bd
       -0.05298692 -0.0057066847 -0.0857995 -0.037835766
000130 33 75 f0 bd 8a b4 b8 3d c0 89 9f bd 31 fd 9d 3d
       -0.11741104 0.0901881 -0.077899456 0.07714308
000140 6b cd f3 3d 68 19 21 bd 76 b0 2e 3d f3 25 82 bd
       0.11904415 -0.03933087 0.042648755 -0.063548945
000150 f5 ac 3e bd d8 ec 9d bd f0 d2 d5 3d 5c 36 ac bd
       -0.046551663 -0.0771119 0.10440624 -0.08408806
000160 71 5c cf bc 02 c7 15 bc 57 50 49 bd 16 98 f2 ba
       -0.025312634 -0.009141685 -0.049148884 -0.001850846
000170 6b 47 ca 3c 31 9f cf 3d 95 45 bc bd 56 bb 14 3d
       0.024692258 0.10137785 -0.09192959 0.03631147
000180 19 96 da 3c e4 df c0 3d 30 ff 79 bd cf cf 40 bd
       0.0266829 0.09417704 -0.06103438 -0.04707318
000190 2c 3a 9c 3d 35 1c 61 bd 0a 68 0f bc 72 9a 35 3d
       0.07628283 -0.05495854 -0.008752832 0.044336744
0001a0 6b c8 a0 bd 07 4e d4 3d 85 15 30 bd 3d 79 15 bc
       -0.07850727 0.10366445 -0.042989273 -0.009123144
0001b0 2a 4e 3a bd d6 4c 3c 3e c2 fa ad 39 49 37 54 bd
       -0.0454847 0.18388686 0.0003318396 -0.051810537
0001c0 bb 82 89 3d f7 a0 9b 3d c3 ba 5d bd 80 26 f8 3d
       0.06714388 0.07599061 -0.054133188 0.12116718
0001d0 46 18 ae 3d 55 e0 91 3d ca 71 f6 3d ae ec a4 3c
       0.085007235 0.07122866 0.12033422 0.020132389
0001e0 34 92 83 bd 82 b8 04 be 06 b9 0d 3d d9 d9 ad bd
       -0.064243704 -0.12961009 0.03460028 -0.08488817
0001f0 63 21 80 bd 82 d8 a6 bc 9e 4a 1d be 81 9f 78 bd
       -0.06256368 -0.02036691 -0.15360495 -0.06069899
000200 f3 2d 09 3d ec 45 8b 3d 8d c9 e0 3d 82 48 ba 3d
       0.033491086 0.06800446 0.10975943 0.09095861
000210 b9 57 bb 3c 34 0e 05 bd fe 8c 16 3e 87 67 c2 bb
       0.022868978 -0.03248425 0.14702222 -0.0059327516
000220 17 48 1d bd a2 a2 2a 3d 54 39 6d 3d 96 bb 78 3d
       -0.03839883 0.041659005 0.057916 0.06072577
000230 b4 bf cd 3d cd 9d 36 bd b8 c7 1a 3e 2b c9 52 3d
       0.1004633 -0.044584084 0.15115249 0.05146138
000240 0c 69 92 3d 39 88 0f be 9e 7e ec bd 6c 07 93 bd
       0.07148942 -0.14016809 -0.11547588 -0.0717915
000250 4d fb 98 3d 52 b6 6d 3d b4 3e 97 bc 14 7f 40 bd
       0.07469807 0.058035202 -0.018462516 -0.04699619
000260 87 9a c4 3d 63 47 05 bd 19 27 d4 bd 04 1f 93 bd
       0.09599786 -0.032538783 -0.1035902 -0.0718365
000270 a3 05 09 be c6 a5 8d bc 4d 0b 25 3c c6 e4 72 bd
       -0.13381056 -0.017290961 0.010073495 -0.059300207
000280 28 95 7e bd cb bf a5 bd 8e d1 bf 3d e0 90 3c 3c
       -0.062153965 -0.08093222 0.09366141 0.01150915
000290 72 12 1c bd bc bd 12 3d 89 88 10 be 90 73 2c bc
       -0.03810353 0.035825476 -0.14114584 -0.010525599
0002a0 0e ba ae 3d b8 3e b1 3c 06 0e 35 3e ea c3 14 3e
       0.08531581 0.021636352 0.17681131 0.1452786
0002b0 86 e7 24 3e 90 92 ea 3d 41 ee b0 3d 36 21 9a 3d
       0.16103944 0.11453736 0.08639193 0.07525866
0002c0 66 14 8e 3d 6f 57 8a bd eb 1d 0c bd 1d fd 96 3c
       0.069374844 -0.06754958 -0.03420822 0.01843124
0002d0 30 d1 02 bd 21 e4 2c 3e 3a 0a ff bc 40 25 ad 3b
       -0.031937778 0.168839 -0.031132806 0.0052839816
0002e0 d8 b6 fc bd b7 01 11 bd af df c6 3d ed 49 c2 bd
       -0.12339562 -0.035402026 0.09710633 -0.094867565
0002f0 6a 48 f3 bd 85 8a f8 bb 4f bf 8c 3c 99 ad b7 bd
       -0.11879046 -0.007584872 0.017181067 -0.08968658
000300 d2 16 0c be a7 ce 89 bd b7 c8 c8 3a fc 6c 56 3d
       -0.1368058 -0.06728869 0.0015318607 0.05235003
000310 ac 88 e0 bc 9f a7 16 bc 02 0a 96 3d 99 e6 9f 3d
       -0.02740892 -0.009195237 0.073261276 0.07807655
000320 2d a2 c6 bd a3 4c 15 be e7 b9 5e bd b3 1e 2a 3d
       -0.09698901 -0.14580016 -0.05437651 0.041533183
000330 ae 86 f1 bd 54 3e 8f bd 18 c5 3b bd 3b 89 4e 3c
       -0.11793266 -0.0699431 -0.04584226 0.0126059605
000340 0f 5a 2d bd 0f f2 a6 bd db b3 d4 3c f4 7a 2f bd
       -0.042322215 -0.08151638 0.025964668 -0.042841867
000350 ca 1a fd bd 95 23 03 be ff 35 1b be 95 8c 9a 3d
       -0.12358625 -0.12806542 -0.15157317 0.07546345
000360 29 ba 94 bc 98 fe 8b 3d f1 7c 1b 3c 02 56 3e 3d
       -0.018155174 0.06835669 0.009490238 0.046468742
000370 36 43 fe 3b 94 6d 8a bd ca 66 5d bd cb 1c 87 3d
       0.007759477 -0.067591816 -0.054053105 0.06597289
000380 68 68 94 3d be 75 0c 3d eb 65 5c bd 19 d7 53 3d
       0.072464764 0.034291975 -0.053808134 0.051718805
000390 e5 02 32 3d 3a 8e 92 3c dd 2d be bd 0b aa 93 3d
       0.04345979 0.017890085 -0.092860915 0.072101675
0003a0 31 02 a5 3d f1 3d d4 bc 83 6f 9d 3b 7b 54 83 3d
       0.080570586 -0.025908442 0.004804553 0.06412598
0003b0 86 f3 c0 3d 30 d5 ea bd 1b 3c 5b 39 44 47 63 bd
       0.094214484 -0.114664435 0.00020907859 -0.055487886
0003c0 3d ea f0 3c 58 74 94 3d 6b eb ba 3d 78 17 b3 bc
       0.029408569 0.07248753 0.09126934 -0.021861777
0003d0 dd eb 91 3d 05 83 ed 3c 5c a0 4b bd 2a 5c ab 3d
       0.071250655 0.028993139 -0.049713477 0.08367188
0003e0 84 5f 66 bd 33 be 3c bd ce 90 46 3d 31 a2 66 bd
       -0.056243435 -0.046079826 0.04847794 -0.05630702
0003f0 a2 03 f3 3d ec fa 6e 3d a7 2c 90 3d f4 ba 07 be
       0.11865927 0.058344766 0.07039767 -0.1325491

network.0.bias f4 [128]
000000 ce fb e0 3b c9 69 2f bc dd a8 82 3d 77 c0 87 bc
       0.006865955 -0.0107063735 0.06379864 -0.016571267
000010 1f 8c 64 3d c1 42 74 3d b1 74 14 3e 19 8d 21 bc
       0.055797692 0.059633974 0.14497639 -0.0098603
000020 b8 af 95 3d 6e 86 eb 3d e6 f2 3a 3e f8 02 1c 3d
       0.07308906 0.1150025 0.18256721 0.03808877
000030 c8 34 02 3e e4 8e ec 3c e7 64 09 bd cd 2b 59 bd
       0.12715447 0.02887673 -0.033543494 -0.053020287
000040 21 ca 76 bd 9b fd 20 bd 71 c0 d1 bb 1a c1 cc bc
       -0.06025136 -0.039304357 -0.0064011146 -0.024994422
000050 6e 42 59 3e 8d f7 a9 bd 07 52 39 bd 28 da a0 bc
       0.21216747 -0.0829917 -0.045244243 -0.019635275
000060 7f a9 b3 bd a4 29 24 3e 67 f3 e3 bd b7 5d 0e 3e
       -0.08772563 0.1603151 -0.1113041 0.13902937
000070 71 61 08 3e 60 31 9f 3d 55 15 48 bc 64 aa 7d 3c
       0.13318421 0.077730894 -0.012212117 0.015482519
000080 05 63 8a 3d ba d9 ca bd 87 60 91 bd 3c 04 02 3c
       0.06757168 -0.09904809 -0.07098489 0.00793558
000090 2d a5 53 bc 6a f9 58 3d cc 3e 2f 3e 36 b0 a8 bd
       -0.012917799 0.052972235 0.17113799 -0.082367346
0000a0 35 81 27 3e 11 68 5e 3d 6e 38 1f 3e 7b ee de bb
       0.16357882 0.054298464 0.1554887 -0.0068033314
0000b0 e0 91 97 bc b0 7f d7 3c 43 5f 9a 3d c3 ca ad bc
       -0.018502176 0.026306003 0.07537701 -0.021214848
0000c0 0f 92 8b bd db a3 bb bd 23 38 86 bd 61 70 a2 3d
       -0.06814968 -0.09162112 -0.06553676 0.07931591
0000d0 b9 de a9 3d 39 22 03 3d 0d 1d 31 3d f3 41 f6 3d
       0.08294434 0.03201506 0.043240596 0.120242976
0000e0 7c 0d 2b 3d 7a 9a e0 3d 43 b7 2f 3e 0b bc 1b 3d
       0.041760907 0.10966964 0.17159753 0.03802113
0000f0 7a bb 76 3d 3c b1 24 3e 30 7b cd 3d 6c 80 e7 bd
       0.060237385 0.16083235 0.10033262 -0.113037914
000100 69 a0 f7 3c 97 4e 66 3d 8b af 84 3d 90 fc f2 3d
       0.030227857 0.056227293 0.06478795 0.11864579
000110 10 f3 17 3e 92 7f a7 bd 86 e1 ea bd 40 61 25 3e
       0.14838815 -0.08178629 -0.114687964 0.16150379
000120 e9 ec ec 3c 70 4f ea bc 41 ff d9 3d 90 de aa 3d
       0.028921561 -0.028602332 0.10644389 0.08343232
000130 a9 39 2f bd 58 b7 0e bd 01 16 c0 3d 71 5b c6 3b
       -0.0427796 -0.03484282 0.09379197 0.006053381
000140 36 0a cf 3d ed 50 f8 bd 38 54 f9 3b cc 1d 85 3d
       0.101093695 -0.1212481 0.0076089166 0.06499824
000150 ab a7 07 3e 90 f0 fa 3d e6 bc 2e 3e ec 64 ea b7
       0.13247554 0.12252915 0.17064247 -2.794197e-05
000160 1a 75 bf bc 04 8b 7d 3b e7 4f 02 bc 37 56 de 3d
       -0.023371268 0.0038687596 -0.0079536205 0.10856288
000170 e7 8f f9 3d 1f d8 fb bc ed 12 56 3e 57 8b b9 3d
       0.1218565 -0.030742703 0.20905657 0.0905978
000180 e4 95 36 3e 41 7d 12 3e cf 09 25 3e a9 2d d7 bc
       0.17830616 0.14305593 0.16117023 -0.02626689
000190 0c 62 c2 bc 96 c6 a4 bc 00 8c 9e 3d 17 72 2f 3e
       -0.023728393 -0.020114224 0.07741547 0.17133366
0001a0 20 af 4c bc af d4 5a 3d 67 c9 8d 3d 35 41 34 bd
       -0.012492925 0.053425487 0.0692318 -0.0440075
0001b0 cb aa 0f be 68 25 56 bd 38 0a b3 3d 78 21 50 bd
       -0.14029996 -0.052281767 0.087421834 -0.05081317
0001c0 c2 d0 30 3d 7f b3 5a bd 3d 9a 2d bc 34 8b c1 3d
       0.043167837 -0.053393837 -0.010595855 0.09450379
0001d0 75 7c 07 3e df 70 b0 bd 9d d3 13 3d 2e 4f c9 3d
       0.1323107 -0.086152785 0.036090482 0.098295555
0001e0 78 89 99 3d e3 cc 10 3d a1 8b 03 3e fd 38 0b 3e
       0.07496923 0.035351645 0.12846233 0.13595958
0001f0 fb 9e 87 3d 46 1f c3 3d fe 87 4a bc ec 51 8d bd
       0.0662212 0.09527449 -0.012361525 -0.06900391

network.2.weight f4 [128, 128]
000000 5d 67 1e 3d e0 4f f9 3d 2b f7 89 bd d8 c8 48 bc
       0.038672794 0.12173438 -0.06736597 -0.012254916
000010 61 99 8e 3d 44 a3 00 3d ad 29 5f bd ce 65 d7 3c
       0.069628485 0.031405702 -0.054483104 0.026293661
000020 09 32 98 3c af 4a e3 3d 83 39 85 3d 70 17 ae 3c
       0.018578546 0.11098229 0.0650511 0.02125141
000030 ca 62 95 bd 18 28 80 3d fb ef c8 3c 01 15 d2 3b
       -0.07294233 0.06257647 0.024528494 0.0064111953
000040 cc 6b 07 3e e2 31 79 bd f3 36 ba bd f3 70 32 3c
       0.13224715 -0.060838588 -0.09092512 0.010891187
000050 3a 2b 62 bc 79 f2 a0 3d 33 00 2f 3d 10 ab fa bc
       -0.013804251 0.07858748 0.0427248 -0.030599147
000060 42 9e 79 3e df ae 3a 3c 10 4c 17 bd d1 70 ad bc
       0.24376777 0.011394232 -0.036937773 -0.02117196
000070 c4 9f 00 be 3b 81 5e 3d 8f 53 84 3d fa 53 5e bd
       -0.12560946 0.054322463 0.0646125 -0.054279305
000080 37 cf ff bc c8 33 96 bd 4f 31 e5 3d 80 bf 0c 3e
       -0.031226737 -0.07334095 0.111910455 0.13744926
000090 3c 9b 42 3c 73 03 c1 bd 07 e4 6d 3d 1f b3 6b 3d
       0.011877831 -0.09424486 0.058078792 0.05754387
0000a0 b4 ad dc bc 17 6c 42 3d de 2c 8e bd 2d d3 bc 3c
       -0.026938297 0.047466364 -0.069421515 0.023049915
0000b0 b5 4e 35 3d 95 89 a7 3d 37 7f a9 bc 1d 66 bc 3c
       0.044264514 0.081805386 -0.020690544 0.02299791
0000c0 e1 5d c3 bd b8 56 b1 3d 9f 84 7b bc 31 4d a3 bd
       -0.0953939 0.086591184 -0.015351444 -0.079737075
0000d0 b8 a7 af 3d 6c 09 32 bd fb 5f 54 bd 90 83 8b 3c
       0.08576912 -0.043466017 -0.051849347 0.017030507
0000e0 0a 95 a8 3d 04 9e 0f be 33 a8 c2 3c 63 51 7d 3d
       0.08231552 -0.14025122 0.023761844 0.061845195
0000f0 11 ff 88 bd c2 71 6f bd f3 67 bc bd fb 1d ce 3d
       -0.06689275 -0.058458097 -0.09199514 0.10064312
000100 05 a9 25 3c 84 ea 37 3e 02 1a 0c bd 8c a1 ec bb
       0.010111098 0.17960554 -0.03420449 -0.0072214063
000110 d6 50 41 3d d3 b7 d0 3d 1a 0b 07 3e 30 c5 ca bc
       0.04719623 0.10191312 0.13187829 -0.02475223
000120 47 9a f8 bc 72 43 0b 3e bd c5 88 bd 24 d7 1b 3b
       -0.030347003 0.13599947 -0.066783406 0.0023779357
000130 57 69 37 bd 3f 7a ff 3d b5 11 0d bd b1 8d 0c 3e
       -0.044778194 0.124744885 -0.034440715 0.13725926
000140 ac 6f 6a 3d 31 e5 d2 3d 63 2c 4e 3b 34 c3 e2 bd
       0.057235405 0.10297621 0.0031459562 -0.11072388
000150 31 9d 65 bd 27 45 bd 3d b5 59 68 bd 7c 55 10 3e
       -0.056058113 0.092417054 -0.056726176 0.1409511
000160 ef dd c6 3d a9 65 8b 3c e3 f2 94 bd 6e 96 1d 3d
       0.09710299 0.017016249 -0.072728895 0.03847354
000170 b6 7f e7 bc be 81 75 bc 68 78 80 3d 2d 5a 5f 3d
       -0.02825914 -0.014984546 0.06272966 0.054529358
000180 25 e3 df bc a7 13 60 3d e0 58 d1 bc 22 25 85 3d
       -0.02732999 0.054706242 -0.025555074 0.06501223
000190 f6 05 ca bd d5 13 80 bc 53 a4 38 3c 91 0e 0b 3c
       -0.09864418 -0.015634457 0.011269647 0.00848736
0001a0 a3 15 0a bd 0c ca c3 bd b1 bb c8 3d 4c a0 37 3e
       -0.03371204 -0.09560022 0.09801424 0.17932242
0001b0 8c 99 09 bc 36 27 d5 3d be 25 ce 3d 25 65 1f 3e
       -0.008398425 0.104078695 0.100657925 0.15565927
0001c0 44 52 20 3d 75 9c 80 bd 1a 6b 40 bd a8 84 16 3d
       0.039140955 -0.06279842 -0.04697714 0.036747605
0001d0 30 ec 8e bd 71 7e 0c be 94 55 0a bc 22 c7 d0 3b
       -0.06978643 -0.13720109 -0.008443255 0.0063713947
0001e0 d9 a1 3c 3d a8 cd 0c 3e 60 3c ac 3c 9a 5f b4 3d
       0.046052787 0.13750327 0.021024883 0.08807297
0001f0 25 fc c3 bd 45 a4 85 bd f6 38 69 3d 57 5e 8b 3d
       -0.09569577 -0.065254726 0.056939088 0.06805103
000200 02 07 06 3d 86 ec d6 3d a7 52 ad bd 19 c1 7c 3d
       0.032721527 0.10494332 -0.0846303 0.06170759
000210 a9 d7 4e bd b9 7c 4f 3d 5b 2f 36 3d b4 4e d0 3c
       -0.05049864 0.050656054 0.044478755 0.025428154
000220 8d f1 6d bd 4f ca a8 3d 18 fe dd 3b 46 94 92 bd
       -0.05809169 0.08241712 0.006774675 -0.07157187
000230 e4 64 51 3d 48 29 f0 3d 6a 31 a1 3c dd 23 77 3d
       0.051121607 0.11726624 0.019676883 0.060336936
000240 c2 08 50 3c cd ac 22 bd e1 3a b2 bc f7 0f 48 bd
       0.0126974005 -0.039715577 -0.021756591 -0.04884335
000250 1c df a9 3d 98 e6 d6 bd a1 43 9c 3d 96 57 9b bc
       0.08294508 -0.10493201 0.07630087 -0.018962663
000260 37 7f c2 3d 06 31 52 3d 0f 24 32 bd e1 d8 9a 3a
       0.094969206 0.051316284 -0.04349142 0.0011813903
000270 ca 51 ef bc ab f1 10 3d 26 58 3a 3d ba cd 0b 3d
       -0.029213805 0.035386723 0.04549422 0.034131743
000280 40 e6 e1 3c c0 aa 2d 3d 0f 6c 2a 3d f1 6d b0 3d
       0.027575612 0.042399168 0.04160696 0.0861472
000290 9d 2d 84 bd 50 08 48 bd ac 90 8e bd f4 c5 6f 3d
       -0.064540125 -0.048836052 -0.06961188 0.058538392
0002a0 b5 49 ff 3c 30 0b d9 3c 14 03 85 3b d7 99 19 3d
       0.031163076 0.026494592 0.004059205 0.03750023
0002b0 a3 38 8b 3c 84 60 f1 3d 71 4c c0 3b a6 be 26 3d
       0.01699478 0.11785987 0.0058684875 0.04070916
0002c0 22 dc 08 bd 10 47 00 3e f5 80 95 3d e3 28 f6 ba
       -0.03341306 0.12527108 0.07299987 -0.0018780496
0002d0 69 cb 6d bd f9 c5 52 3d 28 0c 4a 3d 2a b6 50 bd
       -0.058055315 0.051458333 0.049328 -0.050954975
0002e0 6e a2 6f 3d 10 10 9f bd 3f 24 7a 3d 34 04 a1 3c
       0.058504514 -0.077667356 0.061069723 0.019655325
0002f0 cf 08 17 3d 90 96 4c 3d 6d 17 ae bd 24 7a 64 3d
       0.036873635 0.049948275 -0.08500562 0.055780545
000300 13 8d 1b 3d ce 4a be 3c 28 fb 3c bc 28 be ca bb
       0.037976336 0.023229029 -0.01153449 -0.006187219
000310 4a 5e 99 bc 76 39 04 3e 3b c0 8a 3d c3 32 46 bd
       -0.018721718 0.12912545 0.06774946 -0.048388254
000320 ac 6c 19 ba 6c 58 47 3b 37 aa 77 bd 84 63 91 bb
       -0.000585268 0.0030417694 -0.060465064 -0.004436912
000330 a3 94 d1 bd 98 02 ad 3d 13 db 27 3c ad 17 40 3e
       -0.10233428 0.0844776 0.010245102 0.18759032
000340 fb da 37 bd 8c 8a 38 bc c1 3b 8a bd 90 0a 9f bd
       -0.04488657 -0.011263501 -0.067496784 -0.077656865
000350 88 51 6d 3c 97 0f a5 b9 eb 7d 88 3d 3c 50 83 3d
       0.014484771 -0.00031482868 0.06664642 0.06411788
000360 5f 4b dd 3d 16 68 9f bd 08 a3 a0 bc 95 83 b4 bd
       0.108053915 -0.07783525 -0.01960899 -0.0881416
000370 f7 7b 05 bd ec ff 83 bd c7 9f 09 3d be 64 85 3c
       -0.032588925 -0.064452976 0.03359964 0.01628339
000380 b0 72 95 3d 2d b3 82 3d c8 c8 c0 3b 4d 46 25 3e
       0.072972655 0.06381831 0.00588331 0.16140099
000390 02 ad e6 bd c9 39 a0 bd 31 ed 3e bd b0 da 96 bd
       -0.11263467 -0.07823522 -0.046612922 -0.0736593
0003a0 2e 39 01 3d 0b 32 1c 3c 5d c6 de bc e1 dc 26 3e
       0.03154867 0.009533416 -0.027194196 0.16295196
0003b0 a2 23 50 bc 71 82 94 3d a8 82 53 3b 2e 0e 1d 3e
       -0.012703808 0.07251442 0.0032273922 0.1533744
0003c0 84 f7 a6 bd 8f 6f 48 bd ad a2 97 bd c2 de a9 bd
       -0.081526786 -0.048934516 -0.07404075 -0.08294441
0003d0 5a 96 0d 3d c6 94 d1 bc f3 86 a7 bd 29 93 9d bd
       0.034567215 -0.025583636 -0.081800364 -0.07694084
0003e0 b4 24 87 3d 35 fc e8 3d e3 1c a3 bd 44 03 40 3d
       0.065987974 0.1137623 -0.07964494 0.046878114
0003f0 17 7b b5 bd 9b 38 23 3d ea 90 f2 bc 22 d4 a3 3d
       -0.08861368 0.039848905 -0.029610116 0.079994455

network.2.bias f4 [128]
000000 2a 55 85 3d cf 1b a5 3c 8e c3 05 bd 98 73 4d bd
       0.065103844 0.020154862 -0.0326572 -0.050159067
000010 d5 55 0f 3e ab b2 0a 3e c2 49 0a 3e 84 d5 1d 3e
       0.13997586 0.13544719 0.13504699 0.15413481
000020 32 73 80 3d 0e 1d 33 3d 6a 70 a8 3c 24 b4 34 3d
       0.06271972 0.04372888 0.020561416 0.044117108
000030 78 c2 39 3d f0 62 0a bd 16 02 0d 3e 4c f9 09 3e
       0.045351475 -0.03378576 0.13770327 0.13474005
000040 09 83 f3 bc 37 ea c5 3c 88 f5 c2 3d 97 ae 4c 3d
       -0.029725568 0.024159534 0.095194876 0.04997119
000050 3d ef a2 bc 99 ae 7c 3d e4 40 0d 3e 59 48 60 bc
       -0.019889468 0.061689947 0.13794285 -0.013689124
000060 00 2c 4e 3d 88 35 eb 3d be 62 ce 3d bb 2a 5b bc
       0.05033493 0.1148482 0.10077427 -0.013376887
000070 85 12 0d 3e 4f 59 9b 3d 51 0b 96 bd 90 f3 93 bd
       0.13776596 0.07585394 -0.07326377 -0.0722419
000080 1e be 6c 3d a1 ea 17 3e c5 0a fa 3d 75 e0 20 3d
       0.057798497 0.14835598 0.122090854 0.03927656
000090 b4 64 80 3d 62 be a7 3b 6e 89 0c 3d 01 ea a1 3d
       0.062692076 0.005119131 0.03431075 0.07905961
0000a0 a9 58 eb 3d a8 f0 bc bd 65 fa 25 3d 4d 65 96 bb
       0.1149152 -0.09225589 0.040521998 -0.0045897127
0000b0 74 e7 ee 3d 25 13 77 bc 6d a4 f5 3c 8f b7 03 3e
       0.1166524 -0.015080248 0.02998563 0.12862991
0000c0 e8 f2 63 bd c0 2c 98 bd b0 74 80 bd 12 81 9d 3d
       -0.055651575 -0.074304104 -0.062722564 0.07690634
0000d0 5b 66 cb 3c 9a 60 46 3b 4a 80 55 3d 03 a9 00 3d
       0.02482908 0.0030269981 0.0521243 0.031411182
0000e0 7e 55 59 bd ce 23 1b bb 40 1a 7e bc c0 7f cc bd
       -0.053060047 -0.0023672464 -0.015509188 -0.09985304
0000f0 25 75 4d 3b 19 57 7a bd 80 3b 65 3d 92 1d d6 3d
       0.003135034 -0.06111822 0.055964947 0.10454859
000100 b8 fb 19 bd 75 56 27 3d 6e 60 8d 3d ff d9 a7 bd
       -0.037593573 0.040853936 0.06903158 -0.08195876
000110 34 ed 60 3d 05 6a 74 3d 15 8e 22 3c 02 65 a3 bd
       0.054913715 0.05967142 0.00992157 -0.0797825
000120 b0 6f e3 bb bb ed 04 3d dd ba ab 3d b1 53 03 3e
       -0.0069408044 0.03245328 0.08385251 0.12824894
000130 ba e1 be bc 07 c8 8c 3d 09 f9 a8 3d 92 8a 8f 3d
       -0.023300994 0.0687409 0.08250625 0.07008852
000140 97 86 60 3d aa f2 e9 3c 49 e6 0e 3e 4d 1e 5e 3d
       0.054815855 0.028558094 0.13955034 0.054228116
000150 54 f4 01 bd 8e ce 06 3d 00 2d cb bd 3f c7 02 bd
       -0.03172715 0.03291183 -0.099206924 -0.031928297
000160 be 9e 54 bd 2c 8a f2 3c f4 2e 14 bd ac ba 90 3c
       -0.0519092 0.029606901 -0.03617759 0.017667137
000170 db 31 2a bd 05 d3 9e 3d 98 c2 17 bc 4b 71 a8 3d
       -0.041551452 0.077550925 -0.009262703 0.08224734
000180 01 0a fc bc 53 19 51 3d 66 5c 4f bd c9 61 65 bd
       -0.030766489 0.05104954 -0.050625227 -0.05600146
000190 1a 36 d7 3d 48 2b cc bd 63 a7 d2 3d 8d 1f ce bc
       0.10508366 -0.09969193 0.10285833 -0.025161529
0001a0 cf 9d 46 3c 44 c0 4a 3c 44 56 6e bd 07 47 81 bc
       0.012122585 0.012374941 -0.058187738 -0.015780939
0001b0 93 65 a4 3d 6c ad 84 3d 43 e5 8e 3c d4 89 89 ba
       0.08027186 0.0647839 0.017443305 -0.0010493346
0001c0 6c 55 d2 bd d9 26 b7 3d c6 fc 1f 3e b1 70 df 3d
       -0.10270199 0.089429565 0.15623769 0.10910166
0001d0 67 3d bf bd b9 4d fa 3d 48 d1 3a 3d 60 d0 2a 3d
       -0.093378834 0.12221856 0.045609742 0.041702628
0001e0 00 6d 5c bc 2f 0d 77 3b 83 7c f6 3d a1 a5 ee bb
       -0.013453722 0.0037697067 0.120354675 -0.007282928
0001f0 36 cf bb 3d b1 44 ea 3d 62 5d 9a 3c 9a 70 fd 3d
       0.09170382 0.11438883 0.018843357 0.12374993
