models_backup/maddpg/checkpoint_ep1700/adversary_0.pth (torch, 764002 bytes, 44 tensors)

network.0.weight f4 [128, 16]
000000 d4 ae 93 be bf ba 01 3e 8d a1 2a 3e 65 5c f0 3d
       -0.2884432 0.12668894 0.16663189 0.11736373
000010 51 8b e4 3d f4 85 53 be c6 c8 28 be 54 77 34 be
       0.11159385 -0.20656568 -0.16482839 -0.17623645
000020 fa e6 ad 3d 07 c3 8a bd 6c 98 7d bb 00 b7 04 3e
       0.08491321 -0.0677548 -0.0038695587 0.12960434
000030 92 91 58 3e 6c eb 94 3c 68 0a 78 3e 4d f9 31 3e
       0.2114928 0.018178664 0.2422272 0.17380257
000040 bc cb 23 3e 2b fb 9b bd 85 dc 4e bd 16 5e d2 3d
       0.15995687 -0.07616266 -0.050503273 0.10271852
000050 ca f9 f2 bd c4 24 ad bd 38 5b 95 3e ed b8 2a 3e
       -0.1186405 -0.08454278 0.29171157 0.16672106
000060 a8 00 59 3d a8 2a 02 3e ea 82 d8 bd 9c 7f 36 3e
       0.05297914 0.12711585 -0.10571845 0.17822117
000070 fb d1 7b 3e e7 d0 69 3d 63 44 35 3e 87 b7 87 3e
       0.2459182 0.05708399 0.17701869 0.26507208
000080 be d5 80 be b6 60 23 3e 58 50 b7 bc 70 72 09 3d
       -0.25163072 0.15954861 -0.022377178 0.0335564
000090 3b 87 b7 bd 0f 35 0d be 05 7d 51 be 92 2c b4 bd
       -0.0896134 -0.13789771 -0.20457847 -0.087975636
0000a0 55 dd 2b be 30 f5 fd 3c 10 75 88 be 43 a7 83 3e
       -0.1678365 0.031000704 -0.26651812 0.25713548
0000b0 e4 1b 72 be fd 25 cf bc 38 aa 92 bd 6e 28 6d 3e
       -0.23643452 -0.025286669 -0.07161373 0.23159954
0000c0 7b e4 11 be 40 e1 e5 bd bc 90 11 be bc da 8f be
       -0.14247315 -0.11224604 -0.14215368 -0.2809657
0000d0 5d 4f 40 3e 3f f4 82 3e 13 e2 71 bc 5e 94 2b be
       0.18780275 0.2557697 -0.014763373 -0.16755816
0000e0 6f 62 8c be db 11 2c 3c 9e dc 5b bc 51 ee 71 be
       -0.2741885 0.010502304 -0.013419298 -0.23626067
0000f0 31 d7 4b 3e 14 33 60 3e df 8d a7 bb 2b c4 5b bd
       0.19906308 0.21894485 -0.005113348 -0.053653877
000100 5e d1 1b 3e 0e b1 36 3e a8 8f 4c be 42 6d 82 3e
       0.15216586 0.17840979 -0.19976676 0.25473982
000110 5e 13 ab bd 4c 6f 28 be 12 6f 1d be 2e 6e 06 be
       -0.083533034 -0.16448706 -0.15374401 -0.13127968
000120 18 6e 47 3e 7a 86 8d be b8 2a 82 3e 63 19 f4 3d
       0.19475591 -0.2764166 0.25423217 0.11918905
000130 c8 2d 8f 3e c1 b9 36 be 57 5e 08 be ba cc 51 3e
       0.27964616 -0.17844297 -0.13317238 0.20488253
000140 3e c1 80 3e 1f ee c5 3d 70 8a 22 bc 4e d6 20 3e
       0.25147432 0.096645586 -0.009920701 0.15706751
000150 15 c7 e3 3b 07 13 ef bd 49 9c 3a 3e d1 bb 9d bd
       0.0069512227 -0.11673551 0.1822368 -0.07701839
000160 2d 7b 21 bc 61 a8 20 be ff 68 0e bd d1 fe 78 bd
       -0.009856028 -0.15689231 -0.0347681 -0.060789887
000170 68 4b 76 3e 7a 73 e7 bd 03 b0 22 3e fc 7c 81 be
       0.24052203 -0.11301322 0.15887456 -0.25290668
000180 9e 7d 55 be 9b 5e 05 3e 0a 1a df 3d 3c de 08 3e
       -0.208487 0.1302437 0.108936384 0.13366026
000190 6d 90 bb bd 7e 5c 2f bd d6 80 7d bd cf 1a 5c bd
       -0.091584064 -0.042812817 -0.061890446 -0.053736504
0001a0 aa f8 45 be d4 41 8e be 9d c3 9e be 8d 63 d3 3d
       -0.19333139 -0.27784598 -0.31008616 0.10321722
0001b0 f4 df 1b be 41 96 00 3e 82 fe c5 3d 4f 3c 16 bd
       -0.1522215 0.12557317 0.09667684 -0.03667861
0001c0 e4 68 96 3d ce d1 21 3e a9 d6 8f bd 11 ae f1 bd
       0.07344225 0.1580269 -0.07023365 -0.11800779
0001d0 ee 3c 4f 3e 94 d4 71 3d 22 00 88 3d 65 14 f2 3d
       0.20238087 0.05904062 0.0664065 0.11820296
0001e0 e4 41 5b 3e 0c 13 5e be 3d 30 83 bd 2f 6c f3 bd
       0.21411854 -0.21686953 -0.06405685 -0.11885869
0001f0 f8 6f 23 3d b5 0d 75 3c 5d 36 d0 bc af 2d e7 3d
       0.039901704 0.014956881 -0.025416547 0.1128801
000200 2b 78 04 3e bc 88 48 be 17 bf 4b 3e a9 57 5a be
       0.12936465 -0.1958341 0.19897114 -0.21322502
000210 97 51 2b be 79 bb dd bc 56 4b 5d be 67 a2 bc bd
       -0.16730343 -0.027066933 -0.2161077 -0.09210663
000220 95 91 9c be 8e f6 37 be bb 5c 96 be 6d a2 5d 3e
       -0.3057982 -0.17965147 -0.29367623 0.21643992
000230 35 b4 47 3b 79 46 f8 3d c0 65 0d 3e 5a 22 3c 3b
       0.0030472402 0.121228166 0.13808346 0.0028706999
000240 32 fb 4c 3e 0c de b8 bd 1c 5c db 3c 97 58 a8 3c
       0.20017698 -0.09026727 0.02677732 0.020550055
000250 4b 10 88 3e 6b df 27 be 89 33 37 3e 82 af 14 be
       0.2657493 -0.16393821 0.17890753 -0.14520076
000260 bb 22 c2 bd b1 9b 92 be d6 c0 1c 3e 74 ed 94 be
       -0.094792806 -0.28634408 0.15307936 -0.29087412
000270 70 22 58 3e 43 44 39 3e 9a d5 1b be 17 01 90 3d
       0.21106887 0.18092446 -0.15218201 0.07031458
000280 9f cf 26 be c9 93 b1 3d 36 5c 39 3e 86 06 9b bc
       -0.16290139 0.08670766 0.18101582 -0.018924009
000290 a5 73 93 bd 27 06 94 3e 09 11 08 be bc 42 b9 bc
       -0.07199792 0.28910944 -0.13287748 -0.02261483
0002a0 be 51 30 3e f2 49 d0 bc 7a 53 40 3d 27 be 80 3d
       0.17218682 -0.025425885 0.04695461 0.06286269
0002b0 06 5d 35 be 46 43 82 3e 91 cb 83 bd 74 da 1f be
       -0.17711267 0.2544195 -0.064353116 -0.15610677
0002c0 37 54 7d bd 06 4b 85 be 03 f3 59 3e d2 c4 6e 3e
       -0.06184789 -0.260338 0.21284108 0.23317268
0002d0 0d fc 8c 3e 1c c3 41 be 49 d4 50 3e 91 36 59 be
       0.2753605 -0.18922085 0.2039348 -0.21212222
0002e0 ab d5 e7 3d bb 08 31 3e cf be 4c 3d 8d 46 25 be
       0.11320051 0.17288487 0.049986657 -0.16140194
0002f0 aa c4 b9 bd c5 8b 8b be 0a b4 8e be db 27 21 3e
       -0.09070714 -0.27255073 -0.27871734 0.1573786
000300 59 d6 f4 bd 23 fb 37 bd 4c d7 55 3d 5a ed ca 3d
       -0.11954946 -0.044917237 0.052207276 0.099085525
000310 96 e2 62 3e 7a 10 ca bd f9 a8 a1 be b8 38 fb 3d
       0.22156748 -0.09866424 -0.31574228 0.122666776
000320 f1 8a b2 bd b9 a1 75 be 73 c8 85 be f4 b0 41 be
       -0.08717907 -0.23987474 -0.26129493 -0.18915159
000330 33 3d 43 3e 0e c0 a5 3c 07 72 b4 bd e8 d0 89 3c
       0.19066314 0.02023318 -0.088108115 0.016823247
000340 d4 12 fe 3d 14 8f 0e 3e 72 44 08 be 5b 4c 8d 3e
       0.12405935 0.13921767 -0.1330736 0.27597317
000350 a2 b2 55 3e b3 e5 14 be b9 f7 e6 3d d3 45 3c be
       0.20868924 -0.14540748 0.11277718 -0.18386011
000360 7c b6 43 bd ba 5a f4 3d 3b 26 01 be 6f c5 80 3e
       -0.047781453 0.11931367 -0.1261224 0.2515063
000370 6a 50 19 3e c3 30 8b be f1 22 79 3d af 2b 47 be
       0.14972082 -0.2718564 0.06082434 -0.19450258
000380 f5 c0 07 be 98 29 1b be f0 ca db 3c 93 ed cd bd
       -0.13257201 -0.15152586 0.026830167 -0.10055079
000390 99 51 3f 3d 89 e1 1a be 63 83 78 be b0 08 74 3e
       0.046708677 -0.15125097 -0.2426887 0.23831439
0003a0 8a 06 d7 3d a6 cf 7e 3e af 54 db 3d 6c a2 69 3d
       0.10499294 0.24883899 0.107095115 0.057039663
0003b0 6d 7e f7 bd e2 5f 85 bc 01 64 d5 3d 63 0d 73 3d
       -0.12084661 -0.016281072 0.10419465 0.05933894
0003c0 21 7d 44 3e 81 52 3e bd 2c d1 6d bd 49 a4 d8 3c
       0.19188358 -0.0464654 -0.05806081 0.026445525
0003d0 1e 41 40 be 22 42 04 be 12 14 c1 bd dc 7c 27 3e
       -0.1877484 -0.12915853 -0.09427656 0.16356224
0003e0 dd 48 68 3e 89 3a fe bc 5f c1 3e 3e 57 b4 fc bd
       0.22684045 -0.031033771 0.18628453 -0.123390846
0003f0 64 4d ec 3b e6 13 94 be f5 4c ea bc 6c a9 71 be
       0.007211374 -0.2892143 -0.02860115 -0.23599786

network.0.bias f4 [128]
000000 f2 e1 81 3d 72 0d 30 be 1e 67 31 3e 87 60 ea 3c
       0.06341924 -0.17192629 0.17324492 0.028610481
000010 6b 35 ef 3c fb 68 a0 3d 00 e0 8a 3e 8f 65 fc 3d
       0.029200276 0.078325234 0.27124023 0.12324058
000020 c5 a3 15 3e 27 cb 1b be 08 62 3c 3e 28 54 a4 3d
       0.14613254 -0.15214215 0.18396771 0.08023864
000030 90 3e c7 3b d5 5a 41 be 53 2c bc bd b1 fe 12 3e
       0.006080456 -0.18882306 -0.09188142 0.1435497
000040 8e 0f ea bd 6f ad 3d be 65 b2 87 bd c2 bb 12 be
       -0.11428748 -0.18523191 -0.06625823 -0.14329436
000050 aa ef 4f 3e e0 b5 c4 bd 06 5a 85 3e b7 ad cd bd
       0.20306268 -0.096050024 0.26045245 -0.10042899
000060 90 8e 9a 3d 86 eb 9e bd b2 fd e3 3d f0 42 6a 3d
       0.07546723 -0.07759766 0.11132373 0.057192743
000070 27 ff 65 3e 45 0c ea 3d 61 75 10 be d0 83 d5 bd
       0.22460614 0.114281215 -0.14107276 -0.10425532
000080 5e f4 c7 3d 27 53 dd 3d bc ee 83 3e b4 84 8b bb
       0.09763406 0.10806876 0.25768077 -0.004257763
000090 c2 c1 80 3e c6 aa 83 3b bb af db 3d 46 ec 86 3e
       0.25147825 0.0040181605 0.10726877 0.26352137
0000a0 f4 1d 99 3e 82 87 80 3e c1 c2 74 3e 34 ef 86 bd
       0.29905665 0.25103384 0.23902418 -0.06588593
0000b0 05 3b a1 bd 7b da 4d bd 67 03 f7 3b 50 59 2a 3b
       -0.07872585 -0.050257187 0.0075382474 0.0025993176
0000c0 a6 97 19 be d6 1f 44 be b1 34 92 3b 77 0f d4 3d
       -0.14999256 -0.1915277 0.0044618477 0.10354512
0000d0 8b 5e 26 3e 20 e7 1d be 00 99 8e 3e 0c 5c 5f 3e
       0.16247003 -0.15420198 0.27851105 0.21812457
0000e0 a8 ef a5 bd 77 1b 38 3e 11 52 79 3e 71 3d 33 be
       -0.081023514 0.17979227 0.24347712 -0.17503907
0000f0 68 55 96 3e 56 5d 8a 3e 14 54 72 3e b4 1b 97 3e
       0.29362035 0.27024335 0.23664886 0.29513323
000100 0d e4 af bd 08 ba dd bc 60 8c 80 3e 85 aa 81 3e
       -0.08588419 -0.027066246 0.25107098 0.2532541
000110 58 15 23 3e 6a 92 2e be 9f 47 cb bc 9a 3c fc 3d
       0.1592611 -0.1704804 -0.024814425 0.12316246
000120 ff 23 7c 3e 06 8a 83 3e 86 bf c5 bc 28 a3 89 3e
       0.24623106 0.2569124 -0.024139177 0.2688229
000130 2b bd 71 3d 02 36 8b bd 02 5f 0d 3e 6f c3 1c 3e
       0.059018295 -0.067974105 0.13805774 0.15308927
000140 f2 da 1b 3e 2b 29 03 3e fc 3e 67 3e cd 18 e4 bd
       0.1522024 0.12808673 0.2258262 -0.11137543
000150 a4 0a 5a 3e 58 36 87 3e be fa 00 be 2a ed 93 bd
       0.21293122 0.26408648 -0.1259565 -0.0722297
000160 b1 a6 4b be a3 34 12 3e 9f 34 98 3e 46 9b 82 3e
       -0.19887806 0.14277892 0.29727647 0.2550909
000170 e2 27 22 3c 3d 87 37 be 81 07 19 be 71 52 2e 3e
       0.009897204 -0.17922683 -0.14944269 0.17023636
000180 66 d1 14 bd 86 5d 69 3e 2e bf 8f 3e ea c9 6c 3e
       -0.03633251 0.22789583 0.28075546 0.23123899
000190 7e 06 49 bd db 7e 61 3e 05 dc d7 bd 14 53 11 be
       -0.049078457 0.22021048 -0.10540012 -0.14191848
0001a0 ad e4 b8 3d e2 0b 4f 3e da 50 f3 bb ac fe 16 be
       0.090279914 0.20219377 -0.0074254097 -0.14745587
0001b0 c5 6a 4a 3e f3 e4 58 3e 2f 5d 2e be 49 8b 61 3e
       0.19767292 0.21181087 -0.17027734 0.2202579
0001c0 7f e2 19 be 34 50 44 be 20 16 56 3e f1 a6 cf 3c
       -0.15027808 -0.1917122 0.20906878 0.025348159
0001d0 89 e8 7b 3e 45 78 a3 bc 60 0c b2 3d 0a a5 8f 3e
       0.24600424 -0.01995481 0.086937666 0.28055602
0001e0 fe 8e 8b 3e 7c c3 8b bd e4 f7 dc bc 67 d6 0a 3e
       0.27257532 -0.06824395 -0.026973672 0.1355835
0001f0 20 c2 9a 3e 9c 4c fd bd 05 ea da 3d 8f 35 5b 3e
       0.3022623 -0.12368128 0.10689167 0.2140715

network.2.weight f4 [128, 128]
000000 14 37 98 bd 87 00 9d 3d a8 28 82 3c a4 db 41 bd
       -0.0743238 0.07666116 0.015888527 -0.047328606
000010 55 5c a1 3d df 25 a2 bd 7b 70 34 3d 66 b8 97 bd
       0.07878939 -0.079173796 0.044052582 -0.07408218
000020 67 83 22 bd ca f4 9b 3c 54 b1 85 3d cb ec 93 3d
       -0.039676096 0.019037623 0.06527963 0.07222899
000030 81 f7 9a bd bf 4b e2 3c b2 37 89 3d 12 eb c7 3c
       -0.07566739 0.02762401 0.06700076 0.024404082
000040 08 5c 24 bd 34 64 8f 3d c0 93 5d 3d be 93 ca 3c
       -0.04012683 0.07001534 0.054095984 0.024728652
000050 99 40 41 bd 31 b0 e5 bc a8 0b bb 3c ef 55 86 bd
       -0.047180746 -0.028038116 0.022832707 -0.06559359
000060 24 60 9a b9 12 76 8a 3b 7a 9d 90 bc 17 5d a7 3b
       -0.000294448 0.004225501 -0.017653216 0.0051075327
000070 42 a0 66 3c d9 22 44 bd 25 0d d0 bc 26 25 93 3d
       0.014076294 -0.047884796 -0.025396893 0.0718482
000080 48 0f bd bd 54 67 9a bd c5 8c 2c 3d 4f e5 cf bc
       -0.0923143 -0.075392395 0.042126436 -0.025377898
000090 99 51 57 bd f7 c6 b4 3c 4c 42 6e 3b 99 99 1c 3c
       -0.052568052 0.02206753 0.0036355434 0.009558105
0000a0 85 bf 32 3d b2 87 da 3c e9 61 7b 3c 3b 96 26 3d
       0.04363968 0.026676033 0.015343168 0.040670615
0000b0 5c 2d bc bd b2 ce 87 bb ff 96 ed bc 8b 4f c8 bb
       -0.09188339 -0.004144513 -0.029002665 -0.006112998
0000c0 8e 85 86 bc 9c 97 1b bd 3c 80 20 bd 80 10 c5 bd
       -0.016421106 -0.037986383 -0.039184794 -0.09622288
0000d0 04 a9 b2 3a bd a8 82 bd 40 be 39 3c e2 ad 95 bc
       0.0013630693 -0.063798405 0.011336863 -0.01827139
0000e0 a6 e5 62 bd 1c 40 46 bd 27 c3 09 bd 92 0c a1 bd
       -0.05539479 -0.048400983 -0.033633377 -0.07863726
0000f0 d4 1b 31 3c f0 87 4c bd fc a3 9f bd 00 04 8c bd
       0.010809857 -0.049934328 -0.077949494 -0.068367004
000100 f0 a7 0e bd 4f f3 4b 3d de 56 4d 3d f0 d6 4e bd
       -0.034828126 0.049792584 0.05013167 -0.05049795
000110 31 ec 61 bd aa 90 a1 bc ef 55 60 3c 11 21 85 bd
       -0.05515689 -0.019722302 0.013692363 -0.065004475
000120 22 63 ba bc c0 81 5f bd b1 04 80 bd 17 e2 98 3d
       -0.022752348 -0.0545671 -0.06250895 0.07464998
000130 b4 2e 99 bd 96 72 1b bd ea 4b 75 bd 1f 1f b5 bd
       -0.07479611 -0.037951075 -0.05988685 -0.088438265
000140 43 cb 0c 3d b7 35 09 bb 51 38 57 3d 78 af 65 bd
       0.034373533 -0.0020936558 0.052543942 -0.056075543
000150 71 de c0 3c 26 a8 a0 bd bf 1b 5c 3d 70 fa 51 3d
       0.023543568 -0.07844572 0.0537374 0.051264226
000160 f3 78 8c 3d 55 13 29 3c 46 e5 b1 bd 5f 18 84 3d
       0.06859007 0.0103195505 -0.086863086 0.06449961
000170 5c 2e 47 3d 92 dd 8a bd 45 f4 8c bd 29 19 ed 3c
       0.048628196 -0.067805424 -0.06882528 0.028942661
000180 62 c7 87 bd 7b 0d 66 3d 14 75 00 3c e4 74 7b 3c
       -0.06629826 0.0561652 0.007840414 0.015347693
000190 bf 7f 7d bd 7d 19 e9 bc 52 3d 5e 3d 83 9c a1 3b
       -0.061889406 -0.028454537 0.0542577 0.0049319877
0001a0 e0 7c 5b bc 41 f7 7f bd 2a 34 90 3d 62 5a 33 bd
       -0.013396472 -0.06249166 0.070411995 -0.043787368
0001b0 0b 1f 2f bd 64 e6 0d bd e4 92 d1 bc fe b7 3d bd
       -0.042754214 -0.034643546 -0.025582738 -0.046318047
0001c0 b2 74 d2 3c f2 69 fd 3c b8 e0 03 3d 80 1c 72 3c
       0.02569041 0.030934308 0.03219673 0.014777303
0001d0 e0 fa 9b bc ca 33 81 3d ba f0 51 bd 2a 47 a3 bc
       -0.019040525 0.06308706 -0.051254965 -0.019931395
0001e0 20 cf d3 bc 19 bd 60 bd 6d 55 cc 3c 4d a8 fa bc
       -0.0258556 -0.054867838 0.024943078 -0.03059783
0001f0 7b dc a7 bd a7 18 91 3d e4 71 14 bd f0 81 df bc
       -0.0819635 0.0708478 -0.036241427 -0.027283639
000200 e4 b1 5a bd 55 db 6c 3c 40 bb 78 3c 6d 28 83 bd
       -0.053392306 0.01445659 0.015181363 -0.06404195
000210 70 d4 73 3d ef 0b 3d 3c 94 c3 cf 3d ce f1 e2 3c
       0.059528768 0.01153849 0.101447254 0.027703192
000220 a5 94 58 bc 96 76 b0 3d 6b 3c 30 bd 34 16 13 bd
       -0.013219033 0.086163685 -0.04302637 -0.035909846
000230 f9 57 40 3d 1c 90 75 3d 04 ae 9d bb d3 98 73 bc
       0.046958897 0.059951887 -0.004812004 -0.014867979
000240 11 c4 2d 3d 73 ec fa 3c c9 ad a6 bd e2 e6 8d 39
       0.04242331 0.030630326 -0.08138616 0.00027065637
000250 b2 95 11 bd 66 0d f4 bc 1c 8b 07 bd 39 c3 9a 3b
       -0.03554315 -0.029791545 -0.03309165 0.0047229794
000260 b0 70 33 bc e9 9f 19 3d 8a f1 ac bc 09 a4 db 3c
       -0.01095216 0.037506018 -0.021111269 0.026811616
000270 21 ec ac 3d 53 7a a1 3c 60 65 3e bd 15 d8 38 3c
       0.084434755 0.019711649 -0.046483397 0.011281987
000280 7e b6 08 bc 15 79 ed bc 7a 97 cd 3d b0 6a 0e 3d
       -0.008344291 -0.0289884 0.100386575 0.034769714
000290 08 29 b3 3c 42 71 0e bc 4e 43 80 3d b7 aa 46 3d
       0.021870151 -0.008693995 0.06262837 0.04850265
0002a0 ec 3e bc 3d d6 e6 25 bd f7 e4 b3 bb cf e7 78 3d
       0.09191689 -0.040503345 -0.005489941 0.060767945
0002b0 e3 18 b7 3b e4 b8 06 3d 17 3a 1d bd d2 38 13 3b
       0.0055876835 0.03289117 -0.038385477 0.0022464287
0002c0 63 97 cc 3d e6 5b 8e 3d 0a 29 96 3c 27 dc bb 3c
       0.09989812 0.06951122 0.018330116 0.022932125
0002d0 9a e5 26 bd 1f 58 bd bc 81 27 ef 3d 50 24 a7 3c
       -0.04074631 -0.023113308 0.11677457 0.020403057
0002e0 82 ed 19 bd c2 98 e5 3d 6a e8 99 3d 90 26 db 3c
       -0.03758002 0.11210777 0.075150326 0.026751786
0002f0 3e 53 6a bd 9d a1 75 3d 78 bb 05 bd ae 44 79 bc
       -0.057208292 0.05996858 -0.032649487 -0.015214128
000300 d0 f6 80 3d 21 08 17 3c 99 5d 92 3d c6 58 80 bb
       0.06297076 0.009218247 0.071467586 -0.0039168326
000310 9c e1 3a bc 98 65 05 bc a1 e8 48 3c d4 c4 2e 3d
       -0.0114063285 -0.008141898 0.012262494 0.04266818
000320 18 06 2a bd 0a 9e 34 bc 97 03 43 3d 98 b6 d2 3c
       -0.041509718 -0.011024008 0.047610845 0.025721833
000330 6b ed 1d bd f1 b9 78 3b fd 2c 53 bd a2 70 c4 bb
       -0.038556498 0.0037952627 -0.051556576 -0.005994872
000340 eb 09 af 3d 2d 24 ba 3d 1b 2b 4c bd 5d 27 94 3d
       0.085468136 0.09088931 -0.049845796 0.072340705
000350 94 e2 45 3d 60 e6 19 bd 96 82 92 3d 6d c5 c6 3c
       0.048311785 -0.03757322 0.071538135 0.024264062
000360 aa 8e 01 bd d3 36 d2 3d d7 22 20 bd 13 7b 88 3d
       -0.031630196 0.10264363 -0.039095726 0.066640995
000370 34 8c be bc bf ea ae bc 30 38 0a bd 89 ba e1 3c
       -0.023260213 -0.02135217 -0.03374499 0.027554767
000380 67 26 0d bd 30 75 eb bc ef 59 80 3d cd f7 a7 3c
       -0.03446045 -0.028742403 0.062671535 0.020503903
000390 37 1f 8d bc a3 52 ab 3d 0a ce f4 bc c1 df 07 3d
       -0.017226798 0.08365371 -0.029883403 0.033172373
0003a0 68 a9 8a 3d 56 e2 8e bd 43 1f d0 3c 20 20 52 bd
       0.06770593 -0.06976764 0.025405532 -0.051300168
0003b0 e8 d0 d2 bc 29 66 87 bd 2b 62 4e bd d2 d8 c8 3c
       -0.02573438 -0.066112824 -0.05038659 0.02451745
0003c0 ee 25 a4 3d 34 60 4c 3c 8f c4 ca 3d a6 4e 9e bb
       0.08015047 0.0124741085 0.09900772 -0.004831153
0003d0 75 e8 95 3d ca 88 8c bc f1 a0 83 bd 51 94 b2 bc
       0.07319728 -0.01715507 -0.064271815 -0.021799238
0003e0 47 f4 1d b9 b5 9b e1 bc ca da cb bb fd 90 5c bc
       -0.00015063687 -0.027540067 -0.00622115 -0.013462302
0003f0 b8 cb 58 3d 2e e2 ac 3d a8 be a8 3c 5d 1f 0f 3b
       0.052928656 0.08441578 0.020598724 0.0021838762

network.2.bias f4 [128]
000000 57 92 65 3d 8f e8 99 3d 36 6b 8d 3d bb 47 ab 3d
       0.056047764 0.0751506 0.069052145 0.08363291
000010 c6 83 49 bd c9 b7 8e 3d 57 f6 ac 3d 4a e6 3e 3d
       -0.049197935 0.06968648 0.08445423 0.04660634
000020 fa fe 4a 3d ce 47 72 bc 84 b7 de 3d 62 2f ae bd
       0.04955957 -0.014787627 0.108748466 -0.08505131
000030 89 44 98 3c 15 a1 f0 bb ee f7 d4 3c 65 07 ba 3d
       0.018587368 -0.007343421 0.025997128 0.09083442
000040 60 42 87 3d 4d 51 40 3d ed 75 17 3d 58 39 f8 bc
       0.06604457 0.046952534 0.036977697 -0.030300781
000050 10 4d 0c 3c 09 6e ca 3d 55 d3 26 bd 4a 38 38 3d
       0.008563295 0.09884269 -0.040728886 0.044975556
000060 38 4f 5c 3d 85 c2 95 bd 9b 31 a5 3d 12 d4 8a b9
       0.053786486 -0.07312492 0.08066102 -0.00026479416
000070 b9 95 45 bc f2 73 15 bd 4e 63 2e 3d 90 72 81 bd
       -0.012059622 -0.036487527 0.042575173 -0.06320679
000080 47 4f 83 3d cc ac c6 3d 2c d7 c2 3d 6e 60 bd bd
       0.06411605 0.09700927 0.09513697 -0.09246908
000090 74 17 09 3d 23 1b b5 3d e6 d6 ca 3d 48 c8 62 bd
       0.033469632 0.088430665 0.0990427 -0.055366784
0000a0 c0 f6 b5 3d 6a cb b4 3d 2d 7d 1d 3b 58 eb 32 3e
       0.088849545 0.08827861 0.002403091 0.17472589
0000b0 d3 83 5c 3d f7 f0 bb 3d ad 15 07 3e 95 bd 1f bd
       0.053836655 0.0917682 0.13191862 -0.03899916
0000c0 33 d2 ac 3d 60 99 b1 3d 79 40 61 bd 01 57 ac 3d
       0.0843853 0.08671832 -0.054993127 0.08415032
0000d0 c3 d3 3a 3c d1 00 8d 3d ec b5 0e 3e e4 08 63 3d
       0.011403027 0.06884921 0.13936585 0.0554284
0000e0 89 6f de bc 00 53 71 3c 42 ff 9c 3d 71 e2 b8 3d
       -0.027152793 0.014729261 0.07665874 0.09027565
0000f0 8b b1 40 bd 5d bd 1c 3d 65 2a fd 3d 32 d2 ac 3d
       -0.04704432 0.03826653 0.12361602 0.08438529
000100 31 90 2c 3d 39 71 4a 3d 67 9a 27 3d ab a0 5e 3a
       0.0421297 0.049424384 0.040918734 0.00084925693
000110 1a 5c b8 3d e9 4d 18 3d 82 77 26 bd f5 38 c7 3d
       0.09001942 0.037183676 -0.040641315 0.097276606
000120 40 30 9c 3d 93 6b 35 bd a2 13 87 3d da f9 05 bb
       0.076263905 -0.044292044 0.065955415 -0.0020443113
000130 3e 18 20 bd 54 f9 f9 bc 5e ef f6 3d 9b d9 9a 3d
       -0.03908562 -0.030514397 0.120573744 0.07561036
000140 8b a1 cb 3c 7b 19 91 bc d9 21 66 bd 41 e4 1a bd
       0.024857303 -0.017712345 -0.056184623 -0.037815336
000150 a9 d6 7c 3d 43 d0 0f 3d 6d 62 b1 3d 3a 08 5f 3d
       0.061728153 0.035110723 0.08661351 0.054451205
000160 1a a0 43 3e 89 23 65 3d 06 12 93 3d 17 97 bf bd
       0.19104043 0.055942092 0.07181172 -0.0935499
000170 ad 19 4a 3d e7 50 60 3d 90 b4 3b 3d 27 fb 13 bc
       0.049340893 0.054764654 0.045826495 -0.009032047
000180 a5 9a d8 3d 4e ac 92 3d de d5 0a 3e 55 cb 4b bd
       0.10576371 0.07161771 0.13558146 -0.04975446
000190 b6 d0 84 39 18 ea ca 3d 2a 52 5f 3d bb 9b 3d 3d
       0.00025332504 0.09907931 0.054521717 0.046291094
0001a0 48 f8 50 bd f6 e3 9b 3d 83 c5 f4 3c d1 17 32 3d
       -0.05101803 0.076118395 0.029879337 0.043479744
0001b0 23 52 2e 3d 04 40 96 3d 2a a7 a7 bc 5a f4 ed 3c
       0.0425588 0.07336429 -0.020465452 0.02904718
0001c0 bb 3a 75 ba 36 82 7f 3d a0 6d 9e bd 19 53 19 3d
       -0.000935476 0.06238004 -0.07735753 0.037432764
0001d0 9f 88 45 bb 47 78 50 3d d2 4e 06 bd de 94 4b bc
       -0.0030141247 0.050895955 -0.032790013 -0.012425629
0001e0 50 35 08 bd c8 3b 14 3e 59 44 0e bd 04 f5 9d 3d
       -0.033253968 0.1447593 -0.03473315 0.07712749
0001f0 ac 55 0e 3e 73 fe 90 3d eb 72 c0 3c c6 4d 29 bc
       0.13899869 0.07079782 0.023492297 -0.010333484

network.4.weight f4 [5, 128]
000000 2d 16 4b bd 61 49 ae bc 26 f8 52 bc 9d 1c 41 bc
       -0.049581695 -0.021275224 -0.012876546 -0.011786607
000010 7a 9f 7c bd 77 fb 4b 3d 59 4b 50 bb a1 a4 bc 3d
       -0.061675526 0.049800362 -0.0031783192 0.09211088
000020 82 b3 8e bc 3f f3 bc bd b0 02 ab 3d e0 fc 79 3d
       -0.01741958 -0.09226083 0.08350122 0.061032176
000030 34 92 18 3d dc b2 6c bc c6 5f 50 3d b8 c5 91 3d
       0.037248805 -0.01444694 0.050872587 0.0711779
000040 63 9e 65 bd 42 c0 7b 3d bc ad 9e 3d a2 aa 95 3d
       -0.056059252 0.06146265 0.07747981 0.07307936
000050 a8 f5 0e 3b 42 b6 a1 3d bd b9 00 3d 7e 60 76 bd
       0.0021813903 0.07896091 0.031427134 -0.060150616
000060 44 bc 20 3d 8a b3 e4 3c d0 89 92 3d c4 8e 36 bd
       0.039242044 0.027917642 0.07155192 -0.044569746
000070 02 7e 98 3c c7 23 93 3d e8 7d 1f bd 32 5d a4 3d
       0.018614773 0.07184558 -0.038938433 0.08025588
000080 db d5 80 3d 11 66 49 3c ff 0e 23 3c cd e7 43 bb
       0.0629079 0.012292401 0.009952306 -0.0029892803
000090 c8 a7 25 3e 61 e1 77 3d 36 ec e2 3d 01 9c 4a 3c
       0.16177285 0.060517672 0.1108021 0.012366296
0000a0 d2 18 0b bd 6f 92 60 3d e1 d3 cb bc 45 e3 38 3d
       -0.033959217 0.05482715 -0.024881305 0.045138616
0000b0 58 8a 94 3b 7d 40 86 bc d6 eb bd 3d 9e 2a cd bc
       0.0045330934 -0.016388172 0.09273498 -0.025044736
0000c0 a4 b8 2c bd 01 41 5e bd 58 03 93 bd ac 8a 08 bd
       -0.042168275 -0.05426121 -0.07178372 -0.033335373
0000d0 62 72 2a bd 6f 51 aa 3c 37 52 2d 3e dc 72 7a bd
       -0.04161299 0.020790784 0.16925894 -0.061144695
0000e0 7f 60 48 3d 7f 5d 2b bc fe 79 16 bc 18 42 ac 3d
       0.04892015 -0.010459303 -0.009184359 0.08411044
0000f0 9a 69 87 3c c2 e3 cb 3c 37 54 1b 3e e1 a0 c4 3d
       0.016529847 0.024888877 0.15168844 0.09600998
000100 7e a6 b4 3d 48 62 4c ba 10 29 7a bd 87 84 50 3d
       0.08820818 -0.00077966275 -0.061074317 0.050907638
000110 48 d0 e4 3d e0 c2 59 3d 04 64 a4 bc 2e 3b 12 bd
       0.11172539 0.053164363 -0.020067222 -0.03570097
000120 d4 1a d0 3d 58 fb 5b bd 2f 32 88 bd 94 8b 9c 3d
       0.10161367 -0.053706497 -0.06650197 0.0764381
000130 c6 f1 e8 ba 9e d5 d2 bc 8b ae 9f 3d 49 04 d2 3c
       -0.0017772249 -0.025736626 0.07796963 0.025636809
000140 c4 27 1f 3c 28 48 3a bd fc 0b 0b bd 0b db 90 ba
       0.009714071 -0.04547897 -0.033946976 -0.0011051608
000150 eb aa 08 bd 2f bc d7 bc c5 dc 0c bd 7e a0 93 3d
       -0.033366125 -0.02633485 -0.03439023 0.07208346
000160 f5 b9 fb 3d 69 86 24 bc 0c 35 31 3d 49 b6 2a 3e
       0.12291328 -0.0100418115 0.04326348 0.16671099
000170 50 10 95 bd ae 10 36 3d f7 88 18 3d 9e 84 b3 bd
       -0.07278502 0.0444495 0.037239995 -0.08765529
000180 d6 8e a5 bc df 3c 85 bd 22 4d b0 3d af 1e 1c bd
       -0.020209711 -0.06505751 0.08608462 -0.0381152
000190 77 ca cc 3d 13 90 82 3c 8b 70 98 bb 7d 03 21 3d
       0.099995546 0.01593784 -0.004652088 0.039309967
0001a0 c2 11 a1 bd d8 eb c5 3d 89 c2 1e bd b3 0d 48 3c
       -0.07864715 0.09664124 -0.038759742 0.012210297
0001b0 85 5b a6 bd 92 65 4c bd 11 25 88 3c 6f cc 5a bd
       -0.08122925 -0.049901552 0.016619237 -0.05341762
0001c0 1a 64 95 bd 22 8c c8 3c 64 bc 79 3c 42 60 50 3e
       -0.072944835 0.024480883 0.01524267 0.2034922
0001d0 55 fb fe 3d 25 ef 02 bd 3c 80 96 bd c3 70 16 3d
       0.124502815 -0.031966347 -0.073486775 0.03672863
0001e0 4d 19 3b bd bd 5c 32 3e 7b aa 42 bd bf 59 5d bc
       -0.045678426 0.1741819 -0.047525864 -0.013510167
0001f0 90 92 16 3e 8b 72 46 bd dd 89 8b 3d f1 ee b8 3d
       0.14704347 -0.04844908 0.06813405 0.090299495
000200 e1 45 03 bd 2b 26 e7 3d 8d 88 f4 3d cb a4 fb 3d
       -0.032049064 0.11286577 0.119401075 0.12287291
000210 66 96 85 3d 38 0a 1e 3c 5d 84 bf 3d 12 0a ab 3d
       0.06522827 0.009645991 0.09351418 0.0835153
000220 4b 96 98 3d 7e ba c5 bc b2 24 bb 3d 16 5d 25 bd
       0.07450541 -0.024136778 0.091378585 -0.040371977
000230 0f dc 01 3e 25 cf b5 bc ed df ab 3d 68 d1 d3 3d
       0.12681602 -0.0221935 0.0839232 0.103426754
000240 19 77 72 bd 94 0e de 3d ed db 4e 3d 93 e6 03 3e
       -0.05919561 0.10842624 0.050502706 0.12880926
000250 ea 4f 1b 3d 88 8f 57 3d c2 48 f2 3d a7 7a ca 3d
       0.03791801 0.052627116 0.11830284 0.09886675
000260 61 2b 85 bc e2 cd 1a 3d 06 02 09 3d 09 47 e0 3d
       -0.016256036 0.037794 0.033449195 0.10951049
000270 40 08 f2 3c fb e8 2d 3d 32 46 c8 3d 91 16 f5 3b
       0.02954495 0.042458516 0.09779014 0.0074794968
000280 09 78 05 3e ba 7d 8b 3d 4d 10 1c 3d 98 53 57 bd
       0.13034071 0.0681109 0.038101483 -0.052569956
000290 67 dd b2 3d 3f d9 ee b9 10 a3 f4 3d ae d9 9c 3b
       0.087336354 -0.00045556758 0.11945164 0.0047866916
0002a0 f8 b0 ed 3d 8c f4 78 3d 8e 9c 12 bc d4 9c c6 3d
       0.1160602 0.060780093 -0.008948458 0.09697881
0002b0 f9 f1 e4 3d fe 05 d6 3d d4 2a ff 3d 95 64 47 3d
       0.11178965 0.10450362 0.12459341 0.048679907
0002c0 c7 b4 be 3d 82 be f7 3b 4e d1 5e bd ef 87 d4 bc
       0.09311824 0.007560552 -0.054398827 -0.025943724
0002d0 c8 42 51 3d f6 92 6b 3d 9f 02 80 3d b0 e6 13 3d
       0.05108908 0.0575132 0.062505 0.036108673
0002e0 1a 82 0e 3e 1e d6 d7 3d c7 15 ab 3d cb 9f aa bc
       0.13916817 0.105388865 0.08353763 -0.020828148
0002f0 ee fa b0 bc cb f9 c7 3d 82 26 c2 3d 64 06 ae 3d
       -0.021604028 0.09764441 0.09480001 0.08497313
000300 5c a5 6f 3c c4 ff 19 3d aa fd fb 3d b7 0c a6 3d
       0.014626827 0.037597433 0.12304242 0.08107894
000310 13 1f fd 3d b1 cc 0c 3e 44 6b 8c bd 30 f5 91 3d
       0.123594426 0.13749959 -0.06856397 0.07126844
000320 c7 48 94 3d 2f 5e 98 3d 53 ae af 3d 59 3d ff bc
       0.07240444 0.07439839 0.085781716 -0.031157183
000330 89 ac 9d 3d fb 7d 0c 3e 15 cc dd 3b 1e 16 03 3e
       0.07698924 0.13719933 0.0067687132 0.12801406
000340 b6 c1 22 3e 38 a4 ca 3d f2 24 9c 3d e1 f1 00 3e
       0.15894207 0.098946035 0.07624234 0.1259227
000350 6d ef c1 3d 51 f1 ab 3d c4 ad b9 3d 63 c6 31 bd
       0.09469495 0.08395637 0.09066346 -0.043402087
000360 8c bf e7 3d 1a 16 02 3e 14 84 d6 3d aa ed 16 bc
       0.113158315 0.12703744 0.10474411 -0.009211937
000370 2a dc 75 3d c1 b2 38 bd 57 66 a5 bc d0 a6 6f bd
       0.060024418 -0.045092348 -0.020190401 -0.058508694
000380 51 67 ed 3d fe 02 93 3d ab c6 bc 3c bb c9 45 bd
       0.11591972 0.07178305 0.023043951 -0.04828809
000390 eb 8b 16 3d ce 53 8d bc 24 90 9c 3d 2d 77 f8 3d
       0.03675453 -0.017251875 0.0764468 0.12132106
0003a0 5b 02 88 3d 1f 1a c0 3d 5d ec 04 3e d9 64 9e b9
       0.06641074 0.09379982 0.1298079 -0.00030211246
0003b0 0c c4 c0 3d 54 91 e3 3d 5a 32 8e bd bc 4b a8 3d
       0.09412393 0.111117035 -0.069431975 0.0821757
0003c0 51 ee 87 ba ce 9d db 3d 97 72 da 3b e1 f9 88 3d
       -0.0010370706 0.10723458 0.006666492 0.066882856
0003d0 0d 6d 8a 3d 77 a9 11 bb d0 35 40 bd c9 7a 86 bc
       0.06759081 -0.0022226253 -0.04692632 -0.01641597
0003e0 0e bc 1c 3d ec 11 53 3b 99 d2 5a 3d 3e 99 97 3d
       0.03826528 0.0032206727 0.053423498 0.074022755
0003f0 54 3c e6 3d 40 88 2b bd 6d 7d df 3d 95 54 05 bd
       0.112419754 -0.041877985 0.10912595 -0.032551367

network.4.bias f4 [5]
000000 2d 81 99 3d 03 a9 12 bd 86 91 3d bd 15 bf 8f 3d
       0.074953414 -0.035805713 -0.04628136 0.07018868
000010 b0 4f ad bd
       -0.08462465

network.0.weight f4 [128, 82]
000000 f2 14 a3 3d 7b 70 81 3d e3 51 25 3c 45 ee ef bc
       0.079629794 0.06320282 0.010090324 -0.02928842
000010 76 ed 1c be 70 8b c5 bd 2c ff 0b bd 4b 48 9e bd
       -0.15324959 -0.09645736 -0.034178898 -0.077286325
000020 19 3a 9b 3d 8c 92 5b 3d 25 44 1a bd c4 bc 78 3d
       0.075794406 0.053606555 -0.037662644 0.060726896
000030 c9 a3 4e 3d b8 1e 92 3c 42 aa 5b be f3 08 3b be
       0.050449166 0.017836913 -0.21451667 -0.18265133
000040 2a 7e 90 bc 64 3c 44 3e 72 32 82 bd 70 f7 3d 3e
       -0.017638285 0.19163662 -0.06357278 0.18551421
000050 33 d7 68 bd 6c d9 2d be 5b 57 77 3d 39 5a 9a bd
       -0.056845855 -0.16977471 0.060386043 -0.0753674
000060 a7 8e 68 bd 14 ae e2 bd be 25 67 3d 0a 3f cf bd
       -0.05677667 -0.11068359 0.056432478 -0.101194456
000070 ca d4 0d be c2 22 01 3b 55 4b f6 bc 04 2f 29 bc
       -0.13850704 0.0019704555 -0.030065218 -0.010326151
000080 02 cf bb bd be 0c 92 3c 94 ca ce bd 00 be 0e bd
       -0.09170343 0.017828342 -0.100972325 -0.034849167
000090 3d 59 45 3d b1 f1 18 be f4 65 bd bc e9 ac 10 be
       0.048180807 -0.14935948 -0.023119904 -0.1412846
0000a0 12 51 cd bd 3a b9 c9 3c c5 70 48 3c 91 9e 15 3d
       -0.100252286 0.024624456 0.012233918 0.036528174
0000b0 c2 77 c4 3c ec cb ed bd 51 4e ed bd 6e d7 db bc
       0.023982886 -0.11611161 -0.11587203 -0.026836123
0000c0 6c 28 45 be 6b d3 13 be 80 3b 37 bd 8c 0e a7 3d
       -0.19253701 -0.14436118 -0.044734478 0.081570715
0000d0 02 a1 15 be 5b d3 e4 bd 2d 4f aa 3d 0a e4 0e 3d
       -0.14612201 -0.11173125 0.08315883 0.034885444
0000e0 37 6e 4b 3d 4b 14 60 bd c0 48 01 3e 7a 9b 0d 3e
       0.049665656 -0.054706853 0.12625408 0.13828841
0000f0 ad c3 ea 3d ee f9 b4 3d c7 4f ab bd 90 07 35 3b
       0.114631034 0.08836733 -0.08364826 0.0027622916
000100 18 5e 22 3e 18 74 ac 3d 42 8d f1 bd e6 25 36 3c
       0.15856206 0.084205806 -0.11794521 0.011117434
000110 70 82 c7 3c 4d af 02 bd df c4 96 3d 08 d5 c2 3a
       0.02435419 -0.03190546 0.07361769 0.0014864514
000120 45 4a 28 bd e7 1a bc bc 56 21 bc bd 54 2c 87 bd
       -0.041086454 -0.022962047 -0.09186046 -0.06600252
000130 b6 f1 e8 bd 15 bc 29 3e 69 60 9f bd 92 22 a6 3d
       -0.11374228 0.16575654 -0.07782061 0.081120625
000140 52 9d 09 3e a6 a8 85 bd f3 91 8b 3d ed b3 66 bd
       0.13438919 -0.06526308 0.06814947 -0.056323934
000150 4c 32 92 bd af 09 a8 bd b7 f7 cd 3d 6c fb 9b bd
       -0.071384996 -0.08204972 0.100570135 -0.07616314
000160 db 7a e7 3c 52 e9 a3 bc a3 cb b6 bc d6 43 5a 3c
       0.028256824 -0.020008717 -0.022313898 0.013321837
000170 01 43 d4 3c b5 67 d8 3d c0 49 db bd 7b 21 4d 3d
       0.025910856 0.105666555 -0.10707426 0.050080758
000180 17 36 23 3d 82 53 ce 3d 08 61 3b bd 2d d1 c6 bc
       0.039846506 0.100745216 -0.045746833 -0.024269665
000190 57 de bc 3d f4 ff 05 bd 8a 17 1f bd 20 c7 05 3d
       0.092220955 -0.0327148 -0.038840808 0.032660604
0001a0 cb 30 80 bd 51 98 78 3d 0b 00 8f bd 14 08 c7 bc
       -0.062593065 0.060692135 -0.0698243 -0.024295844
0001b0 4c 46 71 bd 0b 0e 2a 3e 5b 97 3a bd 4e ef 2f bd
       -0.05890493 0.1660692 -0.0455545 -0.042952828
0001c0 3e 78 a4 3d 96 14 a9 3d e5 7f c3 bd f9 22 a6 3d
       0.08030747 0.082558796 -0.09545878 0.08112139
0001d0 a5 f7 9a 3d 9d 36 90 3d 69 8c ef 3d a4 22 e8 3c
       0.07566766 0.07041667 0.11696703 0.02833683
0001e0 44 c8 15 bd aa c6 1e be 30 bb 08 3d 5d a2 b6 bd
       -0.03656794 -0.15505472 0.03338164 -0.08917687
0001f0 aa 4a 49 bd 17 18 27 bb 1c 35 25 be 55 a2 29 bd
       -0.04914347 -0.0025496536 -0.16133541 -0.041414578
000200 01 19 3f 3d 86 b9 98 3d 12 bf fb 3d 20 bc c7 3d
       0.046654705 0.07457261 0.12292303 0.09752679
000210 3c 94 83 bc 84 4f 4b bc 23 67 20 3e 00 74 af bc
       -0.016061895 -0.012409095 0.15664344 -0.021417618
000220 8c 63 f5 3c 06 1e 89 3b d5 a0 95 3d 71 55 40 3d
       0.029954694 0.0041844873 0.07306067 0.046956483
000230 b0 dc 15 3e c8 e5 5a bd 36 b2 22 3e fe cb 03 3d
       0.14634967 -0.053441793 0.15888295 0.032176964
000240 d1 e9 d9 3d e8 8e 0f be cf c5 d0 bd d6 9a a5 bd
       0.106403 -0.14019358 -0.10193979 -0.08086173
000250 e7 e3 dc 3c 1f 24 82 3d ae 55 74 bc 78 60 94 bd
       0.026964141 0.06354546 -0.014913006 -0.072449625
000260 21 20 d1 3d 90 b8 b3 bc a1 7d ab bd 18 84 22 bd
       0.10211206 -0.021938592 -0.08373571 -0.039676756
000270 bd bc 07 be 89 95 a9 3b 46 41 23 bb 0c 8b f0 bd
       -0.13255592 0.0051752967 -0.0024910732 -0.11745271
000280 a6 b0 80 bd ef 87 f2 bd 0c 5e 87 3d 6c 24 c2 3c
       -0.06283693 -0.118423335 0.06609735 0.023699008
000290 15 d2 92 bd be 3e 94 3c 42 7e 25 be 25 5b 83 3b
       -0.07168976 0.018096324 -0.16161445 0.004008668
0002a0 64 9b e2 3d e7 64 83 3b 35 a9 3d 3e b5 a8 0b 3e
       0.11064795 0.004009831 0.18521579 0.13638575
0002b0 5d 05 4c 3e 94 3a d0 3d 69 31 d7 3d 7c d8 7f 3d
       0.19923921 0.10167423 0.10507471 0.062462315
0002c0 b7 54 ef 3d 24 00 ac bd 8f 5d 38 3d bc 75 dc 3c
       0.1168608 -0.08398464 0.0450111 0.026911609
0002d0 0f e6 4d bd 9d f2 12 3e 4b 42 6c bb f2 cf d4 3b
       -0.05026823 0.14350362 -0.0036050256 0.0064945156
0002e0 9b d9 14 be 39 df 30 bd 37 b2 8e 3d 38 0c b0 bd
       -0.14536135 -0.04318163 0.069675855 -0.085960805
0002f0 08 c2 20 be bb f5 ac 3b df 48 0b 3c 32 f0 b2 bd
       -0.15699017 0.005278317 0.008501261 -0.0873722
000300 11 ad 11 be 5d 09 ae bd d8 60 a5 3d 55 29 79 3d
       -0.14226176 -0.0849788 0.08075112 0.060830433
000310 2b c8 92 bc ff 85 32 3d 37 a1 ab 3d 35 45 a8 3d
       -0.017917713 0.04358482 0.08380359 0.08216325
000320 53 0d d3 bd 33 1e 20 be 60 d9 8b bd 74 82 3c 3d
       -0.10305276 -0.1563652 -0.0682857 0.046022847
000330 ea e4 0b be ad 12 6a bd aa 37 18 bd 18 9e 28 3c
       -0.13661543 -0.057146717 -0.03716246 0.010291599
000340 be 40 0d bd 3b 35 c7 bd b0 6a d7 3d a1 be 0c bd
       -0.03448557 -0.0972695 0.10518396 -0.034361485
000350 3a ba 35 bd f0 e8 f4 bd 6d d5 e7 bd 38 10 6c 3d
       -0.044367053 -0.11958492 -0.113200046 0.057632655
000360 4a 79 2f bd 3e 94 a6 3d 7e b2 cc bc 80 6d 8a 3d
       -0.04284028 0.08133744 -0.024987455 0.06759167
000370 34 b8 22 bd a5 89 51 bd e3 0d 47 bd 81 57 ab 3d
       -0.03972645 -0.05115666 -0.048597228 0.083662994
000380 bf 5b 84 3d 0d fc 4c 3d 0e 94 2a bd 9c ec 9b 3d
       0.06462812 0.05004506 -0.041645102 0.07613489
000390 85 79 7e 3d cc b6 27 3d c1 5f b7 bd 6d ed 93 3d
       0.06212761 0.040945813 -0.089538105 0.0722302
0003a0 63 a4 cf 3d 78 88 b4 3b 47 ea c3 3c 16 1d be 3d
       0.10138776 0.0055094324 0.023915423 0.092828915
0003b0 f3 2d fb 3d 96 8e cd bd bf 91 18 3d 81 e3 86 bd
       0.122646235 -0.10036962 0.03724837 -0.06586362
0003c0 6b 63 58 3d f8 28 02 3e ef d2 04 3e e8 90 8c 3b
       0.052829187 0.12710941 0.1297109 0.004289735
0003d0 33 92 3c 3d da b9 2a 3d 93 76 a3 bd 5c bf 69 3d
       0.046037864 0.041681148 -0.079816006 0.05706726
0003e0 89 73 53 bd 8a 31 61 bd 3c e0 5f 3d e6 fd 65 bc
       -0.051623855 -0.054978885 0.054657206 -0.014037585
0003f0 81 7c b7 3d 7e b4 89 3d 49 b8 72 3d 9f 4f 04 be
       0.08959294 0.06723879 0.05925778 -0.12920998

network.0.bias f4 [128]
000000 8e 10 aa 3d 49 f7 87 bd 51 f3 14 3e 72 e8 8d 3d
       0.08303939 -0.06638963 0.14545943 0.06929101
000010 1c cc 2e 3e b6 51 87 3e 1d dc 7e 3e 59 dd 73 bd
       0.17070049 0.26429528 0.24888654 -0.059537265
000020 c5 7f 62 3e 12 18 0e 3e 87 db a9 3e ae 3c f8 3d
       0.22119053 0.1387637 0.331753 0.12120949
000030 79 7f 7a 3e 0c c4 93 bd 2f fe 9b bd a2 ee 29 3d
       0.2446269 -0.07215127 -0.07616841 0.041487344
000040 bd da 0d be 15 f1 0e 3e d8 d6 0e 3d 95 fc b1 3d
       -0.13852973 0.13959153 0.03487286 0.08690754
000050 f5 11 cc 3e fa 31 0c bd 23 6d ea bd 7a 83 85 3d
       0.3985745 -0.03422735 -0.114465974 0.06519218
000060 12 57 3d be fe 07 95 3e 98 d9 9f bd 60 31 96 3e
       -0.18490246 0.2910766 -0.078051746 0.29334545
000070 88 53 92 3e 76 3b 1a 3d fb 44 ed 3d a0 05 1d 3e
       0.28579354 0.037654363 0.115854226 0.15334177
000080 2f 1a 3f 3e 7d 91 8a bd 77 4c f1 bd a3 4a 68 3e
       0.18662332 -0.06766031 -0.11782163 0.22684722
000090 04 75 ab 3d 2b c2 ed 3d 23 0f a2 3e 43 bc 1d be
       0.08371928 0.116093 0.31652173 -0.15403847
0000a0 f5 5a 9c 3e fd 60 d8 bc 5e 70 a8 3e 9e ff ca 3d
       0.30538145 -0.026413435 0.3289823 0.09912036
0000b0 5d 5f 56 3d e0 e6 43 bc 43 78 35 3e df e6 17 bd
       0.05233704 -0.0119569 0.17721657 -0.03708541
0000c0 1f 83 5d 3c be 32 27 be 41 c3 04 be 72 18 4c 3e
       0.013520031 -0.1632795 -0.12965108 0.199312
0000d0 0f b1 6b 3e ce e9 96 3d da aa 57 3e 33 65 9b 3e
       0.23016761 0.073688135 0.21061268 0.30350646
0000e0 06 bb 17 3e 2c 81 3b 3e 11 3a c1 3e 90 18 5b 3e
       0.14817438 0.18310994 0.37739614 0.21396089
0000f0 b5 0a 30 3e 5e 83 af 3e ec a6 64 3e 86 bb 12 be
       0.17191584 0.34279913 0.223293 -0.14329347
000100 15 b7 4b 3e 9b b7 ad bc 5d 97 5c 3e 59 ee 80 3e
       0.19894059 -0.021205714 0.21542116 0.25181845
000110 7b aa bb 3e 99 a7 12 be b9 4e 2f be d2 ae 8c 3e
       0.36653504 -0.14321746 -0.17119874 0.27477127
000120 95 2f 0a 3e 9b ce c4 bd b9 fe 8a 3e 47 7e 74 3e
       0.13494714 -0.09609719 0.27147463 0.23876296
000130 ed e3 80 3d 88 4e 89 bd f6 76 8d 3e ad 54 8a bd
       0.062934734 -0.06704432 0.27629822 -0.06754432
000140 a5 6a 87 3e ab ff 47 be 42 82 28 3e df 6d 17 3e
       0.2644855 -0.19531123 0.1645594 0.14788006
000150 a8 b2 7c 3e ca 8d ea 3d 38 22 a5 3e 03 1a 08 bd
       0.24677527 0.11452825 0.3225267 -0.03322793
000160 9a a6 b3 bd 4d d4 2b 3e 03 2e 23 3e 38 ef 80 3e
       -0.08772011 0.16780205 0.15935521 0.2518251
000170 75 48 50 3e d2 86 49 3d 4f 6b ce 3e 11 fe 50 3e
       0.2034014 0.04920084 0.40316245 0.20409419
000180 f4 05 ab 3e 83 c0 9c 3e a7 a1 ac 3e e4 f2 d6 bd
       0.3340298 0.30615625 0.3371708 -0.104955465
000190 86 7a b7 3d 79 c2 69 3d c9 cf 40 3e f6 64 a0 3e
       0.08958916 0.05707023 0.18829264 0.31327027
0001a0 99 9e 96 3d ba fa 34 3e a1 d6 7a 3e fc a7 10 be
       0.07354469 0.1767377 0.24495937 -0.14126581
0001b0 86 02 6c be 18 f4 d5 bd 85 43 4b 3e 8c 30 16 be
       -0.23047838 -0.10446948 0.19849975 -0.14666957
0001c0 16 97 4f 3e ff 0f 99 3c 9b 1c 1d 3e cb a9 8a 3e
       0.20272478 0.018684385 0.15342943 0.27082667
0001d0 22 83 6c 3e 0d a8 9e 3c fe 2e 02 3e 55 dd 45 3e
       0.23096898 0.019367242 0.12713239 0.19322713
0001e0 de 19 57 3e 93 93 8c bc 5b d0 bd 3e df 1a 8d 3e
       0.21005961 -0.017160213 0.37073025 0.27559564
0001f0 88 32 26 3e 6c 05 6e 3e 7d cc b9 3d 0f 6c fc bd
       0.16230214 0.23244256 0.09072206 -0.12325298

network.2.weight f4 [128, 128]
000000 5c 56 82 3b 60 d9 16 3e c9 36 aa bd b0 e9 fe bc
       0.00397758 0.1473136 -0.08311231 -0.03111729
000010 8d b6 24 3d dd f0 2a 3d 01 80 5d bd 93 e0 8c 3d
       0.040213156 0.04173361 -0.054077152 0.06878772
000020 ef fb 8b 3c 5c d1 07 3e da c1 84 3d 86 63 76 bb
       0.017087905 0.13263458 0.06482287 -0.0037595942
000030 4c 72 95 bd 2b 16 0c 3e b0 3a 47 3d 31 69 cf bb
       -0.07297191 0.13680331 0.048639953 -0.0063296785
000040 07 38 14 3e 19 5b b9 bd f7 f8 c8 bd 19 6e 24 bd
       0.14474498 -0.090505786 -0.09813111 -0.04014406
000050 2a 93 a0 bc 04 3c 1a 3d 4c a9 69 3d 20 35 82 bd
       -0.019601423 0.03765489 0.05704622 -0.06357789
000060 ea 11 cf 3e c9 d6 27 3c a6 82 21 bd 15 16 01 bd
       0.40443355 0.01024408 -0.039431237 -0.0315152
000070 8f 89 20 be fd 99 82 3d 36 fd 98 3d 2b 41 92 bd
       -0.15677474 0.06377027 0.07470171 -0.07141336
000080 1d 02 6b bd 79 3a c2 bd ce ca f6 3d 2c 85 29 3e
       -0.057375062 -0.09483809 0.12050401 0.16554707
000090 99 51 1e 3c 7b e5 00 be 1d 34 84 3d 1a 03 ca 3d
       0.009663009 -0.1258754 0.06455252 0.09863873
0000a0 84 8b 06 bd 70 63 91 3d 03 c7 a8 bd f7 8b c3 3c
       -0.032847896 0.07099044 -0.082410835 0.023870451
0000b0 dc c9 0d 3d bf c9 12 3e c1 3a 62 bd c2 a4 57 3d
       0.034616336 0.14334773 -0.055231813 0.05264736
0000c0 e7 bf d3 bd 0b a2 b3 3d 06 d2 0a ba 96 0f 8f bd
       -0.10339337 0.087711416 -0.0005295578 -0.06985395
0000d0 9c f8 bc 3d ef 8a 80 bd 57 d0 3f bd c0 be a1 bc
       0.09227106 -0.062764995 -0.046829548 -0.019744277
0000e0 35 cc bc 3d 26 0a 26 be 26 77 01 3d a7 ff 3f 3d
       0.09218637 -0.16214809 0.03160777 0.04687467
0000f0 53 f1 cb bd 83 dd 47 bd da 9e 01 be 34 69 ab 3d
       -0.09958138 -0.048795234 -0.12658253 0.08369675
000100 3d aa 0b bc 45 38 56 3e f9 33 84 bc 57 5f 76 bd
       -0.008524475 0.20919903 -0.016138064 -0.060149517
000110 df 55 d4 3b ed 19 05 3e a7 c0 30 3e df 8d a3 bc
       0.006479963 0.12998171 0.17260991 -0.01996511
000120 ac b7 69 bd d6 e9 38 3e 0f 7b 96 bd 29 a2 58 3c
       -0.05705993 0.18057951 -0.0734769 0.013222256
000130 f5 96 92 bd 7c e7 1a 3e 26 8e 1b bd c3 6d 28 3e
       -0.07157699 0.15127367 -0.03797736 0.16448121
000140 b6 be 6b 3d eb e7 e3 3d 82 37 f1 bc 73 9c 1b be
       0.057554923 0.11128219 -0.029445414 -0.151964
000150 51 c2 6b bd 2c 21 b5 3d f6 bf 4a bd 73 13 2f 3e
       -0.05755836 0.08844218 -0.049499474 0.17097263
000160 44 e1 d0 3d 8b b8 0a 39 62 39 a3 bd 82 e4 31 3d
       0.10199216 0.00013229453 -0.07969929 0.043430813
000170 5c 2a ec bc b0 d7 64 bb d2 71 72 3d f6 43 f2 3c
       -0.028828792 -0.0034918599 0.05919058 0.029573422
000180 67 64 0b bd ad 49 57 3d 99 03 dd bd d7 19 c1 3d
       -0.034031298 0.052560497 -0.10791702 0.09428757
000190 c4 78 df bd 59 90 0b bd f5 26 aa bc 67 89 a4 3c
       -0.10911706 -0.034073208 -0.02077053 0.02008505
0001a0 79 98 66 bd 3f 4f 14 be 32 59 e1 3d 79 27 46 3e
       -0.056297753 -0.14483355 0.11003341 0.19350995
0001b0 7c 7e b0 3c 73 55 e4 3d bc e8 d9 3d 16 1b 41 3e
       0.021544687 0.11149111 0.10640094 0.18857989
0001c0 f5 08 13 3d 62 6c 81 bd 92 1d 05 bd cc 6e e9 3b
       0.035897214 -0.063195005 -0.032498904 0.0071238037
0001d0 e5 85 d2 bd 2e 89 1b be 30 cf ed bc 09 55 ea bc
       -0.102794446 -0.15189049 -0.029029459 -0.028605001
0001e0 39 ed 53 3d bc 33 1a 3e 22 e1 8a 3b 31 25 ae 3d
       0.051739905 0.15058798 0.0042382637 0.085031874
0001f0 e4 7d 03 be 93 3c 90 bd 37 83 d6 3c fe ad bb 3d
       -0.12840992 -0.070428036 0.026185615 0.09164046
000200 a8 72 93 3b 38 0d e8 3d 7f 04 b7 bd 3c 25 69 3d
       0.004499752 0.11330646 -0.089364044 0.056920275
000210 82 48 77 bd ca cd 75 3d 2b 80 39 3d 8a 50 74 3d
       -0.060371883 0.06001071 0.045288246 0.05964712
000220 6a 01 61 bd b8 0c d1 3d 89 40 0c 3c 40 0c a2 bd
       -0.05493299 0.10207504 0.008560308 -0.07912493
000230 18 3a 3d 3d 31 28 21 3e 90 9e 3c 3d 85 02 36 3d
       0.04619798 0.15737988 0.046049654 0.044435997
000240 47 9d c8 3c b6 10 5a bd fc 43 f2 bc 12 bd 95 bd
       0.024489058 -0.053238593 -0.029573433 -0.07311453
000250 a4 72 a4 3d 47 00 fb bd de b4 bb 3d 23 7d 15 bd
       0.080296785 -0.12255912 0.09165357 -0.036496293
000260 4d ed 84 3e c6 7c 46 3d d8 3e 2d bd 73 8c 05 bc
       0.25962296 0.048458837 -0.04229626 -0.0081511615
000270 20 e4 50 bd 90 bc 61 3d e2 92 56 3d 51 01 cd 3c
       -0.050998807 0.055111468 0.052386172 0.025025042
000280 32 40 d7 3a 8e 49 02 3d 2d 44 49 3d 17 cf e8 3d
       0.001642233 0.03180843 0.049137283 0.11367624
000290 5c b1 86 bd 22 ee 9f bd 9b 03 85 bd 08 1c bc 3d
       -0.06576797 -0.07809092 -0.06494828 0.09185034
0002a0 f4 6a 8f 3c 11 2e 3e 3d 39 1e db bb 30 e8 02 3d
       0.017507054 0.04643065 -0.0066869524 0.031959713
0002b0 99 6c 86 3c 09 eb 22 3e 4e 93 cd bc 5d 90 45 3d
       0.016409205 0.15909971 -0.025094654 0.04823338
0002c0 b3 77 37 bd 5a 08 fa 3d 78 25 ab 3d fe 1a 26 3b
       -0.04479189 0.12208624 0.08356756 0.0025345678
0002d0 da cf 51 bd 65 a7 3c 3d 0c 03 45 3d 87 42 8d bd
       -0.051223613 0.046058077 0.04809861 -0.06897455
0002e0 f1 66 89 3d 5e a4 bf bd 29 1c 88 3d 25 bc 6b 3c
       0.06709088 -0.093575224 0.06645996 0.014388119
0002f0 e7 d3 29 3c 66 76 60 3d dc 2f f8 bd 8a 03 63 3d
       0.010365463 0.054800414 -0.121185035 0.055423297
000300 1a a0 09 3d 83 ec 80 3d 76 3c c0 bb b8 62 3b bd
       0.03359995 0.06295111 -0.0058665825 -0.045748442
000310 ea e1 fc bc 95 e7 1f 3e ba b7 cc 3d c2 2e 32 bd
       -0.030869443 0.15615685 0.099959806 -0.043501623
000320 2a d7 ba bc 56 34 49 3d 4c 62 73 bd 89 c4 33 3b
       -0.022807676 0.049122177 -0.059419915 0.0027430377
000330 4e 53 02 be 0a 30 f9 3d e8 c3 25 3c d0 4b 58 3e
       -0.1272709 0.12167366 0.0101175085 0.2112267
000340 1f 6f 5f bd 63 64 2b bc b1 66 bf bd 83 75 bc bd
       -0.054549333 -0.010460946 -0.09345759 -0.09202101
000350 b2 bd 87 3c 05 b1 1c 3c 07 c3 8e 3d 33 0e af 3d
       0.016569946 0.009563689 0.06970792 0.0854763
000360 77 83 f0 3d 46 56 a4 bd 51 9c e4 bc 44 76 ab bd
       0.11743825 -0.08024268 -0.027906569 -0.08372167
000370 b1 19 01 bd 24 1c 56 bd e6 23 18 3d 56 39 e8 3b
       -0.03151864 -0.05227293 0.03714361 0.007086913
000380 77 2b 8c 3d 1b 60 73 3d 32 3d b9 bd 22 ff 35 3e
       0.06844228 0.059417825 -0.09044875 0.17773107
000390 e4 25 01 be 3c 05 ad bd af b4 83 bd b6 52 8c bd
       -0.1261211 -0.08448264 -0.06430947 -0.06851713
0003a0 43 34 d0 3c c7 52 3e bc 5c 50 a8 bc d2 2f 42 3e
       0.025415545 -0.011616415 -0.02054613 0.18963555
0003b0 63 75 84 3b 7a ab a1 3d 35 56 c9 3a c5 28 29 3e
       0.004042314 0.07894035 0.0015360775 0.16519459
0003c0 db fb b3 bd 4a 65 6f bd 68 c7 82 bd f3 dd c3 bd
       -0.08788272 -0.058446206 -0.0638569 -0.09563818
0003d0 35 43 1f 3c a8 7d bf bc 15 d0 c6 bd 3f 09 c8 bd
       0.009720613 -0.023375347 -0.09707657 -0.097673886
0003e0 7f 9a 8d 3d 54 15 04 3e db 74 af bd 9e f7 32 3d
       0.069142334 0.12898761 -0.0856721 0.043693177
0003f0 f2 ec d5 bd 07 d8 1c 3d d5 ac 26 bd c2 bc cb 3d
       -0.10445584 0.038291957 -0.04069217 0.09948112

network.2.bias f4 [128]
000000 fa 89 98 3c 29 8e 2f bc 17 3f aa bd dd 2e d2 3c
       0.01862048 -0.010715046 -0.08312815 0.025657112
000010 c1 bd 87 3e 2d 8a 8f 3e b6 a3 71 3e 48 b4 83 3e
       0.26511958 0.28035107 0.23597607 0.2572348
000020 47 9c 92 3c 60 2b d3 3d 06 d8 35 bc a8 a0 a4 bb
       0.017896784 0.103110075 -0.011098867 -0.0050240345
000030 04 37 ef 3d 94 c3 78 bd 00 d8 4a 3e e2 b2 4d 3e
       0.11680415 -0.060733393 0.1980896 0.2008777
000040 9d 37 82 bd 01 d1 ec 3d be cc 18 3e cd 29 c3 3c
       -0.06358264 0.11563302 0.14921853 0.023823643
000050 ee c2 9c 3d 8a 04 16 3e 7d 82 48 3e fa 24 73 bd
       0.076543674 0.14650169 0.19581027 -0.059361435
000060 bc 41 03 3e 61 5b 48 3e 11 46 25 3e 17 11 0d 3d
       0.12818044 0.19566108 0.1614001 0.034440126
000070 99 dd 49 3e f1 e4 1d 3d bf ce cd bd 26 a3 d2 bd
       0.19713439 0.038548414 -0.10049199 -0.10285024
000080 47 db 0a 3e 72 87 6b 3e 5a fe 63 3e 68 60 04 3e
       0.1356021 0.23000887 0.22264996 0.12927401
000090 72 4d 7e 3d ed 84 2a 3e f7 5e cc 3d b0 9d 17 3d
       0.062085576 0.1665227 0.099790506 0.037015617
0000a0 67 7f 38 3e a3 f2 05 be 04 fa f2 3d 6d 51 14 bd
       0.1801735 -0.1308084 0.11864093 -0.036210466
0000b0 02 42 81 3e 70 c9 86 3d 54 bd 8f bc 84 c9 53 3e
       0.25245672 0.0658139 -0.017546333 0.20682341
0000c0 e8 f2 63 bd 9d bd fa bd cf 8e c9 bd ed a1 31 3e
       -0.055651575 -0.12243197 -0.09841692 0.17346926
0000d0 6f 15 fd 3d 69 8b 16 3e bc d4 66 3b 9b ed a4 bc
       0.12357604 0.14701618 0.0035222014 -0.02013283
0000e0 f7 20 ab bd 46 f8 b3 3d dc 96 cd 3d d9 19 07 be
       -0.08355897 0.08787589 0.1003854 -0.13193454
0000f0 63 fa 93 3d e9 b7 cc bd 80 3b 65 3d a3 a8 26 3e
       0.07225492 -0.099960156 0.055964947 0.16275267
000100 22 f6 a2 bd 73 9d e1 3d f0 d7 1d 3e c3 d0 f2 bd
       -0.07957102 0.11016359 0.15414405 -0.118562244
000110 26 13 a6 3c 58 0a 36 3e 7e d4 6d bc 8b 56 df bd
       0.020272803 0.17777383 -0.014515994 -0.10905179
000120 66 03 67 bd 0f 0a 25 3e f8 3f 3a 3e a9 4c 56 3e
       -0.056399725 0.16117118 0.18188465 0.20927681
000130 bc 53 44 3e 85 69 c7 3c e4 b4 0d 3e d9 c9 fe 3d
       0.19172567 0.024342308 0.13838536 0.12440843
000140 ea e5 e7 3c b1 d4 84 bc 70 5f 7b 3e b3 3e e2 3d
       0.028307874 -0.0162147 0.24548125 0.11047115
000150 d5 9e 80 3d 8e ce 06 3d 0c da 17 be 52 aa ac bd
       0.06280295 0.03291183 -0.14829272 -0.084309235
000160 25 62 b9 bd e3 5a 0e 3e 4b 8b ad bd 2b 41 de 3d
       -0.09051923 0.13901858 -0.08473834 0.108522736
000170 11 6c bb bd 8c 8b 10 3e aa 37 50 3d 0a 7d 4f 3d
       -0.091514714 0.14115733 0.050834335 0.050656356
000180 b6 4d 9c bd a4 2f 08 3e 64 89 a7 bd 3c 92 d5 bd
       -0.0763201 0.13299423 -0.08180502 -0.104282826
000190 47 07 2f 3e 3a 95 11 be 37 c2 3e 3e f5 e1 da 3d
       0.1709262 -0.14217082 0.18628775 0.10687629
0001a0 6c d2 c2 bc 60 d2 ef 3d 44 56 6e bd ab 8d 54 bd
       -0.023781978 0.11710048 -0.058187738 -0.051892918
0001b0 ac 26 16 3e e6 78 0c 3d bf ba 67 bc f4 1f 08 bd
       0.1466319 0.034294985 -0.014143645 -0.033233598
0001c0 ba 6a 16 be ce 77 15 3e 89 1c 82 3e 8b ca 2e 3e
       -0.1468915 0.14596483 0.25412396 0.17069452
0001d0 7f 03 05 be 07 7c 97 3e 19 18 37 3e 8e b8 12 3e
       -0.12989615 0.29586813 0.17880286 0.14328215
0001e0 8f 9a 8e 3d 1a 6a 92 3d 3a 4f 38 3e 41 cd 9f bc
       0.069630735 0.071491435 0.17998973 -0.019507052
0001f0 bc 6f 7f 3d d2 7e 46 3e b7 5d 64 bc 65 60 71 3e
       0.062362418 0.19384316 -0.013938359 0.23571928
