models/maddpg/checkpoint_ep150/adversary_1.pth (torch, 764002 bytes, 44 tensors)

network.0.weight f4 [128, 16]
0	0xbd30b0d5	-0.04313739
1	0xbe2afe9c	-0.16698688
2	0x3dba3fb4	0.09094182
3	0x3e3c42b5	0.18384822
4	0x3d9a06da	0.07520838
5	0x3e67b7c9	0.22628702
6	0xbe5ea4b9	-0.21742524
7	0xbde4b467	-0.111672215
8	0xbce83bcd	-0.028348828
9	0x3d014dcc	0.031568334
10	0x3e31ba72	0.1735628
11	0x3de1581a	0.11003132
12	0x3e51096d	0.20413752
13	0xbe1c2d16	-0.15251574
14	0xbe42ba5d	-0.19016404
15	0xbdb54910	-0.08851826
16	0xbe66c758	-0.22536981
17	0xbe66ecb4	-0.22551233
18	0x3e1eda2c	0.15512913
19	0xbe296dcc	-0.1654579
20	0xbd7aa7a4	-0.06119503
21	0x3e368602	0.17824557
22	0x3d3ee377	0.046603646
23	0xbdfafe41	-0.12255526
24	0x3e8321b9	0.25611666
25	0xbe2acc41	-0.16679479
26	0x3dc72a89	0.0972491
27	0x3e52a69e	0.20571372
28	0x3ddb8888	0.10719401
29	0x3b980bdc	0.0046400856
30	0xbe69f9f1	-0.22849251
31	0x3e153815	0.14572175
32	0x3e697d24	0.22801644
33	0xbe79df77	-0.24401651
34	0xbe7c1637	-0.2461785
35	0x3db4d012	0.08828749
36	0xbdfe3f9e	-0.12414478
37	0xbe262b26	-0.16227397
38	0x3e7ce883	0.24698071
39	0xbe1b42d3	-0.1516221
40	0xbe2bc3d0	-0.16773915
41	0x3e6e326b	0.2326142
42	0x3e81dc41	0.25363353
43	0xbd5546e9	-0.05206958
44	0xbce8bf64	-0.028411575
45	0x3e5024a3	0.20326476
46	0xbc1ea321	-0.009682448
47	0xbe5022d2	-0.20325783
48	0xbe5d3ba5	-0.21604784
49	0x3dc7e111	0.09759725
50	0x3e0f0085	0.13965042
51	0xbdc248f4	-0.09486571
52	0xbdc787a8	-0.09742671
53	0x3e16265f	0.14663075
54	0x3cb024f8	0.021502003
55	0xbcc17ea9	-0.023619967
56	0xbda786c3	-0.08180001
57	0x3e17d6ca	0.1482803
58	0x3b983dc6	0.004646036
59	0xbdec6a4d	-0.11543713
60	0xbb9a3938	-0.004706528
61	0x3e2b23c2	0.1671286
62	0xbe17b91a	-0.14816704
63	0xbe1acebd	-0.15117927
64	0x3e1e0f8e	0.15435621
65	0x3da57da8	0.08080608
66	0xbda7ffbc	-0.08203074
67	0x3e5b6736	0.2142609
68	0x3e5b778c	0.21432322
69	0x3e59c012	0.21264675
70	0x3e0d80af	0.1381862
71	0x3a7e9d09	0.0009712731
72	0xbe7c05c9	-0.24611582
73	0xbe2b3054	-0.16717654
74	0xbdb8fe5a	-0.09032889
75	0x3e093ba6	0.1340166
76	0xbdc773f4	-0.09738913
77	0x3e749dc1	0.23888303
78	0x3e1c3097	0.1525291
79	0x3e6f30bf	0.23358439
80	0xbe7f418b	-0.24927346
81	0x3d2a5bd2	0.041591473
82	0x3c2d35ee	0.01057194
83	0xbdb751cc	-0.089511484
84	0x3e218a6b	0.15775459
85	0x3e37ba1c	0.17942089
86	0x3b98b354	0.0046600495
87	0xbc15aee2	-0.009135934
88	0xbd88775a	-0.066633895
89	0xbda738fd	-0.081651665
90	0xbb297523	-0.0025857172
91	0x3dd34571	0.10315979
92	0xbe732391	-0.23744036
93	0x3e0768ee	0.13223621
94	0xbe3220f0	-0.17395377
95	0x3e8495fc	0.2589568
96	0x3de51b9b	0.11186906
97	0x3e539095	0.20660622
98	0x3e1fc89a	0.15603867
99	0x3e525661	0.20540763
100	0x3dd71d21	0.10503603
101	0xbd9fc617	-0.078014545
102	0x3e11fffb	0.14257805
103	0xbe3275fb	-0.17427818
104	0x3ddb0620	0.106945276
105	0x3d95297b	0.072833024
106	0xbe4a4ad8	-0.19755113
107	0x3e43f297	0.1913551
108	0x3c619029	0.013767281
109	0x3e55c01d	0.20874067
110	0x3e30bee8	0.17260325
111	0xbd833e81	-0.06408406
112	0x3e47f5a6	0.19527301
113	0x3df06042	0.1173711
114	0x3da2a1c7	0.07941013
115	0xbd58b2ff	-0.05290508
116	0x3e84aa31	0.25911096
117	0xbe80e5e8	-0.25175405
118	0xbd4bed52	-0.049786873
119	0x3bed12cc	0.007234907
120	0xbe4efd59	-0.20213832
121	0xbe278123	-0.16357855
122	0xbdbb4870	-0.09144676
123	0xbe80e931	-0.2517791
124	0x3dfa9a9c	0.12236521
125	0x3e6c7778	0.23092449
126	0x3deaddf7	0.11468118
127	0xbdbc1721	-0.09184099
128	0x3e6a9d73	0.22911625
129	0xbc0d2b98	-0.008616351
130	0x3e5f7970	0.21823668
131	0xbd1140b2	-0.03546209
132	0xbd724060	-0.059143424
133	0xbddff5b0	-0.10935533
134	0xbe635090	-0.22198701
135	0x3e6af573	0.22945194
136	0xbe4a80bf	-0.19775675
137	0x3e379c07	0.17930613
138	0xbe341361	-0.17585517
139	0x3e8603a0	0.2617464
140	0x3e3672b0	0.17817187
141	0x3dbe40ba	0.09289689
142	0xbdc65682	-0.09684469
143	0x3d5d54c4	0.054035917
144	0x3e5e91f7	0.21735369
145	0xbbce4f59	-0.00629608
146	0xbe1bd3f5	-0.15217574
147	0x3e67aa66	0.22623596
148	0xbd047b07	-0.03234389
149	0xbdbc7935	-0.09202806
150	0xbdfc6988	-0.12324816
151	0x3e826a8c	0.25471914
152	0xbde42103	-0.11139109
153	0x3ddf5e53	0.10906663
154	0x3df14465	0.11780623
155	0x3e0fd3bc	0.14045614
156	0x3db58ffc	0.088653535
157	0x3d7ad8fa	0.06124208
158	0x3d8f70ea	0.070039585
159	0x3da5dc7d	0.080986954
160	0x3dd2c8d7	0.102922134
161	0x3e6e4f1b	0.23272364
162	0xbe54ae33	-0.20769577
163	0xbc009f62	-0.0078505
164	0x3d590bae	0.052989654
165	0x3da7b13c	0.08188102
166	0x3c3f3a31	0.011671589
167	0x3e82a013	0.25512752
168	0x3e7c9f17	0.24670063
169	0xbe41d511	-0.18928935
170	0x3dec38fc	0.115343064
171	0xbddb78b6	-0.10716383
172	0xbd5c181b	-0.053733926
173	0x3ddeef98	0.10885543
174	0x3bf21b2d	0.0073884935
175	0xbe551a69	-0.20810856
176	0x3bf537f2	0.007483476
177	0xbd92bb6d	-0.07164655
178	0x3dc675e4	0.096904546
179	0xbbc4c024	-0.0060043503
180	0x3cd22df7	0.025656683
181	0xbbddd533	-0.0067698
182	0xbe81ad1b	-0.25327381
183	0x3e4b9dc4	0.19884402
184	0x3ced9be2	0.029004995
185	0x3e4337c3	0.1906424
186	0xbd0be20d	-0.034151126
187	0x3d82ecec	0.063928455
188	0xbd2329db	-0.03983484
189	0x3e5f129c	0.21784443
190	0x3d762ca2	0.06010116
191	0xbe03ae6f	-0.1285951
192	0xbe816be8	-0.25277638
193	0xbe17596b	-0.14780204
194	0xbe83b0e5	-0.25720897
195	0x3e2fefbd	0.17181297
196	0x3daf0d42	0.085474506
197	0xbe0c8b48	-0.13725007
198	0xbd47c088	-0.048767596
199	0xbe7a92e1	-0.24470092
200	0x3e438470	0.1909349
201	0xbe226f16	-0.15862688
202	0xbd961108	-0.07327467
203	0x3e5feb99	0.21867217
204	0xbe126f7a	-0.14300337
205	0x3e54e693	0.20791082
206	0x3e35b147	0.17743407
207	0xbdf7a1aa	-0.12091382
208	0xbd810726	-0.063001916
209	0x3ab5e566	0.001387757
210	0x3e031323	0.12800269
211	0xbe371b14	-0.17881423
212	0xbdafd139	-0.08584828
213	0x3e3a42bc	0.1818952
214	0x3dfa29fa	0.12215038
215	0x3d9cc7a9	0.0765527
216	0x3e524f8f	0.20538162
217	0xbe7743ae	-0.24146912
218	0x3e49ceeb	0.19707839
219	0x3de0297e	0.10945414
220	0x3dcccddb	0.10000201
221	0xbe61cad4	-0.22050029
222	0x3e41dacd	0.18931122
223	0x3e06de13	0.13170652
224	0xbe098765	-0.13430555
225	0xbdd5edba	-0.10445733
226	0xbd001018	-0.03126535
227	0x3e627ca9	0.22117867
228	0xbe308ca4	-0.1724115
229	0x3cc568e7	0.024097873
230	0x3e416281	0.18885233
231	0xbe475264	-0.19465023
232	0xbe2facfe	-0.17155835
233	0xbe11f12a	-0.14252153
234	0x3e6f0ece	0.23345491
235	0xbe62c1a8	-0.22144186
236	0x3da99300	0.08279991
237	0x3d2e7cf3	0.04259963
238	0xbe492478	-0.19642818
239	0xbe353be9	-0.17698635
240	0xbe16295e	-0.14664218
241	0x3e6c67d2	0.2308648
242	0xbd3aa607	-0.045568492
243	0xbda79481	-0.08182622
244	0x3d79b615	0.060964663
245	0xbe327fe0	-0.17431593
246	0xbdd8ae74	-0.10580149
247	0x3c982f44	0.018577226
248	0xbe412586	-0.1886197
249	0x3de5edda	0.11227007
250	0xbdce2d4e	-0.10067235
251	0xbd428c0f	-0.04749685
252	0xbe4f18b9	-0.20224275
253	0x3e216658	0.15761697
254	0xbe54071b	-0.20705836
255	0x3e23bb29	0.15989365

network.0.bias f4 [128]
0	0x3e5c7748	0.21529877
1	0x3e4d0fdf	0.20025586
2	0xbc978e39	-0.018500434
3	0x3dcbe316	0.099554226
4	0x3e2ca81b	0.16861002
5	0x3d5b5817	0.053550806
6	0xbe0e4765	-0.13894422
7	0x3e553b83	0.20823483
8	0xbe149386	-0.145094
9	0x3e3e1efa	0.18566504
10	0xbe2ca499	-0.16859664
11	0x3e2e4662	0.17019036
12	0xbcde6682	-0.027148489
13	0x3e306c51	0.1722882
14	0xbe67f91f	-0.22653626
15	0xbd956179	-0.07293982
16	0xbe4e99af	-0.20175813
17	0xbe1f526a	-0.15558782
18	0xbe39d79d	-0.18148656
19	0x3e04a81f	0.12954758
20	0x3dda7936	0.106676504
21	0x3da2e254	0.07953325
22	0xbdb8a25d	-0.09015343
23	0x3e03a199	0.12854613
24	0x3df9b4a1	0.12192655
25	0x3e4a5709	0.19759764
26	0xbc948b70	-0.018132895
27	0xbe0aab02	-0.13541797
28	0xbdf8fa44	-0.121571094
29	0x3d24197d	0.04006337
30	0xbd5b943b	-0.05360816
31	0xbdc476b7	-0.095929556
32	0x3e786dd7	0.2426065
33	0x3dae6cd9	0.08516855
34	0xbd242bb1	-0.04008073
35	0xbd6bebe4	-0.05759801
36	0x3d8886fb	0.066663705
37	0xbe09fa05	-0.13474281
38	0x3e044964	0.12918621
39	0x3e0809f7	0.13285051
40	0x3d4400a4	0.047852173
41	0xbd957e0b	-0.072994314
42	0x3ccfba86	0.025357496
43	0xbe6c566c	-0.23079842
44	0x3e4abde0	0.19798994
45	0x3d912fae	0.07089172
46	0x3e1982d0	0.14991307
47	0x3d7e407c	0.062073216
48	0xbc7fa917	-0.015604279
49	0xbde1186e	-0.10990988
50	0x3e10c44f	0.14137386
51	0x3ce9bb46	0.028531682
52	0x3d50078d	0.05078845
53	0x3dd7d31f	0.10538315
54	0xbe451420	-0.19245958
55	0x3e3a384c	0.18185538
56	0x3d892de5	0.06698207
57	0xbe2b9de7	-0.16759454
58	0xbe3ede06	-0.18639383
59	0x3b7cdabc	0.0038582524
60	0x3e835bc7	0.25655958
61	0x3e30b739	0.17257394
62	0x3d23d2cd	0.039995957
63	0x3d94fd54	0.07274881
64	0x3dce35c4	0.10068849
65	0x3e00a863	0.12564234
66	0xbc68be98	-0.014205597
67	0x3e78e6a1	0.24306728
68	0x3c9abc44	0.0188886
69	0xbe0fc720	-0.14040804
70	0x3d43f6fa	0.047842957
71	0x3d1b319d	0.03788911
72	0xbd3c7405	-0.046009082
73	0x3e491d57	0.19640099
74	0x3e33e341	0.17567159
75	0x3d74717a	0.059678532
76	0xbe419bff	-0.18907164
77	0x3e2753a0	0.16340494
78	0x3d8343de	0.06409429
79	0xbd82b03f	-0.063812725
80	0x3e5100ea	0.20410505
81	0xbc961345	-0.018319735
82	0x3d24e617	0.040258493
83	0xbd02dbed	-0.03194802
84	0x3e75dd23	0.24010138
85	0x3e686728	0.22695601
86	0xbdaf5b51	-0.08562339
87	0xbd9aa313	-0.07550635
88	0x3e25f706	0.16207513
89	0x3e5624f1	0.2091253
90	0xbe3fff9a	-0.18749848
91	0xbdc41868	-0.095749676
92	0xbdaa458f	-0.083140485
93	0xbe056afb	-0.13029091
94	0x3e0dd8cb	0.13852231
95	0x3d7eb211	0.062181536
96	0xbe423168	-0.1896416
97	0x3e7d311b	0.24725763
98	0x3e50be66	0.20385131
99	0xbb482a9d	-0.0030542978
100	0xbe186f34	-0.1488617
101	0xbd8bdc5f	-0.06829142
102	0x3df413e1	0.11917854
103	0xbe0db22b	-0.13837497
104	0xbd84b0e6	-0.06479053
105	0xbc0683c1	-0.0082101235
106	0x3dd14f91	0.10220254
107	0xbe54e27c	-0.20789522
108	0x3e2cbfab	0.1686999
109	0xbe3fea62	-0.18741754
110	0x3e1d647f	0.15370367
111	0xbdcd91ae	-0.10037552
112	0x3e77a070	0.24182296
113	0x3e061bb7	0.1309651
114	0xbe2aa968	-0.16666186
115	0x3e806a5a	0.2508114
116	0xbd4094de	-0.04701697
117	0x3c919f07	0.017776025
118	0x3e5af45f	0.21382283
119	0xbd1824b3	-0.037144374
120	0xbe208dd4	-0.15679103
121	0x3d4de059	0.050262783
122	0xbca30fdc	-0.019905023
123	0xbd67585d	-0.056480754
124	0xbe44b021	-0.19207813
125	0xbb057cd1	-0.0020368586
126	0x3e305eeb	0.17223708
127	0xbe165f69	-0.14684834

network.2.weight f4 [128, 128]
0	0x3c91780c	0.017757438
1	0xbd18eaaf	-0.037333187
2	0x3c84969b	0.016185096
3	0xbbaae750	-0.005215563
4	0x3d3a800f	0.045532282
5	0xbcf66bf6	-0.030080777
6	0xbd2122ff	-0.039340016
7	0xbd7fe823	-0.062477242
8	0x3d27a44b	0.040928166
9	0x3dc57d36	0.09643023
10	0xbc128671	-0.008943186
11	0x3d7db12c	0.061936542
12	0xbd9315d9	-0.071819015
13	0x3d0d552b	0.03450505
14	0xbd125bc7	-0.035732057
15	0x3d4a8bf9	0.049449895
16	0x3cb04ae2	0.021520082
17	0xbd8f83c6	-0.07007556
18	0xbd23a96c	-0.039956495
19	0x3d1ee41a	0.038791753
20	0xbca86b3d	-0.020558948
21	0x3d084d0f	0.033276614
22	0xbc6d4113	-0.014480847
23	0x3d3bcc69	0.045849238
24	0x3afaf7f0	0.0019147377
25	0xbd535155	-0.051591236
26	0x3d8d2694	0.06892124
27	0xbc9cc0c7	-0.019134892
28	0xbd88a5a3	-0.06672218
29	0xbc362e1c	-0.011119392
30	0x3d2d903c	0.04237388
31	0x3cede652	0.02904049
32	0xbd721c6d	-0.05910914
33	0xbb8178ff	-0.0039511914
34	0x3cdbcba4	0.026830502
35	0x3cb8fab3	0.02258048
36	0xbc8eb093	-0.017418182
37	0x3cd03335	0.025415042
38	0xbd003ac3	-0.03130604
39	0xbd841fbb	-0.064513646
40	0x3ce4e9d6	0.027943533
41	0xbd425867	-0.04744759
42	0xbd426c79	-0.04746673
43	0xbcbfd55c	-0.023417167
44	0x3d313cbf	0.043270823
45	0xbd55e8e1	-0.052224044
46	0xbd7da4c9	-0.06192473
47	0x3dadcaad	0.08485923
48	0x3c546a48	0.012964793
49	0x3d85cac3	0.06532814
50	0xbcb7de80	-0.022444963
51	0x3d8e3c43	0.06945088
52	0xbc9a5235	-0.018838027
53	0x3d62d23a	0.05537627
54	0x3ce02e00	0.027365685
55	0x3d373182	0.04472495
56	0xba99716c	-0.0011706776
57	0xbd4a2ef9	-0.049361203
58	0x3c3f9750	0.011693791
59	0x3cbbaeb1	0.022910448
60	0x3cc1e668	0.023669437
61	0xbd45872a	-0.048224606
62	0x3da70f92	0.08157267
63	0x3d0eba5b	0.03484569
64	0xbd8898b6	-0.06669752
65	0x3cc3b270	0.023888797
66	0x3d963748	0.07334763
67	0x3da95c1a	0.0826952
68	0x3ca131b9	0.01967703
69	0xbd91a5de	-0.07111715
70	0xbd846f83	-0.06466582
71	0x3d9bd935	0.07609788
72	0x3c835d5a	0.016035724
73	0x3db90268	0.09033662
74	0xbd8cb85d	-0.06871102
75	0x3db09a72	0.08623208
76	0xbd75a60d	-0.05997281
77	0xbd92b394	-0.07163158
78	0xbd5be755	-0.053687412
79	0x3dba6130	0.09100568
80	0x3d1f4709	0.038886104
81	0x3d85187c	0.06498811
82	0xbcc49d49	-0.02400078
83	0x3d0a7c8b	0.03381018
84	0x3d0fbf21	0.035094384
85	0xbd7f450c	-0.062321708
86	0xbd9421de	-0.07233022
87	0xbda4d5f6	-0.08048622
88	0xbd44d970	-0.048058927
89	0xbc15c9c6	-0.009142345
90	0x3dc013e2	0.09378792
91	0x3c6ea140	0.014564812
92	0xbcc7606c	-0.02433797
93	0x3c8bd9c9	0.017071621
94	0xbce89c18	-0.028394744
95	0x3c068734	0.008210946
96	0x3d9cd35f	0.07657503
97	0xbce5d295	-0.028054515
98	0xbd1f9f5c	-0.038970336
99	0x3bf75d76	0.007548983
100	0x3bb61849	0.0055570942
101	0xbd16ec0c	-0.036846206
102	0xbd86bf82	-0.06579496
103	0x3dcab92d	0.09898601
104	0xbc40699f	-0.011743932
105	0xbd6a98ba	-0.057274558
106	0x3cc8d3db	0.024515083
107	0xbd987e26	-0.07445936
108	0xbd97bacf	-0.07408678
109	0x3cec480e	0.028842952
110	0xbd4fd89e	-0.05074369
111	0x3cd1067a	0.025515784
112	0x3d821a56	0.063526794
113	0xbd8f4069	-0.06994707
114	0x3d490150	0.049073517
115	0x3dbbe916	0.09175317
116	0x3c9259d5	0.0178651
117	0x3dbb69f3	0.091510676
118	0x3ca35f7e	0.019942995
119	0xbd9b9dc6	-0.07598452
120	0xbd8b4e3d	-0.06802032
121	0xbd55f642	-0.052236803
122	0xbd69e94a	-0.057107247
123	0xbd63d6ca	-0.05562476
124	0xbb5d18ea	-0.0033736774
125	0x3d63e2b5	0.055636127
126	0x3d781071	0.060562555
127	0x3c9adf99	0.018905448
128	0x3d62760c	0.05528836
129	0x3d8bff20	0.068357706
130	0xbd60ed47	-0.054913785
131	0x3d9c0277	0.07617658
132	0x3da4f0a8	0.08053714
133	0x3c4c3d7b	0.01246583
134	0xbd14ffef	-0.03637689
135	0x3d1ba194	0.03799589
136	0x3ccd9435	0.025095085
137	0xbd92e7d5	-0.07173125
138	0x3b268156	0.002540668
139	0x3b081df3	0.0020769804
140	0xbc45667b	-0.012048359
141	0xbd88e0b2	-0.06683482
142	0xbd59daa5	-0.05318703
143	0xbc8bd772	-0.017070506
144	0xbc2ce88f	-0.010553493
145	0xbcdd9f67	-0.027053548
146	0xbdac0a37	-0.08400386
147	0x3d578886	0.052620433
148	0x3c0f266c	0.008737188
149	0x3c2a7256	0.010403236
150	0xbd6b2e26	-0.057417057
151	0xbd33575c	-0.043784484
152	0xbd978554	-0.07398477
153	0x3cb9fbe2	0.022703115
154	0xbbaaf0fb	-0.0052167154
155	0x3d56e0dc	0.052460536
156	0x3c0723eb	0.00824831
157	0xbd122d47	-0.03568771
158	0x3d5a515b	0.053300243
159	0xbb355204	-0.0027667293
160	0x3cbc1d51	0.022963198
161	0x3c44ef06	0.012019878
162	0x3d5036ca	0.0508335
163	0xbd415900	-0.047204018
164	0xbcdbd783	-0.026836162
165	0x3d30999e	0.04311525
166	0x3d6acb77	0.057322945
167	0xbd6d6b89	-0.05796388
168	0x3d42f6cc	0.047598645
169	0x3d99b11c	0.07504484
170	0x3d383ee6	0.04498186
171	0xbd8b95eb	-0.06815704
172	0xbcaba34c	-0.02095189
173	0x3d766b36	0.060160838
174	0xbd78c033	-0.06073017
175	0x3d77590a	0.06038765
176	0x3da55124	0.08072117
177	0x3d044758	0.0322946
178	0xbd5d6f58	-0.054061264
179	0x3dc8a862	0.097977415
180	0x3d7f4ccb	0.062329095
181	0xbcceb956	-0.02523486
182	0x3d1516b7	0.036398616
183	0x3cfed8e2	0.031109277
184	0x3b47d54d	0.0030492127
185	0xbb97d902	-0.0046340236
186	0x3d97e526	0.074167535
187	0x3cc968ea	0.02458616
188	0x3dac8c62	0.084252134
189	0xbd9c1b4a	-0.076223925
190	0xbd282699	-0.041052435
191	0x3d05e541	0.032689337
192	0x3d264ed5	0.040602524
193	0x3c814035	0.015777687
194	0x3cb62e52	0.022238884
195	0xbb97057b	-0.0046088076
196	0x3d3713e4	0.044696704
197	0x3d4fa55d	0.050694812
198	0x3bc3e9c6	0.0059787957
199	0xbd9f2505	-0.07770733
200	0xbc5fbf32	-0.013656424
201	0xbd09558f	-0.03352886
202	0xbc7a0c2d	-0.015261692
203	0xbd7c5600	-0.061605453
204	0xb97066da	-0.00022926499
205	0x3dc79a05	0.09746174
206	0xbd90a5ea	-0.070628956
207	0x3d8a41b5	0.06750814
208	0xbd3c0d2b	-0.045910995
209	0x3d03e568	0.0322012
210	0x3c165f19	0.0091779465
211	0xbd999e8e	-0.07500945
212	0x3cf52866	0.02992649
213	0x3ca5d5fe	0.020243641
214	0x3c26274e	0.010141207
215	0x3d133489	0.035938773
216	0x3d741c65	0.05959739
217	0x3cad9a49	0.021191733
218	0xbc71a862	-0.014749618
219	0xbd7ce358	-0.06174025
220	0xbd136b92	-0.03599126
221	0x3c9f7968	0.01946707
222	0xbd339a7b	-0.043848496
223	0xbd5e9ccb	-0.05434875
224	0xbd3e9e79	-0.04653785
225	0x3c53332b	0.012890617
226	0x3c6a51bd	0.0143017145
227	0x3d9ad9f1	0.075611
228	0xbc0b9ae4	-0.0085208155
229	0x3c6a6b7b	0.014307852
230	0x3d218afd	0.03943919
231	0xbaea23f7	-0.0017863502
232	0xbbb8fb55	-0.0056451955
233	0xbd93bb7c	-0.07213494
234	0xbcaffa07	-0.021481527
235	0x3d611f98	0.05496177
236	0x3d3a337d	0.04545926
237	0x3b93286b	0.004490902
238	0x3d899b82	0.06719114
239	0xbc8adc2b	-0.016950687
240	0x3d7a0ae7	0.061045554
241	0x3cab38a7	0.020901037
242	0xbce8ec26	-0.028432917
243	0x3d8a527e	0.067540154
244	0x3db8731b	0.090063296
245	0x3c81de60	0.015853107
246	0x3d785d9a	0.06063614
247	0xbda68799	-0.08131332
248	0xbd56b071	-0.05241436
249	0xba2f1157	-0.0006678304
250	0x3d9651dc	0.07339832
251	0xbd1a68f3	-0.037697744
252	0x3c1cc540	0.009568512
253	0xbca65d1f	-0.020308075
254	0xbd0df484	-0.034657016
255	0x3d77a571	0.06046051

network.2.bias f4 [128]
0	0xbd391e2f	-0.0451948
1	0x3c93d592	0.018046174
2	0xbbaeb86e	-0.0053320443
3	0x3ce333a8	0.027734593
4	0x3db16ae1	0.08662964
5	0xbd5dd496	-0.054157816
6	0xbdae63b1	-0.085151084
7	0x3d75b54c	0.05998735
8	0x3d2ac6b7	0.041693415
9	0xbb875eb9	-0.004131165
10	0xbccea58d	-0.025225425
11	0xbd173231	-0.0369131
12	0x3da2d73f	0.07951211
13	0x3d8590da	0.06521769
14	0x3bfe42fc	0.00775945
15	0x3da38481	0.079842575
16	0x3c2c7660	0.01052627
17	0x3ccb2736	0.02479897
18	0xbd914342	-0.070929065
19	0xbd90468a	-0.07044704
20	0x3da34f6e	0.079741344
21	0x3ccf7357	0.025323553
22	0xbcb9ea86	-0.022694837
23	0x3d476ec1	0.048689608
24	0xbd8fbb5d	-0.070181586
25	0xbd1ba9a4	-0.03800358
26	0xbc236619	-0.009973072
27	0xbca0d2a7	-0.019631697
28	0xbd83bf8a	-0.064330176
29	0x3d94bb07	0.07262235
30	0x3d68cc1f	0.05683529
31	0xbd41ede4	-0.04734601
32	0xbc4309f6	-0.01190423
33	0x3dac35fb	0.084087335
34	0x3d887dd1	0.066646226
35	0xbd029f36	-0.031890117
36	0x3d5045fc	0.050847992
37	0xbd231f81	-0.039824966
38	0x3d79852c	0.06091802
39	0x3d419125	0.04725756
40	0xbd54292a	-0.05179707
41	0xbdb6d20e	-0.089267835
42	0x3d84ad81	0.06478406
43	0xbdb020aa	-0.0859998
44	0x3cccd5db	0.025004318
45	0x3dc4e077	0.09613126
46	0xbb46da58	-0.0030342545
47	0xbc015a9f	-0.007895141
48	0xbdaf63c8	-0.08563954
49	0x3d3ddeb5	0.046354968
50	0x3d598b46	0.053111337
51	0x3cee6b99	0.029104041
52	0xbc5c4394	-0.013443846
53	0x3c2e7be7	0.010649658
54	0x3d5c204f	0.05374175
55	0x3bf43c7f	0.0074535008
56	0xbd542417	-0.05179223
57	0x3dd2ddc0	0.10296202
58	0x3d8aedde	0.06783651
59	0x3d5384dc	0.051640376
60	0x3dc8a24e	0.09796582
61	0xbd8d1522	-0.068887964
62	0xbd87f1a2	-0.06637885
63	0xbcc10b62	-0.023564998
64	0x3d8eae0a	0.06966789
65	0xbd6e9eec	-0.05825703
66	0x3da78bb9	0.08180947
67	0xbcb593dd	-0.022165233
68	0x3d41e9b5	0.04734202
69	0x3d803d38	0.062616765
70	0x3d367873	0.044548463
71	0x3da090fd	0.07840154
72	0x3bfcc5b0	0.007713996
73	0xbcf3654e	-0.029711392
74	0x3dbba733	0.0916275
75	0xbd3aa9fa	-0.04557226
76	0xbc9e8fc9	-0.019355671
77	0xbd415971	-0.04720444
78	0xbd8a43bf	-0.06751203
79	0x3d3fbd92	0.046811648
80	0xbd98379f	-0.07432484
81	0x3d7106c6	0.05884435
82	0xbd258113	-0.040406298
83	0xbd043659	-0.032278392
84	0x3da73d46	0.08165984
85	0xbd3bf498	-0.04588756
86	0x3d8d34e7	0.06894856
87	0xbcbf3c37	-0.023344142
88	0x3bb35521	0.0054727946
89	0xbd2397f0	-0.03993982
90	0xbaa3bfd9	-0.0012493088
91	0xbab4cf10	-0.001379462
92	0xbd4a9eee	-0.049467973
93	0x3cb91cea	0.022596795
94	0x3d2f8c69	0.042858515
95	0xbd37654e	-0.044774346
96	0x3db4ed3a	0.0883431
97	0x3d84aaa7	0.06477862
98	0xbd58ff56	-0.052977882
99	0x3db2c187	0.08728319
100	0xbd9ef26d	-0.07761083
101	0xbce9dca6	-0.028547596
102	0x3d156339	0.03647158
103	0x3d919e88	0.071103156
104	0x3d8127c1	0.063064106
105	0x3d1b4a71	0.03791279
106	0x3cc2277c	0.023700468
107	0xbd2a12f2	-0.041521974
108	0x3d05a0f4	0.0326242
109	0xbcba24ef	-0.02272269
110	0x3d1134e0	0.035450816
111	0xbcd9ea21	-0.0266009
112	0x3cb8c6f4	0.022555806
113	0x3d410e3e	0.047132723
114	0xbd50f44f	-0.05101424
115	0x3d266816	0.040626608
116	0xbbf7a844	-0.0075579006
117	0x3c9d7cd8	0.01922457
118	0x3d363108	0.044480354
119	0xbdc100e6	-0.094239995
120	0xbd18c65d	-0.03729855
121	0x3d470284	0.048586383
122	0xbd8f72fe	-0.07004355
123	0xbbc0dabc	-0.00588545
124	0x3c1fc072	0.009750472
125	0x3db3c691	0.08778108
126	0x3c641c59	0.013922774
127	0x3c146a01	0.009058476

network.4.weight f4 [5, 128]
0	0x3db5f4fe	0.08884619
1	0x3d0ca6e8	0.03433886
2	0x3cd692c0	0.026193023
3	0xbb3bc20d	-0.0028649599
4	0x3d904f62	0.07046391
5	0xbd87e425	-0.06635312
6	0xbd856b77	-0.06514638
7	0x3dd3d46a	0.10343249
8	0xbb9e0028	-0.004821796
9	0xbc2f6c64	-0.010706995
10	0x3c64359a	0.013928795
11	0x3d827d9d	0.06371615
12	0x3d657d8d	0.056027938
13	0xbc099950	-0.008398369
14	0xbcd4efbd	-0.025993222
15	0x3d711dbb	0.058866244
16	0x3b6f04d8	0.0036471393
17	0x3d52793b	0.051385146
18	0xbd2ce032	-0.042205997
19	0x3d09d45e	0.033649795
20	0x3db260f1	0.08709896
21	0x3bad13d7	0.005281906
22	0x3daf31d9	0.085544296
23	0xbd4aa327	-0.049472
24	0x3d67ead8	0.05662045
25	0xbcde1aea	-0.027112443
26	0xbb9c0f04	-0.004762532
27	0xbc34c504	-0.0110333
28	0x3d7f0f3b	0.062270384
29	0x3d5e5707	0.054282214
30	0x3d7c4739	0.06159136
31	0xbcc67174	-0.02422402
32	0x3c647938	0.013944916
33	0x3dcc3028	0.099701226
34	0x3b8d48ce	0.0043116575
35	0x3db67109	0.089082785
36	0xbd942017	-0.07232683
37	0xbd6a0705	-0.0571356
38	0xbd2b5337	-0.041827407
39	0xbd89e838	-0.06733745
40	0x3dacff47	0.08447128
41	0xbcda8c98	-0.026678368
42	0x3d01382e	0.031547718
43	0xbcad55a3	-0.021158999
44	0xbd94fb7c	-0.07274529
45	0x3dbb1ec2	0.09136726
46	0x3db30516	0.087412044
47	0x3cc7a595	0.024370948
48	0xbd23de54	-0.04000695
49	0x3d3895ca	0.045064725
50	0xbd8fe962	-0.07026936
51	0x3da30389	0.07959659
52	0x3caff6a4	0.021479912
53	0x3dabe995	0.083941616
54	0x3db8d26a	0.09024508
55	0x3d8b7fa9	0.068114586
56	0x3d47ebbc	0.0488088
57	0x3d8f2d5a	0.06991072
58	0x3d56fc04	0.052486435
59	0xbd798252	-0.0609153
60	0x3dcb2b7e	0.09920405
61	0x3c6b4c1a	0.014361406
62	0x3d2b43e0	0.041812778
63	0xbc36ebd4	-0.011164624
64	0x3d9ab86c	0.07554707
65	0x3d90a9a7	0.070636086
66	0x3d3cefdc	0.046127185
67	0xbca574b1	-0.020197244
68	0x3b559d93	0.0032595142
69	0x3c4ad06a	0.012378791
70	0x3d96ecfd	0.07369421
71	0xbb2de341	-0.002653316
72	0x3c9dd3f4	0.019266106
73	0x3c0b4c8e	0.008502139
74	0x3da4f1ea	0.08053954
75	0x3d4a1b24	0.04934229
76	0x3d01c8fa	0.031685807
77	0xbb7e0c6a	-0.0038764724
78	0xbdb12cde	-0.08651136
79	0xbd57c160	-0.05267465
80	0xbb8a7c2a	-0.0042262273
81	0xba8526e0	-0.001015868
82	0x3b85da7d	0.0040848837
83	0xbb7ed2e4	-0.0038883025
84	0x3d6059d6	0.054773174
85	0x3d647cf6	0.055783235
86	0x3c87707f	0.016533135
87	0xbd355308	-0.044268638
88	0xbd6a442c	-0.05719392
89	0xbcc82975	-0.02443383
90	0xbd51a383	-0.051181328
91	0x3c459d4b	0.012061427
92	0xbcc9dd3a	-0.024641622
93	0xbd3e28c9	-0.046425615
94	0xbd6d32e2	-0.057909854
95	0xbb71fb29	-0.0036923385
96	0x3d643c43	0.055721533
97	0x3d0a0d5c	0.033704147
98	0x3db1ef2b	0.08688196
99	0x3cd2a7c7	0.025714768
100	0xbd5041f0	-0.050844133
101	0xbc093a47	-0.008375711
102	0xbd82181b	-0.06352254
103	0xbd5fa14e	-0.05459719
104	0x3db42e00	0.08797836
105	0xbccc8301	-0.024964811
106	0xbd84d4d4	-0.06485906
107	0x3da2cc31	0.07949103
108	0xbcceb507	-0.025232805
109	0x3c01c9db	0.007921661
110	0xbd8d76f7	-0.06907456
111	0xbbd31df9	-0.006442782
112	0xbd959d05	-0.0730534
113	0x3da422d3	0.08014455
114	0xbd2b900e	-0.041885428
115	0x3d486748	0.04892662
116	0xbc9773a9	-0.018487768
117	0x3d936a8c	0.071980566
118	0x3d454fcb	0.0481718
119	0xbce21347	-0.027597083
120	0xbc883ab5	-0.016629556
121	0xbd5a2574	-0.053258374
122	0x3dacdd03	0.08440592
123	0xbd784b7c	-0.060618863
124	0x3d6c0088	0.057617694
125	0x3d27807b	0.040894013
126	0x3c86718d	0.016411567
127	0xbd9871c6	-0.074435756
128	0xbc030b75	-0.007998337
129	0x3d094dc2	0.03352142
130	0xbd769b1d	-0.06020652
131	0xbd91a0cb	-0.07110747
132	0x3dc5422a	0.096317604
133	0x3a256400	0.00063091516
134	0xbd69b7ad	-0.057059933
135	0xbd9468d2	-0.072465554
136	0x3d8e08bc	0.0693526
137	0xbcf2ee4e	-0.029654648
138	0xbc38dee0	-0.011283606
139	0x3d9fe415	0.07807175
140	0x3d57fa48	0.05272892
141	0x3d6ab84f	0.057304677
142	0x3d1d480a	0.03839878
143	0xbd821cd6	-0.06353156
144	0xbd86140e	-0.06546794
145	0x3dbf84e5	0.093515195
146	0x3ce50aa9	0.027959185
147	0xbd965078	-0.07339567
148	0x3bcdf852	0.0062857056
149	0xbd5a497b	-0.053292733
150	0xbd451381	-0.048114303
151	0xbd9b5240	-0.07584047
152	0x3d84f8a6	0.064927384
153	0xbd5899ad	-0.05288093
154	0xbb6c2e18	-0.0036038216
155	0x3d05c16e	0.032655172
156	0xbd9164ba	-0.0709929
157	0x3d00e210	0.03146559
158	0x3d570480	0.052494526
159	0x3d51b1c2	0.051194914
160	0x3ca369a2	0.01994783
161	0xbd17da86	-0.037073635
162	0xbd427b24	-0.047480717
163	0xbc900d54	-0.01758448
164	0xbd30c6e0	-0.043158412
165	0x3ccda2ba	0.025102008
166	0xbd1b3386	-0.037890933
167	0xbd8b2908	-0.067949355
168	0xbc9c2d01	-0.019064428
169	0x3d08caaa	0.0333964
170	0x37ddbcb0	2.6433117e-05
171	0x3c3eedc6	0.011653369
172	0x3d74f26c	0.059801504
173	0x3d3f26e8	0.046667963
174	0xbd853492	-0.065041676
175	0x3d107798	0.035270303
176	0x3d4a137d	0.04933499
177	0x3dc1891f	0.09449982
178	0x3d67ce4c	0.056593224
179	0x3da9438f	0.08264839
180	0x3dcb3db1	0.09923876
181	0x3d704d4d	0.05866747
182	0x3dadad17	0.0848028
183	0x3d72544d	0.059162427
184	0xbcd93752	-0.026515637
185	0x3d26b061	0.04069555
186	0x3d155f5c	0.036467895
187	0x3d9c035b	0.076178275
188	0xbd1803e2	-0.037113078
189	0x3d98fcca	0.07470091
190	0xbb45740a	-0.003012898
191	0x3dcdcb2c	0.100485176
192	0x3da10d62	0.07863881
193	0x3d6b859c	0.057500467
194	0x3d936a1e	0.071979746
195	0xbd751205	-0.059831638
196	0x3d126eb2	0.0357501
197	0xbd56b893	-0.052422117
198	0x3d5117d2	0.051048107
199	0x3d9df942	0.07713558
200	0x3dbc5f65	0.091978826
201	0x3d9fa623	0.0779536
202	0x3c07622d	0.008263153
203	0xbd35939e	-0.04433023
204	0xbd93ae4c	-0.07210979
205	0xbd01639d	-0.03158914
206	0xbce0cf32	-0.027442548
207	0xbd263c24	-0.0405847
208	0xbd7050da	-0.058670856
209	0xbd66d609	-0.056356464
210	0x3c1063ae	0.008812828
211	0xbd180ec6	-0.037123464
212	0xbd2a18a3	-0.0415274
213	0x3d9e8d3f	0.07741784
214	0xbbb25d57	-0.005443256
215	0xbd927bbf	-0.07152509
216	0xbd745ae4	-0.059656993
217	0xbce02db5	-0.027365545
218	0xbc8fedfc	-0.017569534
219	0x3c4d5fea	0.012535075
220	0x3c13e783	0.009027365
221	0xbd47abfc	-0.048748
222	0x3dcdff81	0.10058499
223	0x3dcbe6a6	0.09956102
224	0x3d7ab69e	0.061209314
225	0xbca5c7c6	-0.020236861
226	0x3c3962a3	0.011315021
227	0x3cebc9af	0.028782694
228	0xbd62cd13	-0.055371355
229	0x3d5e1a4b	0.054224294
230	0xbda1322d	-0.078708984
231	0xbc0c9b70	-0.008581981
232	0xbcd7e79d	-0.026355559
233	0x3d42d9c8	0.047570974
234	0xbbbd1bac	-0.005771121
235	0xbcf8cbee	-0.030370679
236	0xbd98b2eb	-0.07456001
237	0xbd59a815	-0.05313881
238	0xbceff6ec	-0.029292546
239	0x3d7a0d06	0.061047576
240	0xbcdc7337	-0.026910407
241	0x3d96e86e	0.07368551
242	0x3bbf49e2	0.005837665
243	0x3cf6c22b	0.030121883
244	0x3bdcbab2	0.006736123
245	0x3d76032e	0.060061626
246	0x3dcfa2bd	0.10138462
247	0x3ce92640	0.028460622
248	0x3c949dd6	0.018141668
249	0x3d894c05	0.06703953
250	0x3d213772	0.039359517
251	0x3db6ba19	0.08922214
252	0x3ac62ee1	0.0015120172
253	0xbd8865e9	-0.06660063
254	0x3d41deb1	0.047331516
255	0x3c1f9341	0.009739698

network.4.bias f4 [5]
0	0x3d3f97c0	0.04677558
1	0x3d4946b3	0.04913969
2	0x3d4863cd	0.048923302
3	0x3d8d5194	0.069003254
4	0x3da04b7a	0.07826896

network.0.weight f4 [128, 82]
0	0xbdf678f5	-0.120347895
1	0x3c6d9b9c	0.014502432
2	0x3e083c08	0.1330415
3	0xbd5f508b	-0.05452017
4	0xbd9cb97f	-0.07652568
5	0xbd9afc6f	-0.07567679
6	0xbd1c012b	-0.03808705
7	0xbdabf905	-0.08397106
8	0xbbd178c0	-0.0063925683
9	0x3d9cd8c9	0.07658536
10	0xbd5110ad	-0.051041294
11	0x3cea09ef	0.02856919
12	0xbdb8b412	-0.09018721
13	0xbce01889	-0.02735545
14	0x3dbfd4a3	0.09366729
15	0x3cf1bd3a	0.029509176
16	0x394babfe	0.0001942366
17	0xbe23ab3a	-0.15983286
18	0xbd768ae2	-0.060191043
19	0xbd5b5a36	-0.05355283
20	0xbcec331a	-0.02883296
21	0xbdd0d7f8	-0.10197443
22	0xbdd6f97b	-0.104968034
23	0x3d633a82	0.05547572
24	0xbd140539	-0.036137793
25	0x3c325f83	0.01088703
26	0xbd77d576	-0.060506307
27	0x3d581843	0.052757513
28	0x3cb8f227	0.022576405
29	0x3e101015	0.14068635
30	0xbdb23931	-0.08702315
31	0xbc3b3e9c	-0.011428501
32	0xbe114e1b	-0.14189951
33	0x3d193580	0.037404537
34	0xbddf93c3	-0.10916855
35	0x3d32d7e5	0.043662924
36	0xbe13cd68	-0.14433825
37	0x3d7d6b5a	0.061869957
38	0x3df69d4a	0.12041719
39	0xbdd25f86	-0.10272126
40	0xbbb8ea7d	-0.0056431876
41	0x3dc2c94b	0.0951105
42	0x3c711a42	0.014715733
43	0xbc07c4ae	-0.008286638
44	0x3bc2a009	0.005939488
45	0xbd8d7a88	-0.069081366
46	0x3d5d8cef	0.054089483
47	0x3e0983fe	0.13429257
48	0x39f82d54	0.00047336018
49	0xbd41eb1c	-0.04734336
50	0xbd9f2e76	-0.077725336
51	0xbd9de900	-0.07710457
52	0xbe0a19d2	-0.13486412
53	0xbe1574da	-0.14595357
54	0x3d002937	0.031289306
55	0x3d597d2f	0.0530979
56	0xbd0d6f6e	-0.034530096
57	0xbd1ec24b	-0.03875951
58	0xbddabc7c	-0.10680482
59	0xbe223bfa	-0.15843192
60	0xbd9cedea	-0.07662566
61	0x3d3fd798	0.046836466
62	0xbb3eabae	-0.0029094028
63	0x3cb0f6d2	0.021602068
64	0xbd9286a2	-0.071545854
65	0xbdd02ae7	-0.10164433
66	0xbdc23398	-0.09482497
67	0x3e056108	0.13025296
68	0x3b87a9af	0.004140101
69	0x3de619fb	0.11235424
70	0x3e06b73d	0.13155837
71	0x3d910c24	0.07082394
72	0xbdac3874	-0.08409205
73	0x3dcbb7ed	0.099471904
74	0x3d7638bf	0.06011271
75	0xbdbb16b5	-0.091351904
76	0xbcddbe92	-0.02706841
77	0x3d8caac5	0.06868509
78	0x3c94d88d	0.018169666
79	0xbc7c1d6e	-0.015387876
80	0x3e0c4be9	0.13700832
81	0xbdfd39a7	-0.12364512
82	0x3d3aa5ae	0.04556816
83	0x3d0a533c	0.033770785
84	0xbb1db0b6	-0.0024061627
85	0xbcea1225	-0.028573105
86	0x3d9e12e6	0.07718448
87	0xbdb02fcf	-0.08602869
88	0xbc9bb52e	-0.019007292
89	0x3dbf54d7	0.09342354
90	0x3c4a907d	0.01236355
91	0xbd6fb238	-0.058519572
92	0x3da33a7c	0.079701394
93	0xbd565c8e	-0.05233436
94	0xbd6cb3ca	-0.057788648
95	0xbcdfe154	-0.027329125
96	0x3d15afc8	0.03654459
97	0x3d0824d5	0.03323825
98	0x3d73a4fa	0.059483506
99	0xbda71484	-0.0815821
100	0x3d13a05a	0.036041595
101	0xbddca934	-0.107744604
102	0x3d972936	0.07380907
103	0xbd512c24	-0.051067486
104	0x3d2bd44f	0.04195052
105	0xbd673822	-0.056450017
106	0xbdf6a9b6	-0.120440885
107	0x3dc4d277	0.096104555
108	0xbd5dd360	-0.05415666
109	0x3d431f6b	0.047637384
110	0xbdcc45da	-0.09974261
111	0xbd908809	-0.07057197
112	0xbd44d1b2	-0.048051544
113	0xbd803975	-0.06260959
114	0x3dae72ff	0.085180275
115	0xbd060440	-0.032718897
116	0xbd39f17d	-0.045396317
117	0x3d340a27	0.043954995
118	0xbe03e6b8	-0.12880981
119	0x3c9332d3	0.01796857
120	0xbd8bcda9	-0.06826336
121	0xbd413902	-0.047173508
122	0xbdd1ee76	-0.10250561
123	0xbd5b7edc	-0.05358778
124	0xbdd4eba7	-0.103965096
125	0xbbd15ee9	-0.006389488
126	0xbde26a3c	-0.11055419
127	0xbc7fd036	-0.015613606
128	0x3c8e3f10	0.017364055
129	0x3d3d0907	0.046151187
130	0x3d029756	0.031882606
131	0x3d0ffca0	0.03515303
132	0xbd09bbde	-0.03362643
133	0xbcc51e70	-0.024062365
134	0x3ded91e2	0.116000906
135	0x3d9baa47	0.07600837
136	0xbd913b70	-0.07091415
137	0x3c9c9fa5	0.019119093
138	0xbdb5328e	-0.08847533
139	0xbd0ac38a	-0.033877887
140	0xbd8d2519	-0.068918414
141	0x3c91da6a	0.017804343
142	0xbd6f43f0	-0.0584144
143	0xbc8b56a3	-0.017009085
144	0x3d5050b2	0.050858207
145	0xbd7e0307	-0.062014606
146	0x3cbf9ad1	0.023389252
147	0x3d8bed3b	0.068323575
148	0x3d9e06aa	0.07716115
149	0x3d9c6629	0.07636673
150	0xbdb616d3	-0.08891072
151	0xbcaec889	-0.021335857
152	0x3deaf7c5	0.114730395
153	0xbcc568c6	-0.024097811
154	0xbdf2601f	-0.1183474
155	0xbd3b212c	-0.045685932
156	0xbdc57dec	-0.09643158
157	0x3db69c1e	0.08916496
158	0x3dca9f4f	0.09893667
159	0xbd0e26b7	-0.03470489
160	0xbc910a0a	-0.017704982
161	0x3d59a665	0.0531372
162	0x3d9ed936	0.077562734
163	0x3bf8dc76	0.0075946404
164	0xbb8ca472	-0.0042920643
165	0x3d4a3160	0.049363494
166	0xbdbc967c	-0.0920839
167	0xbdd28a23	-0.10280254
168	0x3af15b7c	0.0018414105
169	0x3d1c7c4d	0.03820448
170	0xbd0a8719	-0.033820245
171	0x3d41f982	0.04735709
172	0xbd01f9f4	-0.031732515
173	0xbd65887b	-0.05603836
174	0x3dbe069e	0.09278606
175	0xbcedd13d	-0.029030437
176	0x3d0dbc90	0.034603655
177	0xbda3019c	-0.07959291
178	0xbdddd2b0	-0.10831201
179	0x3d38a0b6	0.04507514
180	0xbd5778f0	-0.05260557
181	0xbdeee7ba	-0.11665292
182	0xbd214a20	-0.03937733
183	0xbb24e8af	-0.0025163104
184	0x3dc4730e	0.095922574
185	0xbc47262b	-0.012155096
186	0x3d54687f	0.051857468
187	0xbb6542c9	-0.0034982434
188	0xbdbfad8c	-0.09359273
189	0xbdf83790	-0.12119973
190	0xbd3418c4	-0.04396893
191	0xbcf63bfe	-0.030057903
192	0x3dabf568	0.08396417
193	0xbcfa019f	-0.030518351
194	0xbd51a25f	-0.05118024
195	0x3dd7d587	0.10538774
196	0xbd0837fa	-0.03325651
197	0xbca9f36f	-0.020745961
198	0xbd930609	-0.071788855
199	0xbdcb4362	-0.099249616
200	0xbd91371a	-0.07090588
201	0x3c2dd40c	0.010609638
202	0xbd6735fe	-0.056447975
203	0x3d97fc4e	0.0742117
204	0xbde6fdc3	-0.1127887
205	0xbd9eae17	-0.07748049
206	0xbc1321fa	-0.008980269
207	0xbdc4f43f	-0.09616899
208	0xbe0cb6ec	-0.13741654
209	0x3d244898	0.040108293
210	0x3d1a9e07	0.037748363
211	0xbc775502	-0.015095951
212	0x3a7b8111	0.00095941225
213	0xbcc88ba3	-0.024480646
214	0xbd5cbe3d	-0.053892363
215	0xbd635704	-0.055502906
216	0x3e0dbc12	0.13841274
217	0x3d873d80	0.06603527
218	0x3df6698b	0.120318495
219	0x3d7d3d35	0.06182595
220	0xbd261710	-0.040549338
221	0xbc81e92c	-0.015858255
222	0x3d86b13b	0.06576773
223	0x3cb39c3e	0.021925088
224	0x3c6eb45a	0.014569366
225	0x3dd08f86	0.10183625
226	0xbde2de61	-0.11077572
227	0xbc2d9dbc	-0.010596689
228	0x3d06d8d7	0.03292164
229	0x3d8cdedc	0.068784446
230	0x3dcf9ca7	0.10137301
231	0x3c3fb843	0.011701646
232	0x3d9fc686	0.07801537
233	0xbdc334c8	-0.095315516
234	0x3df9f5d0	0.12205088
235	0x3d8e8393	0.069586895
236	0x3ce99fb1	0.02851853
237	0x3d6de09a	0.058075525
238	0xbd336a75	-0.043802697
239	0xbdbb0d61	-0.09133411
240	0x3c85ad25	0.016317913
241	0xbc496777	-0.012292734
242	0x3d48c2c6	0.049013875
243	0x3c06cb2d	0.008227152
244	0xbd15f8a7	-0.036614086
245	0x3da05a34	0.07829705
246	0xbdd8fc96	-0.10595052
247	0xbdbdb343	-0.09262707
248	0xbc5c3c26	-0.013442075
249	0xbe097cb4	-0.13426477
250	0xbddfd41a	-0.10929127
251	0xbdeefa25	-0.11668805
252	0xbdc9b9f4	-0.09849921
253	0xbde4aced	-0.111657955
254	0xbd6410a4	-0.055679932
255	0xbdb48b75	-0.08815662

network.0.bias f4 [128]
0	0x3d997a3b	0.07494017
1	0x3bd7aae0	0.006581649
2	0xbd3dfef6	-0.046385728
3	0x3c811815	0.015758554
4	0xbc81d2f5	-0.015847662
5	0xbd65f46e	-0.05614131
6	0x3e0a81f0	0.1352613
7	0xbda7350f	-0.08164417
8	0xbdb2fee0	-0.0874002
9	0x3e078972	0.13236025
10	0x3d978572	0.073984995
11	0x3d9a3174	0.07528964
12	0x3ceda86d	0.029010976
13	0x3dde61d5	0.10858504
14	0xbddb9626	-0.10721998
15	0x3d4f5f1e	0.05062782
16	0xbd48277f	-0.04886579
17	0x3c286205	0.010277276
18	0x3e1cf5fd	0.15328212
19	0x3e0cd092	0.13751438
20	0x3c71a926	0.014749801
21	0x3d1e3208	0.038621932
22	0xbd57f5c5	-0.05272462
23	0x3e15264e	0.14565393
24	0x3d829f01	0.06377984
25	0xbd85d37c	-0.06534478
26	0xbda00472	-0.07813348
27	0x3dd5ef2d	0.1044601
28	0x3e0303a2	0.12794355
29	0xbd36c219	-0.0446187
30	0x3daaa37f	0.08331966
31	0xbdd68315	-0.10474221
32	0x3d3ba326	0.045809887
33	0xbd7b3984	-0.061334148
34	0xbcab3102	-0.020897392
35	0xbc9f9741	-0.019481303
36	0xbd5fcf11	-0.054640833
37	0x3d75d876	0.060020886
38	0xbc36d6a7	-0.011159576
39	0x3d6c1830	0.057640254
40	0xbd83cdab	-0.064357124
41	0x3c18a61d	0.009316948
42	0xbd87f308	-0.066381514
43	0x3dee8cd1	0.11647952
44	0x3d81e9e5	0.0634344
45	0x3d2b0bdf	0.041759368
46	0xbd7beba4	-0.06150402
47	0xbd072846	-0.032997392
48	0x3d4bfaf4	0.049799874
49	0x3b157237	0.0022803673
50	0xbc93ab3d	-0.018025989
51	0xbdf23934	-0.11827317
52	0xbcb9a0e2	-0.022659723
53	0x3d0c9a3d	0.03432678
54	0x3dc7ae00	0.09749985
55	0xbd26191c	-0.04055129
56	0xbdbc64ef	-0.09198939
57	0x3d5233d1	0.051318947
58	0xbd2ec3a4	-0.042667046
59	0x3df0da0c	0.11760339
60	0xbdbcbc3d	-0.09215591
61	0x3d11b70a	0.03557495
62	0xbdb11075	-0.08645717
63	0x3b3d40f6	0.002887783
64	0x3daf3c04	0.08556369
65	0x3a14724c	0.00056627835
66	0x3d33af25	0.043868203
67	0xbde63a19	-0.1124155
68	0xbdaec1f1	-0.08533085
69	0xbbb8f2fb	-0.0056442
70	0xbdcbe903	-0.09956553
71	0x3d5d9682	0.054098614
72	0x3d9c13fd	0.07621
73	0x3dc42f0a	0.095792845
74	0x3d88ec83	0.06685736
75	0x3d57062f	0.05249613
76	0x3db7bde8	0.089717686
77	0xbd1f1379	-0.03883693
78	0x3db6655a	0.0890605
79	0x3e0e82fc	0.13917154
80	0x3de17eb4	0.11010495
81	0xbd8182f9	-0.06323809
82	0xbd79d95f	-0.060998317
83	0xbd3c9165	-0.046037097
84	0x3df1a4a6	0.11798982
85	0xbd8c37dc	-0.06846592
86	0xbcc9b764	-0.02462358
87	0x3d2e9df5	0.04263111
88	0x3de70848	0.112808764
89	0xbcc5d4c8	-0.024149314
90	0x3b5fe25b	0.0034162018
91	0x3d995869	0.07487566
92	0xbcba9bb4	-0.022779323
93	0xbbf1b0e7	-0.0073758247
94	0x39bc7753	0.00035947058
95	0xbd3fbe54	-0.04681237
96	0x3da4777f	0.080306046
97	0x3d91b7d7	0.07115143
98	0x3aea252c	0.0017863861
99	0x3db1e7f3	0.08686819
100	0x3dc1885d	0.09449837
101	0x3ddf31bb	0.10898157
102	0xbe102212	-0.14075497
103	0xbd169ef2	-0.036772676
104	0xbe0f2585	-0.13979156
105	0x3c11edd7	0.008906803
106	0xbd2c138c	-0.04201083
107	0x3df6807e	0.12036227
108	0x3de24304	0.110479385
109	0xbd73c3bc	-0.05951284
110	0xbe0c6f58	-0.1371435
111	0xbab1b1a2	-0.0013556967
112	0xbcd68b86	-0.026189577
113	0xbdaba019	-0.083801456
114	0x39d02c38	0.00039705797
115	0xbdda74d6	-0.10666816
116	0xbc790987	-0.015200025
117	0xbd11115f	-0.035416957
118	0x3cc01b82	0.023450617
119	0xbd2aa880	-0.0416646
120	0x3d4cf098	0.050034136
121	0xbda17968	-0.078844845
122	0xbc0dd2f8	-0.008656256
123	0x3d481833	0.048851203
124	0xbd5b49d3	-0.0535372
125	0xbdacc984	-0.084368736
126	0x3e0e8919	0.13919486
127	0xbd097726	-0.033560894

network.2.weight f4 [128, 128]
0	0x3d728c3a	0.05921576
1	0xbce971be	-0.02849662
2	0x3cd039df	0.02541822
3	0x3df81aaf	0.121144645
4	0x3d9dead2	0.07710804
5	0xbd8b8245	-0.06811956
6	0x3de52a10	0.111896634
7	0x3d4e43c0	0.05035758
8	0xbd14347c	-0.036182866
9	0x3dc5c877	0.09657376
10	0x3b270710	0.0025486387
11	0xbc4d5e45	-0.012534683
12	0x3dc78228	0.09741622
13	0x3a871587	0.0010306098
14	0x3db594e1	0.08866287
15	0xbcef4eac	-0.029212318
16	0xbd39b4c1	-0.045338396
17	0xbcd0a236	-0.025467973
18	0xbc8862b1	-0.016648622
19	0x3c750065	0.014953707
20	0xbd86daad	-0.06584678
21	0xbd107f89	-0.035277877
22	0xbe01bfd1	-0.12670828
23	0x3d67b7cb	0.056571763
24	0xbd911f0e	-0.07086001
25	0x3bcf6ac0	0.0063298643
26	0x3decb1b7	0.11557334
27	0x3ca33ce0	0.019926488
28	0x3d4be228	0.049776226
29	0x3ca340e7	0.019928409
30	0xbd72a4da	-0.059239246
31	0x3d17d962	0.037072547
32	0xbbd292db	-0.006426198
33	0xbd2f79a9	-0.042840634
34	0x3e048362	0.12940744
35	0x3d991f70	0.07476699
36	0x3dddcb36	0.10829775
37	0x3dbbc8de	0.09169172
38	0xbdee74e6	-0.1164339
39	0xbde5d26b	-0.11221775
40	0xbe057a69	-0.13034977
41	0xbd8cf454	-0.068825394
42	0xbdf66ba8	-0.120322526
43	0x3d1a26a4	0.037634507
44	0xbd14b96a	-0.036309637
45	0xbb9857ff	-0.004649162
46	0xbc869b07	-0.016431345
47	0x3cb27230	0.021782964
48	0x3dde4287	0.10852533
49	0x3bcb24a3	0.006199436
50	0x3d86e8c6	0.06587367
51	0x3deb439c	0.11487505
52	0xbb98fbd2	-0.004668691
53	0x3c483664	0.012219999
54	0x3c373f68	0.011184551
55	0xbd982333	-0.07428589
56	0xbc84d421	-0.016214432
57	0xbcb92fc4	-0.022605784
58	0x3c97310e	0.018456008
59	0x3c001695	0.007817884
60	0xbbdbff88	-0.0067138113
61	0xbbf2d389	-0.007410471
62	0x3c406aa2	0.011744173
63	0xbd404b48	-0.046946794
64	0xbbef1d22	-0.007297174
65	0x3dae9958	0.08525342
66	0x3d24ad06	0.04020407
67	0x3d90fdb9	0.07079644
68	0x3dde8cbe	0.10866688
69	0xbd5d16e5	-0.053976912
70	0xbd00122f	-0.03126734
71	0x3dc34763	0.095351
72	0xbce4777e	-0.02788901
73	0xbcd34ca6	-0.025793385
74	0xbcddc382	-0.027070764
75	0x3db0cd35	0.0863289
76	0x3b498138	0.0030747186
77	0x3bae6c2a	0.0053229528
78	0x3d989c89	0.07451732
79	0x3d133725	0.03594126
80	0x3d0a85b5	0.03381892
81	0x3dd08340	0.10181284
82	0x3c9337e6	0.01797099
83	0xbcfe8a0d	-0.031071687
84	0x3de88e2f	0.11355244
85	0x3ddeb57d	0.1087446
86	0xbd6b86c7	-0.05750158
87	0xbde17537	-0.11008685
88	0x3cf48c72	0.029852126
89	0xbe2436f1	-0.16036583
90	0x3d9859e5	0.07439021
91	0xbd2e7413	-0.042591166
92	0xbd13b7b5	-0.03606387
93	0x3d99e15d	0.07513688
94	0x3dbe07c1	0.09278823
95	0x3aa35a55	0.0012462834
96	0x3dd936b4	0.10606137
97	0x3dbb01ec	0.09131226
98	0xbca8a2a9	-0.020585375
99	0x3b80a1e7	0.0039255503
100	0xbe123cfb	-0.14281075
101	0xbc119977	-0.0088866865
102	0x3ddc8402	0.10767366
103	0x3dc3e4d5	0.095651306
104	0x3dc8f510	0.09812367
105	0xbe12b5ce	-0.14327165
106	0x3da4366b	0.08018192
107	0x3d10044d	0.03516035
108	0xbe05a517	-0.13051258
109	0x3dae9140	0.08523798
110	0xbd5042fa	-0.050845124
111	0x3cb807bb	0.022464624
112	0xbb46bf64	-0.003032648
113	0x3d715eb3	0.058928203
114	0x3c4039ab	0.011732499
115	0xbcccb6e4	-0.024989553
116	0x3db64e7c	0.089016885
117	0xbdfc5720	-0.12321305
118	0xbcf06b97	-0.029348178
119	0x3c6e7509	0.014554271
120	0x3d51e9d7	0.051248398
121	0x3d4ac728	0.049506336
122	0x3e0f51d4	0.13996059
123	0x3dd3ecea	0.10347922
124	0x3d51410d	0.051087428
125	0x3bcc09c6	0.006226751
126	0x3d8705c7	0.06592899
127	0x3db68ae8	0.08913213
128	0x3d8e5b89	0.06951053
129	0xbcf698ec	-0.030102216
130	0xbdc9d257	-0.09854572
131	0x3d51c85f	0.05121648
132	0xbd698873	-0.057014894
133	0x3ccf05e3	0.025271362
134	0x3cc17c7b	0.023618927
135	0x3e07ac66	0.13249359
136	0xbd4e499d	-0.05036317
137	0x3d9d560a	0.07682426
138	0x3de50bf2	0.11183919
139	0xbc649e59	-0.013953769
140	0xb657c200	-3.215042e-06
141	0x3c1c66e2	0.009546014
142	0xbcff6bd2	-0.031179342
143	0xbdf97748	-0.12180954
144	0x3c0db5b7	0.008649281
145	0x3d7d30a8	0.06181398
146	0x3ddee568	0.108835995
147	0x3da3732c	0.07980952
148	0xbd07ca96	-0.033152185
149	0xbdad0344	-0.084478885
150	0xbd2c69fa	-0.042093255
151	0x3dc0e35d	0.09418366
152	0xbe313937	-0.17306982
153	0xbcf5a91a	-0.02998786
154	0xbc3a9d81	-0.011390091
155	0x3d350b88	0.04420045
156	0xbd03a3bf	-0.032138582
157	0xbd617834	-0.055046275
158	0x3ceaf96b	0.028683385
159	0x3d8dba59	0.069203086
160	0xbd4413ae	-0.04787033
161	0xbdb31a5e	-0.087452635
162	0x398e14ec	0.0002709994
163	0xbdc8a48d	-0.097970106
164	0x3d909097	0.07058828
165	0xbb42590c	-0.0029655127
166	0xbc37d7a7	-0.011220849
167	0xbd74041c	-0.05957423
168	0x3ccaf6fc	0.024775974
169	0xbd43b4f1	-0.04777998
170	0x3c2ae65a	0.010430897
171	0xbd39101f	-0.04518139
172	0x3d60b3ac	0.05485885
173	0xbd42061a	-0.0473691
174	0xb96291d6	-0.00021607368
175	0xbd40a3bc	-0.04703115
176	0x3cf8b4a6	0.030359577
177	0xbda431bd	-0.08017299
178	0x3e0f2a06	0.13980874
179	0xbd30cb40	-0.043162584
180	0xbd1a0910	-0.0376063
181	0x3d519881	0.05117083
182	0xbca11f0d	-0.019668126
183	0xbbf37f18	-0.0074309222
184	0x3d56eb2b	0.052470367
185	0x3d7f5a51	0.06234199
186	0xbdac1c2e	-0.08403812
187	0xbdc0c87a	-0.09413238
188	0xbbe7663c	-0.007061748
189	0x3dbdb9fc	0.09263989
190	0xbddbea7a	-0.10738082
191	0x3d00a9d8	0.031411976
192	0x3da13317	0.07871073
193	0x3c8a79e5	0.016903827
194	0x3d5a965b	0.053366046
195	0xbd840149	-0.064455576
196	0x3b777fba	0.003776534
197	0xbc9c1932	-0.019054983
198	0xbdb0461e	-0.08607124
199	0x3d85ed28	0.065393746
200	0x3cbae054	0.022812046
201	0x3c07f171	0.00829731
202	0xbda08673	-0.07838144
203	0x3dad6172	0.08465852
204	0x3ce16b2e	0.027516928
205	0xbd94b62c	-0.07261309
206	0xbd90d693	-0.07072177
207	0xbd44abfb	-0.048015576
208	0xbb2ec233	-0.0026666045
209	0x3d9cc794	0.07655254
210	0x3cc492eb	0.023995837
211	0xbcd938ab	-0.02651628
212	0x3cb94671	0.022616597
213	0xbd37d69c	-0.0448824
214	0xbdbbcd41	-0.091700085
215	0xbe01e73a	-0.12685862
216	0x3d16a57c	0.036778912
217	0xbdfe9cc6	-0.12432246
218	0xbb2532ff	-0.0025207398
219	0x3caa62e5	0.02079911
220	0x3d29d704	0.04146482
221	0xbc68ad27	-0.014201439
222	0x3cb643b7	0.022249086
223	0xbd15205e	-0.03640782
224	0xbc14b974	-0.009077419
225	0x3df0c5b2	0.117564574
226	0xbba97cdf	-0.0051723565
227	0xbd8810c7	-0.06643825
228	0xbd3a2371	-0.045443956
229	0xbca76791	-0.020435126
230	0x3bf3157e	0.0074183336
231	0x3ddddd28	0.10833198
232	0xbd3f41b3	-0.046693515
233	0x3c22dcdb	0.009940351
234	0x3d88d601	0.06681443
235	0x3d1011e6	0.03517332
236	0x3b9b9d99	0.0047490117
237	0x3d68da24	0.05684866
238	0xbcc30738	-0.023807153
239	0x3d081d2c	0.033230945
240	0x3d5e8ae7	0.054331686
241	0xbbddec6a	-0.0067725675
242	0x3db18331	0.08667601
243	0xbda2646c	-0.0792931
244	0xbdd38748	-0.10328537
245	0xbe14db73	-0.14536838
246	0x3d3178c9	0.04332808
247	0xbd994e9e	-0.07485698
248	0x3d60779a	0.05480156
249	0x3ce8ae3a	0.02840339
250	0xbdc4cef2	-0.09609784
251	0xbd84a716	-0.064771816
252	0xbd41191e	-0.047143094
253	0xbd55627f	-0.052095886
254	0x3b181525	0.0023205962
255	0xbbe438ee	-0.0069647944

network.2.bias f4 [128]
0	0xbd8e76e3	-0.069562696
1	0x3d1e394e	0.03862887
2	0xbcabf6aa	-0.020991642
3	0x3d1d5ee4	0.038420573
4	0x3d885136	0.06656115
5	0x3d8361f5	0.06415168
6	0xbd9919fe	-0.07475661
7	0x3d9eb758	0.07749814
8	0xbd34c93c	-0.044137225
9	0xbd665391	-0.05623204
10	0x3dddbfc2	0.108275905
11	0x3dd9c692	0.106335774
12	0x3d9e2993	0.077227734
13	0x3de69d22	0.112604395
14	0xbd4df36f	-0.050280984
15	0xbd80e4ba	-0.06293626
16	0x3c555b98	0.013022326
17	0x3d1909b8	0.037362784
18	0x3ce107d6	0.027469557
19	0x3d9a869f	0.07545208
20	0xbb430bb6	-0.002976162
21	0x3d9ea259	0.07745809
22	0x3b9dcc8a	0.0048156427
23	0xbd899bbe	-0.067191586
24	0xbce7cbce	-0.028295424
25	0x3c813854	0.01577393
26	0x3d9545f4	0.07288733
27	0xbd8bddd1	-0.068294175
28	0xbd98815c	-0.07446548
29	0x3da541ae	0.08069168
30	0x3d97cdfb	0.074123345
31	0x3dec2a18	0.11531466
32	0xbdbdfa2c	-0.09276232
33	0x3ddb410a	0.107057646
34	0x3d7aeaeb	0.06125919
35	0x3dc1133e	0.09427498
36	0x3d295233	0.041338157
37	0x3def0c6b	0.116722904
38	0x3d5e3df8	0.054258317
39	0xbd8dffb9	-0.06933541
40	0xbd9b8814	-0.07594314
41	0xbc926bb9	-0.017873632
42	0x3d179507	0.037007358
43	0xbc656a46	-0.014002388
44	0xbd900501	-0.070322044
45	0x3d9d988a	0.0769511
46	0x3d9f9f63	0.077940725
47	0x3d68429c	0.05670415
48	0x3da87ece	0.08227311
49	0x3cc798de	0.024364885
50	0xbda166ad	-0.07880912
51	0x3d76693c	0.060158953
52	0xbd420e41	-0.047376875
53	0xbd3db066	-0.046310805
54	0x3dbbe816	0.09175126
55	0x3bd54976	0.0065090014
56	0xbd181bfc	-0.037136063
57	0xbc10f6c6	-0.008847898
58	0x3c914b14	0.017735995
59	0x3dbce462	0.09223248
60	0x3d872da4	0.06600502
61	0x3d41bc61	0.047298793
62	0xbbb4b9af	-0.0055152993
63	0xbd8b845f	-0.06812357
64	0xbc312700	-0.010812521
65	0xbd58a968	-0.052895933
66	0x3dbd0c73	0.0923089
67	0xbc4bf37b	-0.012448187
68	0xbd2544e6	-0.04034891
69	0xbcf464e8	-0.029833272
70	0x3db6791f	0.08909821
71	0x3ddddb87	0.10832887
72	0xbd4f8f20	-0.050673604
73	0xbd342e88	-0.04398969
74	0x393d3178	0.00018042873
75	0x3b2bdb62	0.0026223292
76	0xbd563091	-0.05229241
77	0x3d46ec74	0.048565343
78	0xbc7573e9	-0.014981248
79	0x3d31870c	0.04334168
80	0x3dbb21b1	0.091372855
81	0x3d4416f5	0.047873456
82	0x3ddc46f8	0.10755724
83	0xbd74f214	-0.059801176
84	0x3ce16921	0.02751595
85	0x3d7e5bcf	0.062099274
86	0xbd12fd7f	-0.035886284
87	0x3d53d284	0.051714435
88	0xbc9422d9	-0.018083023
89	0xbd1d49cf	-0.038400467
90	0x3cc8d752	0.024516735
91	0xbc941128	-0.018074587
92	0xbcf2e980	-0.029652357
93	0x3caf0480	0.02136445
94	0xbd313ec5	-0.043272752
95	0xbc07e3c5	-0.008294051
96	0x3ca72553	0.02040354
97	0x3d4374b0	0.047718704
98	0xbcb39841	-0.021923186
99	0x3d5d18ee	0.053978853
100	0xbcc39653	-0.023875391
101	0x3da3a6f3	0.079908274
102	0x3bedb4b5	0.007254208
103	0x3c67949b	0.014134551
104	0xbd14a6cf	-0.036291894
105	0xbd4334db	-0.04765783
106	0x3d202f58	0.03910765
107	0x3def6b65	0.11690406
108	0x3db604d6	0.08887641
109	0x3dddc105	0.10827831
110	0xbd6f4129	-0.05841175
111	0x3d3e70f5	0.046494443
112	0x3d840612	0.0644647
113	0x3d108a7b	0.035288315
114	0x3cc7ba94	0.02438096
115	0xbd8a4901	-0.06752206
116	0x3d1b2155	0.037873585
117	0x3d99df26	0.07513265
118	0x3db9be9c	0.09069559
119	0xbd3b64ee	-0.04575055
120	0x3d9c8c77	0.07643979
121	0xbd87b8c9	-0.06627042
122	0x3bb02267	0.005375195
123	0x3df3bce0	0.119012594
124	0xbc979428	-0.018503264
125	0xbd5aaf27	-0.053389695
126	0xbd490e72	-0.04908604
127	0x3d623d1c	0.05523406
