actor_agent0_ep200.pth (torch, 289618 bytes, 10 tensors)

net.0.weight f4 [256, 12]
-0.2069273 -0.29629672 0.061683867 -0.2479836 -0.1696521 -0.14085682 -0.25660068 -0.092727296
0.27672768 -0.022917002 -0.040993467 -0.11380519 0.2205509 -0.10384946 -0.07619736 0.017850647
-0.23033266 -0.26405236 -0.08996756 -0.20663057 -0.14553085 0.06028693 -0.16561827 -0.1265408
-0.2731819 0.16996811 -0.16400354 0.11826508 0.2525961 0.11622902 -0.2194461 0.18144685
-0.009736581 -0.0404812 0.14181554 -0.28564003 -0.18630925 -0.25427794 -0.10341004 -0.25319263
0.19757828 0.17825854 0.27802864 -0.1848412 0.16894817 -0.015623255 -0.04266642 0.16450825
-0.14823394 0.19674724 0.07898151 -0.12219538 -0.2668929 0.2183669 -0.070188835 -0.250916
0.1313893 0.121829465 0.27329594 -0.20912749 0.16177149 0.29036596 0.13712779 0.08817102
-0.1822662 -0.03502114 0.061512895 0.02090519 -0.2405162 -0.058658306 0.13803124 -0.17086199
-0.014884567 -0.24653056 0.10894177 0.1307238 0.25389585 0.09064677 -0.07288471 -0.30378112
0.14976123 -0.26185295 -0.18166009 0.14042589 0.25182876 0.3037686 -0.23637706 0.03541422
-0.24900973 0.2357427 0.28052437 0.029293513 0.12366062 -0.19911689 -0.076187536 -0.14131206
0.23748584 0.2558018 -0.062486887 0.06927638 0.17294754 0.016228264 -0.004628715 0.112587
-0.14683051 -0.2284731 0.22297668 -0.059084743 -0.065560214 -0.0036113695 0.11474681 0.2548506
0.20751986 -0.19600438 0.3071682 -0.10710842 -0.09823977 0.124554284 0.16413704 0.048619926
-0.07703732 -0.28786755 -0.2864193 -0.2753172 -0.11000199 0.19075896 0.006185664 0.18302932
-0.06631495 -0.2818698 0.08890271 -0.07516293 -0.24817482 -0.1171524 -0.13375832 -0.2565341
0.067930855 -0.009937881 0.20929274 -0.12511446 0.14006512 0.22194909 -0.27132085 0.18002036
0.03200174 -0.09458384 0.26787502 0.13143258 0.17210929 -0.10962525 0.0004875116 0.07968111
0.2826505 -0.27559006 -0.24985155 0.09591672 -0.12521642 -0.24455231 0.17337589 0.24902856
-0.19714889 0.051028963 0.20537749 -0.05398286 -0.005390296 0.19130866 -0.1965017 0.16673145
-0.09088352 0.23540437 -0.18676338 0.23696025 0.16301224 0.24472429 0.07685376 0.05136983
0.14008598 -0.030697292 0.01538226 -0.09933077 -0.15622935 0.3093623 0.26533982 0.1524683
0.1320332 0.11357595 -0.1690939 0.15471242 -0.021800203 -0.20736292 0.18621096 0.1884987
0.05112847 -0.10400341 -0.17414926 0.26975772 -0.10362695 0.11458443 -0.041846037 -0.06174563
-0.14944512 -0.2069041 -0.030542314 0.19919884 -0.13324751 -0.15826724 0.13916628 -0.28051746
0.056273226 -0.25023696 -0.14639203 0.23982532 0.22949004 -0.06314896 0.2534144 -0.27797472
-0.031437453 -0.23987892 -0.3049748 0.1781683 0.25631443 -0.08021993 -0.24397467 0.12800701
-0.01956227 0.11362727 0.26744908 0.27955782 -0.16619588 0.21987973 -0.09446387 0.14670388
0.25661924 -0.23584697 0.12266925 0.08187899 -0.08607624 0.24582383 0.0008752942 0.27581698
-0.22656985 0.052149963 0.18153432 -0.11491654 0.08622943 0.09757611 -0.023716476 0.05306764
-0.024818387 0.008003456 -0.2437203 0.15392825 -0.046293005 0.15832283 -0.030273056 0.20211233
00000000: c0e4 53be 34b4 97be 39a8 7c3d 6aef 7dbe
00000010: 48b9 2dbe c53c 10be 2a61 83be cfe7 bdbd
00000020: 40af 8d3e 70bc bbbc c4e8 27bd b212 e9bd
00000030: 18d8 613e 07af d4bd 5d0d 9cbd 853b 923c
00000040: 53dc 6bbe df31 87be e940 b8bd f796 53be
00000050: 0a06 15be 6eef 763d d697 29be e993 01be
00000060: 7fde 8bbe 1f0c 2e3e 8bf0 27be f634 f23d
00000070: 4754 813e 7b09 ee3d 7ab6 60be 34cd 393e
00000080: 2e86 1fbc 9dcf 25bd 1838 113e 693f 92be
00000090: dac7 3ebe b830 82be a5c8 d3bd 77a2 81be
000000a0: f651 4a3e 6889 363e c559 8e3e 0347 3dbe
000000b0: c000 2d3e aef8 7fbc fcc2 2ebd da74 283e
000000c0: a3ca 17be 1c78 493e 0fc1 a13d 9241 fabd
000000d0: 30a6 88be 939b 5f3e 2abf 8fbd 1078 80be
000000e0: eb8a 063e ba81 f93d 72ed 8b3e 8425 56be
000000f0: 6da7 253e d9aa 943e 3a6b 0c3e 0293 b43d
00000100: fea3 3abe 5472 0fbd f2f4 7b3d 5c41 ab3c
00000110: e149 76be b143 70bd 1058 0d3e 72f6 2ebe
00000120: 66de 73bc 8272 7cbe dd1c df3d 76dc 053e
00000130: a3fe 813e 04a5 b93d 9444 95bd 3389 9bbe
00000140: 025b 193e 9711 86be 1a05 3abe cecb 0f3e
00000150: b3ef 803e 8f87 9b3e d40c 72be 800e 113d
00000160: 68fc 7ebe 8966 713e e4a0 8f3e f3f8 ef3c
00000170: c741 fd3d 4ce5 4bbe 3608 9cbd 1cb4 10be
00000180: 7d2f 733e 74f8 823e 40f2 7fbd c6e0 8d3d
00000190: 2919 313e 23f1 843c 7aac 97bb 0394 e63d
000001a0: bd5a 16be daf4 69be 0054 643e d802 72bd
000001b0: 6f44 86bd baac 6cbb 6000 eb3d c77b 823e
000001c0: 1680 543e 5fb5 48be 2645 9d3e a95b dbbd
000001d0: ef31 c9bd 5116 ff3d 8a13 283e b025 473d
000001e0: bec5 9dbd 6063 93be 8da5 92be 60f6 8cbe
000001f0: b948 e1bd 5156 433e 1cb1 ca3b 0a6c 3b3e
00000200: 22d0 87bd 3d51 90be a012 b63d 06ef 99bd
00000210: 8a21 7ebe 99ed efbd f1f7 08be 7058 83be
00000220: 551f 8b3d 7ed2 22bc d650 563e 011e 00be
00000230: 3b6d 0f3e 9f46 633e 91ea 8abe 4257 383e
00000240: 4214 033d 2cb5 c1bd ea26 893e 4396 063e
00000250: 6b3d 303e 3483 e0bd b398 ff39 da2f a33d
00000260: 91b7 903e 241a 8dbe 16d9 7fbe fc6f c43d
00000270: bc38 00be ec6b 7abe 7389 313e 5801 7f3e
00000280: 66e1 49be bf03 513d 7a4e 523e 221d 5dbd
00000290: 15a1 b0bb 6be6 433e be37 49be a6bb 2a3e
000002a0: 2421 babd d80d 713e e63e 3fbe b5a5 723e
000002b0: aeec 263e 0199 7a3e 8165 9d3d 2c69 523d
000002c0: b372 0f3e e378 fbbc e005 7c3c ee6d cbbd
000002d0: 96fa 1fbe bc64 9e3e 9fda 873e a620 1c3e
000002e0: b633 073e 829a e83d f426 2dbe ef6c 1e3e
000002f0: 5796 b2bc f256 54be 16ae 3e3e ce05 413e
00000300: 166c 513d bdff d4bd 2f54 32be af1d 8a3e
00000310: 5e3a d4bd 3eab ea3d c066 2bbd fce8 7cbd
00000320: 2408 19be abde 53be e033 fabc c8fa 4b3e
00000330: 0972 08be cf10 22be 9b81 0e3e fc9f 8fbe
00000340: c17e 663d 0f1f 80be cbe7 15be c594 753e
00000350: 70ff 6a3e 3e54 81bd 88bf 813e b452 8ebe
00000360: 8fc4 00bd d2a2 75be a825 9cbe c071 363e
00000370: a53b 833e 594a a4bd 7fd4 79be 4514 033e
00000380: 0e41 a0bc 6ab5 e83d 16ef 883e 3422 8f3e
00000390: 412f 2abe 2728 613e 4676 c1bd 8b39 163e
000003a0: 9963 833e de81 71be 043a fb3d 2cb0 a73d
000003b0: bd48 b0bd 3eb9 7b3e 0074 653a e237 8d3e
000003c0: ed01 68be 339b 553d 22e4 393e 5d59 ebbd
000003d0: 0e99 b03d fcd5 c73d 0e49 c2bc 745d 593d
000003e0: ee4f cbbc ed20 033c d091 79be 5e9f 1d3e
000003f0: bc9d 3dbd 611f 223e 33ff f7bc 89f6 4e3e

net.0.bias f4 [256]
-0.022516673 0.0028925138 0.119974874 0.00781338 -0.019949587 0.1642191 0.07064216 -0.14092678
0.20960951 -0.03599201 -0.21403761 0.25573772 0.19818105 0.25221518 0.28787997 0.14578855
-0.23584025 0.18921973 -0.22630867 0.17285047 0.21431825 -0.16162872 0.2709518 0.21323492
-0.11718362 -0.07675472 -0.12321482 -0.04801755 -0.10483256 -0.02351475 0.2982112 0.21010065
-0.1957146 -0.105466075 0.01419168 -0.1277613 -0.26591757 -0.17656839 0.051738672 0.056099646
0.016859611 -0.07036418 -0.029602721 -0.24003471 0.22067913 -0.09986612 -0.069196776 0.042209852
0.02991594 0.118562825 0.24035102 -0.29628727 -0.0045961794 0.24900515 -0.1455122 0.18217587
-0.044841655 0.26580852 -0.26482177 -0.22538884 0.24399789 0.010568949 0.2222445 0.24565491
-0.025674878 0.083194524 -0.13285919 0.20122811 0.1632718 0.2134865 0.22400478 0.22281133
-0.035838846 0.10417742 -0.022002796 0.012636558 0.17482331 0.04145587 0.123911604 0.023830274
-0.27457976 0.21520224 0.2742613 -0.19435306 -0.22612074 -0.19609539 -0.007814134 0.0970457
0.26650026 -0.1575752 0.2279501 0.27825305 -0.14265408 -0.060535178 0.14291717 -0.13822556
0.22871757 0.13602237 -0.023968522 0.1794922 -0.045202833 0.1538986 0.17080034 -0.24733664
0.23306338 0.079903804 0.017907573 0.26964903 0.17193615 0.19144887 -0.020647032 0.06024559
0.14792354 -0.227706 0.16868496 -0.2780402 0.059481688 0.22037365 0.03573519 -0.04685236
0.1698624 0.041105635 0.24301416 -0.12177441 0.29116306 -0.14078325 0.010777332 0.2816265
-0.13443272 -0.26641268 0.20273761 0.102854975 -0.030132748 -0.07820005 0.09726101 -0.18175124
-0.14443691 0.23791648 -0.13568391 0.11990419 0.095511936 0.19582714 -0.010129606 0.22858457
0.04798941 0.15988682 -0.21576008 -0.00063612196 0.028468426 -0.24430662 -0.04302851 0.3028825
-0.0030326974 0.2231942 0.0886292 0.053425055 -0.030335078 0.036343064 0.1489162 0.13921256
-0.2581155 -0.079972446 0.216079 -0.07566251 -0.095689826 0.28343314 -0.24576016 -0.12033856
0.12665007 -0.2647502 -0.046975676 0.2711395 -0.12909713 0.14505483 0.13222523 0.15610634
0.19765261 -0.203055 -0.16735569 -0.02771644 -0.14205663 -0.06629255 -0.2559887 -0.0044915606
-0.07972727 0.06438043 -0.14520344 -0.20270422 -0.08315915 0.21701093 -0.04528533 -0.21440381
-0.018204039 -0.2126316 0.18213369 0.18661875 0.26855385 0.24716902 -0.14520197 0.022653505
0.19900401 -0.057410575 -0.013610292 -0.13839102 -0.11591446 0.27613863 0.22183341 0.022541251
0.11618818 0.24355227 -0.22907199 -0.18457177 0.27002537 0.18901451 -0.22815022 -0.2077678
-0.18365702 0.009705827 0.118850395 0.13565758 -0.06138858 -0.1415235 0.09255469 0.24996631
0.30049896 0.19820866 0.024308067 -0.23231032 -0.23576826 -0.11356425 0.11993232 0.115325965
0.095060416 0.11463482 -0.09680797 0.22520725 -0.16313484 0.09709661 0.14373808 0.21757472
-0.31391641 0.2501756 0.084601626 0.09127749 -0.15055794 -0.052348416 0.111756876 0.14413492
0.2561226 -0.28803647 -0.00086573925 0.070436805 -0.2755349 0.13576913 -0.049856417 -0.03974819
00000000: e374 b8bc 5490 3d3b 63b5 f53d b103 003c
00000010: 516d a3bc 0d29 283e d6ac 903d 1c4f 10be
00000020: e0a3 563e 5c6c 13bd ad2c 5bbe 0ef0 823e
00000030: f9ef 4a3e 5922 813e 0165 933e 9849 153e
00000040: 1b80 71be d1c2 413e 76bd 67be b7ff 303e
00000050: 3e76 5b3e 0082 25be 32ba 8a3e 415a 5a3e
00000060: f7fd efbd 9431 9dbd 0d58 fcbd 0dae 44bd
00000070: 74b2 d6bd 01a2 c0bc 23af 983e a024 573e
00000080: 6869 48be 99fe d7bd 3884 683c dcd3 02be
00000090: 5926 88be 58ce 34be eeeb 533d bec8 653d
000000a0: 2b1d 8a3c 181b 90bd 6881 f2bc a9cb 75be
000000b0: b6f9 613e 9c86 ccbd 0ab7 8dbd 3de4 2c3d
000000c0: 4612 f53c 11d1 f23d 941e 763e f7b2 97be
000000d0: 8c9b 96bb 35fb 7e3e 2601 15be 508c 3a3e
000000e0: e2ab 37bd 0e18 883e b896 87be 55cc 66be
000000f0: 95da 793e 6329 2d3c 1094 633e f68c 7b3e
00000100: 1f54 d2bc e461 aa3d 3d0c 08be be0e 4e3e
00000110: b930 273e 349c 5a3e 8261 653e a728 643e
00000120: c1cb 12bd f95a d53d 353f b4bc 9109 4f3c
00000130: e204 333e a1cd 293d 5ec5 fd3d b537 c33c
00000140: b895 8cbe fa5d 5c3e fa6b 8c3e 7d04 47be
00000150: 328c 67be 3bcd 48be da06 00bc e5bf c63d
00000160: b972 883e 655b 21be c06b 693e 2f77 8e3e
00000170: e913 12be bcf3 77bd e158 123e 008b 0dbe
00000180: f034 6a3e 7349 0b3e a259 c4bc cecc 373e
00000190: 9b26 39bd 9897 1d3e 49e6 2e3e d145 7dbe
000001a0: 2ba8 6e3e 9ba4 a33d e7b2 923c 700f 8a3e
000001b0: 0810 303e 2c0b 443e f723 a9bc 14c4 763d
000001c0: 4579 173e c32b 69be c0bb 2c3e 495b 8ebe
000001d0: 12a3 733d a1a9 613e 105f 123d 43e8 3fbd
000001e0: 69f0 2d3e 625e 283d b4d8 783e dd64 f9bd
000001f0: 5313 953e 7c29 10be 6893 303c 5931 903e
00000200: bba8 09be 3e67 88be 739a 4f3e a1a5 d23d
00000210: f4d8 f6bc 5927 a0bd c830 c73d ff1c 3abe
00000220: 45e7 13be 61a0 733e b9f0 0abe 5490 f53d
00000230: c39b c33d e986 483e a6f6 25bc 1312 6a3e
00000240: 8b90 443d 5fb9 233e 36f0 5cbe 6cc1 26ba
00000250: 9e36 e93c 842b 7abe aa3e 30bd 6a13 9b3e
00000260: 38c0 46bb 058d 643e 3a83 b53d 3bd4 5a3d
00000270: 4581 f8bc 77dc 143d 7d7d 183e bd8d 0e3e
00000280: b727 84be 98c8 a3bd d043 5d3e f2f4 9abd
00000290: 07f9 c3bd 261e 913e 8da8 7bbe 1074 f6bd
000002a0: 8eb0 013e 578d 87be 9169 40bd ccd2 8a3e
000002b0: 0a32 04be 4189 143e 0d66 073e 57da 1f3e
000002c0: 7265 4a3e a6ed 4fbe 4a5f 2bbe 960d e3bc
000002d0: 4b77 11be 63c4 87bd f310 83be f12d 93bb
000002e0: 0d48 a3bd e3d9 833d 36b0 14be b291 4fbe
000002f0: 584f aabd 1d38 5e3e 1c7d 39bd ac8c 5bbe
00000300: a320 95bc 19bc 59be 4181 3a3e fc18 3f3e
00000310: e47f 893e e019 7d3e d3af 14be d893 b93c
00000320: b5c7 4b3e 5a27 6bbd b4fd 5ebc 60b6 0dbe
00000330: 8f64 edbd 0b62 8d3e 4c28 633e 6ea8 b83c
00000340: 12f4 ed3d c465 793e d991 6abe 6200 3dbe
00000350: c440 8a3e 058d 413e 36a0 69be 15c1 54be
00000360: 9610 3cbe 3005 1f3c d667 f33d d2e9 0a3e
00000370: 9772 7bbd 89eb 10be 508d bd3d 2bf7 7f3e
00000380: 00db 993e 36f7 4a3e b621 c73c c2e2 6dbe
00000390: 3c6d 71be 6094 e8bd 149f f53d 0530 ec3d
000003a0: 09af c23d a9c5 ea3d 4243 c6bd bb9c 663e
000003b0: d20c 27be 96da c63d 1330 133e e8cb 5e3e
000003c0: a7b9 a0be 0417 803e 9e43 ad3d b1ef ba3d
000003d0: dc2b 1abe 4b6b 56bd cae0 e43d 1b98 133e
000003e0: 8022 833e 8479 93be c7f2 62ba 2c41 903d
000003f0: e912 8dbe 1007 0b3e 3e36 4cbd 00cf 22bd

net.1.weight f4 [256]
1.0667515 1.0007623 1.0004202 0.98793644 0.98768324 0.9760037 0.99434006 1.0350908
1.0054384 1.0091896 1.0789135 0.9840212 0.9910726 0.9895445 0.9925231 1.0098408
1.005771 0.99844795 1.0498925 0.9998995 1.0010827 1.024662 1.0181241 0.996532
0.9699105 1.0637908 1.0076777 1.0558674 0.9984286 1.0045122 1.0176486 1.0181453
1.012361 0.9920732 1.01555 1.0012838 1.0169767 0.9804522 0.99706835 1.0162226
0.9950998 1.0125608 0.9994885 1.0365855 0.9804273 0.9807279 1.0561957 0.99360514
1.0011148 0.99277055 1.0035361 1.026175 0.98998463 1.0356042 0.9976186 0.989856
1.0079292 0.9863794 1.064867 1.0207298 0.98992217 1.0025905 0.98501027 0.9824111
0.97502863 0.9998412 1.0177019 0.9978772 0.9918943 0.9860722 1.0027413 0.9872815
1.0177042 0.9834836 0.99391526 1.0469006 0.9880499 0.99273777 1.0009587 0.9948421
1.0214062 0.974822 0.9873058 1.0330913 1.0271667 1.0123695 1.0050931 0.9775135
0.99190056 1.0224515 0.98424774 0.98665005 0.9848502 1.0376965 0.9895515 1.0015303
0.9825582 0.9872649 0.99695885 0.99221736 1.06034 1.0109297 1.0029424 1.0692931
0.9888117 0.99425083 1.0496377 0.9955576 1.0184765 1.0048153 1.031882 0.991386
0.98948944 1.0084895 0.99800944 0.9940345 1.0029294 0.9614287 0.9979976 1.0313627
1.0023793 0.9888013 0.9959631 1.0678027 0.99326 1.0224781 0.9930033 0.99163264
1.021493 1.0205568 0.9997555 1.000954 0.9773887 0.9976483 0.9938223 1.0213308
1.0220519 0.9975053 1.0103577 0.9798286 1.0264373 0.9881668 0.99611855 0.9974341
0.9843157 0.991424 1.0395411 1.0129312 0.987525 1.0326006 1.0040395 1.0168056
1.0084661 0.9871519 0.9994652 1.0534725 0.98184866 1.0102682 0.9870399 0.996486
1.0263535 1.0029554 0.9975617 0.9786272 0.9643738 0.997813 1.0162238 1.0063703
1.000795 1.0123147 1.0232227 0.9622013 1.0096307 0.96941715 0.97136045 0.9849708
1.0038154 1.0315666 1.0322725 0.99181604 0.99275845 0.99829835 1.0283974 0.98096544
1.0447081 1.0318087 1.0188632 1.0009525 0.99400586 0.96561587 0.9951444 1.0035545
0.984314 1.0122988 0.99076235 0.9923412 0.9963324 0.98768616 1.0170287 1.0145526
0.99480397 1.0174849 0.9955336 1.0001074 0.9897174 1.015951 0.9965276 0.98865837
0.9862805 1.0080032 1.0242703 1.065341 1.0018612 0.9841661 0.9869615 1.0027659
1.0281379 0.9770584 0.9950398 0.9957296 0.995688 1.0204768 1.0013193 1.0057184
0.9917724 1.0157391 1.0033493 1.0020298 1.0695412 1.0027668 0.9942539 0.999154
1.0164181 0.9994313 1.0180675 0.9824318 1.0160594 0.9810886 0.9852567 1.00394
1.0218669 0.99239963 0.99769324 0.9926282 0.97210395 0.9948249 0.99763864 1.0088464
0.99326265 1.0265115 1.0474561 1.0033239 0.97828174 1.0119648 1.0063814 1.0046681
00000000: 508b 883f fb18 803f c50d 803f 67e9 7c3f
00000010: cfd8 7c3f 61db 793f 128d 7e3f db7d 843f
00000020: 35b2 803f 202d 813f d619 8a3f d0e8 7b3f
00000030: efb6 7d3f ca52 7d3f fe15 7e3f 7742 813f
00000040: 1bbd 803f 499a 7f3f e162 863f 6af9 7f3f
00000050: 7a23 803f 2028 833f e451 823f b91c 7f3f
00000060: 0e4c 783f 4c2a 883f 95fb 803f aa26 873f
00000070: 0499 7f3f db93 803f 4f42 823f 9652 823f
00000080: 0c95 813f 82f8 7d3f 8bfd 813f 112a 803f
00000090: 4b2c 823f eafe 7a3f df3f 7f3f 9513 823f
000000a0: dcbe 7e3f 989b 813f 7ade 7f3f d5ae 843f
000000b0: 49fd 7a3f fc10 7b3f 6c31 873f e85c 7e3f
000000c0: 8824 803f 3626 7e3f df73 803f b459 833f
000000d0: a26f 7d3f ae8e 843f ef63 7f3f 3467 7d3f
000000e0: d303 813f 5c83 7c3f 904d 883f 46a7 823f
000000f0: 8a6b 7d3f e354 803f a229 7c3f 4b7f 7b3f
00000100: 7a9b 793f 98f5 7f3f 0e44 823f e174 7f3f
00000110: c9ec 7d3f 3a6f 7c3f d459 803f 7bbe 7c3f
00000120: 2244 823f 95c5 7b3f 3b71 7e3f d700 863f
00000130: d7f0 7c3f 1024 7e3f 6a1f 803f f9ad 7e3f
00000140: 70bd 823f ef8d 793f 13c0 7c3f 563c 843f
00000150: 337a 833f 5395 813f e4a6 803f 533e 7a3f
00000160: 32ed 7d3f b1df 823f a9f7 7b3f 1995 7c3f
00000170: 251f 7c3f 3dd3 843f 3f53 7d3f 2532 803f
00000180: ef88 7b3f 64bd 7c3f b238 7f3f f501 7e3f
00000190: 39b9 873f 2566 813f 6b60 803f 99de 883f
000001a0: c322 7d3f 3987 7e3f 875a 863f dddc 7e3f
000001b0: 705d 823f ca9d 803f b614 843f 79cb 7d3f
000001c0: 2e4f 7d3f 2f16 813f 8c7d 7f3f 0c79 7e3f
000001d0: fe5f 803f 3120 763f c57c 7f3f b103 843f
000001e0: f74d 803f 1522 7d3f 70f7 7e3f c2ad 883f
000001f0: 4a46 7e3f 90e0 823f 7735 7e3f a3db 7d3f
00000200: 48c0 823f 9ba1 823f faef 7f3f 431f 803f
00000210: 2536 7a3f e165 7f3f 236b 7e3f f8ba 823f
00000220: 99d2 823f 825c 7f3f 6753 813f 0cd6 7a3f
00000230: 4c62 833f 80f8 7c3f a001 7f3f d757 7f3f
00000240: 1dfc 7b3f f7cd 7d3f af0f 853f bba7 813f
00000250: 70ce 7c3f 422c 843f 5e84 803f b026 823f
00000260: 6b15 813f fdb5 7c3f f4dc 7f3f 30d8 863f
00000270: 6f5a 7b3f 7850 813f a6ae 7c3f b519 7f3f
00000280: 8d5f 833f d860 803f 3460 7f3f 5087 7a3f
00000290: 34e1 763f ac70 7f3f 9f13 823f bed0 803f
000002a0: 0d1a 803f 8793 813f f6f8 823f d352 763f
000002b0: 943b 813f b92b 783f 14ab 783f 0c27 7c3f
000002c0: 067d 803f 600a 843f 8121 843f a8e7 7d3f
000002d0: 6b25 7e3f 7b90 7f3f 87a2 833f 8d20 7b3f
000002e0: ffb8 853f 4f12 843f 1c6a 823f 361f 803f
000002f0: 2b77 7e3f 9a32 773f c9c1 7e3f 7974 803f
00000300: 01fc 7b3f 0293 813f 9aa2 7d3f 130a 7e3f
00000310: a40f 7f3f 00d9 7c3f ff2d 823f dcdc 813f
00000320: 79ab 7e3f f23c 823f 4adb 7e3f 8503 803f
00000330: 1f5e 7d3f af0a 823f 6f1c 7f3f b718 7d3f
00000340: e17c 7c3f 4006 813f 4a1b 833f 185d 883f
00000350: fd3c 803f 4ff2 7b3f 82a9 7c3f a25a 803f
00000360: 069a 833f 8020 7a3f eeba 7e3f 23e8 7e3f
00000370: 69e5 7e3f fc9e 823f 3b2b 803f 61bb 803f
00000380: cce4 7d3f bd03 823f c06d 803f 8342 803f
00000390: bae6 883f aa5a 803f 6c87 7e3f 8ec8 7f3f
000003a0: fd19 823f bbda 7f3f 0950 823f a780 7b3f
000003b0: 3c0e 823f 9f28 7b3f c839 7c3f 1b81 803f
000003c0: 89cc 823f e70d 7e3f d368 7f3f e21c 7e3f
000003d0: cedb 783f d8ac 7e3f 3f65 7f3f e121 813f
000003e0: 7646 7e3f bb64 833f 0b13 863f eb6c 803f
000003f0: ac70 7a3f 1088 813f 1bd1 803f f798 803f

net.1.bias f4 [256]
0.038876545 -0.0019248575 -0.011850817 -0.014192955 -0.005047541 -0.017269555 -0.022986477 -0.013396493
0.002891275 0.009024989 0.03193328 -0.011632956 -0.00488101 -0.013333284 -0.0042299284 0.006041318
-0.0037722734 -0.008475433 0.035790995 -0.01746882 -0.0054762345 0.009798684 0.009019196 -0.0023447357
-0.0063024317 0.04535362 0.01321147 0.032011874 -0.0073778434 0.028294167 0.01456569 -0.016149312
0.0107758315 -0.030020302 -0.0013949821 -0.012376638 0.006588038 -0.009536909 -0.016345052 -0.0065429267
-0.014550171 0.004138271 -0.008341026 0.019156879 -0.0044842074 -0.0066024438 0.0218454 0.009021487
-0.009282145 0.0022140893 -0.005619299 -0.003434183 -0.006004357 0.015427402 -0.003395863 -0.0017231012
0.0052146367 -0.00919856 0.019669507 0.0035881095 -0.003313175 0.002019878 -0.005448049 -0.013232882
-0.006152333 -0.0056048385 0.025702648 -0.023542281 0.014519753 -0.009679968 -0.008619792 -0.012014338
-0.006380507 -0.009954809 0.009041571 0.0053007905 -0.005723136 -0.012254437 -0.014383494 0.011795142
0.014311351 -6.982096e-05 -0.014678331 0.025477292 0.031250473 0.0057187025 0.0065186527 -0.0059884377
-0.0050845733 0.019149197 -0.012216495 -0.00940162 -0.012599666 0.010412406 -0.0077637266 -0.020687675
-0.009801525 -0.011150422 -0.014873195 -0.007124184 0.025968267 0.020595893 0.00893219 0.040101767
0.0017082562 -0.0110605 0.025650946 -0.00036303935 0.008819099 0.0039916425 0.033462096 0.0039356756
-0.005339297 0.007320145 0.007298689 -0.000714062 0.0074463924 -0.019695882 0.011542543 0.0016829183
0.0011775048 0.0032286018 -0.01132598 0.04817782 -0.0072370134 0.03293747 0.004408016 -0.003527463
0.034496363 0.01104091 -0.010456651 -0.00027745366 -0.0016984025 -0.014125505 -0.016729752 0.030813588
0.005691347 0.016004646 0.009578577 -0.012600095 0.025968293 -0.00966362 0.009825408 -0.0089871455
-0.0054846737 0.0013397228 0.03921377 0.0018617455 -0.0036994796 0.010332363 0.0056204344 0.006564238
0.01538857 -0.005784811 -0.009284241 0.0029487903 -0.026694983 0.0035103455 -0.015928766 -0.009247145
0.021375198 -0.0053813583 -0.017496912 -0.01171756 -0.022337506 0.0014321947 0.0027294557 0.011545582
-0.00013890272 0.003919576 0.026640732 -0.0042945305 0.01479181 -0.014554643 -0.014612617 -0.010448328
-0.011330035 0.006462497 0.012001503 -0.004667915 0.017262168 0.018897802 0.018363269 -0.013856637
0.015175851 0.010596952 0.023384636 0.001647689 0.0049108234 -0.021636805 -0.0025987313 0.008376567
-0.008307404 0.006501575 -0.00917367 -0.022450803 -0.002546194 0.00033192927 0.00026649944 0.0044180998
-0.0021703292 0.012742986 -0.010610626 0.010820316 0.0074209007 -0.006684424 -0.004013144 -0.022460626
-0.015029866 0.011151065 0.034733806 0.059440948 -0.01151547 -0.0015452792 -0.014894436 0.0024006683
0.016548248 -0.012837673 -0.015972657 -0.0027058427 -0.0109690465 0.02607607 -0.0037258645 -0.007212515
-0.0024466692 0.008600014 0.0018679819 0.007750867 0.05844945 0.003267197 0.0123636145 -0.010056079
-0.0011971634 0.0036217724 0.0018913146 -0.004447525 0.0064754523 -0.011215693 -0.008628717 0.0049439156
-0.02133252 -0.012582813 0.0017826139 0.006111389 -0.022515811 0.006950653 -0.0018753044 0.0020313875
-0.0018090978 0.00026042658 0.010038441 -0.0012100278 -0.0050947936 -0.0007933683 0.002701656 0.0028203442
00000000: 033d 1f3d 804b fcba ee29 42bc 9189 68bc
00000010: d865 a5bb e278 8dbc 234e bcbc f77c 5bbc
00000020: 8c7b 3d3b 8cdd 133c 79cc 023d 2798 3ebc
00000030: e1f0 9fbb d973 5abc 369b 8abb 40f6 c53b
00000040: 3f38 77bb 8bdc 0abc 9499 123d c51a 8fbc
00000050: fc71 b3bb a98a 203c 40c5 133c 23aa 19bb
00000060: a184 cebb b8c4 393d ec74 583c e21e 033d
00000070: d6c1 f1bb 2bc9 e73c efa4 6e3c 904b 84bc
00000080: 1d8d 303c 23ed f5bc d5d7 b6ba 62c7 4abc
00000090: 78e0 d73b b240 1cbc 0fe6 85bc 0c66 d6bb
000000a0: d763 6ebc 559a 873b cca8 08bc e3ee 9c3c
000000b0: 42f0 92bb 5059 d8bb 20f5 b23c dcce 133c
000000c0: 2314 18bc 411a 113b 1922 b8bb 0810 61bb
000000d0: 32c0 c4bb 37c3 7c3c 218d 5ebb afd9 e1ba
000000e0: 8bdf aa3b 8fb5 16bc f221 a13c 7d26 6b3b
000000f0: da21 59bb ee5f 043b 8c85 b2bb bbce 58bc
00000100: 8399 c9bb cba8 b7bb 5c8e d23c bedb c0bc
00000110: 42e4 6d3c ba98 1ebc 073a 0dbc c9d7 44bc
00000120: 9213 d1bb 7f19 23bc 1923 143c 41b2 ad3b
00000130: 2589 bbbb d6c6 48bc bfa8 6bbc 6940 413c
00000140: 287a 6a3c d86c 92b8 627d 70bc c1b5 d03c
00000150: 7f00 003d f463 bb3b 6c9a d53b a83a c4bb
00000160: 7e9c a6bb c7de 9c3c b227 48bc 4109 1abc
00000170: d46e 4ebc cc98 2a3c dc66 febb 3379 a9bc
00000180: 9396 20bc 42b0 36bc b4ae 73bc fd71 e9bb
00000190: 67bb d43c b8b8 a83c 5258 123c c041 243d
000001a0: 91e7 df3a 1937 35bc ef21 d23c 5156 beb9
000001b0: fb7d 103c 53cc 823b 8d0f 093d d7f6 803b
000001c0: 45f5 aebb d4dd ef3b d729 ef3b e42f 3bba
000001d0: de00 f43b 4259 a1bc ef1c 3d3c 5e95 dc3a
000001e0: 8156 9a3a f396 533b 9a90 39bc 1b56 453d
000001f0: 7824 edbb 71e9 063d 1e71 903b 022d 67bb
00000200: 0f4c 0d3d efe4 343c 6052 2bbc 3377 91b9
00000210: ee9c deba aa6e 67bc d50c 89bc c76c fc3c
00000220: 7b7e ba3b 2d1c 833c 77ef 1c3c a170 4ebc
00000230: 75bb d43c 2954 1ebc c0fa 203c d23e 13bc
00000240: c7b8 b3bb a399 af3a 9e9e 203d d005 f43a
00000250: f872 72bb 1249 293c 9f2b b83b d218 d73b
00000260: 5720 7c3c 838e bdbb ee1c 18bc 7e40 413b
00000270: 70af dabc d30d 663b 0b7d 82bc 5681 17bc
00000280: 0a1b af3c 1b56 b0bb af55 8fbc 02fb 3fbc
00000290: 25fd b6bc 7bb8 bb3a abe0 323b ae29 3d3c
000002a0: 6aa6 11b9 c96f 803b aa3d da3c 22b9 8cbb
000002b0: 5959 723c 9976 6ebc c269 6fbc 772f 2bbc
000002c0: 9ca1 39bc 5bc3 d33b f4a1 443c 4ff5 98bb
000002d0: 6469 8d3c 90cf 9a3c 916e 963c f306 63bc
000002e0: 22a4 783c d79e 2d3c 2391 bf3c 45f7 d73a
000002f0: f9ea a03b ab3f b1bc 7a4f 2abb de3d 093c
00000300: c71b 08bc 2a0b d53b 294d 16bc bfea b7bc
00000310: 0cde 26bb cb06 ae39 f3b8 8b39 b5c5 903b
00000320: 153c 0ebb f5c7 503c 31d8 2dbc b247 313c
00000330: 072b f33b 0309 dbbb b180 83bb 59ff b7bc
00000340: d43f 76bc f5b2 363c 0945 0e3d 5a78 733d
00000350: 62ab 3cbc f78a caba cb07 74bc 8854 1d3b
00000360: 3190 873c 1a55 52bc 17d9 82bc 8254 31bb
00000370: 84b7 33bc 7b9d d53c a22d 74bb f656 ecbb
00000380: 4c58 20bb 13e7 0c3c 12d7 f43a fcfa fd3b
00000390: b168 6f3d 781e 563b c290 4a3c 41c2 24bc
000003a0: 23ea 9cba 425b 6d3b fde5 f73a 8bbc 91bb
000003b0: 0830 d43b 07c2 37bc 765f 0dbc 9200 a23b
000003c0: 89c1 aebc 2528 4ebc 99a6 e93a 0c42 c83b
000003d0: 1473 b8bc 4ec2 e33b c6cc f5ba 0721 053b
000003e0: 401f edba dd89 8839 4678 243c cc99 9eba
000003f0: 3af2 a6bb 0cfa 4fba 440e 313b 86d5 383b

net.3.weight f4 [256, 256]
-0.034872074 -0.030260693 0.010411601 0.05556414 0.0005835586 -0.029657628 0.032205317 -0.02374948
0.023135941 0.020701589 -0.07579243 0.008678591 0.018228557 -0.02399342 0.031984746 0.053991217
-0.020321924 0.03556324 -0.07656346 -0.010271528 -0.027140917 -0.011545377 0.0019950313 0.057182454
-0.010301849 -0.033555344 -0.054534785 -0.05182479 0.025271649 0.025823232 0.0469459 0.028245617
0.048317075 0.024580974 -0.032073688 -0.037153684 0.030834263 -0.018780963 0.008746561 -0.076712884
0.073054254 0.05281616 0.021240862 -0.079675384 0.06370479 0.05227532 0.030995522 0.00753552
-0.0540293 0.019857708 0.0025467528 -0.035981536 0.024327936 -0.020445805 0.007346808 0.009760389
0.005002134 -0.0010513084 0.036454633 -0.062332235 0.018631691 0.046422627 -0.06283682 -0.0013474375
-0.027119093 0.03992399 -0.015109683 -0.050977115 -0.021565877 -0.04757604 0.01123018 0.05459793
-0.047372226 -0.016929846 0.019154916 0.016180178 -0.051889393 0.023117833 0.018609393 0.061771408
0.07469473 0.05636501 -0.010601868 -0.07794285 -0.0017150131 0.07491015 0.012365576 0.04264063
0.05159979 -0.061241657 0.022504615 0.0056802835 -0.041724622 -0.028333236 -0.030961879 -0.013259971
-0.045731872 0.037146382 0.0294763 0.0206977 -0.03423107 0.025917562 -0.04243967 -0.10060661
0.010104439 -0.057143748 -0.05134366 0.0013435868 0.03928491 -0.019219337 -0.061186325 -0.03420526
-0.033940043 0.0055103153 -0.007503445 -0.06275243 0.045056686 0.018900502 -0.011419049 -0.038796
-0.028180355 0.010660448 0.04139363 -0.07303547 -0.01842364 0.006213196 0.00443118 -0.0064718886
-0.014250218 0.05289272 0.02311481 0.0031138042 -0.054559756 -0.019064052 -0.048422325 -0.0007811033
-0.05991359 0.059052046 -0.08291811 0.014606232 0.052061554 -0.038317725 -0.007164281 0.0034916617
0.07365658 0.05494742 0.015884005 0.029608764 0.021557627 -0.043546896 -0.015574541 -0.0437426
0.026874576 -0.014968141 -0.014284371 -0.0142275905 0.046007726 0.043612752 0.009563795 0.04050485
-0.040929463 0.015208076 0.013695739 -0.037246097 -0.013687586 -0.011212583 -0.023263838 0.02289501
-0.030995082 -0.011965231 -0.06304107 -0.038921166 -0.062053405 0.04924266 0.012513857 -0.042605177
0.049948238 0.025214903 -0.031554766 0.032346305 -0.0123804035 -0.051173106 -0.03956628 -0.021708472
0.0053836145 0.052679125 0.0440523 -0.023353672 0.03491731 0.025532942 0.056003824 0.005750359
-0.066062376 -0.04160472 0.02531857 0.04150686 0.05434496 0.0046677045 -0.019384023 0.030786714
0.055881456 -0.07629592 0.011752358 -0.02165901 0.04625942 0.052906755 0.064466834 -0.01809947
-0.030161059 -0.0019276643 0.005611273 -0.04552202 0.044079643 -0.026868 -0.009705292 -0.028895529
0.010760349 -0.03286467 0.05724726 -0.0017858831 -0.032572296 -0.005758474 -0.0046678497 -0.034124814
0.05142465 -0.06710465 0.035915047 0.03809909 0.030181613 -0.065318175 -0.02753868 -0.055711504
0.018595068 0.077189565 0.030732168 -0.00585675 0.019604104 -0.041777838 0.0017623999 -0.028554486
0.024715664 0.0503545 0.04769569 0.035164446 0.06651188 -0.04890899 0.06809756 0.030761905
0.034740064 -0.0041468353 -0.01602648 -0.012733109 -0.046411738 -0.05062296 0.02580919 0.023869855
00000000: 05d6 0ebd 46e5 f7bc 6b95 2a3c 3997 633d
00000010: f4f9 183a 8ef4 f2bc b9e9 033d 458e c2bc
00000020: 9687 bd3c 6196 a93c 1039 9bbd a630 0e3c
00000030: 0e54 953c d98d c4bc 7002 033d e525 5d3d
00000040: 2a7a a6bc c3aa 113d 4ecd 9cbd e949 28bc
00000050: a156 debc d228 3dbc 12bf 023b 2638 6a3d
00000060: 16c9 28bc 5471 09bd de5f 5fbd 3b46 54bd
00000070: 7d06 cf3c 3e8b d33c 584a 403d 5a63 e73c
00000080: 20e8 453d 0a5e c93c b35f 03bd 762e 18bd
00000090: 2398 fc3c 89da 99bc bc4d 0f3c a51b 9dbd
000000a0: 789d 953d c255 583d 5101 ae3c d92c a3bd
000000b0: a877 823d a51e 563d 52ea fd3c 86ec f63b
000000c0: d44d 5dbd a2ac a23c 6ce7 263b 6061 13bd
000000d0: 614b c73c f67d a7bc 7ebd f03b 0aea 1f3c
000000e0: f1e8 a33b 0ecc 89ba 7451 153d 1650 7fbd
000000f0: 7da1 983c a725 3e3d 97b0 80bd 809c b0ba
00000100: dc28 debc 5687 233d 9b8e 77bc 61cd 50bd
00000110: ecaa b0bc 18df 42bd cafe 373c 14a2 5f3d
00000120: 6109 42bd 76b0 8abc c5ea 9c3c 4b8c 843c
00000130: f989 54bd 9c61 bd3c ba72 983c 0404 7d3d
00000140: 8df9 983d ffde 663d 75b3 2dbc 80a0 9fbd
00000150: 4aca e0ba 7e6a 993d fc98 4a3c f1a7 2e3d
00000160: 4d5a 533d 88d8 7abd 995b b83c ac21 ba3b
00000170: 70e7 2abd 1a1b e8bc c4a3 fdbc 5940 59bc
00000180: 5851 3bbd ce26 183d 4878 f13c 398e a93c
00000190: e135 0cbd 1151 d43c 38d5 2dbd d70a cebd
000001a0: 178d 253c 900f 6abd bb4d 52bd 4b1b b03a
000001b0: 37e9 203d df71 9dbc 839e 7abd d11a 0cbd
000001c0: b704 0bbd e08f b43b 75df f5bb 5984 80bd
000001d0: 5c8d 383d 3ad5 9a3c f716 3bbc 8ee8 1ebd
000001e0: 7dda e6bc 29a9 2e3c 5e8c 293d 9f93 95bd
000001f0: 2ced 96bc 1198 cb3b 6f33 913b 2312 d4bb
00000200: bf79 69bc 09a6 583d 455b bd3c f710 4c3b
00000210: 0d7a 5fbd 372c 9cbc 7d56 46bd f5c2 4cba
00000220: f467 75bd 8fe0 713d f8d0 a9bd fa4e 6f3c
00000230: 7f3e 553d 0cf3 1cbd 58c2 eabb 5dd4 643b
00000240: 43d9 963d 8c10 613d 2c1f 823c 148e f23c
00000250: 9f99 b03c 3b5e 32bd 5c2c 7fbc 712b 33bd
00000260: 1228 dc3c ef3c 75bc ff08 6abc d71a 69bc
00000270: 9972 3c3d 49a3 323d 77b1 1c3c 6ae8 253d
00000280: a7a5 27bd 4b2b 793c 1864 603c 5d8f 18bd
00000290: e641 60bc fbb4 37bc ce93 bebc 518e bb3c
000002a0: 66e9 fdbc d109 44bc ad1b 81bd cd6b 1fbd
000002b0: b62b 7ebd acb2 493d ec06 4d3c c482 2ebd
000002c0: 8696 4c3d 7c8f ce3c 923f 01bd 8f7d 043d
000002d0: 2dd7 4abc e49a 51bd 4010 22bd f7d5 b1bc
000002e0: 0869 b03b 11c6 573d 2f70 343d 3350 bfbc
000002f0: 7405 0f3d 762a d13c 4464 653d 826d bc3b
00000300: b64b 87bd b669 2abd e468 cf3c 1903 2a3d
00000310: d298 5e3d 8bf3 983b 3ecb 9ebc 6b34 fc3c
00000320: f4e3 643d 0941 9cbd f68c 403c 3c6e b1bc
00000330: 857a 3d3d c1b4 583d 3007 843d 5745 94bc
00000340: 5314 f7bc aea9 fcba c5de b73b 4c75 3abd
00000350: db8c 343d 481a dcbc f202 1fbc 51b6 ecbc
00000360: 2d4c 303c 1b9d 06bd 1a7c 6a3d 4b14 eaba
00000370: 876a 05bd 95b1 bcbb c3f4 98bb 76c6 0bbd
00000380: a7a2 523d 2a6e 89bd a81b 133d cb0d 1c3d
00000390: 6e3f f73c 89c5 85bd cc98 e1bc bf31 64bd
000003a0: af54 983c 9015 9e3d 07c2 fb3c fbe9 bfbb
000003b0: c998 a03c 3d1f 2bbd 5400 e73a 19eb e9bc
000003c0: 8178 ca3c 8540 4e3d 8e5c 433d 9808 103d
000003d0: 6137 883d cb54 48bd bc76 8b3d 6400 fc3c
000003e0: 994b 0e3d 2de2 87bb f749 83bc 889e 50bc
000003f0: 3c1a 3ebd 055a 4fbd cb6d d33c b78a c33c

net.3.bias f4 [256]
0.0120581705 0.003385889 0.06016842 -0.0005580585 0.01484565 0.026702095 -0.0032875175 0.06949127
-0.023184985 -0.028906876 0.05291857 -0.008698241 -0.0046363114 0.027162349 -0.021547375 -0.013562408
-0.04430405 0.003698832 0.042658843 -0.019508885 -0.031575534 0.05420222 -0.03257225 0.057577465
0.05706814 -0.012752257 0.018366063 0.02558958 0.015535286 0.04636076 0.0036363057 0.029145429
0.045780025 0.029166933 -0.023679297 -0.05502361 -0.032570064 -0.03480113 0.016127877 -0.051311184
-0.04775992 0.059170004 0.038802 -0.02177898 -0.050972346 0.048965104 0.022189088 -0.025377817
0.046782475 -0.025663804 -0.050220177 0.036475275 0.017586242 0.035923894 0.029485885 -0.033149745
-0.04891079 -0.003074285 -0.037286293 -0.013558479 -0.05308611 0.018252188 -0.011349271 -0.04462399
-0.025391683 -0.032804046 0.03636678 0.060070787 -0.027100457 -0.008553969 0.040157814 -0.0018385705
0.0056311446 -0.0031208936 -0.05616031 -0.005955495 0.05025071 0.040874675 0.0016182428 0.029989032
0.044232182 -0.025183013 -0.044630334 0.03769839 -0.03579525 0.0093540475 -0.015618219 0.0039608814
-0.0071678194 0.04901765 0.07061797 -0.05146974 -0.032018542 0.023584187 -0.009557448 -0.007335332
0.044650644 -0.042973954 0.04242467 -0.039759416 0.00063133467 -0.041132353 0.0057705157 0.012845756
0.055983607 0.0062022554 0.017212274 0.033524357 0.029791964 0.04174093 0.05727786 -0.026857585
-0.03156486 0.03748231 0.033962663 -0.0059619825 -0.020268241 -0.020107245 0.042141177 0.03040384
0.016407609 -0.010696453 0.017511956 -0.025061961 0.039950125 -0.008552985 0.06331565 0.019406073
-0.05252486 0.0053415303 -0.011330827 -0.05798123 -0.0036304756 0.035087306 -0.066185445 0.044538993
0.03640501 -0.033473443 -0.035060316 0.053730153 -0.033715237 0.04931351 -0.047061857 -0.038328826
0.06579468 -0.015902668 0.05185652 0.052626714 -0.036476236 0.047761053 -0.027841704 -0.04818087
-0.028828582 0.054718755 -0.024028413 0.045093503 -0.018705029 -0.027502557 0.0074562794 0.035120055
-0.012455426 -0.048946623 -0.04288402 -0.045439504 0.05497358 0.032434676 -0.028862974 -3.1751486e-05
-0.01291499 -0.03700894 -0.023356654 0.043595314 0.027530888 0.04876757 0.010267056 -0.037737682
-0.061817467 -0.014565822 0.019940857 -0.01088035 -0.0445982 0.014579663 -0.041419636 0.03513616
0.05624091 0.056405734 -0.03641959 0.027621755 0.028357118 -0.0003699504 0.04537093 0.025044492
-0.058630068 -0.029512612 -0.03217323 -0.0069583934 0.00933108 -0.012124879 0.027453925 -0.044925977
-0.04740788 0.045750417 0.020954048 -0.018429423 -0.024651187 -0.004368363 -0.009053189 0.03401559
-0.054312095 0.0044894 -0.00090433133 -0.039581086 0.03493235 0.022699248 0.008852948 0.0075827567
0.052850842 0.0050639627 0.018909639 -0.04753034 -0.020802038 0.020055328 0.0072634234 -0.049940847
-0.015736047 -0.025069777 0.044671096 0.008971307 0.024328854 0.04340016 0.007825166 -0.037345186
0.06111556 -0.016063156 -0.008835208 -0.033952504 0.0064488635 0.03329605 0.061202906 0.043941397
-0.016397031 0.036273334 0.009578051 0.06422409 0.05883299 -0.028304217 -0.03066438 0.003222215
-0.04380165 0.058760654 0.014119232 0.016507147 0.027415635 0.025118297 -0.027148664 -0.021163458
00000000: a28f 453c cbe5 5d3b 2973 763d ac4a 12ba
00000010: 2b3b 733c 5abe da3c 6473 57bb 7051 8e3d
00000020: 70ee bdbc 1dce ecbc 24c1 583d 1183 0ebc
00000030: 33ec 97bb 9383 de3c 1f84 b0bc dd34 5ebc
00000040: 2a78 35bd 1a68 723b 0abb 2e3d 19d1 9fbc
00000050: 5955 01bd 2603 5e3d 7b6a 05bd 59d6 6b3d
00000060: 48c0 693d d8ee 50bc 6d74 963c 3da1 d13c
00000070: b687 7e3c c8e4 3d3d 164f 6e3b 65c2 ee3c
00000080: d683 3b3d 7eef ee3c 16fb c1bc 7060 61bd
00000090: 3068 05bd a18b 0ebd 9c1e 843c ad2b 52bd
000000a0: e89f 43bd 3f5c 723d d9ee 1e3d d569 b2bc
000000b0: 61c8 50bd a28f 483d e4c5 b53c 24e5 cfbc
000000c0: fb9e 3f3d e63c d2bc acb3 4dbd 1967 153d
000000d0: 0611 903c ef24 133d 628c f13c 07c8 07bd
000000e0: ae56 48bd f279 49bb 83b9 18bd 6224 5ebc
000000f0: d270 59bd 9d85 953c 4bf2 39bc a5c7 36bd
00000100: 3802 d0bc 895d 06bd 55f5 143d c90c 763d
00000110: c701 debc f225 0cbc 857c 243d 30fc f0ba
00000120: 7785 b83b e887 4cbb 5a08 66bd 5026 c3bb
00000130: b0d3 4d3d 346c 273d 381b d43a 8fab f53c
00000140: ce2c 353d 9b4c cebc 4cce 36bd a169 1a3d
00000150: 0a9e 12bd b841 193c 8fe3 7fbc 48ca 813b
00000160: 07e0 eabb bbc6 483d 27a0 903d efd1 52bd
00000170: e025 03bd a033 c13c d896 1cbc 3a5d f0bb
00000180: 98e3 363d 7505 30bd 7ec5 2d3d c5da 22bd
00000190: 2780 253a 667a 28bd 9816 bd3b 0177 523c
000001a0: 114f 653d 4a3c cb3b c100 8d3c d650 093d
000001b0: 470e f43c 8af8 2a3d 309c 6a3d 7004 dcbc
000001c0: 284a 01bd 0d87 193d 6f1c 0b3d bc5c c3bb
000001d0: 9509 a6bc f3b7 a4bc 3a9c 2c3d 7911 f93c
000001e0: 4069 863c 2d40 2fbc 3c75 8f3c be4e cdbc
000001f0: bea2 233d d221 0cbc a3ab 813d 7cf9 9e3c
00000200: 4f24 57bd 0108 af3b efa4 39bc ba7d 6dbd
00000210: 46ed 6dbb b5b7 0f3d 3c8c 87bd 856e 363d
00000220: 6b1d 153d 731b 09bd 689b 0fbd 2614 5c3d
00000230: fd18 0abd f7fc 493d efc3 40bd b0fe 1cbd
00000240: 5cbf 863d 5046 82bc 8167 543d 1c8f 573d
00000250: 1b68 15bd 18a1 433d 4914 e4bc 4e59 45bd
00000260: eb29 ecbc c620 603d 3cd7 c4bc f7b3 383d
00000270: 4a3b 99bc 0b4d e1bc ce53 f43b 0cda 0f3d
00000280: d811 4cbc 417c 48bd 27a7 2fbd c61e 3abd
00000290: fa2b 613d 39da 043d 0b72 ecbc e62c 05b8
000002a0: 6599 53bc b096 17bd 7456 bfbc 0091 323d
000002b0: 7588 e13c 81c0 473d 2737 283c d492 1abd
000002c0: 5034 7dbd 7ca5 6ebc 025b a33c 7f43 32bc
000002d0: 9aac 36bd 8adf 6e3c a3a7 29bd efea 0f3d
000002e0: de5c 663d b309 673d b52c 15bd 0547 e23c
000002f0: 304d e83c e7f5 c1b9 ded6 393d 1b2a cd3c
00000300: 1526 70bd 6fc4 f1bc 14c8 03bd 3c03 e4bb
00000310: 63e1 183c 6ea7 46bc 0ee7 e03c 4d04 38bd
00000320: c42e 42bd ca64 3b3d d3a7 ab3c 4df9 96bc
00000330: 49f1 c9bc 7c24 8fbb d453 14bc ee53 0b3d
00000340: 5c76 5ebd d11b 933b a610 6dba c71f 22bd
00000350: 3915 0f3d c6f3 b93c f50b 113c c678 f83b
00000360: 207a 583d 99ef a53b 63e8 9a3c 2caf 42bd
00000370: 0969 aabc 124b a43c 0302 ee3b c68e 4cbd
00000380: e2e8 80bc 225f cdbc 0af9 363d 64fc 123c
00000390: 4e4d c73c 5ec4 313d 2035 003c 44f7 18bd
000003a0: 4f54 7a3d e196 83bc 8cc1 10bc c811 0bbd
000003b0: fd50 d33b 7061 083d e6af 7a3d e5fb 333d
000003c0: 1153 86bc 5993 143d 42ed 1c3c eb87 833d
000003d0: dcfa 703d 3fde e7bc de33 fbbc cc2b 533b
000003e0: 5c69 33bd 03af 703d 5a54 673c ff39 873c
000003f0: c196 e03c e3c4 cd3c e066 debc fd5e adbc

net.4.weight f4 [256]
1.0449802 1.0231502 1.0645297 1.0020033 1.047159 0.99776626 1.0098486 1.0944116
1.028372 1.0658648 1.0281724 1.0740145 1.030586 1.0776914 1.0282243 0.9964062
1.1201391 1.0471905 0.99765426 1.1413655 1.0141665 0.9952931 1.0098908 1.0358431
1.0613636 1.1071942 1.0084553 1.0834248 1.0322615 1.0147117 1.041803 0.9984443
1.0567129 1.0166019 1.0780928 1.0628154 1.0262686 1.0539576 1.0398107 1.0120722
1.0867512 1.0479113 1.0481273 1.0185103 1.0924294 1.093516 1.0946186 1.070193
1.1762643 1.0192615 1.0704781 1.0703393 1.0291208 1.035967 1.0253289 1.0790011
1.0235488 1.0666384 1.0108719 1.0145985 1.027442 0.9998214 1.0598629 1.011049
1.0022701 1.0528697 1.0329272 1.0350908 1.0635228 1.052281 1.0571563 1.0256962
1.0004598 1.0022312 1.0357503 1.0412406 1.0139182 1.0237582 1.1393232 1.0222054
1.0000285 1.0753233 1.1054827 1.0612955 0.9976957 1.0924454 1.0195324 1.0643598
1.0151899 1.0332215 1.1086375 1.0503516 1.0000596 1.084352 1.0398524 1.0830531
1.1091454 1.0278754 1.0958389 1.1604673 1.1850411 0.9935172 1.0886151 1.0889486
1.0955822 1.0169679 0.9979659 1.0091274 1.0142679 1.1625196 1.100916 1.0126725
1.0880213 1.0508629 1.0625666 1.0324032 0.9994949 1.0445422 1.0709804 1.0711418
1.0762986 1.0777022 1.0121658 1.0627857 1.0288222 1.0663128 1.1880891 1.0510619
1.0503966 1.0065416 1.1236811 1.0654846 1.0076379 1.016535 1.0455949 1.032939
1.027008 1.1199265 1.1031748 1.0569499 0.998498 1.0001855 1.0024801 1.0991979
1.038591 1.0257525 1.0550982 1.0720189 1.0171256 1.0136755 1.0305272 1.0635991
1.0640312 1.0146351 1.0984881 1.0232868 1.0153732 1.0530685 1.0832016 0.9998955
1.0961893 1.0357795 1.0674549 1.00797 1.0379533 1.0005027 1.0866337 1.0457513
0.99966484 1.0441191 1.0551152 1.0225418 0.9988241 1.044719 1.0433453 1.0106685
1.085803 1.0151964 1.0768191 1.049765 1.0422672 1.0648252 1.1452729 1.0271211
1.0482827 1.0196115 0.99514043 1.0617101 1.0042313 1.0024618 1.1006227 1.0175831
1.035327 1.0901346 1.0710368 1.0344769 1.0159233 1.0235969 1.0046438 1.0587682
1.1322794 1.0644846 1.0009875 1.0455285 1.0057212 1.0467962 1.0423243 0.99711007
1.0229551 1.0759116 1.0114198 1.0585703 1.0060425 1.0788116 1.0448523 1.0029005
1.0734698 1.0720792 1.0011474 1.0470165 1.020831 1.131245 1.0186754 1.0742092
1.056786 1.0952677 1.0849328 1.0862173 1.0052185 0.9982886 1.0209627 1.0905559
1.034037 1.0886259 1.1308781 1.0928422 1.0118469 1.0465409 1.1419214 1.0508342
0.99699765 0.9978116 1.039454 1.0723822 1.0274851 1.0564775 1.0874599 1.0089176
1.1261728 1.0816729 1.0499197 1.0379653 1.0704813 1.039205 1.0152892 1.0583843
00000000: e9c1 853f 96f6 823f 8242 883f a541 803f
00000010: 4e09 863f 9c6d 7f3f b842 813f ae15 8c3f
00000020: b2a1 833f 426e 883f 279b 833f 4f79 893f
00000030: 3eea 833f cbf1 893f db9c 833f 7a14 7f3f
00000040: b860 8f3f 570a 863f 4566 7f3f 4418 923f
00000050: 35d0 813f 87cb 7e3f 1a44 813f 8296 843f
00000060: c3da 873f 8ab8 8d3f 1015 813f aaad 8a3f
00000070: 2521 843f 13e2 813f cd59 853f 0c9a 7f3f
00000080: 5e42 873f 0320 823f f2fe 893f 560a 883f
00000090: c55c 833f 15e8 863f 8418 853f 958b 813f
000000a0: aa1a 8b3f f521 863f 0929 863f 8c5e 823f
000000b0: bad4 8b3f 55f8 8b3f 761c 8c3f 16fc 883f
000000c0: d48f 963f 2977 823f 6d05 893f e100 893f
000000d0: 3bba 833f 919a 843f fa3d 833f b51c 8a3f
000000e0: a603 833f 9b87 883f 4064 813f 5dde 813f
000000f0: 3883 833f 4cf4 7f3f 96a9 873f 0e6a 813f
00000100: 634a 803f 6fc4 863f f536 843f db7d 843f
00000110: 8421 883f 25b1 863f e650 873f 034a 833f
00000120: 110f 803f 1d49 803f 7793 843f 5f47 853f
00000130: 12c8 813f 820a 833f 58d5 913f a0d7 823f
00000140: ef00 803f 32a4 893f 7580 8d3f 88d8 873f
00000150: fc68 7f3f 40d5 8b3f 0a80 823f f13c 883f
00000160: bef1 813f 9a40 843f d5e7 8d3f ec71 863f
00000170: f401 803f 0ccc 8a3f e219 853f 7ca1 8a3f
00000180: 7af8 8d3f 6c91 833f 7344 8c3f 318a 943f
00000190: 6daf 973f 2557 7e3f bd57 8b3f ab62 8b3f
000001a0: 0a3c 8c3f 012c 823f b17a 7f3f 162b 813f
000001b0: 88d3 813f 71cd 943f d1ea 8c3f 419f 813f
000001c0: 4844 8b3f ad82 863f 2f02 883f ca25 843f
000001d0: e6de 7f3f 8fb3 853f e315 893f 2d1b 893f
000001e0: 27c4 893f 25f2 893f a68e 813f 5d09 883f
000001f0: 72b0 833f f07c 883f 4e13 983f 3289 863f
00000200: 6573 863f 5bd6 803f c8d4 8f3f cd61 883f
00000210: 47fa 803f d21d 823f 0ed6 853f 5837 843f
00000220: 0075 833f c059 8f3f d534 8d3f 224a 873f
00000230: 919d 7f3f 1406 803f 4551 803f 84b2 8c3f
00000240: 8df0 843f dc4b 833f 750d 873f ea37 893f
00000250: 2c31 823f 1ec0 813f 51e8 833f 0424 883f
00000260: 2d32 883f 90df 813f 429b 8c3f 10fb 823f
00000270: c0f7 813f f3ca 863f 5aa6 8a3f 27f9 7f3f
00000280: ee4f 8c3f 6c94 843f 5da2 883f 2905 813f
00000290: a7db 843f 7910 803f d016 8b3f 2edb 853f
000002a0: 09ea 7f3f b2a5 853f 040e 873f a6e2 823f
000002b0: f0b2 7f3f 5ab9 853f 578c 853f 965d 813f
000002c0: 98fb 8a3f f5f1 813f 35d5 893f b35e 863f
000002d0: 0369 853f 314c 883f 4d98 923f b478 833f
000002e0: 212e 863f a182 823f 86c1 7e3f 1ee6 873f
000002f0: a78a 803f ab50 803f 34e1 8c3f 2a40 823f
00000300: 9885 843f 8889 8b3f bc17 893f bd69 843f
00000310: c609 823f 3905 833f 2b98 803f b785 873f
00000320: 88ee 903f 0841 883f 5c20 803f e1d3 853f
00000330: 79bb 803f 6bfd 853f e26a 853f 9b42 7f3f
00000340: 31f0 823f 79b7 893f 3476 813f 3b7f 873f
00000350: 00c6 803f 8016 8a3f b8bd 853f 0b5f 803f
00000360: 7567 893f e439 893f 9925 803f a304 863f
00000370: 97aa 823f a3cc 903f f563 823f b07f 893f
00000380: c344 873f bb31 8c3f 14df 8a3f 2b09 8b3f
00000390: 00ab 803f d78f 7f3f e8ae 823f 5697 8b3f
000003a0: 535b 843f 1858 8b3f 9dc0 903f 41e2 8b3f
000003b0: 3384 813f 0df5 853f 7b2a 923f bc81 863f
000003c0: 3d3b 7f3f 9570 7f3f d40c 853f d243 893f
000003d0: a284 833f a83a 873f e331 8b3f 3624 813f
000003e0: 6e26 903f 4274 8a3f c563 863f 0cdc 843f
000003f0: 8805 893f ab04 853f fff4 813f 2379 873f

net.4.bias f4 [256]
0.024500996 0.02156851 0.032335762 0.0020314595 0.037043512 -0.009055826 0.01271376 0.03850515
0.02490714 0.038046774 0.028268864 0.056970254 0.009368112 0.04699953 0.016450552 -0.005614596
0.059716575 0.032991163 -0.0023616261 0.07551186 0.009233431 -0.005586088 0.011173658 0.022466244
0.05581212 0.079506114 0.0023385696 0.064487055 0.010788207 0.014347852 0.030296117 -0.0020671678
0.014755035 0.008025828 0.04125412 0.0325329 0.015314793 0.028442042 0.01180784 0.0004129229
0.057502814 0.030295985 0.011762792 0.005208716 0.06409751 0.048905883 0.054876085 0.047858648
0.09267728 0.010109446 0.064143874 0.059399858 0.039443586 0.031528335 0.017595446 0.036262896
0.01115551 0.03738907 0.015121735 0.002675034 0.0058666514 -0.0026250682 0.05606168 0.0061031464
0.002731598 0.021122193 0.025832526 0.043915328 0.021787755 0.03329015 0.048439536 0.012619467
0.0063163736 -0.0018543386 0.011335664 0.045621052 0.010755432 0.031357564 0.07009835 0.012190574
-0.0009570375 0.038713284 0.06119124 0.036406368 -0.0034502677 0.03082226 0.006729873 0.05041879
0.02103204 0.015023692 0.073094696 0.02402733 -0.0018414973 0.06182721 0.02128618 0.058655057
0.08552264 0.008659676 0.060962953 0.08983995 0.114376254 -0.010792074 0.06921908 0.07004746
0.07128633 0.017861838 -0.0068934723 0.013502794 0.014967142 0.117468566 0.044755235 0.0069072074
0.061830364 0.023177275 0.054500386 0.012481313 -0.0011616092 0.009153343 0.0615989 0.055569734
0.039400913 0.06351082 0.0063565876 0.03431819 0.0088807335 0.0317987 0.13152337 0.036111034
0.04284434 0.004126257 0.08132174 0.036984943 0.009426078 0.01900868 0.039918605 0.024452303
0.01190907 0.08838856 0.07836835 0.014052608 -0.0050605712 0.0037760322 -0.00418791 0.07045899
0.025073841 0.004997892 0.03614086 0.034091074 0.016184373 0.008674435 0.034187663 0.028585479
0.016115598 0.013082414 0.061593514 0.035051223 -0.0013371686 0.06861021 0.07331989 -0.0055142487
0.05996047 0.034640837 0.042906307 0.0120624555 0.016845752 -0.0019559378 0.065902546 0.024701005
-0.005011942 0.02571832 0.049991947 0.02278055 -0.0014068111 0.010441223 0.020520767 0.007911506
0.07047839 -0.001302592 0.055302545 0.022705147 0.011402132 0.030831926 0.09760565 0.031295046
0.026866686 0.027816826 -0.010424666 0.057179388 0.0048034675 -0.0014420439 0.06883635 0.010086013
0.019214222 0.08054568 0.048229203 0.012180306 0.03458421 0.015633546 -0.0004548785 0.033861298
0.0918995 0.03977263 -0.0013837942 0.04269759 0.009166055 0.020586655 0.016932517 -0.00430616
0.019613441 0.03461014 0.008543311 0.049295362 0.0045831823 0.033314303 0.0555039 0.00070560264
0.0696964 0.06113115 -0.004619148 0.05236078 0.0063843257 0.067391716 0.008504124 0.0668162
0.070450515 0.076668575 0.064806744 0.05408942 -0.003311718 -0.0022766632 0.017933166 0.059262943
0.022474328 0.067490585 0.11443055 0.06750165 0.013916185 0.040281925 0.0896902 0.058310557
-0.006135255 -0.0068293144 0.019627132 0.07373778 0.024921674 0.041786272 0.053890813 0.008454697
0.101175 0.06260412 0.043118592 0.017734824 0.036752865 0.034697015 0.021184014 0.036362544
00000000: 50b6 c83c 72b0 b03c 8172 043d 3c22 053b
00000010: f0ba 173d e35e 14bc 604d 503c 93b7 1d3d
00000020: 0f0a cc3c efd6 1b3d 1b94 e73c a459 693d
00000030: b67c 193c 9482 403d 4fc3 863c a5fa b7bb
00000040: 5e99 743d be21 073d 83c5 1abb f6a5 9a3d
00000050: d147 173c 810b b7bb b811 373c 210b b83c
00000060: 409b 643d 1ad4 a23d b042 193b ca11 843d
00000070: 05c1 303c 4113 6b3c 902f f83c 5279 07bb
00000080: 1abf 713c c37e 033c 15fa 283d 3841 053d
00000090: e6ea 7a3c 49ff e83c ac75 413c 937d d839
000000a0: 1288 6b3d 492f f83c bab8 403c e0ad aa3b
000000b0: 8e45 833d 8951 483d bfc5 603d 6e07 443d
000000c0: 96cd bd3d 17a2 253c dd5d 833d 444d 733d
000000d0: 998f 213d db23 013d 5324 903c 6788 143d
000000e0: 9ac5 363c 4825 193d 27c1 773c a04f 2f3b
000000f0: 0a3d c03b 5609 2cbb efa0 653d e7fc c73b
00000100: 9c04 333b 7308 ad3c bc9e d33c 8fe0 333d
00000110: 3c7c b23c 415b 083d 8968 463d e2c1 4e3c
00000120: 95f9 ce3b 470d f3ba 39b9 393c 24dd 3a3d
00000130: 8d37 303c ca70 003d b98f 8f3d f9ba 473c
00000140: b3e1 7aba d291 1e3d aaa3 7a3d d81e 153d
00000150: e31d 62bb f77e fc3c 4486 dc3b ef83 4e3d
00000160: 624b ac3c ee25 763c acb2 953d f7d4 c43c
00000170: 655e f1ba 873e 7d3d 5b60 ae3c 4940 703d
00000180: 7e26 af3d 50e1 0d3c 4ab4 793d 02fe b73d
00000190: 193e ea3d 3dd1 30bc bcc2 8d3d 0b75 8f3d
000001a0: 91fe 913d fd52 923c a3e2 e1bb d33a 5d3c
000001b0: be38 753c 5c93 f03d 4451 373d db55 e23b
000001c0: d641 7d3d 45de bd3c cc3b 5f3d 6c7e 4c3c
000001d0: 2341 98ba e7f7 153c 214f 7c3d 179d 633d
000001e0: da62 213d f611 823d ec4a d03b 3b91 0c3d
000001f0: 7f80 113c 5b3f 023d 10ae 063e 2ae9 133d
00000200: 8c7d 2f3d 8d35 873b 038c a63d 867d 173d
00000210: d66f 1a3c 17b8 9b3c b181 233d 3250 c83c
00000220: 431e 433c 1005 b53d 967f a03d e93c 663c
00000230: 26d3 a5bb 4f77 773b bc3a 89bb ce4c 903d
00000240: a867 cd3c 5bc5 a33b 7008 143d 15a3 0b3d
00000250: 1795 843c 381f 0e3c 5d08 0c3d 182c ea3c
00000260: dc04 843c 9f57 563c 7b49 7c3d df91 0f3d
00000270: ef43 afba 8383 8c3d bd28 963d dfb0 b4bb
00000280: 1c99 753d 8de3 0d3d 86be 2f3d 9ba1 453c
00000290: 1a00 8a3c 312f 00bb eaf7 863d c359 ca3c
000002a0: 373b a4bb 3aaf d23c 5bc4 4c3d 479e ba3c
000002b0: bf64 b8ba aa11 2b3c 2b1b a83c 439f 013c
000002c0: f956 903d bcbb aaba ec84 623d 2500 ba3c
000002d0: 02d0 3a3c 3c93 fc3c 79e5 c73d 3c2f 003d
000002e0: 8617 dc3c 1de0 e33c 38cc 2abc ef34 6a3d
000002f0: 6866 9d3b f702 bdba 13fa 8c3d ce3f 253c
00000300: 2567 9d3c 22f5 a43d fc8b 453d e88f 473c
00000310: 2ca8 0d3d ec11 803c c27c eeb9 25b2 0a3d
00000320: ce35 bc3d a0e8 223d 6e60 b5ba abe3 2e3d
00000330: 392d 163c 58a5 a83c 10b6 8a3c b01a 8dbb
00000340: 5eac a03c 5dc3 0d3d 3ef9 0b3c efe9 493d
00000350: 852e 963b 9474 083d 0f58 633d 31f8 383a
00000360: fcbc 8e3d a864 7a3d 395c 97bb 4278 563d
00000370: 9b33 d13b ab04 8a3d e254 0b3c efd6 883d
00000380: 5c48 903d 6a04 9d3d 66b9 843d de8c 5d3d
00000390: 6909 59bb 1234 15bb 93e8 923c b3bd 723d
000003a0: 151c b83c 8138 8a3d 905a ea3d 4e3e 8a3d
000003b0: b600 643c a9fe 243d 7faf b73d 0dd7 6e3d
000003c0: 400a c9bb 71c8 dfbb 14c9 a03c d503 973d
000003d0: 8a28 cc3c 1528 2b3d 9dbc 5c3d 9285 0a3c
000003e0: d734 cf3d 9736 803d 1f9d 303d 9f48 913c
000003f0: 2c8a 163d 751e 0e3d 198a ad3c e4f0 143d
