models/maddpg/checkpoint_ep200/adversary_0.pth (torch, 764002 bytes, 44 tensors)

network.0.weight f4 [128, 16]
00000000: 06a4 6cbe b0eb 803e 38f6 4d3e 2a12 48be
00000010: 0731 3bbd 6edc a6bd 9f69 8a3e f29a a93d
00000020: ad4d 4b3e dc5d 403e d1a4 8c3c a4b0 66bd
00000030: ecb8 533e a142 6fbe b574 1a3e d148 52bd
00000040: 7acc 503c af18 c63c a41a 0f3e 5348 dabd
00000050: 28a6 4cbe ba94 c23d 2567 a73d b4a9 e1bd
00000060: fb0f edbc 599d a53d 4be5 bf3d 6de5 273e
00000070: c7e4 77be fc74 e8bc 3d53 643c 7329 063e
00000080: 8ac7 743c 3d56 cb3d 6a90 0b3e c767 103e
00000090: f297 f33d 1a67 67be 08fb 3ebe a5b7 ed3c
000000a0: bba5 3bbe 83ab 3dbc e077 a9bc 3804 0f3e
000000b0: 940d 303e d50b 41be 9a56 5cbd e99c 253c
000000c0: ca71 393e 19cb ee3c 056a 593e fd3c 483e
000000d0: db3b 8bbe d585 7fbe 4e71 62be 75d7 e83d
000000e0: 98da 55be 707d 503e c16f 163e e508 283e
000000f0: 89a0 243e d9e5 a63d 5358 533d e447 153d
00000100: d26f 45be 9071 35bc cbc7 a33d c2e0 6cbe
00000110: c23a ae3d 7f72 77be 2d24 9bbd 6268 4ebd
00000120: 777c cd3d 7356 ccbd e47f f6bd bf02 c83d
00000130: 8c3b 313e fdb3 673d 9f28 c93a 9810 64be
00000140: 8928 0ebe 1cf1 503e 6b01 81be c901 373d
00000150: 0b14 893d 3215 86bd 5016 563e 7d0b c23d
00000160: 05c8 43bd ee90 513e 4396 cb3d cab7 33be
00000170: 63e6 f3bd 1866 40be 6779 b5bd 7304 a43d
00000180: ec30 35be 1b4a aebd 2eac 673e 1353 d2bd
00000190: 4dcc 4ebe abe9 abbc a8c8 7ebe 5146 51be
000001a0: 64a0 823d db35 0ebe fc2a 58be 59b8 0cbe
000001b0: 937a 483e dad5 57be f196 543e 4843 0abe
000001c0: b798 823e e4ab 4a3e b423 b0bd 91fa ebbd
000001d0: 7276 d33a 592b 0a3e c66a 293d ded0 80bd
000001e0: 35b6 52be b99f 4f3e 48dd 68be cc22 84be
000001f0: 1520 08be 533d 5dbe 1269 213e a919 073d
00000200: 8cf8 b63d d172 1fbe 77f7 ab3d 82e1 f93d
00000210: 894a a0bd 4e12 583e c75e 05be 461c 8b3d
00000220: 6dba 5bbe 2d37 613e c4e3 21be bb86 a23c
00000230: d00e 9d3d dcae 70be cc1e 4bbe b840 323e
00000240: c965 5b3d 3cbb 94bc ea44 de3c a256 4e3e
00000250: a206 5dbd 2a1d 81be 95f2 1abe 3aec 90bd
00000260: 1099 80be 2602 403e 8162 363e 29fb cf3d
00000270: 9963 66be ab75 94bd 469b 29be 4247 2d3e
00000280: 0590 323d 88b7 0bbd 5d99 25be 64ef a93d
00000290: 01ff eabd 740b 18be 49db ff3d 63c1 12be
000002a0: 08d4 873e 4641 0b3e f1a1 023d 3c00 f4bd
000002b0: 125e bcbd 52c7 2dbe 204c 23be 0a68 fbbd
000002c0: 370f 173e c524 aabc 89f9 653e d83c 02be
000002d0: d299 233e aa78 173e c31f 5d3d 286e 88bd
000002e0: 2b5c 30be 846f e5bd 458e f23c 8566 673e
000002f0: 107e 4b3e c07a b5bd 0a20 e8bd ce39 3fbe
00000300: 0d21 443d 7b22 ce3d 0571 e13c 5f2c fdbd
00000310: 75f3 cabd 4831 32bd fb38 673e 22aa 2e3e
00000320: 2c1b 37bc 50d0 3fbe 7fe4 7cbe 72bc 56be
00000330: 7e7a 7d3e 994b 89be 0289 30be 6557 12be
00000340: cd8b 53be e98b b53d 0c40 80be a38b 193e
00000350: 59fe 12be f055 b83d 0ddc 5f3d 3c95 17be
00000360: 86ce ae3d 753b 1dbe 099f 17be 3b17 693e
00000370: 6671 e63b 7989 69bc ad02 403e 4e89 573e
00000380: 3351 e2bd 566c 55bd 55db c63d c805 63be
00000390: badc 4d3e 18ed 983d 9d7b 203e 0fee a9bd
000003a0: b55c 6fbd ee9a b8bb 46b3 ad3d c762 f6bc
000003b0: 1789 003e 39cc c7bd 5155 0dbe 19e9 22be
000003c0: 52ff 383d 245f 643e a16b d0bc 8009 30be
000003d0: 17f9 7a3e 403c 31bd 8bb7 763d cd20 2c3d
000003e0: 949b 26be 37a2 7f3d df99 113d b9c7 9f3c
000003f0: 1ed2 763e 08db 433e 9996 2d3e ede2 713d
-0.23109445 0.25179815 0.20113456 -0.19538179 -0.045701053 -0.081475124 0.27033707 0.082815066
0.1985385 0.18785805 0.017168434 -0.0563208 0.20676011 -0.2336526 0.15083583 -0.051338974
0.0127440635 0.024181692 0.13975006 -0.10658326 -0.19985259 0.095010236 0.0817397 -0.110186964
-0.028938284 0.08086652 0.09369906 0.16396113 -0.24208365 -0.028376095 0.013935861 0.13101749
0.014940152 0.09928558 0.13629308 0.14102088 0.11894216 -0.22597924 -0.18650448 0.029018233
-0.1832494 -0.011576536 -0.020687044 0.13966453 0.1719268 -0.1885217 -0.053793527 0.010108211
0.18109813 0.029149579 0.2123185 0.19554515 -0.27194104 -0.24953397 -0.22113535 0.1136922
-0.20884168 0.2036035 0.14691068 0.16409643 0.16076864 0.08149309 0.051597904 0.036445513
-0.19280937 -0.011074439 0.07997092 -0.23132613 0.08507301 -0.2416477 -0.07575259 -0.050392516
0.100335054 -0.099774264 -0.12036112 0.09766149 0.17307872 0.056568135 0.0015347189 -0.22271955
-0.1388265 0.20404476 -0.25196394 0.044679437 0.06693276 -0.065470114 0.20906949 0.094748475
-0.047798175 0.20465443 0.099407695 -0.17550579 -0.11909177 -0.18788946 -0.08861046 0.08008661
-0.17694443 -0.08510228 0.22624275 -0.102697514 -0.20195122 -0.020985445 -0.24881232 -0.2043698
0.06378248 -0.13887732 -0.21110147 -0.13742198 0.19578008 -0.21077672 0.20760705 -0.13502228
0.25507137 0.19792134 -0.0860056 -0.11522401 0.0016133322 0.13493098 0.041361593 -0.06289838
-0.20577319 0.20275773 -0.22740662 -0.25807798 -0.13293488 -0.21605425 0.15762737 0.032983456
0.08934125 -0.15571143 0.083968095 0.12201215 -0.078267165 0.21100733 -0.13024436 0.06792502
-0.21457835 0.21993704 -0.15809542 0.019839635 0.07668841 -0.23504204 -0.19835967 0.174075
0.053563867 -0.018155687 0.02713247 0.20150235 -0.053961404 -0.25217563 -0.151316 -0.07076307
-0.25116777 0.1875082 0.17811014 0.10155327 -0.22498931 -0.07249006 -0.16563138 0.16921714
0.04359438 -0.034110576 -0.16171785 0.08297613 -0.114744194 -0.14848119 0.12492997 -0.14331584
0.26528955 0.13599119 0.03189272 -0.11914107 -0.0919763 -0.16970566 -0.15947008 -0.12275703
0.14751898 -0.020769486 0.22458471 -0.12718523 0.15976647 0.14792123 0.05398537 -0.06661636
-0.1722266 -0.112029105 0.029608855 0.22597702 0.19872308 -0.08861303 -0.11334236 -0.18674394
0.047883082 0.100651704 0.027519712 -0.12361979 -0.09909717 -0.04350403 0.2258033 0.17057088
-0.011175912 -0.18731809 -0.2469654 -0.20970324 0.24753758 -0.2681549 -0.17239764 -0.14291151
-0.20658799 0.08864576 -0.25048864 0.14994673 -0.14354838 0.09000766 0.054653216 -0.14803022
0.08535485 -0.15354712 -0.14806761 0.22762768 0.007032561 -0.014253967 0.1875102 0.21048471
-0.11050644 -0.05210527 0.09709803 -0.22170174 0.20103732 0.07467097 0.15672155 -0.08297359
-0.05843802 -0.0056337034 0.08481459 -0.030076398 0.12552296 -0.09755749 -0.13802077 -0.15909232
0.045165367 0.22301918 -0.025441946 -0.17191124 0.24509083 -0.04327035 0.060233634 0.04202347
-0.16270286 0.06241056 0.035547134 0.019504415 0.24103591 0.19126523 0.1695198 0.059054304

network.0.bias f4 [128]
00000000: d488 c4bd a71c 34be b7c6 d5bd d9ad 04be
00000010: 1ff7 7a3d f26b 733e dd21 053d dca3 c2bd
00000020: f480 033e ae5b afbd 4a2f 8d3d 6da3 163e
00000030: 7e2b 53be 42ec 463d 5c82 89be 6f13 04be
00000040: 8971 813e 24d7 66be 0d2c a2bb 74a6 713e
00000050: c4e4 763e 6598 b13c 4006 ce3d 0747 423e
00000060: a912 863e 3008 67bd 9c99 cdbd 912e c6bd
00000070: 97ad 69be afa0 833e d862 753e ee03 203e
00000080: 5dcd bcbd 5684 22be 2d39 f6bd 6d51 1ebe
00000090: ff4c 823e ac58 443d adb0 70bc 0f3a 21be
000000a0: aca1 763d ac40 5c3e 8750 2dbe dbdd 0dbe
000000b0: d17e 3abc 2c16 563d d249 063e 79aa 7f3d
000000c0: 91b6 4e3e 20d8 9b3c 8420 efbd 7aa3 18be
000000d0: 534c ad3d 221d cf3d 1cc7 efbd 4d46 c13d
000000e0: 48d7 353e 7aab 08bd f305 623e b146 56be
000000f0: 7250 51bd a4f1 4f3e 6609 863e 001b 233e
00000100: c8b1 8f3d 40d3 87bb efcf 43be 8b71 2a3e
00000110: fff3 923d 074b 633c 5b90 52be 320d 363e
00000120: 4b08 64be c984 60be 468f 393e a7ff 2b3e
00000130: e347 3e3e dbb2 193e 56f7 55be e852 9e3d
00000140: fdc9 d7bd 12da 5c3e 9b4b b73d ceac b43d
00000150: 954c 64be 74a0 683e 857d 3c3e 1b22 fcbd
00000160: 9bd6 833e 590b c23d f526 003e f835 3dba
00000170: 69fa 1dbe 2913 8dbd b10d 713d 043b 743e
00000180: c79d 873e 6c18 51be 9853 e03d 5f48 a13d
00000190: fcaa 17be c1c6 113e 9267 16be 8549 823e
000001a0: 191c 1b3e 7d67 68bd 5db3 3a3e abb4 813e
000001b0: 378a fb3d 298e 17bd a70d 3a3e 452a f7bd
000001c0: 680f e03d 5c8d 14be bb2f 92bd 08a8 503e
000001d0: d169 123e 53e8 22be 87d2 a5bc ec2f 55be
000001e0: 31b0 4a3e 548e 033e 2f6e a23d b335 cd3b
000001f0: e4c5 7dbe 881a e0bd 7bf8 05be 4146 ecbd
-0.095964104 -0.17589055 -0.104382925 -0.12956943 0.06127083 0.23771647 0.032502998 -0.0950391
0.1284216 -0.085624084 0.06893785 0.1471078 -0.2062206 0.048565157 -0.2685727 -0.12898038
0.25281933 -0.22543007 -0.004949099 0.23598653 0.24110705 0.021679113 0.10059786 0.18972407
0.26186112 -0.056404293 -0.10039064 -0.096768506 -0.22820126 0.2570853 0.23963487 0.15626499
-0.092188574 -0.15870795 -0.12022624 -0.15460749 0.25449368 0.047936127 -0.01469056 -0.15744804
0.060212776 0.21509045 -0.1692525 -0.13854162 -0.011382774 0.05226724 0.13114098 0.062418435
0.20186831 0.019023955 -0.11676124 -0.14906111 0.08461823 0.101129785 -0.11707899 0.09437237
0.17757905 -0.033366658 0.22072582 -0.20925404 -0.05110211 0.20307022 0.26179045 0.15928268
0.07016331 -0.004145056 -0.19122289 0.16644876 0.07175445 0.013872868 -0.2056288 0.17778471
-0.22268789 -0.21925654 0.1812106 0.16796742 0.1858211 0.15009634 -0.20895132 0.07730657
-0.10536573 0.21567562 0.089499675 0.088220224 -0.22294839 0.22717458 0.18407257 -0.123111926
0.25749668 0.09474821 0.12514861 -0.000721782 -0.15427555 -0.0688842 0.058850948 0.23850638
0.26487562 -0.20419472 0.10953444 0.07875132 -0.14811319 0.14235975 -0.14687946 0.25446716
0.15147437 -0.05673932 0.18232484 0.2533315 0.12282222 -0.03700081 0.1816927 -0.12068609
0.109404385 -0.1450705 -0.0713801 0.20376599 0.14298178 -0.15908937 -0.020241989 -0.20819062
0.19793774 0.12847263 0.07931172 0.006262505 -0.2478252 -0.109425604 -0.13083069 -0.11536837

network.2.weight f4 [128, 128]
00000000: 332a 7abc 7a66 493d 8587 3cbc cac8 763c
00000010: ee6f 30bd f1fe 5e3c 8458 873d fe81 7f3d
00000020: 2877 113d e524 80bd 83cc e1bc 24fe 3b3d
00000030: 01e3 42bd 3505 8fbd 692c 49bd b7fd a3bd
00000040: 46f0 5c3d 629a c43c b131 75bc 7afe 8f3c
00000050: 0f49 40bd 9552 973d 244b 8d3d bd74 7a3d
00000060: 243e 8bbd 9443 92bc 38de a03c 4337 af3d
00000070: fcb3 1cbd 8a62 2e3d f148 8fbd f1b3 d43c
00000080: 1f65 3b3d 86b0 76bd 96e3 c33c 1b35 cfbc
00000090: fed1 a4bd 83fc 04bd 088f 74bd 7d95 87bd
000000a0: b53e 5cbc 7507 45bd d429 5c3d bd64 cf3c
000000b0: f6b1 82bc 5c4e cd3b e906 9e3d 4425 5dbd
000000c0: db5a 413d 42cc 17bd 939f 8d3c 7b5d 99bd
000000d0: 1f5e 9bbd b417 b5bd e999 86bd d0aa c3bb
000000e0: 0e81 1a3d ed53 75bd cd8e 2bbd 50e0 663d
000000f0: 0753 c2ba eecb a1bd 4957 82bd 4fdd 49bd
00000100: 6516 adbd 72af 98bd fd19 2abd 05ce 3b3c
00000110: cd5a 0cbd 3c87 863d 09ad 233d 2b0f c0bc
00000120: 0447 f1bc d807 95bc f686 3e3d 7694 183d
00000130: 67cf 6dbd 432f 71bd b61c 48bd 2d71 77bd
00000140: 7298 813a 7e02 2dbd 9737 723d c001 3e3b
00000150: f1a6 b3bc 73e2 a63d 5bd4 163d 4951 fe3c
00000160: faad 86bc d0a7 493d fcdc 993d c22e 2abd
00000170: c4db 2b3c 170a 4a3d f28d 9bbb f2dd 1dbd
00000180: 9df9 85bd a4ef b6bc 079c b93b 6699 a93c
00000190: 07c8 19bd 0dfb 963d 9acc 6f3d cd7e f338
000001a0: 6c34 aabd b184 dfbc 6315 f5bc 5363 443d
000001b0: 9b39 983d 9316 883d 95a9 a33d 2753 b03c
000001c0: 71b5 82bd 0889 043c 640f fa3c 9020 a13b
000001d0: ccec a53d 7124 4bbc 7580 b1bd 4b23 2fbc
000001e0: b419 b93c 3883 8d3c 2a40 903d fd31 833c
000001f0: 23b0 943c 7c46 51bd 7021 85bd 5f2c 7d3d
00000200: eb05 01bd 10cf 85bd 3a87 2c39 72e9 0dbc
00000210: 55de 37bd 1bdf afbc cab6 4e3d ff26 57bd
00000220: 1863 85bc 2da8 3fbd 7599 d23d 776d 4e3d
00000230: 4ce6 6b3c e38b 04bd 3f1d 28bd bdf1 183d
00000240: 7423 9cbb bd96 993d 732b 9c3d 25f5 62bd
00000250: 9f5b 173d 6250 193d cd3f 73bc a919 833d
00000260: dd09 863b 4ad9 36bd 56be 603d 758c ac3d
00000270: 4469 2b3d 08aa c73d cb56 1d3d b061 c93d
00000280: 352f 943d 7f53 89bc 80b6 b2bb 9394 c73d
00000290: 102a 48bd e902 26bd 4705 9bbc de31 b03b
000002a0: 9b1e 36bd 4833 78bd 875e 003d cb26 113d
000002b0: df1a 5abd b577 0b3d 85d8 0b3c e75c 89bd
000002c0: e1a4 643d 0c0e 83bd de40 36bd 73e1 64bd
000002d0: 13dc cb3c 13e5 07bd d56c 77bd adeb 9a3d
000002e0: d695 743c 64ab d8bc 51b4 31bd 37d1 10bd
000002f0: 1574 6bbd 073b 033d c2d5 c23d 8307 2bbc
00000300: 25a3 3cbd dd30 97bd 3d28 003c f6a4 5a3d
00000310: 09ea 94bc 2435 cc3d ccfc 9cbd e0e2 cc3c
00000320: d9da 7abd 0ad0 58bc c122 c43d 4af8 123d
00000330: 3ea6 9abc c736 7abd 5190 83bd 093f f33c
00000340: c968 13bd 3695 04bc 269f 3dbc 7f23 e1bb
00000350: 2925 6abd 70ec 60bd 0fc0 7a3d 263a 923d
00000360: d9eb bf3d 59ab eabb 4c75 ab3d bc66 2dbc
00000370: aacb ac3d 26f0 8fbd 417e 8b3d ca83 1abd
00000380: 2448 8b3b b7e5 b03d ce78 81bd 1fba 16bd
00000390: d950 fb3c 7c6a 54bd 98ff 423a a61f fabc
000003a0: d5e4 ddbc 3754 81bd 02eb 77bd 28be 03bc
000003b0: 7742 2a3d 8fdf d03d 3d7d 4ebd 3061 02bd
000003c0: 38d6 a5bc 06e3 2fbd 0c15 f6b9 758e 20bd
000003d0: ff0a a53d f552 96bd 87dc 103d 9750 d83c
000003e0: 0029 d03d 6451 c73d 978e 14bd 2397 b9bc
000003f0: 6a49 b43c 8219 b5bc 601f 83bc 0e82 3d3d
-0.01526885 0.049169995 -0.01150692 0.01506252 -0.043075494 0.013610587 0.0660868 0.06237983
0.035514027 -0.06257037 -0.02756334 0.045896664 -0.04757977 -0.06983415 -0.04911462 -0.08007377
0.05394008 0.023999397 -0.014965461 0.017577399 -0.046944674 0.07388798 0.068990976 0.061146487
-0.06798962 -0.01785449 0.019637212 0.08555462 -0.038257584 0.042574443 -0.06996334 0.025964709
0.045750733 -0.06022694 0.023912232 -0.025293877 -0.08047865 -0.032467376 -0.059706718 -0.066203095
-0.013442685 -0.048102815 0.053750828 0.02531659 -0.015953999 0.0062654447 0.07716162 -0.053990617
0.047205787 -0.03706003 0.017288005 -0.07488533 -0.075863115 -0.08842412 -0.06572325 -0.00597129
0.037720732 -0.05989449 -0.041884232 0.056366265 -0.001482577 -0.079002246 -0.063643046 -0.049283322
-0.08451537 -0.074553385 -0.04152869 0.011462693 -0.034266282 0.06568763 0.03995994 -0.023444733
-0.029452808 -0.018192217 0.046515428 0.03725096 -0.058059122 -0.058882963 -0.048855506 -0.060410667
0.0009887351 -0.042238705 0.059135046 0.0028992742 -0.02193019 0.081486605 0.03682361 0.03104462
-0.01644038 0.049232304 0.075128525 -0.041548498 0.010489408 0.04932603 -0.004747146 -0.03854174
-0.065417506 -0.022331066 0.005664352 0.020703029 -0.037544277 0.07372103 0.058544733 0.000116107614
-0.0831078 -0.027284952 -0.029917425 0.047946285 0.07432862 0.06644931 0.079913296 0.021524025
-0.063822635 0.008089311 0.030524917 0.004917212 0.08101806 -0.012398825 -0.08667079 -0.010689567
0.022595264 0.017274484 0.07043488 0.016015047 0.018150395 -0.05109261 -0.06500518 0.061809894
-0.031499784 -0.06533635 0.00016453574 -0.008661615 -0.044889767 -0.02146869 0.05046729 -0.052527424
-0.016282603 -0.046791244 0.10283176 0.050397363 0.014398169 -0.03235997 -0.041043516 0.037339915
-0.0047649685 0.07499454 0.07625475 -0.05540957 0.03695261 0.037430175 -0.014846754 0.06401379
0.0040905313 -0.044640817 0.05486902 0.084252276 0.041848436 0.09749228 0.03841285 0.098330855
0.072355665 -0.016763447 -0.0054538846 0.09745135 -0.04886824 -0.04053012 -0.018923415 0.0053770384
-0.04446278 -0.06059578 0.03134015 0.035437386 -0.053248283 0.03404971 0.008535509 -0.06707173
0.055821303 -0.063991636 -0.044495456 -0.055879068 0.024885213 -0.033177447 -0.060406525 0.07564483
0.014928302 -0.026448913 -0.043384854 -0.035355773 -0.05748375 0.032038715 0.09513427 -0.010438803
-0.046054024 -0.07382367 0.007822094 0.053379975 -0.018178003 0.09971073 -0.07665405 0.025010526
-0.061243866 -0.013233194 0.09576941 0.03588132 -0.018878099 -0.061087396 -0.064240105 0.029693143
-0.035988603 -0.008092215 -0.0115735885 -0.0068706865 -0.057164345 -0.054912984 0.061218318 0.07139997
0.09371156 -0.0071615395 0.08371982 -0.010583576 0.08437283 -0.070282266 0.068111904 -0.03772334
0.004250543 0.08637565 -0.0632187 -0.036798593 0.0306782 -0.051859364 0.0007438599 -0.03053267
-0.027086655 -0.06314891 -0.060526855 -0.008040942 0.041567292 0.101988904 -0.050412405 -0.031830966
-0.020243749 -0.042941116 -0.00046936458 -0.039198358 0.08058738 -0.073400415 0.03536656 0.026405616
0.1016407 0.09732321 -0.036268797 -0.022655075 0.022007663 -0.02210689 -0.016006172 0.046266608

network.2.bias f4 [128]
00000000: bf67 98bd 6171 503d e4b3 8a3c 2f21 afbc
00000010: 53e9 ca3c c4c8 003b 7ada a7bd 46fc 58bc
00000020: 8e5a 9cbd 3f32 c13b 9193 5a3d 0000 72bd
00000030: 42fa a33d db3d f1bc 33cf 363d 9a0f 2abc
00000040: ef3c 1cbd b348 a93d c6e7 86bd 7900 253d
00000050: 3779 6ebd 1f43 223d a06f 4a3c 48c5 3e3d
00000060: a245 283d a145 d63d ed72 93bd 3a29 17bd
00000070: 4cc3 d2bc 7a43 393d cc12 5abd 9144 dfbc
00000080: 681d 3c3d 3351 953d f7b1 4bbd c135 843c
00000090: 93f2 a2bc 7103 9dbc 754e 96bd 128d 7a3d
000000a0: dec4 cfbc ebc3 fb3c d7b1 5d3d 5453 e4ba
000000b0: a9fe 24bd 6a6c 533c cb83 303a 505e 5ebc
000000c0: 07cc 393b 473b 54bd 3541 803d 4ff0 c83d
000000d0: 204b adbd 7278 f1b8 ebf2 ef3c 2a85 b53d
000000e0: 99c8 c33d fcc3 39bd 3a6c 443d 15ec c53c
000000f0: 3019 b93d bdf3 713d 79fc b43a 66a5 b33c
00000100: dc89 eabc e7e6 6fbd c1b1 25bc a0d3 abb9
00000110: f009 a13d b420 bc3d ca19 9cbb c7c9 8abd
00000120: b233 8bbd 5e66 8abc 99fd 89bd b080 84bc
00000130: 3b0c a33d 37c1 023d 77aa 983d dd23 5abd
00000140: bdc6 8f3c 13a7 853d c17a c0ba b8ab d43d
00000150: 9881 023b c30c b7bc 55c6 8a3c 11a2 783d
00000160: a627 70bd 1851 1a3d 0f8f bc3c 591c 86bc
00000170: e8e4 7ebd 2c29 37bd c44c 23bd 81e5 7e3d
00000180: d38e a1bc 707f 6bbb 006e 8c3d 24c7 4ebd
00000190: 2a38 653d 60e4 d0bd 5358 133d c855 923d
000001a0: e08f 373d 25f1 77bc 5a4f 053d 0974 a63c
000001b0: 4e5f bbbb 1053 9e3d 5ecc 31bd c0c4 323d
000001c0: d696 9ebd f4ce 8fbd 4da6 993b bf03 283d
000001d0: a707 5f3c fc82 adbd 840a 9ebc da07 8c3a
000001e0: 032d 96bc a8c8 8ebc a1c5 623d 5967 a43d
000001f0: 35a3 0ebd 5c8a 003d c175 00bd 3b39 a33d
-0.07441663 0.050889377 0.016931482 -0.021378128 0.02476946 0.0019650916 -0.08195968 -0.01324374
-0.076344594 0.0058958824 0.053363387 -0.05908203 0.08006717 -0.02944844 0.044631194 -0.010379696
-0.03814405 0.082658194 -0.06587176 0.040283654 -0.05822107 0.039614793 0.012355715 0.04657486
0.041082032 0.104624994 -0.07199655 -0.03690455 -0.02572789 0.045230366 -0.053240582 -0.027254375
0.04592648 0.07290878 -0.049730267 0.016138913 -0.019891059 -0.01916668 -0.07339183 0.06116969
-0.025362428 0.03073307 0.05412468 -0.0017419853 -0.040281925 0.012904266 0.0006733506 -0.013572291
0.002835037 -0.051814344 0.06262437 0.0981146 -0.084615946 -0.0001151421 0.029290637 0.0886329
0.09559745 -0.04535292 0.047954775 0.024160424 0.09038007 0.059070338 0.0013808153 0.021929454
-0.02863019 -0.058569815 -0.010113181 -0.00032773335 0.078632236 0.09185925 -0.0047638165 -0.06776767
-0.067969695 -0.016894516 -0.06737823 -0.016174644 0.07961317 0.031922545 0.074543886 -0.05325686
0.01755082 0.065260075 -0.0014685021 0.10384315 0.001991367 -0.022344952 0.016940275 0.060701434
-0.05863156 0.037674993 0.023017434 -0.01637094 -0.06223002 -0.044717 -0.03986813 0.06223059
-0.019721424 -0.0035934113 0.06856918 -0.050482884 0.055961765 -0.10199809 0.035972904 0.07145268
0.044814944 -0.015133177 0.03254638 0.020319002 -0.0057181483 0.07730687 -0.04340779 0.043644667
-0.077436134 -0.07021895 0.004689014 0.041019198 0.013612664 -0.08472249 -0.019292124 0.0010683492
-0.01833201 -0.017429665 0.055364255 0.080275245 -0.034823615 0.03138195 -0.0313623 0.079699

network.4.weight f4 [5, 128]
00000000: 6751 ce3b 9307 653d d541 d73c e7f1 6fbc
00000010: c8be 473c 0559 ad3d 08e8 0fbc 1e5f e5bb
00000020: 6802 503c 3740 42bc e651 bbbd fad6 a1bc
00000030: 485b e9bc 7287 6a3d 997f 1cbd e894 3b3d
00000040: 5ac0 ecbc 9e59 9cbc e400 21bd fd98 21bd
00000050: 6d48 463c e2b4 313d 65ad ddbc abca 32bd
00000060: 79dd b2bd 08a8 a9bb 5fd8 a13d 48de 663d
00000070: d1ed e13c 68e4 9abc e565 56bd e6fb 92bd
00000080: 4a51 9f3d 87f7 aa3d 4ce8 6fbd 56ca 40bd
00000090: 30ca 403c 4b7d 0b3d 98f1 843d 0e72 c83b
000000a0: d4b7 7cbc e674 bfbd 5c74 4e3d bbaf 8a3a
000000b0: 9d54 8a3d e648 44bc ae4c 853d c54b 9abd
000000c0: 13d3 6d3d a2e8 313b 7d32 c4bd 67e1 bcbd
000000d0: f471 d239 ffcd a2bd 6e4a 883d bd44 a8bd
000000e0: 0ed8 76bd 9607 a23d 41f8 1dbd 4e81 9c3d
000000f0: 3d47 963c e18a 913d 190a 9dbd 76d2 94bd
00000100: d22c 52bd e147 acbc 869f 9cbb 22ea f0bc
00000110: 5ad0 91bd 1868 76bd 4358 383a 2617 053d
00000120: 6600 a53c 8586 53bd d32d 113d 4c41 8cbd
00000130: 023e dfbc 1d36 ed3c ebfc 48bd 661b 563c
00000140: 6661 84bd 7801 94bc a8ca 82bd 2d5c 4e3d
00000150: 20a3 c8bd 3fcd f8bb c5c2 97bd 2cad f6bc
00000160: b102 c0bd 6110 d63c 5268 41bd 06a9 babc
00000170: a730 b3ba 4400 4e3d 7799 46bd 89f0 0c3b
00000180: 7bf3 993d c919 b0bd f853 ce3b fcfe 793c
00000190: 732b a9bd 5aec 1d3d 1855 fabc 4701 913b
000001a0: a1b2 883c 13b5 963d 8f57 df3c 7d77 25bd
000001b0: 38e0 3d3d 162f d9bc 4dbf 0b3c b1c8 6c3d
000001c0: 92a7 b03d eae8 543d 0be5 273d 8e74 863d
000001d0: fe39 c2bd 0c3b 94ba 9665 bf3b 8ad8 68bd
000001e0: 3a8a 673d 4dd2 67bd 3d98 bcbd c5d1 85bc
000001f0: 9e08 e2bc 4d67 4b3d da73 cbbc 74fe a8bd
00000200: 2ef5 2db9 893d 0bbd fa4d e5bc 8e6c f4bc
00000210: 677b 313d bbc4 143d 2c0a 89bd 5ce5 8f3b
00000220: 890d a0bd 68b7 c63d 3d6b 3fbd 3e87 2e3d
00000230: a383 e4ba e344 b53d 7bae 9d3d e6fc 92bd
00000240: a493 2d3d 1411 be3c 7cf1 72bd 7cf1 7cbc
00000250: a04d 11bd 4f1f a83c 394d 3c3d 4a58 9a3d
00000260: c037 b13c 9a39 3c3d ff86 14bc 4183 2dbd
00000270: 85a6 843d 253f 6d3d 25ed a53d 69da dabb
00000280: ac3b 853c fe65 10bc 2972 be3c 7e2c 8b3d
00000290: 2a04 03bd 8fb5 a2bd 4ebb 19bd 9fb3 26bd
000002a0: 23a3 643d 6f5e d43d d1a0 ad3b 1f5d 853c
000002b0: 3db4 243d a8a3 a33d ab13 cbbc 9aa6 a5bc
000002c0: 0abd c23d e704 dcbb d2a5 86bd dd5a a43d
000002d0: 7bcf 24bd b139 03bd 9061 79bd bf64 da3d
000002e0: d720 cd3d 686b a73b 435f 5b3c 88e0 953d
000002f0: 0efc 61bd e973 afbb 9704 cdbb 8d77 4b3c
00000300: bb05 3e3d 1a10 2dbd 7ad7 c4bb 2ca5 5fbd
00000310: fe19 92bc 153d b43d bb66 a53c 402e d33c
00000320: bd3c bf3d e938 2cbd 4dab 9cbd f8ab dbbc
00000330: 70f3 c9bb 3f5a ccbc 2999 04bc 2cec 843d
00000340: 1d91 793d a985 57bc e800 053d 346a 733c
00000350: 99d2 0abd 07fe d5bc 375c 16bc 7d2b bb3c
00000360: 4df2 60bd 96ac 32bd 008b 0d3d 1455 fd3c
00000370: 3e8b 2dbd baab 8a3d 8e2c 863d 8f41 f83c
00000380: 0cb5 6ebd f7a5 833d 0c41 87bd e54e 8abc
00000390: eb84 62bd 2ffc 9ebc 3929 893d 20d8 1e3d
000003a0: 7170 a13d 14b3 a43c ef4e cf3d 58cc c13d
000003b0: c00e 0ebd d1a2 12bd a6e2 b9ba 4f49 773b
000003c0: 010b 24bd 4edf 09bd 37f8 82bd dab0 8b3d
000003d0: d70b 53bd 24c0 30bd 1dd1 2cbc ebbc bb3b
000003e0: 32a3 7bbd 1226 58bd 33d3 5bbb b1f6 8dbc
000003f0: 0126 28bd 837b 0a3d 402a abbc 28d8 db3d
0.006296325 0.055915426 0.026276508 -0.014645076 0.012191482 0.08464245 -0.008783348 -0.0069998642
0.012695886 -0.01185613 -0.0914648 -0.01975583 -0.02848591 0.057258077 -0.038207624 0.045796305
-0.028900314 -0.019085702 -0.03930749 -0.03945254 0.012102229 0.043385394 -0.02706022 -0.04365031
-0.08733649 -0.0051775016 0.07902598 0.056364328 0.02757922 -0.01890774 -0.052343268 -0.07176952
0.077791765 0.08347993 -0.058571145 -0.047067963 0.011766955 0.034055036 0.06491393 0.006117112
-0.015424687 -0.093484685 0.050403938 0.0010580936 0.0675442 -0.011980271 0.06508766 -0.07533983
0.058062624 0.0027146717 -0.095799424 -0.092226796 0.00040139223 -0.07949447 0.06654821 -0.08216236
-0.06026464 0.07911603 -0.03856683 0.076418504 0.018344516 0.07106567 -0.076679416 -0.07266705
-0.051312275 -0.021030368 -0.004779759 -0.029408518 -0.07119818 -0.060157865 0.0007032195 0.03249278
0.020141792 -0.05164196 0.035444092 -0.06848392 -0.027251247 0.028956467 -0.049069326 0.013068056
-0.0646389 -0.018067107 -0.0638631 0.050380874 -0.097967386 -0.0075928266 -0.07410196 -0.030111872
-0.09375513 0.026130857 -0.04721863 -0.022785675 -0.0013671116 0.050293222 -0.0484862 0.0021505675
0.07517143 -0.08598668 0.006296631 0.015258547 -0.082602404 0.03855548 -0.030558154 0.004425201
0.01668674 0.07358756 0.02726343 -0.040397156 0.04635641 -0.02651171 0.008529496 0.05780858
0.086257115 0.051979937 0.040989917 0.065652 -0.094837174 -0.0011309101 0.0058409674 -0.056847133
0.056528307 -0.056597043 -0.09208725 -0.016335377 -0.027592 0.049659062 -0.024835516 -0.08251658
-0.00016589902 -0.03399423 -0.027991284 -0.02983692 0.043330576 0.03632043 -0.06691393 0.0043913554
-0.078150816 0.09702951 -0.04673313 0.042609446 -0.001743425 0.0885103 0.07699295 -0.07177143
0.04237713 0.023201503 -0.05931233 -0.015438434 -0.03547442 0.020522742 0.045972083 0.07536371
0.021633029 0.04595337 -0.009065389 -0.0423615 0.064770736 0.057921547 0.08101872 -0.0066788686
0.016263805 -0.008813379 0.023247795 0.067955956 -0.031986393 -0.07944786 -0.037532143 -0.040698644
0.05581964 0.10369574 0.005298712 0.016279755 0.04021095 0.07990199 -0.024789652 -0.020221043
0.095087126 -0.0067144516 -0.065745965 0.08025143 -0.04023693 -0.03203744 -0.06088406 0.10663747
0.10016029 0.0051092394 0.013389411 0.073182166 -0.05517202 -0.0053543937 -0.0062566507 0.01241864
0.046392184 -0.042251684 -0.006007132 -0.05460088 -0.01783466 0.08800713 0.020190587 0.02577889
0.09337757 -0.04204646 -0.076498605 -0.0268154 -0.006163053 -0.024945376 -0.008093157 0.06490359
0.060929406 -0.013154426 0.032471567 0.014856864 -0.033892248 -0.026122106 -0.009177259 0.022847885
-0.054918576 -0.043621622 0.03455639 0.030924357 -0.04236912 0.067710355 0.06551467 0.030304698
-0.05827813 0.0642814 -0.066042036 -0.016883323 -0.05530254 -0.01940736 0.06697316 0.03878033
0.078827746 0.020104922 0.10122477 0.094628036 -0.034682035 -0.035799805 -0.0014181926 0.0037732904
-0.040049557 -0.033660226 -0.063949995 0.06820841 -0.051524963 -0.04315199 -0.010547903 0.005729308
-0.061434932 -0.05277068 -0.0033542633 -0.017329546 -0.04105187 0.033809196 -0.02089417 0.10734588

network.4.bias f4 [5]
00000000: 2584 a7bc a3cf 8f3d ee34 693d 37f6 c0ba
00000010: 89b3 143d
-0.020448754 0.070220254 0.056935243 -0.0014721815 0.03630403

network.0.weight f4 [128, 82]
00000000: adb6 223d 5342 be3d 4954 47bd 34ea 153e
00000010: 2599 db3d b1f7 423d d608 743d cc8b 9abd
00000020: 0bdc 7c3c 1b6b ee3c 776a d9bd d3c5 3bbc
00000030: fd04 3b3c 22c3 683d 3dd5 9dbd ca7b 913d
00000040: d6da 113e e96c 933d b063 05bd 4e45 183d
00000050: fd54 f53b 2635 923d baea 93bd 128e 513b
00000060: 7359 a0bd 5e78 123e 5160 e3bd 254c e23c
00000070: d4a2 973d eaa2 69bb 53f9 8abd a182 a4bd
00000080: f344 0c3d 25f2 dd3d 3477 29be 7ecf f43d
00000090: ca06 353e 52ed edbc 3314 6c3d cc41 81bc
000000a0: 39d2 133d 84ba c33d 0c0c c53d dbcc d4bd
000000b0: 1224 063e a6ff e1bd 73ad 9abc 59c4 7d3d
000000c0: 555a a7bd 8d57 523d 6589 fc3d fd45 60bd
000000d0: 598a d63d 1e97 863d 19f7 9bbd 6d4a 003d
000000e0: 231d 1f3d b52e bd3d 6a8b efbd 35ed cabc
000000f0: aef5 0abe 2c6a 323c 6f58 21bd 0bbf e73d
00000100: 6ac7 403d 7bae 9ebd 4204 163a 44e7 db3c
00000110: 2805 6d3a eb34 aaba 7852 8b3d d081 033c
00000120: 4fd4 85bc 88f8 433d 48c1 a2bd 6dbc 9c3d
00000130: 34a5 1dbe 8fa4 b23d 3914 3dbc 1726 113d
00000140: 1a85 07be 7f8f 993d af16 d53d f32c 17bd
00000150: 9ae4 97bd 2b41 1d3d fff5 b83d 6095 20bd
00000160: 4d75 003d ca4a cabd 4278 a0bc 0baf 81bc
00000170: 2a09 343c a5d1 9d3d 4b26 d43d 024f b0bd
00000180: eafc a83d e091 2abd 9fa8 0b3e 0540 133e
00000190: 1d59 dcbc 3082 d23d a065 00bd b9e2 fa3d
000001a0: a818 4a3c f18b 04be 6086 433d 973d b93c
000001b0: bd8f 62bd 7d92 12bd 1c71 b9bc 9648 fdbd
000001c0: 4aba c33d 23b4 d0bd 5456 e33d d500 813d
000001d0: 215b 173d ff25 8f3d 7756 b23d 72dd 903d
000001e0: 4c71 7e3d 6f7b afbd d390 d33a ed04 d93b
000001f0: 9530 b7bd ff20 e4bd bc93 5dbd b7b9 8fbd
00000200: fcb2 37bd 3fd1 233d ee90 bb3d de52 09bd
00000210: 07d2 963d 34ba 0c3a 1cf9 ac3d eba6 243e
00000220: dbb5 c1bc 48dd 70bd 8126 bb3d a900 cf3d
00000230: 4790 053d 6c44 d0bb 5443 1bbe f698 fd3d
00000240: ed67 5ebc b868 87bc b2d2 9d3d 5e06 1fbe
00000250: 5a13 a4bd b6f1 8bbc 1a52 c43c 8e71 a73d
00000260: ce33 17bc 3cb0 643c 55a4 e4bc 100e 82bd
00000270: fc3d 04bd 9868 babd 7f53 e03c a6b5 96bd
00000280: 7cb1 b139 0ee8 8cbd ccdc d8bc a254 f8ba
00000290: 5aad 0e3e f770 b43d d58b b8bd 1921 f33c
000002a0: 2ac2 48bc 1fa8 4c3d 30b2 29bd ea62 173e
000002b0: c466 b1bd 75c1 b13d 09f8 8c3c a36a 04bd
000002c0: 58c8 8bbd d793 44bc 53c1 223d ad52 713d
000002d0: 8d26 84bd 4dda 123e 8ecc 21bc 61ca fa3d
000002e0: 46f4 c1bc 6f1d 0bbe 3908 dd3c 97e1 1b3c
000002f0: c2b2 d4bc e7dc fdbd ed1a 4e3c bd8d e3bd
00000300: 664e 44bd 011e 3cbd 7a72 6abd 48fe c53d
00000310: 0666 ab3d ef9c 0ebe eea4 04bd d984 1c3c
00000320: 084c ad3d 1b30 053d 9874 c5bc 7cee 8c3d
00000330: 1c18 263d b23b 283d d2f8 f93d c7f9 66bc
00000340: 10b3 003e 2982 47bd f2c9 0b3d 2bc4 a0bd
00000350: 611b c5bd 0858 71bd 1dc3 e73c bb2d c93c
00000360: a884 4dbd c462 d9bd 85b5 c4bc aa48 e83d
00000370: 52ee 3c3d 135f b0bd de36 dfbd 32fa 6fbd
00000380: 010b bcbc eb35 79bd b986 51bc ee87 113d
00000390: 9d4f b7bd 5175 97bd f1d8 7d3d 0be6 c9bd
000003a0: ce66 ecbd e87f 3e3c 8901 08be caea 5dbd
000003b0: b228 eb3d 3fb7 08bd d458 47bd a1be 543d
000003c0: cd31 88bd 3881 123c 6494 c33d 7a49 74bd
000003d0: 066a b1bd 82b1 8d3c 138d 423d 8f27 823d
000003e0: e772 0d3c db7f 6abd 26a1 c33d 03b3 e93d
000003f0: c68d 76bd c732 b73c 4016 0c3c f9bc b63d
0.039724994 0.09289994 -0.048664365 0.14640123 0.107225694 0.0475995 0.05957874 -0.075461954
0.015433322 0.029103806 -0.1061601 -0.011460739 0.0114147635 0.05682672 -0.077066876 0.07103689
0.14243636 0.07198507 -0.032565773 0.03717547 0.007486938 0.071390435 -0.07222505 0.003197555
-0.07829561 0.14303729 -0.11102355 0.0276242 0.07404104 -0.0035650083 -0.06785836 -0.08032728
0.034245443 0.10837201 -0.16549379 0.119536385 0.17678371 -0.029043827 0.05763645 -0.015778445
0.036089156 0.095570594 0.096214384 -0.103906356 0.13099697 -0.11035089 -0.018881535 0.06195483
-0.08171526 0.051353026 0.123308934 -0.054754246 0.104756065 0.06571792 -0.076154895 0.031320978
0.038846146 0.09237424 -0.11696513 -0.024771312 -0.13570282 0.010889571 -0.039390977 0.113157354
0.047065176 -0.07748123 0.00057226804 0.026843674 0.0009041601 -0.0012985741 0.06802839 0.008026555
-0.016336588 0.04784444 -0.07947022 0.07653127 -0.15395051 0.08722793 -0.011540466 0.035436716
-0.13234368 0.07498073 0.10404717 -0.0369081 -0.07416649 0.038392227 0.09031295 -0.039204955
0.031361867 -0.09877546 -0.019588593 -0.015830537 0.010988513 0.07706002 0.10358866 -0.086088195
0.082513645 -0.041643023 0.13638543 0.1437989 -0.026897961 0.102787375 -0.031346917 0.12250275
0.01233498 -0.12944008 0.04773557 0.022612376 -0.05531286 -0.035784233 -0.022636943 -0.1236736
0.09557016 -0.10190608 0.1110045 0.06298987 0.03695214 0.06989669 0.08707898 0.07073487
0.062119767 -0.08568465 0.0016141183 0.0066229017 -0.08944813 -0.11139106 -0.05409597 -0.07017844
-0.044848427 0.039994475 0.091585025 -0.033526294 0.07364278 0.00053683226 0.08445951 0.16079299
-0.023646286 -0.05880478 0.091382034 0.10107548 0.032608297 -0.006355813 -0.15162402 0.123826906
-0.0135745825 -0.016529426 0.077062026 -0.15529773 -0.080115035 -0.01708303 0.02396493 0.08175956
-0.00922866 0.013958033 -0.02791039 -0.063503385 -0.032285675 -0.09101981 0.027383564 -0.073588654
0.00033892307 -0.068801984 -0.026472472 -0.0018946121 0.13933316 0.08810609 -0.09011046 0.029678868
-0.012253324 0.04996502 -0.0414297 0.14783826 -0.08662179 0.08679477 0.017208116 -0.03232826
-0.06825322 -0.011998138 0.03973515 0.058916736 -0.064526655 0.14341088 -0.00987543 0.12245632
-0.023676049 -0.13585447 0.02698146 0.009514234 -0.025964145 -0.123956494 0.012579662 -0.11111019
-0.04792633 -0.04592705 -0.05723808 0.09667641 0.08369069 -0.13927053 -0.03238385 0.009553158
0.084617674 0.03251658 -0.024103448 0.06881425 0.040550336 0.041072555 0.12205662 -0.0140976375
0.12568307 -0.048708115 0.034128137 -0.07849916 -0.09624363 -0.058921844 0.02829128 0.024557939
-0.05017534 -0.10614541 -0.024012337 0.113419846 0.046125717 -0.08611884 -0.10899137 -0.058588214
-0.022954466 -0.060842436 -0.012788468 0.035530023 -0.08950732 -0.07395423 0.06197447 -0.0985833
-0.11543046 0.011627175 -0.13281836 -0.05417899 0.114823714 -0.033377882 -0.048668697 0.05193961
-0.06650124 0.008941941 0.09549788 -0.059640385 -0.086628005 0.017296556 0.04749782 0.063552015
0.008633352 -0.05725084 0.09552221 0.11411097 -0.0601938 0.02236308 0.008550227 0.089227624

network.0.bias f4 [128]
00000000: 85a7 40bd 4a30 f53a 13aa 2cbd 3040 0b3e
00000010: e9f3 97bc 1cef 573d 814f bfbd 7ed0 bfbd
00000020: 7f2f 953c d215 b53d cd2c 90bc 51f5 eeb9
00000030: bdd1 99bd 8cd6 0e3c 7f72 0d3e c6fb f0bb
00000040: 72c2 5cbd b6e4 423c 51d9 1ebd d422 673c
00000050: 02c5 bc3d cf45 e93d 96fc 113e fb4b a8bd
00000060: 15ed 0cbc 6e5a 45bd 7519 053e ce8e 163c
00000070: 9bf5 733d bbf7 cd3d 135e a3bd e1ae 043d
00000080: c17d 6e3d 6c9e 813b 9de2 80bd d585 07bd
00000090: 20cb ca3d 7812 af3d 9a29 c4bd 73a4 5bbc
000000a0: c397 57bc de3b 2e3d 211a b2bb fbd2 81bd
000000b0: 569a 9dbd 2584 14bc 18f8 8bbc 3c6b 733d
000000c0: fd4c 903d 8494 2a3d 6b13 6c3d 19f6 e2bc
000000d0: 9f0b 773d 7095 a3b9 377b 17ba 5e7e 86bd
000000e0: bd1d 8ebd ef53 a83c 8f03 72bc 33ac 71bd
000000f0: 574b 4bbd 71ba 60bd c48b ef3d 83be dfbc
00000100: 382f b63d b4d4 20bd 2866 28bb f09f b33c
00000110: dc62 0a3d ba66 a43c dc65 923d 7b8b 313d
00000120: 8360 22bd 2140 9d3d 5ba7 59bd be62 d23d
00000130: fb9c 91bc 3c30 6e3d f246 97bd 8cb9 a33d
00000140: e288 c1bc 0b7b a1bc dc92 5c3d 504a 163d
00000150: 31cf b3bc 5615 0f3d a375 5a3c cf16 a03d
00000160: a857 623d 519c bd3d 0679 3ebd 9dc4 183d
00000170: f528 003e e320 b6bd 3494 f43d 9ad4 fc3d
00000180: 62b3 4abd 3c6e ce3d 2e99 8dbd 3597 0f3e
00000190: 054d f73d 88a6 443c a012 2ebd e1be 3f3d
000001a0: 33f0 d2bd a0b8 703d 0cf4 b2bc 8636 1fbd
000001b0: a63a aabb 4636 c93d 90ec 683d 101c 243d
000001c0: 930e b6bc 81ef 50bd da2d e83d f782 283c
000001d0: 54d8 a23d 4d6c 443d 5fbb 983d 5461 063e
000001e0: 9b52 9cbd 3af1 e53d 66f1 243d 4241 89bd
000001f0: c5f4 7cbc 4c20 dc3d 4537 a2bd 6f71 973c
-0.04703476 0.0018706408 -0.042154383 0.13598704 -0.018548923 0.052718267 -0.09341336 -0.093659386
0.018211124 0.088420525 -0.017599488 -0.00045577672 -0.075107075 0.008718144 0.13813208 -0.0073542325
-0.053896375 0.011895349 -0.038781468 0.014107425 0.09217264 0.11390268 0.1425651 -0.08217617
-0.008601447 -0.048181944 0.12997992 0.009189321 0.0595604 0.100570165 -0.079769276 0.03239334
0.058225397 0.003955653 -0.06293223 -0.033086617 0.09902024 0.085484445 -0.09578247 -0.013405907
-0.013158741 0.042537563 -0.0054352437 -0.063390695 -0.07695453 -0.009064709 -0.017086074 0.05942844
0.07045934 0.04164554 0.057635706 -0.02770524 0.060313817 -0.00031201122 -0.00057785533 -0.065670714
-0.06939266 0.020547835 -0.014771356 -0.059002113 -0.049632397 -0.054865304 0.1169658 -0.027312523
0.08895725 -0.03926535 -0.0025695655 0.02192685 0.033785686 0.020068515 0.071483344 0.04334591
-0.039642822 0.07678247 -0.05313812 0.1027274 -0.01777505 0.05815147 -0.073865786 0.07994375
-0.023624841 -0.019711992 0.053850994 0.036691964 -0.021949382 0.034932457 0.013333711 0.078168504
0.055259377 0.092583306 -0.046502136 0.03729688 0.12515624 -0.088929914 0.1194233 0.12345238
-0.04948748 0.10079619 -0.06913982 0.14022525 0.12075237 0.012002595 -0.04249823 0.046812896
-0.102997206 0.058769822 -0.021844886 -0.038870357 -0.0051949797 0.09824805 0.05686623 0.040065825
-0.022223746 -0.05100966 0.113368705 0.010285131 0.079514176 0.047954846 0.07457613 0.13123065
-0.07632943 0.11227651 0.040269278 -0.067019 -0.015439217 0.10748348 -0.07920698 0.018486707

network.2.weight f4 [128, 128]
00000000: 77a4 b9bd 0a00 47bd d7a0 48bd c64f 033b
00000010: c393 9ebc 46fd d93d 5003 f0bd e901 ac3d
00000020: 3da1 60bd 356b c4bc 18ff 0a3d 98a0 23bc
00000030: 108d a0bc 6217 97bd 3489 453d 3672 45bc
00000040: 4b23 0dbd 706b 873d ff4c 8a3d 9694 0f3d
00000050: afd3 20bd a8ee 0d3d 4302 e93c 5e9f e83d
00000060: 8a8f 753d 63c8 56bd fbaa bcba 5ed6 a63d
00000070: 8aa9 273d d79b b13c 5075 d5bd ac7a 11bd
00000080: a958 cdbd 1558 963c 5bc7 86bd b6af b03d
00000090: 317b ab3b 76fe 3c3d 5b39 be3d cfa5 3c3d
000000a0: 671c 783c 459e ff3d 5acb cb3c 81be d5bd
000000b0: 0fb3 08bd 10bc c93d cb8b eb3d efcc a13c
000000c0: cf7b 253d 72de ddbc 8ca7 6f3d 2213 553d
000000d0: 9501 283d a301 843d af2d c6bd 29c3 2bbe
000000e0: 2e55 723d 03bb 1d3d bd62 0a3e aaee 37be
000000f0: fa71 db3d ba4b 693c da34 2cbb 7938 4d3c
00000100: 5252 3dbd 65b9 783d b1fa bb3d 6a08 4b3d
00000110: c014 c0bc efcd 90bd d7d1 13bc e3ef 083e
00000120: 5f23 93bc 75e7 c5bb 5b9a b33c fc05 8e3d
00000130: 0cf8 df3c f9d0 ff3d 8a9b 03be d443 8a3d
00000140: 7819 ad3d 05bc 8fbd ea46 86bd 47d3 783d
00000150: 8382 c2bd 599d 57bd 30c3 a5bd bbb7 8e3d
00000160: dfa4 8e3d 94a7 f73d 372e a4bc c394 38bd
00000170: d7d6 60bd ca1b 57bd 6b6e f03d 5cee 2c3d
00000180: 3961 683c ea68 103d 8ef0 273d 825b 55bc
00000190: 42d5 6abc 3f12 6e3d ac5a 95bd 13ad 793d
000001a0: b97d b4bd 2184 823d 7ce9 c93d 8262 7fbd
000001b0: 1f47 b43c 12a5 dd3d c729 aa3b 6546 8abd
000001c0: b6a6 933c 7a6f dbbc e4a2 32bd e733 5ebd
000001d0: 3ef5 473d 5ae1 e8bc 80bc dabd 338c ab3d
000001e0: 98e4 013e eba8 a339 3ece 213d 9dab 6d3c
000001f0: 7951 273c 41da 1e3e 5c2e 5bbd 7c0c 71bd
00000200: a31a 00be fb2c 9dbd b6ed debd cdd9 db3c
00000210: 6fe3 afbc b6ab 4d3d 20aa 0abe 781c b0bd
00000220: ef23 733c ff6f a73d 2278 eb3d 60fa d83d
00000230: c918 a9bd 6304 f4bd 7d5c d5bc dd0e 123e
00000240: 61bc e33c 2694 e23d 20c4 333d b985 943c
00000250: a34f 8ebd ef00 073e f7b1 953d a52b 823c
00000260: 0adf b83d f860 c4bd 76b1 f63c 8d05 9d3d
00000270: a794 7a3d 5aad fd3c 7287 133d e1e1 87bd
00000280: a1c0 dabd 114f 913d 76e4 1bbd 9ca9 38bd
00000290: 725d 253d 50df 75bd ff20 97bc 2205 8ebc
000002a0: 99a3 413b 7ac9 5dbc f7a7 2ebd 83fc b5bc
000002b0: da65 4d3d dfaa 04bd 1987 ac3d 8bf6 993d
000002c0: fb6d a03c f6ef 6c3d a304 27bc 0c19 893d
000002d0: 543a 8dbd 7ee5 4a3d 8d78 f1bd 5889 1abe
000002e0: 4e91 f5ba f73b 3abc 91aa 34bc e0ff 44be
000002f0: dc68 baba e616 d1bb b535 0b3d 1fe5 563c
00000300: 9fc7 613d cb16 a03c 8cae 873c 2430 753c
00000310: 05b7 53bd 31a4 ca3c c2a0 de3c 5d4a fd3c
00000320: e35e 23be 9cb3 9a3d 60b0 e03d c907 cb3d
00000330: 1b39 3b3d 69e0 123d 5cde 19be 335a 4ebd
00000340: e7c6 9cbc cc8d c8bd b78e 04be 62c1 0a3d
00000350: 9ec9 693a 9393 26bd dbe0 933c 5e29 e53c
00000360: b78c 5abd 1d9b 37bd 1fc1 07bd 6471 5b3d
00000370: f920 85bc ca3f 433d c8a6 d23d b26e 623c
00000380: 5f01 97bb c5a7 2b3d 981b d43c 34c0 983b
00000390: 0401 d93d be55 f03c e03a 04be 50ad 23bd
000003a0: 73e9 b2bd 491d d33d 1adb c63d 0be9 62bd
000003b0: fe31 89bc da81 7d3d e114 023c b0e2 203c
000003c0: 5e95 3bbb 4c16 ec3c c7e2 5e3d da8f 363d
000003d0: 2548 9f3d 0a7b c23c f8bd 243d 9ae5 213d
000003e0: 73af 393d 3f9c 7dbc 4dc0 afbd 0bd2 43bd
000003f0: 2063 2bbc 290f e73b 0520 a53d 4076 49b8
-0.09064572 -0.04858402 -0.048981514 0.0020036562 -0.019357568 0.10644011 -0.11719382 0.08398802
-0.05484127 -0.023976902 0.033934683 -0.009987019 -0.019598514 -0.07377507 0.04822655 -0.012051156
-0.034457486 0.06612289 0.06752967 0.035053812 -0.039264377 0.03465143 0.028443461 0.11358522
0.059951343 -0.052437197 -0.0014394218 0.08146356 0.04093317 0.021680756 -0.10422766 -0.03551738
-0.10026676 0.018352548 -0.06580993 0.08627264 0.0052331914 0.04614111 0.092882834 0.046056565
0.01514349 0.124813594 0.024877239 -0.10436726 -0.03337389 0.09850323 0.11501273 0.01975104
0.040401276 -0.02708361 0.058509395 0.0520202 0.041017134 0.06445625 -0.09676682 -0.16773666
0.059163265 0.038508426 0.13514228 -0.17962137 0.10715099 0.014239246 -0.002627662 0.012525671
-0.046221085 0.06072368 0.09178675 0.04956857 -0.023447394 -0.07070529 -0.009022198 0.1337276
-0.017961202 -0.0060395547 0.021924188 0.06934735 0.027339958 0.1249103 -0.12852302 0.067512184
0.084521234 -0.07018284 -0.065564945 0.060748365 -0.094975494 -0.052640293 -0.0809387 0.069686376
0.069650404 0.1209251 -0.020041568 -0.045063745 -0.054892387 -0.052516736 0.117398106 0.042219505
0.014183336 0.035256304 0.041000895 -0.013022305 -0.014333071 0.05812287 -0.07292685 0.060956072
-0.08813042 0.06372858 0.09858987 -0.062349804 0.02200657 0.108225 0.0051929685 -0.06751708
0.01802383 -0.026786555 -0.043612376 -0.054248717 0.048817866 -0.028427768 -0.10680485 0.0837635
0.12684858 0.00031215636 0.03950333 0.014506248 0.010212296 0.15512945 -0.05351101 -0.058849797
-0.12510161 -0.07674595 -0.108851835 0.026837254 -0.021470753 0.050212584 -0.1354146 -0.0859918
0.01484011 0.081756584 0.11497523 0.1059463 -0.082566805 -0.11914899 -0.026045078 0.14263482
0.027799787 0.11063413 0.04388821 0.01813017 -0.06948783 0.1318395 0.07309335 0.015889952
0.09026916 -0.09588808 0.030113917 0.07667074 0.061176922 0.03096645 0.036017843 -0.0663488
-0.10681272 0.07095159 -0.038059674 -0.045083627 0.04037232 -0.06002742 -0.018448351 -0.017336432
0.0029546975 -0.013536805 -0.042640653 -0.022215134 0.05014596 -0.032389518 0.08424205 0.075177275
0.019583693 0.057846032 -0.010193977 0.066942304 -0.06895891 0.049535267 -0.11790571 -0.15091455
-0.0018735321 -0.011366836 -0.011026994 -0.19238234 -0.0014221924 -0.0063809035 0.033986766 0.01311615
0.055122014 0.019542119 0.016562723 0.014965091 -0.051688213 0.024736496 0.027176265 0.030919248
-0.15954165 0.07553789 0.10971141 0.09913594 0.045708757 0.035858545 -0.1502623 -0.05037899
-0.019137813 -0.097926706 -0.12945066 0.03387583 0.0008918288 -0.04066808 0.018051555 0.027973827
-0.053356852 -0.044825662 -0.03314316 0.053574935 -0.016251074 0.047668256 0.10285717 0.013820337
-0.0046083177 0.041908044 0.025892064 0.0046615843 0.10595897 0.02933776 -0.12913084 -0.039960206
-0.08735933 0.1030832 0.09709759 -0.05539803 -0.016747471 0.061891414 0.007939548 0.0098196715
-0.0028622965 0.028819226 0.05441549 0.04457078 0.07777432 0.02374031 0.04022023 0.039525606
0.045333337 -0.0154791465 -0.085816 -0.047807734 -0.010460645 0.007051368 0.08062748 -4.8032263e-05

network.2.bias f4 [128]
00000000: 4b09 bf3d 45e9 4b3d 122f 56bc 0d47 02bd
00000010: b813 953d fe24 a1bb 8ad2 bd3d 6935 583c
00000020: 40a1 1f3d 6434 f93c 9ce5 c33a bd78 df3d
00000030: d162 983d ab69 7f3d b6aa 32bd fef6 2abd
00000040: 561a 283d 9aec a83d f984 a5bd 9476 eb3d
00000050: dd97 eb3c bc3b 34bd 2538 15bc f157 703d
00000060: e619 b43c 63fa 013d c24a a23d 05cd 0bbc
00000070: f4ae e63c bf59 833d e773 69bd e3b0 1bbd
00000080: 7786 cf3d 53a8 a2bd 5f46 3c3d dad7 063c
00000090: 8f75 c4bc 7dce 2e3c afcc 2c3d 505d d93d
000000a0: 6833 243d 5b52 20bd 488b 283d 4f1b fcbc
000000b0: 9c99 2fbd 22ad 8abd ce1d d8bc f425 2cbd
000000c0: 08fb 3639 75c6 503d 03f5 30bd f0c6 243d
000000d0: 818d 9cbd ff08 983d 4415 a0bd 552c a83d
000000e0: 70f5 05bd 9e74 ab3d 6e83 5b3d 30e5 97bb
000000f0: 2b6f ea3c a1a9 fd3c 0b5d 2b3d 0aa2 6b3d
00000100: f523 d9bc 5df2 83bd 96fa 6f3d 7794 62bd
00000110: 2815 7bbd 7e82 833d b1d5 79bd 18ad 64bd
00000120: 861f 40bd 3b0d 99bd e85f 9e3d 0f74 a3bb
00000130: d2ea d53d 8b93 ebbc 0b71 983d 62a7 6f3d
00000140: 8956 533d 8be5 bfbb 3cbd 60bc c617 8e3d
00000150: 4940 0abd 366e a83d 80f8 9abd d426 1fbd
00000160: 13a0 93bd 2262 113d c20f 81bd 32a3 6a3d
00000170: 53e9 953d f2d8 2fbd fbf1 c1bb cd54 063d
00000180: 7d0f b4bd 83d8 113d a9da c5bd 4c90 8ebd
00000190: 8ab9 4fbd 258c 7abd 870a 633d d016 84bd
000001a0: e69f 6abd 9fa5 a93b ce19 a83d 1fed 70bd
000001b0: 6777 56bd 08e1 f83c 1b77 45ba 8c40 1ebc
000001c0: 24e9 cd3c 60dc 663d 591f 0ebd 1c3f a2bd
000001d0: a247 3a3d 2758 433d d963 51bc 4fb1 f23d
000001e0: 685a 883d a1af 0abd e9e6 3e3b 9e9d 3c3c
000001f0: 0229 553d 5c85 1e3d d499 a8bd 798d 38bd
0.09327944 0.04978301 -0.013072746 -0.03180604 0.07279152 -0.00491774 0.09268673 0.013196328
0.03897214 0.03042049 0.0014945748 0.10911701 0.07440723 0.062356632 -0.043619834 -0.041739456
0.04104074 0.08248253 -0.08082003 0.11497226 0.028758937 -0.04400228 -0.009107624 0.058677617
0.021985006 0.031732928 0.07924415 -0.008532767 0.028159596 0.06413602 -0.0569953 -0.03801049
0.10133069 -0.079422615 0.04596555 0.008230174 -0.023981838 0.010669348 0.04218739 0.10613501
0.040088087 -0.03914104 0.041148454 -0.03077474 -0.042871103 -0.06771304 -0.0263814 -0.042028382
0.00017450389 0.050970513 -0.04320241 0.040228784 -0.07644177 0.07423591 -0.07816556 0.08211581
-0.03270477 0.08371852 0.053592138 -0.0046354756 0.028617462 0.030964674 0.04183678 0.05752758
-0.026506403 -0.064427115 0.058588587 -0.05531737 -0.061299473 0.06421374 -0.060994808 -0.055829138
-0.046905063 -0.07473227 0.077331364 -0.0049882005 0.10445179 -0.028756877 0.07443436 0.058509238
0.0515962 -0.005856221 -0.013716992 0.06938128 -0.033752713 0.08224146 -0.07566929 -0.03885539
-0.07208266 0.035493977 -0.06301834 0.05728454 0.07319894 -0.042931505 -0.005918739 0.032795716
-0.08792017 0.035606872 -0.09660847 -0.06961116 -0.050714053 -0.06116881 0.05542996 -0.06449664
-0.057281397 0.0051772143 0.08208047 -0.058819886 -0.052359965 0.03038074 -0.0007532702 -0.009658944
0.025135584 0.05636251 -0.034697864 -0.079221934 0.04547847 0.04769149 -0.012780153 0.11850225
0.066578686 -0.0338589 0.0029129332 0.011512188 0.05204106 0.0387014 -0.082324654 -0.045056794

network.4.weight f4 [1, 128]
00000000: 1a87 0b3e 1330 f73d 1609 3ebe 46c4 093d
00000010: 07dd c5bd c0b5 9cbd de2f ba3d c8f9 4fbd
00000020: c4dd 253e baf8 e4bd 1032 9b3d bd7d c53d
00000030: 66bb 313e 19a9 23be 7aed 31be 4cdc 0abe
00000040: a2e8 0bbe 4474 ab3d 0591 cfbd 83f9 163e
00000050: 9a4c 143e 47f7 c93d 3131 e1bd 7bb5 b93d
00000060: 5ebd 03be 08a1 c2bd c019 97bd 68f6 d73d
00000070: 69f2 06be cc5a 5fbc 64c7 193e 34db ccbd
00000080: 80d7 e03d be1f 843d 8987 ccbd 1d36 acbd
00000090: 48df e2bd c855 2a3e 74dd 0a3e 8fbb 313e
000000a0: 4567 c83d 6fbb 02be bd8c e23d 368c 2d3e
000000b0: 6a6d 02be 95ef 6b3b 5d3c a13d 05d6 cf3d
000000c0: 564e 1bbe 2569 2f3e 2aed edbd d2ea 063e
000000d0: 1194 11be 54c9 083e 07fc d8bd 34d4 013e
000000e0: 472f 623c 7185 60bd 8da6 33bd b6fc 93bd
000000f0: ca3c b83d 2409 173e ca9f 103e a951 1a3e
00000100: eb47 123e 7f8b b33d 3a66 d2bd ca70 edbd
00000110: 8c81 04be 70b4 04be 38e5 0bbe c350 eabc
00000120: 8675 efbd 1509 eebd 6fad 07be 0e4c 173e
00000130: c1fd ea3d 760d 103e f919 313b b1d6 673d
00000140: 82e6 c3bc 1c75 0e3e 9218 1c3e 667a 313e
00000150: 8ca8 aa3d 0e61 043e 937d 01bd e676 ac3d
00000160: 1ac7 bebd 4e67 0f3e b7c9 cfbd 0ff9 f1bd
00000170: 8a55 103e 8fdf 17be 740c 44bd 9d07 dbbd
00000180: 29a3 8a3b 8ce6 263e 25d9 fbbc 43f3 d8bd
00000190: fc92 4fbd eb42 a4bd 7601 00be 8feb 413b
000001a0: 45af 903d a235 913b c3f4 bf3d bcfe 21bd
000001b0: 4ab6 6a3d 4ea7 023e 29bc c53d e129 843d
000001c0: 4145 223e d575 f0bd 05e8 073e 6de8 10be
000001d0: 3e20 173e 8cb5 b43d 5e78 223e 6ecc 213e
000001e0: 04f9 3fbe bd06 28be 8192 113e 6a5f a9bd
000001f0: e217 b33d 98c9 bc3d 18c2 36be 7a92 983d
0.13625756 0.12069716 -0.18558154 0.033634447 -0.09661298 -0.076518536 0.09091161 -0.05077532
0.16197878 -0.11180253 0.07577908 0.09643123 0.17356643 -0.15982474 -0.17375746 -0.13560599
-0.13662961 0.08371785 -0.10135082 0.14743619 0.14482346 0.098616175 -0.10995711 0.09067818
-0.12865207 -0.095033705 -0.07377958 0.10545045 -0.1317841 -0.0136324875 0.15017468 -0.10002747
0.10978603 0.06451367 -0.09986789 -0.08408759 -0.11077744 0.16634285 0.1356104 0.17356704
0.09785322 -0.12766813 0.11062 0.16948017 -0.1273705 0.0036000956 0.078728415 0.10148243
-0.15166602 0.17129953 -0.11617501 0.13175514 -0.14216639 0.1335805 -0.105949454 0.12678605
0.013805217 -0.05481476 -0.043860007 -0.07225935 0.089959696 0.1474958 0.14123455 0.15070213
0.14285247 0.08766841 -0.102734044 -0.115937784 -0.12940043 -0.12959456 -0.13661659 -0.028602963
-0.11692338 -0.11622826 -0.13249753 0.14775106 0.11474181 0.14067635 0.0027023538 0.05660123
-0.023913626 0.13911861 0.15243748 0.17331848 0.08332929 0.12927648 -0.031613898 0.084211156
-0.09315319 0.14004251 -0.10145896 -0.11815082 0.1409513 -0.14831375 -0.04786344 -0.106948115
0.004230876 0.16298884 -0.030743191 -0.105932735 -0.050677285 -0.08020576 -0.12500557 0.0029589867
0.0706468 0.0044314424 0.093728565 -0.039549574 0.05730275 0.12759134 0.09655029 0.064533
0.15846731 -0.11741225 0.13272102 -0.14151163 0.14758393 0.0882369 0.15866229 0.1580064
-0.18747336 -0.1640882 0.14216043 -0.08270152 0.0874479 0.092181385 -0.17847478 0.07449813
