models_backup/New folder/actor_agent1.pt (torch, 156177 bytes, 6 tensors)

fc1.weight f4 [256, 18]
0	0xbe704b85	-0.23466308
1	0xbe65a538	-0.22426307
2	0xbdfd7681	-0.123761185
3	0xbe6d5e5b	-0.23180525
4	0xbe707d70	-0.2348535
5	0x3e36c963	0.1785026
6	0xbd4e58b4	-0.050377563
7	0x3e6db1f9	0.23212422
8	0x3d59e854	0.05320008
9	0x3e015917	0.12631641
10	0x3e145009	0.14483656
11	0x3c8b91c8	0.017037287
12	0x3ddd7f7e	0.10815333
13	0x3e11ff7b	0.14257614
14	0x3e484d15	0.19560654
15	0xbe346b66	-0.17619094
16	0xbb061540	-0.0020459443
17	0x3e6ab8ad	0.2292201
18	0xbd5a6ae8	-0.05332461
19	0xbdd03002	-0.10165407
20	0x3e1ad05b	0.15118544
21	0xbdddaf3e	-0.108244404
22	0xbe015f83	-0.12634091
23	0x3e0b29c7	0.13590156
24	0x3dbd886a	0.092545345
25	0xbd8cb678	-0.06870741
26	0xbd9d4e96	-0.07681005
27	0xbdb9a5a6	-0.09064798
28	0x3e3f330f	0.18671821
29	0xbe55211a	-0.20813408
30	0xbe13a0b1	-0.14416768
31	0xbe6a1844	-0.22860819
32	0x3d8f3d0e	0.06994067
33	0x3df89eca	0.121396616
34	0xbe2fef3e	-0.17181107
35	0x3e6df2d9	0.2323717
36	0xbb849380	-0.0040459037
37	0x3bf917a0	0.0076016933
38	0xbda01996	-0.0781738
39	0xbd3b01e0	-0.045656085
40	0xbc569810	-0.013097778
41	0xbd6a5e8c	-0.057219073
42	0x3dda8646	0.10670142
43	0xbe412294	-0.18860847
44	0xbe064ff8	-0.13116443
45	0x3ceefdc8	0.029173747
46	0xbe2576a8	-0.16158545
47	0xbdb91906	-0.09037976
48	0xbe5ef766	-0.21774063
49	0xbe217892	-0.1576865
50	0x3e3fe23b	0.18738644
51	0x3dd2aeea	0.102872685
52	0xbe457e4a	-0.19286457
53	0x3da054f6	0.07828705
54	0x3d18cac4	0.037302747
55	0x3e1bb4f1	0.15205742
56	0xbda167ba	-0.078811124
57	0xbe095225	-0.13410242
58	0xbe219f76	-0.15783486
59	0xbc24ee50	-0.010066584
60	0xbe55a7fa	-0.20864859
61	0xbd777f20	-0.06042397
62	0x3da0876a	0.07838328
63	0x3b8960a0	0.004192427
64	0x3e0ca05f	0.13733052
65	0x3dad67b2	0.08467044
66	0xbe122eaf	-0.14275621
67	0xbdc8da54	-0.09807268
68	0xbe3d413c	-0.18481916
69	0x3e5811b7	0.21100508
70	0xbce10ed0	-0.027472883
71	0xba2bf800	-0.0006560087
72	0x3e70e6ed	0.23525591
73	0xbd36264c	-0.044470116
74	0xbdf01dd7	-0.117244415
75	0x3cb8be38	0.02255164
76	0xbda868b6	-0.08223097
77	0x3e182ca9	0.14860786
78	0xbd141394	-0.036151484
79	0xbddb8d16	-0.107202694
80	0xbe3f3570	-0.18672729
81	0x3e6ad111	0.22931315
82	0xbe2394d6	-0.15974745
83	0xbe0d2bc8	-0.13786232
84	0x3ca5e218	0.020249411
85	0xbd86dbc0	-0.06584883
86	0x3db986be	0.09058903
87	0xbe0f0c1e	-0.13969466
88	0x3e352b85	0.17692383
89	0xbdf5a7de	-0.11994909
90	0x3e3840ad	0.17993422
91	0xbe1d48c6	-0.15359792
92	0x3cc16068	0.02360554
93	0x3e47d3b9	0.1951436
94	0xbdcfa26c	-0.101384014
95	0xbc518fc0	-0.01279062
96	0x3e6ca7d5	0.23110898
97	0xbd1531b0	-0.03642434
98	0xbe364397	-0.17799221
99	0x3d14023c	0.036134943
100	0xbdccf192	-0.100070134
101	0xbdac894e	-0.08424626
102	0x3e3dc1e9	0.18531002
103	0x3c6c5770	0.014425144
104	0xbccd37c8	-0.025051013
105	0x3e4de72b	0.20107715
106	0xbd8c0e92	-0.068387166
107	0xbe0f543c	-0.13996977
108	0x3d135ddc	0.035978183
109	0xbe51db83	-0.20493893
110	0xbd926f26	-0.07150106
111	0xbe3a4f50	-0.18194318
112	0xbd999b32	-0.07500304
113	0x3c33e4f0	0.010979876
114	0xbe5bb331	-0.21455075
115	0xbd79302c	-0.060836956
116	0x3d80801e	0.062744364
117	0xbd6daaf0	-0.058024347
118	0x3e09c90f	0.13455604
119	0xbe504896	-0.2034019
120	0x3d35a924	0.04435076
121	0xbd50acf8	-0.050946206
122	0xbd6a0ee0	-0.057143092
123	0x3e580a41	0.21097662
124	0xbc995390	-0.018716604
125	0xbe141da8	-0.14464438
126	0x3b339000	0.0027399063
127	0x3e0880b9	0.13330354
128	0xbe389b72	-0.18028048
129	0xbdf2f066	-0.118622586
130	0x3dfd06f2	0.1235484
131	0x3e41f5a7	0.18941365
132	0x3d8054da	0.06266184
133	0x3d46341c	0.04838954
134	0x3ca34d38	0.019934282
135	0x3daf2472	0.08551873
136	0xbd223578	-0.039601773
137	0xbe01c530	-0.12672877
138	0xbe341f15	-0.17589982
139	0xbc9520b0	-0.018204063
140	0xbda12dbe	-0.07870053
141	0x3d00ec0c	0.03147511
142	0x3d0ca8d4	0.034340695
143	0xbe17559a	-0.14778748
144	0xbe2c43ea	-0.16822782
145	0x3d2185ac	0.03943412
146	0x3e227479	0.15864743
147	0xbd928838	-0.07154888
148	0x3e2de28b	0.1698095
149	0x3e222f15	0.15838273
150	0x3e5fdd2b	0.21861713
151	0x3e54b6d3	0.20772867
152	0xbe46d15e	-0.19415805
153	0xbe69e8e2	-0.22842744
154	0x3e10017d	0.14063068
155	0xbe5092df	-0.20368527
156	0x3e1f35d7	0.15547882
157	0x3e3410fd	0.17584606
158	0x3e4b22bd	0.1983747
159	0xbe699b8d	-0.22813244
160	0x3e69223d	0.22766967
161	0x3e5f4583	0.2180386
162	0xbe07ad9c	-0.1324982
163	0xbe61dbea	-0.22056547
164	0xbd4f601c	-0.050628766
165	0xbd707c24	-0.05871214
166	0xbc97ab38	-0.01851426
167	0x3de4c4ba	0.11170335
168	0x3d8061c2	0.06268646
169	0x3e43fe45	0.19139965
170	0x3d877fde	0.066161856
171	0x3d693164	0.05693187
172	0xbd979f3e	-0.0740342
173	0x3de5164a	0.11185892
174	0x3e6b064f	0.22951625
175	0xbcdf4208	-0.027253166
176	0x3dd8ef16	0.10592477
177	0x3e53c989	0.20682348
178	0x3e4db787	0.20089541
179	0xbcc436c0	-0.023951888
180	0x3e2bf453	0.16792421
181	0xbe545a6c	-0.20737618
182	0xbbe10e60	-0.0068681687
183	0x3e3dca05	0.18534096
184	0xbd4292f4	-0.047503427
185	0x3d524254	0.051332787
186	0xbc4856b0	-0.012227699
187	0x3e28bd6d	0.1647851
188	0x3c47da90	0.012198105
189	0xbe4ae051	-0.19812132
190	0x3e42c551	0.19020583
191	0x3e1cac2d	0.15300055
192	0x3dcb72de	0.099340186
193	0xbe4091f2	-0.18805674
194	0x3d3cec34	0.0461237
195	0xbe3397cc	-0.17538375
196	0x3dac9c6e	0.08428274
197	0x3e3d35dd	0.18477578
198	0x3deb67fa	0.11494441
199	0xbdce7420	-0.10080743
200	0xbe548b6b	-0.20756309
201	0x3d343944	0.043999925
202	0xbdeb0668	-0.11475831
203	0xbcc6f860	-0.024288356
204	0xbcbbe098	-0.022934243
205	0xbe59aba0	-0.21256876
206	0xbd3b6e18	-0.04575929
207	0x3e16dfff	0.14733885
208	0xbe38da8c	-0.18052119
209	0xbe081066	-0.13287506
210	0x3daccc46	0.084373996
211	0xbd29bf04	-0.041441932
212	0x3dc994ca	0.098428324
213	0xbe52460d	-0.20534535
214	0xbe15568a	-0.14583793
215	0x3de6b57a	0.11265083
216	0xbe4a8901	-0.19778825
217	0xba256b00	-0.0006310195
218	0x3e305491	0.1721976
219	0x3e0f2a85	0.13981064
220	0xbddc8046	-0.10766654
221	0x3e1ea083	0.15490918
222	0xbd8fbd9a	-0.070185855
223	0x3cc18b38	0.023625955
224	0xbde1da32	-0.110279456
225	0xbdf92479	-0.1216516
226	0x3db13e32	0.08654441
227	0xbe1e83c1	-0.15479948
228	0x3c97fa48	0.01855196
229	0x3d965862	0.073410764
230	0x3dfc723e	0.123264775
231	0x3c27ca20	0.010241061
232	0xbd55b954	-0.052178696
233	0x3e1b9e3b	0.15197079
234	0x3e0ad193	0.13556509
235	0x3e53fb69	0.20701374
236	0x3e2b0be9	0.16703762
237	0xbde62dba	-0.112391904
238	0x3b552800	0.0032525063
239	0x3e00134b	0.1250736
240	0xbe01033e	-0.12598893
241	0xbd3dce34	-0.04633923
242	0x3e04847b	0.12941162
243	0xbcaea840	-0.021320462
244	0x3e353893	0.17697363
245	0xbe4b78a4	-0.1987024
246	0x3e563eb9	0.20922364
247	0xbe1c4e84	-0.15264326
248	0xbe3fd92f	-0.18735193
249	0xbe079a11	-0.13242365
250	0xbd955f06	-0.07293515
251	0x3e190883	0.14944653
252	0x3ac0a780	0.0014698356
253	0xbcad8038	-0.021179304
254	0x3936bc00	0.00017426908
255	0x3d88f02a	0.06686433

fc1.bias f4 [256]
0	0xbe18bca4	-0.1491571
1	0x3c3b5010	0.011432663
2	0x3e53ba55	0.20676549
3	0xbe56c308	-0.20972836
4	0xbe644afd	-0.22294231
5	0xbdfdd19e	-0.12393497
6	0x3e3974b7	0.1811093
7	0xbde053d6	-0.109534904
8	0x3e332a89	0.17496695
9	0xbe1cdc8d	-0.15318508
10	0x3deb3062	0.11483838
11	0xbe01a8cd	-0.12662049
12	0x3b601d40	0.0034197122
13	0xbd69c47c	-0.057072148
14	0x3d3b1ee4	0.045683756
15	0x3dd4c176	0.10388462
16	0xbce52238	-0.027970418
17	0xbe141e96	-0.14464793
18	0x3df1f6ce	0.118146524
19	0xbdb5a856	-0.08869998
20	0xbdec8a32	-0.11549796
21	0xbdf910ce	-0.12161408
22	0x3e683349	0.22675814
23	0xbd470cac	-0.04859607
24	0xbe096c66	-0.13420257
25	0xbd8c985e	-0.06864999
26	0xbdd727ac	-0.10505614
27	0xbd7ca114	-0.061677054
28	0xbd848874	-0.06471339
29	0xbd29a1f8	-0.04141423
30	0xbe51629f	-0.20447777
31	0x3e2a1f2d	0.16613455
32	0xbe6637d0	-0.22482228
33	0x3e019d15	0.12657578
34	0xbbc3cf00	-0.005975604
35	0xbc821200	-0.015877724
36	0x3c82e0f8	0.015976414
37	0x3de6b592	0.112651005
38	0xbe66888c	-0.22513026
39	0xbd8c931c	-0.068639964
40	0xbe352a0d	-0.17691822
41	0xbe684544	-0.22682673
42	0xbd9d0c7c	-0.07668397
43	0xbddac172	-0.10681428
44	0x3dc9a636	0.09846155
45	0x3dd6ce66	0.10488586
46	0xbcf51110	-0.029915363
47	0xbab9be80	-0.0014171153
48	0x3e29ed9f	0.16594552
49	0xbc261de0	-0.010138959
50	0x3e00c687	0.12575732
51	0xbe34b033	-0.1764534
52	0xbe476608	-0.19472516
53	0xbdf791a4	-0.120883256
54	0x3e48db55	0.19614919
55	0x3e18b43b	0.14912502
56	0xbc87a9a8	-0.01656039
57	0xbe6ffeef	-0.23437093
58	0x3d0c1a6c	0.034204885
59	0xbdd44fa8	-0.10366756
60	0xbdac90b8	-0.084260404
61	0x3e3c95cf	0.18416522
62	0xbe047800	-0.12936401
63	0x3e43b2fd	0.19111247
64	0xbe2658c7	-0.16244803
65	0xbe525395	-0.20539697
66	0xbe67ac09	-0.2262422
67	0x3e34222d	0.17591162
68	0x3e283a81	0.16428567
69	0xbdf53d98	-0.11974639
70	0x3e3afab7	0.18259703
71	0x3e2484d5	0.16066296
72	0xbe1b986a	-0.1519486
73	0x3e1c8831	0.15286328
74	0x3b1c2440	0.0023825318
75	0x3e2b9bcb	0.16758649
76	0x3deaa8de	0.1145799
77	0xbdb3df94	-0.087828785
78	0x3e3aa0ff	0.18225478
79	0xbc232b20	-0.009959012
80	0x3e0064f3	0.12538509
81	0x3e3b5cb3	0.1829708
82	0x3e09c99d	0.13455816
83	0xbe0633dc	-0.1310572
84	0xbda66dda	-0.08126421
85	0x3dbef866	0.09324722
86	0xbde32dd3	-0.11092725
87	0x3cefdf38	0.029281244
88	0x3cfd6218	0.030930564
89	0x3dc6841e	0.09693168
90	0xbe5d1746	-0.2159091
91	0xbd03fd90	-0.032224238
92	0xbe6086ea	-0.21926466
93	0x3cb6ebc8	0.022329226
94	0xbe1669cc	-0.14688796
95	0xbe22c63d	-0.15895934
96	0x3dbb468e	0.091443166
97	0x3e40738f	0.18794082
98	0x3c678a50	0.014132097
99	0xbe1b87ac	-0.15188473
100	0x3c918c58	0.017767116
101	0x3e6d1f33	0.23156433
102	0x3e029291	0.12751223
103	0xbe567dc6	-0.20946416
104	0xbd5e9e44	-0.054350153
105	0x3dadb94a	0.08482607
106	0xbe00763c	-0.12545103
107	0x3d9cef02	0.076627746
108	0x3e53183b	0.20614712
109	0x3e1e2673	0.15444355
110	0x3d07e304	0.033175483
111	0x3e2c10a9	0.1680323
112	0xbdae170e	-0.08500491
113	0x3d792524	0.060826436
114	0x3dce719a	0.100802615
115	0x3d87bf3e	0.066282734
116	0x3d8cd896	0.06877248
117	0xbe531bb5	-0.20616038
118	0xbd21ab48	-0.039469987
119	0x3e6df6df	0.23238705
120	0x3e50ea2d	0.20401831
121	0x3d86f722	0.065901056
122	0xbcf44018	-0.029815719
123	0xbdc1af64	-0.09457281
124	0xbda14bc8	-0.07875782
125	0x3d9725ee	0.073802814
126	0xbdbc9db0	-0.09209764
127	0xbe44587b	-0.19174378
128	0x3c8073c8	0.015680209
129	0x3d37c8ac	0.04486911
130	0x3e6a3635	0.22872241
131	0x3e04e639	0.12978448
132	0x3d83d4b6	0.06437056
133	0x3e276829	0.16348328
134	0xbe413c52	-0.18870667
135	0xbde4c82b	-0.111709915
136	0x3e667007	0.22503673
137	0x3e4a9af3	0.19785671
138	0x3d677224	0.056505337
139	0xbdb01ace	-0.085988626
140	0xbc1a61a0	-0.00942269
141	0x3dd6feea	0.1049784
142	0x3e612669	0.21987309
143	0xbe1ac443	-0.1511393
144	0x3e0cc313	0.1374629
145	0xbe283c54	-0.16429263
146	0xbdf584f1	-0.11988247
147	0x3e507d19	0.20360221
148	0x3dc0b336	0.09409182
149	0xbe266a7e	-0.16251561
150	0xbe467c3e	-0.19383332
151	0x3d23112c	0.0398113
152	0x3e2f211f	0.17102478
153	0x3cfbae38	0.030722722
154	0xbe5c2e0f	-0.21501945
155	0xbd2f8c60	-0.04285848
156	0x3dc9519e	0.0983002
157	0x3e4236bf	0.18966196
158	0x3d16ef34	0.036849216
159	0xbe2452c9	-0.16047205
160	0xbe21acb4	-0.15788537
161	0xbdb367cc	-0.08760032
162	0x3d8cc526	0.068735406
163	0xbdcea636	-0.10090296
164	0xbe32ace0	-0.17448759
165	0xbca19468	-0.019724086
166	0x3ddb91e2	0.10721184
167	0xbd279524	-0.040913716
168	0xbc76a410	-0.015053764
169	0x3e3ee1ef	0.18640874
170	0xbe5754d2	-0.2102845
171	0x3e234269	0.15943302
172	0xbe609cf4	-0.21934873
173	0xbd9e9b04	-0.07744411
174	0xba301600	-0.00067171454
175	0xbe05c664	-0.13063961
176	0xbe06adc6	-0.13152227
177	0xbc3d3110	-0.011547342
178	0x3d85631e	0.06513046
179	0x3e68032d	0.22657461
180	0xbd90acf8	-0.07064241
181	0xbe41ee0e	-0.18938467
182	0xbdf904d4	-0.12159124
183	0xbc641570	-0.013921127
184	0x3e1f67a3	0.15566878
185	0x3e29d8a7	0.16586553
186	0x3e6c37b7	0.23068129
187	0x3e5b4215	0.21411927
188	0xbde3fc91	-0.111321576
189	0x3e44f259	0.19233073
190	0x3dfc20ae	0.12310921
191	0x3e5ee21f	0.21765946
192	0x3d42326c	0.047411367
193	0x3e437b87	0.1909009
194	0xbd455454	-0.048176125
195	0xbe43c103	-0.19116597
196	0xb9716400	-0.00023020804
197	0x3ad3bb00	0.0016153753
198	0x3ce306d8	0.027713224
199	0x3bb1fee0	0.005431995
200	0xbde51764	-0.11186102
201	0xbe09b94a	-0.13449588
202	0x3e370369	0.17872395
203	0x3e2c064f	0.16799282
204	0xbddfee50	-0.109341264
205	0xbd9793b8	-0.07401222
206	0xbe69488a	-0.22781578
207	0xbe70862e	-0.23488685
208	0x3e66f9d5	0.22556241
209	0x3e168b73	0.14701633
210	0x3e3d3583	0.18477444
211	0x3e2d98a1	0.16952755
212	0x3da7775a	0.081770614
213	0x3c155fa0	0.009117037
214	0x3dabe112	0.08392538
215	0x3d821c82	0.06353094
216	0x3d414bb4	0.047191337
217	0xbde1bc76	-0.11022274
218	0x3e29be31	0.16576459
219	0x3e59a9cb	0.21256177
220	0x3e37f871	0.17965867
221	0x3d849002	0.0647278
222	0x3e29eb51	0.16593672
223	0xbdc115be	-0.09427975
224	0xbdd7e4fc	-0.10541722
225	0xbe586102	-0.21130756
226	0xbe1000dc	-0.14062828
227	0xbbe746c0	-0.0070579946
228	0xbdc6b01e	-0.097015604
229	0x3df82376	0.12116139
230	0x3d794a0c	0.060861632
231	0x3dbb0b76	0.091330454
232	0xbe16321c	-0.14667553
233	0xbe09f4dc	-0.13472313
234	0xbdceeb18	-0.10103434
235	0x3e5cfb61	0.21580268
236	0xbe253dac	-0.16136807
237	0xbe3eb278	-0.18622768
238	0xbdfac095	-0.12243763
239	0xbe01c1c4	-0.12671572
240	0x3dcd0966	0.10011558
241	0x3d3c858c	0.046025798
242	0xbcc769d0	-0.024342448
243	0x3df5d416	0.12003343
244	0x3c918de8	0.017767861
245	0xbd7fc28c	-0.062441394
246	0x3e2f25d7	0.17104279
247	0x3dc1eab6	0.09468596
248	0x3c982bc8	0.018575564
249	0xbe519ce8	-0.20470011
250	0x3cd88598	0.02643089
251	0x3e0c97bb	0.13729756
252	0xbcb20050	-0.021728665
253	0xbe30822e	-0.1723716
254	0xbde5a304	-0.112127334
255	0xbe2db519	-0.16963615

fc2.weight f4 [128, 256]
0	0x3d763dae	0.060117416
1	0xbd5bfe68	-0.053709418
2	0x3d0b3288	0.033983737
3	0x3d7907f8	0.060798615
4	0x3c3d4998	0.011553191
5	0xbd6bb024	-0.057541028
6	0x3d721676	0.05910345
7	0xbc451db0	-0.012031004
8	0x3d2bbb14	0.04192646
9	0xbc6da270	-0.01450406
10	0xbd375bce	-0.044765286
11	0x3d284ad4	0.041086987
12	0x3c1e5298	0.009663247
13	0x3d05d27a	0.03267143
14	0xbd5737a0	-0.052543283
15	0x3d7680fc	0.060181603
16	0x3cfa9c7c	0.030592196
17	0xbd6f4ed0	-0.05842477
18	0x3cc76190	0.024338514
19	0x3ce03304	0.027368076
20	0xbc2ff7d8	-0.010740243
21	0xbc5f7c60	-0.013640493
22	0xbd07a0e8	-0.033112437
23	0xbd175b60	-0.036952376
24	0xbc6a4b10	-0.014300123
25	0x3d4cdc50	0.050014794
26	0xbcd6e194	-0.02623061
27	0xbc77ff60	-0.01513657
28	0xbd15fbc6	-0.036617063
29	0x3cf456e0	0.029826581
30	0x3d14f476	0.03636595
31	0xbb6007e0	-0.0034184381
32	0x3d6eb19c	0.05827485
33	0xbd39f60c	-0.045400664
34	0xbb377d40	-0.0027998239
35	0xbd1e3b0c	-0.03863053
36	0xbcf27d80	-0.029600859
37	0xbd33df42	-0.043914087
38	0xbca0786c	-0.019588672
39	0x3d1ee10c	0.03878884
40	0x3d695aa2	0.0569712
41	0x3d481570	0.04884857
42	0x3d419054	0.047256783
43	0x3c014308	0.007889517
44	0xbc724030	-0.014785811
45	0x3d4f60b8	0.050629348
46	0x3c7da820	0.015481979
47	0x3c56d278	0.013111703
48	0x3d22c172	0.039735265
49	0x3d65bf72	0.05609078
50	0x3cfa9d20	0.030592501
51	0xbd5c720e	-0.05381971
52	0xbd516644	-0.05112292
53	0x3aa95180	0.0012917966
54	0xbd2995aa	-0.041402496
55	0x3d68b342	0.05681158
56	0xbd3e899c	-0.046517953
57	0x3d013c18	0.03155145
58	0x3d1e2050	0.038605034
59	0xbd0c7176	-0.034287892
60	0xbb48de40	-0.003065005
61	0xbd0515c0	-0.032491446
62	0x3cd5d278	0.026101336
63	0x3c1fdc60	0.009757131
64	0xbcfc2c24	-0.030782767
65	0x3bda1430	0.0066552386
66	0xbd5c9644	-0.053854242
67	0x3d75a4f6	0.059971772
68	0xbc855148	-0.01627411
69	0xbc96159c	-0.018320851
70	0x3cc74d50	0.024328858
71	0xbd647dd8	-0.055784076
72	0xbc765f48	-0.015037365
73	0xbd102574	-0.035191968
74	0x3d3d461c	0.04620944
75	0x3d1d2b40	0.038371325
76	0x3c1da260	0.009621233
77	0xbd25d966	-0.04049053
78	0x3d4695fe	0.048482887
79	0x3d69129a	0.056902505
80	0x3d764796	0.060126863
81	0x3bada3b0	0.005299054
82	0xbcac716c	-0.021050178
83	0xbd45951a	-0.048237897
84	0x3d6fa61c	0.058508024
85	0xbd102366	-0.03519001
86	0xbd3b986a	-0.04579965
87	0x3d213cf4	0.03936477
88	0xbc6658b8	-0.014059238
89	0xbd529684	-0.051413074
90	0x3bb97920	0.005660191
91	0x3ca5f96c	0.020260535
92	0x3c0890b0	0.008335277
93	0xbb33e5c0	-0.0027450174
94	0xbd2da578	-0.04239413
95	0xbd70d3bc	-0.058795676
96	0x3cdd73d8	0.027032778
97	0xbd03e308	-0.032198936
98	0x3d05b11a	0.0326396
99	0x3c0ccb78	0.008593433
100	0xbd247f90	-0.040160716
101	0x3d4f13fc	0.050556168
102	0xbc2eda68	-0.010672189
103	0x3d30c618	0.043157667
104	0xba58dd80	-0.0008272752
105	0xbc9f7d50	-0.019468933
106	0x3d481058	0.04884371
107	0xbd11c37e	-0.035586827
108	0xbc5b7370	-0.013394222
109	0x3c162020	0.009162933
110	0xbc9eab24	-0.019368716
111	0xbcb97ab8	-0.022641525
112	0x3d46fae0	0.048579097
113	0xbd4248f8	-0.04743287
114	0x3b758e20	0.0037468746
115	0x3d2021dc	0.03909479
116	0x3cc2cabc	0.023778312
117	0x3cd88df8	0.026434883
118	0xbbc03ae0	-0.0058663934
119	0x3beb8dc0	0.007188529
120	0xbd007412	-0.031360693
121	0xbcccde20	-0.025008261
122	0xbd378a3c	-0.044809565
123	0xbd2434be	-0.04008936
124	0x3d0bbe36	0.034116946
125	0xbd24dc74	-0.040249303
126	0xbcf87ca8	-0.030332878
127	0xbc01a0b0	-0.007911846
128	0x3ba4fdd0	0.0050351396
129	0xbd48541e	-0.048908345
130	0xbd7a302e	-0.061081104
131	0x3cf2c6a4	0.029635735
132	0xbd6a6acc	-0.057230756
133	0x3c517c48	0.012785979
134	0x3c30b588	0.010785468
135	0xbd04c980	-0.032418728
136	0xbbd10d90	-0.0063797906
137	0x3d51d648	0.051229745
138	0xbccf5da8	-0.025313213
139	0x3bc37b10	0.005965598
140	0x3c8625ac	0.016375385
141	0xbcf61b30	-0.03004226
142	0xbd25e016	-0.040496908
143	0x3d269814	0.040672377
144	0xbd559094	-0.052139834
145	0xbd76ed0e	-0.060284667
146	0x3b9715f0	0.0046107695
147	0x3d72ed32	0.05930824
148	0x3abc7dc0	0.0014380738
149	0xbd14637e	-0.036227696
150	0x3a870a00	0.0010302663
151	0xbd416ab4	-0.0472209
152	0xbc720410	-0.014771476
153	0xbd1baf1a	-0.038008787
154	0x3d3973c6	0.045276426
155	0x3d25ceee	0.040480547
156	0xbd07ff06	-0.033202194
157	0x3d02f7a8	0.031974465
158	0x3d66f018	0.056381315
159	0xbab20980	-0.0013583153
160	0x3d0f8a50	0.035044014
161	0xbcd5d334	-0.026101686
162	0xbcd60be0	-0.02612871
163	0x3cb5c7f8	0.02219008
164	0x3cd511a0	0.02600938
165	0xbd772a76	-0.06034323
166	0xbd670466	-0.05640068
167	0x3cc5fde0	0.024168909
168	0xbd1ed296	-0.03877505
169	0x3cbd4cd8	0.023107931
170	0x3d3b46fa	0.045721985
171	0xbbae5d00	-0.005321145
172	0xbca467c4	-0.02006901
173	0xbcb8beec	-0.022551976
174	0x3c7d5b68	0.0154636875
175	0xbd36a36a	-0.044589438
176	0x3d63f972	0.05565781
177	0xbd5aacd8	-0.053387493
178	0xbd6f4dc2	-0.058423765
179	0x3cbf6c40	0.023367047
180	0xbc766c10	-0.015040413
181	0xbcc41de0	-0.023940027
182	0xbc6f4a98	-0.014605187
183	0x3d208b80	0.039195538
184	0x3d1d6c30	0.038433254
185	0xbd3197ee	-0.043357782
186	0x3d7fbec2	0.06243778
187	0x3cc05ac8	0.023480788
188	0x3d60fca0	0.054928422
189	0x3c8ccff8	0.017189011
190	0x3d6fa4a0	0.058506608
191	0xbd032010	-0.032013
192	0xbbadfba0	-0.005309537
193	0x3b227e60	0.0024794564
194	0x3c19f928	0.009397782
195	0xbcae4a90	-0.021275789
196	0xbd68ddee	-0.056852274
197	0xbc8bd884	-0.017071016
198	0xbd6e81c0	-0.058229208
199	0x3d7af3ac	0.06126754
200	0x3cf99da4	0.030470677
201	0x3ca507c0	0.020145297
202	0xba961c00	-0.0011452436
203	0xba876480	-0.0010329634
204	0xbc325d20	-0.010886461
205	0x3c52a890	0.012857571
206	0x3bbf23d0	0.0058331266
207	0x3d0f7792	0.03502614
208	0xbc864d90	-0.016394407
209	0x3d3a3978	0.045464963
210	0xbd33ecfc	-0.043927178
211	0x3d42461a	0.047430135
212	0xb896e000	-7.1942806e-05
213	0x3d5e4ddc	0.05427347
214	0xbd7b72ce	-0.061388783
215	0xbcd1deb8	-0.025618896
216	0x3c8733dc	0.01650422
217	0x3d19f114	0.037583426
218	0x3cf119d4	0.029431261
219	0xbd5f4c90	-0.054516375
220	0xbc4677f0	-0.012113556
221	0x3a8f0a00	0.0010913014
222	0xbd49c620	-0.049261212
223	0x3d2cd5b2	0.042195983
224	0xbd4432b0	-0.047899902
225	0xbd24842a	-0.040165104
226	0x3ce158f0	0.027508229
227	0xbbb6bf30	-0.0055769905
228	0xbd2fe0fc	-0.04293917
229	0xbc0e6f30	-0.008693501
230	0xbd388fdc	-0.04505907
231	0xbd790d66	-0.060803793
232	0x3d187e1c	0.037229642
233	0xbd69bf46	-0.05706718
234	0x3d62c77e	0.05536603
235	0xbd5dcaba	-0.054148413
236	0xbd38ddde	-0.045133464
237	0x3c8ca084	0.017166384
238	0xbd6e6ba0	-0.058208108
239	0x3c77cca0	0.01512447
240	0xbd46e970	-0.048562467
241	0xbd3e0b36	-0.04639741
242	0xbd20dfb6	-0.039275847
243	0xbd31e5b4	-0.043431953
244	0x3d6a122a	0.05714623
245	0xb931e400	-0.00016964972
246	0x3d322322	0.043490537
247	0xbd2602d4	-0.04053004
248	0xbd67f79c	-0.056632623
249	0xbd59056c	-0.052983686
250	0x3c88626c	0.016648494
251	0xbd685f76	-0.056731664
252	0xbd39855a	-0.04529319
253	0xbcc990f8	-0.02460526
254	0x3c54b818	0.0129833445
255	0xbd1f4fec	-0.03889458

fc2.bias f4 [128]
0	0xbd4f2f9c	-0.050582513
1	0xbbfdfe10	-0.007751234
2	0xbb370460	-0.0027926192
3	0x3d53687a	0.05161331
4	0x3d3bde78	0.04586646
5	0xbd2ffd06	-0.04296591
6	0xbd78c236	-0.06073209
7	0xbc236400	-0.009972572
8	0xbbfc2730	-0.007695101
9	0xbc8b43fc	-0.01700019
10	0xbbf4bdb0	-0.0074689016
11	0xbd153c42	-0.03643442
12	0x3d244074	0.04010053
13	0x3d7250d8	0.05915913
14	0xbc7d1b48	-0.015448399
15	0x3befb8f0	0.0073157474
16	0x3d09faa4	0.033686295
17	0x3b660a60	0.0035101399
18	0x3cc8e078	0.024521098
19	0xbbb27060	-0.005445525
20	0x3c02acc0	0.007975757
21	0x3cd76344	0.02629245
22	0xbcc31db8	-0.023817882
23	0x3c126060	0.00893411
24	0x3c015f08	0.007896192
25	0xbd66a5e4	-0.05631055
26	0xbc5be8b8	-0.013422184
27	0xbcaea898	-0.021320626
28	0x3b7a1640	0.0038160235
29	0xbc082f38	-0.008312039
30	0xbd3c86ac	-0.04602687
31	0xbd3bb774	-0.04582925
32	0x3d36064c	0.0444396
33	0xbd677114	-0.056504324
34	0xbd5e3da6	-0.05425801
35	0xbc62e868	-0.013849355
36	0xbbc97c20	-0.00614883
37	0x3d025e5a	0.031828262
38	0xbd361972	-0.04445786
39	0x3d073d6a	0.033017553
40	0x3d684cac	0.056713745
41	0xbd391614	-0.04518707
42	0xbc7cbc90	-0.015425816
43	0x3cdc8454	0.026918568
44	0xbd6837d8	-0.05669388
45	0xbb595820	-0.00331641
46	0xbc804a64	-0.015660472
47	0xbd784054	-0.060608223
48	0xbcecaeb8	-0.028891906
49	0xbd3581d6	-0.044313274
50	0x3b8a1000	0.004213333
51	0x3ce00020	0.02734381
52	0xbcf5b56c	-0.029993735
53	0xbd405fca	-0.04696635
54	0x3d19bbea	0.037532724
55	0xbd673f9a	-0.05645714
56	0x3cd93474	0.02651427
57	0xbd13e92a	-0.036111034
58	0x3d554cee	0.05207532
59	0xbc5a5910	-0.013326898
60	0xbb3aa220	-0.0028477982
61	0xbc26b630	-0.010175273
62	0x3d3614a0	0.044453263
63	0xbcbb3fe0	-0.022857606
64	0xbd19e10e	-0.037568145
65	0x3cd12c50	0.025533825
66	0xbc0da638	-0.008645587
67	0xbd5d6918	-0.054055303
68	0x3cce3000	0.025169373
69	0xbc4d4e08	-0.012530811
70	0x3bd72ea0	0.0065668374
71	0xbd752742	-0.059851892
72	0x3cce07b4	0.025150158
73	0x3d43f73a	0.047843195
74	0x3d708cbc	0.058727965
75	0xbccf5c58	-0.025312588
76	0x3b6a50a0	0.0035753623
77	0xbd026152	-0.031831093
78	0xbd32a55c	-0.04361473
79	0xbd13f21c	-0.036119565
80	0x3d3a0942	0.045418985
81	0xbd28d1b0	-0.0412156
82	0xbc8051e8	-0.015664056
83	0xbb887100	-0.0041638613
84	0xbb592120	-0.0033131316
85	0xbd3aeb6c	-0.045634672
86	0x3d454254	0.04815896
87	0x3d484fb8	0.04890415
88	0xbd0fb59c	-0.035085306
89	0x3d278e4a	0.04090718
90	0x3d2b382a	0.04180161
91	0xbd0993ba	-0.03358815
92	0x3cae808c	0.02130153
93	0xbcb8da98	-0.022565171
94	0x3cc707c8	0.024295703
95	0x3ce67ff0	0.028137177
96	0x3b06b0a0	0.0020552054
97	0xbd4f0cc4	-0.050549284
98	0x3c8aafe0	0.016929567
99	0x3d19e580	0.037572384
100	0x3d7a0e9e	0.061049096
101	0xbd53326c	-0.051561758
102	0xbc5f2ac8	-0.01362104
103	0x3d5c6038	0.0538027
104	0xbd5fd218	-0.05464372
105	0xbb2188e0	-0.0024648234
106	0x3cd1f0cc	0.025627516
107	0x3d5f023e	0.054445498
108	0xbc64ab60	-0.013956875
109	0xbc81dae8	-0.015851453
110	0x3d62b4b6	0.05534812
111	0xbd335a64	-0.043787375
112	0x3c26a080	0.010170102
113	0xbd2a8c16	-0.041637503
114	0x3d1de45e	0.038547866
115	0x3d2c27da	0.042030193
116	0xbd484038	-0.04888937
117	0xbc8cef84	-0.017204054
118	0xbc8ee5ac	-0.0174435
119	0x3cb87250	0.022515446
120	0x3cc3c08c	0.023895524
121	0x3c03d418	0.008046173
122	0xbd75114a	-0.05983094
123	0x3d002378	0.031283826
124	0xbd1d5c2a	-0.038417973
125	0xbd6a1646	-0.057150148
126	0x3d4464ae	0.047947578
127	0xbc58ff48	-0.013244458

fc3.weight f4 [4, 128]
0	0x3a2d1478	0.00066024764
1	0x3ad12afc	0.0015958245
2	0xb9974c58	-0.00028857845
3	0x3a1c5464	0.0005963503
4	0x3ac4781c	0.0014989409
5	0xbaca3e81	-0.0015430005
6	0xba03a56c	-0.0005021903
7	0x3b368aec	0.00278538
8	0xb90d0000	-0.00013446808
9	0xb9c8ccb0	-0.00038299477
10	0xba14d0b0	-0.0005676849
11	0x3a9d2350	0.0011988673
12	0xba1c0380	-0.0005951449
13	0x3b00ac72	0.0019634035
14	0x391560a0	0.00014245743
15	0xba618e94	-0.00086043146
16	0x3a8d1f10	0.0010766704
17	0x3b17b5fe	0.0023149247
18	0xbb2920c6	-0.0025806888
19	0xbb239bf4	-0.0024964781
20	0xbaf7a951	-0.0018895065
21	0x3aa5ac90	0.0012639929
22	0xbb21227c	-0.0024587205
23	0x3ae80ff0	0.0017704945
24	0x3b0b9a16	0.002130156
25	0xbb191072	-0.002335575
26	0xbb2832a6	-0.0025664954
27	0xbb08090a	-0.002075734
28	0xb9ece288	-0.00045182207
29	0x3b0d5bf0	0.0021569692
30	0x391a8dc0	0.0001473939
31	0x38244380	3.916351e-05
32	0x3ac24884	0.0014822637
33	0xbb24e214	-0.0025159167
34	0xbad1d415	-0.001600864
35	0xbb30f7a1	-0.0027003067
36	0xbae41ae1	-0.001740303
37	0x3b231720	0.002488561
38	0xba8ab98e	-0.0010583864
39	0xbb01cf7b	-0.0019807506
40	0x392b5150	0.00016338122
41	0xbb219338	-0.00246544
42	0xbb3ab042	-0.0028486405
43	0xbb1f993c	-0.002435281
44	0xb8b8df60	-8.8154105e-05
45	0xbadfcbce	-0.0017074288
46	0xbb2e0d13	-0.0026558086
47	0xbadca0b6	-0.0016832564
48	0xba6b91e8	-0.00089862803
49	0x392cb970	0.00016472279
50	0xb9be20f8	-0.00036264188
51	0xba58c970	-0.00082697626
52	0x3b1f45d2	0.002430309
53	0xba6b3064	-0.00089717493
54	0x38996820	7.315003e-05
55	0x3a2c6b2c	0.0006577249
56	0xbaa0c34f	-0.0012265238
57	0x3b0bc684	0.0021328041
58	0xbaa59105	-0.001263172
59	0x3afc2de0	0.0019239746
60	0xbad94805	-0.001657725
61	0xbb2b24d1	-0.0026114474
62	0x3a9b0a04	0.0011828546
63	0x3a3b5ca0	0.0007147286
64	0xbad62684	-0.0016338383
65	0xbab66673	-0.001391603
66	0x3a7abfb0	0.0009565307
67	0x3a46827c	0.0007572544
68	0xb9df8340	-0.00042631663
69	0x3b0cc604	0.0021480331
70	0xbb2671b8	-0.0025397372
71	0x39e7e780	0.00044232234
72	0x3b2b915c	0.002617917
73	0x3ae24ef0	0.0017265957
74	0x3aa82b00	0.0012830198
75	0x3b33a39c	0.0027410751
76	0xb9c5e888	-0.00037748017
77	0x3af41668	0.00186224
78	0x3b42c5de	0.0029719989
79	0x3b349cb6	0.0027559227
80	0x39da57f0	0.0004164572
81	0xbaba1a01	-0.0014198424
82	0xba16f598	-0.0005758642
83	0x39334760	0.0001709736
84	0x3b2cdee6	0.0026377975
85	0xba26b848	-0.00063598575
86	0xba232ccc	-0.0006224632
87	0xbab8d10c	-0.0014100387
88	0x3b3042ec	0.0026895357
89	0xbaebbd68	-0.0017985525
90	0x3984e820	0.0002534995
91	0xba720a88	-0.00092331367
92	0x3b3eecbe	0.0029132809
93	0x3b19ca8c	0.0023466675
94	0x3b16c894	0.0023007737
95	0x3b1a2e4a	0.0023526126
96	0xba8003c6	-0.000976675
97	0xba24eddc	-0.00062915473
98	0xbb2a38b1	-0.0025973732
99	0xbab736f0	-0.0013978165
100	0xbb3087a2	-0.0026936312
101	0x39806038	0.0002448575
102	0xbb12a497	-0.0022375935
103	0xb8bb5fe0	-8.934713e-05
104	0xbb355a8f	-0.0027672385
105	0x3ad3fde4	0.0016173688
106	0xb8c743c0	-9.501679e-05
107	0x397ada50	0.00023923186
108	0xb9ebd7a8	-0.0004498337
109	0x3b2d87f4	0.002647874
110	0xbb1ecee1	-0.0024232196
111	0xbb32c765	-0.0027279493
112	0xbb2c57d2	-0.0026297462
113	0x3b22c20a	0.0024834895
114	0xbb31fe92	-0.0027159792
115	0xbb2d114a	-0.002640801
116	0xbb37f99a	-0.0028072358
117	0x39997410	0.00029268907
118	0x3a6d254c	0.000904639
119	0x3ab83e8c	0.0014056726
120	0xbb0ab1cc	-0.0021163104
121	0xbaaacf63	-0.0013031777
122	0x3b15b584	0.0022843787
123	0x363be000	2.7995557e-06
124	0x39ce7840	0.00039380975
125	0xba387564	-0.00070365355
126	0x3b07fda2	0.0020750542
127	0x3a0227cc	0.00049650366
128	0x3975dc00	0.00023446977
129	0x3ad07c14	0.0015906119
130	0x3b43eb7e	0.0029895003
131	0xbb382d13	-0.0028103038
132	0xba130ae0	-0.00056092255
133	0x3b37ce00	0.002804637
134	0x3b1b1c92	0.0023668152
135	0xbb24caf9	-0.0025145395
136	0xbaf0dffb	-0.0018377298
137	0x3b10a13c	0.002206876
138	0xbb0aea05	-0.0021196615
139	0x3a14cbe4	0.0005676134
140	0xba8b1b36	-0.0010612968
141	0xb9fb3568	-0.0004791424
142	0xba0747f8	-0.00051605655
143	0x3b4067b4	0.0029358687
144	0xbac82e1f	-0.0015272534
145	0xba4be70c	-0.0007778264
146	0x3ab33050	0.0013671014
147	0x3ab027c4	0.0013439585
148	0xbabf6fa1	-0.0014605412
149	0x37a5da00	1.9771047e-05
150	0xbb03e9c4	-0.002012835
151	0x3aea4120	0.0017872192
152	0x3afc9ee4	0.0019273427
153	0xbae8afd2	-0.0017752594
154	0x3a5d6cdc	0.0008446702
155	0x3aa96888	0.001292483
156	0xbb3d2ba2	-0.0028865119
157	0xbb361ef1	-0.0027789439
158	0xbab23df7	-0.0013598789
159	0x3b1cdb98	0.00239346
160	0x3b426434	0.0029661776
161	0x3abb6ee4	0.0014300016
162	0x3a4a6c28	0.0007721805
163	0xbb1dd2a4	-0.002408185
164	0xba92d882	-0.001120344
165	0x3b0a4e72	0.0021103886
166	0x3a5868e8	0.00082553783
167	0xbb347da8	-0.0027540717
168	0xbb03d5c4	-0.0020116428
169	0xbb398d14	-0.002831285
170	0xb999fe88	-0.00029372075
171	0xb8cb30a0	-9.6888514e-05
172	0xbadeaed4	-0.0016989359
173	0x39c16dd0	0.00036893645
174	0x3af26b34	0.0018495084
175	0x3b3864a8	0.0028136168
176	0x39110b60	0.00013832515
177	0x39569df0	0.00020467467
178	0xba61c0ac	-0.0008611779
179	0xba9c4fec	-0.0011925674
180	0x3b18fd64	0.0023344392
181	0xbac16754	-0.0014755526
182	0xba7a5f18	-0.0009550913
183	0xbb03e2ac	-0.002012412
184	0x3b19a680	0.002344519
185	0xbafd6a8b	-0.001933412
186	0xbb42a77c	-0.002970188
187	0xbad3b49c	-0.0016151848
188	0x398762c0	0.0002582278
189	0x3a750d10	0.0009347955
190	0x39f37b80	0.00046440586
191	0xb9c74040	-0.00038004108
192	0x3b16cd24	0.0023010457
193	0x3adc3498	0.0016800342
194	0xbb123edc	-0.00223153
195	0xba84321c	-0.0010085735
196	0x3b2c240c	0.0026266603
197	0xb97129d0	-0.00022999127
198	0xbb303674	-0.0026887925
199	0xbb084988	-0.0020795781
200	0x3b24c9aa	0.0025144615
201	0xba55decc	-0.00081585045
202	0xb7748800	-1.4575198e-05
203	0xbb192060	-0.0023365244
204	0xbac303ff	-0.001487851
205	0x3aaf39b4	0.0013368637
206	0x38aa92c0	8.133566e-05
207	0x3ada6454	0.001666198
208	0x3aecdb74	0.0018070773
209	0xbb23cbb1	-0.0024993236
210	0x3a80b2ec	0.0009818948
211	0xba9f1b19	-0.0012138813
212	0xbaa6735a	-0.0012699172
213	0xbb157ec1	-0.0022811147
214	0xbb26d4c6	-0.0025456413
215	0xbb06797e	-0.0020519192
216	0xbb3b18ef	-0.0028548797
217	0x396725a0	0.00022043893
218	0x3b33fd8a	0.0027464353
219	0xba1096f4	-0.0005515658
220	0xba1b7bbc	-0.00059312186
221	0x3ac8d6c4	0.0015322794
222	0xbac05e43	-0.001467653
223	0xba2b87e8	-0.0006543384
224	0xbb3dcdd5	-0.0028961797
225	0x3ad38de0	0.0016140305
226	0xba4c0548	-0.00077827694
227	0xba4950a4	-0.0007679558
228	0xb996df98	-0.0002877682
229	0xbaf50728	-0.0018694149
230	0xbb1f77f5	-0.0024332975
231	0xb9db7890	-0.0004186076
232	0xbb09b59d	-0.002101279
233	0xbb00c92a	-0.0019651153
234	0x3b1601f8	0.0022889357
235	0xba12ab68	-0.00055949995
236	0x3aa7ad54	0.0012792745
237	0x3a758868	0.00093663344
238	0xbb346b26	-0.0027529686
239	0xbac7dd5c	-0.0015248465
240	0xba5a07c4	-0.0008317197
241	0x3ac903b4	0.0015336187
242	0x3b08a51e	0.002085037
243	0xb87e5400	-6.063655e-05
244	0x3b36971e	0.002786107
245	0x3b1cbad6	0.0023915074
246	0x3aa21460	0.0012365691
247	0xbb346f50	-0.0027532168
248	0x3b2d7a86	0.0026470735
249	0x3ae1ea58	0.0017235978
250	0x3a478d2c	0.0007612284
251	0x3a16bdc0	0.0005750321
252	0x3b10b02a	0.0022077658
253	0x3b42b462	0.0029709567
254	0xbb185f52	-0.0023250175
255	0x3b00158a	0.0019544088

fc3.bias f4 [4]
0	0xbd2aa722	-0.041663297
1	0x3d1712ea	0.036883272
2	0x3d794a0e	0.06086164
3	0xbd784aa8	-0.060618073
