models/maddpg/checkpoint_ep50/adversary_0.pth (torch, 764002 bytes, 44 tensors)

network.0.weight f4 [128, 16]
0	0xbe70f125	-0.2352949
1	0x3e775771	0.2415445
2	0x3e5f474d	0.21804543
3	0xbe4635d0	-0.19356465
4	0xbd74a467	-0.0597271
5	0xbda4a120	-0.08038545
6	0x3e7f8237	0.24952017
7	0x3d9bfb3e	0.0761628
8	0x3e373583	0.17891507
9	0x3e3242ae	0.17408249
10	0xba82b512	-0.0009972176
11	0xbd3586f9	-0.044318173
12	0x3e3edd3f	0.18639086
13	0xbe5a1916	-0.21298632
14	0x3e0b25a7	0.13588582
15	0xbd332edd	-0.043745864
16	0x3c7ef2d5	0.015560825
17	0x3c7eb470	0.015545949
18	0x3e02fd37	0.12791906
19	0xbdc92556	-0.098215744
20	0xbe438428	-0.19093382
21	0x3db28007	0.087158255
22	0x3db8d89b	0.09025689
23	0xbde94a5d	-0.11391137
24	0xbc9498e8	-0.018139318
25	0x3da04203	0.07825091
26	0x3ddba965	0.10725669
27	0x3e1f1396	0.15534815
28	0xbe6db2d9	-0.23212756
29	0xbd155cdf	-0.036465522
30	0x3bde755a	0.0067888917
31	0x3e0f73b0	0.14008975
32	0x3caf7e98	0.02142267
33	0x3da0709f	0.07833981
34	0x3e0cc048	0.13745224
35	0x3dfa67eb	0.12226852
36	0x3de10e28	0.10989028
37	0xbe58b093	-0.21161108
38	0xbe3d0cbe	-0.18461892
39	0x3d3caa95	0.046061117
40	0xbe336c68	-0.17521822
41	0x3c12b532	0.008954333
42	0xbcdfa324	-0.027299471
43	0x3e1d53c1	0.15363981
44	0x3e2a80ab	0.16650645
45	0xbe2e2c99	-0.170092
46	0xbd86c812	-0.06581129
47	0x3c3356e2	0.010946007
48	0x3e2a7805	0.16647346
49	0x3c2daa88	0.01059974
50	0x3e4184b6	0.18898281
51	0x3e42889d	0.18997426
52	0xbe7f8ad9	-0.2495531
53	0xbe6ffbab	-0.23435847
54	0xbe4a61c6	-0.1976386
55	0x3dd347f4	0.10316458
56	0xbe3e39f2	-0.18576792
57	0x3e53e2c0	0.20691967
58	0x3e26f80b	0.16305558
59	0x3e2697c8	0.16268837
60	0x3e339774	0.17538244
61	0x3da5fbd6	0.081046745
62	0x3d273288	0.040819675
63	0x3d523413	0.051319193
64	0xbe3cdff6	-0.1844481
65	0xbc2b4330	-0.0104530305
66	0x3d958c8b	0.07302197
67	0xbe69300b	-0.22772233
68	0x3dbdbd06	0.09264569
69	0xbe7bd318	-0.24592245
70	0xbd8b8c15	-0.06813828
71	0xbd5afe0b	-0.05346493
72	0x3ddb5bf9	0.10710902
73	0xbdce417f	-0.10071086
74	0xbde57073	-0.112030886
75	0x3da92f1c	0.082609385
76	0x3e342209	0.17591108
77	0x3d4e7d83	0.050412666
78	0xbbc67f71	-0.0060576727
79	0xbe667e25	-0.22509058
80	0xbe067f19	-0.13134421
81	0x3e4772dd	0.1947741
82	0xbe7caa47	-0.2467433
83	0x3d36df25	0.0446464
84	0x3d7d8548	0.061894685
85	0xbd788ca3	-0.060680997
86	0x3e4fdb66	0.20298538
87	0x3dbd2120	0.09234834
88	0xbd62d0f8	-0.05537507
89	0x3e4b8a38	0.19876945
90	0x3dccc07e	0.099976525
91	0xbe27b47d	-0.16377445
92	0xbe0447be	-0.12917992
93	0xbe44dacf	-0.19224094
94	0xbdb94090	-0.090455174
95	0x3d986a0d	0.074421026
96	0xbe2ac584	-0.16676909
97	0xbddaa24b	-0.10675486
98	0x3e59d524	0.21272713
99	0xbdf2ed1f	-0.118616335
100	0xbe4c477c	-0.19949144
101	0xbc02e4b3	-0.007989096
102	0xbe7179f7	-0.23581682
103	0xbe41ee81	-0.18938638
104	0x3d954a65	0.0728958
105	0xbdeeac6b	-0.1165398
106	0xbe4d8ac9	-0.20072474
107	0xbe06363c	-0.13106626
108	0x3e547478	0.20747554
109	0xbe45ae4a	-0.19304767
110	0x3e452a7f	0.19254492
111	0xbe06428c	-0.13111323
112	0x3e791f54	0.24328357
113	0x3e3f9e94	0.18712837
114	0xbdcbc635	-0.09949914
115	0xbdfcce94	-0.12344089
116	0x3c4ed34c	0.012623619
117	0x3e163d2d	0.14671774
118	0x3d3e26b8	0.046423644
119	0xbd68dd68	-0.056851774
120	0xbe4381e8	-0.19092524
121	0x3e4a795b	0.19772856
122	0xbe5b0b36	-0.21390995
123	0xbe7440d3	-0.23852853
124	0xbdf7a6be	-0.120923504
125	0xbe5a0bb0	-0.21293521
126	0x3e16b415	0.14717133
127	0x3d3c3e32	0.04595775
128	0x3da5b297	0.08090704
129	0xbe2cbf77	-0.16869913
130	0x3da51708	0.080610335
131	0x3dd97a41	0.10619021
132	0xbda414c1	-0.08011771
133	0x3e67ce57	0.22637306
134	0xbdf84def	-0.1212424
135	0x3da371d9	0.07980699
136	0xbe56e07b	-0.2098407
137	0x3e757438	0.23970115
138	0xbe2245de	-0.15846965
139	0x3c4ebdb4	0.012618471
140	0x3db9d3aa	0.09073575
141	0xbe65d624	-0.2244497
142	0xbe530592	-0.20607594
143	0x3e2bdda0	0.16783762
144	0x3d5acebe	0.05341982
145	0xbcdcd0be	-0.026955005
146	0x3c3d33be	0.011547981
147	0x3e3abd64	0.1823631
148	0xbd21bf2e	-0.039488964
149	0xbe6d8a5e	-0.23197314
150	0xbe099575	-0.1343592
151	0xbd63c144	-0.055604234
152	0xbe71ae19	-0.23601569
153	0x3e45e9e5	0.19327505
154	0x3e45087d	0.1924152
155	0x3df5ad78	0.11995977
156	0xbe54f51e	-0.2079663
157	0xbd585cb5	-0.052822787
158	0xbe241595	-0.16023858
159	0x3e3cb505	0.18428428
160	0x3d231f31	0.03982467
161	0xbd219f31	-0.039458457
162	0xbe1893c6	-0.14900121
163	0x3d8c965a	0.06864615
164	0xbe0295cd	-0.12752457
165	0xbe0828f1	-0.13296868
166	0x3de2b9ba	0.11070581
167	0xbe059a99	-0.13047256
168	0x3e7e9277	0.2486056
169	0x3e130a5f	0.14359425
170	0x3caf666d	0.021411145
171	0xbdd079b4	-0.10179463
172	0xbddab0a3	-0.10678222
173	0xbe20ddd3	-0.15709619
174	0xbe205de9	-0.15660824
175	0xbdf21ae0	-0.11821532
176	0x3e114c89	0.14189352
177	0xbd0bd2b4	-0.03413649
178	0x3e79dc80	0.2440052
179	0xbe14e7d9	-0.14541568
180	0x3e0e09c7	0.13870917
181	0x3e24cc55	0.16093571
182	0x3d0ad5e4	0.03389539
183	0xbd5337be	-0.05156683
184	0xbe2d532a	-0.16926256
185	0xbdbc941d	-0.09207938
186	0x3c0938c5	0.008375351
187	0x3e69c71e	0.22829863
188	0x3e38561a	0.18001595
189	0xbd8b510b	-0.06802567
190	0xbe07c717	-0.1325954
191	0xbe354d89	-0.17705359
192	0x3d30c16b	0.043153208
193	0x3da03029	0.07821686
194	0x3d32e7b7	0.04367801
195	0xbe16c731	-0.14724423
196	0xbdea0704	-0.114271194
197	0xbca48298	-0.020081803
198	0x3e528cf8	0.20561588
199	0x3e456357	0.19276176
200	0xbcb8043c	-0.022462957
201	0xbe27716b	-0.1635186
202	0xbe79c1aa	-0.24390283
203	0xbe3fae4e	-0.18718836
204	0x3e6a2b94	0.22868186
205	0xbe7ac8f5	-0.24490722
206	0xbe31abf6	-0.17350754
207	0xbe010c1b	-0.12602274
208	0xbe497811	-0.19674708
209	0x3d927fca	0.0715328
210	0xbe6cac88	-0.2311269
211	0x3e105ee7	0.14098702
212	0xbe22c499	-0.15895309
213	0x3dbbd9e1	0.091724165
214	0x3d123d7b	0.035703164
215	0xbe161c1c	-0.1465916
216	0x3d89b306	0.06723599
217	0xbe121928	-0.14267409
218	0xbe27c94d	-0.16385384
219	0x3e5bf2b7	0.21479307
220	0xbad67432	-0.0016361533
221	0x3a8f7851	0.0010945891
222	0x3e3393fc	0.1753692
223	0x3e654766	0.22390518
224	0xbde5e32b	-0.112249695
225	0xbd2bb4f2	-0.04192061
226	0x3da116ec	0.078657
227	0xbe4f3aa7	-0.20237218
228	0x3e617ffa	0.22021475
229	0x3d6baa86	0.05753567
230	0x3e31c3e4	0.17359883
231	0xbdca517c	-0.09878823
232	0xbd33f350	-0.043933213
233	0xbccc9c74	-0.024976946
234	0x3dcfa9d3	0.10139813
235	0xbd382b68	-0.04496327
236	0x3e138db0	0.14409518
237	0xbde270f7	-0.110567026
238	0xbe0155cf	-0.1263039
239	0xbe30d00e	-0.17266867
240	0x3d28ba11	0.04119307
241	0x3e5a4da0	0.21318674
242	0xbb915603	-0.004435302
243	0xbe29e60a	-0.16591659
244	0x3e658617	0.22414432
245	0xbd3c493c	-0.04596828
246	0x3d217569	0.03941861
247	0x3d048496	0.032353006
248	0xbe3887a6	-0.18020496
249	0x3d543a9a	0.0518137
250	0x3c76c192	0.015060799
251	0x3cde9d95	0.02717475
252	0x3e62786a	0.22116247
253	0x3e3691fc	0.17829126
254	0x3e19840e	0.14991781
255	0x3d927cf0	0.07152736

network.0.bias f4 [128]
0	0xbdf1d739	-0.118086286
1	0xbe3e7f6b	-0.18603294
2	0xbdeb9b39	-0.11504216
3	0xbe1d9c25	-0.15391596
4	0x3d827f1b	0.063719
5	0x3e692173	0.22766666
6	0x3c61b75b	0.0137766255
7	0xbde58b7a	-0.11208244
8	0x3e0110ae	0.12604019
9	0xbdd55140	-0.10415888
10	0x3d5496b2	0.051901527
11	0x3e0500a5	0.12988527
12	0xbe6bcfd1	-0.23028494
13	0x3d0d8796	0.034553133
14	0xbe8007ad	-0.25005856
15	0xbe1a6bbd	-0.15080161
16	0x3e736463	0.23768763
17	0xbe752c38	-0.2394265
18	0xbca90205	-0.020630846
19	0x3e6058ae	0.21908829
20	0x3e7c6bde	0.24650523
21	0xbb041648	-0.0020154882
22	0x3db6b817	0.08921831
23	0x3e2df563	0.16988139
24	0x3e7ae690	0.24502015
25	0xbd95d83d	-0.07316635
26	0xbdfe5f07	-0.12420469
27	0xbdeac6e3	-0.11463716
28	0xbe7695f1	-0.24080636
29	0x3e723ebf	0.23656748
30	0x3e698202	0.228035
31	0x3e0c0d76	0.1367701
32	0xbde53cd7	-0.11193245
33	0xbe135f7e	-0.14391896
34	0xbe12170b	-0.14266603
35	0xbe34571a	-0.17611352
36	0x3e7abd5b	0.24486296
37	0x3cc91605	0.024546633
38	0xbce1ba29	-0.027554588
39	0xbe2af152	-0.16693619
40	0x3d86162c	0.06547198
41	0x3e492e60	0.19646597
42	0xbe44c3e7	-0.19215356
43	0xbe144a00	-0.14481354
44	0xbcf3117c	-0.029671423
45	0x3d408487	0.047001388
46	0x3de5877b	0.112074815
47	0x3d2205cb	0.039556306
48	0x3e3c55da	0.18392125
49	0xbb93c136	-0.0045091165
50	0xbe07d9fc	-0.13266748
51	0xbe2a1ddd	-0.16612954
52	0x3d8a773c	0.067610234
53	0x3da6f1c4	0.08151582
54	0xbde7fdef	-0.11327731
55	0x3d9af06f	0.0756539
56	0x3e2c918e	0.168524
57	0xbd655381	-0.05598784
58	0x3e513126	0.20428905
59	0xbe45aa7f	-0.1930332
60	0xbd99c312	-0.0750791
61	0x3e3fb3eb	0.18720977
62	0x3e7de7d8	0.24795473
63	0x3e1134b5	0.14180262
64	0x3d479357	0.0487245
65	0xbcde0826	-0.027103495
66	0xbe5472cc	-0.20746917
67	0x3e12259f	0.14272164
68	0x3d832814	0.06404129
69	0xbbcc0cc9	-0.00622711
70	0xbe446d16	-0.19182238
71	0x3e209b5e	0.15684268
72	0xbe797138	-0.24359596
73	0xbe6272a6	-0.22114047
74	0x3e2968a3	0.16543822
75	0x3e1438d6	0.14474806
76	0x3e34913f	0.17633532
77	0x3e1270b7	0.1430081
78	0xbe66e490	-0.22548127
79	0x3d989b33	0.07451477
80	0xbdf48c35	-0.11940805
81	0x3e56d2fd	0.20978923
82	0x3d9d3101	0.076753624
83	0x3d92e9e0	0.07173514
84	0xbe5ece34	-0.21758348
85	0x3e5f8cb5	0.21831019
86	0x3e304bd7	0.1721643
87	0xbe1653b6	-0.1468037
88	0x3e7557f3	0.23959331
89	0x3d91a573	0.07111635
90	0x3de79faa	0.113097504
91	0xbccd0f79	-0.025031792
92	0xbe0d318d	-0.13788433
93	0xbdb6c81f	-0.08924889
94	0x3d0e65fd	0.034765232
95	0x3e72f6dc	0.23726982
96	0x3e793d25	0.24339731
97	0xbe6907aa	-0.2275683
98	0x3db0cdee	0.08633028
99	0x3d6ad675	0.05733343
100	0xbe2e5821	-0.17025806
101	0x3df75a97	0.120778255
102	0xbe2d4b08	-0.16923153
103	0x3e6e4162	0.23267129
104	0x3e1ae4d2	0.1512635
105	0xbd955feb	-0.072936855
106	0x3e394266	0.18091735
107	0x3e70e38c	0.23524302
108	0x3e030abd	0.12797065
109	0xbd6f787b	-0.05846451
110	0x3e3427f5	0.17593367
111	0xbe0e9e5b	-0.13927595
112	0x3deb8715	0.11500374
113	0xbe02718e	-0.1273863
114	0xbdc3bf46	-0.09557967
115	0x3e3b57d0	0.18295217
116	0x3e04b5e2	0.12960008
117	0xbe36b738	-0.1784333
118	0xbccd8fdc	-0.025093012
119	0xbe45e6b3	-0.19326286
120	0x3e51698a	0.20450416
121	0x3dd75b1b	0.10515424
122	0x3db1aa37	0.08675044
123	0xbc4898cb	-0.01224346
124	0xbe7bf38b	-0.24604623
125	0xbe009149	-0.12555422
126	0xbe1d99b0	-0.15390658
127	0xbe08b33d	-0.13349624

network.2.weight f4 [128, 128]
0	0xbc323699	-0.010877275
1	0x3d625966	0.05526104
2	0xbb8d2276	-0.0043070866
3	0x3c48a190	0.012245551
4	0xbd31615b	-0.043305736
5	0x3c944fe4	0.018104501
6	0x3d8e15f7	0.06937783
7	0x3d76c80d	0.060249377
8	0x3d1e6b4e	0.038676552
9	0xbd646e47	-0.05576923
10	0xbcbbd51b	-0.022928765
11	0x3d52d148	0.051469117
12	0xbd30462b	-0.043035667
13	0xbd7bc4d5	-0.06146701
14	0xbd40da8d	-0.047083426
15	0xbda4248c	-0.08014783
16	0x3d7b1086	0.061295055
17	0x3cec455a	0.028841663
18	0xbc65adac	-0.014018457
19	0x3cbd1e01	0.023085596
20	0xbd21fecf	-0.039549645
21	0x3da1e726	0.07905416
22	0x3d915f8f	0.070983045
23	0x3d8bfcaf	0.06835305
24	0xbd86da8b	-0.065846525
25	0xbc74a783	-0.014932516
26	0x3ca7e47d	0.020494694
27	0x3daec659	0.085339256
28	0xbd0395b8	-0.032125205
29	0x3d41349b	0.04716931
30	0xbd853af4	-0.06505385
31	0x3d00f149	0.031480107
32	0x3d4c7b19	0.049922083
33	0xbd5a770f	-0.0533362
34	0x3cf0cf39	0.029395686
35	0xbca89902	-0.020580772
36	0xbd93769e	-0.07200359
37	0xbcfabfbb	-0.030609002
38	0xbd6c37a9	-0.05767027
39	0xbd873b8d	-0.06603155
40	0xbc919950	-0.0177733
41	0xbd2db069	-0.042404566
42	0x3d60868a	0.054815806
43	0x3ce6a0a7	0.028152777
44	0xbc1105c9	-0.008851477
45	0x3c1d4772	0.009599553
46	0x3d9ced59	0.07662458
47	0xbd46d2f6	-0.04854103
48	0x3d4c8cf6	0.04993912
49	0xbcf82df3	-0.030295348
50	0x3c8a71a5	0.016899893
51	0xbd8d758e	-0.069071874
52	0xbd89a5f6	-0.06721108
53	0xbda9e0eb	-0.08294853
54	0xbd8526cd	-0.06501541
55	0xbb3f5e6a	-0.0029200562
56	0x3d2c6b9d	0.042094816
57	0xbd68b4b0	-0.056812942
58	0xbd14266a	-0.036169447
59	0x3d724a5a	0.05915294
60	0x3b86689e	0.004101827
61	0xbd98fa74	-0.07469645
62	0xbd826370	-0.063666224
63	0xbd2b0522	-0.041752942
64	0xbd9dfbee	-0.077140674
65	0xbd88b9df	-0.06676077
66	0xbd3ac517	-0.045598116
67	0x3c78a9d1	0.015177206
68	0xbcfe235b	-0.031022718
69	0x3d8caa72	0.06868447
70	0x3d2d0591	0.042241637
71	0xbcaa8c77	-0.020818932
72	0xbccc75ef	-0.024958579
73	0xbc327bd7	-0.0108937835
74	0x3d5a1b0f	0.05324846
75	0x3d37a79a	0.04483757
76	0xbd5277ae	-0.051383667
77	0xbd5f1826	-0.05446639
78	0xbd3216e3	-0.043478858
79	0xbd68c28d	-0.056826163
80	0x380b4a71	3.320951e-05
81	0xbd1abced	-0.03777783
82	0x3d7d27f5	0.061805684
83	0x3c01bdd4	0.007918794
84	0xbce3a027	-0.027786328
85	0x3db2ae30	0.0872463
86	0x3d1cb8ab	0.03826205
87	0x3d225493	0.039631438
88	0xbc08ac84	-0.008341912
89	0x3d58a395	0.05289038
90	0x3da5bedb	0.080930434
91	0xbd1cef08	-0.038313895
92	0x3c498092	0.01229872
93	0x3d68f61c	0.056875333
94	0x3aa29a83	0.0012405667
95	0xbd00b5aa	-0.03142325
96	0xbd7a163a	-0.061056353
97	0xbc6c9c1c	-0.014441516
98	0x3c0bc7f4	0.008531559
99	0x3cd5a2d9	0.026078628
100	0xbd04f8a8	-0.0324637
101	0x3d9f5fd2	0.07781948
102	0x3d768537	0.060185637
103	0x3bd9e42a	0.0066495137
104	0xbda5f041	-0.081024654
105	0xbcc8e2bf	-0.024522183
106	0xbd1e90ff	-0.038712498
107	0x3d5442b9	0.051821444
108	0x3d9e207e	0.07721041
109	0x3d90774b	0.07054003
110	0x3daf4b0c	0.08559236
111	0x3c8968e4	0.016773649
112	0xbd80d183	-0.06289961
113	0x3c048908	0.008089311
114	0x3d241537	0.040059295
115	0x3c28a617	0.010293505
116	0x3da3c13d	0.07995842
117	0xbc039a5e	-0.0080324095
118	0xbdb02538	-0.08600849
119	0xbc12d4af	-0.0089618405
120	0x3cf5f9be	0.030026313
121	0x3cb794ad	0.022409761
122	0x3d9b41af	0.075808875
123	0x3c9dd588	0.019266859
124	0x3cb3ea41	0.021962287
125	0xbd3b1e56	-0.045683227
126	0xbd82a262	-0.06378628
127	0x3d89f2b6	0.067357466
128	0xbd2ca91c	-0.042153463
129	0xbd963b0a	-0.073354796
130	0xbc93b6f8	-0.018031582
131	0xbcd41cb2	-0.02589259
132	0xbd730d49	-0.05933884
133	0xbd14354f	-0.03618365
134	0x3d0da258	0.03457865
135	0xbd807a5d	-0.06273339
136	0xbce1c890	-0.027561456
137	0xbd7b7610	-0.06139189
138	0x3db1f8e2	0.08690049
139	0x3d13ecb8	0.036114424
140	0x399b621b	0.00029636998
141	0xbd4d1977	-0.050073113
142	0xbd53d6dd	-0.05171858
143	0x3cdabe89	0.026702182
144	0xbcb3b6bf	-0.021937726
145	0x3d735266	0.059404753
146	0x3d7ce858	0.061745018
147	0xbd8c28cc	-0.06843719
148	0x3c9646f9	0.01834439
149	0x3c9a48d2	0.018833552
150	0xbccee9f4	-0.025258042
151	0x3d496043	0.049164068
152	0xbc05a2e0	-0.008156508
153	0xbd81a443	-0.063301586
154	0x3d265d9c	0.040616617
155	0x3d96d421	0.07364679
156	0x3d01a265	0.031649012
157	0x3daee0cd	0.08538971
158	0x3cb027ad	0.021503294
159	0x3da08662	0.078381315
160	0x3d5a7cf0	0.053341806
161	0xbcdf0c32	-0.027227495
162	0xbc981b6e	-0.018567767
163	0x3db3c769	0.08778269
164	0xbd83b79e	-0.064315066
165	0xbd522d79	-0.051312897
166	0xbd1b86f3	-0.037970494
167	0xbb6cc262	-0.0036126603
168	0xbd7c2422	-0.061557896
169	0xbd9c9e4f	-0.076473825
170	0x3c601288	0.013676293
171	0x3ca224e8	0.019792989
172	0xbd8e360c	-0.069439024
173	0x3ca23f89	0.019805687
174	0xbb9fba5c	-0.0048745107
175	0xbdaaf324	-0.08347157
176	0x3d0fac1c	0.035076246
177	0xbdac2480	-0.08405399
178	0xbd672db6	-0.056440078
179	0xbd9296f1	-0.07157696
180	0x3c15c796	0.009141823
181	0xbd56092d	-0.052254844
182	0xbd979835	-0.07402078
183	0x3d77a5df	0.06046092
184	0x3a79c229	0.00095275283
185	0xbd1c9db7	-0.038236346
186	0xbd6e5387	-0.058185127
187	0xbd4f8949	-0.050668035
188	0xbd96200d	-0.07330332
189	0x3c4c299e	0.012461094
190	0x3da786e1	0.08180023
191	0xbcf2eabf	-0.029652951
192	0xbd827cb0	-0.063714385
193	0xbdb0c5d0	-0.0863148
194	0xbb2c452d	-0.002628635
195	0x3d176dfe	0.03697013
196	0xbcec145c	-0.028818302
197	0x3dac4f2e	0.0841354
198	0xbdacecc2	-0.084435955
199	0x3c169ce9	0.009192684
200	0xbd951f40	-0.07281351
201	0xbccb2790	-0.024799138
202	0x3da6b8c4	0.0814071
203	0x3c9ae7bb	0.018909326
204	0xbd1b2f35	-0.037886817
205	0xbd9685fe	-0.07349776
206	0xbd9979f1	-0.074939616
207	0x3c6b19ae	0.014349384
208	0xbd388b5c	-0.04505478
209	0xbcd5e50a	-0.02611019
210	0xbcd4e3ca	-0.025987525
211	0xbcccf03b	-0.025016895
212	0xbd88ac2c	-0.06673464
213	0xbd93ef47	-0.07223373
214	0x3d4d5131	0.05012626
215	0x3d7399ba	0.059472777
216	0x3d9ac57f	0.07557201
217	0xbce6ab95	-0.028157989
218	0x3d87c1c0	0.06628752
219	0xbcca086c	-0.024662219
220	0x3d96f6ce	0.07371293
221	0xbdb29015	-0.08718888
222	0x3d5f0756	0.054450355
223	0xbd63f1a1	-0.055650357
224	0xbc663bea	-0.014052371
225	0x3d981cb3	0.07427349
226	0xbda75185	-0.081698455
227	0xbd61572e	-0.05501478
228	0x3c8c736b	0.01714488
229	0xbd9007f7	-0.07032769
230	0xbc33d446	-0.010975903
231	0xbd3a672a	-0.04550854
232	0xbd32b53e	-0.043629877
233	0xbd9eb336	-0.077490255
234	0xbd9bfd2e	-0.076166496
235	0xbca48324	-0.020082064
236	0x3ccd50e3	0.025062984
237	0x3daf7201	0.085666664
238	0xbd885267	-0.06656342
239	0xbd3583c1	-0.044315103
240	0xbd19de77	-0.037565675
241	0xbd732052	-0.059356995
242	0xbc9745ea	-0.018465955
243	0xbd60fc87	-0.05492833
244	0x3d8eb650	0.06968367
245	0xbdaa8752	-0.083265916
246	0x3cbf241d	0.02333265
247	0x3c83e2ee	0.01609942
248	0x3da868e3	0.082231306
249	0x3da25776	0.07926838
250	0xbd53e0df	-0.051728126
251	0xbd0ea279	-0.034822915
252	0x3c428da7	0.011874593
253	0xbd0d2e11	-0.03446776
254	0xbce25968	-0.027630523
255	0x3d0d2e20	0.034467816

network.2.bias f4 [128]
0	0xbd8f9910	-0.07011616
1	0x3d070389	0.032962356
2	0x3c2352fb	0.009968515
3	0xbc1b3f12	-0.009475486
4	0x3cc8bdf5	0.024504641
5	0x3c387bb9	0.0112599665
6	0xbda7da7a	-0.08195968
7	0xbac57fd8	-0.0015068008
8	0xbd900fd9	-0.07034273
9	0xbc86e544	-0.016466744
10	0x3d43a92d	0.04776876
11	0xbd980144	-0.074221164
12	0x3d7c9fee	0.06167596
13	0xbcb5cbd1	-0.022191914
14	0x3d085955	0.03328832
15	0x3a7b62bb	0.0009589602
16	0xbcd4d3af	-0.025979845
17	0x3d85cae6	0.065328404
18	0xbd967b4d	-0.073477365
19	0x3d30f575	0.043202836
20	0xbd36ba93	-0.044611525
21	0x3d25b4c3	0.04045559
22	0x3bcea9fa	0.006306884
23	0x3d657da4	0.056028023
24	0x3d2845a2	0.041082032
25	0x3db1fce5	0.08690814
26	0xbd8cdcf9	-0.06878085
27	0xbcf0d2fa	-0.029397476
28	0xbc89b7aa	-0.01681121
29	0x3cdd8337	0.027040107
30	0xbd5a12cc	-0.053240582
31	0xbd1f6483	-0.038914215
32	0x3d39bed7	0.045348015
33	0x3daab709	0.083356924
34	0xbd831b48	-0.06401688
35	0x3afe70ff	0.0019412338
36	0xbd16114e	-0.036637597
37	0xbd19d409	-0.037555728
38	0xbd8a6c4e	-0.06758939
39	0x3d3e29f3	0.046426725
40	0xbce5e946	-0.028065335
41	0x3d03fe0c	0.0322247
42	0x3d73877c	0.05945538
43	0xbc042bdf	-0.0080671
44	0xbd153b2b	-0.03643338
45	0xbb349693	-0.002755557
46	0x39d2ddbb	0.00040219523
47	0xbca471f0	-0.02007386
48	0xba19f897	-0.00058735296
49	0xbd687cfc	-0.05675982
50	0x3d418dc7	0.04725435
51	0x3dadfe91	0.0849582
52	0xbd9d2ffc	-0.07675168
53	0xbc48b755	-0.012250741
54	0x3cdb616b	0.026779851
55	0x3d87cf1c	0.066313
56	0x3dab6e7c	0.083706826
57	0xbd2ad120	-0.041703343
58	0x3cc7b7ec	0.024379693
59	0x3ce45162	0.027870838
60	0x3db1e9d7	0.086871795
61	0x3d824eb9	0.063626714
62	0xbca9bf9a	-0.020721246
63	0x3c2d6dd1	0.010585264
64	0xbd4baf80	-0.049727917
65	0xbd353ffd	-0.044250477
66	0xb98a7fd0	-0.0002641664
67	0xbc4f22b6	-0.012642553
68	0x3daa717d	0.083224274
69	0x3d9599f3	0.07304754
70	0x3b8dcbe2	0.0043272832
71	0xbd7d816d	-0.06189101
72	0xbd6be06a	-0.057587065
73	0xbb864eed	-0.004098764
74	0xbd5edd95	-0.054410536
75	0xbc454fbe	-0.012042938
76	0x3da91c8d	0.08257399
77	0x3cb57b04	0.022153385
78	0x3d797870	0.060905874
79	0xbd68a677	-0.05679938
80	0xbb6668b5	-0.0035157625
81	0x3d906138	0.07049793
82	0xbcce8c83	-0.025213486
83	0x3dabb916	0.08384912
84	0xbc3d485d	-0.011552897
85	0xbc7d8f1b	-0.0154760135
86	0x3b103996	0.002200698
87	0x3d1dca7e	0.03852319
88	0xbd99747d	-0.074929215
89	0x3c8f9279	0.017525898
90	0x3c4ee764	0.01262841
91	0xbd231616	-0.039815985
92	0xbd8642c5	-0.06555704
93	0xbd0ff9cd	-0.035150338
94	0xbd537289	-0.0516229
95	0x3d2a4b48	0.0415757
96	0xbccb0738	-0.024783716
97	0xbcc2edbe	-0.023795005
98	0x3d84c20c	0.06482324
99	0xbd84d111	-0.06485189
100	0x3d603efe	0.054747574
101	0xbdad7540	-0.08469629
102	0x3d32c5df	0.043645736
103	0x3d925a65	0.07146148
104	0x3cc24c90	0.023718148
105	0xbd142ff8	-0.03617856
106	0x3cd5515f	0.026039777
107	0xbb6f10f6	-0.0036478615
108	0xbaa643de	-0.0012685021
109	0x3d8d4b00	0.06899071
110	0xbcdd437a	-0.027009714
111	0x3cebd997	0.028790278
112	0xbd971441	-0.0737691
113	0xbd87507f	-0.0660715
114	0x3c6c013d	0.014404592
115	0x3ca53cc7	0.020170582
116	0xbb907993	-0.004409024
117	0xbda22cbe	-0.0791869
118	0xbbf6e8ce	-0.0075350767
119	0xbc437c5f	-0.011931508
120	0xbc4695f3	-0.012120712
121	0xbcc97bfa	-0.02459525
122	0x3d606c87	0.054791
123	0x3dad270c	0.08454713
124	0xbce3bcac	-0.027799927
125	0x3c3906ed	0.011293155
126	0xbcdec562	-0.027193729
127	0x3d812a18	0.06306857

network.4.weight f4 [5, 128]
0	0x3c5d15aa	0.013493935
1	0x3d90f5e8	0.07078153
2	0x3d1b5c1b	0.037929635
3	0xbc0fdbbc	-0.008780416
4	0x3ca1f9de	0.019772466
5	0x3db03da3	0.08605506
6	0xbc0fe808	-0.008783348
7	0xbb775986	-0.003774257
8	0x3c11771e	0.008878497
9	0x3a62731e	0.00086383696
10	0xbda34711	-0.07972539
11	0xbbe402c0	-0.0069583356
12	0xbc90af78	-0.017661795
13	0x3d85c943	0.06532528
14	0xbd05d658	-0.032675117
15	0x3d3cd26d	0.046099115
16	0xbcf324f3	-0.029680705
17	0xbbee2d2d	-0.007268569
18	0xbcfd8c8b	-0.030950805
19	0xbd04f18a	-0.032456912
20	0x3c70edfe	0.014705179
21	0x3d590da1	0.052991513
22	0xbc91c69b	-0.017794898
23	0xbd18c534	-0.037297443
24	0xbdb2dd79	-0.08733649
25	0x3bed206c	0.007236531
26	0x3dacf53a	0.08445211
27	0x3d5a35b2	0.053273864
28	0x3cc9b885	0.024624119
29	0xbbfb647a	-0.00767189
30	0xbd5665e5	-0.052343268
31	0xbd7730d2	-0.060349293
32	0x3db34ff6	0.08755486
33	0x3da6fefc	0.08154103
34	0xbd32714f	-0.04356509
35	0xbd118e66	-0.035536192
36	0x3cd011d8	0.025399134
37	0x3d5a3ebe	0.053282492
38	0x3d80ddc0	0.062922955
39	0x3c84d245	0.016213546
40	0xbb9e9d82	-0.0048405537
41	0xbda9eef8	-0.08297533
42	0x3d6484f7	0.055790868
43	0x3c204dab	0.0097841425
44	0x3d84fed7	0.06493919
45	0x3a190fbc	0.00058388314
46	0x3d993c7b	0.07482239
47	0xbd8b1723	-0.06791522
48	0x3d8b4846	0.068008944
49	0x3c2a61f5	0.010399331
50	0xbdaa009e	-0.08300899
51	0xbda48558	-0.08033246
52	0xbb0b5f4e	-0.0021266523
53	0xbd857739	-0.065168805
54	0x3d8f7b4b	0.07005938
55	0xbd8cab14	-0.06868568
56	0xbd4f382b	-0.050590675
57	0x3d9e2819	0.07722492
58	0xbccfdea9	-0.025374727
59	0x3dae060c	0.08497247
60	0x3ce6db5a	0.028180767
61	0x3da158d4	0.07878271
62	0xbd786bee	-0.060649805
63	0xbd7f1740	-0.062278032
64	0xbd20112b	-0.039078873
65	0xbcbf9df7	-0.023390753
66	0xbb125981	-0.002233118
67	0xbc8db9e5	-0.017300555
68	0xbd843581	-0.064555176
69	0xbd3f0c20	-0.046642423
70	0xbb491f3b	-0.003068878
71	0x3d17647d	0.036961067
72	0x3c8c8873	0.017154908
73	0xbd5d1b96	-0.053981386
74	0x3d01e6dc	0.031714305
75	0xbd89f46d	-0.06736074
76	0xbc93553c	-0.017984979
77	0x3d235738	0.0398781
78	0xbd17489d	-0.036934484
79	0x3cc02efa	0.0234599
80	0xbd503317	-0.050829973
81	0xbc5085af	-0.012727185
82	0xbd5b9036	-0.053604327
83	0x3d7e28d6	0.062050663
84	0xbdafe483	-0.08588507
85	0xbc3b1ad6	-0.011419972
86	0xbd775de4	-0.060392275
87	0xbc902846	-0.017597329
88	0xbd9e17e6	-0.07719402
89	0x3d21eee6	0.039534472
90	0xbd0d4e21	-0.034498338
91	0xbc206610	-0.009789959
92	0x3bca2ddb	0.006170017
93	0x3d576384	0.05258514
94	0xbd2675cc	-0.040639684
95	0x3c6d74ac	0.014493149
96	0x3da36c10	0.07979596
97	0xbd94ecf3	-0.07271757
98	0x3c3ea3d2	0.0116357375
99	0x3cec18b5	0.028820375
100	0xbda78ad7	-0.081807785
101	0x3d2e2de1	0.042524222
102	0xbcc3b3d9	-0.023889469
103	0x3c81a155	0.015824
104	0x3ced8a0b	0.028996488
105	0x3db55c0b	0.088554464
106	0x3d1ca522	0.03824342
107	0xbcee2401	-0.029069902
108	0x3d4b5733	0.049643707
109	0xbc771cda	-0.015082562
110	0x3c2a3ce3	0.010390493
111	0x3d90397e	0.07042216
112	0x3db64f22	0.08901812
113	0x3d720232	0.059084125
114	0x3d39ad59	0.045331333
115	0x3d9d1921	0.076708086
116	0xbdaa4891	-0.08314622
117	0xbb8486d1	-0.0040443917
118	0x3bae917f	0.005327403
119	0xbd3604f5	-0.04443832
120	0x3d753830	0.059868038
121	0xbd382a73	-0.044962358
122	0xbdb05282	-0.08609487
123	0xbc06ba5f	-0.008223145
124	0xbcfb699a	-0.030690003
125	0x3d7eed4c	0.062238023
126	0xbcbbe8e9	-0.022938209
127	0xbd8f15b1	-0.06986559
128	0xbc7131a8	-0.014721312
129	0xbd4ae775	-0.04953714
130	0xbd2ee388	-0.04269746
131	0xbd344e86	-0.0440202
132	0x3cd211ec	0.025643311
133	0x3ccbb638	0.024867162
134	0xbd890a2c	-0.06691393
135	0xbc159118	-0.009128831
136	0xbda96bab	-0.08272489
137	0x3da512a1	0.08060194
138	0xbd714dff	-0.058912273
139	0x3cb11fd9	0.021621631
140	0xbc947de2	-0.018126432
141	0x3d97ddc1	0.07415343
142	0x3d6f3c87	0.058407333
143	0xbda66bfa	-0.08126064
144	0x3cfbdabd	0.030743951
145	0x3be7a97f	0.007069766
146	0xbd9ebaa2	-0.07750441
147	0xbcd2cdff	-0.025732992
148	0xbd41281b	-0.04715739
149	0x3bea8260	0.007156655
150	0x3ce2f974	0.02770684
151	0x3d7d24ba	0.061802603
152	0x3cb137c0	0.021633029
153	0x3ce67f06	0.028136741
154	0xbcc706e7	-0.024295283
155	0xbd435c5f	-0.047695514
156	0x3d705e54	0.05868371
157	0x3d29237d	0.04129361
158	0x3da5ed25	0.08101872
159	0xbcb1b558	-0.021692917
160	0x3a279e15	0.00063941005
161	0xbc91508e	-0.017738607
162	0x3c8177c1	0.015804173
163	0x3d49e8eb	0.049294394
164	0xbd485e60	-0.048918128
165	0xbda7f3f1	-0.08200825
166	0xbd3c34a8	-0.045948654
167	0xbd5b11b2	-0.053483672
168	0x3d1888bf	0.037239786
169	0x3db5f68b	0.08884915
170	0xbc2048bb	-0.009782965
171	0x3c5fd314	0.013661165
172	0x3ce561f7	0.028000815
173	0x3d807327	0.062719636
174	0xbd1c6ea8	-0.038191468
175	0xbcf49fd9	-0.029861378
176	0x3d9f18db	0.07768413
177	0xbc136923	-0.0089972345
178	0xbd9bba1e	-0.076038584
179	0x3d852694	0.06501499
180	0xbd3fd1a8	-0.046830803
181	0xbd3f8a50	-0.046762764
182	0xbd8fd690	-0.070233464
183	0x3db49269	0.08816988
184	0x3dac64a7	0.084176354
185	0xbc1078e5	-0.008817886
186	0xbbca1fca	-0.0061683403
187	0x3d671194	0.05641325
188	0xbd86c5e8	-0.06580716
189	0xbc8cd3f9	-0.01719092
190	0xbcd267c7	-0.02568425
191	0xbb4b07c9	-0.0030979982
192	0x3cf3c573	0.029757237
193	0xbd49f267	-0.04930344
194	0xbc9ac6ba	-0.018893588
195	0xbd585e97	-0.052824583
196	0xbcf0a5ee	-0.029375996
197	0x3d8914d5	0.066934265
198	0x3c5a4582	0.013322236
199	0x3c3b1787	0.011419184
200	0x3db320a9	0.08746464
201	0xbd48501b	-0.04890452
202	0xbdaac70f	-0.08338749
203	0xbd22920f	-0.039690074
204	0xbcb21e10	-0.02174285
205	0xbccd67dc	-0.025073938
206	0xbccaf9e6	-0.024777364
207	0x3d4b7abe	0.049677603
208	0x3d35682a	0.04428879
209	0xbca6f17f	-0.020378826
210	0x3c5cb1ad	0.013470096
211	0xba909dd2	-0.0011033362
212	0xbd3fdb8b	-0.046840232
213	0xbcff8f0d	-0.031196142
214	0xbcc96769	-0.024585443
215	0x3b95553a	0.004557279
216	0xbd90d5a7	-0.07072001
217	0xbd79988d	-0.0609365
218	0x3d033203	0.032030117
219	0x3c580899	0.013185644
220	0xbd569314	-0.05238636
221	0x3d69f8e0	0.05712211
222	0x3d450455	0.048099834
223	0x3c65ce78	0.014026277
224	0xbd952c6c	-0.072838634
225	0x3d45b7c0	0.04827094
226	0xbda8877c	-0.082289666
227	0xbd111aa9	-0.035425816
228	0xbd8123df	-0.0630567
229	0xbcdfc940	-0.027317643
230	0x3d5af421	0.053455476
231	0x3cc66f8e	0.024223115
232	0x3d7a976b	0.06117956
233	0x3b03689c	0.0020051366
234	0x3dacd0aa	0.08438237
235	0x3d9a4ddc	0.07534382
236	0xbd4340b0	-0.047669113
237	0xbd3f9eae	-0.046782188
238	0xbc3a7276	-0.011379829
239	0xbc462c90	-0.012095585
240	0xbd4cd5e7	-0.05000868
241	0xbd4bde58	-0.04977259
242	0xbd9d9396	-0.076941654
243	0x3d5879a6	0.052850388
244	0xbd8ce17f	-0.068789475
245	0xbd3bcb4e	-0.045848183
246	0xbc8a8b01	-0.016911985
247	0xbc20502c	-0.009784739
248	0xbd6d9582	-0.05800391
249	0xbd8c3980	-0.06846905
250	0xbbefaa13	-0.0073139756
251	0xbcf6eb98	-0.030141637
252	0xbd3d9cf9	-0.04629228
253	0x3c6bb0b0	0.014385387
254	0xbce4593b	-0.02787458
255	0x3db40d08	0.08791548

network.4.bias f4 [5]
0	0xbc2ff6a9	-0.010739961
1	0x3d63c9cf	0.05561238
2	0x3d709afd	0.05874156
3	0x3c8e7ba6	0.017392945
4	0x3c661a3f	0.0140443435

network.0.weight f4 [128, 82]
0	0x3d4dd269	0.05024949
1	0x3d5dd19f	0.05415499
2	0xbbd30849	-0.0064401967
3	0x3da50e5b	0.08059379
4	0x3d7213f0	0.059101045
5	0x3d5cc994	0.053903177
6	0x3c1ea20e	0.009682192
7	0xbd3d9763	-0.04628695
8	0xbb21e8a4	-0.0024705315
9	0x3d82a61a	0.063793376
10	0xbdb46962	-0.08809163
11	0x3c754244	0.014969412
12	0xbd58d752	-0.05293972
13	0x3db0c891	0.08632005
14	0xbdd64380	-0.10462093
15	0x3d94c6c5	0.07264475
16	0x3dea3bc3	0.1143718
17	0xb9836dcf	-0.0002506808
18	0xbbde1a67	-0.0067780497
19	0x3c5fa6be	0.013650594
20	0xbcd7e38c	-0.02635362
21	0x3cfc82eb	0.030824145
22	0xbddc4942	-0.1075616
23	0xbb18fba6	-0.0023343354
24	0xbd775d5a	-0.06039176
25	0x3ddde576	0.10834782
26	0xbda655d2	-0.08121838
27	0x3cee5d03	0.029097086
28	0x3d103b96	0.035213076
29	0xbbd13ae7	-0.0063851955
30	0xbdc3679f	-0.095412485
31	0xbda137a9	-0.078719445
32	0xbd7b28bc	-0.061318144
33	0x3d01bf82	0.031676777
34	0xbddd0798	-0.10792464
35	0x3dd533cb	0.10410269
36	0x3dad7350	0.0846926
37	0xbd901aa3	-0.070363306
38	0xbba24fe3	-0.004953371
39	0xbcd16951	-0.025562914
40	0x3c93a012	0.018020663
41	0x3d8d997b	0.0691404
42	0x3d88018d	0.06640921
43	0xbdd7d10b	-0.10537919
44	0x3d4e5bb6	0.05038043
45	0xbdeb86f0	-0.11500347
46	0xbd3e3357	-0.04643568
47	0x3d822d28	0.06356269
48	0xbddfc89a	-0.109269336
49	0x3d58ed85	0.05296089
50	0x3daec113	0.0853292
51	0xbd931e7a	-0.07183547
52	0x3de8877e	0.11353968
53	0x3d1e4c9c	0.03864728
54	0xbd9a5bb8	-0.07537025
55	0x3cf8d344	0.030374177
56	0x3dd35ad9	0.10320062
57	0x3d80c7ae	0.06288086
58	0xbda00660	-0.07813716
59	0xbcb3d2da	-0.021951128
60	0xbd61a226	-0.055086277
61	0x3c7ea466	0.015542125
62	0xbd747275	-0.059679467
63	0x3da8c58e	0.082408056
64	0xbca915bc	-0.020640247
65	0xbc1f89e4	-0.0097374655
66	0x3ceb069f	0.02868968
67	0x3d440d43	0.04786421
68	0xbbdb0774	-0.006684238
69	0x3c16f059	0.009212577
70	0x3deaab3f	0.11458444
71	0xbca71e7b	-0.020400276
72	0xbdcece86	-0.10097985
73	0x3d4f1014	0.050552443
74	0xbdac3cb4	-0.08410016
75	0x3d73fb85	0.05956604
76	0xbdd30902	-0.103044525
77	0x3d53cb7c	0.05170773
78	0xbd3dadae	-0.046308212
79	0x3cd9a3ad	0.026567305
80	0xbdca3b0f	-0.09874546
81	0x3c1bb596	0.009503743
82	0x3dca4555	0.09876505
83	0xbd9dac48	-0.07698876
84	0xbdc0d833	-0.09416237
85	0x399ace40	0.00029526837
86	0x3dc0eace	0.094197854
87	0xbd73ce10	-0.05952269
88	0x3d1da1ff	0.03848457
89	0xbd7b32b9	-0.06132767
90	0x3a9f8132	0.001216924
91	0xbc385d9a	-0.011252785
92	0x3cfe7c53	0.031065142
93	0x3d969a82	0.07353689
94	0x3dca188e	0.09867965
95	0xbd6ac40c	-0.05731587
96	0x3c9c096b	0.01904746
97	0xbd027a90	-0.031855166
98	0x3db77816	0.089584514
99	0x3de33aa1	0.11095167
100	0xbc167933	-0.00918417
101	0x3d8d09e1	0.0688665
102	0xbd45cf0c	-0.04829316
103	0x3dc79632	0.09745444
104	0xbc257617	-0.010098956
105	0xbdb4552f	-0.0880531
106	0x3cdc9c69	0.02693005
107	0x3c93bd55	0.018034616
108	0xbd3f2928	-0.04667011
109	0xbd2d227f	-0.042269226
110	0xbd5adec4	-0.053435102
111	0xbdc2468d	-0.09486113
112	0x3d037f72	0.032103963
113	0xbdbca875	-0.09211818
114	0x3dbad6b4	0.091229826
115	0x3c67ce5d	0.014148322
116	0x3d4726d6	0.04862102
117	0x3cff8997	0.031193538
118	0x3d68787a	0.05675552
119	0x3d49ba84	0.04925014
120	0x3d1f7e60	0.03893888
121	0xbd29152c	-0.041279957
122	0xbc973ead	-0.018462503
123	0x3c263b98	0.010146044
124	0xbdc8e3dd	-0.098090865
125	0xbdd6d901	-0.10490609
126	0xbdb29e75	-0.087216295
127	0xbd3839a7	-0.044976857
128	0xbdddd412	-0.10831465
129	0x3d4be893	0.049782347
130	0x3ce65975	0.028118828
131	0xbcc2771c	-0.023738436
132	0x3d27709a	0.04087887
133	0x3ba42912	0.005009779
134	0x3dc9bd02	0.098505035
135	0x3ddcdf37	0.10784762
136	0xbc19815a	-0.009369219
137	0xbd52dda0	-0.05148089
138	0x3dc5343e	0.09629105
139	0x3d9413b4	0.072303206
140	0x3d81db41	0.063406475
141	0xbd100cab	-0.03516833
142	0xbdf2b214	-0.11850372
143	0x3dc9fc0c	0.09862527
144	0x3c514e2c	0.012774985
145	0xbcb168f7	-0.021656496
146	0x3cfa05ee	0.030520406
147	0xbdc05cbf	-0.0939269
148	0xbcd5ef6f	-0.026115147
149	0x3c0c28ec	0.008554678
150	0x3d37d126	0.044877194
151	0x3dc915b3	0.09818592
152	0x3c8c4ba9	0.017125921
153	0x3b96348d	0.0045839013
154	0xbd854b48	-0.065084994
155	0xbd7ae24f	-0.06125098
156	0xbbc24ad9	-0.0059293327
157	0xbda0a27b	-0.07843491
158	0x3da8da9b	0.08244821
159	0xbdd17110	-0.10226643
160	0x3c6d1e15	0.014472504
161	0xbd800294	-0.06250492
162	0xbc39878f	-0.011323824
163	0xbcddec37	-0.027090175
164	0x3d9cb2f2	0.076513186
165	0x3c7676b7	0.015042952
166	0xbdb5611a	-0.08856411
167	0xbbf13d6b	-0.007362058
168	0xbd0390bb	-0.032120448
169	0x3d4835ca	0.048879422
170	0xbd2389ee	-0.039926462
171	0x3dd61e73	0.104550265
172	0xbdb2f001	-0.08737183
173	0x3d88e689	0.06684596
174	0x3cbff290	0.023431093
175	0xbc8036da	-0.015651155
176	0xbd8eca6d	-0.069722034
177	0xbd082085	-0.033234138
178	0x3dc4b06b	0.096039616
179	0x3d155d67	0.03646603
180	0xbcbd8e77	-0.023139222
181	0x3d89cd75	0.06728641
182	0xbc0f23a6	-0.008736527
183	0x3d7bc943	0.061471235
184	0xbd7f6b58	-0.06235823
185	0xbdd9b0c9	-0.10629422
186	0x3d0302ec	0.03198521
187	0xbcb4b0e7	-0.02205701
188	0xbcce8dc6	-0.025214087
189	0xbdd501ff	-0.10400771
190	0x3ce9aec8	0.028525725
191	0xbdb59dc2	-0.088679805
192	0xbd689b99	-0.056789014
193	0xbd2a27c0	-0.041541815
194	0xba74be37	-0.00093362055
195	0x3d9803a6	0.07422571
196	0x3d6f9704	0.05849363
197	0xbdccf834	-0.100082785
198	0xbc68de9f	-0.014213233
199	0x3a952f36	0.0011381868
200	0x3cf8cd0f	0.030371217
201	0x3c94dd82	0.01817203
202	0xbd136c35	-0.035991866
203	0x3b11264e	0.0022148076
204	0x3d0c9adb	0.03432737
205	0x3cc7d8e5	0.024395416
206	0x3dd9507c	0.10611054
207	0xbd159e6b	-0.036528032
208	0x3de2e74b	0.11079272
209	0xbd9465d0	-0.07245982
210	0x3db934b9	0.09043259
211	0xbdcebecd	-0.10094986
212	0xbd23973a	-0.039939143
213	0xbda6a6a5	-0.08137254
214	0x3ca4c475	0.02011321
215	0xbc808cf3	-0.01569221
216	0xbd890709	-0.06690795
217	0xbdb17ad1	-0.086660035
218	0xbc7c1fcf	-0.015388443
219	0x3dc47b1a	0.09593792
220	0x3d42f285	0.047594566
221	0xbd84e152	-0.06488289
222	0xbdcd1048	-0.10012871
223	0xbd80f83b	-0.06297346
224	0xbc041f56	-0.008064112
225	0xbd17ec73	-0.03709073
226	0xbd636bf8	-0.05552289
227	0x3d72e855	0.0593036
228	0xbdda1d7b	-0.10650154
229	0xbd8c9dc8	-0.06866032
230	0x3c612220	0.013741046
231	0xbdc9749a	-0.09836693
232	0xbdd92583	-0.10602858
233	0x3d18655c	0.03720604
234	0xbde56118	-0.1120016
235	0xbd843d65	-0.064570226
236	0x3dc1397b	0.09434792
237	0xbc88fe5f	-0.016722856
238	0xba6a7c7e	-0.00089449424
239	0x3d35e9d7	0.04441246
240	0xbd1c45e0	-0.038152575
241	0x3aea4416	0.0017873074
242	0x3dcaa70f	0.09895145
243	0xbd892bbd	-0.066977955
244	0xbd9f1556	-0.077677414
245	0xbcbfdb07	-0.02341987
246	0x3dbf8d4d	0.09353123
247	0x3d853836	0.06504862
248	0x3d05aab0	0.032633483
249	0x3c05c925	0.008165632
250	0x3d9280c7	0.071534686
251	0x3dc93a2d	0.09825549
252	0xbdd2aa9a	-0.10286446
253	0xbab5ab38	-0.0013860231
254	0xba85a1d8	-0.0010195328
255	0x3dc76fd7	0.09738129

network.0.bias f4 [128]
0	0xbd122da7	-0.03568807
1	0x3ccce9a0	0.025013745
2	0xbd4758bc	-0.048668608
3	0x3dd5fcec	0.10448632
4	0xbd3b964f	-0.045797642
5	0x3d63beea	0.05560199
6	0xbdcd41d7	-0.100223236
7	0xbdc202fe	-0.09473227
8	0x3c87810f	0.016541032
9	0x3d915379	0.07095999
10	0x3c3ab5ef	0.011395915
11	0xbcfbfc2c	-0.030759893
12	0xbd807d06	-0.06273846
13	0x3c8dbe09	0.01730253
14	0x3de8a05e	0.113587126
15	0xbbebc3a4	-0.007194953
16	0xbd805fb7	-0.06268256
17	0xbae2d56b	-0.0017306035
18	0xbcb14ce9	-0.021643119
19	0x3bbf3941	0.0058356826
20	0x3db44803	0.08802798
21	0x3da6951d	0.0813391
22	0x3df2d77c	0.11857507
23	0xbdbcd76b	-0.09220775
24	0x3d10033a	0.035159327
25	0xbd4891d1	-0.048967186
26	0x3da6dd33	0.08147659
27	0x3cc54013	0.024078405
28	0x3d5ffdc1	0.054685358
29	0x3d732925	0.05936541
30	0xbd6b12bc	-0.057390913
31	0xbc5a6a5d	-0.013331023
32	0x3d58bea7	0.052916195
33	0x3c80d4ac	0.01572641
34	0xbdd187c2	-0.10230972
35	0xbcda985a	-0.026683975
36	0x3da935e5	0.08262233
37	0x3db63ca8	0.08898288
38	0xbdb90e39	-0.09035916
39	0xbd10289c	-0.035194978
40	0xbb573668	-0.0032838825
41	0x3d2fce3c	0.04292129
42	0xbbae417d	-0.0053178654
43	0xbd9a7b5a	-0.07543059
44	0xbdb6e33f	-0.089300625
45	0xbd4f0ad1	-0.050547425
46	0xbcfc6255	-0.030808607
47	0x3d8b01a1	0.0678742
48	0x3d2ecf52	0.042678185
49	0x3c8e7909	0.017391698
50	0x3d9ae293	0.07562747
51	0xbccc4afb	-0.024938097
52	0x3da7eee8	0.081998646
53	0xbd2b25d0	-0.041784108
54	0x3c1eaaa8	0.009684242
55	0xbdbcb59c	-0.09214327
56	0xbdb4d26d	-0.08829198
57	0x3d20fe03	0.039304744
58	0xbc9b1621	-0.01893145
59	0xbd5ba594	-0.053624704
60	0xbdbed084	-0.09317115
61	0xbd537384	-0.051623836
62	0x3dddcc07	0.10829931
63	0xbd7bd6af	-0.061484035
64	0x3dcc6eff	0.09982108
65	0xbca515d0	-0.020152003
66	0xbcad09c7	-0.021122826
67	0x3be35b26	0.006938356
68	0x3d52e1e0	0.051484942
69	0xbcefbdcb	-0.029265305
70	0x3d31d7bd	0.043418635
71	0x3cd68ee6	0.026191186
72	0xbd77bbd8	-0.060481876
73	0x3da0c554	0.07850137
74	0xbd16d828	-0.036827236
75	0x3d99c23f	0.075077526
76	0xbd2ce462	-0.04220999
77	0x3d093d8b	0.033505958
78	0xbd909486	-0.070595786
79	0x3d7bb0b3	0.06144781
80	0xbd48162d	-0.048849273
81	0xbc35eddb	-0.011104072
82	0x3d5eb0e9	0.054367933
83	0x3d28b6bf	0.041189905
84	0xbd38e808	-0.045143157
85	0x3c862864	0.016376682
86	0x3c6371b6	0.013882091
87	0x3d3ee480	0.046604633
88	0x3dafd82b	0.08586153
89	0x3d8dd8aa	0.06926091
90	0xbd725e10	-0.059171736
91	0xbce36137	-0.027756317
92	0x3dcdc8d0	0.100480676
93	0xbd9a76fa	-0.07542224
94	0x3d943796	0.07237165
95	0x3dd130e7	0.102144055
96	0xbd1e089d	-0.038582433
97	0x3d8a708d	0.067597486
98	0xbd743f42	-0.05963064
99	0x3db4af5a	0.08822508
100	0x3dd99638	0.10624355
101	0xbc68c660	-0.014207453
102	0xbd5f1964	-0.054467574
103	0x3d8a3981	0.06749249
104	0xbdd927ac	-0.1060327
105	0x3d1cfae7	0.038325217
106	0xbbff23cb	-0.0077862493
107	0xbd99f1f1	-0.0751685
108	0xbd0bc2f7	-0.03412148
109	0x3daa6a59	0.083210655
110	0x3c85d0c4	0.016334899
111	0x3d298d14	0.04139431
112	0xbd82cb49	-0.0638643
113	0xbd7d8d77	-0.06190249
114	0x3ddb063e	0.1069455
115	0xbbe3c7dc	-0.0069513153
116	0x3d8f7195	0.07004086
117	0x3ccaf6f8	0.024775967
118	0x3d7797b2	0.060447402
119	0x3dd3ba9e	0.10338329
120	0xbd8e94ff	-0.069620125
121	0x3db41259	0.08792562
122	0x3cac74fd	0.021051878
123	0xbdc212be	-0.09476231
124	0xbd2cec19	-0.042217348
125	0x3dac4f33	0.084135436
126	0xbdad6792	-0.0846702
127	0xbb9f7782	-0.0048665414

network.2.weight f4 [128, 128]
0	0xbcbd6349	-0.023118632
1	0xbcb2f593	-0.021845615
2	0xbbe12f23	-0.006872074
3	0xbc63b542	-0.013898196
4	0x3c1defe4	0.009639714
5	0x3db6d59d	0.08927462
6	0xbd160171	-0.03662247
7	0x3dbc644f	0.0919882
8	0xbd9c4632	-0.07630576
9	0xbd7a786c	-0.06115
10	0xb91755a0	-0.0001443238
11	0xbd06bdd6	-0.032895885
12	0x3b9bab9e	0.004750683
13	0xbd9cd907	-0.07658582
14	0x3d8fff48	0.07031113
15	0xbd178ec6	-0.037001394
16	0x3c08633b	0.00832444
17	0x3d07e08e	0.033173136
18	0x3d2e1f8c	0.042510554
19	0xbafd7908	-0.0019338438
20	0xbbb502ca	-0.005524014
21	0xbcedf669	-0.029048162
22	0x3cf6b15f	0.030113874
23	0x3cae3920	0.021267474
24	0x3d2fb50a	0.04289726
25	0xbd59fcf7	-0.05321976
26	0x3bb18c56	0.0054183407
27	0x3d11aa6d	0.03556292
28	0x3d2e6a1c	0.042581663
29	0x3d1abb5f	0.037776347
30	0xbd91a54f	-0.07111608
31	0xbdb33265	-0.08749846
32	0xbd21db3d	-0.039515723
33	0x3c6c898f	0.014437093
34	0xbda3bb64	-0.07994726
35	0x3d54668a	0.0518556
36	0xbbe9111e	-0.007112636
37	0x3d3ba9c6	0.045816205
38	0x3d685659	0.056722973
39	0x3bd30848	0.006440196
40	0xbcba9129	-0.022774296
41	0x3d7df3f0	0.062000215
42	0x3ac759e0	0.001520928
43	0xbca53336	-0.02016602
44	0xbd504a50	-0.05085212
45	0x3d7ac025	0.0612184
46	0x3d86590a	0.065599516
47	0xbcaf24b9	-0.021379815
48	0xbc633ed2	-0.013869958
49	0xbd1d89c3	-0.038461458
50	0x3d1d74d4	0.038441494
51	0x3d1f7b30	0.03893584
52	0x3d7ff666	0.062490843
53	0x3c5c85af	0.013459607
54	0xbd78c06c	-0.060730383
55	0xbd900c0e	-0.07033549
56	0x3cba5c8a	0.022749204
57	0x3d33c2d7	0.043886986
58	0x3d8e71ab	0.06955274
59	0xbd938dde	-0.072047934
60	0x3dbc0be8	0.091819584
61	0xbba24520	-0.004952088
62	0xbc79a8a4	-0.015237961
63	0x3c74581b	0.014913584
64	0xbd5bd2c1	-0.053667787
65	0x3d2302e6	0.039797686
66	0x3d59e7ab	0.05319945
67	0x3be86f49	0.0070933443
68	0x3d1a5f54	0.03768857
69	0xbdb1cf4b	-0.08682116
70	0xbd93d8c7	-0.07219081
71	0x3dbda9f0	0.09260929
72	0x3dab6203	0.083683036
73	0xbd9d0a0d	-0.07667933
74	0x3cf081bc	0.029358737
75	0xbced40f0	-0.028961629
76	0xbd1fafd6	-0.03898605
77	0x3d8abd6f	0.06774413
78	0xbd4a36bd	-0.04936861
79	0x3d142629	0.036169205
80	0x3d90405d	0.07043526
81	0xbc600ef1	-0.013675437
82	0xbca53649	-0.020167487
83	0x3d736ff8	0.059432954
84	0xbd829eb1	-0.06377924
85	0xbd995c5d	-0.0748832
86	0xbd22b81b	-0.039726358
87	0x3c14503e	0.009052334
88	0x3db2d135	0.08731309
89	0x3d97fe07	0.07421499
90	0x3d443d20	0.047909856
91	0xbdaf41c6	-0.08557467
92	0xbc4c648e	-0.012475146
93	0xbd41e295	-0.047335226
94	0x3d651a39	0.05593321
95	0x3c810df4	0.015753724
96	0xbc1ce5fe	-0.009576319
97	0x3c924a1c	0.017857604
98	0xb9e2f944	-0.00043291796
99	0xbd93f4de	-0.07224439
100	0xbd0f38d6	-0.034966312
101	0xbc26a683	-0.010171535
102	0xbd5b9b83	-0.053615104
103	0x3cfecff0	0.031105012
104	0xbcac4a26	-0.02103145
105	0x3bebe1f5	0.007198567
106	0x3d41bd3c	0.04729961
107	0x3d28a136	0.041169368
108	0xbca173cd	-0.019708538
109	0x3d8de712	0.06928839
110	0x3c810e3b	0.015753856
111	0xbda21e34	-0.07915917
112	0xbd62f2cc	-0.05540733
113	0xbd929756	-0.07157771
114	0xbd68f008	-0.056869537
115	0xbd6de522	-0.058079846
116	0x3d4497dc	0.047996387
117	0xbd8bb32d	-0.068212844
118	0xbd97e86f	-0.0741738
119	0x3db91bb4	0.09038487
120	0x3daa8de7	0.08327847
121	0xbd03f84a	-0.03221921
122	0x3cec69f4	0.028859116
123	0x3ca60d6f	0.020270078
124	0x3d4716cb	0.04860572
125	0x3d9676ae	0.07346855
126	0x3c487e8b	0.012237201
127	0xbd060a12	-0.032724448
128	0xbce5ef24	-0.028068133
129	0xbbb74941	-0.0055934493
130	0xbd82a82b	-0.06379732
131	0x3cdcb60a	0.026942272
132	0x3c285966	0.0102752205
133	0x3d1e18c5	0.03859784
134	0xbd263c06	-0.040584587
135	0xbda7b473	-0.08188715
136	0xbd04cdcd	-0.03242283
137	0x3d48ef02	0.04905606
138	0x3da6fbe9	0.08153517
139	0x3da4e2e6	0.0805109
140	0xbcae88dd	-0.021305496
141	0xbd6b7183	-0.0574813
142	0xbd0ceb61	-0.034404162
143	0x3db84934	0.089983374
144	0x3d909a15	0.07060639
145	0x3dadbb86	0.08483033
146	0x3c9292ba	0.01789223
147	0xbc485fde	-0.012229888
148	0xbc0a2e44	-0.008433882
149	0x3db90432	0.09034003
150	0x3d64636e	0.055758886
151	0xbd69f8a5	-0.05712189
152	0x3d955d6d	0.0729321
153	0xbcd20629	-0.025637703
154	0x3c6aad42	0.014323534
155	0x3d02def1	0.031950895
156	0x3d6af8b0	0.057366073
157	0xb9526334	-0.00020064117
158	0x3d852191	0.06500543
159	0xbdab9fd6	-0.08380096
160	0xbcea8c7f	-0.028631447
161	0x3d0a82e3	0.03381623
162	0xbd8d2e1e	-0.06893562
163	0xbd948db9	-0.07253594
164	0xbbb75778	-0.005595144
165	0xbd7a2179	-0.06106708
166	0xbd4404a8	-0.047856003
167	0xbcd5b402	-0.026086811
168	0xbd0b418d	-0.03399806
169	0xbd807898	-0.062730014
170	0xbd841fe2	-0.06451394
171	0x3d8e6824	0.06953457
172	0x3c888ad5	0.016667763
173	0xbd47971e	-0.0487281
174	0x3d011a68	0.031519324
175	0x3cefd5a9	0.029276686
176	0xbcee5a0d	-0.029095674
177	0x3d56509d	0.052322973
178	0xbcf2dc29	-0.029645996
179	0x3d59c312	0.05316455
180	0xbcb635f0	-0.022242516
181	0x3cb8d82f	0.022564022
182	0xbd25d3bd	-0.040485132
183	0xbd83e7c7	-0.064406924
184	0xbd0b88b2	-0.03406591
185	0x3c3a7fb4	0.011382986
186	0xbd990e4b	-0.07473429
187	0xbd73639b	-0.059421163
188	0xbd584188	-0.05279687
189	0xbc99766c	-0.018733226
190	0x3b796b32	0.0038058278
191	0xb93ff77c	-0.00018307375
192	0x3cb7e82f	0.022449581
193	0xbba8285f	-0.0051317657
194	0xbc664b8c	-0.014056098
195	0xbceb19bf	-0.0286988
196	0x3d32c12b	0.04364125
197	0xbc875670	-0.016520709
198	0xbd1300cc	-0.03588943
199	0xbce72911	-0.028217824
200	0xbd52d0d7	-0.051468696
201	0x3cb34722	0.021884505
202	0x3d90e4ed	0.07074914
203	0x3bbe1544	0.005800875
204	0xbbf5fd86	-0.007507029
205	0xbb9eedcf	-0.0048501263
206	0xbd6731a2	-0.056443818
207	0xbd9a230f	-0.07526218
208	0xbd278776	-0.04090067
209	0xbc95ef3e	-0.018302556
210	0xbd989156	-0.07449596
211	0x3c9b8e97	0.01898889
212	0x3d7a99e6	0.061181925
213	0xbc064a48	-0.008196421
214	0x3d996cbc	0.074914426
215	0xbcaf13ca	-0.02137174
216	0xbc721be2	-0.014777156
217	0xbd9f7228	-0.077854455
218	0x3d45a18a	0.04824976
219	0x3bb06a82	0.0053837905
220	0xbcdde273	-0.027085518
221	0x3bf428f9	0.0074511734
222	0x3d635d4e	0.055508904
223	0xbd14fc2b	-0.0363733
224	0xbd53e634	-0.05173321
225	0x3be61601	0.007021666
226	0x3c877211	0.016533883
227	0xbd4a5128	-0.049393803
228	0x3daaeafd	0.08345602
229	0xbc87b26f	-0.016564576
230	0xbda94bb3	-0.082663916
231	0xbd72d917	-0.059289064
232	0xb9570142	-0.00020504466
233	0x3d7df603	0.062002193
234	0x3d435887	0.047691848
235	0x3d40f8f6	0.047112428
236	0xbd58fab2	-0.052973457
237	0x3ce6c300	0.028169155
238	0xbb32abf6	-0.0027263141
239	0xbccaa9f0	-0.024739236
240	0xbd9e8be8	-0.07741529
241	0x3b285f2b	0.002569149
242	0x3ca9264b	0.020648142
243	0x3b56c376	0.0032770312
244	0x3d515a07	0.051111247
245	0xbd162890	-0.036659777
246	0x3dbf8b91	0.09352792
247	0x3b91fb0d	0.0044549764
248	0xbae67cc4	-0.001758479
249	0xbcf2d0e4	-0.029640622
250	0xbd9a41f6	-0.07532112
251	0xbc960160	-0.018311203
252	0x3d240b67	0.040049937
253	0xbd70f79c	-0.05882989
254	0x3d2d588b	0.04232077
255	0x3c8c9495	0.017160693

network.2.bias f4 [128]
0	0x3d9bc7f9	0.07606501
1	0x3d20ba82	0.039240368
2	0xbc063ebb	-0.008193667
3	0xbce9fb80	-0.028562307
4	0x3d85b951	0.06529487
5	0xbc10ab6d	-0.008829934
6	0x3d81a6bd	0.06330631
7	0x3c179a14	0.009253044
8	0x3c5bb22a	0.013409177
9	0x3c9432c3	0.018090611
10	0xbd0ec248	-0.03485325
11	0x3db0c32d	0.08630977
12	0x3d38c84e	0.0451129
13	0x3d163b9a	0.036677934
14	0xbd8f038e	-0.069831
15	0xbd826780	-0.06367397
16	0x3cf97a4c	0.030453824
17	0x3d6d6006	0.057952903
18	0xbdbab032	-0.09115638
19	0x3db6babc	0.089223355
20	0x3b47f6c4	0.0030512074
21	0xbd3aeea9	-0.04563776
22	0xbbec954c	-0.007219946
23	0x3cb4462b	0.022006115
24	0x3c19c19b	0.009384538
25	0x3d1146a3	0.035467755
26	0x3d99c449	0.075081415
27	0xbc9a2cd7	-0.01882021
28	0x3ad01b31	0.0015877244
29	0x3d89702f	0.067108504
30	0xbd5ded59	-0.05418143
31	0xbd4228de	-0.047402255
32	0x3d9c00d0	0.076173425
33	0xbd951a2e	-0.07280384
34	0x3d3418db	0.043969017
35	0xbbf7247f	-0.0075421925
36	0xbc9b5745	-0.018962512
37	0xbc2656b2	-0.010152506
38	0x3c8ec91d	0.017429883
39	0x3daf29bb	0.08552881
40	0x3ce9420a	0.028473873
41	0xbd8bbc02	-0.06822969
42	0x3c63d855	0.013906558
43	0xbd6da466	-0.05801811
44	0xbd4df891	-0.05028588
45	0xbd80dc21	-0.06291986
46	0xbd43dd5b	-0.047818523
47	0xbd8fbd8b	-0.07018574
48	0xbc2c5abd	-0.010519681
49	0x3d09cf6d	0.033645082
50	0xbd5d92a9	-0.054094944
51	0x3c7b5184	0.015339259
52	0xbdb41347	-0.08792739
53	0x3d5a303f	0.053268667
54	0xbd9f5fb9	-0.077819295
55	0x3d78af61	0.06071413
56	0xbccf00ef	-0.025269
57	0x3da285dd	0.07935689
58	0x3d3fb303	0.04680158
59	0xbb97e530	-0.0046354756
60	0xbb909cbc	-0.0044132154
61	0x3ca9abe9	0.020711856
62	0x3c931dc6	0.017958533
63	0x3d06722e	0.032823734
64	0xbd14e9b3	-0.036355685
65	0xbd845917	-0.06462305
66	0x3d66bb20	0.0563308
67	0xbd8a7746	-0.06761031
68	0xbd93c8bf	-0.07216024
69	0x3d62b1aa	0.055345215
70	0xbd8afce2	-0.06786515
71	0xbd33d165	-0.043900866
72	0xbd654519	-0.0559741
73	0xbd991188	-0.07474047
74	0x3d971aff	0.07378196
75	0xbcef1e83	-0.029189354
76	0x3d9e0f21	0.07717729
77	0xbd5f23d7	-0.05447754
78	0x3da23029	0.07919342
79	0x3d7d185d	0.061790813
80	0x3d603905	0.054741878
81	0xbcee4def	-0.029089896
82	0xbd19c646	-0.037542604
83	0x3d0f5553	0.03499348
84	0xbd0c52f1	-0.034258787
85	0x3d69201c	0.056915388
86	0xbd98db03	-0.07463648
87	0xbd8f0510	-0.069833875
88	0xbdad7d88	-0.08471209
89	0x3ce46406	0.027879726
90	0xbd9a33c3	-0.07529404
91	0x3d5071e0	0.05088985
92	0x3d42f51f	0.047597047
93	0xbd81e04e	-0.06341611
94	0xbafc982e	-0.0019271427
95	0x3d1bd136	0.038041316
96	0xbdab7cb3	-0.08373394
97	0x3c1399b9	0.009008818
98	0xbdbe5206	-0.092929885
99	0xbd8c16bc	-0.06840274
100	0xbd3e7d02	-0.046505935
101	0xbd891f74	-0.06695452
102	0x3d34d155	0.044144947
103	0xbd720408	-0.059085876
104	0xbd5d7482	-0.05406619
105	0x3c34ee04	0.0110430755
106	0x3da3f8fd	0.08006475
107	0xbd5fe8b3	-0.05466528
108	0xbd2f3068	-0.042770773
109	0x3c135a5b	0.00899371
110	0xbce51f6e	-0.027969088
111	0xbbaa8d85	-0.0052048587
112	0x393458f0	0.0001719927
113	0x3d16d264	0.036821738
114	0xbd0b7b9e	-0.034053437
115	0xbd9fa4fa	-0.07795139
116	0x3cae2a4b	0.021260401
117	0x3c7b847a	0.015351409
118	0xbd27803a	-0.04089377
119	0x3dbbb88a	0.091660574
120	0x3d371f52	0.044707604
121	0xbd3cf308	-0.04613021
122	0xbcc387d0	-0.023868471
123	0xbbf436fc	-0.0074528437
124	0x3d346541	0.044041876
125	0x3b8979e8	0.0041954406
126	0xbdb02ce4	-0.08602312
127	0xbd4ae1c5	-0.049531717
