models/maddpg/checkpoint_ep250/adversary_0.pth (torch, 764002 bytes, 44 tensors)

network.0.weight f4 [128, 16]
00000000: 6ac5 76be 5553 863e f3d9 453e b65a 40be
00000010: cf70 1cbd 58ec b6bd b02f 8e3e a02f a53d
00000020: d6ca 533e 41ef 403e dda3 ca3c bb48 5dbd
00000030: c663 5d3e 13b8 77be be20 253e 5f63 63bd
00000040: a6be f03b 766c ff3c 13ed 183e d295 e7bd
00000050: 8adb 56be 21f7 d23d fada 933d 4490 d5bd
00000060: 8f42 1cbd aa3f aa3d cbb9 b03d 45d5 303e
00000070: f1ec 80be fe37 c6bc b903 893c 4028 fc3d
00000080: cad5 863b 027f e03d 6db9 043e 3366 1a3e
00000090: 18f9 023e 48fb 70be 2771 40be 28a1 9d3c
000000a0: 7118 3cbe 985c abbc aba3 37bc 20c8 073e
000000b0: 66de 3a3e 13cd 4abe d7e5 2fbd f81f 1a3c
000000c0: f7c3 333e e44a 1d3d 57f9 603e 01a5 503e
000000d0: 6c27 8fbe 39de 83be 75d0 6abe 5698 e13d
000000e0: 8af3 5cbe e93f 493e cc26 163e 285d 2e3e
000000f0: 37e0 233e cb87 983d b3b5 7c3d 2144 023d
00000100: 611a 50be ac34 81ba cdda 903d 04f0 62be
00000110: f66e c03d 5366 80be dc26 8bbd b9ca 75bd
00000120: f5eb df3d 9ec9 debd fe5b e4bd 2bc0 cb3d
00000130: 158d 3b3e 727d 413d 62e3 4a3c 30f7 66be
00000140: c337 19be faac 5b3e 68e6 85be 9f00 5f3d
00000150: 854c 9c3d bde0 98bd f341 5f3e cb5f ae3d
00000160: 1905 1fbd c65d 483e cfb3 df3d 1ca7 39be
00000170: a0ea e0bd c135 4abe 0d44 9fbd b957 a03d
00000180: 061b 3fbe 147d 99bd 5a83 6c3e 3537 bfbd
00000190: 733f 52be 4681 f7bc 4dca 82be 63c5 5abe
000001a0: ef6d 783d 3ecd 16be 495b 5cbe 2697 14be
000001b0: 3ed4 4e3e 56dc 60be 72e6 5e3e 7d16 0cbe
000001c0: 1120 833e 81db 533e a894 9dbd 2d75 dbbd
000001d0: f302 bcbb 01d1 023e 9849 0a3d 84d3 8ebd
000001e0: da81 5bbe a4cd 493e 082e 72be 69d1 87be
000001f0: 7ca1 10be 1205 66be 0a51 2a3e c422 cb3c
00000200: 2e31 b83d ef3e 18be 1ddc ba3d 167a 013e
00000210: 8988 afbd def1 533e 72e2 0bbe 3c68 883d
00000220: 7f0c 63be 5ff7 5d3e 0323 29be ab35 a53c
00000230: a107 903d 4100 76be e59e 44be 4631 2c3e
00000240: 6f9b 443d 6ba6 11bc a002 0c3d 946b 573e
00000250: dbda 76bd af64 85be 552f 22be 0533 a2bd
00000260: 775e 84be 987b 373e 4319 323e 0114 c53d
00000270: b63b 6dbe c2c6 a6bd ed27 22be b0e2 263e
00000280: c01f 093d e10b c4bc 17fb 2ebe 15e2 bd3d
00000290: 64f3 d8bd 4790 21be e4a5 083e 46c7 1cbe
000002a0: 5b48 8c3e 6bf4 013e 30d7 283d 6892 00be
000002b0: 6a41 a9bd 0abe 37be 53a9 19be a263 01be
000002c0: fd7a 0d3e b5cc 3cbc b35c 603e 15ef f4bd
000002d0: ecd3 293e 174a 113e a852 713d 6545 95bd
000002e0: 47d6 31be 4798 f4bd f6ca 163d 012c 703e
000002f0: 147a 533e f337 c3bd 36fc d3bd 6f88 45be
00000300: 68f0 223d cce4 df3d 6dd3 ac3c 054a edbd
00000310: 2431 bebd 41d0 4fbd 507c 6d3e 9456 263e
00000320: 3245 debb 5360 47be 6298 78be 034a 5dbe
00000330: 4007 833e 7e17 8dbe 4ae6 28be 873d 16be
00000340: 0c98 5ebe c64a cb3d 3780 84be cf9e 233e
00000350: fddd 0abe 36a5 a43d f654 7d3d ed7c 21be
00000360: 47b3 bf3d 47ed 26be dcec 0ebe 4898 6b3e
00000370: 8626 8a3c d02f bbbc 630c 4b3e 8eb4 593e
00000380: 23c2 d0bd 8d06 79bd 010c d63d fc2e 69be
00000390: 4300 473e a45c a33d 0a08 193e 6081 9fbd
000003a0: c075 87bd dd90 62ba dfbe 9e3d f20d f6bc
000003b0: 3a99 f23d 362a b9bd 7831 14be d404 21be
000003c0: 0509 143d 58e8 6d3e f20a 03bd eb0f 2bbe
000003d0: 428b 803e 9405 3fbd 2846 873d 1266 2b3d
000003e0: e11c 1fbe 4a1a 803d 90d9 2d3d 6293 b83c
000003f0: d863 7e3e 2a5a 453e 6017 373e 5bb1 703d
-0.24098745 0.26235452 0.19321422 -0.18784603 -0.03819352 -0.08931798 0.27770758 0.080657244
0.20682845 0.18841268 0.02473634 -0.05402444 0.21620092 -0.24191312 0.16125771 -0.05551469
0.007346946 0.031179648 0.14934187 -0.11307873 -0.20982185 0.10301042 0.07219501 -0.10427907
-0.038149413 0.08312924 0.08629187 0.17268856 -0.25180772 -0.024196621 0.016725408 0.123123646
0.004114841 0.10961725 0.1296136 0.15078048 0.12790334 -0.23533356 -0.18793164 0.019241884
-0.18368699 -0.020918176 -0.011208455 0.13259935 0.18248901 -0.19804792 -0.0429438 0.009407036
0.17555223 0.0384015 0.21970116 0.20375444 -0.27959764 -0.2575548 -0.22931083 0.11015384
-0.21577278 0.19653286 0.14663237 0.17027724 0.160035 0.074477755 0.06169672 0.031803254
-0.20322563 -0.0009857616 0.07072983 -0.22161871 0.09396164 -0.25078067 -0.06794521 -0.060007785
0.10933677 -0.10878299 -0.111503586 0.099487625 0.18315537 0.047238775 0.012383314 -0.22555232
-0.14962678 0.21452704 -0.2615235 0.05444395 0.076317824 -0.074647404 0.21802501 0.08514365
-0.03882322 0.19567022 0.10922968 -0.18130153 -0.10982251 -0.19747068 -0.077766515 0.07829232
-0.18662652 -0.0749456 0.23096982 -0.09336702 -0.20532016 -0.03021301 -0.25544968 -0.2136436
0.060651716 -0.14726731 -0.21519198 -0.14510784 0.20198151 -0.21959051 0.21767595 -0.13680454
0.25610402 0.20689203 -0.076943696 -0.10715709 -0.0057376563 0.12775041 0.03376159 -0.06973937
-0.21436253 0.19707352 -0.23650372 -0.26526955 -0.14124101 -0.22462872 0.16632476 0.024796851
0.08993755 -0.14867757 0.091240145 0.12644228 -0.08570964 0.20697734 -0.13660601 0.06660506
-0.22172736 0.21676396 -0.16517262 0.020167192 0.07032705 -0.24023534 -0.19201238 0.16815671
0.047999796 -0.008889775 0.03418219 0.21037132 -0.06026731 -0.26053378 -0.15838368 -0.079198875
-0.2585332 0.17918241 0.17392449 0.09622956 -0.23167309 -0.08143379 -0.15835543 0.16297412
0.033477545 -0.023931446 -0.1708797 0.09271637 -0.10593298 -0.15777694 0.13344532 -0.15310392
0.27398953 0.12690894 0.041220844 -0.1255585 -0.0826443 -0.17943588 -0.15005998 -0.12635663
0.13816448 -0.011523415 0.21910362 -0.11959664 0.16584748 0.1418842 0.058916718 -0.072886266
-0.17366897 -0.11943107 0.036814652 0.23454286 0.20652038 -0.09532156 -0.1035084 -0.19290327
0.03978005 0.109323114 0.02109691 -0.11586384 -0.092867166 -0.050735716 0.23191953 0.16243964
-0.006783151 -0.19470339 -0.2427688 -0.21610264 0.2559147 -0.27556986 -0.16494098 -0.14671908
-0.21737689 0.09926371 -0.2587907 0.1597855 -0.13561244 0.08039324 0.061848603 -0.15770312
0.09360366 -0.16301452 -0.13957542 0.2300731 0.016864073 -0.022849947 0.19828944 0.21260282
-0.10193279 -0.060797263 0.10451508 -0.2277183 0.19433694 0.07976654 0.14944473 -0.07788348
-0.06614256 -0.0008642802 0.077512495 -0.030035947 0.11845632 -0.09041254 -0.14471996 -0.15724498
0.036141414 0.23233163 -0.03199286 -0.16705291 0.25106245 -0.04663618 0.06605178 0.04184539
-0.1553836 0.06255014 0.042443812 0.022531215 0.24842775 0.19272676 0.1788001 0.05876289

network.0.bias f4 [128]
00000000: a3ed b0bd 0edc 29be 473d c2bd f85c f7bd
00000010: 4c39 903d 0d86 7d3e c15c 293d a3de afbd
00000020: 9aff 0a3e bd9a 9dbd 98dc a03d 5817 1f3e
00000030: 1ec3 4bbe 40e3 6e3d a5e3 8cbe 72c2 f8bd
00000040: 07d7 843e d607 5cbe ba52 86bb 58ba 793e
00000050: b27a 803e 94ff fd3c 5081 df3d 0a4d 483e
00000060: 765d 893e 16fd 4fbd 8dfb bebd b33a b2bd
00000070: 4ef5 5ebe 9831 873e ac06 803e 7859 2b3e
00000080: 2eac aabd 4cea 23be 17e9 e4bd 9671 14be
00000090: d702 873e 99e1 673d 40a8 50bb 89d0 18be
000000a0: 78f3 923d a35c 633e c62d 27be efd0 05be
000000b0: 8c6e 7bba 1799 7e3d 695d 0f3e f214 8f3d
000000c0: bcb2 573e 013f d93c a98f dbbd 42b7 10be
000000d0: f113 bf3d ac65 de3d 61bb f0bd 793b d13d
000000e0: 6bfc 3f3e ee8d d1bc adcd 693e 2803 51be
000000f0: d7a8 2ebd db0f 593e 5ac5 8a3e 3250 2a3e
00000100: 8309 a33d 7f32 693b 1bab 39be bfdb 323e
00000110: 11e5 a13d 5766 b33c 2c2e 4cbe 1ad3 3c3e
00000120: aad0 5abe ee00 57be 5163 433e 7b5d 353e
00000130: 5290 463e 3080 213e 70b8 4ebe 9bc1 b43d
00000140: f7da c2bd 8a89 633e c45b cd3d 9ea5 c83d
00000150: 91a0 5abe f627 683e 434d 423e 23d4 e7bd
00000160: baa8 873e f6b6 cf3d 8d31 083e bc05 063c
00000170: 673f 1abe 2d0f 73bd a22d 8a3d 9a72 7c3e
00000180: e35e 8c3e b86f 47be 1f93 ef3d 776b ae3d
00000190: 1bcc 0ebe f9c1 183e 76ce 0ebe 3fa7 853e
000001a0: 2234 233e ab3a 3ebd c353 433e fb64 873e
000001b0: 89e3 073e 0b5d f8bc 7bcb 413e df11 e6bd
000001c0: 152f ec3d 12d3 10be 1308 80bd dcb7 593e
000001d0: 0dcb 193e 99ae 17be 6df1 38bc e148 4ebe
000001e0: 6dc7 543e 8140 0c3e 56dd b63d 8b65 683c
000001f0: 8ea0 74be e486 d1bd 2f78 fdbd cbbc dabd
-0.086390756 -0.1658785 -0.09484344 -0.12078279 0.070421785 0.24758168 0.041348223 -0.085873865
0.13574067 -0.076955296 0.07854575 0.15536249 -0.1989865 0.05832219 -0.2751743 -0.121464625
0.25945303 -0.21487364 -0.0040992172 0.24387491 0.2509361 0.031005658 0.10913336 0.19560638
0.26829118 -0.05077847 -0.09325323 -0.08702602 -0.21773264 0.26405025 0.2500509 0.16733348
-0.08333622 -0.16007346 -0.11177271 -0.14496455 0.26369354 0.05661163 -0.0031838566 -0.149233
0.07175344 0.22203307 -0.16326055 -0.13067983 -0.0009591363 0.062157717 0.14000477 0.06986417
0.21064276 0.0265193 -0.107207604 -0.14132407 0.093299754 0.10859236 -0.1175449 0.10216422
0.18748634 -0.025580373 0.22832365 -0.2041136 -0.042641487 0.21197455 0.27103692 0.16632155
0.079607986 0.0035583077 -0.18131678 0.17466639 0.07905019 0.021899385 -0.19939488 0.18439904
-0.21368662 -0.20996448 0.19080855 0.17711441 0.19390991 0.15771556 -0.20187545 0.0882599
-0.095144205 0.22220436 0.100272685 0.09797214 -0.21350314 0.22671494 0.18974786 -0.11319759
0.26495916 0.10142319 0.13300152 0.008180078 -0.15063249 -0.059340645 0.06746985 0.24653092
0.27416143 -0.19476211 0.11697983 0.08516591 -0.13945048 0.14917745 -0.13945946 0.2610416
0.15937856 -0.04644267 0.19074921 0.2644423 0.13270392 -0.030317804 0.18925278 -0.112338774
0.11532418 -0.14143017 -0.0625154 0.21261543 0.15018864 -0.14812697 -0.011288029 -0.20144989
0.207792 0.13696481 0.08928935 0.014184366 -0.23889372 -0.102308065 -0.12376439 -0.10680541

network.2.weight f4 [128, 128]
00000000: 38c9 78bc 20c5 413d 3359 49bc eeed 803c
00000010: e5e2 2dbd ef7d 5f3c 96a6 873d 3ca9 803d
00000020: 4b70 0e3d 4b7a 82bd 990a e1bc d5ee 353d
00000030: 4f0f 43bd 05fb 90bd 8615 4abd 7f11 a3bd
00000040: 478a 563d 6407 b73c d85d 70bc d8e3 873c
00000050: 70e0 45bd c106 983d ce0d 8c3d 3af9 753d
00000060: 6a2a 8bbd a6c2 8cbc c0e8 a23c 1114 b03d
00000070: 16de 1cbd 4e88 2b3d 1e79 90bd f7dd cb3c
00000080: 215f 3a3d e937 7abd 2e07 c23c 9d9f d1bc
00000090: 615e a7bd 4690 05bd 9355 71bd 24d7 85bd
000000a0: 9aac 46bc bd5b 47bd 119c 5e3d d2ed cf3c
000000b0: b35f 84bc 43ac d63b f029 9e3d f062 5ebd
000000c0: f092 3d3d c258 1fbd 154d 8e3c 0d5a 98bd
000000d0: a769 9ebd e0dc b5bd 6f2c 86bd f7d6 bebb
000000e0: 5b52 1a3d 1bcb 79bd e519 2dbd b4d3 673d
000000f0: f248 9dba 1bef a1bd 4156 82bd f157 4abd
00000100: 2d72 b0bd e41f 9cbd 8d3a 24bd 4bb4 3f3c
00000110: 86c0 0cbd 26f5 863d 12c5 213d c9b0 bebc
00000120: 2ce8 f1bc d143 b0bc f44c 393d dcf0 173d
00000130: af97 6ebd 4a3e 77bd a3c4 4cbd d637 75bd
00000140: 744b 3b3a 7305 2fbd 4b8b 723d 4e2a 4a3b
00000150: 0636 a3bc 99cb a43d 6ef2 173d 5f31 ec3c
00000160: e621 8cbc 666b 4c3d 80d7 993d 453f 2cbd
00000170: f6f9 293c cd46 493d 0d96 a2bb 6d80 1fbd
00000180: d504 86bd 784b cfbc ba8b bf3b fc07 a53c
00000190: c116 1bbd c368 973d 8f14 6e3d 82c9 8ab9
000001a0: 1156 abbd 58f5 dfbc 5275 e8bc 292a 413d
000001b0: 4778 973d cca6 883d c146 a03d c8fd b83c
000001c0: 4955 81bd 0889 043c 9723 f33c 94d6 773b
000001d0: 8132 a73d a57c 51bc 5d2a b2bd e5d5 32bc
000001e0: 7670 b03c 86ac 8f3c 6a03 8d3d 8814 893c
000001f0: 2257 923c 0b4a 52bd 4d4e 85bd 7367 763d
00000200: f207 b1bc 3449 5dbd 368b 313c 212f 163b
00000210: 9a37 0cbd a74d 49bc c4a6 793d f80f 2dbd
00000220: 02e3 b5bb 9e96 14bd fd64 e53d a621 783d
00000230: 6b8a c13c bb57 b0bc 3cc1 0abd 8bd3 403d
00000240: 6e6c b23b 44a6 ae3d 6fb4 ad3d 030e 3dbd
00000250: b8c6 3d3d da80 3f3d e16d 8bbb c184 953d
00000260: ef4d 5f3c a0ce 0dbd a195 833d f3a0 c03d
00000270: 4764 583d f867 db3d d7a6 433d ae44 de3d
00000280: cc48 a73d c576 dbbb c585 8a3b 60bf dc3d
00000290: db9b 1cbd 663a f6bc 2269 15bc 0987 7d3c
000002a0: 1bf3 07bd 9de7 52bd 7ee5 233d 69bf 343d
000002b0: 0301 31bd c68f 2e3d cf8e a03c 9e4a 68bd
000002c0: 01ed 873d 3b96 5bbd 7821 07bd e3e6 39bd
000002d0: 9526 103d 743b c2bc 1327 50bd 4d5c ae3d
000002e0: e7ae c13c e508 77bc b05c 07bd b36a debc
000002f0: ef78 43bd bd3c 2c3d fa7d d93d 4d9d 53ba
00000300: e955 16bd b9cb 81bd 6dd6 8f3c ee25 7f3d
00000310: 841e 16bc 2977 de3d 1d08 88bd 4cd5 0a3d
00000320: 7919 54bd 365c 26bb c566 d73d 1373 3b3d
00000330: e6af 18bc 1adf 4cbd 9a16 60bd cc32 1f3d
00000340: 941f c8bc f66c ec3a 9afe 00bb 7ac6 1b3b
00000350: 8547 44bd 08b8 3abd 087b 913d 3317 a83d
00000360: 2fad d23d 05ac 373b bc6c bf3d 761f a739
00000370: c622 c13d 4a14 76bd 1183 9e3d 44cd e9bc
00000380: 3547 623c 8ff2 c63d 4085 5dbd 78b8 e2bc
00000390: 1501 243d 0c31 2fbd d3e7 3c3c 8e2c b1bc
000003a0: c7ef 86bc dcc2 5bbd a9bd 4dbd eeb1 273b
000003b0: 9f5c 523d b32d e33d 9dfb 23bd 0556 abbc
000003c0: 7f5b 36bc f39f 03bd f7de 1d3c 4c0a f2bc
000003d0: 4e15 ba3d eb2f 80bd 35f0 3d3d 4878 103d
000003e0: eefa e23d 4e92 da3d 5544 d2bc 11d1 53bc
000003f0: f61b 063d 2946 4dbc b503 c1bb 73e4 673d
-0.015184693 0.047307134 -0.012289333 0.015738454 -0.04245271 0.013640865 0.066235706 0.06282279
0.03477506 -0.06370982 -0.027470874 0.04441722 -0.04762202 -0.07079128 -0.049336933 -0.079623215
0.052377965 0.022342391 -0.014670812 0.016588137 -0.048309743 0.07423163 0.068385705 0.060052134
-0.06795199 -0.01718266 0.019886374 0.08597577 -0.038297735 0.041878037 -0.07054351 0.024886115
0.04550088 -0.061088476 0.023685064 -0.025588805 -0.08172298 -0.032608293 -0.0589195 -0.065351754
-0.012126112 -0.048671473 0.054348055 0.025381956 -0.016158914 0.006551297 0.07722843 -0.054293573
0.04628271 -0.038903005 0.01737074 -0.07439051 -0.07734995 -0.08880019 -0.06551444 -0.0058239657
0.037676197 -0.060984712 -0.042261023 0.05659838 -0.0011999889 -0.07906934 -0.06364108 -0.049400274
-0.08615527 -0.0762327 -0.0400949 0.0117007 -0.034363292 0.06589727 0.03949458 -0.023277657
-0.029529653 -0.021516712 0.045239404 0.037094936 -0.058250125 -0.060362138 -0.049992215 -0.059867702
0.0007144727 -0.042729806 0.05921487 0.003084797 -0.019923221 0.08046646 0.037096433 0.028832136
-0.017106008 0.04990711 0.075118065 -0.042052526 0.010374537 0.049139787 -0.004961735 -0.038940836
-0.065438904 -0.025304541 0.005845514 0.020145409 -0.037863497 0.073930286 0.058125075 -0.00026471546
-0.08366025 -0.027338669 -0.028376255 0.047159348 0.07395988 0.06672439 0.07825995 0.02258195
-0.06315095 0.008089311 0.029680056 0.0037817108 0.0816393 -0.012786065 -0.086994864 -0.010915254
0.021538 0.01753832 0.06885417 0.016733423 0.017863814 -0.051340144 -0.06509075 0.06015725
-0.021610234 -0.05402489 0.010836413 0.0022916275 -0.034232713 -0.01228658 0.060950056 -0.042251557
-0.005550743 -0.036276452 0.112009026 0.060578965 0.023625573 -0.021526208 -0.03387569 0.047076743
0.0054450547 0.085278064 0.084816806 -0.04615594 0.04633209 0.04675374 -0.004255042 0.073007114
0.013629421 -0.03462088 0.06425024 0.094056986 0.052830007 0.1071319 0.047766533 0.10852943
0.08168182 -0.006697508 0.0042273724 0.107786894 -0.038234573 -0.030057143 -0.009119304 0.015474089
-0.033190828 -0.051490415 0.040013783 0.044127855 -0.043213855 0.04261758 0.019599346 -0.056711785
0.06637002 -0.053610068 -0.032990903 -0.045386206 0.035193045 -0.02370999 -0.050818514 0.08513699
0.02364297 -0.015077804 -0.033047378 -0.027150488 -0.047722753 0.042050112 0.10619731 -0.0008072451
-0.036703024 -0.06337685 0.0175583 0.062292032 -0.009162549 0.10862572 -0.066421725 0.033894822
-0.051782105 -0.0025384552 0.105176486 0.04576404 -0.009319281 -0.050017454 -0.054709055 0.038866803
-0.02442912 0.0018037844 -0.0019683004 0.0023769424 -0.04791977 -0.045585662 0.071035445 0.0820755
0.102869384 0.0028026116 0.09346911 0.00031876162 0.09430461 -0.060077943 0.07739843 -0.028540261
0.013810922 0.09714233 -0.054082155 -0.027675852 0.040040094 -0.042771384 0.011529881 -0.02162769
-0.016471757 -0.05365263 -0.050229702 0.0025588232 0.05135786 0.11092701 -0.04003488 -0.02091504
-0.011130213 -0.03213496 0.0096356785 -0.029545926 0.09086095 -0.062591396 0.046371657 0.03527096
0.11083017 0.10672437 -0.025667349 -0.012928263 0.03274151 -0.0125289345 -0.0058903345 0.05661435

network.2.bias f4 [128]
00000000: 003e 99bd 4e93 773d 76b6 b53c 5dd4 c1bc
00000010: d81f af3c 0106 813a 7ada a7bd 9f81 78bc
00000020: 8e5a 9cbd c666 3f3c ed24 733d 7bef 4dbd
00000030: f261 ae3d a544 eabc 47b5 5f3d 8a8f 2ebc
00000040: b786 20bd ed44 ae3d 2b56 90bd ffc2 423d
00000050: b340 71bd b0db 3e3d dc0f 273c b299 373d
00000060: a245 283d e9ee d93d cc5c 95bd 5229 17bd
00000070: 5a40 d0bc 290e 433d cc12 5abd 3004 72bc
00000080: 26a1 283d 9bfb 9a3d b24b 21bd 02a4 7e3c
00000090: e07c 6abc c80f 21bc cc56 96bd d672 8b3d
000000a0: 5fa7 bdbc 4fbf d43c 1c1e 563d 4baa f63b
000000b0: a5f9 24bd b794 573c bea2 b03b 3373 2abb
000000c0: b257 cd3a 4ff9 20bd 0676 8d3d fc19 d33d
000000d0: 033a adbd 53c6 e33b 1cd1 253d 18f4 bd3d
000000e0: 05e2 d03d 0879 3bbd 2990 5c3d 0cdb be3c
000000f0: e45c c93d 7e73 773d 1a46 da3b c670 053d
00000100: 8edf b8bc c3ee 6fbd 61c5 36bc e5b6 003c
00000110: d7aa ae3d ed51 c83d 4123 9dbb 9cf6 8bbd
00000120: 143a 8bbd 713a 8ebc cca4 8abd e069 16bc
00000130: ed4d 9b3d 57e3 2c3d 81a7 a33d a201 45bd
00000140: a933 be3c e35a 9d3d c108 673b b679 e03d
00000150: acf2 fa3b 1bf0 babc 712b b83c e886 863d
00000160: 32ad 53bd 2358 313d 41da fb3c 72e6 2cbc
00000170: bebb 4abd 5b2d 3abd d70b e4bc efbc 8c3d
00000180: e79b eebb 63bf 45ba dd0d a13d c919 2abd
00000190: ab2a 8b3d 941a d2bd 8742 0d3d b5d2 883d
000001a0: 971b 4c3d ae53 28bc b087 e53c 81bc ce3c
000001b0: 5003 d0bb e237 ab3d b767 36bd 0184 343d
000001c0: 806a 9fbd c477 92bd 54ad 553b cce5 433d
000001d0: b77c 913c 8efc adbd 9db9 9abc e38a c53b
000001e0: cb11 99bc 64ca 21bc 217f 853d ef7d ab3d
000001f0: 9451 0ebd d4c6 103d 5efc a4bc 66cd b03d
-0.07482529 0.060443215 0.02218173 -0.023660833 0.021377489 0.0009843708 -0.08195968 -0.015167623
-0.076344594 0.011682218 0.059361387 -0.050277214 0.08514775 -0.028597185 0.05461624 -0.01065434
-0.039190974 0.0850924 -0.07047685 0.047549244 -0.058899593 0.04659623 0.010196652 0.04482431
0.041082032 0.106412716 -0.0729309 -0.03690464 -0.02542131 0.047620926 -0.053240582 -0.014771506
0.041169308 0.07567521 -0.03937883 0.015542032 -0.014311999 -0.009830423 -0.07340774 0.068090126
-0.023151098 0.02597013 0.05227481 0.0075276247 -0.040277142 0.013158015 0.005390494 -0.0026008605
0.0015666394 -0.03930026 0.06907277 0.103076905 -0.084583305 0.0069511323 0.040482625 0.09275073
0.1019936 -0.04576972 0.05384842 0.023297809 0.098321706 0.060412876 0.006661189 0.032578252
-0.022567537 -0.05857731 -0.011155457 0.007856105 0.08528679 0.09781251 -0.0047954624 -0.068341464
-0.06798187 -0.017361851 -0.06769714 -0.009180516 0.075832225 0.042208996 0.07990933 -0.04809726
0.023217993 0.07683351 0.003525302 0.109607145 0.0076583233 -0.02281957 0.022481652 0.065687
-0.051678844 0.043296944 0.03074372 -0.010552989 -0.04949545 -0.04545341 -0.027837677 0.06871974
-0.0072817686 -0.00075434725 0.07863972 -0.041528497 0.06795248 -0.102589756 0.034487274 0.06680814
0.049831 -0.010273857 0.028018802 0.02523637 -0.006348051 0.08360268 -0.044532504 0.0440712
-0.07783985 -0.0715175 0.0032604532 0.047826573 0.017759664 -0.084954366 -0.018887335 0.0060285195
-0.018685242 -0.009874914 0.065183885 0.08373629 -0.034745768 0.035345867 -0.02013987 0.08632927

network.4.weight f4 [5, 128]
00000000: 94ff 7a3b f7f8 3a3d ae96 ac3c 608f 7dbc
00000010: 20d4 2c3c 89b9 ab3d 08e8 0fbc a023 00bc
00000020: 6802 503c 6b7a 91bc 3015 cabd 78d2 f4bc
00000030: 615f 0cbd f7bf 5d3d 0382 4cbd 864f 3b3d
00000040: b627 eebc 2cae c5bc 88f1 2fbd aa98 45bd
00000050: 43a9 403c 38d4 173d a91b eebc ef55 35bd
00000060: 79dd b2bd 2aa2 26bc f1b1 a03d 43de 663d
00000070: 7693 dd3c f0dd c4bc e565 56bd 5d40 adbd
00000080: 90c8 9a3d 93b1 a63d c584 8fbd ebdc 53bd
00000090: b197 ab3b 82f9 c23c eaef 843d b1e4 51ba
000000a0: e7fa 96bc 499c c3bd e42d 4b3d 40ff 13bc
000000b0: 2d76 8a3d 2910 8abc 8c64 7b3d a153 b2bd
000000c0: 961a 6b3d 68ff 1fbc e1bf d4bd 44e5 c8bd
000000d0: b796 d039 76f5 b2bd 060f 5d3d 134b b4bd
000000e0: 9ccf 8bbd efd1 a13d a59e 39bd 23c7 973d
000000f0: 7b45 303c 09f9 8c3d 9a73 abbd 4260 adbd
00000100: 8232 6bbd 6449 acbc 6adf a6bb 022e 1cbd
00000110: 65bf a0bd 162c 8cbd 01f5 1d3a eefe f53c
00000120: f4f7 a43c f3a5 53bd 44ec 103d b42b 9bbd
00000130: 7b47 ecbc daa4 903c 5571 64bd c576 033c
00000140: 7e6d 90bd 33fe edbc 053c 90bd bb21 363d
00000150: 098b d7bd dcea f8bb 954b a5bd 7149 14bd
00000160: 987b d2bd d925 a23c fd7d 63bd a36a ecbc
00000170: bf38 70bc b005 4c3d 2eff 79bd fa48 7cbb
00000180: 6d4c 843d f015 bbbd 0c62 bcb9 f37e af3b
00000190: 08b5 c4bd f03c 1b3d 060f ffbc 043b d23a
000001a0: 3a6a 303c 08d2 893d 0b39 c83c ad98 3fbd
000001b0: aa86 393d 24b1 0abd 7a23 013c e53a 593d
000001c0: 48b1 af3d 06de 513d 7359 253d 534c 753d
000001d0: 26ca cebd d0ee 98ba 1d1c aa3b 514a 81bd
000001e0: 62fe 663d 8c80 87bd 43f5 d0bd f5dd aebc
000001f0: fd0a e3bc d521 333d 868a 17bd 6673 babd
00000200: a32c 173b ab1f 2fbd 521d fdbc f84b f2bc
00000210: 4b74 373d aa3a 143d 2c0a 89bd 4dd7 a63b
00000220: 890d a0bd d28a bf3d 14a5 4ebd 0535 433d
00000230: 51d4 d1bb 6a69 b63d 70af a63d 5f10 93bd
00000240: 7f28 2e3d b260 ae3c b3fb 6ebd 4b79 7cbc
00000250: 28d5 10bd bebd a43c abf8 433d ec7b 9a3d
00000260: c037 b13c 46b1 3c3d e824 10bc 3d83 2dbd
00000270: 6675 853d 25a8 6a3d 25ed a53d 9b9f 5bbc
00000280: be3d 803c 9338 d4bb be57 353c 66e5 8d3d
00000290: 3f78 0ebd 9201 babd 80ba 19bd fdd3 42bd
000002a0: f1e8 743d d5db d13d 38f5 b43b 85c4 da3b
000002b0: 2842 253d 5539 a23d e97b dfbc 5c81 ffbc
000002c0: 198c c33d b411 90bc 92f8 9bbd ca29 9f3d
000002d0: 99cc 24bd 85cb 1ebd 8362 77bd efe5 d53d
000002e0: 1877 ca3d 3ce2 aa3b a31c 6f3c f0b4 9a3d
000002f0: c769 7abd 751f cdbb c8a2 0cbc ae65 503c
00000300: e740 2b3d 960f 2dbd abf3 c5bb b6dd 85bd
00000310: 9176 98bc 785d b83d fdba a63c 06db e33c
00000320: 753c bf3d 860a 2cbd 47b9 9cbd 12f6 9ebc
00000330: 5f97 cabb 8a63 12bd 96e5 2cbc dd49 863d
00000340: 97a9 703d d05b 9ebc a861 003d 67c6 2f3c
00000350: bc15 2dbd 5bec d5bc 66d0 6abc 732a ac3c
00000360: 06b8 7cbd 42ae 40bd 7bad c13c f306 e23c
00000370: c040 fabc b4e7 893d 4936 953d f32a d43c
00000380: bf3d 4fbd 6ae9 793d bd7f 79bd 3eb6 7abc
00000390: 855a 52bd 4fce a3bc f8ed 883d 5cf9 163d
000003a0: 2475 9b3d a84e 883c f56a d03d bbfa c03d
000003b0: 7599 0fbd 3b71 2fbd 0e8c a7ba c441 8e3a
000003c0: 2dae 23bd a87d 08bd 7b8c 82bd 820b 843d
000003d0: da56 5fbd bacd 30bd 1a71 38bc 3364 2a3b
000003e0: ed3b 7cbd 7e07 5dbd 8314 55bc 5358 8fbc
000003f0: 4591 27bd f45f 113d 1f68 e7bc 6223 da3d
0.003829931 0.045647588 0.021067943 -0.015476078 0.010548621 0.083849974 -0.008783348 -0.007820994
0.012695886 -0.017758569 -0.098673224 -0.029885516 -0.034270648 0.05413815 -0.049928676 0.045730136
-0.02907167 -0.024130903 -0.04295495 -0.048241295 0.011759105 0.037067622 -0.029065924 -0.044271406
-0.08733649 -0.010170499 0.0784644 0.05636431 0.027047854 -0.02403161 -0.052343268 -0.08459542
0.075577855 0.08139338 -0.07007746 -0.051724356 0.005236589 0.023800615 0.064910725 -0.0008006795
-0.018430186 -0.095512934 0.04960431 -0.009033024 0.067608215 -0.016853409 0.061375186 -0.08707357
0.0573984 -0.009765483 -0.103881605 -0.09809354 0.00039785143 -0.08738224 0.053969406 -0.08803382
-0.06826708 0.0790137 -0.04531731 0.07411029 0.010758753 0.06883437 -0.083716586 -0.08465625
-0.057421215 -0.02103109 -0.005092551 -0.038129814 -0.078490056 -0.06844346 0.0006025583 0.030028787
0.020137765 -0.051671933 0.03538157 -0.07576695 -0.028842678 0.017656732 -0.055772144 0.008023922
-0.07052134 -0.029051876 -0.07042698 0.04446576 -0.10524566 -0.007596357 -0.08071057 -0.03620285
-0.1027748 0.019793438 -0.055540074 -0.028859442 -0.014661967 0.04981011 -0.061034374 -0.0038495646
0.064598896 -0.091350436 -0.00035931205 0.0053557097 -0.096048415 0.03789991 -0.031135093 0.0016039317
0.010767514 0.067295134 0.024441263 -0.046776462 0.04529444 -0.03386034 0.007881993 0.05303468
0.085787356 0.05123713 0.04036851 0.05988724 -0.100971505 -0.0011667851 0.0051913396 -0.06313003
0.056394942 -0.06616315 -0.1020303 -0.021346072 -0.0277152 0.043733437 -0.03699734 -0.09104042
0.0023067377 -0.04275481 -0.03089777 -0.02957724 0.04478864 0.03618876 -0.06691393 0.005091584
-0.078150816 0.0935265 -0.0504504 0.047657985 -0.006403484 0.08906825 0.08138931 -0.07180857
0.04251909 0.021286342 -0.058345508 -0.015409778 -0.03535953 0.020110007 0.04784457 0.075431675
0.021633029 0.0460675 -0.008797862 -0.042361487 0.065165326 0.05728926 0.08101872 -0.013404752
0.015654441 -0.0064764707 0.011068283 0.0692852 -0.034782644 -0.09082331 -0.037531376 -0.04756545
0.059792463 0.10247008 0.0055223964 0.006676259 0.040346295 0.079210915 -0.027280765 -0.031189613
0.09548206 -0.017586567 -0.076157704 0.077716425 -0.040234182 -0.03876831 -0.060396682 0.10444247
0.098859966 0.0052149575 0.01459423 0.07554042 -0.061136033 -0.0062598535 -0.008583732 0.012719555
0.041809943 -0.042251192 -0.0060410104 -0.06536429 -0.018611224 0.09002203 0.020352835 0.0278144
0.09337703 -0.042002223 -0.07652526 -0.019404445 -0.0061825956 -0.03573946 -0.010552784 0.06557057
0.058755483 -0.019330889 0.031343132 0.010728455 -0.042257056 -0.02611368 -0.014331913 0.021016335
-0.061698936 -0.047041185 0.023642292 0.027591204 -0.030548453 0.06733647 0.07285745 0.025899386
-0.050595995 0.061013617 -0.060912836 -0.015302239 -0.051355857 -0.019995837 0.06686014 0.0368589
0.07590702 0.016639069 0.101766504 0.09422823 -0.035058457 -0.042832594 -0.0012782828 0.001085334
-0.03996103 -0.03332296 -0.06374451 0.064475074 -0.054526187 -0.043164946 -0.011257434 0.0025999665
-0.061580587 -0.053962223 -0.013005379 -0.017498171 -0.040910024 0.0354919 -0.028247891 0.1065128

network.4.bias f4 [5]
00000000: 98f2 c8bc 231c 903d 9207 503d 2106 4bbb
00000010: 38a3 273d
-0.02452974 0.07036617 0.05078847 -0.0030978995 0.040927142

network.0.weight f4 [128, 82]
00000000: be80 943c dfec d63d b287 79bd aa5b 1b3e
00000010: 3fbb f33d f97f 263d cde4 8c3d 7a30 b1bd
00000020: ba8c ce3c 8483 b93c 88cb c3bd 17d9 92bc
00000030: 8ec4 b93c 7c9e 4c3d 3a8a 99bd a3ee 933d
00000040: 791d 263e db20 913d 06d6 fbbc a53b 033d
00000050: aebb 073c 1062 913d 0139 95bd 998e 83ba
00000060: 2561 b4bd 5215 193e a1c5 ddbd b120 e53c
00000070: c01a 963d cbd2 33bb 4fae 86bd c80f a2bd
00000080: 6985 373d e542 f93d 499a 24be 1fe8 ec3d
00000090: e5bb 323e d1bd f3bc ee71 5f3d becb a0bc
000000a0: bf28 d13c 10f8 d03d 5c71 bf3d fa81 d5bd
000000b0: 02a9 023e 2791 e1bd 6c81 89bc 0655 813d
000000c0: 520f a3bd 433d 573d 7528 fe3d d538 6dbd
000000d0: 51a7 db3d d5cf 843d 27e5 9bbd 83ca e43c
000000e0: 39f8 e13c 0b41 cb3d 5603 eebd 3ca7 d1bc
000000f0: 9e7a 07be 35f6 2e3c 1b3c 49bd f057 f53d
00000100: 4984 7a3d 9b99 b0bd 9fef c73b be26 253d
00000110: 8f6f 203c f3c2 023c 9348 9d3d 4764 973c
00000120: 8e76 8dbb 8928 4f3d 1c87 9abd 5e7a a93d
00000130: 440a 19be 0191 bc3d f4b8 39bc c63f 263d
00000140: 7ed7 00be 6020 a13d 5f0b a83d f71f 12bd
00000150: ff4f aabd f74f 313d 30ce b43d 8289 24bd
00000160: 7783 203d 5f78 e9bd 097c 2cbc a071 95bc
00000170: 4c05 ad3c e414 b63d a099 c43d f5d1 bebd
00000180: 82e9 993d c0f1 71bd 0b8e 253e 1727 f83d
00000190: 6f97 c1bc 5da7 d63d eb44 36bd dc13 003e
000001a0: 4caf 4f3c e126 17be 4069 1e3d 2c00 cd3c
000001b0: 6184 4ebd b45a bebc 69aa 22bd 7803 05be
000001c0: e2a6 b43d 1764 f4bd fb67 ca3d 1f73 893d
000001d0: bed0 373d ecaf b23d 8d65 8b3d 57aa 713d
000001e0: 961d 6d3d 2c4a e0bd 568f 0bbc 102f abbb
000001f0: 4436 c1bd 8dd3 fdbd 0842 97bd 850c b0bd
00000200: c8d9 55bd bde2 b83c 867d ac3d c0b2 50bd
00000210: e92d 613d c445 9dbb 5dff be3d d64f 2e3e
00000220: aee1 dcbb 0146 88bd 2cb3 ca3d 9d83 dd3d
00000230: 2382 4b3d 17d3 0bb9 3b07 07be e0f5 0e3e
00000240: 4dbf e0bc 7b09 abbc f4e1 a53d df3a 22be
00000250: 2955 bebd ccdf 98bc 40e7 903c a9d6 a23d
00000260: 01d6 32bc df27 3a3c c60c f9bc 7f2d 89bd
00000270: 19b3 11bd 5f46 dcbd e25d 893c 7197 a9bd
00000280: 1f44 c7bb aa09 8cbd 8f15 8abc 28c0 91b8
00000290: 7cda 0d3e 0b7f b33d acbe c2bd 5c2f f93c
000002a0: c279 27bc d42c 4e3d 1d8a 16bd 6723 243e
000002b0: 037f b2bd b895 b53d 5083 a33c 5aad 1cbd
000002c0: 128f 8bbd 8085 c7bb 0749 f53c d7b0 853d
000002d0: 2b10 80bd fb19 0e3e c32f a2bc a307 013e
000002e0: 17b8 a0bc 6744 0dbe 1344 0f3d 3982 cc3c
000002f0: d951 d0bc 93d8 00be e906 893c 60e3 f0bd
00000300: 6fc2 41bd 365e 2ebd a647 89bd c805 d33d
00000310: 9c17 af3d 09bd 2abe 528a 06bd 4b2f 6e3b
00000320: 5a97 aa3d b50b 203d 25a6 b1bc e023 ba3d
00000330: 78d2 1a3d 697e 403d 757a f13d 7099 f8bb
00000340: 1464 f93d 860b 29bd 415a c73c abbc 93bd
00000350: c829 d9bd 0f49 57bd 0b31 be3c af36 fe3c
00000360: c9a9 44bd 646c e3bd bc27 91bc e7bd f43d
00000370: c67b 3c3d 3679 bcbd dc7c e0bd fcb9 7dbd
00000380: d002 9cbc 43d6 8bbd 8dd9 d33b 6e88 143d
00000390: 20d8 a9bd f36b 87bd bf8e 8a3d 3562 b3bd
000003a0: b9b9 d4bd 8243 b13c 649a fcbd a7ba 48bd
000003b0: 1baa 053e 69e6 ecbc 4861 2ebd 0ff0 633d
000003c0: 561c 6abd 4d17 853c 3334 df3d cd8e 53bd
000003d0: 8724 9fbd 4789 d93c a13d 5e3d 8046 393d
000003e0: c049 ee3b 6a05 98bd 04fa c03d c4a4 043e
000003f0: 8fc3 64bd 1f2f 063d b067 133c 5c9c c83d
0.018127795 0.10494398 -0.060920425 0.15171686 0.11900949 0.040649388 0.06879578 -0.08651824
0.025213588 0.02264572 -0.09560305 -0.017925782 0.022676732 0.04995583 -0.07497068 0.07223251
0.1622218 0.07086345 -0.030741703 0.032039303 0.008284492 0.07098782 -0.07286263 -0.0010037004
-0.08807591 0.1494954 -0.1082871 0.02796969 0.07329321 -0.0027438875 -0.065762155 -0.07913166
0.044804964 0.12170962 -0.1607448 0.11567711 0.17454489 -0.029753597 0.05455201 -0.019628402
0.025532125 0.10203564 0.093477935 -0.10425182 0.12759784 -0.11014014 -0.016785346 0.06315045
-0.079619065 0.052548658 0.1241006 -0.057915527 0.107252724 0.06484953 -0.07612067 0.027928596
0.027584182 0.09924515 -0.1162173 -0.025592439 -0.13230368 0.0106788175 -0.049129587 0.11979663
0.061161313 -0.08623048 0.006101563 0.04032015 0.009792223 0.00798105 0.07679858 0.018480433
-0.0043171113 0.050575767 -0.07545301 0.08275293 -0.14945322 0.09207345 -0.0113356 0.040588163
-0.12582204 0.07867503 0.08205294 -0.035675015 -0.08316039 0.04328915 0.0882839 -0.0401702
0.039187875 -0.11399912 -0.010527619 -0.018242657 0.02112069 0.08890703 0.09599614 -0.0931739
0.07515241 -0.05906844 0.16167466 0.12116831 -0.02363178 0.10481141 -0.04449932 0.12507576
0.012676071 -0.14760925 0.038674593 0.025024496 -0.050419215 -0.02323661 -0.039713297 -0.12989604
0.08820893 -0.11933153 0.09883114 0.06711411 0.044876806 0.08724961 0.06806479 0.05900034
0.057889543 -0.10951647 -0.008518061 -0.005224116 -0.094341785 -0.12393866 -0.07385641 -0.08596138
-0.052209646 0.022569055 0.08422379 -0.05095172 0.054975424 -0.0047995765 0.093260504 0.17022642
-0.0067407703 -0.06653977 0.098974556 0.10816119 0.049684655 -0.0001333471 -0.13186352 0.13960981
-0.02743497 -0.020878544 0.08099738 -0.1584277 -0.09293587 -0.018661402 0.017688394 0.079510994
-0.01091528 0.011362045 -0.030401599 -0.06698131 -0.03557119 -0.1075561 0.0167684 -0.08280838
-0.0060811187 -0.06837781 -0.016855983 -6.949931e-05 0.13852876 0.08764466 -0.09509024 0.03041809
-0.0102219 0.05033572 -0.03675281 0.1602913 -0.08715632 0.08866447 0.019960076 -0.03825126
-0.06814398 -0.0060889125 0.029942049 0.0652787 -0.06253084 0.13877098 -0.019798165 0.1260057
-0.01961903 -0.13795625 0.03497703 0.024964439 -0.025429653 -0.12582617 0.016726928 -0.11762118
-0.047304567 -0.042570315 -0.06703119 0.10303837 0.08549425 -0.16673674 -0.032846756 0.0036344107
0.08329649 0.039073665 -0.02168567 0.09088874 0.037798375 0.046995554 0.11790935 -0.0075866506
0.121772915 -0.041270755 0.024335029 -0.0721372 -0.10603672 -0.05255991 0.023216745 0.031031935
-0.048013482 -0.11104658 -0.017719142 0.119502835 0.046016477 -0.09202807 -0.10961315 -0.061944947
-0.01904431 -0.068279766 0.006465143 0.036262922 -0.08293176 -0.066123866 0.06765508 -0.08758966
-0.10386986 0.021638636 -0.12334135 -0.04900613 0.13053171 -0.028918462 -0.042573243 0.05564886
-0.05715593 0.016246462 0.10898628 -0.051649857 -0.07770639 0.026554717 0.054257993 0.04523325
0.0072719753 -0.07422908 0.09422687 0.12953478 -0.05585056 0.032759782 0.008996889 0.09795448

network.0.bias f4 [128]
00000000: 2ae3 2ebd fc6b 69bb 101e 04bd 1342 0a3e
00000010: fcd3 a5bc a8c7 5a3d 6c12 d3bd 2252 c2bd
00000020: 8fd3 913c c4d3 ae3d ef1a bebc 5413 c63b
00000030: 10bf a0bd e586 bd3b bf67 103e 94da 123b
00000040: 71a1 43bd bd16 6e3c b000 03bd d691 ab3c
00000050: 8aed c33d 468e ec3d 9e8e 143e a602 b6bd
00000060: 43f3 35bc 1d0d 69bd f868 0b3e 235d e03a
00000070: fc96 533d 974b df3d 7714 b1bd f305 203d
00000080: ccb5 743d a6ef 493b 794c 6ebd 2b61 09bd
00000090: 8c31 cb3d caa0 b53d 42a4 c3bd a39d 1fbc
000000a0: 084d 80bc b8e2 383d 6066 29bc 299e 8fbd
000000b0: c033 9ebd e569 8cbb 6f54 56bc 49ff 883d
000000c0: 8e68 9b3d 29f2 1c3d 516d 693d d3b2 d3bc
000000d0: 3015 773d 6195 b3ba 302e 22bb ed13 76bd
000000e0: 4edd 85bd d605 a63c 1db1 19bc e252 88bd
000000f0: 43f6 3bbd ed89 5dbd cd01 f63d a0b9 9fbc
00000100: 8dd9 ac3d 1f34 34bd 406c 2b3b 1b54 f43c
00000110: 6e36 0c3d 89a5 af3c f15e 9e3d ba8b 3d3d
00000120: 9fd8 15bd 704e 8d3d 6e19 64bd 6998 db3d
00000130: 1916 43bc b005 773d c60a a0bd 7ff9 b03d
00000140: 9462 aebc 090e 89bc 9fc5 6f3d 46d8 0d3d
00000150: 0e4b 8abc 8b27 df3c 5ea8 2e3c dbbd 9f3d
00000160: cb63 3f3d 68a0 ae3d abc9 48bd b013 1b3d
00000170: c7e9 0f3e 7281 afbd 4558 f33d c733 093e
00000180: 6d75 3bbd 2cae d23d a176 97bd 8c0b 153e
00000190: 79fe f83d 1b2e 823c 3c47 35bd 7094 1c3d
000001a0: f6bc cebd 0b51 823d f758 94bc ed82 f8bc
000001b0: 43ed 83ba 3b5e c93d 8ca9 6f3d f780 2e3d
000001c0: 742d 00bd 5784 3bbd ed26 d93d 761f 4f3c
000001d0: 9aa1 9a3d b24d 1c3d 1e33 a53d 39ed 143e
000001e0: 6107 c5bd b0c3 f53d 3210 5d3d 1cf4 8bbd
000001f0: e934 4ebc d30a e73d cfef a9bd d558 c03c
-0.04269711 -0.0035617342 -0.032255232 0.13501768 -0.020242684 0.053413063 -0.10306248 -0.09488322
0.017801074 0.08536485 -0.023206202 0.0060447846 -0.07848942 0.005783903 0.14102076 0.0022408115
-0.047761384 0.014531788 -0.031983078 0.020943563 0.09566791 0.11550574 0.14507529 -0.08887224
-0.011105361 -0.05689727 0.13614261 0.0017117601 0.05165766 0.109030895 -0.086464815 0.039068174
0.059743688 0.0030813008 -0.0581784 -0.033539932 0.0992156 0.08868559 -0.09552814 -0.009742173
-0.015661731 0.04513809 -0.0103393495 -0.070125885 -0.07724714 -0.0042850845 -0.013081654 0.06689317
0.075883016 0.03831688 0.056989018 -0.025842106 0.06032294 -0.0013701135 -0.0024746768 -0.060077596
-0.06536351 0.020266455 -0.009380606 -0.06656434 -0.04588915 -0.054086614 0.12012062 -0.019497693
0.08439932 -0.04399502 0.0026157051 0.02982526 0.034231596 0.021441238 0.077329524 0.04627583
-0.03658354 0.068997264 -0.055688314 0.10722429 -0.011907124 0.06030816 -0.07814555 0.086413376
-0.02128724 -0.016730325 0.058538076 0.034630083 -0.016881492 0.027240535 0.010660259 0.07799884
0.04672603 0.08526689 -0.04902045 0.037860572 0.14054023 -0.085696116 0.118820705 0.13398658
-0.045766283 0.10287127 -0.073956735 0.14555186 0.12157912 0.015891125 -0.044257388 0.0382275
-0.10094635 0.06363114 -0.018108828 -0.030335868 -0.0010065216 0.09832426 0.058511302 0.04260346
-0.031293347 -0.045780506 0.10603128 0.012641778 0.07550354 0.038160034 0.080663905 0.14543618
-0.09620548 0.12000215 0.053970523 -0.068336695 -0.012585857 0.112813614 -0.08297693 0.023479858

network.2.weight f4 [128, 128]
00000000: 5875 f1bd 49c8 91bd d598 5abd 5301 253a
00000010: bc9c 11bd dd1d e13d 7fba 04be a78f 9a3d
00000020: c722 49bd 9124 c9bc 714d 1f3d f94f 16bc
00000030: 62c5 e9bc ec59 b2bd 8a4d 2b3d 78f0 86bc
00000040: eca4 29bd b79b 8b3d 4341 7e3d 2339 163d
00000050: 6e89 65bd 5983 0e3d 3d89 c53c d816 fc3d
00000060: 84e9 793d e2a6 67bd 84ef 3e3a 299d af3d
00000070: 9082 133d 5e7b b93c 5839 fbbd cb73 f5bc
00000080: 8787 00be ebc7 d93c f5db 84bd 5677 b43d
00000090: dc1b e1ba aeaa 503d d76a ce3d 86de 363d
000000a0: 9b22 bc3c acc4 0b3e 66aa fc3c 86a6 ebbd
000000b0: 2159 06bd 21a0 c43d 72cf f03d 77ba eb3c
000000c0: 66d1 343d f3b4 0bbd aa66 7c3d 9046 5b3d
000000d0: 404e 183d 7214 893d 8f61 09be 2c05 41be
000000e0: be2d 673d 79a3 cc3c 41f5 043e 9ce8 51be
000000f0: 990f d73d eddc 0f3c f67f 72bb 5cd9 673c
00000100: de74 0bbd 8099 8a3d 6b15 c43d 8a02 493d
00000110: 2d0c 67bd 6e41 93bd 4e88 72bc ceca 043e
00000120: e7ac 28bd 3762 d23a 58c7 e73c a54b 913d
00000130: e5e3 af3c d91c fa3d f015 20be 5933 8d3d
00000140: fb54 a93d c630 c9bd 2e8c 9ebd fcff 7e3d
00000150: 31e8 d4bd 1fec 88bd d7cb cebd 4921 973d
00000160: 8dbf 5f3d fe52 043e ebc8 48bd f12b 20bd
00000170: 83e4 73bd df3d 30bd 685f 003e 9e3e 153d
00000180: ccdb 863c 54bf 093d 7b56 5b3d 4156 59bc
00000190: d684 abbc dea5 803d 23d4 aebd 1f5d 863d
000001a0: 1c1a d5bd 3b44 863d 0e53 e03d 4e29 9bbd
000001b0: b96d 743c d339 e03d 4d73 c3bb 6d34 92bd
000001c0: 76df c53c 0b2a d0bc f174 2fbd 8392 4bbd
000001d0: 4cd9 653d 75be 8dbc 785d 01be 447b ae3d
000001e0: b810 0d3e 7037 353a bde0 223d 3e1f a3ba
000001f0: 884f 23bc bd3d 283e e688 53bd 4ed5 90bd
00000200: 01b5 11be 92c4 c9bd f40f edbd b294 003d
00000210: bf37 29bd 48d2 5a3d 47e8 1fbe 00c1 c9bd
00000220: 5761 a83c 4a16 ac3d 1653 fa3d 1253 db3d
00000230: 5e81 cbbd ed70 13be a2f9 e8bc 3d89 113e
00000240: 3924 803c 9b39 e63d 7b2c 213d bdd9 a93c
00000250: 491d c0bd f600 083e 7be0 8e3d d89f fd3c
00000260: e9ef ba3d 0f6e e0bd 36c6 e63c 038c a93d
00000270: 6cdc 633d 489d 103d 219f 953c 099e 6fbd
00000280: 03e9 05be 1428 9f3d 9541 18bd 7391 30bd
00000290: 254d 173d 1459 71bd 3153 0abc 3908 5abc
000002a0: 71d2 143c 4cb6 a43b 09e9 11bd af64 33bd
000002b0: 05b7 543d 720c 14bd fd83 b53d f0a4 b73d
000002c0: ff09 ee3c 1f10 813d c8b5 05bc 337f 873d
000002d0: 768f a9bd 569e 6b3d c5d0 21be f7ea 32be
000002e0: 9937 50bb 3bb7 06bd 381b 40bc a3f1 5abe
000002f0: 57a0 4e3b 62df 52bc e187 103d f474 5e3c
00000300: 6fcd 8d3d db39 003d f566 b43c 829d 7f3c
00000310: 7521 acbd a038 f03c 0127 023d aa98 083d
00000320: 1078 3cbe 4717 b43d 6f8f ed3d c186 d53d
00000330: 1257 2b3d e9dc 1f3d fb5f 32be a875 3fbd
00000340: adb1 b9bc 7925 febd 6128 14be 8783 0d3d
00000350: ba14 aebc 2ede 57bd 97af 9d38 3311 1a3d
00000360: acbc 95bd 9966 02bd 7e93 72bd 42c1 813d
00000370: 7a9f a1bc d4fe 653d 3108 e23d c897 443c
00000380: fd75 35bb 17fc 363d 193d 313d 9305 2c3c
00000390: 40b8 cf3d bb64 2a3d a66a 17be 79c3 10bd
000003a0: 0134 d1bd dc84 da3d 6ca0 e43d 1812 a3bd
000003b0: 3767 91bc 909c 823d 5d63 1d3b bcbd db3b
000003c0: 9fe2 0a3c 8d1d 003d 4fed 663d c8ad 453d
000003d0: b827 ac3d 71fc 283d b82d 763c 3c4a 3d3d
000003e0: 9c9e 673d 1586 4bbc 5dc7 9abd c6c6 8dbd
000003f0: 54db 21bd f2b3 cb3c d75e c03d 0678 66bc
-0.1178996 -0.071182795 -0.05336841 0.0006294448 -0.035549864 0.10992024 -0.12961768 0.07546931
-0.049105432 -0.024553569 0.038892213 -0.00917434 -0.028536502 -0.087085575 0.041821994 -0.016472086
-0.041417047 0.068168096 0.062073957 0.036675584 -0.056039266 0.03479323 0.024113292 0.123090446
0.061013713 -0.056555636 0.00072836154 0.08574898 0.036013186 0.022641834 -0.12266797 -0.029962441
-0.125517 0.026584586 -0.06487266 0.08811824 -0.001717444 0.050944023 0.10078972 0.04464581
0.02296572 0.13649243 0.030842971 -0.11506371 -0.032799844 0.09600855 0.11758317 0.028775437
0.04414501 -0.034108113 0.061621346 0.05353409 0.037184 0.06693353 -0.13416122 -0.18849629
0.056440108 0.024980294 0.12984182 -0.2049889 0.10501022 0.0087807 -0.003700254 0.014150944
-0.034047 0.06767559 0.09574398 0.049074687 -0.056408096 -0.07190214 -0.014803005 0.12967989
-0.041180518 0.0016050999 0.028293297 0.07094506 0.021470973 0.122125335 -0.15633368 0.068945594
0.08268162 -0.09823756 -0.07741581 0.062255844 -0.103958495 -0.066856615 -0.10097473 0.073793955
0.054626036 0.12922284 -0.049019735 -0.039104406 -0.059544098 -0.043027755 0.12536395 0.03643667
0.01646223 0.03362973 0.05354927 -0.013265193 -0.020937365 0.06281637 -0.085365556 0.0656073
-0.104053706 0.06555983 0.109533414 -0.075762376 0.014918738 0.10948529 -0.0059646727 -0.07138906
0.024154406 -0.025410673 -0.042836133 -0.04970027 0.056115434 -0.017302731 -0.12633312 0.08519605
0.13775909 0.0006912863 0.03976511 -0.0012445224 -0.009967692 0.16429801 -0.05164423 -0.07071935
-0.14229204 -0.09851946 -0.115753084 0.031391807 -0.04131293 0.053423196 -0.1561595 -0.09851265
0.020554228 0.08402689 0.12222879 0.10709204 -0.09936784 -0.14398547 -0.028439347 0.14212508
0.015642272 0.11241456 0.03934906 0.020733709 -0.09380586 0.13281617 0.0697641 0.030960009
0.091277905 -0.10958492 0.028170686 0.08278658 0.055630133 0.035306245 0.018264355 -0.058500323
-0.13077168 0.07771316 -0.03717192 -0.04310746 0.036938805 -0.058922842 -0.008442686 -0.0133076245
0.009083376 0.0050266143 -0.03562263 -0.04379719 0.051932354 -0.03614468 0.088630654 0.08967006
0.0290575 0.06301903 -0.008161016 0.06616058 -0.08279316 0.057524048 -0.15802296 -0.17472444
-0.003177142 -0.032889586 -0.011725239 -0.2138124 0.0031528675 -0.012870641 0.035285834 0.0135776885
0.06923949 0.031305175 0.02202175 0.015601518 -0.08404819 0.029323876 0.03177548 0.033348717
-0.18405175 0.08793502 0.115996234 0.10426093 0.041831084 0.039029036 -0.17419426 -0.046743065
-0.02266773 -0.12409491 -0.14468528 0.034549262 -0.021250118 -0.05270212 7.5190495e-05 0.03761406
-0.07311377 -0.031836126 -0.05922269 0.06335689 -0.019729365 0.056151226 0.11036719 0.011999078
-0.0027688735 0.044674005 0.043271158 0.010499376 0.10142565 0.04159997 -0.14786777 -0.035342667
-0.10214997 0.10669872 0.111634105 -0.079624355 -0.017749412 0.06377518 0.0024015524 0.0067059677
0.008476882 0.03127818 0.05637866 0.048261434 0.08406013 0.041256372 0.015025549 0.046213374
0.056547746 -0.012422104 -0.07557557 -0.06922679 -0.03951581 0.024866078 0.09393089 -0.014066702

network.2.bias f4 [128]
00000000: cf0b bc3d 0c3d 3f3d cbfe bdbc 0d47 02bd
00000010: 1c15 963d 705d 95bb 7176 c83d 9193 623c
00000020: cbc6 2e3d 8e45 043d 8b70 143c e5c1 d73d
00000030: 813b 903d 6019 793d 3b66 39bd 25c9 20bd
00000040: e27a 293d b1d2 b13d 1ddc aabd 6d11 f33d
00000050: 78b8 053d 3b62 44bd e8f7 fbbb 438a 883d
00000060: 01cd ba3c 0b49 e73c bb08 a43d 03ee 2abc
00000070: e4f9 f83c ea6c 873d 7438 71bd 30d9 16bd
00000080: 83d1 d63d 45b3 a0bd ff6a 403d 1906 1b3c
00000090: acf4 bdbc 4513 523c f0a5 3d3d 7021 df3d
000000a0: a48c 173d 06f2 27bd 4699 3a3d c0da d7bc
000000b0: aa06 29bd 22ad 8abd d182 a1bc e216 19bd
000000c0: b325 9abb 4695 3f3d bf58 26bd b249 313d
000000d0: 2554 98bd e4af a03d 3439 9abd f1d2 af3d
000000e0: b03b 0cbd a8a3 ac3d c03b 613d 30e5 97bb
000000f0: 387b 0f3d 992a ff3c ccf2 333d d0ab 7a3d
00000100: 5abe f7bc 56a3 88bd fda8 683d 8d5c 70bd
00000110: 6473 7ebd ec89 823d 6f40 69bd ff0c 64bd
00000120: 8aff 34bd 9093 97bd 6423 a23d c74d ddba
00000130: fe47 df3d 2160 ccbc a5d1 9a3d 249a 683d
00000140: b723 563d cf67 4cbc e65a 2abc 1c4b 943d
00000150: b700 03bd 84f5 b33d 1547 99bd c699 08bd
00000160: 2f25 8fbd 8c44 1c3d 4675 80bd b94a 5e3d
00000170: 8a39 9d3d 8112 3bbd 6239 16bc 8769 003d
00000180: 7d0f b4bd 897e 223d a9da c5bd 3288 8fbd
00000190: c13e 4bbd 9b1d 72bd 0f7c 703d d016 84bd
000001a0: e69f 6abd 7223 b63b 2f7d a63d b0f5 7fbd
000001b0: 1fe6 46bd 3dbc c63c afa9 6c3b 0901 15bc
000001c0: 6fd0 ea3c 12cd 703d 832b 0ebd 07ea adbd
000001d0: df5c 493d 6f0a 4d3d 60e6 70bc 75e7 f93d
000001e0: 1bb3 913d 5aa4 13bd 15c5 f23b 8457 853c
000001f0: a23a 313d 55cd 393d 0fca a3bd bed4 38bd
0.0918194 0.04668908 -0.023192784 -0.03180604 0.07328245 -0.0045582578 0.09788216 0.013829128
0.042670052 0.032292895 0.009060035 0.10535029 0.070425995 0.060815215 -0.04526351 -0.039254326
0.041376956 0.08682764 -0.083427645 0.11868558 0.032646626 -0.047945242 -0.007689465 0.06666996
0.022802832 0.028233072 0.08009478 -0.010432723 0.030392595 0.066125706 -0.05889173 -0.03682822
0.1048918 -0.07846693 0.04697704 0.009461903 -0.023187958 0.012821977 0.04630083 0.108950496
0.03699936 -0.041002296 0.04555633 -0.026349425 -0.04126612 -0.06771304 -0.019715698 -0.03737534
-0.004704201 0.046773218 -0.04061198 0.043283172 -0.07437924 0.078460485 -0.07530442 0.08585156
-0.03423661 0.084296525 0.054988623 -0.0046354756 0.03502962 0.031148242 0.04393272 0.06119901
-0.030242134 -0.06671779 0.056801785 -0.058682013 -0.062121764 0.06373963 -0.056946214 -0.055676457
-0.044189014 -0.07401192 0.079169065 -0.0016884141 0.10902403 -0.024948182 0.07559518 0.056787625
0.052280154 -0.012475922 -0.010397648 0.072408885 -0.031983104 0.08787063 -0.07484261 -0.033349775
-0.06989514 0.03815131 -0.06272368 0.05427048 0.0767699 -0.045671944 -0.009168955 0.03135064
-0.08792017 0.039671455 -0.09660847 -0.07008399 -0.049620394 -0.059110265 0.05871206 -0.06449664
-0.057281397 0.0055584246 0.081293456 -0.062490165 -0.048559304 0.02425968 0.0036111881 -0.009094485
0.028663842 0.05878932 -0.034709465 -0.08491903 0.049160834 0.05005878 -0.014703363 0.1220235
0.0711424 -0.03604541 0.007408748 0.016277082 0.043268807 0.045361836 -0.07997524 -0.04512476

network.4.weight f4 [1, 128]
00000000: bf52 1b3e 763c 133e 50c7 5bbe 46c4 093d
00000010: c3a5 d9bd dde8 a4bd 6653 d03d b3d6 71bd
00000020: 20a3 313e 5682 fabd 8a97 b43d 32e8 df3d
00000030: 3193 433e 92a5 2cbe 5e64 39be bd31 16be
00000040: a3c2 0fbe af53 c73d cb91 f2bd aab7 233e
00000050: 866a 213e b894 f73d d8fc fbbd 5ca8 da3d
00000060: 4de3 0abe a697 d7bd 2e3a 8fbd 5490 fb3d
00000070: 0c97 0ebe 0c46 9dbc c912 253e e904 d8bd
00000080: 18e1 f23d 64be 973d b34a ccbd b248 c3bd
00000090: 0397 f4bd 9a26 3a3e a361 173e 2114 3e3e
000000a0: 4bac e83d ee88 07be f02d f93d dac7 3b3e
000000b0: dc26 04be 92ef 6b3b 7a13 ba3d e624 e53d
000000c0: ecb2 27be 90dd 403e 54fe 01be beb6 133e
000000d0: 523d 17be 1b9c 133e 0f5a e0bd 1310 123e
000000e0: b239 9c3c fb04 78bd 9a28 51bd b6fc 93bd
000000f0: ea9d d43d 61ea 213e 8aa7 1e3e d2fd 253e
00000100: d3a5 243e a13d dc3d 6d85 e5bd 793c febd
00000110: b915 0cbe d751 0fbe d15c 13be d493 efbc
00000120: b984 febd fb00 f5bd fc87 11be 3285 213e
00000130: dce5 023e 1368 1c3e 20d0 a03b 0efc 923d
00000140: f915 fabc e916 223e 4462 263e d248 413e
00000150: 87f7 d63d 24c4 133e dcdc 45bd d4cb c13d
00000160: fe7d cdbd 0d0b 283e 3758 e1bd d739 f8bd
00000170: e06d 1b3e 15f3 24be 75d0 77bd 0917 ddbd
00000180: 29a3 8a3b cb17 333e 25d9 fbbc ec4d e5bd
00000190: 286a 6fbd fe79 a4bd cc36 07be 8feb 413b
000001a0: 45af 903d fc8d 9d3b 9f88 023e 895c 44bd
000001b0: 9f3a 893d 4df6 153e 35e3 db3d 92ba 993d
000001c0: 3268 2e3e 5017 febd 5521 253e 66eb 18be
000001d0: de06 233e ffb1 dc3d 9573 3a3e 0424 2f3e
000001e0: d196 4cbe 629c 39be 314f 1e3e 4982 b8bd
000001f0: ed05 e83d f70b d93d 533a 41be 899b b93d
0.15168284 0.14378533 -0.2146275 0.033634447 -0.1062732 -0.08052228 0.10172157 -0.059042644
0.17347383 -0.12231891 0.08817966 0.109329596 0.19099118 -0.16860035 -0.18104693 -0.14667411
-0.14039092 0.09732758 -0.11844214 0.15988031 0.15763292 0.12088913 -0.123040855 0.10676643
-0.13563271 -0.105269715 -0.06993519 0.12283388 -0.13924807 -0.01919844 0.16120447 -0.105478115
0.118593395 0.07409361 -0.09975185 -0.0953535 -0.11942866 0.18178788 0.14783339 0.18562366
0.11360987 -0.13235828 0.12166965 0.18337956 -0.12905449 0.003600095 0.09085746 0.111886784
-0.16376847 0.1883452 -0.12694675 0.1442518 -0.14769486 0.14415018 -0.10954677 0.14263944
0.01907048 -0.060551625 -0.05106411 -0.07225935 0.10381682 0.15812065 0.15493599 0.16210106
0.16078882 0.10753942 -0.112070896 -0.12413878 -0.13680162 -0.13996063 -0.14390875 -0.029245295
-0.124276586 -0.11963078 -0.1421203 0.15773466 0.12782997 0.15274076 0.004907623 0.07176982
-0.030528056 0.15829052 0.16248423 0.18875435 0.10496431 0.1443029 -0.04830633 0.09462705
-0.10033797 0.16410466 -0.11003154 -0.12120407 0.15178633 -0.16108353 -0.060501534 -0.10795409
0.004230876 0.17489545 -0.030743191 -0.11196503 -0.058450848 -0.08031081 -0.13204497 0.0029589867
0.0706468 0.0048081856 0.1274743 -0.04793981 0.06700634 0.14644738 0.10736696 0.075062886
0.17031935 -0.1240679 0.16125996 -0.14933547 0.15920588 0.107761376 0.18208154 0.17103583
-0.19979407 -0.18126062 0.15459897 -0.09009225 0.11329255 0.10597985 -0.18869905 0.09062869
