models/level3_complex/checkpoint_ep100/agent_0.pth (torch, 673186 bytes, 44 tensors)

network.0.weight f4 [128, 14]
00000000: b494 52be e6ac 72bc 6910 e7bd b8ec 4fbe
00000010: aa27 1b3e 8b2b 0abe 4299 e8ba 7cb4 f2bd
00000020: 47c2 073e 8f28 853c ebf2 883e 4aff 6f3e
00000030: 066d f4bd de18 66be 7f06 1abd 078d 3a3e
00000040: fec0 9a3c a6f3 82bc 4edb be3c c6d5 75bd
00000050: 9c74 45be de2d 2f3e 560e b4bb 682d 9cbd
00000060: 5e8c 1b3b d14b 513d b934 ff3d f151 083e
00000070: 1999 93bd 92af 6abd 8800 4b3e de4b 85be
00000080: 3d78 b13d 8b67 02bd 0b61 0bbe 1a21 b43d
00000090: a1b9 5dbe 6837 fbbb 9b31 583e 291f 413e
000000a0: 02ab 2b3e d4d8 243c 18ba 103e 1d55 3e3e
000000b0: 20aa 523e 687d 203e 6870 8cbe 1c42 b73d
000000c0: 8f59 003e 6a76 363e abbe 1ebe 3895 dcbc
000000d0: dce7 2dbe 97ea 553e b065 e0bc 49fe 8b3d
000000e0: cef9 583c 1b6c 703e 7e92 69be 1a49 2e3e
000000f0: 15e4 433e 1d0f a83d 3a90 23bd 41af 09be
00000100: 8f09 5e3e 735b 10be df03 9fbd 1e3c 693e
00000110: 6795 183e d535 2abe d3ef 60be 640d 7bbe
00000120: c849 70bd 8b68 14be dab6 123e c943 86be
00000130: 1e10 bebd 1095 3a3e c9e3 233d e7ba 5f3c
00000140: 888d c2bd 3028 2ebe f5ec 13bd 53ec a4bb
00000150: d5ea d83d 63c7 a43d a814 803e 487d 743e
00000160: 90c6 81be 564a 23bb c57b e3bc c9a3 62bb
00000170: 988e 5cbe 4328 a9bd 4514 7c3e 8432 6fbc
00000180: 0988 943d 9f13 4dbe ea1a e7bd 66a5 ee3c
00000190: dbfc b0ba 7da7 5abe 2713 9fbd 17af 0fbc
000001a0: dad1 1d3e 7b79 0bbc 3072 43be 1bd0 0d3c
000001b0: e050 0e3c 0401 13be c959 823e 8e4a 143e
000001c0: b313 da3d c017 2c3e cb6d 703e 5fa7 813e
000001d0: 9b88 26bd e7c2 6a3e 00de b2bd 9d6d 463e
000001e0: a19b 8bbe 2d9e 62bd 0079 403e 54bb 763e
000001f0: b2cc 993d 017c 2ebe ff8a 2dbd 7541 ba3d
00000200: 224b 90bd 40b7 dcbd 1462 d8ba 511e 223e
00000210: a9b0 45be 541a 30be 9309 fc3d 51b2 84be
00000220: 94bd 2abd e9ae 803e 7949 893b 97f2 44be
00000230: 07ea 37be fb81 4abe a1f0 663e bd0f b5bc
00000240: 167e 163e ef84 44be d7ac 5c3e 2938 40be
00000250: 027a 5a3c a85c 0c3e bd4e 23bd c8cd 1cbe
00000260: 5cee 863e 9a80 1b3d 24ec fd3d 87ab 6bbe
00000270: b6f4 5e3e 0a33 db3d f245 e73d 6631 673e
00000280: 46a4 843e 944a bc3d 33ba 113d 25bd 34bd
00000290: 235a 883e e0f4 13be 13de 80ba ec5d 34be
000002a0: aebd 323e 1edb bbbd 3fe9 873e accd 183e
000002b0: 31bc 1abe 85ea db3d ac87 b6bd e7c2 d93d
000002c0: d220 ad3b 4dbd 19be 969a afbd bf1c 8bbe
000002d0: b334 22bc bdef 4b3e b04b 2dbe 29bf 36bd
000002e0: c51d f9bd 58ab 4e3d a86f 81bc 474a 86bb
000002f0: a99c dc3d 2df2 383e 3beb 7ebe 49a0 233e
00000300: 156c 403e 93de 22be 7734 7dbe 35ff ef3d
00000310: c237 e8bc 1312 3e3e 13f5 febd e8b8 233e
00000320: c90d 13bd 0675 86bd 2ee4 673d db91 4bbe
00000330: 3f50 72be 8bcf 3ebe cb42 58be 3599 81be
00000340: 0b49 5a3e 36e0 93bd 1a4d 1bbd fb28 36be
00000350: f7d0 d73d 8364 82bc 7ac6 763e 2e52 d2bd
00000360: 121d ba3d 40cf 473e dd29 0f3e 2601 3fbd
00000370: 6733 4e3d d86d 18bd c2b6 b8bd 6fc6 2dbd
00000380: 0102 ad3d 0b53 123e 1b44 9d3d adf5 f8bd
00000390: 50bf 75bd b2f6 35be 50b5 65be 36d2 80be
000003a0: eaed 34be d48f d03d 94fc 1f3c a2a0 823e
000003b0: e504 4fbc e447 fd3b e3c7 33bd 0afc 3fbd
000003c0: fc2f 81be 16a7 8a3e 0554 36bc b9fe 8e3d
000003d0: 8e21 003d 9917 fabc 9f94 28be 8109 0a3e
000003e0: cd5c bf3d a5fa d33d f0c2 063e ad22 9a3d
000003f0: 9e0e 313e 1730 4c3e f304 e2bd e4ce 363e
-0.20564538 -0.01481173 -0.11282427 -0.20305145 0.1515185 -0.13493173 -0.001774587 -0.11850831
0.13257705 0.016254691 0.26747832 0.23437229 -0.11934857 -0.22470424 -0.03760385 0.1821786
0.018890854 -0.015985321 0.023297932 -0.060018323 -0.19282764 0.1710734 -0.005494873 -0.07625848
0.0023734788 0.051097695 0.12461228 0.13312508 -0.072069354 -0.057296343 0.19824421 -0.26034445
0.08665512 -0.031837028 -0.13611238 0.08795376 -0.21652843 -0.007666517 0.21112673 0.18859543
0.16764453 0.0100614615 0.14133489 0.18587156 0.2057271 0.15672839 -0.2742951 0.08948156
0.12534164 0.17818609 -0.15502422 -0.026926622 -0.16982979 0.2089027 -0.027392238 0.068356104
0.013243152 0.23478739 -0.22809789 0.17020074 0.19129975 0.08206008 -0.039932467 -0.1344576
0.21683334 -0.14097385 -0.0776441 0.22776839 0.14900742 -0.16622098 -0.21966486 -0.24516827
-0.058664113 -0.14493005 0.14327565 -0.2622359 -0.09280418 0.18220925 0.040012155 0.013655401
-0.09499651 -0.17007518 -0.03611465 -0.005033055 0.10591666 0.080458425 0.2501576 0.23875916
-0.25346804 -0.0024916134 -0.027768979 -0.0034582487 -0.2153877 -0.082596324 0.24617107 -0.014599446
0.07252509 -0.20027016 -0.1128443 0.029131602 -0.0013503091 -0.21352954 -0.07767325 -0.008769772
0.15412083 -0.00851285 -0.19086528 0.008655573 0.008686274 -0.14355856 0.25459126 0.14481565
0.106482886 0.16805935 0.23479383 0.25323007 -0.04065762 0.22925912 -0.087337494 0.19377752
-0.27267173 -0.05532663 0.18796158 0.24094898 0.07509746 -0.17039491 -0.042368885 0.09094516
-0.070455804 -0.1077714 -0.0016508722 0.15831877 -0.19305672 -0.17197543 0.12306514 -0.25917295
-0.041684702 0.25133446 0.004189667 -0.19233166 -0.17960368 -0.19776146 0.2255273 -0.022102231
0.14696535 -0.19191335 0.21550308 -0.18771423 0.013334753 0.1370722 -0.039870013 -0.15312874
0.2635373 0.03796444 0.12398556 -0.23014651 0.21773037 0.10703094 0.11292638 0.22577438
0.2590658 0.09193912 0.035577964 -0.044125695 0.2663127 -0.14448881 -0.0009831808 -0.17613953
0.1745517 -0.09172653 0.2654514 0.14922208 -0.15110852 0.107380904 -0.08912596 0.10632878
0.0052834535 -0.15013619 -0.08574407 -0.2717037 -0.00990026 0.19915672 -0.16923404 -0.0446159
-0.12163881 0.050456375 -0.015800312 -0.00409821 0.10772068 0.18061133 -0.24894421 0.15979113
0.1879123 -0.15905218 -0.24727045 0.11718599 -0.0283469 0.18561582 -0.12449088 0.15988505
-0.03590182 -0.06565289 0.056614093 -0.19879858 -0.23663424 -0.18633859 -0.2111923 -0.253122
0.21316926 -0.07220499 -0.037915327 -0.1778907 0.10537904 -0.015917068 0.2409915 -0.10269581
0.09087576 0.19512653 0.13980813 -0.046631955 0.05034199 -0.03721413 -0.09019233 -0.04242557
0.08447648 0.14289491 0.07679006 -0.12156234 -0.059996903 -0.17769888 -0.22432446 -0.25160378
-0.17668882 0.10183683 0.009764809 0.25513178 -0.012635444 0.0077295173 -0.0438918 -0.046871223
-0.25231922 0.270806 -0.01112843 0.06982178 0.031282 -0.03052883 -0.16462944 0.13480188
0.09343872 0.10350541 0.131603 0.07526145 0.17290732 0.1994022 -0.110361 0.1785236

network.0.bias f4 [128]
00000000: 3e85 09be b860 37be f270 203c 11cc 323e
00000010: 6bb2 f53d ad18 59be bd6e 87bd b346 b13d
00000020: 3995 06bd 07f8 0f3d e050 67be 3b40 5b3e
00000030: 5647 553e f82c 843d d334 e8bd 4e9a 053c
00000040: 129f 893e b3fa 7fbe f499 66be 5e3e 033e
00000050: 566a b83c 6e4d c73d e8ef 703e 1281 613e
00000060: 753b 5c3e c422 ecbd 2d25 8e3d b73e 37be
00000070: d118 5fbd 3c27 53be 87a9 08be 76bb c13d
00000080: 087b a5bc 9737 f2bc a861 fe3d ea4e f53d
00000090: 54e2 40be e3db 2c3e 1ab9 4cbe cf8e 07be
000000a0: b9b1 ad3d 91bd 3b3e d6cc 263d b9be 6d3d
000000b0: 62b0 bf3c 05ee 7a3e 980a 4e3e 5ee3 7c3e
000000c0: 0bfa 5d3e 2be7 1bbc be2d babc 746d 1bbe
000000d0: 4ed4 ef3d 734f 99bd 0282 bfbd 82a6 23bd
000000e0: 1c55 90bd 6369 7fbd f3f5 c1bd 9e12 093e
000000f0: f3ad 50be 7f49 953b 357c 3d3e 7d6e 88be
00000100: 9b8f 43be 6c7e 82be 5c23 31be 2d48 59be
00000110: 0666 8a3e 100c 0cbc 40fe da3c 4475 543e
00000120: dd84 88be 3e74 61be f8b5 703e bcd6 523e
00000130: 7a78 5abe a1f2 dd3d 24ae 683e fdce 82be
00000140: 2508 473e 39ec 823e 8351 d1bd 47b7 4e3d
00000150: a81c 8bbd 5360 61be b32a 5cbe 21cb 25be
00000160: bd40 623e feea 333e a9a4 743c 2c58 033d
00000170: b0b2 4dbd e3b9 a3bd 28a9 ffbd c560 5bbe
00000180: 922e 453e a487 70bd da69 17be 4251 f0bd
00000190: 043a 1e3d 86e2 383e 4049 293e 2617 d33d
000001a0: a78a 69bd e80a a7bb 4b95 213e 9dbf e7bc
000001b0: a265 e1bb 31ff 7bbe 3ada bf3c b0b3 823e
000001c0: 33fc 863d 440a 38bd 1689 8bbc eeae 84be
000001d0: f7f7 643e 5209 383e bcf2 443c 61c3 71be
000001e0: 810b a53d 9d9f 12bc 5a98 f43c e176 01be
000001f0: 2176 c63a e804 2abe bbcf 14be 2189 e9bc
-0.13429734 -0.17907989 0.009792553 0.17460658 0.11996921 -0.2120082 -0.066129185 0.08656063
-0.032857154 0.035148647 -0.22589445 0.2141122 0.20827994 0.064538896 -0.113382004 0.008154465
0.26879174 -0.24997978 -0.22519666 0.1281676 0.022511642 0.097315654 0.23529017 0.22021893
0.21507056 -0.115300685 0.069406845 -0.17895018 -0.054467026 -0.20620435 -0.1334592 0.094595835
-0.020200267 -0.029567523 0.1242097 0.11977942 -0.18836337 0.16880755 -0.19992486 -0.13238071
0.084811635 0.18334033 0.04072269 0.058043215 0.023399536 0.2450486 0.20121229 0.24696109
0.21677415 -0.009515564 -0.02272689 -0.15178472 0.11710416 -0.07485857 -0.09350969 -0.039953716
-0.07047483 -0.062356364 -0.09470739 0.13386008 -0.20378856 0.0045558806 0.18504412 -0.26646796
-0.1909775 -0.25487077 -0.17298645 -0.21218939 0.27030963 -0.008547798 0.026732564 0.20747858
-0.26663867 -0.22016999 0.23506916 0.20589727 -0.2133502 0.108372934 0.2272268 -0.25548545
0.194367 0.2557085 -0.10220625 0.050467756 -0.06792575 -0.22009401 -0.21500663 -0.16190769
0.22095008 0.17570111 0.014931836 0.03206651 -0.050219238 -0.079944395 -0.12483436 -0.21423633
0.19256046 -0.058723107 -0.14786473 -0.11734249 0.038629547 0.18055162 0.16531849 0.103071496
-0.057016995 -0.0050977357 0.15779607 -0.02828961 -0.0068785707 -0.24609067 0.023419488 0.25527716
0.06591072 -0.044931665 -0.017033141 -0.2591471 0.22360216 0.17972305 0.012020763 -0.23609687
0.08058835 -0.008949188 0.029857803 -0.12643005 0.0015141406 -0.16603434 -0.14532368 -0.028507771

network.2.weight f4 [128, 128]
00000000: 1eb7 60bc 7c37 323d 14c4 873d e110 f53c
00000010: 14bf c03d f5fa 423c 3d29 82bd 1e12 323d
00000020: 466d ef3a 8645 f23b 13b2 b43c 1f28 993d
00000030: fb80 39bc 326b 97bd 0d8c 0c3d 996e 98bd
00000040: 4fcc af3d c0a8 9ebd d3ee b73c 3177 8f3d
00000050: 1e08 943d 73af 213b 3f1c 7bbd 06c3 913d
00000060: 3b2e 96bd 7be9 8e3c 9397 e4bc d52b d23b
00000070: 42df 7439 31f8 2dbc 2aa0 8d3d ba77 b73b
00000080: 3467 bb3d 226c 65bd 2088 5639 5cd0 a63d
00000090: 37de a63d 3b27 b7bc 0e72 f53c ae82 353d
000000a0: 474f 093d d60e 4ebd acc1 58bb 45fd b03c
000000b0: b233 eabc 8b87 8b3d 07a6 6f3d a3e9 0d3c
000000c0: c80f 753d a7cd 173d ddfe 263d 80b4 b13d
000000d0: 6aad 903d 4b8c b43d 9195 913b 8d12 43bd
000000e0: 8816 13bd a8e3 e2bc 5ea2 bc3d 3b22 32bd
000000f0: fcd2 8d3d ccdb 69bd 315f 21bc 90fd 59bd
00000100: 1970 33bd 04d9 4fbd 7675 89bd 2b8f a5bd
00000110: 8b91 a8bc f5c6 62bd a6a1 c1bc bdb3 03bd
00000120: 9fc4 843d e816 e83b 5849 9d3d 872d 873d
00000130: dd62 1dbc 39b8 ae3d 0987 3dbd 72ba 7b3d
00000140: 75c2 8ebd 5089 b4bb 7e39 803d ef80 8a3a
00000150: 9e5e 1bbd 5a76 323d 4278 39bd b4d5 6e3d
00000160: 0223 6fbc 98fb 08bd bfb6 8f3d 5825 60bd
00000170: d3c5 adbb 1fea 8c3d b486 b0b9 332c 91bd
00000180: b1e1 9a3b 579b cb3c fc65 ac3d b49b 1abd
00000190: 62fa 8d3d 5a91 af3d 2ba2 96bd bf54 55bb
000001a0: fefb 5e3d fb12 643d 1dd4 923d 9ff0 943d
000001b0: b4c6 8b3d 40fd 373d 7fc8 073c b126 5a3d
000001c0: 2e72 b23c b791 ba3d cdb8 b63d 4e61 5c3d
000001d0: 1aaf 15bd 54c4 87bc e223 91bd 84a1 9a3c
000001e0: 3e62 18bd 605f d83b d0fe d33c 93e3 8fba
000001f0: 0e95 423d 5a91 dcbc eb8b 083c 1376 8ebd
00000200: 88b7 503d cb68 3fbd 95b4 92bd eac9 103b
00000210: dec9 aabc 1cc6 083d 7962 42bd d86b a4bd
00000220: 0869 233d 1e50 9a3d 7509 9ebd 7d49 8abd
00000230: 18c6 1bba acf5 693d 6ea4 5abd 24e8 62bd
00000240: 6f71 a63c 9e04 a93d 3998 18bd 6bcd 183d
00000250: 75de 00bd fbad 883d f400 61bd a1f5 893d
00000260: 6f21 38bd 2579 9cbd 18f4 5bbd cf17 123c
00000270: db88 0b3d f394 bb3d dec6 02bd 110b dabc
00000280: 04ab eb3b 2801 edbc dae8 9f3d fe8f a13d
00000290: a992 e63c 02d0 8abd 7b3d 933d 14a3 82bc
000002a0: 5445 9fbd cd4a 80bd 1622 853c 3ea1 91bc
000002b0: e376 5c3d 27e5 803a 13d4 233d 3801 9c3d
000002c0: 58ec d0bc 1fd8 1ebd 603e 313d 6c9d 78bd
000002d0: ad5b 89bd a440 a2bb 52fd d1bb bf0d 63bd
000002e0: 2939 4cbc 0d64 04bd cc1e a73d 1575 9abd
000002f0: 9f17 013d 2ac0 603d 8f52 bb3d 4572 98bd
00000300: a5d8 cabc 683e 183d 43d2 913d b268 d53a
00000310: 536d 32bd 957a b43d f277 58bd 8a40 f83c
00000320: 5988 b0bc dbe6 93bd f8e9 91bd 82cd 8abd
00000330: 3266 9dbd 967b 8abd d8e1 623d 247b 6e3d
00000340: 20b8 433d 65cf b53c 9c1c 973c fb83 ba3d
00000350: 0cc7 17bd 31a0 82bd 945b 733d eabe 903d
00000360: 05a0 a0bb 6bfe a6bb 457e 5a3a c72f 413d
00000370: bee9 9d3d ed45 a23d 3463 9fbd 1328 3abc
00000380: 5f61 6b3d 92ae a0bb d192 8cbd 26ce 473d
00000390: 77bd 17bd 6c64 3c3d 1b4d 5c3d 4421 c6bc
000003a0: e449 a83d a880 503d 3cdb 9a3c bac9 813d
000003b0: 2558 43bd 89ff 0bbd 9423 c13d f393 583c
000003c0: 00fd 593d b4c5 b43d 8e7d 823d 6814 583d
000003d0: b6db 983d e6e3 2cbc de78 b13d 665a 76bd
000003e0: c37c 0dbc 8b05 04bc a966 e33c 41ec b93d
000003f0: 9a16 c23d 45f8 f73c b8b5 8abd 7ac6 8f3d
-0.013715534 0.043509945 0.06629196 0.029915275 0.09411445 0.011900653 -0.06355522 0.04347431
0.0018266819 0.0073935417 0.022057569 0.074783556 -0.011322255 -0.07393493 0.03431325 -0.0744297
0.08583891 -0.0774703 0.022452747 0.07005156 0.07228111 0.0024671226 -0.061306234 0.07117276
-0.073330365 0.017445317 -0.027904307 0.0064139166 0.00023352823 -0.0106182555 0.069153145 0.0055989893
0.09150544 -0.056011327 0.00020459341 0.0814521 0.08147853 -0.022357574 0.029961612 0.04431408
0.03352287 -0.050307117 -0.0033074422 0.021605143 -0.028589103 0.06812962 0.058507945 0.00866166
0.059829503 0.03706136 0.0407704 0.08677006 0.07064326 0.08815821 0.0044428785 -0.047625113
-0.03591016 -0.027696446 0.092106566 -0.043489676 0.06925008 -0.05709438 -0.009849356 -0.05322033
-0.043808077 -0.05074407 -0.06711857 -0.08083948 -0.020577213 -0.05536552 -0.02363665 -0.032153834
0.06482815 0.0070828088 0.07680005 0.066004805 -0.00960609 0.085312314 -0.046271358 0.061457105
-0.069706835 -0.005509533 0.06260966 0.001056699 -0.03793203 0.0435699 -0.045280702 0.058309272
-0.014595749 -0.033443063 0.07017278 -0.054723114 -0.0053031235 0.068805926 -0.00033669698 -0.070885085
0.0047266115 0.024854345 0.084178895 -0.037746146 0.06932522 0.085726455 -0.0735515 -0.0032551733
0.054439537 0.055682164 0.07169364 0.07272457 0.06825009 0.044919252 0.008287548 0.053259555
0.02178296 0.09109824 0.08921967 0.053803734 -0.036543943 -0.016573109 -0.07086922 0.018875845
-0.037203066 0.0066031665 0.02587834 -0.0010977857 0.04750543 -0.026924778 0.00833414 -0.069561146
0.05095628 -0.046730798 -0.071633495 0.0022093006 -0.02084821 0.033392057 -0.047457192 -0.08028382
0.039895087 0.075348124 -0.077166475 -0.06752298 -0.0005942299 0.057119057 -0.05337947 -0.055397168
0.020317761 0.08252834 -0.037254546 0.037305277 -0.03146215 0.06673809 -0.05493255 0.06736303
-0.04495376 -0.07640294 -0.053699583 0.008916809 0.034066062 0.09159269 -0.031927936 -0.026616605
0.0071920175 -0.028931215 0.07808085 0.078887925 0.028146105 -0.067779556 0.07189461 -0.015946902
-0.07776895 -0.06264267 0.016251605 -0.017777082 0.053824317 0.0009833918 0.03999717 0.0761742
-0.025503322 -0.038780328 0.043272376 -0.060697004 -0.06706939 -0.0049515534 -0.006408372 -0.05543303
-0.0124648 -0.03232198 0.08160171 -0.07541863 0.031516667 0.054870762 0.09146606 -0.0744367
-0.024761507 0.03716889 0.07120182 0.0016281812 -0.04356129 0.08812443 -0.052848764 0.030304212
-0.02154939 -0.072217666 -0.07124704 -0.06777479 -0.07685508 -0.067618534 0.055391163 0.058222905
0.047783017 0.02219362 0.01844626 0.091072045 -0.03705506 -0.0637821 0.059413508 0.07067664
-0.0049018883 -0.005096247 0.00083348557 0.047164705 0.077105984 0.079234935 -0.07782593 -0.0113620935
0.057465907 -0.004903623 -0.068639405 0.048780583 -0.037045922 0.045994207 0.05378447 -0.024185784
0.082172185 0.050903946 0.018903367 0.063373044 -0.047691483 -0.034179244 0.09430614 0.013218868
0.053219795 0.088267714 0.06371604 0.052753836 0.074637815 -0.010552382 0.08665632 -0.060144804
-0.008635703 -0.008057962 0.027758913 0.09078265 0.09476967 0.030269751 -0.06772941 0.07020278

network.2.bias f4 [128]
00000000: 06b6 d63b a185 113d 9754 833c 4689 4f3d
00000010: c42d f8bc 6f05 55bd cd0c d0bc b673 993d
00000020: d4bb 8fbd 4ed4 a6bd d647 36ba 03ac a1bd
00000030: 8e0b bcbc aff9 7abc dabb 28bd f209 b83d
00000040: 6a73 9c3d 39f6 233d 3a57 17bd ee42 70bd
00000050: 9d32 ad3c 8444 75bd 8c46 c9bc beb3 48bd
00000060: a6d8 f53c d72f 713d 920b 57bc 9a33 88bd
00000070: 1ee2 3abb 375f a23c 0b11 bbbd 672e c33b
00000080: 7ef4 6abd 3333 b2bc 1376 8cbd 1c6e 853d
00000090: c8c2 9abc 0474 803d e667 91bd a040 153d
000000a0: 8369 02bc 2e5e a0bd b0a5 2bbd 1edd 543d
000000b0: 315f 433d 8355 233d 973e 223d 0de0 0f3d
000000c0: 226d 0a3d 0d87 4fbd d0f7 8d3d 4e08 dcbc
000000d0: 5984 0cbd aada 8dbd 15c9 1dbc 7a74 973d
000000e0: 7167 9a3d 3aed 4e3d d2e4 aabd 2023 b53c
000000f0: 9b38 74bd 3bbb 65bd 1d74 e2bc 9ed4 013d
00000100: 9a4b 64bd 288c d53b 7215 c3bc 427a 263c
00000110: d8f5 fabc 2ff2 bdbd 1746 36bc 972f 0d3d
00000120: 74e0 953d bcf4 533d 5b39 883d 1606 cebc
00000130: 3835 5bbd d622 9cbd 756e 023d 5dfb 9dbd
00000140: 925f aebd 9ab1 8c3d ecde 4f3d f817 5c3d
00000150: ed4a 75bd 081a 6ebd 03a1 72bc 7815 afbd
00000160: 26d0 f2bc b0a7 84bd f5e7 903c 0d55 73bd
00000170: 8a0f a53c a1cc 61bd c664 043d 2d62 5c3d
00000180: 3b7b 9c3c b582 f3bb 7d3f dbbb 1ef7 36bd
00000190: 039c 35ba d5f7 72bc 4631 943d 75e6 1c3d
000001a0: 0eb0 303d 81a0 d33c 3abb cdbc 4293 c93c
000001b0: c7b5 5d3d 7380 92bd 5f1a be3d e398 3dbd
000001c0: 14f0 b43d a701 673d 5f61 933d a1fc 9e3a
000001d0: b537 a6bd 8f6e 633d f194 373b 916d 55bc
000001e0: 75f5 5c3d 6175 c33d cad5 82bb f887 2b3c
000001f0: 6876 4bbd 71b9 2bbb 6573 1ebd fe91 42bd
0.0065524606 0.03552783 0.016031547 0.050668024 -0.03029526 -0.052007135 -0.025396729 0.07492773
-0.07018247 -0.08145963 -0.00069534534 -0.07894137 -0.022954728 -0.015318318 -0.041194774 0.08986272
0.07639201 0.040029738 -0.03694842 -0.05865758 0.021142298 -0.059879795 -0.024569772 -0.04899954
0.030010533 0.058883514 -0.013125317 -0.06650467 -0.0028516124 0.019820793 -0.0913411 0.0059564593
-0.057362072 -0.02175293 -0.06858458 0.06515142 -0.018891707 0.06272128 -0.07099895 0.036438584
-0.007959726 -0.07830463 -0.04190606 0.051968686 0.047698203 0.039876472 0.03961047 0.03512578
0.033795483 -0.050665904 0.06932032 -0.026859429 -0.034305904 -0.069264725 -0.009630461 0.07395263
0.07539261 0.050519206 -0.08344425 0.022111475 -0.059624296 -0.05608676 -0.027643258 0.03169691
-0.05573616 0.006516952 -0.023813937 0.0101609845 -0.030634806 -0.092747085 -0.011125109 0.034469213
0.07318202 0.05174707 0.06651565 -0.025149386 -0.05351755 -0.07623832 0.03184362 -0.07713959
-0.08514322 0.06869812 0.050749704 0.053733796 -0.059885908 -0.058130294 -0.014808896 -0.08549017
-0.029640269 -0.06477296 0.01768873 -0.059407283 0.020149011 -0.05512679 0.032322668 0.053804565
0.01910173 -0.007431353 -0.006690918 -0.044669263 -0.00069278496 -0.014829596 0.07235961 0.03830572
0.04313665 0.02583337 -0.02511369 0.02460635 0.054128435 -0.07153406 0.09282374 -0.046288382
0.08834854 0.05639806 0.071963064 0.0012129733 -0.08116094 0.05552536 0.002801236 -0.013026611
0.053945024 0.095438726 -0.003992771 0.010469429 -0.049673468 -0.002620306 -0.038684268 -0.04750251

network.4.weight f4 [5, 128]
00000000: 306e a83c ef5e acbd e77b 0a3d fc61 d13c
00000010: f73f 59bd 0524 9a3c e358 9b3d 291f c13c
00000020: 9de4 783d 78e8 683d a4f9 163d 27f2 16bd
00000030: 792b 943d f027 91bc 959e f03c e5c4 a8bd
00000040: e15c a33d 435e 623c 50bd c93c 3cbc 73bd
00000050: 33fc d23c 99dd 783d 3978 8dbd b0a9 50bd
00000060: 04a3 e8bc 7e98 1fbd f420 a23d 2642 d13c
00000070: d81c da3c 7ad6 b3bd d19d 383d 2cf8 28bd
00000080: 2d23 84bd 951e ab3c 8849 09bd a6f6 41bd
00000090: 06ba 0f3d 8477 083d 064b 6b3d 909e 2f3d
000000a0: 5e35 cb3c b0b8 223d 8ea3 6dbd c2a5 a23d
000000b0: bcd2 a5bc 470a 523d 565e acbd c642 b8bd
000000c0: 94ff 42bd b9b8 61bd 7de2 15bd 7bd5 9b3d
000000d0: 3ce3 ffbc 18e5 543d d6ba 4dbd fe26 72bd
000000e0: 64e2 3ebd 7dea 92bd cec6 0fbd 4c12 a2bd
000000f0: 2e6b 0fbd 0bf8 a8bd f0bb 163d 3e47 5abd
00000100: 2ac6 e2bc 8a49 21bd 2137 67bd 5dc1 9cbb
00000110: 44a7 12bc 5ee2 a43d 44e5 893d ff87 4ebd
00000120: 8613 38bd ef40 f7bc 5e74 4b3d 296c 43bd
00000130: 9ff5 5ab9 9b08 b5bd 5d15 b7bd 3e42 403d
00000140: 048b 873d 4830 8c3d a8cb 023d 326a 643d
00000150: bb5a 9ebd 7a77 70bd cba1 0cbd 5a7e 523d
00000160: dad0 aabd af52 2f3d 294a 8c3d 8b33 9f3d
00000170: efad 48bd 3acb 743d 703b 863d 646e 9b3d
00000180: 6caa 39bd 1118 20bc ad0c 8bbc aae4 133d
00000190: 37f5 023d ad49 623d 9909 3f3d 3dbe 123d
000001a0: 8f70 1aba 2767 963d 380f 1ebd 322a 14bb
000001b0: 8ea2 293d 847e 46bd 544a 2d3d 64b6 2abd
000001c0: 363a b6bd df69 f83b a1ae 94bd a655 0cbd
000001d0: a4c7 69bd d62b 36bc 8cd3 8e3c 7863 493c
000001e0: f811 b2bd 8a4b 3d3d 7b0e 073c 1022 a73d
000001f0: 8071 453d b925 3abd b452 0cbd c582 833d
00000200: 8c5a 9ebd 0a19 6d3d 25e3 8dbd b6b7 7fbd
00000210: 34d8 44bd 11a2 72bd fe82 7f3c bd15 debc
00000220: 682f 8bbd 43fc 96bd db2d 88bd e69d 6f3d
00000230: 4323 91bd 2f4d 1c3d a641 863d 7c48 8ebd
00000240: 8fd3 86bc dfed a33d 932f bbbc 8f26 7f3d
00000250: c409 37bd f61c 1c3d bbf3 033c 522c bfbd
00000260: 3db1 6d3d decb b4bd dc33 05bd b8e2 7c3d
00000270: f7fa 953c 2e6c 86bc 719e 533d 66b8 df3c
00000280: d605 0cbc afdc 4d3c 10ca 9f3d 4836 9ebc
00000290: 5860 29bd f068 37b9 15c7 97bc 6ab7 21bc
000002a0: bcce dbbb 1c01 563c 01a1 a5bd a787 6bbc
000002b0: 2534 a8bd 7887 b9bd 63dd a2bd 4809 2e3d
000002c0: c7b5 abbd 8542 43bd 3b08 4dbd 1d81 1f3d
000002d0: ab58 203d d7d6 aa3b 8a9c adbc 4b24 e73c
000002e0: 20a9 7bbc eff9 963d 1d4f dcbb 6215 76bd
000002f0: 1c6f 6fbd e902 babd cf22 1abd ecb1 973b
00000300: 3b77 843d 5d0f b1bd 45d8 5ebc 1fa5 0f3b
00000310: c5c1 263d 46fb 4cbd 1be3 a5bd b1ab 513d
00000320: 14e6 193d 8461 2abd b839 69bd 5c8c 0f3d
00000330: fe1f 00bd e64d 313d f71b 603b 03ed 903c
00000340: af7c 6cbd 4519 e1bc 0e90 e8bb 38af 78bc
00000350: aeba 89bd e9af 94bd f8a0 1fbd e247 21bd
00000360: de77 b93c d572 4b3d 91ff 8abd 73e5 223d
00000370: 3c9f a03d 38c1 483d 68ae 493d 55dd 0e3d
00000380: eaaa 5cbd cde7 36bd 900e 5f3d 069b 883b
00000390: b55c 8f3b e3a3 d73c 6fc3 f6bc 5c42 893d
000003a0: 1c4e aabc f4ee 97bd 4796 1abd 700f a73d
000003b0: 29fa 203c 8e9f 2b3d 2f6f f8bc 12b2 b83c
000003c0: ee07 88bd 8a8e a7bd 368a 31bd 7139 d53c
000003d0: caf0 a0bd 092a 8fbc 29cc e8bc 43ab 213d
000003e0: 9c1c 9c3d 2392 d3bb 9628 4e3d 7796 97bd
000003f0: a20b bcbd ae91 4f3d 0392 a13d bcfc a43d
0.020560354 -0.08416545 0.03380957 0.025559418 -0.053039517 0.018816004 0.07585313 0.023574429
0.060764898 0.056862324 0.03685917 -0.03685203 0.07234854 -0.017719239 0.029372493 -0.0824068
0.079766996 0.013816419 0.024626404 -0.059505686 0.025755024 0.060758207 -0.06907696 -0.050943077
-0.028398044 -0.038963787 0.079164416 0.025544237 0.026625082 -0.087811425 0.04507238 -0.0412523
-0.06452022 0.020888606 -0.03351739 -0.047354363 0.035089515 0.033317104 0.057444595 0.042875826
0.02480572 0.039726913 -0.058017306 0.07941772 -0.020242088 0.051279332 -0.08416431 -0.08997111
-0.04760702 -0.055107806 -0.03659295 0.076090775 -0.031236283 0.051976293 -0.05022701 -0.059119217
-0.04660262 -0.07173631 -0.035101704 -0.07913646 -0.035014324 -0.082504354 0.036800325 -0.053290598
-0.027682383 -0.039376773 -0.05644906 -0.004783793 -0.008951012 0.080509886 0.06733182 -0.050422665
-0.044940494 -0.03018233 0.049671523 -0.04771057 -0.00020881601 -0.08839532 -0.089396216 0.046938173
0.06618312 0.068451464 0.031932503 0.05576534 -0.07732149 -0.05870769 -0.034333985 0.05139003
-0.083406165 0.042803463 0.068500824 0.07773503 -0.048994 0.059764124 0.065543056 0.07589415
-0.045328543 -0.009771363 -0.016973818 0.036106743 0.031972136 0.055246044 0.046640012 0.035825957
-0.00058914063 0.073438935 -0.038588732 -0.0022608158 0.04141479 -0.0484605 0.042307213 -0.041677848
-0.088978216 0.00758098 -0.0725987 -0.03426137 -0.057075158 -0.01111885 0.017434858 0.012291782
-0.086948335 0.046214618 0.0082431985 0.08160794 0.048203945 -0.04544613 -0.03425856 0.06421427
-0.07732114 0.057885207 -0.0692809 -0.06243106 -0.04805775 -0.05923659 0.015595196 -0.027109975
-0.067961514 -0.07372334 -0.06649371 0.058500193 -0.07086804 0.038159546 0.0655549 -0.06947419
-0.0164583 0.08004355 -0.022849834 0.06229263 -0.044687048 0.038113557 0.008053715 -0.09334625
0.058030356 -0.08827947 -0.03252016 0.061739653 0.018308146 -0.016409006 0.051664773 0.027309608
-0.008546313 0.012564822 0.07802212 -0.019312993 -0.041351646 -0.00017491332 -0.018527547 -0.0098703895
-0.0067079943 0.013061788 -0.0808735 -0.014375604 -0.08213071 -0.09059042 -0.079523824 0.04248932
-0.08384281 -0.04767086 -0.050056677 0.03894149 0.03914706 0.005213599 -0.021192808 0.028215548
-0.015360147 0.0737189 -0.006723298 -0.060078986 -0.05845557 -0.09082586 -0.037630852 0.0046293642
0.06468054 -0.086455084 -0.013601367 0.0021918488 0.040712137 -0.05004432 -0.080999576 0.05118913
0.037572935 -0.041596904 -0.05693981 0.035045967 -0.03128051 0.04328718 0.0034196356 0.017691141
-0.057736095 -0.02747787 -0.007097251 -0.015178494 -0.067250594 -0.07260115 -0.03897187 -0.039375193
0.022640165 0.04967006 -0.06787027 0.0397696 0.078428715 0.049012393 0.049238592 0.034879047
-0.053873934 -0.044654656 0.054457247 0.004168871 0.004375065 0.026323264 -0.030122487 0.0670211
-0.020789199 -0.074186236 -0.037740972 0.08157241 0.009825268 0.04190021 -0.030326454 0.022545848
-0.066421375 -0.08181484 -0.0433447 0.026028367 -0.07858427 -0.017476099 -0.028417664 0.03946997
0.07622644 -0.00645663 0.050331675 -0.07401746 -0.09181906 0.05067604 0.07889178 0.08056018

network.4.bias f4 [5]
00000000: 484a f13c 795f 30bd f252 08bd 828e 653c
00000010: 1b12 da3a
0.029454365 -0.0430598 -0.033282228 0.014011027 0.0016637476

network.0.weight f4 [128, 40]
00000000: 199a a9bd cfd2 1b3e 9fce 77bd 3037 843d
00000010: abf5 09be f903 a43c 2bae a73d 7c82 b3bd
00000020: 761c fb3d e183 1d3e 169d f5bd 87d9 92bd
00000030: 25ba 7ebd e187 ae3d f622 143e 87af a63d
00000040: f4b1 18bd 6baf 973d 1505 b3bd 07ef 68bd
00000050: 2bd2 e3bc bb5d 29be 27c5 ce3c 19b7 1ebd
00000060: 9195 82bc d3fc 27be be48 03be 3504 2dbe
00000070: d5fc f9bc 36fd e43d 8fc8 ee3d 5aff 4b3d
00000080: a6c8 7e3d 7102 0abd 187f 023d abf6 7e3d
00000090: e098 873d 27d4 06be 17a9 e5bc f343 073e
000000a0: 60f5 a3bd 7583 ce3b 0339 20bd 424f 2cbd
000000b0: 6cdf f13d e508 c03b 1191 143e 3d81 93bc
000000c0: c559 a53d 65ac 72bd b73a e5bd ec9d 91bc
000000d0: a889 023e b778 ecbd 3706 00be b664 093c
000000e0: 0595 3c3d d578 003d a21d fd3c 1f58 35be
000000f0: c15d e4bd 155f 8dbd 0015 1a3b c624 b73d
00000100: 934c 7b3c 5525 113e 768b b73d 2b19 54bb
00000110: 186b c83d bb14 043e 4b01 dcbd 05be e5bd
00000120: 7beb dc3d 0cb4 0ebe c1fe e3bd fa6a 063e
00000130: 228b ad3a 1e75 b63d be8a 5c3d 254a 26be
00000140: 4bfe 1dbd 89c1 d8bd 05b1 75bd dfb4 cebd
00000150: cf1b 9d3d 4505 5d3d 2db0 d53d 5c65 0a3e
00000160: 03a3 c8bc db7c 9fbd 8a17 febd 2903 33be
00000170: 4f68 27be be6a 053d 12e6 553d ec4d a6bd
00000180: cc00 bc3d 1108 29be 9b55 fe3c d796 15be
00000190: 0cd8 b73d 20e2 223e a3e6 9a3c 10e4 0e3e
000001a0: 55dd f13d 9ecf 42bd 2435 c83d 9686 543d
000001b0: 8d66 9fbd 0623 e03d 06b8 75bd e578 423b
000001c0: 9abd 08bc 9645 ecbc 07f5 653d ecc1 0cbe
000001d0: 2297 203e 3b2e dc3d 692a 85bd 0346 0e3e
000001e0: 55fa 023e ee12 34bd 85cb bcbd 1a0a 943d
000001f0: 536d e83c 9e46 b4bc e492 3b3d d499 123e
00000200: 9df3 b53c 5904 19ba ddd6 cd3c f507 68bd
00000210: 5a30 8ebc d4e3 bf3d 42ca 38bd 46d0 213d
00000220: f584 8b3c 7f76 7e3d 49c7 1cbd bb08 073e
00000230: 9439 c8bc 8aa4 d9bc d206 f53d 49d4 e63d
00000240: c452 95bd bb8d 93bb fa4f 1cbe d9ef fa3d
00000250: 9ff2 8b3a 0d88 1c3e 5140 82bd 8e4d e3bd
00000260: bfbd 69bd e1cf f4bd 2f78 16be 9f88 afbd
00000270: 819d f73d 2ad3 0abd 86ec 46bd 4d18 04be
00000280: 60fc 013e d5d0 3abd 8136 a0bc 38a1 083e
00000290: 2d18 193e 4c3e f5bd ac0d a5bc c623 d8bd
000002a0: 8a97 d7bd a3e0 17be 6dc3 3abc 829b 8dbd
000002b0: 0b71 953d a9b4 c43c d5f0 36be 5aef aabc
000002c0: 4088 2bbe 32b2 b2bb d2fa 85bc 081e dbbc
000002d0: ae25 1f3e f629 78bd 08ea 253d 9377 023e
000002e0: f03b 073e bcb1 22be f73a 0f3e a525 2bbd
000002f0: 805f 19be b183 2b3e 254c a23d 9a03 bb3b
00000300: 49d5 c1bd 8f63 4ebc 405e a3bd 51d7 67bd
00000310: 6adf 053d 1311 d33d e834 f6bd 6b57 263c
00000320: 7cf9 01be 7cfd 1fbd 0930 afbd c7b4 0fbe
00000330: bf30 c0bd 985e 383d d3d8 b4bd 1167 0dbe
00000340: 35b8 413d c8a0 c8bd 7a7f dd3d f73a edbc
00000350: 04e7 0abe 1ed8 4a3c 4c8e 1c3c ee59 fa3b
00000360: 9dba ae3c 22c3 05be 4800 8d3d b0fc 363e
00000370: d742 9abd 659a e7bc 75f0 21bd d7d2 76bd
00000380: 7764 cdbb a0e5 ba3d 154d f83c a8a9 953d
00000390: 646f fe3d 0b15 c43d e23a fc3d 8434 053e
000003a0: cc81 c0bc eb1f e3bd 1a78 f4bd 8a94 1e3e
000003b0: 2d4a c23d 8d55 083e a073 d33d 6fe4 143e
000003c0: c106 a03d 5d92 403e d247 943d 3371 4c3d
000003d0: d95e ccbd 0d93 113e ccb3 72bc f802 433d
000003e0: 7238 c8bd a120 2d3e f561 08be 5a86 f43d
000003f0: 8e8a d8bd 71fc 57bd a611 0b3e 3e38 a3bd
-0.08281345 0.15217136 -0.060499784 0.06455839 -0.13472621 0.020021426 0.08187517 -0.08765122
0.12261288 0.15382339 -0.119928524 -0.07170396 -0.06218924 0.085220106 0.14466462 0.08138948
-0.037279084 0.07406505 -0.08741204 -0.05686858 -0.027810177 -0.16539662 0.025240494 -0.038748834
-0.01594046 -0.16405039 -0.12820718 -0.16896136 -0.030516068 0.11181109 0.11659347 0.04980407
0.062203072 -0.033693735 0.031859487 0.06224696 0.066209555 -0.13166867 -0.02803473 0.13209514
-0.08005786 0.006302292 -0.03911687 -0.042067774 0.118101925 0.0058604353 0.14508463 -0.018005962
0.08073763 -0.05924644 -0.111928396 -0.017775498 0.12747824 -0.11546462 -0.12502371 0.008385828
0.046040554 0.031365234 0.03089792 -0.17709397 -0.11150695 -0.06902901 0.0023511052 0.08942561
0.015338081 0.14174397 0.08962147 -0.0032363634 0.097860515 0.12898533 -0.10742434 -0.11217884
0.10787102 -0.1393587 -0.11132575 0.13126746 0.0013240317 0.08909057 0.053843252 -0.16239221
-0.03857259 -0.10583789 -0.059983272 -0.10093092 0.0767132 0.053960104 0.104339935 0.13515228
-0.024491793 -0.07787486 -0.124068335 -0.17481674 -0.16348384 0.0325725 0.052221365 -0.08120331
0.091798395 -0.16506983 0.03104668 -0.14608322 0.089767545 0.15906572 0.018908804 0.13954186
0.11809794 -0.04756128 0.09775761 0.051886164 -0.07783232 0.1094418 -0.05998995 0.002967411
-0.008345986 -0.028841775 0.05614188 -0.1374585 0.15682653 0.10751005 -0.0650223 0.13893895
0.12790807 -0.043963365 -0.09218506 0.07228489 0.028372442 -0.02200633 0.045794383 0.14316493
0.02221089 -0.00058371347 0.025126869 -0.056648213 -0.01735704 0.09369627 -0.045114763 0.039505266
0.017031172 0.062124725 -0.03827599 0.13186924 -0.024441518 -0.026567716 0.119641915 0.11270959
-0.07291177 -0.0045029796 -0.15264884 0.122527786 0.0010677165 0.15286274 -0.06359924 -0.11098777
-0.05706572 -0.11953712 -0.14694284 -0.0857098 0.12090588 -0.033892788 -0.04856541 -0.12899895
0.1269393 -0.045609314 -0.01955724 0.1334275 0.14950629 -0.11974773 -0.02014812 -0.10553698
-0.10526951 -0.14831786 -0.011399132 -0.069144264 0.07296952 0.024011927 -0.17865308 -0.020866085
-0.16751194 -0.0054533714 -0.016354952 -0.026747718 0.15541717 -0.060586892 0.040506393 0.12740926
0.13206458 -0.15888113 0.13987337 -0.041783947 -0.14977837 0.16749455 0.0792468 0.0057072164
-0.09464509 -0.012596979 -0.07976961 -0.056601826 0.032683767 0.10305991 -0.1202181 0.010152678
-0.12692827 -0.0390601 -0.08554084 -0.14033805 -0.093842976 0.045012087 -0.088304184 -0.13808848
0.047294814 -0.097962916 0.1081533 -0.02895878 -0.13564688 0.012380628 0.009555411 0.007640115
0.021329219 -0.13062719 0.06884819 0.1786983 -0.0753228 -0.028271863 -0.03953596 -0.060259666
-0.00626808 0.09125829 0.030310193 0.0730775 0.1242359 0.09574326 0.123159185 0.13008314
-0.023499392 -0.11090072 -0.1193697 0.1548635 0.09486804 0.13313885 0.10324788 0.14540266
0.07813788 0.18805833 0.07240261 0.049912643 -0.09979028 0.14216252 -0.014813375 0.047610253
-0.09776391 0.16906978 -0.13318618 0.11939688 -0.10573302 -0.05273098 0.13580951 -0.07969712

network.0.bias f4 [128]
00000000: d186 3dbd 2d5f 8d3d 1ec9 813c 9a09 94bd
00000010: ee6e 11bd 697c 993d ab91 303d ccd3 94bd
00000020: 5367 81bc 2d78 a9bd 21ac 033d dddb d3bc
00000030: 36fd b0bd 7f81 e93d 8ad4 433b 58a3 9a3b
00000040: c486 503d e1a9 b83c dc93 7bbd e66f f53d
00000050: bbdf f8bd f45f 293d 0511 d6bd 88a6 72bd
00000060: 984f b8bd 2fdb 2a3e 0c6d 813c d053 e03d
00000070: 40e2 e83d 1f87 c83d 44b5 d03d 3c01 9abb
00000080: 2390 b4bc 80e1 c43d 7d8c 18be 5b04 713d
00000090: 5f54 60bd 018d 413c cab7 b63a 6169 a4bd
000000a0: 7e39 923d 7ac3 063e 9249 d1bd 81ea b43d
000000b0: 0f4b 0b3e b25d 9abd fd69 adbd 087a fd3c
000000c0: b5b2 85bb 7e3a 193e 7e5c 14bd 2c6a ffbd
000000d0: 5418 4f3d da22 a7bd 97e0 0dbe 2096 5abd
000000e0: 1af6 7e3b 2ca9 943d eabe a23d 1f21 1a3e
000000f0: cab5 d8bd 5f11 98bd 08f9 08bd e0ad a93d
00000100: f4c6 60bd 426f f53d 33c9 f53d 5c82 023e
00000110: 02e0 4a3b a711 773d 6cb4 eb3d 113c 1c3e
00000120: 05c4 d63d 07a1 4abc 039d 003e acb8 babc
00000130: f698 f2bd f92c 0dbe 667a cc3d c985 923d
00000140: 1b3f bbbd 825c bf3d 6859 3f3d 1c30 bc3d
00000150: 2528 f43d f86d e2bd c1b3 afbc 4408 db3c
00000160: 9bc4 843d b83b bbbb 7d43 c0bb a40a e7bd
00000170: cf63 b3bd c1af e3bd 7a11 82bc 680b 1fbd
00000180: 3112 103e ac4e e03c 48cf 1c3d eab8 80bd
00000190: b2ef ddbd 4c29 74bd e0d0 2d3e af94 c83d
000001a0: cbe6 e1bc 8c6c 7abc 78a2 923d b0cd 553d
000001b0: 9959 9f3b d4bd cabd 8d55 78bd 2d0b 133e
000001c0: 83d7 8dbd 5924 a5bd 55fb 91bc b09e 5abd
000001d0: 3d1b 223d 570d 11bc fe0b 2bbd abe0 abbd
000001e0: 668c 3c3d ac3b ec3d 6b34 0c3d 0c5e cebd
000001f0: 7dd2 5abd b7ee 963d e249 853d 700f 713d
-0.04627115 0.06902919 0.01584297 -0.07228394 -0.03550618 0.074944325 0.04310767 -0.072669595
-0.01579634 -0.08274875 0.032146577 -0.025861675 -0.08642046 0.114016525 0.0029881322 0.004719179
0.050909773 0.022541942 -0.061420307 0.119842336 -0.12152048 0.041351274 -0.10452465 -0.059240848
-0.08999556 0.16685174 0.015799068 0.10953486 0.11371279 0.09791397 0.10190824 -0.004699854
-0.022041386 0.09613323 -0.14897342 0.058842044 -0.054767963 0.011813403 0.0013940271 -0.08027912
0.07139872 0.13160506 -0.102191105 0.088337906 0.13602851 -0.07537402 -0.08467481 0.030941978
-0.0040801414 0.14963719 -0.03622102 -0.124714226 0.05056031 -0.08160944 -0.13855205 -0.053365827
0.0038904012 0.072588295 0.0794657 0.15051697 -0.105815485 -0.07425188 -0.03344062 0.08285117
-0.054877236 0.11984111 0.12001266 0.1274504 0.0030956273 0.06031957 0.11509022 0.15257289
0.104866065 -0.0123674935 0.12559895 -0.022793137 -0.11845581 -0.13786687 0.09984283 0.07154424
-0.09142896 0.09343816 0.046716124 0.09188864 0.119217195 -0.11056131 -0.021448018 0.02673734
0.06482812 -0.005713906 -0.00586742 -0.112813264 -0.08759271 -0.11117507 -0.015877474 -0.038829237
0.1406944 0.027381264 0.038283616 -0.062852696 -0.10836734 -0.059609696 0.1697421 0.09793984
-0.027575871 -0.015284669 0.07159895 0.052198112 0.004862976 -0.09899488 -0.060628463 0.14359732
-0.06925871 -0.080635734 -0.01782004 -0.053373992 0.039576758 -0.008853278 -0.041759484 -0.083924614
0.046032332 0.11534819 0.034229677 -0.10076532 -0.053423394 0.0736975 0.06508233 0.058852613

network.2.weight f4 [128, 128]
00000000: 2b83 13bd 86c8 bd3d 9168 64bd e45c 45bd
00000010: 32fb 8ebd 5151 69bd 418c 603d a7b6 5cbc
00000020: 2188 aebc cb85 95bd 8b28 803d 0756 fabc
00000030: 87f6 adbc e5d4 9bbd 9b64 6e3d 940a b93c
00000040: ce55 b7bd 72c3 9e3b c76a 85bd 84bf ba3c
00000050: 6ab2 09bb b8ac d93c c7fb ebbc 833b 28bc
00000060: d0d8 ac3d d3af a4bd 2fef 05bd 62ad 91bd
00000070: 6d3d 983b 71f3 66bd 5b04 8fbd d639 8ebd
00000080: 5bca 92bd b597 c0bd 47b8 aebd 4cd7 c4bd
00000090: 3fd2 cabc 5f73 543c 2b56 773c b482 febb
000000a0: bad6 36bc 3851 dabb 24d9 0c3d 256e 83bd
000000b0: 0faa 963d b217 b9bc 8d5c 493d 6048 6337
000000c0: 7585 b7bd 2d76 be3c 923b 133d 597f 5ebb
000000d0: 5b89 2d3c f17a 153c 6be1 abbd 769a 4d3d
000000e0: 2729 923d 465f 3dbd b39d 41bc 022a 34bd
000000f0: 5d64 093d 4672 a2bd a5ce 7abd 7a4e 783d
00000100: b079 423d 66f9 3e3d f7ba 713d 1d4c bfbc
00000110: 92c2 513c 3331 38bb f9ef d9bc 33ca 54bd
00000120: 6eb5 843d ebae 583c 1cc2 2bbd 37f2 68bd
00000130: cff7 1c3d 5ec4 87bc 92d8 763d 2b33 a8ba
00000140: 46bd b33c 8fb5 6dbd bade bcbc 1aec 0b3d
00000150: 854e 463d 3d4f 03bc 8a7c c03c 43b9 a7bd
00000160: 6e54 71bd 66be 81bd 4d7a 893d 36aa aebd
00000170: 2bec 143d 4649 b5bc cd3e 19bd b952 983d
00000180: ea75 0abc 2bd4 ffbc fa94 a83b 31c8 583c
00000190: 42dc e93c 369d d83c a454 1cbd ea49 59bd
000001a0: d4cf 1e3d cc36 d73c f4a1 7a3b 86fc 863c
000001b0: e934 37bd 4879 a33c 7aa6 fb3a 9526 633d
000001c0: 637b 84bc f03b 20bc 2a43 6dbc a16f 01bd
000001d0: cf05 613b 74d7 173d 055b 88bb fb7a e43c
000001e0: 4ae0 9f3d 7883 38bd 0ac3 c7bc a036 423d
000001f0: 4e16 393d 7309 aabd 1199 9dbd ca06 c23c
00000200: da0e 5e3c 2566 c63c 15c0 403c 3ada 323b
00000210: adcb cf3c 29c4 4d3d d7f8 a83c 0d36 26bd
00000220: aaef 57bd ba36 983d 01bf 3bbc 0253 13bc
00000230: a1a6 103c 12f1 babc 9f5a d93c 1270 02bd
00000240: 8867 a23d 0756 d9bc 1d6d 913d 6590 6f3d
00000250: 915c 71bc 8a17 b6bd 493d 87bd 6d46 af3d
00000260: 8b95 cbbb 383a f0bc 23ff 71bd a8ac 843d
00000270: 28ff a4bd 6d4e 7f3d 768f 963d 8247 e3bc
00000280: 0b44 9dbd 0364 853d 93cd 43bd c618 0b3d
00000290: bdac d239 7274 a33d 3a9b 943d 2f39 493d
000002a0: f58f 4abd 36a7 203c 4fed 3b3d a108 273d
000002b0: 1c6f a5bd 74d0 5bba b8b4 f8bc 6b2a c7bd
000002c0: 35a9 c1bc 94b0 9bbd fe5c 8fbd aa02 a8bd
000002d0: 35ee 8dbd 2ddd 60bd 127b 873d c79b 923c
000002e0: 6cd6 67bc 3164 98bd ba69 b8bd 020f 47bd
000002f0: 790f ebbc d906 86bd 6ab3 4d3d a443 84bd
00000300: 5385 0ebd c07d dbbb db13 5bbd 9650 6c3d
00000310: c326 123d 2b68 8abd b873 053d fa44 40bd
00000320: d0d6 81bd 574d b93c b294 483c 10a6 77bd
00000330: 5b9d 88bd a006 f1bc de09 763d 5ec3 b6bd
00000340: 6709 303c f9f5 7ebb 551b 233d 3478 acbd
00000350: fc5f b1bd c11e 793d 3a3e 8abb c7ff 0c3c
00000360: e9e0 9c3d e025 38bd 1527 943d a4aa a5bd
00000370: e0e7 d5bc 4568 613c e0a5 8fbd ac1d ff3c
00000380: 0cc7 5d3d 6349 c1bd a63b 213b f46f 093d
00000390: 8997 d7bd 2a0a 3cbd 9f89 56bc 3bc1 603d
000003a0: 7ccb 553a 3c03 d73c aecb 27bd faf7 05bd
000003b0: bd54 2ebd fe11 653d b6c3 3d3c f547 c53c
000003c0: c02e 04bd 86e4 2a3d cd59 a6bc 4628 98bd
000003d0: 95df 75bd 845e ef3c 2f06 49bd a0dd b2bc
000003e0: ba63 a03d 4f93 703d cbb9 a83c 4876 93bc
000003f0: 10a0 3abd fda2 97bd 827a d5bc 4b8d 3c3d
-0.036013763 0.092667624 -0.055763785 -0.04818429 -0.069815055 -0.056962315 0.054821257 -0.013471282
-0.021305146 -0.073009096 0.06257733 -0.0305586 -0.021235717 -0.07608966 0.058201414 0.022588052
-0.08951913 0.0048450762 -0.06514507 0.0227964 -0.0021010884 0.026571617 -0.02880658 -0.010268095
0.08439791 -0.08041348 -0.032698806 -0.07113148 0.0046459944 -0.056384508 -0.069832526 -0.06944625
-0.071675025 -0.09403936 -0.08531242 -0.09611377 -0.024758456 0.01296696 0.015096228 -0.007767046
-0.011159593 -0.006662514 0.03438677 -0.06417493 0.07356655 -0.022594307 0.04916053 1.35471055e-05
-0.08961002 0.02324971 0.035945483 -0.0033950417 0.01059183 0.00912355 -0.083926044 0.050196134
0.071367554 -0.046233438 -0.011817384 -0.043985374 0.03354298 -0.07931952 -0.061232228 0.060621716
0.04747933 0.046624564 0.059016194 -0.023351723 0.012802737 -0.0028105497 -0.026603686 -0.051950645
0.064799175 0.013225297 -0.041933164 -0.05687162 0.038322266 -0.016573127 0.06026513 -0.0012832632
0.021940839 -0.058034476 -0.023055423 0.03416071 0.048414726 -0.008014497 0.023496885 -0.08189633
-0.05891841 -0.06335144 0.0671278 -0.08528559 0.03635804 -0.022129666 -0.037413407 0.07437653
-0.0084509645 -0.0312291 0.0051447125 0.013231323 0.02854741 0.026442152 -0.038166657 -0.053049006
0.03877242 0.026271246 0.0038243504 0.016477834 -0.044728193 0.019955292 0.0019199394 0.055456717
-0.016172117 -0.009779915 -0.014481345 -0.0316006 0.0034335738 0.037070706 -0.004161241 0.027890673
0.078064516 -0.045047253 -0.024384994 0.047415376 0.045187287 -0.083025835 -0.07695211 0.023684878
0.013553346 0.024218628 0.011764546 0.0027290718 0.025365675 0.0502359 0.020626469 -0.04057889
-0.052718796 0.07432313 -0.011459113 -0.008991959 0.00882879 -0.02282003 0.02653247 -0.03184516
0.07929903 -0.026530279 0.0710089 0.058487315 -0.014731542 -0.088912085 -0.06603486 0.085583545
-0.0062128953 -0.029324636 -0.059081208 0.06478244 -0.0805648 0.062330652 0.07351582 -0.027744059
-0.07678994 0.06513216 -0.047803473 0.033959173 0.0004018302 0.079811946 0.072561696 0.0491268
-0.049453694 0.009805491 0.045880612 0.040779714 -0.08077833 -0.0008385249 -0.03035961 -0.097248875
-0.023640255 -0.07602039 -0.07000159 -0.08203633 -0.069302 -0.05489843 0.06615271 0.017896546
-0.014150243 -0.07440985 -0.09004541 -0.048598297 -0.028693901 -0.06544275 0.05021993 -0.06458214
-0.034795117 -0.00669834 -0.053485733 0.05769404 0.035681497 -0.0675815 0.03258106 -0.04694078
-0.063398 0.022619886 0.012242483 -0.060461104 -0.06670638 -0.029422104 0.060068004 -0.08923982
0.010744429 -0.0038903935 0.039820988 -0.084213644 -0.08660886 0.060820345 -0.0042188438 0.008605904
0.07660086 -0.044957995 0.07234017 -0.08089188 -0.026111543 0.01375777 -0.0701406 0.031142078
0.054144904 -0.094378255 0.0024602204 0.033554032 -0.1052695 -0.04590813 -0.013094335 0.05487178
0.0008155627 0.02624666 -0.04096573 -0.032707192 -0.04256128 0.05592536 0.011582306 0.024082163
-0.032271147 0.041721843 -0.020306492 -0.074295565 -0.060027678 0.029219873 -0.049078163 -0.021834195
0.07831521 0.058734234 0.020596405 -0.018000737 -0.045562804 -0.074041344 -0.026059393 0.046033185

network.2.bias f4 [128]
00000000: 1727 a8bd 5477 413c ada9 693d f479 3abd
00000010: 38e5 ce3d 4ed6 7abd 498f a83c 00d7 cfbc
00000020: 6526 023d a2c4 b33b 7c4a 26bd bde2 3bbc
00000030: 3e6e 373d 16d0 8d3d b487 cbbc b493 863d
00000040: 5e97 1e3d d359 6d3d 0bb0 2abd 9e1d df3c
00000050: 1cf0 ca3d 24b0 6bbd bb09 c9ba 53e8 2d3d
00000060: d6b2 c33d 728c 99bd 29ee 0fbd 4c3f 293d
00000070: e67b 943d f47e 023d 8b3a 343d 46c5 443d
00000080: 7cab 693d dca0 c23d 190c 3d3d 56a7 063d
00000090: dd4c 6dbd 2d14 b83d a02b a03c e990 10bd
000000a0: eec8 c4bc ea47 d23b 7337 8f3b 030c 8f3d
000000b0: a109 8c3d 1226 86bc 6369 1c3d 25f6 cdbd
000000c0: 5c5e 383d 3d9a 4bbc e314 56bd eb91 b7bc
000000d0: 7485 67bd 2ec6 9639 d33a 40bd 3469 b43d
000000e0: cdf9 5d3d 9367 1d3d a3fb babd d894 1dbd
000000f0: c6e4 c63d c0e5 d9bc 1767 973d 6528 223d
00000100: 2539 a0bb 41ee 59bd 29dd 6dbd e5fc 77bd
00000110: d5a5 d53d d249 db3d ca33 9f3b b157 a63d
00000120: dc57 6bbc 0244 23bd c809 b93d 0188 f7bc
00000130: bfd9 873d 9b36 cc3d d9e0 3bbd 749d 663d
00000140: 4950 96bb f799 663d a0af 3bbc b71d 3bbd
00000150: 1b4d 91bc 9521 1ebb ae4d 08bc 7688 b5bc
00000160: 47a2 683d 0e44 953b d4e3 8f3b e3d9 65bb
00000170: f63a 75bd 4dbc 853d 7500 373d 0d6f 7abd
00000180: aa82 153d 8c1c 7a3d 32ad 9bbb fdf7 86bc
00000190: 3cc1 6b3d 3173 05bd 5c1b 203d 759c d53d
000001a0: c95c 063d 83eb e23c a107 75bd 5996 24bd
000001b0: 8c8e 093d 0f19 b1bd b48b 6b3d adc4 b23c
000001c0: b19e 81bb aced a23d 57e0 84bd 2d84 3fbd
000001d0: 0ac4 323d 6fe6 dabc 30a0 df3c 3cea a9bb
000001e0: ab40 bf3d 3718 c4bb 9494 e73d 6226 cd3c
000001f0: a9ac 833d 8f0f 4abb 2ab1 a73d b421 9c3d
-0.08210581 0.011808235 0.05704658 -0.04552646 0.10102314 -0.061239533 0.020576136 -0.025371075
0.031774897 0.005486087 -0.040598378 -0.011467633 0.04478287 0.06924455 -0.024844982 0.06571141
0.038718574 0.05794699 -0.041671794 0.027235802 0.099090785 -0.057541028 -0.0015337983 0.04245789
0.095555946 -0.07497491 -0.035139237 0.04132013 0.07250194 0.031859353 0.044001143 0.048039697
0.057048306 0.09503338 0.046154115 0.032874428 -0.05793463 0.08988223 0.019552052 -0.035294447
-0.024021592 0.006417264 0.0043706237 0.06984713 0.06837774 -0.016375575 0.038186442 -0.10056714
0.045011863 -0.01242691 -0.052266013 -0.022408446 -0.056523755 0.00028757885 -0.0469311 0.088091284
0.054193307 0.038428854 -0.09130027 -0.038472027 0.09711604 -0.026598811 0.0739271 0.039589304
-0.0048896247 -0.053205732 -0.058072243 -0.060543913 0.104320206 0.107074395 0.0048584687 0.081221946
-0.014364209 -0.03985978 0.09035069 -0.030216219 0.06633329 0.09971353 -0.04586873 0.056302503
-0.0045872075 0.056299176 -0.0114554465 -0.045682635 -0.017736962 -0.0024128903 -0.0083193015 -0.022159796
0.056795385 0.004555232 0.004391173 -0.0035072498 -0.059870683 0.06530056 0.04467817 -0.061141063
0.036501564 0.06106238 -0.004750871 -0.016475672 0.05755733 -0.03258056 0.039088592 0.104302324
0.03280333 0.027700191 -0.05982173 -0.040182445 0.03358321 -0.08647358 0.05750628 0.021822298
-0.003955685 0.079554886 -0.06488102 -0.046756912 0.04364399 -0.026721207 0.027298063 -0.0051853936
0.09338506 -0.005984332 0.11307636 0.025042716 0.06429417 -0.0030832028 0.08188088 0.07623616

network.4.weight f4 [1, 128]
00000000: 7b88 273d 506d 2dbc e599 f73c b008 aabd
00000010: d1ba 6ebd 6bc3 acbd 7339 8d3d f186 513d
00000020: 000d b2bd ff6f 8dbd d541 8bbb 0544 4ebd
00000030: 68b3 4a3d 3423 703d b7cb 923d 6db0 b1bd
00000040: 8f2f d63d 5d13 813d 5591 a7bc 4ea7 46bd
00000050: 11cb 8a3d bb6b d4bd b7f1 8bbd 67a6 dcbd
00000060: 9758 3fbd e664 853c 1e44 eb3d 765e 55bd
00000070: 2c9e 67bc d445 ac3b 6ec2 3bbd 3ab8 0a3d
00000080: 4ce0 193d 4e63 eabd fba6 e63d 0765 a0bd
00000090: 4a76 91bd 20b3 f0bd 5642 25bd f853 8639
000000a0: 5b1a babd ba5d 3f3d f2f7 bebd 93ac 433d
000000b0: c51d 713c 8703 7d3d e9f1 82bd 2308 173d
000000c0: d836 92bd e44f babd 03e5 fbbd b150 843d
000000d0: 8f06 973d fff8 933c b932 fbbd 1980 32bd
000000e0: 1593 2c3d aeb5 1a3d bb8b 903d 7a98 e6bd
000000f0: 400f 55bd 4088 0f3d b697 08bd cdfa 5b3c
00000100: 6dd8 813c 970f 78bd 9f5c 1b3d fd36 e6bd
00000110: 7543 f0bd 2d9f 5fbd 201e 393d 3f97 88bd
00000120: db89 7a3d 749a ac3d d8ec 56bd fd1b acbd
00000130: 0535 303d 87ca 99bd 37a7 7bbd 4807 983d
00000140: e980 ecbd 44b3 6d3a da09 ef3c e0f9 123d
00000150: 869d b0bd 3ace cbbd 6f5d a53c 4914 4dbd
00000160: 1ecc 283d 01ac afbd 12ef 8abd 2a49 05bd
00000170: e546 a3b9 b885 233d 48b5 bcbd 6af3 073a
00000180: 6799 d3bd e2c1 84bd d277 46bd 118f 3dbd
00000190: ab40 4b3d 7fe2 9ebd 237d b7bd 9a2d b0bd
000001a0: c02c e4bd f98b 863d f49e 5e3d b2ba bd3c
000001b0: d38b 763c d57c 673c 420e df3c 3c73 8d3d
000001c0: d620 a3bd ec19 bebd 4f61 913d c9be 763d
000001d0: 767c e1bd 185d d6bd 6863 143c 465f 653d
000001e0: c1c9 9abd 8bdc dabb de90 ddbd 3659 af3b
000001f0: e640 78bd d183 97bd 6cf7 51bd afb2 9b3d
0.040901642 -0.010585144 0.03022475 -0.08302438 -0.05828363 -0.084357105 0.06895723 0.05115408
-0.08693886 -0.06906127 -0.004249791 -0.050357837 0.0494875 0.058627322 0.07167762 -0.08676229
0.1045829 0.063025214 -0.020455042 -0.048499398 0.06777013 -0.103721105 -0.06833213 -0.10773926
-0.046715345 0.016283464 0.11487602 -0.052092038 -0.014136832 0.0052573476 -0.04583972 0.0338671
0.03756742 -0.11444722 0.11262318 -0.078317694 -0.0710264 -0.117529154 -0.040346466 0.00025621033
-0.09087058 0.046720244 -0.093246356 0.047772 0.01471657 0.061770942 -0.06393797 0.036872994
-0.07139367 -0.09097269 -0.1229954 0.06460703 0.07374298 0.018063067 -0.12265534 -0.043579195
0.042132456 0.03777092 0.070579015 -0.11259551 -0.052016497 0.035042048 -0.033347808 0.013426495
0.01585027 -0.060561743 0.037930127 -0.11240957 -0.117316164 -0.05459516 0.045194745 -0.06669473
0.061166625 0.08427897 -0.052471966 -0.08403776 0.043019313 -0.07509332 -0.061438765 0.07423264
-0.11548025 0.0009067545 0.029179502 0.03588283 -0.08623795 -0.09951444 0.020186154 -0.050068174
0.041210286 -0.08577729 -0.0678388 -0.032540478 -0.00031142603 0.039922446 -0.09214264 0.0005186113
-0.103319936 -0.06482293 -0.048454113 -0.046279017 0.04962222 -0.077580445 -0.08959415 -0.08602448
-0.11141348 0.065696664 0.05435081 0.023160312 0.015047985 0.014128883 0.027228478 0.06906745
-0.07965247 -0.09282288 0.07098638 0.06024054 -0.11010067 -0.10466975 0.009056903 0.055999063
-0.07558013 -0.006679123 -0.10818647 0.005351211 -0.060608767 -0.07398189 -0.05126135 0.076024406
