models_backup/maddpg/best_ep233/agent_0.pth (torch, 759202 bytes, 44 tensors)

network.0.weight f4 [128, 14]
-0.2610195 -0.15845332 -0.2225089 -0.2764436 0.12800981 -0.03809564 -0.19355075 0.045871027
0.01617118 0.18876834 0.09189463 0.08198564 0.15458877 0.0055100676 -0.048829332 -0.25644812
0.16875124 0.19742055 -0.07524829 -0.0064624785 0.19330063 0.040179413 -0.17917188 0.22189657
0.088900186 0.1446812 -0.06747826 -0.11832591 -0.25194395 -0.078407474 0.19248445 0.09337459
0.13692373 -0.12736976 -0.26239634 0.18351172 0.032694727 0.07090841 0.029600821 -0.14044815
0.051173087 0.0037566458 0.19499911 0.04372104 -0.2255306 0.13402508 -0.1804561 0.0058633056
0.23850654 -0.17451626 0.24846254 -0.22223058 0.27250934 -0.0671088 0.1066987 0.059149615
0.20860732 0.009377883 -0.21874258 0.25415114 0.09814452 -0.17464544 0.06477123 0.18944933
-0.136945 0.18741246 -0.12671883 0.11139144 -0.06391461 -0.11824146 -0.23366745 0.04077155
0.07313363 -0.13573904 0.19757243 0.20144716 0.21298766 0.20686235 0.09216506 0.11042072
0.1847298 -0.18780822 -0.23706314 0.14248581 -0.20502406 0.2003091 -0.046692554 -0.040578064
-0.27664873 -0.09373883 -0.16763353 -0.0851384 0.24539359 0.088832684 -0.26070273 0.1990762
-0.2387613 -0.065948814 -0.12540992 0.10401769 0.19562303 -0.038363464 0.020976057 0.0034866694
0.1053662 -0.04178829 -0.27891722 -0.053966146 0.045053944 0.0114783505 0.022527108 -0.10785509
-0.18555419 -0.18267086 0.09063216 -0.21931061 -0.11312045 -0.16988865 0.13407008 0.14286985
0.090053104 0.15398078 -0.2500196 0.082789354 0.14714916 0.17246856 -0.23957232 -0.0017022821
-0.16717577 -0.013251309 -0.16861896 0.21441898 0.0322578 0.16599008 0.21808454 0.287299
0.11833955 0.2051972 -0.14166827 -0.026189407 0.029629186 0.0058329543 -0.04919743 0.09391567
-0.07379242 -0.051221382 -0.08539144 0.05725796 0.085138716 0.11371189 -0.18216084 -0.16394168
0.1254223 0.07691752 -0.18952872 -0.20452143 0.08799065 0.009694783 -0.050126113 -0.20234494
-0.02921493 0.07531753 -0.18496202 0.036799688 0.09127934 -0.0107203415 -0.014415884 -0.20522933
0.051026054 -0.09733082 0.2672566 0.21278945 0.07796016 -0.23803431 -0.27631244 -0.26411647
0.07522477 0.22819844 0.214848 0.15780804 -0.022104736 -0.1503248 -0.19279411 -0.19923414
-0.23262414 -0.16666655 0.18294835 0.1694475 -0.18990879 0.051970363 -0.021503555 -0.012161025
0.20773576 -0.20112185 0.0866163 0.20022543 0.13095856 0.025135592 0.16032067 -0.18470949
-0.20913357 -0.14296505 -0.16837975 0.19802636 0.10360453 0.121828936 -0.04115298 -0.1238354
-0.25793543 0.20450306 -0.16827857 -0.044682704 -0.10423938 0.23635712 -0.2496737 0.08728002
0.2274116 0.14369315 0.23268583 -0.26137608 0.027407108 0.015431212 -0.008250031 0.049419872
0.2599761 0.2251917 0.171592 0.27796173 -0.13951576 -0.09920891 -0.22044203 0.18063278
-0.015065771 0.023467556 -0.012393597 -0.22428356 -0.01578074 -0.07553586 0.068598 0.28138265
0.048268832 0.2522005 -0.20552339 -0.04077922 0.09722818 0.035423175 -0.08057863 0.13012609
-0.029326467 0.16846663 0.04463412 -0.27026486 -0.06545256 0.13469434 -0.2256639 -0.036303475
00000000: 59a4 85be 9641 22be 60d9 63be 048a 8dbe
00000010: 0115 033e 2c0a 1cbd 2b32 46be 42e3 3b3d
00000020: 6c79 843c 7d4c 413e 4033 bc3d 16e8 a73d
00000030: 854c 1e3e cc8d b43b 4401 48bd 2b4d 83be
00000040: 20cd 2c3e 9d28 4a3e c71b 9abd 33c3 d3bb
00000050: 9af0 453e 2b93 243d d578 37be db38 633e
00000060: 4d11 b63d 4f27 143e 0b32 8abd db54 f2bd
00000070: ccfe 80be 1994 a0bd a51a 453e 2d3b bf3d
00000080: bc35 0c3e 386d 02be d058 86be 7fea 3b3e
00000090: e8ea 053d 6e38 913d 6c7d f23c a4d1 0fbe
000000a0: df9a 513d 0f32 763b d9ad 473e d514 333d
000000b0: 7ef1 66be df3d 093e 7cc9 38be f920 c03b
000000c0: 0f3b 743e 64b4 32be f76c 7e3e 6a90 63be
000000d0: 5886 8b3e 5770 89bd d984 da3d de46 723d
000000e0: 289d 553e b1a5 193c 0efe 5fbe 1920 823e
000000f0: feff c83d 41d6 32be c7a6 843d 01ff 413e
00000100: 4f3b 0cbe 0de9 3f3e 95c2 01be 3221 e43d
00000110: aae5 82bd 9428 f2bd 8546 6fbe 1200 273d
00000120: 16c7 953d 2dff 0abe 6d50 4a3e 2a48 4e3e
00000130: 7019 5a3e b9d3 533e 09c1 bc3d 4224 e23d
00000140: cf29 3d3e cc50 40be aec0 72be cde7 113e
00000150: d4f1 51be d41d 4d3e b140 3fbd 2f35 26bd
00000160: e7a4 8dbe 25fa bfbd 20a8 2bbe 0b5d aebd
00000170: 7548 7b3e e9ed b53d d47a 85be a2da 4b3e
00000180: d87d 74be 2c10 87bd 756b 00be 3a07 d53d
00000190: 6751 483e 0223 1dbd fbd5 ab3c 9b80 643b
000001a0: 3cca d73d 332a 2bbd 3dce 8ebe 9b0b 5dbd
000001b0: 7c8a 383d b10f 3c3c c58a b83c 21e3 dcbd
000001c0: eb01 3ebe 120e 3bbe 5b9d b93d f692 60be
000001d0: b2ab e7bd 4af7 2dbe ab49 093e 794c 123e
000001e0: c36d b83d 23ad 1d3e 9202 80be 778d a93d
000001f0: 45ae 163e 999b 303e 7252 75be 1c1f dfba
00000200: 2030 2bbe 051c 59bc 73aa 2cbe a690 5b3e
00000210: c120 043d 4ef9 293e 8e51 5f3e db18 933e
00000220: 025c f23d 371f 523e 7d11 11be 2b8b d6bc
00000230: e8b8 f23c 5e22 bf3b 3f83 49bd dc56 c03d
00000240: 7b20 97bd 83cd 51bd b5e1 aebd 5387 6a3d
00000250: 355d ae3d c8e1 e83d 5f88 3abe 54e0 27be
00000260: b46e 003e ef86 9d3d d113 42be 116e 51be
00000270: 7134 b43d ded6 1e3c 0a51 4dbd 8333 4fbe
00000280: 2654 efbc 1440 9a3d af66 3dbe 45bb 163d
00000290: aaf0 ba3d 5fa4 2fbc 9a30 6cbc a327 52be
000002a0: b200 513d 6255 c7bd dbd5 883e 7ae5 593e
000002b0: 94a9 9f3d 44bf 73be d378 8dbe 463a 87be
000002c0: 720f 9a3d daac 693e 1d01 5c3e 6e98 213e
000002d0: fe14 b5bc bfee 19be d26b 45be 0904 4cbe
000002e0: 0635 6ebe a3aa 2abe d056 3b3e a583 2d3e
000002f0: 7377 42be e0de 543d 3928 b0bc 093f 47bc
00000300: afb8 543e e3f2 4dbe e363 b13d e507 4d3e
00000310: 001a 063e 28e9 cd3c 1a2b 243e 7c24 3dbe
00000320: 1c27 56be 6e65 12be be6b 2cbe 6cc7 4a3e
00000330: 9d2e d43d 7381 f93d 0790 28bd 6a9d fdbd
00000340: 1d10 84be 4069 513e 3851 2cbe 3605 37bd
00000350: 757b d5bd 9a07 723e 76aa 7fbe debf b23d
00000360: 96de 683e 4c24 133e 3245 6e3e 16d3 85be
00000370: df84 e03c 32d3 7c3c 232b 07bc 7e6c 4a3d
00000380: 961b 853e a798 663e d0b5 2f3e 0051 8e3e
00000390: 38dd 0ebe 0a2e cbbd 8ebb 61be cdf7 383e
000003a0: 6cd6 76bc 083f c03c 830e 4bbc 97aa 65be
000003b0: 9c46 81bc 8cb2 9abd 1c7d 8c3d 6311 903e
000003c0: 8ab5 453d 6d20 813e b974 52be 1d08 27bd
000003d0: 911f c73d e417 113d 6906 a5bd c63f 053e
000003e0: 0f3e f0bc 8482 2c3e 44d2 363d 2860 8abe
000003f0: fe0b 86bd 50ed 093e 7014 67be f4b2 14bd

network.0.bias f4 [128]
-0.21109383 -0.15928037 -0.0746612 0.18755245 0.21561986 0.23263171 -0.20274271 0.037052803
-0.002117572 0.015061298 0.03065342 0.13736403 0.21052405 -0.075777434 -0.20862457 -0.14708968
0.034041125 -0.018037837 -0.16041158 -0.23896515 0.27280882 -0.10391223 0.04480366 0.18393955
-0.15302208 -0.0927605 -0.17305598 0.18527561 -0.048061628 0.020624178 0.0656826 0.016316539
0.027416319 -0.19050531 -0.20408757 0.2886585 -0.15100622 0.23273058 0.22590357 0.12184048
0.14015494 0.15324177 0.048862323 0.21565717 0.18742691 0.21331161 0.25368387 0.15469322
0.028651927 0.035256285 0.19432661 -0.047600433 0.19500312 -0.09734564 -0.007961485 -0.07398278
-0.23148884 -0.20043415 0.1438806 -0.24208266 -0.049210716 -0.121100165 -0.045474596 0.07017045
-0.082652874 -0.0517988 0.016291944 -0.013961654 -0.2378911 -0.044301815 0.28196612 0.1903255
-0.21341784 0.12263139 -0.03398589 0.06330575 0.04381877 -0.18424459 0.26896438 0.09412325
-0.026911926 -0.12172588 0.22744559 -0.08497566 0.13436346 -0.024023809 0.24135071 0.075847976
0.13482094 0.08966375 -0.2039737 -0.16724503 0.11219711 -0.14206782 0.2235241 -0.16572402
0.27319708 -0.19216926 0.07983226 0.22546758 -0.224956 0.22022712 -0.14822407 0.021866461
0.14162292 0.112372234 0.2647922 0.1307915 0.13303296 -0.15552352 0.021165088 -0.2462416
0.21822529 -0.035021443 -0.034946717 -0.053095706 -0.11235774 0.017743647 0.21429828 0.11131449
-0.15744366 0.1811847 0.23984705 0.17088823 -0.021146955 0.28933188 0.27543196 -0.19779749
00000000: fb28 58be 651a 23be f9e7 98bd c00d 403e
00000010: 74cb 5c3e 0237 6e3e c99b 4fbe aec4 173d
00000020: f6c6 0abb aac3 763c e21c fb3c 28a9 0c3e
00000030: 9e93 573e 3331 9bbd aea1 55be ad9e 16be
00000040: b56e 0b3d 16c4 93bc ef42 24be 48b3 74be
00000050: 99ad 8b3e efcf d4bd 0b84 373d a65a 3c3e
00000060: d2b1 1cbe 38f9 bdbd 9635 31be e4b8 3d3e
00000070: 45dc 44bd 09f4 a83c 9984 863d 43aa 853c
00000080: 3098 e03c d313 43be 55fc 50be 0ccb 933e
00000090: 60a1 1abe ed50 6e3e 4453 673e 8087 f93d
000000a0: c784 0f3e 69eb 1c3e dc23 483d 3cd5 5c3e
000000b0: d7ec 3f3e 5c6e 5a3e dae2 813e e667 1e3e
000000c0: 72b7 ea3c e568 103d 8efd 463e acf8 42bd
000000d0: e6ae 473e 275d c7bd e370 02bc 4984 97bd
000000e0: 690b 6dbe 9c3e 4dbe 7055 133e 84e4 77be
000000f0: 2d91 49bd 5d03 f8bd 9243 3abd 86b5 8f3d
00000100: e945 a9bd fa2a 54bd af76 853c 6cbf 64bc
00000110: b999 73be d275 35bd dd5d 903e b0e4 423e
00000120: 358a 5abe 2b26 fb3d ca34 0bbd 72a6 813d
00000130: 507b 333d 9daa 3cbe b3b5 893e b1c3 c03d
00000140: 6676 dcbc 6b4b f9bd 7fe7 683e b807 aebd
00000150: 9396 093e 94cd c4bc a424 773e 2f56 9b3d
00000160: 800e 0a3e a1a1 b73d 7bde 50be 4842 2bbe
00000170: 99c7 e53d 3a7a 11be 80e3 643e 8fb3 29be
00000180: 7de0 8b3e 05c8 44be 197f a33d f9e0 663e
00000190: de5a 66be 3883 613e 0dc8 17be 4b21 b33c
000001a0: 9905 113e 6a23 e63d d892 873e 35ee 053e
000001b0: cb39 083e 8f41 1fbe 6862 ad3c c226 7cbe
000001c0: 7376 5f3e a572 0fbd 4a24 0fbd e27a 59bd
000001d0: d11b e6bd 205b 913c 0271 5b3e daf8 e33d
000001e0: e938 21be 7b88 393e 779a 753e 53fd 2e3e
000001f0: 613c adbc 4f23 943e 6b05 8d3e 6d8b 4abe

network.2.weight f4 [128, 128]
0.04139513 0.008434057 -0.015441053 0.020116055 -0.056665964 -0.09173688 0.07954804 -0.04100512
0.011262189 0.07000901 -0.04816629 -0.06527875 -0.06914709 -0.082426526 0.05109679 0.054705378
-0.08576326 -0.026338117 -0.0069033965 0.006854068 0.057736643 0.02924019 -0.03293074 0.038884155
0.0153592415 -0.074182756 -0.059664574 0.039247967 -0.005961914 0.013914038 0.030282464 0.026034731
0.060783654 0.008261758 0.01949823 0.0031482626 -0.0884104 -0.041370902 0.008250316 -0.07792819
-0.031209195 -0.040957183 -0.042743083 -0.014579869 -0.04196411 -0.071007535 -0.01713333 -0.019283192
-0.02314107 -0.023811953 -0.03273647 -0.01182394 -0.047192153 -0.067893825 0.03843289 -0.08178199
0.032719363 -0.0018203397 0.04469958 0.02897279 0.021346817 -0.016299626 0.033993337 0.021675982
-0.042197723 -0.04508804 0.022528153 0.028924242 0.067830235 -0.007630459 0.027544703 -0.027039848
0.017519247 0.024465112 -0.070625104 0.046571948 0.059927646 -0.006366458 0.03059326 -0.08318339
0.04887216 -0.042321116 0.06913758 -0.030181326 -0.06545386 0.006015822 -0.04184785 0.017657995
-0.07239517 -0.082542695 0.03180853 0.07359011 0.06790237 0.042207457 0.04020978 0.016670816
-0.058289435 -0.012009512 0.024091475 0.010858217 -0.055111602 -0.027712198 -0.016494434 -0.06026833
0.07070855 0.04041876 -0.033934973 -0.09502691 -0.06906181 -0.052647207 -0.08562762 0.018910838
0.031645626 -0.02686428 -0.084614664 -0.00030033293 -0.03322893 -0.018726842 -0.043539748 0.005966723
0.06706723 -0.0020374476 0.074923836 -0.043226868 -0.02913693 -0.0896795 0.049661092 -0.035388783
-0.059597977 -0.01406172 -0.08320366 -0.012121932 -0.048390932 -0.04361394 -0.07016259 0.0028853768
-0.046304412 0.07190054 0.026146108 -0.004555558 0.057316046 0.06939648 -0.081554666 0.022540629
0.013609344 0.055530004 0.051519398 0.043148376 -0.0331351 -0.06424043 0.08384554 0.0035988956
0.081282675 -0.06919677 -0.04570595 0.031106967 0.03923711 -0.0917161 0.02370383 0.0022901148
-0.06751589 0.067298524 0.062310778 0.026889645 0.075506866 -0.02827381 0.03616981 -0.07866124
-0.01097482 0.08385037 0.071862064 -0.021851664 -0.06993932 -0.027394976 -0.013378285 0.010709774
0.074527234 -0.001619349 -0.084313706 0.02245705 -0.02119856 -0.040190052 0.07416535 -0.022543242
0.08301945 -0.009542355 -0.02749533 0.03141782 -0.062455773 -0.030475177 -0.008993582 -0.065878436
0.0063664205 -0.058694914 -0.061794825 -0.030539243 0.072057836 -0.016060345 -0.013055872 0.036783297
0.018835692 0.056583185 0.08076301 0.037086885 -0.008372412 0.016466584 -0.046944857 0.05310695
-0.046472866 -0.029847337 0.006598349 -0.05988728 0.069955684 0.03240678 -0.020431316 -0.02276134
-0.0015113595 0.042610075 -0.06431725 -0.06695903 0.042255767 0.02412169 0.013550626 0.0827363
-0.07207119 -0.07970285 -0.020611815 -0.08714228 0.012136481 -0.030405674 0.083306 -0.009232089
-0.005880353 -0.017776767 -0.07367977 0.027516989 -0.045907456 0.0638637 -0.04906387 -0.055375233
0.073724374 0.018570876 0.03611968 -0.016103258 -0.032450568 0.014656157 0.041226193 -0.07404074
0.044868164 0.0013097038 0.0124777 0.051843904 0.06255283 -0.035584364 0.0120534 -0.010276478
00000000: f18d 293d 002f 0a3c 78fc 7cbc 6dca a43c
00000010: 921a 68bd 8ce0 bbbd 15ea a23d fcf4 27bd
00000020: 0b85 383c e260 8f3d 044a 45bd deb0 85bd
00000030: fd9c 8dbd 3dcf a8bd de4a 513d bf12 603d
00000040: a6a4 afbd 09c3 d7bc e335 e2bb 1798 e03b
00000050: 427d 6c3d 1f89 ef3c 62e2 06bd fe44 1f3d
00000060: 54a5 7b3c 21ed 97bd d762 74bd 7ac2 203d
00000070: 295c c3bb b5f7 633c ee12 f83c ca46 d53c
00000080: 48f8 783d 535c 073c c1ba 9f3c 1553 4e3b
00000090: 8310 b5bd 8974 29bd 552c 073c d198 9fbd
000000a0: 6daa ffbc b8c2 27bd 5f13 2fbd 67e0 6ebc
000000b0: 8fe2 2bbd 666c 91bd 335b 8cbc c9f7 9dbc
000000c0: 5792 bdbc 4911 c3bc ad16 06bd 33b9 41bc
000000d0: 8f4c 41bd eb0b 8bbd ce6b 1d3d 517d a7bd
000000e0: bd04 063d 7798 eeba e816 373d 5858 ed3c
000000f0: 85df ae3c cb86 85bc 993c 0b3d d491 b13c
00000100: 85d7 2cbd 3dae 38bd f68c b83c 88f2 ec3c
00000110: 94ea 8a3d ee08 fabb 6ea5 e13c ac82 ddbc
00000120: 8684 8f3c 0f6b c83c e5a3 90bd 3ac2 3e3d
00000130: b176 753d b89d d0bb b79e fa3c 0e5c aabd
00000140: 2d2e 483d e858 2dbd 0198 8d3d d43e f7bc
00000150: ac0c 86bd 5f20 c53b a768 2bbd 80a7 903c
00000160: eb43 94bd 250c a9bd a949 023d 69b6 963d
00000170: 6610 8b3d bae1 2c3d 03b3 243d 3c91 883c
00000180: e7c0 6ebd 8bc3 44bc 7c5b c53c aae6 313c
00000190: b4bc 61bd b104 e3bc 561f 87bc eddb 76bd
000001a0: a5cf 903d 248e 253d 66ff 0abd 789d c2bd
000001b0: 4770 8dbd 99a4 57bd 895d afbd e7ea 9a3c
000001c0: d89e 013d 7b12 dcbc 744a adbd 0176 9db9
000001d0: 0f1b 08bd 0969 99bc bc56 32bd 8084 c33b
000001e0: 8b5a 893d b386 05bb ab71 993d a80e 31bd
000001f0: 92b0 eebc e3a9 b7bd 6e69 4b3d d4f3 10bd
00000200: 021d 74bd 2163 66bc ae66 aabd 119b 46bc
00000210: 9235 46bd 88a4 32bd 67b1 8fbd 9718 3d3b
00000220: b2a9 3dbd 9740 933d 5d30 d63c ca46 95bb
00000230: 3bc4 6a3d be1f 8e3d 2206 a7bd 20a7 b83c
00000240: baf9 5e3c 6e73 633d 0106 533d 5abc 303d
00000250: acb8 07bd 7d90 83bd 36b7 ab3d 73db 6b3b
00000260: 8877 a63d 09b7 8dbd 2a36 3bbd 0ad4 fe3c
00000270: 18b7 203d a7d5 bbbd 892e c23c c015 163b
00000280: c545 8abd cfd3 893d 9639 7f3d ac47 dc3c
00000290: 58a3 9a3d 7a9e e7bc cb26 143d 2519 a1bd
000002a0: bbcf 33bc beb9 ab3d 6b2c 933d 4302 b3bc
000002b0: 593c 8fbd 6e6b e0bc 9830 5bbc 0c78 2f3c
000002c0: bca1 983d 5640 d4ba aaac acbd d9f7 b73c
000002d0: 9aa8 adbc 539e 24bd 01e4 973d 9bac b8bc
000002e0: 1a06 aa3d 8a57 1cbc e33d e1bc f9af 003d
000002f0: a0d1 7fbd 14a7 f9bc d159 13bc 46eb 86bd
00000300: 689d d03b 146a 70bd 921c 7dbd 6f2d fabc
00000310: 0f93 933d fc90 83bc 4ce8 55bc 15aa 163d
00000320: 4f4d 9a3c c5c3 673d 1467 a53d 6be8 173d
00000330: 712c 09bc eee4 863c 4049 40bd ac86 593d
00000340: 555a 3ebd 6782 f4bc f736 d83b 5d4c 75bd
00000350: ed44 8f3d f9bc 043d 935f a7bc fd75 babc
00000360: cf18 c6ba e787 2e3d c3b8 83bd d121 89bd
00000370: 6214 2d3d da9a c53c 7203 5e3c a671 a93d
00000380: 0f9a 93bd 3f3b a3bd 1cda a8bc a777 b2bd
00000390: 17d8 463c 5215 f9bc 569c aa3d 3042 17bc
000003a0: faaf c0bb 95a0 91bc 6be5 96bd 4f6b e13c
000003b0: 7509 3cbd f9ca 823d 32f7 48bd 24d1 62bd
000003c0: cefc 963d f321 983c 3bf2 133d fbea 83bc
000003d0: e3ea 04bd 6120 703c ccdc 283d aca2 97bd
000003e0: aec7 373d 5eaa ab3a 446f 4c3c 465a 543d
000003f0: b31b 803d e9c0 11bd a07b 453c ac5e 28bc

network.2.bias f4 [128]
-0.0492902 0.07609044 -0.055097014 -0.019102512 0.041413825 0.0667868 -0.06538147 0.08597755
-0.06978197 -0.007689714 -0.0634413 -0.015403857 0.009485548 -0.047902633 -0.050381977 0.035030805
-0.014101524 -0.05080994 -0.06200902 -0.092103444 0.012087591 0.008479422 -0.011872123 0.068038315
0.08660733 0.030954447 0.03274824 0.0032466825 -0.031134257 0.10516627 0.00076197967 0.07824524
-1.9085084e-05 0.045377735 0.104473256 0.03324091 -0.04242282 -0.036689766 0.07637006 0.026677879
0.03233036 -0.05751725 0.09353419 -0.004940711 0.033848036 0.07014447 0.031674083 -0.050679747
-0.034355808 -0.04145709 -0.017029675 0.07163182 0.09126996 -0.008832389 0.07537761 0.016518774
0.023881279 0.041620363 0.029959215 -0.04225711 -0.06164255 -0.051437233 -0.05623695 -0.01609222
0.009978503 0.011376041 -0.004950214 0.0073657087 0.02533329 0.05591825 0.0014865214 0.009998329
0.07407041 0.028610907 -0.07850944 -0.024423977 0.082825385 -0.07003272 -0.041971277 0.05936886
0.06537649 0.07292658 0.05545176 -0.028815513 0.020462865 0.06741259 -0.054412585 -0.018084167
0.05638231 -0.013766803 0.06626948 0.096589014 0.100093156 0.057828933 -0.047509033 -0.0074934517
0.07127651 -0.04656941 0.0002578579 0.040331285 -0.032816015 -0.011336447 0.041198045 -0.014840689
-0.033458598 -0.04354119 0.0971881 0.04218265 0.05954802 -0.024443394 0.011827254 -0.041785497
0.02068908 -0.029268067 4.73272e-05 -0.02280791 0.07351145 -0.057470255 0.05656079 0.0029011294
-0.039756093 0.08375805 0.007975628 0.023754155 -0.004699928 0.099795654 -0.051998083 -0.0919033
00000000: 85e4 49bd 4ed5 9b3d 68ad 61bd df7c 9cbc
00000010: 8ba1 293d 85c7 883d b8e6 85bd ff14 b03d
00000020: d9e9 8ebd fff9 fbbb 83ed 81bd 7660 7cbc
00000030: 4669 1b3c 8d35 44bd 555d 4ebd 767c 0f3d
00000040: 140a 67bc 151e 50bd 2cfd 7dbd bba0 bcbd
00000050: 080b 463c 46ed 0a3c 4b83 42bc ac57 8b3d
00000060: 2f5f b13d 2e94 fd3c 0523 063d 4bc6 543b
00000070: 450d ffbc 6a61 d73d 97bf 473a 0a3f a03d
00000080: e818 a0b7 01de 393d 13f6 d53d 9f27 083d
00000090: 8dc3 2dbd 0248 16bd e867 9c3d 918b da3c
000000a0: d76c 043d 3597 6bbd da8e bf3d b0e5 a1bb
000000b0: 3da4 0a3d e7a7 8f3d afbc 013d 9195 4fbd
000000c0: adb8 0cbd e9ce 29bd d181 8bbc b4b3 923d
000000d0: bfeb ba3d b9b5 10bc 945f 9a3d 6152 873c
000000e0: aca2 c33c 1d7a 2a3d 076d f53c cb15 2dbd
000000f0: e67c 7cbd d9af 52bd b758 66bd d5d3 83bc
00000100: e07c 233c 9362 3a3c 6835 a2bb 0b5c f13b
00000110: c387 cf3c 890a 653d 62d7 c23a 08d0 233c
00000120: 3ab2 973d 6c61 ea3c 8fc9 a0bd cb14 c8bc
00000130: 5ba0 a93d 516d 8fbd 13ea 2bbd c32c 733d
00000140: 1ce4 853d 885a 953d 6221 633d 830e ecbc
00000150: bda1 a73c 9d0f 8a3d bbdf 5ebd 3f25 94bc
00000160: 23f1 663d 288e 61bc 4bb8 873d 76d0 c53d
00000170: a4fd cc3d 08de 6c3d d598 42bd a18b f5bb
00000180: 6bf9 913d 91bf 3ebd 1a31 8739 6b32 253d
00000190: 166a 06bd 81bc 39bc 48bf 283d 5c26 73bc
000001a0: e20b 09bd 3f58 32bd 8e0a c73d b7c7 2c3d
000001b0: a0e8 733d 833d c8bc 19c7 413c 4527 2bbd
000001c0: 257c a93c 96c3 efbc 3281 4638 a7d7 babc
000001d0: 2c8d 963d ee65 6bbd 49ac 673d e020 3e3b
000001e0: 49d7 22bd 5789 ab3d 35ac 023c 1398 c23c
000001f0: db01 9abb aa61 cc3d f1fb 54bd cc37 bcbd

network.4.weight f4 [5, 128]
0.023066029 -0.05460179 0.077769004 -0.02282478 0.060191955 0.049666554 0.07395838 0.09432859
0.011693834 -0.0060467115 -0.04684275 -0.027878964 0.028640263 0.031039283 -0.0330965 0.0012567639
-0.00589573 -0.026770579 -0.027324809 -0.0494732 -0.008120387 -0.0019599637 0.08508671 -0.049217127
-0.008005714 -0.021961713 -0.071220204 0.04716484 -0.07713855 0.041930124 0.043449327 -0.025611963
0.070270665 -0.030816423 -0.026474873 -0.047860388 -0.04955363 0.03813717 -0.004590943 -0.07389109
-0.09087011 -0.005200275 0.016520571 -0.03049624 0.032230966 -0.0740494 -0.06989018 0.075509325
0.04190428 -0.040751528 -0.030389994 0.036005765 -0.015497292 0.06594066 0.051083405 0.026215127
0.05169832 -0.014589453 0.07782312 -0.0043679895 0.081566446 -0.052055474 0.07936432 0.019446699
-0.00072315894 -0.040523116 -0.06606556 -0.040882714 0.07364688 -0.022867644 0.075846 0.0020959096
-0.049968157 -0.051677633 0.070947856 -0.047806058 0.036800444 -0.042197675 -0.015737634 -0.084217556
0.012923448 -0.051630937 -0.03213352 -0.06824166 -0.015719008 -0.04383352 -0.07659524 -0.021459883
-0.012517223 -0.06515955 0.030488797 -0.050553966 -0.062475584 0.005751883 -0.08058211 0.031881124
-0.09548246 -0.046922997 -0.08120808 -0.046266418 -0.028665403 0.004625297 -0.03885142 0.047613718
0.013642999 0.06967713 -0.021803528 -0.008967242 -0.014344982 -0.0016326895 -0.0935975 -0.07801038
-0.090206824 0.042716224 0.011284203 0.062614106 -0.02816713 -0.09117662 0.004125828 -0.049237803
-0.003172748 -0.091847114 0.0045674145 0.013221866 0.069002256 -0.015065834 -0.01795821 -0.0026651481
-0.002895049 0.014572629 0.072155595 -0.09295889 -0.109048165 -0.061731458 -0.05892526 -0.05439951
0.003465657 -0.112212084 0.05543434 -0.10412817 0.028438 0.060532425 -0.02643799 0.07060052
0.04626795 -0.035995085 0.043841165 0.043154843 -0.108469024 0.05777038 0.020039441 0.06258078
-0.016745739 -0.032114092 -0.11227838 -0.012777047 -0.10016288 -0.07270291 -0.0051816306 -0.07052476
-0.035310823 0.057177316 0.041689724 0.07055116 -0.010673961 -0.11175126 0.0110965725 -0.09570053
-0.07006921 -0.058089476 -0.08856916 0.042138804 -0.043282926 -0.10647466 -0.06475943 0.014066117
-0.09248422 -0.1099078 0.0404005 0.00010817633 0.025809824 -0.079832815 -0.060569316 -0.035333443
0.038086817 -0.0068897256 -0.063186735 0.068672255 0.023678837 0.054918684 -0.009387635 0.0052000815
-0.0695405 -0.09043856 -0.07021354 0.06374353 -0.089013554 -0.10455531 0.039840627 -0.088057496
-0.11543182 -0.10455057 0.05142072 0.00811663 -0.02231922 -0.021400621 0.005960193 0.010174886
-0.005401336 0.045887526 -0.043607406 0.003705425 0.049621087 -0.0069717807 -0.03297324 -0.07812618
0.015236622 -0.06460915 -0.08355941 -0.010939566 -0.08970526 -0.10209313 0.03669851 0.06597007
-0.075441346 -0.043354668 -0.030417908 -0.088423416 -0.06064482 -0.023569757 -0.09974449 0.027639
0.071249604 0.064352736 -0.040205218 0.070692375 -0.10481395 -0.11638942 0.0657858 -0.06523227
0.037047524 0.054633893 -0.0028365261 -0.089578435 -0.06415469 0.07423543 0.02040991 -0.056974795
-0.014804387 -0.09122009 -0.10745075 -0.09128778 -0.0033463656 -0.06153003 -0.033161487 0.006922147
00000000: f8f4 bc3c 20a6 5fbd 5b45 9f3d 08fb babc
00000010: d78b 763d 286f 4b3d 7e77 973d 592f c13d
00000020: 7f97 3f3c 7e23 c6bb 2fde 3fbd 6d62 e4bc
00000030: fc9e ea3c 1846 fe3c 3290 07bd 00ba a43a
00000040: f830 c1bb f94d dbbc 47d8 dfbc 69a4 4abd
00000050: 5f0b 05bc bc72 00bb f141 ae3d e697 49bd
00000060: 662a 03bc 0de9 b3bc e6db 91bd eb2f 413d
00000070: d1fa 9dbd ecbe 2b3d ecf7 313d 2ed0 d1bc
00000080: 11ea 8f3d b972 fcbc d5e1 d8bc 4109 44bd
00000090: bff8 4abd b935 1c3d 9f6f 96bb 3654 97bd
000000a0: 1c1a babd 1267 aabb 2656 873c 40d3 f9bc
000000b0: 9e04 043d 36a7 97bd 9522 8fbd a2a4 9a3d
000000c0: d3a3 2b3d 13eb 26bd 70f4 f8bc c87a 133d
000000d0: 5be8 7dbc e60b 873d d53c 513d 1bc1 d63c
000000e0: 9ec1 533d 9a08 6fbc ba61 9f3d 5a21 8fbb
000000f0: 4f0c a73d 1f38 55bd c389 a23d af4e 9f3c
00000100: 6092 3dba 91fb 25bd 614d 87bd a274 27bd
00000110: 2dd4 963d ed54 bbbc 2655 9b3d 875b 093b
00000120: 69ab 4cbd edab 53bd 1c4d 913d 49d0 43bd
00000130: 10bc 163d 78d7 2cbd 36ec 80bc 417a acbd
00000140: dfbc 533c f67a 53bd 709e 03bd 49c2 8bbd
00000150: 26c5 80bc c78a 33bd f7dd 9cbd a3cc afbc
00000160: 0a15 4dbc 5f72 85bd a4c3 f93c ad11 4fbd
00000170: 66e6 7fbd 4b7a bc3b 3c08 a5bd c895 023d
00000180: 4f8c c3bd 5432 40bd 6c50 a6bd db81 3dbd
00000190: b5d3 eabc ce8f 973b ab22 1fbd 9a06 433d
000001a0: e386 5f3c e2b2 8e3d 509d b2bc 57eb 12bc
000001b0: 3707 6bbc f8ff d5ba 0cb0 bfbd e8c3 9fbd
000001c0: 5bbe b8bd 35f7 2e3d 61e1 383c d33b 803d
000001d0: c1be e6bc cfba babd f431 873b 94ad 49bd
000001e0: e1ed 4fbb 571a bcbd 40aa 953b 87a0 583c
000001f0: 0e51 8d3d b0d6 76bc 191d 93bc c4a9 2ebb
00000200: ddba 3dbb 09c2 6e3c 50c6 933d 3b61 bebd
00000210: a554 dfbd 20da 7cbd 9d5b 71bd 05d2 5ebd
00000220: 1320 633b 73cf e5bd 1e0f 633d 2641 d5bd
00000230: cff6 e83c d9f0 773d 7c94 d8bc 0197 903d
00000240: 7683 3d3d 956f 13bd cb92 333d 22c3 303d
00000250: 0225 debd a2a0 6c3d c129 a43c 5a2a 803d
00000260: 5c2e 89bc 118a 03bd 35f2 e5bd d256 51bc
00000270: 3222 cdbd 43e5 94bd abca a9bb 496f 90bd
00000280: 15a2 10bd c332 6a3d d8c2 2a3d 207d 903d
00000290: d6e1 2ebc d8dd e4bd 66ce 353c a4fe c3bd
000002a0: 7280 8fbd 3bef 6dbd bf63 b5bd bd99 2c3d
000002b0: 7049 31bd 630f dabd 98a0 84bd 9275 663c
000002c0: 5e68 bdbd 5717 e1bd ff7a 253d badc e238
000002d0: 206f d33c 637f a3bd 8817 78bd cdb9 10bd
000002e0: ec00 1c3d 35c3 e1bb 0c68 81bd 0aa4 8c3d
000002f0: 1ffa c13c 6af2 603d 98ce 19bc 7265 aa3b
00000300: 406b 8ebd da37 b9bd 1ecc 8fbd f88b 823d
00000310: bd4c b6bd 1821 d6bd ed2f 233d 7d57 b4bd
00000320: 8567 ecbd 9c1e d6bd 889e 523d 9dfb 043c
00000330: ccd6 b6bc 5b50 afbc b94d c33b 91b4 263c
00000340: b1fd b0bb 8ff4 3b3d ae9d 32bd b7d6 723b
00000350: 7b3f 4b3d 8973 e4bb f30e 07bd 9e00 a0bd
00000360: 06a3 793c cd51 84bd 3221 abbd de3b 33bc
00000370: 64b7 b7bd 3416 d1bd 2d51 163d 511b 873d
00000380: fe80 9abd aa94 31bd fa2e f9bc 5617 b5bd
00000390: b466 78bd 5d15 c1bc d746 ccbd 2f6b e23c
000003a0: 50eb 913d 5ecb 833d 3aae 24bd 2ac7 903d
000003b0: b2a8 d6bd 945d eebd b5ba 863d 7f98 85bd
000003c0: 25bf 173d cac7 5f3d 03e5 39bb e674 b7bd
000003d0: 8963 83bd bf08 983d af32 a73c 675e 69bd
000003e0: 1a8e 72bc 99d1 babd 240f dcbd 16f5 babd
000003f0: b34e 5bbb ea06 7cbd 57d4 07bd 2dd3 e23b

network.4.bias f4 [5]
-0.009045108 -0.05504671 0.028451094 -0.06391769 0.08727947
00000000: ef31 14bc a978 61bd 4512 e93c 47e7 82bd
00000010: 94bf b23d

network.0.weight f4 [128, 82]
0.10282803 -0.09054036 0.027279828 0.105891265 0.11884968 0.08977459 0.018380541 0.09348581
0.11224303 -0.10131404 -0.00888145 -0.08479269 -0.049172707 -0.17139107 0.0044281646 0.03931072
0.04701892 0.07420443 -0.039161533 0.058060154 -0.09713501 -0.09730982 0.05936482 -0.10491491
-0.01552121 -0.04280258 0.000909154 -0.068130046 0.007913024 0.017504966 -0.03089532 -0.0688504
-0.020300267 -0.048366897 -0.12840466 0.002585421 -0.022084361 0.008896949 0.031677075 -0.049093917
-0.054326367 -0.009931335 0.08353875 0.08595941 -0.026194202 -0.1600845 0.06554704 -0.02385188
0.011197887 -0.103097275 0.0067241667 -0.14668691 0.06472582 0.045221996 0.08989734 -0.03591262
0.021648474 0.10058493 0.005293464 0.10891131 -0.022450803 0.047695037 0.05804568 -0.056015346
-0.007063564 0.11058527 0.052984215 0.024366932 0.07880098 -0.09237337 0.041195594 0.068128645
0.07283956 -0.015249041 0.08769834 -0.061118137 0.035600588 0.035610896 0.06401163 0.059406403
0.076296955 0.026915764 -0.039279614 0.06954555 0.11319024 0.06960848 -0.0878843 -0.032406416
-0.115700886 -0.11888544 -0.059517626 -0.1036872 -0.07105 0.10218838 0.09980871 -0.0020786829
-0.007331788 -0.05926939 0.09304274 -0.033230953 0.058409944 0.032497723 -0.07671006 0.06600385
0.021792216 -0.061991535 0.020451445 0.033210076 0.05390768 0.12086863 0.07379982 -0.006602889
-0.0004842463 0.108149715 -0.0198739 -0.04664861 0.12376601 0.15177858 0.08828669 -0.025277287
-0.0044161733 -0.083777666 0.06945639 -0.08380096 -0.0043747597 -0.11094383 0.11973444 -0.05652861
-0.038635444 -0.03969358 -0.05466476 -0.05445955 0.11450382 -0.07373995 -0.0213444 -0.05012036
0.004700036 -0.106921576 -0.03116301 -0.027858622 0.002690682 0.013816552 -0.032976728 0.053852137
-0.042235147 -0.057981353 0.0745015 0.057659015 -0.034952376 0.005838684 -0.013131773 -0.12249119
-0.10165211 -0.09617375 -0.0651718 0.055310607 0.08608827 -0.10960428 0.017080972 -0.09926963
-0.048198286 0.12616593 -0.049054272 0.11443664 0.024637353 0.019649 -0.037570648 0.11473648
-0.06620997 0.019750927 0.07024002 -0.05191867 -0.051006272 0.107313916 0.031947568 -0.09740118
-0.03957395 -0.051219363 -0.14316596 0.02286783 0.05270998 -0.007877156 -0.049046014 0.029649736
0.07844425 0.038776692 0.027350612 -0.055257183 -0.051173985 0.006057968 0.12641379 -0.024944639
-0.02626965 -0.015198945 -0.07573056 0.02801325 0.11424108 0.038603656 0.08775745 0.033973236
-0.06828088 -0.0031059668 0.053626355 0.057843793 0.031088276 -0.017485589 0.074709125 -0.08766028
-0.11883431 0.0966601 -0.011178399 0.009197059 -0.026832568 -0.12775043 0.04360022 0.1378827
0.12550247 -0.14219104 0.018234769 -0.011693246 0.038165107 -0.08182578 0.053060375 -0.11210415
0.11455276 -0.05387166 0.09245134 0.061872546 -0.041215066 -0.08701608 0.107366145 0.11101399
0.011348905 0.07492521 -0.04390575 -0.015899986 -0.037789404 0.07610861 0.04989327 -0.049389753
0.06628731 -0.09415756 0.04227321 0.011613832 -0.06176132 -0.08318535 -0.069294944 -0.049599927
-0.0054628514 0.032337226 -0.019482497 0.08646244 -0.11008811 -0.0654474 -0.11514125 -0.098496005
00000000: 8197 d23d 396d b9bd f279 df3c 85dd d83d
00000010: 7667 f33d bedb b73d ca92 963c 7d75 bf3d
00000020: acdf e53d bc7d cfbd 8083 11bc caa7 adbd
00000030: 5269 49bd 2481 2fbe 231a 913b 4704 213d
00000040: e996 403d 7ef8 973d d867 20bd 7cd0 6d3d
00000050: b8ee c6bd 5f4a c7bd 8728 733d a1dd d6bd
00000060: ac4c 7ebc c251 2fbd 4b54 6e3a c487 8bbd
00000070: a1a5 013c 9366 8f3c 2f18 fdbc 7001 8dbd
00000080: bf4c a6bc 5e1c 46bd 837c 03be 2b70 293b
00000090: 43ea b4bc 82c4 113c d2bf 013d b416 49bd
000000a0: 5385 5ebd 0ab7 22bc 5d16 ab3d 7d0b b03d
000000b0: 3995 d6bc 31ed 23be 873d 863d 0565 c3bc
000000c0: 5877 373c aa24 d3bd 6656 dc3b 1835 16be
000000d0: f98e 843d b33a 393d 191c b83d 1d19 13bd
000000e0: 2458 b13c 79ff cd3d cb74 ad3b e50c df3d
000000f0: bfea b7bc df5b 433d 4fc1 6d3d 5970 65bd
00000100: 7875 e7bb 887a e23d fa05 593d 299d c73c
00000110: 6862 a13d 402e bdbd b6bc 283d 0887 8b3d
00000120: e82c 953d 1dd7 79bc 309b b33d 0357 7abd
00000130: ecd1 113d bbdc 113d 8818 833d 2154 733d
00000140: 9441 9c3d 737e dc3c a9e3 20bd e66d 8e3d
00000150: 49d0 e73d e48e 8e3d affc b3bd 97bc 04bd
00000160: 96f4 ecbd 367a f3bd c1c8 73bd f459 d4bd
00000170: aa82 91bd 2448 d13d 8268 cc3d 833a 08bb
00000180: 7f3f f0bb 76c4 72bd 318d be3d 2e1d 08bd
00000190: 443f 6f3d 551c 053d 2a1a 9dbd 072d 873d
000001a0: 9785 b23c d6ea 7dbd ca89 a73c 4a07 083d
000001b0: 4dce 5c3d f989 f73d 5c24 973d 0c5d d8bb
000001c0: 70e2 fdb9 997d dd3d 97ce a2bc 9d12 3fbd
000001d0: 0979 fd3d d86b 1b3e a7cf b43d 5012 cfbc
000001e0: 8cb5 90bb a093 abbd 273f 8e3d d69f abbd
000001f0: 255a 8fbb 8536 e3bd 5537 f53d 8b8a 67bd
00000200: 3340 1ebd bc95 22bd 28e8 5fbd fa10 5fbd
00000210: fb80 ea3d f904 97bd 73da aebc 024b 4dbd
00000220: c202 9a3b b3f9 dabd 9249 ffbc c437 e4bc
00000230: 2756 303b d25e 623c 9b12 07bd 0f94 5c3d
00000240: c3fe 2cbd db7d 6dbd 3e94 983d dc2b 6c3d
00000250: 392a 0fbd 6e52 bf3b a626 57bc a9dc fabd
00000260: fb2e d0bd bef6 c4bd cb78 85bd 608d 623d
00000270: 0c4f b03d 3578 e0bd 65ed 8b3c e04d cbbd
00000280: 916b 45bd a431 013e 22ed 48bd c25d ea3d
00000290: 46d4 c93c f1f6 a03c aee3 19bd f6fa ea3d
000002a0: 1899 87bd b2cc a13c 00da 8f3d aca8 54bd
000002b0: f4eb 50bd 66c7 db3d 74db 023d 457a c7bd
000002c0: 4b18 22bd 65cb 51bd 199a 12be 5155 bb3c
000002d0: 6ce6 573d 300f 01bc 79e4 48bd 01e4 f23c
000002e0: 61a7 a03d 4fd4 1e3d 640e e03c 5b55 62bd
000002f0: d09b 51bd eb81 c63b 9e72 013e b358 ccbc
00000300: 7333 d7bc ff04 79bc a018 9bbd 0b7c e53c
00000310: 3af7 e93d de1e 1e3d 2eba b33d 8527 0b3d
00000320: d9d6 8bbd 7a8d 4bbb 4fa7 5b3d 9ded 6c3d
00000330: d7ac fe3c f03d 8fbc 1901 993d 3c87 b3bd
00000340: 675f f3bd bbf5 c53d 9b25 37bc 43af 163c
00000350: f9cf dbbc 02d1 02be 2596 323d 1f31 0d3e
00000360: b883 003e 879a 11be 1561 953c 0795 3fbc
00000370: 0453 1c3d 4694 a7bd d655 593d dc96 e5bd
00000380: a39a ea3d 88a8 5cbd 2157 bd3d 116e 7d3d
00000390: 21d1 28bd 7d35 b2bd c8e2 db3d 4e5b e33d
000003a0: c2f0 393c 6372 993d 84d6 33bd b040 82bc
000003b0: 10c9 1abd d5de 9b3d e35c 4c3d e94c 4abd
000003c0: a4c1 873d aed5 c0bd ac26 2d3d f147 3e3c
000003d0: 70f9 7cbd 155d aabd 82ea 8dbd 4b29 4bbd
000003e0: b801 b3bb 0a74 043d c299 9fbc 3813 b13d
000003f0: e075 e1bd 4909 86bd 2dcf ebbd 46b8 c9bd

network.0.bias f4 [128]
-0.005022351 0.026930382 -0.009214328 -0.06667707 0.09000897 0.035881862 0.072679006 -0.09617206
-0.047985043 0.0186704 0.060993355 -0.0036432333 0.07578932 -0.12500992 0.07687615 0.056119964
0.067656584 -0.07857768 0.08870892 0.13964191 0.0969154 0.050489243 0.063622594 0.05183418
-0.040216044 -0.07558692 -0.031919256 -0.09892031 0.061600596 -0.05276888 0.049549583 0.026817884
0.030208442 -0.11811831 -0.086667106 0.0779366 -0.05505186 0.09654741 0.01340755 -0.10382421
0.08776497 0.072964735 -0.078278504 -0.0015829736 0.095027596 -0.103661284 -0.067614265 0.016149689
-0.027880788 0.12167469 -0.11076103 -0.041826103 0.07081192 0.06680529 -0.06598037 -0.1029716
0.10242786 -0.025755882 0.08537099 0.103975296 0.05497164 0.084095135 -0.03760181 0.055063497
-0.024019541 0.011328849 0.07743409 0.03829237 -0.05648055 0.018471306 -0.075593896 0.06394071
0.06331817 -0.10506238 0.04006175 -0.009339943 0.11658512 -0.042827416 0.039511878 -0.03693511
0.024874896 -0.09500552 -0.0015806567 0.08567516 0.06285157 0.011596615 0.054939166 0.08133821
-0.016090961 -0.0867003 -0.02274581 0.002553434 -0.025540534 0.030775148 -0.041312136 -0.016172683
-0.0965719 0.032383513 0.038140506 0.028639259 -0.04640514 0.0542232 -0.054359805 0.016434668
0.0019620608 0.06574499 -0.036535382 0.07088933 -0.011788462 -0.0007115716 0.07864947 0.10162453
0.008961582 0.08312598 -0.06864146 -0.051379938 -0.08614807 0.033538178 0.03698187 0.047881003
0.09160385 0.099180765 0.12937562 -0.012940816 0.026252786 0.021137655 -0.00610766 0.09676684
00000000: 8992 a4bb 1b9d dc3c b1f7 16bc fd8d 88bd
00000010: 9f56 b83d dcf8 123d bbd8 943d dbf5 c4bd
00000020: f78b 44bd abf2 983c 2bd4 793d 50c3 6ebb
00000030: 6e37 9b3d 9a02 00be 3e71 9d3d 0cde 653d
00000040: 898f 8a3d 56ed a0bd 06ad b53d 4afe 0e3e
00000050: 957b c63d cfcd 4e3d 904c 823d 1450 543d
00000060: 94b9 24bd 51cd 9abd c4bd 02bd bb96 cabd
00000070: e850 7c3d 2e24 58bd 81f4 4a3d 2eb1 db3c
00000080: b277 f73c 03e8 f1bd 867e b1bd 399d 9f3d
00000090: 0f7e 61bd a6ba c53d 57ab 5b3c caa1 d4bd
000000a0: 1fbe b33d 896e 953d 7b50 a0bd c87b cfba
000000b0: d49d c23d 5e4c d4bd 5979 8abd 5a4c 843c
000000c0: 4066 e4bc 9430 f93d aed6 e2bd d951 2bbd
000000d0: d705 913d 36d1 883d b720 87bd c6e2 d2bd
000000e0: b3c5 d13d 00fe d2bc fcd6 ae3d 00f1 d43d
000000f0: f129 613d 123a ac3d 5b04 1abd 438a 613d
00000100: a1c4 c4bc a39c 393c c495 9e3d 76d8 1c3d
00000110: 2658 67bd 2351 973c f9d0 9abd 59f3 823d
00000120: f5ac 813d f22a d7bd ca17 243d 8f06 19bc
00000130: 2ec4 ee3d cd6b 2fbd 35d7 213d 4549 17bd
00000140: 70c6 cb3c 4192 c2bd 0a2e cfba 7576 af3d
00000150: 53b8 803d bbff 3d3c e407 613d a694 a63d
00000160: 31d1 83bc ed8f b1bd 6c55 babc 8457 273b
00000170: 623a d1bc 2a1c fc3c ea36 29bd 937c 84bc
00000180: 7dc7 c5bd 93a4 043d 3839 1c3d e19c ea3c
00000190: 5113 3ebd 2519 5e3d 63a8 5ebd ffa1 863c
000001a0: eb95 003b 4fa5 863d 20a6 15bd 6d2e 913d
000001b0: 6524 41bc c388 3aba f912 a13d 8620 d03d
000001c0: 99d3 123c f43d aa3d e593 8cbd c573 52bd
000001d0: 666e b0bd 545f 093d 4d7a 173d df1e 443d
000001e0: cd9a bb3d 491f cb3d 0b7b 043e b705 54bc
000001f0: 1510 d73c e028 ad3c c422 c8bb b12d c63d

network.2.weight f4 [128, 128]
-0.08722709 -0.0131173795 0.06344586 -0.007920026 0.026677828 -0.05884595 0.025244558 -0.03868352
0.014059076 0.052264184 0.014138194 -0.04199419 0.03258796 -0.04324023 0.026088111 -0.05050307
-0.07678273 -0.07714517 -0.04426256 0.06152588 -0.080715574 0.07144692 -0.07257002 -0.049749505
-0.012982171 -0.0314007 0.017533444 -0.04953354 0.047341347 -0.101689756 0.074159555 0.0067289216
-0.09182197 -0.06540038 -0.064681366 0.045061275 -0.041186556 0.028285442 -0.06491203 -0.0721731
-0.070613466 0.031106178 0.038832005 0.03035556 -0.09000496 0.07537521 0.051728647 -0.0019838207
-0.07617559 -0.08825475 -0.012218045 0.022000076 -0.016229246 5.2388124e-05 -0.093984574 0.053295374
-0.0037163456 0.015165419 -0.07867853 0.07152487 -0.042813014 0.0012484898 0.050517324 -0.0038328122
-0.03889786 -0.03603997 -0.050182298 0.06604005 0.015701815 -0.053755037 -0.057304032 -0.0071279886
-0.03866943 0.017199345 -0.064513125 0.0111473035 -0.086095154 0.06813992 0.026656486 -0.015756272
0.0095945485 -0.09082668 -0.008061825 -0.07232996 0.023180963 0.057084292 -0.08469879 -0.005839781
0.05880862 0.068430714 -0.03937001 0.033093844 -0.025091184 -0.043492645 -0.046478763 0.04471645
0.05067927 0.016776845 -0.07544196 0.061675377 0.018861523 0.0064385873 -0.06664065 -0.0701868
0.06483764 -0.07147939 0.023849506 0.07788851 0.045670018 -0.023443058 -0.076462634 -0.044714123
0.075204864 0.04004726 0.03804454 -0.08374839 -0.05270824 -0.007120288 0.019755134 -0.009927473
0.046866927 -0.014525427 0.038140222 -0.057862822 -0.04816778 0.00092894025 0.03110862 0.075157374
-0.08198747 -0.03180051 -0.07331533 -0.075195104 -0.049493372 -0.056987803 0.033534832 -0.03474445
-0.09340604 -0.08028542 -0.040382534 0.011161237 -0.014171183 0.005139446 0.010433877 -0.069251515
-0.06906757 -0.03441084 -0.09329653 0.030137625 -0.04898026 -0.035021186 0.03656665 -0.09003277
-0.048687506 0.034511473 -0.06440238 0.060771544 -0.06713191 -0.029262768 0.02064088 -0.00043019652
-0.046575412 -0.083400786 -0.01254509 -0.01947924 0.005567777 -0.07070689 -0.024713244 0.019612748
-0.02806579 0.057101883 0.09034034 -0.029045267 0.00764609 -0.023204774 -0.0024668353 -0.07025627
0.036468 -0.03215602 -0.074977495 0.042672206 -0.02264955 0.023436945 -0.06253923 0.051197868
-0.088486776 -0.009451318 -0.044729076 -0.05846513 0.02545096 -0.048128255 0.06604023 0.043994434
0.071518555 0.07166744 0.005836095 -0.0005364197 0.027887795 -0.009798124 -0.022537004 0.012804254
-0.03316497 0.06546912 0.032930758 -0.07915399 -0.059541713 0.029939696 -0.01204024 0.06553128
0.0693457 0.0017328231 0.038106136 -0.010316104 0.02293651 0.10732785 0.046466924 0.07785407
-0.08290962 0.046602376 -0.100297 -0.03425407 0.053788602 -0.045630567 0.07478681 -0.027432648
0.059740543 -0.03122266 -0.0045049237 -0.08915921 -0.008516621 0.048856076 0.023229081 0.011141588
0.026473971 0.027579335 -0.060810424 -0.08492193 -0.030605055 -0.065691926 0.040623397 -0.036276877
-0.0710279 0.025679065 0.069634736 -0.011406222 -0.017666202 -0.004549378 0.06569492 0.06594724
-0.009520631 0.028895803 -0.06695399 -0.017351251 0.08022861 0.016017972 0.07605928 -0.01935503
00000000: 1ea4 b2bd 47ea 56bc e7ef 813d ffc2 01bc
00000010: 768b da3c 7308 71bd adcd ce3c 9c72 1ebd
00000020: 0a58 663c f812 563d e2a3 673c 1a02 2cbd
00000030: f47a 053d ab1c 31bd bcb6 d53c 4fdc 4ebd
00000040: 4440 9dbd 49fe 9dbd a84c 35bd 9002 7c3d
00000050: 354e a5bd c352 923d 979f 94bd 23c6 4bbd
00000060: 2cb3 54bc 059e 00bd 4ca2 8f3c aee3 4abd
00000070: 00e9 413d b842 d0bd f7e0 973d 497e dc3b
00000080: 280d bcbd a2f0 85bd aa77 84bd 2c92 383d
00000090: 3cb3 28bd dfb6 e73c 99f0 84bd 7ecf 93bd
000000a0: cb9d 90bd 62d2 fe3c 4f0e 1f3d 39ac f83c
000000b0: 8554 b8bd 515e 9a3d 6be1 533d fd02 02bb
000000c0: f301 9cbd e8be b4bd 322e 48bc 8139 b43c
000000d0: 32f3 84bc 52bb 5b38 fc7a c0bd 404c 5a3d
000000e0: ef8d 73bb 6178 783c 3622 a1bd a27b 923d
000000f0: b35c 2fbd 5ea4 a33a 41eb 4e3d eb2f 7bbb
00000100: 5d53 1fbd a69e 13bd f48b 4dbd 0140 873d
00000110: 18a1 803c 3e2e 5cbd a2b7 6abd e791 e9bb
00000120: d663 1ebd a4e5 8c3c 751f 84bd 2ea3 363c
00000130: a852 b0bd f18c 8b3d b45e da3c 4c13 81bc
00000140: 7432 1d3c 5703 babd bf15 04bc bb21 94bd
00000150: 01e6 bd3c 38d1 693d 8f76 adbd a25b bfbb
00000160: 4fe1 703d 6725 8c3d 7342 21bd 698d 073d
00000170: 078c cdbc 5825 32bd 8460 3ebd 9928 373d
00000180: 1195 4f3d 986f 893c 5081 9abd 529f 7c3d
00000190: 7b83 9a3c c9fa d23b e57a 88bd 19be 8fbd
000001a0: 99c9 843d c963 92bd 0a60 c33c 0384 9f3d
000001b0: 7c10 3b3d a80b c0bc 7198 9cbd 2826 37bd
000001c0: 0205 9a3d 9808 243d 97d4 1b3d 4784 abbd
000001d0: 98e4 57bd 4e51 e9bb 85d5 a13c d7a6 22bc
000001e0: 89f7 3f3d 0efc 6dbc ec38 1c3d 9101 6dbd
000001f0: 944b 45bd 2084 733a 81d7 fe3c 1cec 993d
00000200: 0ce9 a7bd 4041 02bd 5926 96bd e4ff 99bd
00000210: 90b9 4abd 0b6c 69bd d25b 093d 3250 0ebd
00000220: aa4b bfbd af6c a4bd 2868 25bd 9fdd 363c
00000230: 402e 68bc cc68 a83b daf2 2a3c bdd3 8dbd
00000240: 4c73 8dbd 62f2 0cbd 4012 bfbd 2ee3 f63c
00000250: 869f 48bd 6072 0fbd e9c6 153d 1a63 b8bd
00000260: 8d6c 47bd e75b 0d3d 65e5 83bd 95eb 783d
00000270: 747c 89bd 79b8 efbc 1017 a93c 008c e1b9
00000280: dcc5 3ebd 08ce aabd ec89 4dbc ed92 9fbc
00000290: e671 b63b c6ce 90bd 6e73 cabc eaaa a03c
000002a0: 3aea e5bc aae3 693d 5b04 b93d 57f0 edbc
000002b0: 0d8c fa3b f017 bebc a1aa 21bb 85e2 8fbd
000002c0: 785f 153d 08b6 03bd cd8d 99bd 0dc9 2e3d
000002d0: 8d8b b9bc d6fe bf3c 9114 80bd dbb4 513d
000002e0: 8e38 b5bd b3d9 1abc d635 37bd 2279 6fbd
000002f0: 887e d03c 2222 45bd 1a40 873d 8233 343d
00000300: 5278 923d 61c6 923d b73c bf3b 849e 0cba
00000310: f274 e43c 5088 20bc 869f b8bc efc8 513c
00000320: fed7 07bd ad14 863d 67e2 063d 7d1b a2bd
00000330: 03e2 73bd 1844 f53c 6d44 45bc 4435 863d
00000340: 1e05 8e3d e51f e33a 2e15 1c3d e004 29bc
00000350: 59e5 bb3c b4ce db3d 1a54 3e3d f471 9f3d
00000360: 85cc a9bd 22e2 3e3d 8368 cdbd ff4d 0cbd
00000370: 7051 5c3d 1ee7 3abd d429 993d 6fba e0bc
00000380: 80b2 743d aac6 ffbc 0a9e 93bb 1b99 b6bd
00000390: 4c89 0bbc 4f1d 483d ea4a be3c 358b 363c
000003a0: f1df d83c 0fee e13c 5a14 79bd 8deb adbd
000003b0: 74b7 fabc 7d89 86bd b864 263d 1097 14bd
000003c0: 1377 91bd e75c d23c a89c 8e3d 2ae1 3abc
000003d0: b6b8 90bc f312 95bb 0f8b 863d 590f 873d
000003e0: 6cfc 1bbc e4b6 ec3c 2c1f 89bd 3624 8ebc
000003f0: e64e a43d 1f38 833c f8c4 9b3d 718e 9ebc

network.2.bias f4 [128]
0.055734392 -0.08237967 -0.0019576433 0.04952514 0.018382384 -0.054593448 0.029520331 0.031349085
-0.026386043 0.022022858 -0.029463118 -0.019793924 -0.07507804 -0.059990376 0.06197697 0.100673586
0.07455274 0.050790846 0.05607742 0.065024965 -0.04954172 0.07163291 0.04454749 0.032573596
0.0344332 0.016705163 0.043103382 -0.018546596 -0.01016136 -0.05118524 0.0062986994 -0.057252232
-0.07424233 0.09336737 0.014011768 -0.03905422 -0.017181996 0.057779096 -0.027244564 -0.05903865
0.071768425 -0.013223744 0.013928768 -0.07046199 0.052069772 0.09033099 0.041751817 -0.075485006
-0.048564784 -0.060909435 -0.056444436 -0.028338155 -0.023861816 -0.09430672 -0.013728129 -0.0027378742
0.034244608 0.0014419053 0.06686243 -0.05803612 -0.055773374 -0.013023821 -0.06673051 -0.040047757
-0.037050355 0.027000984 -0.054991577 0.018097252 -0.038609594 0.02669721 0.0067057176 0.054268867
-0.04913251 0.09700384 0.07675942 -0.01854648 0.07360946 0.058613364 0.0028788368 -0.013599498
-0.0581098 -0.06976737 -0.053926367 -0.021407027 0.002420923 0.009079299 0.069639415 0.03534664
-0.09011074 -0.0399083 -0.044062365 -0.04794297 -0.052832957 0.099311925 0.04485129 -0.01894787
0.037142787 0.059207488 0.051431205 0.062152654 -0.10626637 0.062762804 -0.06765169 -0.0013122604
0.076040596 -0.026421882 0.06852029 0.013197162 -0.08120439 -0.06940114 -0.07284399 -0.012936704
0.05198886 -0.0063979784 0.039411135 -0.0932994 -0.074012645 -0.05309532 -0.013914195 -0.06610502
0.041624002 0.055066735 -0.07493392 -0.030388532 0.05428717 0.049926385 -0.009922766 0.011345256
00000000: bf49 643d acb6 a8bd ce4b 00bb e0da 4a3d
00000010: a796 963c 619d 5fbd 9fd4 f13c e667 003d
00000020: 8b27 d8bc 4869 b43c a35c f1bc de26 a2bc
00000030: 84c2 99bd 78b8 75bd 90db 7d3d f42d ce3d
00000040: 1baf 983d 100a 503d 70b1 653d cf2b 853d
00000050: 42ec 4abd 46b4 923d 6e77 363d e46b 053d
00000060: d409 0d3d 44d9 883c 2c8d 303d 08ef 97bc
00000070: d57b 26bc 9da7 51bd 5265 ce3b 5181 6abd
00000080: 5d0c 98bd 6437 bf3d 9d91 653c 51f7 1fbd
00000090: 42c1 8cbc c6a9 6c3d fe2f dfbc 83d2 71bd
000000a0: 53fb 923d 67a8 58bc 7d35 643c 604e 90bd
000000b0: 1d47 553d 74ff b83d f403 2b3d e297 9abd
000000c0: deeb 46bd 2c7c 79bd 4832 67bd 6b25 e8bc
000000d0: db79 c3bc e223 c1bd f2eb 60bc e86d 33bb
000000e0: 1344 0c3d 50fe bc3a 2bef 883d 48b7 6dbd
000000f0: 9f72 64bd dd61 55bc 01aa 88bd 1e09 24bd
00000100: 1dc2 17bd 2b31 dd3c d93e 61bd b040 943c
00000110: 1825 1ebd 1bb4 da3c a3bb db3b 0849 5e3d
00000120: 2c3f 49bd f3a9 c63d 0b34 9d3d caee 97bc
00000130: 8ec0 963d 9114 703d deaa 3c3b 6ed0 5ebc
00000140: 8b04 6ebd 32e2 8ebd e5e1 5cbd ca5d afbc
00000150: 59a8 1e3b 57c1 143c 1c9f 8e3d a3c7 103d
00000160: fb8b b8bd e376 23bd bd7a 34bd d95f 44bd
00000170: 5f67 58bd 0d64 cb3d fcb5 373d 9038 9bbc
00000180: 0923 183d 8d83 723d 87a9 523d c893 7e3d
00000190: 2fa2 d9bd c989 803d f88c 8abd 2700 acba
000001a0: 2cbb 9b3d b472 d8bc 5e54 8c3d e938 583c
000001b0: 7d4e a6bd 2f22 8ebd 3b2f 95bd 78f4 53bc
000001c0: 45f2 543d 22a6 d1bb 926d 213d c113 bfbd
000001d0: f193 97bd 7a7a 59bd 5df8 63bc 1262 87bd
000001e0: ee7d 2a3d a88d 613d f476 99bd 5ff1 f8bc
000001f0: 395c 5e3d 9c7f 4c3d 1993 22bc 74e1 393c

network.4.weight f4 [1, 128]
0.0002082903 0.052431334 -0.1443826 0.06773686 0.07115706 0.05214707 -0.10315991 -0.080253005
-0.079358734 0.13075332 0.11423559 0.08331631 -0.09357159 -0.072138324 -0.07531074 -0.114853606
-0.118080705 0.004879296 -0.09847862 -0.12048345 -0.0686913 -0.07798722 -0.085290685 -0.07186562
-0.027149 -0.07718283 0.053907715 0.020684639 0.022902327 0.04085894 0.057100065 -0.07844773
0.10624457 -0.11193498 0.08793844 0.005482735 -0.081045136 -0.097042985 -0.077923864 0.037693873
0.063327804 -0.13740574 0.047746666 -0.100443944 0.101144955 0.07939575 -0.09310312 0.11644851
-0.063737996 -0.13742779 0.0652265 -0.14426965 -0.13557675 0.049705002 -0.075552724 0.11251076
-0.085618384 0.051304925 0.11277442 -0.15119565 0.08654227 0.10103201 -0.12995653 0.06762043
0.09039094 -0.04415086 -0.07768358 0.016152363 -0.09998241 -0.12417091 -0.124987036 0.056686487
-0.11049089 -0.13624232 0.13010654 0.058320865 -0.12146798 0.14449431 0.028750712 -0.14108291
-0.10988171 0.05290564 0.07745102 0.017426884 0.0808928 0.07641888 0.13708186 0.0028112733
0.0039241766 0.10379516 0.034665853 0.09623546 0.010898103 -0.107216276 -0.123727985 -0.09643772
0.022569392 -0.09222053 -0.11596316 -0.048747826 -0.06010622 0.05605725 0.06974852 0.03799171
-0.099140555 -0.062139414 -0.1183797 -0.115957 0.043010216 0.0027927682 -0.123882994 0.11115173
0.006934849 -0.07296778 0.00020289278 0.0387629 0.054003716 0.06550329 0.037587043 0.05484425
-0.12078019 -0.06781825 -0.079788655 -0.10135014 0.033148624 -0.13392758 0.061887577 0.097523205
00000000: 8068 5a39 3dc2 563d 08d9 13be 9fb9 8a3d
00000010: cbba 913d 2b98 553d 8145 d3bd b05b a4bd
00000020: d586 a2bd 33e4 053e 59f4 e93d bea1 aa3d
00000030: 76a2 bfbd 42bd 93bd 843c 9abd 5e38 ebbd
00000040: 4cd4 f1bd 80e2 9f3b 29af c9bd 07c0 f6bd
00000050: 06ae 8cbd c3b7 9fbd e2ac aebd 482e 93bd
00000060: 9467 debc 0812 9ebd 56ce 5c3d d572 a93c
00000070: a99d bb3c b45b 273d c2e1 693d 34a9 a0bd
00000080: c196 d93d 2b3e e5bd 1219 b43d 84a8 b33b
00000090: fefa a5bd 79be c6bd 8c96 9fbd e464 1a3d
000000a0: 02b2 813d 17b4 0cbe 0292 433d 8eb5 cdbd
000000b0: 1625 cf3d 3d9a a23d d9ac bebd 8e7c ee3d
000000c0: 1189 82bd dfb9 0cbe 7995 853d 6cbb 13be
000000d0: a2d4 0abe 7997 4b3d 63bb 9abd 0b6c e63d
000000e0: b158 afbd 1d25 523d 46f6 e63d 08d3 1abe
000000f0: 133d b13d dfe9 ce3d 5313 05be 947c 8a3d
00000100: e31e b93d 88d7 34bd 9218 9fbd f651 843c
00000110: 94c3 ccbd 514d febd 34f9 ffbd 1730 683d
00000120: 0c49 e2bd 1b83 0bbe a63a 053e dce1 6e3d
00000130: 34c4 f8bd 51f6 133e 9d86 eb3c 0a78 10be
00000140: a909 e1bd 96b3 583d a49e 9e3d d3c2 8e3c
00000150: 20ab a53d 8081 9c3d 305f 0c3e 573d 383b
00000160: 6196 803b 8f92 d43d c8fd 0d3d 1917 c53d
00000170: f58d 323c 3594 dbbd 1965 fdbd 2481 c5bd
00000180: 72e3 b83c 1ede bcbd 187e edbd cdab 47bd
00000190: f131 76bd 499c 653d 50d8 8e3d 329d 1b3d
000001a0: 340a cbbd e685 7ebd 0e71 f2bd dd7a edbd
000001b0: 7b2b 303d e006 373b 5eb6 fdbd 85a3 e33d
000001c0: bb3d e33b 2270 95bd 9ebf 5439 d9c5 1e3d
000001d0: 0033 5d3d 9726 863d dff4 193d 5da4 603d
000001e0: 9b5b f7bd 4be4 8abd 3c68 a3bd aa90 cfbd
000001f0: dac6 073d 5024 09be d47d 7d3d 3fba c73d
