models/Level3/checkpoint_3000/adversary_0.pth (torch, 288432 bytes, 6 tensors)

net.0.weight f4 [256, 16]
000000 ce 47 1c be 7f f5 30 3d d3 d6 7e bc cf aa 23 be
       -0.15261766 0.043202873 -0.015554148 -0.15983127
000010 87 27 4d be 91 1f ba bd a6 c0 b9 bb 69 d6 8b 3d
       -0.2003461 -0.09088052 -0.0056687174 0.06828005
000020 ee 29 c0 3d 0a 16 1d 3e f6 9b 2e 3e cb 5b dc 3d
       0.093829975 0.15340438 0.17051682 0.107596956
000030 d0 ec 17 be 74 e4 0c be 36 85 47 3e 21 00 48 be
       -0.1483643 -0.13759023 0.1948441 -0.19531299
000040 a2 df b3 bd 01 60 0f 3e f3 0b f7 bd fa b9 08 3e
       -0.08782889 0.14001466 -0.12062826 0.13352194
000050 d8 23 61 be a5 05 0e 3e 5a f1 b4 bc c6 00 d2 bd
       -0.2198633 0.1386934 -0.022087742 -0.10254054
000060 9e fc 00 be 14 2f 67 bd 46 71 0f 3e 41 fb 6d 3c
       -0.12596366 -0.05644138 0.14008054 0.014525236
000070 81 8d 89 3d 09 f6 f6 3d 30 b2 6a 3e c0 49 15 3e
       0.06716443 0.12058646 0.22919536 0.14578915
000080 bd 12 73 3d de cd 1d 3c 8e ec 52 3e bc c2 47 be
       0.059344042 0.009631602 0.20598051 -0.19507879
000090 91 14 ed bc 54 ea 9c bd fa 2d 84 bd 5d 0e 42 3e
       -0.02894047 -0.07661882 -0.06454082 0.18950792
0000a0 a3 88 58 be 2a 20 37 be 3a e9 2b be dd c0 e1 3d
       -0.21145873 -0.17883363 -0.16788188 0.11023114
0000b0 d3 6d 08 be f3 3a d2 bd 64 b3 04 3e a4 a4 cb bc
       -0.13323145 -0.1026515 0.12959057 -0.02485878
0000c0 92 90 2c be 20 b5 a6 3d 72 99 10 be 12 75 02 be
       -0.16852024 0.081400156 -0.14121035 -0.12739971
0000d0 c7 e5 bb 3d 8a 0e e9 3d 61 ea 48 3e d0 ae d0 3d
       0.09174686 0.11379726 0.19620658 0.10189593
0000e0 06 0c 5d be 44 1e 61 bd e0 a2 8c bd ef 54 04 be
       -0.21586618 -0.054960504 -0.068670034 -0.12923025
0000f0 fa 9b 36 3e 3c 50 00 bd 1d 6d eb bd 69 86 1f 3e
       0.17832938 -0.031326517 -0.11495421 0.15578617
000100 65 f7 a4 bd 25 d2 17 be 89 0b 29 3e b3 71 6d 3e
       -0.08054999 -0.14826258 0.16508307 0.23187904
000110 8f 95 5f be 04 2b 88 3d 95 18 c1 bd 3a 35 5a be
       -0.21834396 0.066488296 -0.09428517 -0.21309367
000120 bf a5 79 3e 8b 12 44 3e 3c 94 54 be 09 64 d9 3b
       0.24379633 0.19147699 -0.20759672 0.0066342396
000130 b7 99 d0 bd 2a 0c 5a 3d c4 94 33 bd e4 b1 c2 bb
       -0.10185569 0.053234257 -0.043843046 -0.0059416164
000140 73 1f 67 3e a8 af e5 3d 8d 3e 18 3d fe f8 84 be
       0.2257059 0.112151444 0.037169028 -0.25971216
000150 df a4 53 be c8 5e 48 be d3 6e 35 3e 0a bc 09 3e
       -0.20668362 -0.19567406 0.17718057 0.13450637
000160 20 e6 1c 3e f8 61 51 3e 5c a5 51 3d 55 ab 6f 3d
       0.1532216 0.20447528 0.05118309 0.058513004
000170 58 36 3b 3e 79 4e 05 3e 31 0c 98 bd 08 93 b4 3d
       0.18282449 0.13018216 -0.074242 0.088171065
000180 52 0a cd bc 2a 04 0b 3d 43 b3 5f be 91 68 c2 bd
       -0.025029335 0.033939518 -0.21845727 -0.09492601
000190 d8 7d 17 be 2c e5 a0 3c 91 36 4a be 27 fd 79 be
       -0.147941 0.019640528 -0.19747378 -0.24412976
0001a0 ed 06 23 3e 42 3a 41 be 6f 10 33 3e c2 7c b7 3d
       0.1592061 -0.1886988 0.17486738 0.089593425
0001b0 0a 79 23 3e 4a be fd 3d 04 27 7c 3e 9a 34 39 3e
       0.15964141 0.123898104 0.24624258 0.18086472
0001c0 2b 4a 89 3d cd e1 17 3e 1e c8 95 3d 38 26 06 3e
       0.067035995 0.1483223 0.0731356 0.13100517
0001d0 b7 1e 18 be ba 2e 05 be 3d cd 7d 3e 04 32 32 3e
       -0.14855467 -0.13006106 0.24785323 0.17401892
0001e0 7a 8a 77 3e 17 0c 7d 3e 40 1d c0 3d f0 a0 09 3e
       0.24173918 0.24711643 0.09380579 0.13440299
0001f0 fa cb 2c be 00 1f 48 3e e8 84 3e 3e 47 6b bf bd
       -0.16874686 0.19543076 0.18605387 -0.093466334
000200 74 cd 02 3e f9 2c 3a 3e 6a df 38 3e 0d 2a 42 3e
       0.12773687 0.18181218 0.18053976 0.18961354
000210 d6 42 77 bd fb 93 91 bd c9 56 1a bd 07 85 5a 3e
       -0.060366474 -0.07108303 -0.03768042 0.21339808
000220 65 c9 83 be 59 b8 fc bd 2f ed 86 3d c6 71 f0 bc
       -0.2573959 -0.12339849 0.06588208 -0.029351126
000230 42 48 68 be 65 16 76 bd f0 d7 6e bc 4b 26 c8 bd
       -0.22683814 -0.06007995 -0.014577851 -0.09772929
000240 25 d2 43 3d 0c 73 77 3d e5 cb 80 be 7b 37 03 3d
       0.04780783 0.06041245 -0.2515556 0.032035332
000250 23 80 05 3d bb 9e af 3a 8d 79 76 bd bf 8f ba 3d
       0.032592904 0.0013398746 -0.060174514 0.09109449
000260 6e 1f 5a be 7a 20 67 be a7 a6 08 bb 7b 6f dc 3d
       -0.21301052 -0.22570983 -0.0020851286 0.10763451
000270 13 d0 36 3e 15 04 68 3e 76 96 42 be 81 48 87 bd
       0.17852812 0.22657807 -0.19002709 -0.06605626
000280 41 bf 6a 3e 31 e0 a0 3c 64 5d 5f 3d 8c 1a ee 3d
       0.2292452 0.019638153 0.054532424 0.11626157
000290 a6 76 13 3d 13 eb 60 be 3e 7b 07 be 05 53 0c be
       0.036001824 -0.21964674 -0.13230607 -0.13703544
0002a0 ca 08 59 be 72 58 dd bc c0 ef 61 3e 25 e7 54 be
       -0.21194759 -0.027019713 0.22064114 -0.207913
0002b0 a8 fc 35 be c4 09 4a 3e 5e af 85 3d 47 da 77 3e
       -0.17772162 0.19730288 0.06527589 0.2420436
0002c0 af f9 3f 3e 01 d9 a9 3d 9a b1 71 3e e9 92 df bd
       0.1874759 0.08293343 0.23602906 -0.10916693
0002d0 2d 69 30 be 98 7f 10 3e 0c 8c 25 be aa 34 5f bd
       -0.17227621 0.14111173 -0.16166705 -0.054493584
0002e0 7b 4a a2 bc c3 76 85 bd 3c 8e 1e bc 4d 97 e5 3d
       -0.019810906 -0.065167926 -0.009677466 0.11210499
0002f0 90 ae 00 be f5 18 97 bd 4d 0f 61 be cd 2f a6 bb
       -0.1256659 -0.07377807 -0.21978493 -0.0050716163
000300 3e 02 64 3e 06 76 f1 bd 07 53 2d bd 4d fd 43 3e
       0.2226648 -0.11790089 -0.04231551 0.19139595
000310 84 b4 4e 3e c2 4a 4f 3e e6 5d 3f 3e 06 4c f6 bd
       0.20186049 0.20243362 0.18688163 -0.12026219
000320 28 fa d5 bb 32 c5 31 3e e9 f6 29 3e bd f6 fb 3d
       -0.006530065 0.1736038 0.16598095 0.12302921
000330 80 fe 70 be 7b b4 7b bd f0 6f 1e 3e 35 ba 79 be
       -0.23534584 -0.061451416 0.15472388 -0.24387439
000340 5d 9d 52 3e cb 0a 5f be 05 c9 63 3e df 1b 5a be
       0.20567842 -0.21781461 0.22244652 -0.21299694
000350 23 e2 38 bd 38 92 b5 bd 5a bd 6b be 26 d3 b4 3c
       -0.045137536 -0.0886578 -0.2302145 0.02207334
000360 18 15 6a 3e 6a 67 c8 3d 1f 8f 26 3e 4e 4d 4c 3e
       0.22859609 0.0978535 0.16265534 0.19951364
000370 b5 8a 5d 3d a9 69 12 be be c2 aa bd c0 57 3a be
       0.05408736 -0.14298119 -0.083379254 -0.18197536
000380 0d c9 2d be fe 24 13 3e da be 13 be 59 9f 1f 3e
       -0.16971226 0.1436958 -0.14428273 0.1558813
000390 42 ca 7c be eb 36 54 be e3 8d 31 3e a2 4f ac 3c
       -0.2468653 -0.20724075 0.17339282 0.021034066
0003a0 76 e7 5a 3d 98 9c 61 3e 9a 3e 1f 3e b9 db 3f be
       0.053443395 0.22032392 0.15551224 -0.18736161
0003b0 7e 04 34 be 3d 28 76 be c1 67 91 3d 20 fa 46 3e
       -0.17579839 -0.24038787 0.070998676 0.19431353
0003c0 78 cc 92 bd 31 04 00 3e 17 d0 54 3e 90 2a 5e 3e
       -0.071679056 0.12501599 0.20782505 0.21695924
0003d0 5f 4e 33 3e 98 b1 6e be fb d4 63 3c b3 3a da 3d
       0.17510365 -0.23309934 0.013905759 0.10655727
0003e0 f6 ea 87 3d ae 9f 84 3d f3 58 87 bd f0 11 ad bd
       0.06636612 0.06475769 -0.066087626 -0.08450687
0003f0 a9 e4 9a 3d 99 a8 f4 3d a1 18 12 be e8 47 11 3e
       0.07563145 0.1194622 -0.14267208 0.14187586

net.0.bias f4 [256]
000000 38 5b f5 bc f3 cd 80 be 98 e0 8c be 5e df af be
       -0.029950723 -0.25157127 -0.275151 -0.34350103
000010 04 e9 4a be 33 51 0f 3f 0a eb fb 3e bd 30 2b 3d
       -0.19815451 0.55983275 0.49202758 0.041794527
000020 71 a5 e5 bd 7e 04 8d 3e 17 ee e2 bd cb 00 39 be
       -0.11213196 0.2754249 -0.11080568 -0.18066709
000030 e5 c9 0c 3f f2 84 3c 3e 03 92 a1 3e 11 82 01 3f
       0.54995567 0.1841009 0.3155671 0.5058909
000040 ce 85 16 bd 8f a7 5a 3f 8e 19 89 3e 90 e4 2b 3e
       -0.0367487 0.85411924 0.2677731 0.16786408
000050 49 12 9b 3e 69 fa cc 3e 31 0c 01 3e 22 2e d2 3e
       0.30287388 0.40034798 0.12602307 0.41050822
000060 b6 52 5f 3e f8 63 48 bd b6 f9 ca be 53 51 04 3e
       0.21808895 -0.048923463 -0.3964364 0.12921648
000070 4e 4e bf 3d 26 95 c0 3e d8 d9 09 3e d7 55 ca 3e
       0.09341107 0.3761379 0.13462007 0.39518616
000080 ff 1a 1f 3f 55 03 6e be b1 2d 66 be b2 63 7d be
       0.6215057 -0.23243459 -0.22478367 -0.24745062
000090 09 af fb 3d 59 c0 2b be 7f 86 95 3e eb 5e 2f 3e
       0.12289245 -0.16772594 0.29204175 0.17126052
0000a0 99 18 ac be 79 1b 21 3f 53 fe 5c bd 90 f0 08 3e
       -0.33612517 0.62932545 -0.05395348 0.13373017
0000b0 2b 98 1e 3e 8d ca ea 3d a6 b0 19 be 1b aa 08 3f
       0.15487735 0.11464415 -0.15008792 0.5338456
0000c0 e8 38 93 3e d3 10 32 be ff 51 56 3e 82 6c 24 3e
       0.28754354 -0.1738923 0.20929717 0.16057017
0000d0 b1 71 b9 3d fd 3a 80 be 26 4f 76 be 63 ab a6 3d
       0.09054888 -0.25045004 -0.2405363 0.08138158
0000e0 df 25 3d bd 71 53 d5 3d 54 46 61 be ea 0e 0d 3f
       -0.046178695 0.10416306 -0.21999484 0.5510088
0000f0 d7 20 d0 3b 85 15 90 bd c3 c7 9d 3c a4 60 c4 bd
       0.006351571 -0.070353545 0.019260293 -0.09588745
000100 16 50 b9 be c2 95 b3 be 4e 97 ce bd e6 a1 d5 3d
       -0.36193913 -0.35075194 -0.10087453 0.1043127
000110 ca 6f d8 3e 21 e3 be be 0c 4a f9 3e e8 0b d6 bd
       0.42272788 -0.3728266 0.48689306 -0.1045149
000120 d1 2c 69 3e fb 8c 6e bd cb 85 14 3f 6a 3d 01 be
       0.22771002 -0.05823992 0.5801665 -0.12621084
000130 81 98 f3 3e 2e c4 b7 3e 9e 1b d3 bd fc 69 af 3d
       0.4757729 0.3589186 -0.10308002 0.08565137
000140 f4 3b 6b be ae 8e 89 bd 88 99 71 be 4b 21 af 3e
       -0.22972089 -0.06716667 -0.23593724 0.34205088
000150 cb 58 0b be e3 21 ba 3e e0 da 2f be 67 70 3e 3f
       -0.1360809 0.3635398 -0.17173338 0.7439026
000160 ea 99 cb 3e 38 9d a4 3d 8e bd 98 3e 71 e7 b2 3d
       0.39765865 0.080377996 0.2983212 0.0873555
000170 7a 58 d7 be ab 58 70 be de a5 8e be d7 2e fc bd
       -0.4205969 -0.23471324 -0.27860922 -0.123136215
000180 9e 50 8e be e9 d8 ea 3e a5 35 d8 3d a2 72 8f 3e
       -0.2779588 0.45868614 0.10557107 0.28017145
000190 16 3d 2a 3e 65 ed 34 3e 6b 6f dd bd 3e d6 6a be
       0.16624865 0.17668684 -0.10812267 -0.2293329
0001a0 b7 8d 08 3f 1d f9 69 bd 46 f3 c2 3e f5 ab c4 3e
       0.5334124 -0.05712234 0.38076228 0.38412443
0001b0 e5 1d 74 be e8 55 f9 3e 1f 2b a7 bd c1 57 28 3f
       -0.23839529 0.48698354 -0.081625216 0.657589
0001c0 a1 d2 49 3f f6 a9 42 3d da 8d cd 3e 7a bc 67 bd
       0.7883702 0.04752537 0.40147287 -0.05657623
0001d0 00 aa 97 be 1b d3 b5 3e 14 5d 8c 3d be 7b d9 be
       -0.29621887 0.35512623 0.06853691 -0.4247722
0001e0 9e de d4 3e 07 d0 97 3e aa cd bc be d9 1d 93 3e
       0.41576093 0.296509 -0.3687566 0.2873371
0001f0 86 ac 41 3f 79 45 41 be 1b d9 aa be 4a ec b5 3e
       0.75653875 -0.18874158 -0.33368763 0.35531837
000200 83 48 57 be 13 e6 fe 3d 92 67 c0 bd 40 3d 18 3b
       -0.21023755 0.12446227 -0.093947545 0.0023229867
000210 12 41 b0 be 8c 60 cc bc ec 9d 81 3e cd 44 e2 3d
       -0.34424645 -0.02494838 0.25315797 0.11048279
000220 68 53 a5 3e 24 70 00 3f 0f 08 96 be 15 19 08 3f
       0.32290196 0.50171113 -0.29303023 0.5316327
000230 e7 2e 1a 3f 8d 1c 12 be 22 30 c8 bc bb db 3a be
       0.6022782 -0.14268704 -0.024437014 -0.18247883
000240 a5 91 66 be ba 7e 5b 3e 9d 0c 31 3e ab 76 56 3d
       -0.22516496 0.21435061 0.17289968 0.052359264
000250 61 08 f3 3e b1 51 64 3e 71 6c 96 3e d1 d4 8a bd
       0.4746733 0.22296788 0.2937961 -0.06778873
000260 93 f7 10 3f 93 56 17 be e0 9e d9 3d 85 05 98 3e
       0.5662777 -0.14779119 0.10626006 0.2969171
000270 9f 8a 94 3d 91 33 92 be 07 96 d3 b9 8f fe 2c 3f
       0.072530024 -0.28554967 -0.00040356835 0.67575926
000280 c0 17 ab be 63 22 40 3e ef 66 83 3e 00 e6 42 3e
       -0.33416557 0.18763117 0.2566447 0.1903305
000290 55 24 9b 3d a6 ce c3 3d 97 26 65 be fb ad dc 3d
       0.07575289 0.095608994 -0.22378002 0.10775372
0002a0 84 a2 26 be 0e 36 a9 3e 41 9a 7d 3e 8c 6d 0a 3e
       -0.16272932 0.33049053 0.24765874 0.13518351
0002b0 f4 d6 e9 3e 88 48 63 be 2a a5 db be 0e 54 4b be
       0.4567181 -0.22195637 -0.42899448 -0.19856283
0002c0 ed fb 05 3f 1a ed 84 bd 6d 72 09 3f 54 8c f4 3e
       0.52337533 -0.06490536 0.53690225 0.47763312
0002d0 37 67 1b bf f7 28 cc 3e 5a ed 6e 3c 89 52 85 3d
       -0.6070437 0.39875004 0.014582956 0.06509883
0002e0 c8 56 bc 3e da e0 cb 3e ae 40 50 3e bd ea 43 be
       0.3678496 0.39819986 0.20337173 -0.19132514
0002f0 58 69 b0 3d c3 fc b0 bd 43 a2 97 be 2b b4 1d 3f
       0.08613843 -0.086419605 -0.29615983 0.6160304
000300 8a 64 c0 3e 4e 7b 7f be 6e f0 2e 3e 00 2f 04 be
       0.37576705 -0.24949381 0.17083904 -0.12908554
000310 c9 14 99 3e 17 1a 5e 3e c1 2c d3 3e e1 08 f3 bb
       0.2989867 0.2168964 0.41245082 -0.00741683
000320 d0 c7 d2 be b3 da 8c 3c bc f6 82 3d fb b3 35 be
       -0.4116807 0.017194128 0.06394717 -0.17744438
000330 48 dd f2 3d 41 a5 21 bd ce e6 81 3e 29 14 bf bc
       0.11858612 -0.03946424 0.25371403 -0.023325043
000340 f9 e4 e9 3e a9 6f 3a 3e c8 df 09 3f 45 e1 dd 3e
       0.45682505 0.18206657 0.5385709 0.4333593
000350 10 5a aa 3d db de af 3e 67 e4 19 3f ed 8d ce 3e
       0.08317959 0.34349713 0.6011414 0.40342656
000360 7d 77 89 be 47 4d dc 3d 75 fa 6a 3e 5e d5 e8 3d
       -0.26848975 0.10756927 0.22947104 0.113688216
000370 f9 c3 40 3e 27 46 14 3e 0b 61 e4 3b 4e 79 f4 bd
       0.18824758 0.14479886 0.0069695762 -0.119371995
000380 8d 95 81 3e cb e4 8a 3e 74 6c 7d 3e d6 fb 0b 3f
       0.2530941 0.2712768 0.24748403 0.54681146
000390 a5 00 ce be b9 b1 20 be ea 56 15 be 9e 2d 56 3e
       -0.40234867 -0.15692796 -0.14583936 0.20915839
0003a0 b6 6c 0c 3f f5 55 a1 3c 3d 49 2d bd 7a 09 6a be
       0.5485338 0.019694308 -0.042306174 -0.22855178
0003b0 d5 8e 54 bd d8 98 85 3e 78 ed e7 bd 04 49 45 3e
       -0.051894028 0.26093173 -0.113245904 0.19266135
0003c0 ed 02 7a bd 31 e6 a6 bd 7e 4f ad bd df c2 15 3f
       -0.061037946 -0.08149374 -0.084624276 0.58500475
0003d0 ba 2f 6c bd 2c b4 ac bc a4 d4 93 3e b1 dd cd be
       -0.057662703 -0.021082006 0.2887317 -0.402082
0003e0 cf 95 9f bd 75 a7 af bc 8f 6c 9b bd 90 3c 77 bd
       -0.077922456 -0.021442154 -0.07589065 -0.06036049
0003f0 cd 62 f9 bd cf c9 5f 3d 14 e2 32 3e 28 1c 5a be
       -0.12177048 0.05463582 0.17469054 -0.21299803

net.2.weight f4 [256, 256]
000000 ac 9a ba 3e 9e 1c b2 be 47 e3 33 bd 60 81 83 be
       0.3644613 -0.34787458 -0.04391792 -0.25684643
000010 4e 9d c8 bd 20 31 87 3c 1a e1 8d 3d 02 e6 81 3c
       -0.097956285 0.016502917 0.069277 0.015856747
000020 7b ca 6f bd d8 a3 c6 3e 35 0e 04 3e ec 46 32 3e
       -0.05854271 0.38796878 0.12896045 0.17409867
000030 47 1c 96 bd 34 e7 9c bd d2 c0 5e 3e 60 f0 06 3e
       -0.07329612 -0.07661286 0.21753243 0.13177633
000040 24 2b 16 3d c6 bc 1a 3e 8a 7f 24 bd aa fd 3e 3d
       0.036662236 0.15111074 -0.040160693 0.04662863
000050 08 13 e9 bc a1 d1 2d 3d ae 05 51 bd 78 b5 15 bd
       -0.028451458 0.042436246 -0.051030807 -0.036550015
000060 09 de e9 3d 6d 1a cf bd d3 ef 5c be 00 83 11 bd
       0.11419303 -0.10112462 -0.2157586 -0.035525322
000070 d4 32 92 3d fe 38 57 bc cf b5 da bd 58 cb 9b bd
       0.07138601 -0.013136147 -0.106792085 -0.07607144
000080 8a 36 fe 3c 37 c3 db 3d f1 3d 9a bd 27 df f1 bc
       0.031031866 0.10730594 -0.07531346 -0.029525353
000090 2a 94 9e be 76 7f f9 bd 8a ba 1e bb e5 da c5 be
       -0.30972415 -0.12182514 -0.0024220073 -0.38643566
0000a0 68 2c 2e 3e be c9 d1 3d c8 16 ba 3d be ee bd 3c
       0.17009127 0.102435574 0.090863764 0.02318513
0000b0 34 53 5a 3e 3a 37 3e bc a5 fe ce bd ab 10 06 3e
       0.21320802 -0.011609847 -0.10107163 0.13092296
0000c0 b2 54 55 3d 1d 81 7b 3d 14 d7 69 3c f1 4a de bd
       0.052082725 0.06140243 0.01427247 -0.10854138
0000d0 d9 41 2e 3e 07 33 ae be a9 64 52 3e 2c c1 e3 bd
       0.17017306 -0.34023306 0.20546211 -0.11120829
0000e0 3c b1 b3 bc 24 ec 3e be 64 74 86 3e 38 12 28 3d
       -0.021935098 -0.18644768 0.26260674 0.041033
0000f0 87 d3 46 3d 9b ad 2f 3e 90 bc 97 bc 34 f7 b7 3c
       0.048541572 0.17156069 -0.01852253 0.022456743
000100 3d b6 18 be 11 a7 19 be d7 c4 b4 bd bb 80 fc bc
       -0.14913268 -0.15005137 -0.08826607 -0.030823102
000110 b2 d4 bb 3d e2 4a 4f bd 22 6e c2 3d 8e 48 1a bd
       0.09171428 -0.050608523 0.094936624 -0.03766685
000120 f2 8d 90 3d 3b 5d 45 bd 08 1d 15 3e 75 e7 f3 3c
       0.07058324 -0.048184615 0.14561856 0.029773453
000130 c1 9f 58 3e 13 aa 21 3d cb 4b b6 3c 57 9f 17 be
       0.21154691 0.039468836 0.022252938 -0.14806877
000140 9d 72 ec 3d 3a 4d ad 3d f6 93 63 3d 58 af ad 3c
       0.11545298 0.084619954 0.05556103 0.021201774
000150 b4 62 ba 3e 7c 5f 04 3e 1a a5 fd bd 36 b7 06 3d
       0.3640343 0.1292705 -0.12385006 0.032889567
000160 e2 69 79 3d 90 5f dd 3d dc b7 57 3d 2c f9 82 3c
       0.060891993 0.10809243 0.052665576 0.015987955
000170 4e 7a 0f be 77 82 0c 3e 60 68 d8 bd ff 05 64 bd
       -0.140115 0.13721643 -0.10566783 -0.05566978
000180 75 21 70 3e 9c 93 e5 bc e5 b1 03 be cb 82 c3 3c
       0.23450263 -0.028024487 -0.1286083 0.023866078
000190 51 0b c6 3d 06 a2 bd bc 07 ce 85 3d e8 30 ba bd
       0.09670127 -0.023148548 0.06533437 -0.090913594
0001a0 fc 66 8a 3b 09 0a 2a bd e7 ef 88 3c 1c fb 65 3d
       0.0042237025 -0.041513477 0.016715957 0.05614768
0001b0 14 4c 16 3e 4e 59 34 3e 63 4b 1a 3b 7e 92 e5 bd
       0.14677459 0.17612192 0.002354347 -0.11209582
0001c0 79 31 4a 3d 45 43 11 be 16 59 0a 3e 2a 30 8c bd
       0.049363587 -0.14185818 0.13510546 -0.06845124
0001d0 22 36 68 3c bc 8c 18 be 58 81 a4 3d 7b 8c df bd
       0.0141730625 -0.14897436 0.08032483 -0.109154664
0001e0 a7 c9 28 3d 10 e5 e3 bd a0 18 45 be 9b e3 88 bd
       0.041207936 -0.111276746 -0.19247675 -0.06684037
0001f0 32 1d 55 3c 43 b4 de bd af b2 fd bd dd b2 e7 3d
       0.013007449 -0.10874226 -0.12387597 0.11313412
000200 74 90 7b 3d c3 36 8e 3e f0 21 e7 bd d4 ea 20 be
       0.061417058 0.27776155 -0.1128577 -0.1571458
000210 e0 e4 09 be 8c b0 34 3e 04 da 4a 3d 0c db 6e 3e
       -0.13466215 0.17645472 0.049524322 0.23325747
000220 e2 c9 ee 3d a5 f6 bc 3d 82 89 07 bf 82 ef 54 bd
       0.116596 0.09226731 -0.52944195 -0.051986225
000230 42 82 e9 3c 7b 0e 9f 3e 2f 16 2d 3c a1 e2 57 bc
       0.028504495 0.31065735 0.010564371 -0.013176591
000240 82 55 01 3e 2c 83 3d 3d 52 5d f9 3d 5e 3d cb bd
       0.12630275 0.046267673 0.121760026 -0.09923814
000250 47 53 0d 3e b6 1a fc bc 65 da 4d 3e a1 43 94 3c
       0.13801299 -0.030774456 0.20102842 0.018098654
000260 8a c3 ba 3d 05 71 5a 3c ed be 54 3e 10 da c7 bd
       0.09119327 0.01333261 0.20775957 -0.09758389
000270 9d 54 9a be 84 f9 b5 3b f3 09 06 3e b8 a7 26 3e
       -0.3014268 0.005553426 0.13089733 0.16274917
000280 79 0d 30 be 3d ff 19 3d 4c ff d9 3d 40 e6 53 bd
       -0.1719264 0.03759693 0.10644397 -0.051733255
000290 8a ea 19 3c 99 e7 99 bd 23 17 04 be 37 fb d2 bd
       0.009394297 -0.07514877 -0.12899451 -0.10301822
0002a0 cc 41 8e be 9c 24 02 3e a6 c3 00 3e 95 b0 02 3e
       -0.27784574 0.12709278 0.12574634 0.12762673
0002b0 7a df 28 be d6 d8 21 3e 02 d5 f2 3c 81 0c 84 be
       -0.164915 0.15805373 0.029642586 -0.2579079
0002c0 3e 27 5f bd 31 c4 d8 bc 63 8e 35 3e 9f be a0 3d
       -0.054480784 -0.026460739 0.17730097 0.07848858
0002d0 89 25 c9 bd b6 fe 71 be 95 86 fe 3b f6 e6 1e 3e
       -0.098216124 -0.23632321 0.0077675083 0.15517792
0002e0 29 1d 6f 3d 45 a8 4c bd ad 10 12 3e cd a8 63 3c
       0.05837742 -0.04996516 0.14264174 0.013895226
0002f0 fb 49 3e bd 0d f1 4d bd 9a 14 58 be 5a 5b 8c 3c
       -0.046457272 -0.050278712 -0.21101609 0.017133404
000300 d6 41 ac bb 5f 11 0e 3e 64 46 33 3e 06 3d db 3d
       -0.0052568717 0.13873814 0.1750732 0.10704999
000310 67 cd 5e 3d ce 3f a3 3d 87 6d 13 3d aa c9 10 be
       0.054395106 0.07971154 0.035993125 -0.14139429
000320 6d da 50 be a5 ac 9b bc 87 ed d5 3d 63 63 5a 3c
       -0.20395823 -0.019003222 0.10445695 0.01332936
000330 77 36 fe bd 50 c7 8c bd 73 9c 6c 3d d0 f3 a9 3d
       -0.12412732 -0.06873953 0.05776639 0.08298457
000340 2c 3c df 3d 08 7e 15 3e 54 ee 22 bc 85 bf 7c 3d
       0.10900149 0.14598858 -0.009944517 0.061706085
000350 ed d1 ca bd 6b b7 f8 bd 72 4a d9 3d 63 85 9f bc
       -0.099033214 -0.12144359 0.106099024 -0.019472783
000360 c3 57 9a bd 7a a8 4e 3c f5 28 7a bd 68 e3 7e 3c
       -0.075362705 0.01261341 -0.061074216 0.015557148
000370 82 a3 92 3d 86 37 02 be 56 79 44 3e 91 13 3b be
       0.07160093 -0.12716493 0.19186911 -0.18269183
000380 4d 0b 06 3e 95 0a a3 3d 2e 31 0f 3d 1d f9 3c 3a
       0.13090248 0.07961003 0.03495901 0.00072087516
000390 1f 4f 8c bc 24 55 d1 bd a1 77 f2 bd 8e 7b bc 3d
       -0.017127572 -0.102213174 -0.11839224 0.09203254
0003a0 81 77 af bd 48 b7 d8 bc d8 df 5f 3d e5 85 ae bd
       -0.085677154 -0.026454583 0.054656833 -0.08521632
0003b0 06 31 b0 3c 08 71 8e bc 41 c6 2f bd cf 43 93 bc
       0.021507751 -0.017387882 -0.04291368 -0.01797667
0003c0 c7 3f 85 3d 54 99 ba bd e9 4c 81 3d be 85 95 3d
       0.06506305 -0.09111276 0.063134976 0.073009
0003d0 a1 cb dd 3c f1 bc 72 3b 9e 98 d9 3c e5 20 14 be
       0.027074637 0.0037038887 0.026562031 -0.14465673
0003e0 f8 7c 98 bd 14 c4 e5 bd b2 22 92 3d 09 6d 63 3c
       -0.07445711 -0.112190396 0.07135524 0.0138809765
0003f0 a6 37 9d 3d c1 64 0c be 9e 2e 0a 3c 83 41 35 3d
       0.0767663 -0.1371031 0.008433966 0.04425193

net.2.bias f4 [256]
000000 8d 9b aa 3d c5 57 60 bd ef 6f 3a 3d 83 67 5e 3c
       0.0833045 -0.054771204 0.045516904 0.013574484
000010 d3 14 17 3e 00 1d d2 bd 85 50 03 bd 3d 34 7f 3d
       0.14754038 -0.102594376 -0.03205921 0.062305678
000020 e6 a3 98 bd ce 16 e8 3d b3 07 93 3d c0 f2 35 bc
       -0.07453136 0.11332475 0.07179203 -0.011105239
000030 58 8e 52 bd 5d ad e4 3d 7a c8 58 be be f5 5b 3d
       -0.05140528 0.11165879 -0.21170226 0.053701155
000040 50 75 be bd 71 a0 50 3d 59 0e 44 3d cb 65 68 be
       -0.09299719 0.05093426 0.047865245 -0.22695081
000050 bb c9 45 3d bf 9d 64 be c0 4e 57 bd 51 9a 88 3c
       0.04828809 -0.223258 -0.052565336 0.016675146
000060 0b 13 8d bd ed fa 17 3e 81 ca 89 bd cf f0 6c 3d
       -0.06888398 0.14841814 -0.06728078 0.05784684
000070 3b dd ad bc 24 4e 4a 3e 5d 74 8c bc 3e ac b8 3d
       -0.021223655 0.19756371 -0.01714533 0.090172276
000080 76 ac 56 bd 18 91 b3 3d 7c 68 9f 3c 36 76 32 3d
       -0.052410565 0.08767909 0.019459002 0.043569766
000090 c2 71 a7 bc b1 78 2a be d8 ba c0 3d 5f 4d db bd
       -0.020439986 -0.16647603 0.094106376 -0.10708117
0000a0 9c a4 b3 3d 9f 40 61 3c 10 09 f7 3d d7 b0 8e bd
       0.08771631 0.013748317 0.120622754 -0.06967323
0000b0 65 a3 4c bd 76 fc 06 bd 6b 72 ca 3d e8 63 bf bc
       -0.049960513 -0.03295561 0.09885105 -0.023363069
0000c0 1c d2 7d bd ed 7f e1 bc 81 62 3f bd c6 11 03 3e
       -0.061967954 -0.02752682 -0.0467248 0.12799749
0000d0 f7 fe 58 3d f5 72 40 bc a1 90 db bb 60 72 45 bd
       0.05297753 -0.011746158 -0.0067005907 -0.04820478
0000e0 de 7f 1a 3e 62 1d 00 bd 21 fb bd 3d 9a ad c5 3d
       0.1508784 -0.03127802 0.09276415 0.096522525
0000f0 d5 cd dc 3b fe 38 73 bd 90 4d e5 3c 23 a9 87 3d
       0.0067384043 -0.059380524 0.027991086 0.06624057
000100 93 9c 06 3e 74 3c d3 3d 01 0c 61 3d ae f3 94 3d
       0.13145666 0.10314265 0.05494309 0.07273041
000110 9a 2e 05 3e 83 fd 2b bd 09 30 56 3d 89 45 25 3b
       0.13006058 -0.041989814 0.052291904 0.0025218448
000120 1f 4d 81 3d 0c 7a be 3d 1e 4f 23 3d 9c c6 23 bd
       0.06313538 0.09300622 0.039870374 -0.03998433
000130 0f 22 e2 bd fe 6e 2e 3d 7f a1 47 bd 37 2f 3f be
       -0.110416524 0.04258632 -0.048738 -0.18670355
000140 ab 28 2b 3d 80 4c de 3d 52 59 94 3d 67 ec 13 3e
       0.04178683 0.10854435 0.07243599 0.14445649
000150 51 c0 50 3d 42 f0 5d bd 40 e3 9a 3d bd 47 65 be
       0.050964657 -0.054184206 0.07562876 -0.22390647
000160 8c ad 74 3d 23 58 04 be ac c0 7b 3d a5 05 96 3d
       0.05973582 -0.12924246 0.061463043 0.07325295
000170 ca b7 2a be 2e 8d b5 3b c9 c8 b9 bc 07 31 3d 3d
       -0.16671672 0.0055405116 -0.02267875 0.046189334
000180 ee 1c cf bd 4f 13 f7 3d 58 a2 a2 3d 6c b1 b4 bd
       -0.1011294 0.1206423 0.07941121 -0.08822903
000190 d1 6c c2 3d 8c 22 b2 3b 5e d0 68 be fc 05 38 3d
       0.09493411 0.005436247 -0.22735736 0.044927582
0001a0 a9 6e 89 3d f8 cc f5 3d ea b1 94 3d 1f 16 7c 3d
       0.0671056 0.12001985 0.07260497 0.061544534
0001b0 a8 f2 04 3d d3 f6 1d 3d b2 cd 13 3d bf 5e cb 3d
       0.032457978 0.038565468 0.03608484 0.09930181
0001c0 4f 95 a3 bc 0b 72 5a 3e 28 9a 11 bd 30 99 6f 3d
       -0.019968657 0.21332566 -0.035547405 0.0584957
0001d0 68 cb 2d 3e 16 bc 41 3e 43 ee 00 3e a8 42 49 bd
       0.16972125 0.18919405 0.1259089 -0.049135834
0001e0 e0 cb 8c bd 8c 83 2f 3d 00 bc a1 bd 8a 31 a7 3d
       -0.068748236 0.042850062 -0.07897186 0.08163746
0001f0 60 e8 f5 3c 64 43 fb 3d 13 8b fd bd 10 87 50 3e
       0.030018032 0.12268713 -0.12380042 0.20364022
000200 d3 3b eb 3d ca f3 96 3c 07 ee 97 bd 85 0a 0b 3d
       0.1148602 0.018426795 -0.07418447 0.03394558
000210 17 88 21 3e 8f 03 23 3d b9 09 0d bc e7 f8 83 3d
       0.1577457 0.039798316 -0.008608275 0.06443959
000220 5b 3f 5c 3d 7b 4b 16 3e 79 eb 05 3e b6 3c ca 3d
       0.053771358 0.14677231 0.13078107 0.09874861
000230 e3 99 df 3d b5 d0 5b 3c ac b5 28 bc fc 2e 27 3e
       0.109180234 0.013416459 -0.01029722 0.16326517
000240 7b 0e 92 3e 07 e5 43 3d 97 a3 2f 3e 06 1f b0 3d
       0.28526673 0.04782584 0.17152248 0.08599667
000250 2e b7 25 3d 73 be ed 3d b5 49 65 3c 1e 72 2f bd
       0.040457897 0.11608591 0.013994624 -0.04283344
000260 ec bb b6 3d 26 a7 fc bd 10 45 85 3c 7b 6e 9c bb
       0.08922562 -0.123365685 0.016268283 -0.0047739125
000270 d0 10 b1 3d 76 a7 b4 3d f2 d2 c4 3d 82 30 5d 3b
       0.08645785 0.08821003 0.09610547 0.0033750837
000280 ee 6c 78 3c 45 f3 b2 3d 71 e1 98 3d 73 fb 84 3d
       0.01516269 0.08737806 0.074648745 0.06493273
000290 94 d9 00 3e 73 b4 d4 3c f0 59 2e bd eb a5 fd bd
       0.12583 0.025964951 -0.04256624 -0.12385162
0002a0 dc d2 f2 3d 9b 9b de bc 3a 76 8e bd 23 61 c6 3d
       0.118566245 -0.027173808 -0.06956144 0.09686496
0002b0 b4 e5 23 3d 3e 86 14 3e fd ff eb 3c 51 a7 9e bd
       0.040013984 0.14504334 0.028808588 -0.07746757
0002c0 33 ef 1a bd ff b3 37 bc 90 87 96 bd a1 e7 20 b9
       -0.037825774 -0.011212348 -0.07350075 -0.00015345078
0002d0 67 ec 0d 3e 5d 4d c9 bb 24 ef d3 3c 0a d1 9a 3d
       0.13859712 -0.0061432556 0.025870867 0.07559402
0002e0 99 74 1a 3c 39 2d eb 3c d4 68 0c 3e eb cc 9f 3d
       0.009427213 0.028708087 0.13711864 0.07802757
0002f0 f3 7b 5c be 88 b9 4e bc 3f 93 dd bc e2 e4 55 3e
       -0.21531658 -0.012617476 -0.027047751 0.20888093
000300 c3 a2 a0 bc 01 01 78 3d 8c f8 8d bd d9 8e e3 3d
       -0.01960886 0.060547832 -0.06932172 0.111112304
000310 d0 6d e2 3d 77 12 38 bd d7 48 16 3e 29 df d0 bc
       0.11056101 -0.044939484 0.14676224 -0.025497036
000320 72 ab 26 3e c4 ae 5c bc f0 73 08 be 4b 03 1e bd
       0.16276339 -0.013469402 -0.13325477 -0.03857736
000330 bf 4a 2d 3e ad 81 db 3d 61 1f 15 3e 3d 42 62 be
       0.16923045 0.10718093 0.14562751 -0.2209558
000340 da bb 87 be 3e f1 10 3e f7 ae 1f 3e c8 f9 3d 3e
       -0.26510507 0.14154527 0.15594088 0.18552315
000350 9f c7 91 bd 60 31 1c 3e 57 a1 15 3e 1b 92 17 3e
       -0.07118153 0.1525321 0.14612328 0.14801829
000360 94 8f 35 3e a7 f4 0b 3e 1d 14 4c 3d 60 c3 4d 3d
       0.17730552 0.13667546 0.04982387 0.050235152
000370 e0 18 a4 bd 15 7b 22 bd 0d a8 ec bc e1 20 94 bb
       -0.08012557 -0.03966816 -0.028888727 -0.004520521
000380 b7 b9 cf 3d 6b 84 de bc 7c d7 17 3e 93 e4 0b 3e
       0.10142844 -0.027162751 0.14828295 0.13661413
000390 d3 dc d7 3d 2f d8 09 3e eb e1 50 3d db 88 07 bd
       0.10540166 0.13461374 0.050996702 -0.0330895
0003a0 15 77 74 bd 47 4b 3b bd f4 d2 8d 3d 85 25 9e bd
       -0.059683878 -0.045726087 0.06925002 -0.07722
0003b0 48 11 01 3e bf 39 d4 bd 3d 63 a7 3d ed ec c1 bc
       0.12604249 -0.10362577 0.08173225 -0.023672545
0003c0 cb 41 80 3d 0c 32 8b 3c 92 73 1b 3c 3e 61 e7 3d
       0.06262549 0.016991638 0.009488003 0.11297844
0003d0 d9 f7 0c be f5 65 62 3e 4e f1 9c bc f4 4d 48 3d
       -0.13766421 0.22109206 -0.019158032 0.048902467
0003e0 5d 03 7d bd e3 04 bd 3d 47 d7 e8 bd b2 a9 ae 3c
       -0.061770786 0.09229448 -0.11369186 0.021321151
0003f0 38 82 07 3e 12 a6 04 3d 98 56 3d bd f2 24 0f 3d
       0.13233268 0.03238494 -0.04622516 0.034947343

net.4.weight f4 [5, 256]
000000 91 4f b2 3e 04 09 d2 bb 7d 50 23 3e 59 50 26 3d
       0.3482633 -0.006409766 0.15948673 0.04060397
000010 30 47 7a 3d 2f b5 62 bd fc dd 15 3e 7e 37 ea 3d
       0.061103046 -0.05534857 0.14635462 0.114363655
000020 0a 97 c1 3e 63 67 8e bd e4 ac 15 be 74 2d 61 3e
       0.37810546 -0.06953313 -0.14616734 0.21989995
000030 be 39 4b be ff eb 12 3e 2b 2c 34 bf 75 6d f5 bb
       -0.19846246 0.14347838 -0.70379895 -0.007489855
000040 78 fb 92 be c9 8f dc bd b7 5b 88 3d 7c 48 33 bf
       -0.2870748 -0.10769612 0.06658118 -0.7003248
000050 96 f1 08 3f 88 c8 66 be aa 01 54 be e6 69 19 be
       0.5349363 -0.22537434 -0.2070376 -0.14981803
000060 dc 7c 9e bd 65 50 75 3e e8 b5 12 bf 27 4f c7 bd
       -0.07738659 0.2395645 -0.57308817 -0.09731894
000070 de e5 ff 3d c8 f3 b5 3e b3 b3 e2 bd c8 9c af 3c
       0.124950156 0.35537553 -0.11069431 0.021437064
000080 70 fb a0 bc 15 d5 02 3d 6c 91 62 bc aa e2 b6 3d
       -0.019651145 0.031941492 -0.013828617 0.089299515
000090 f7 29 ed 3c 02 cb 9d be 2a 8a 9e 3e a5 ab 66 bd
       0.028950674 -0.30818945 0.30964786 -0.056316037
0000a0 5b b2 03 3e a9 ec 44 3d 96 b4 bc bd ba 0f 77 bd
       0.12861006 0.04807726 -0.092141315 -0.060317732
0000b0 a8 43 12 bd f0 0c 81 bb c8 9c 6a 3e 12 2d db 3e
       -0.035709053 -0.00393831 0.2291137 0.42807823
0000c0 58 29 5e bd a1 96 01 be 2f f8 e7 bc 05 65 b3 3e
       -0.054238647 -0.12655117 -0.028316585 0.3503801
0000d0 08 72 24 3c f0 45 3d be 6c 11 d8 3d 4e 07 a9 3c
       0.010036953 -0.1848371 0.10550198 0.020633366
0000e0 ee 9c cf be f2 0f c1 3c 8f 5a 90 3e bc 42 68 3d
       -0.40549415 0.023567174 0.2819409 0.056704268
0000f0 f6 0c dc 3d 9b 31 71 be 45 66 e9 bd e6 a9 41 3d
       0.107446596 -0.23554079 -0.113964595 0.04728117
000100 2a 56 4e 3d 76 8d cc 3d 71 c0 1f 3f e9 15 88 3e
       0.05037514 0.09987919 0.6240302 0.26579216
000110 f7 ac 9a 3e 8d 9e 4b be b9 81 27 bd 18 6c 19 3e
       0.30210087 -0.19884701 -0.040895198 0.1498264
000120 6d d4 9f 3e ed 41 11 be 05 8f 2e 3e 7c 12 19 bd
       0.31216756 -0.14185305 0.17046745 -0.037371144
000130 1b 1d 6a 3e 3c 2f 25 3d fa 9a 5f be 99 99 82 be
       0.22862665 0.04032825 -0.21836463 -0.2550781
000140 4e 22 95 bd 1b 35 14 be 79 66 56 3c 5f c0 a7 3d
       -0.07281934 -0.14473383 0.013085955 0.08190989
000150 f8 35 1c 3e 7f ac 4f 3d 6c 92 24 be c7 78 1d bf
       0.15254962 0.050701614 -0.1607148 -0.61512417
000160 fa c1 2a 3d 16 bf de 3d fb a8 7e bd 8f dc ae 3e
       0.041688897 0.108762905 -0.06217287 0.34152648
000170 ba c8 e9 bd 12 89 ac 3d 3f 05 16 be 59 64 45 3e
       -0.11415239 0.084245816 -0.14650439 0.19276561
000180 40 b3 26 be 02 1e 3c 3e 4f fb da 3e 22 9b 1b be
       -0.16279316 0.18370822 0.42769858 -0.15195897
000190 66 2f a1 3e 65 f2 3f 3d 65 9f 1f bf c3 9b 30 3e
       0.31481475 0.046862025 -0.6235259 0.17246918
0001a0 ca 94 60 bc 94 2f e6 3d 47 30 c3 3e 71 d8 67 bc
       -0.013707349 0.112395436 0.3812277 -0.014150725
0001b0 f8 d4 99 3e fb ba 14 be 1b 65 03 be 88 ac 85 3e
       0.30045295 -0.14524452 -0.12831537 0.26108193
0001c0 d4 b1 be bd 0b d7 28 3f ba b2 97 3b 2b 73 c4 3e
       -0.09311262 0.6595313 0.00462946 0.38369116
0001d0 67 90 e8 3e 04 c1 c3 3e a8 9c 15 bd 6f b7 03 bf
       0.4542267 0.38233197 -0.036526352 -0.5145177
0001e0 c2 12 5e be d6 69 63 3d 8a 64 9d bc e5 84 cb 3e
       -0.21686843 0.055520855 -0.01921298 0.39749828
0001f0 f9 82 2e 3e d6 96 21 3f 85 0d ee bc a5 53 de 3e
       0.1704215 0.6312078 -0.029059181 0.4342319
000200 44 8b 4d 3e c3 e2 d8 be db 88 c6 bd 76 8a 24 3e
       0.20072657 -0.42360505 -0.09694072 0.16068444
000210 01 0e ea b9 7f 71 4f 3e 1f d9 0c 3e 90 9a 36 3c
       -0.00044642392 0.20258139 0.137547 0.011145249
000220 1a 69 7a 3e 8f e3 0b 3f e8 99 18 bd 6a db f5 3b
       0.24454156 0.546441 -0.03725615 0.007502963
000230 a7 9c cf 3e 8d e1 85 3e 57 90 69 3e cb c1 b1 bd
       0.40549204 0.26148644 0.22808968 -0.08679541
000240 d0 8b 20 3e 70 e0 64 3d f4 ad b6 3e 51 ce 73 3d
       0.15678334 0.055878103 0.3567959 0.05952293
000250 f0 89 56 3e 3f d0 1a 3e 8d db a3 3b 4e 76 33 3e
       0.20951056 0.15118502 0.0050005377 0.17525598
000260 99 a9 8c be 22 a2 6d be bb 52 24 bc 52 0f a7 bc
       -0.27473143 -0.2320638 -0.01002949 -0.020393047
000270 c8 40 82 3d 31 c9 47 3e f7 b6 b3 3e d8 4f 3c be
       0.06360012 0.19510342 0.3510053 -0.18389833
000280 95 d0 a4 be 53 ad b5 bd ef e3 32 3e 8f f9 7a 3e
       -0.32190385 -0.088709496 0.17469762 0.24509262
000290 bb 82 04 be 02 ab 96 3e 43 a0 ac 3e 83 ac aa be
       -0.12940495 0.29427344 0.3371602 -0.3333474
0002a0 59 64 eb 3e a4 5d 41 bd d3 e0 67 be 3d 35 fb 3d
       0.45974997 -0.047208443 -0.22644357 0.12266014
0002b0 f5 b4 ad 3c 97 7b 00 3f 08 88 1e 3d 9b 20 62 3c
       0.021204451 0.50188583 0.03870395 0.013801719
0002c0 62 02 3e be cc 5e c3 3d 60 e6 47 bc ed a2 14 be
       -0.18555596 0.095395654 -0.012200922 -0.14515276
0002d0 a1 3a 8d 3e ae 6b 52 bd 5f 7a 00 3e d1 37 3a bb
       0.27583793 -0.051372223 0.12546681 -0.0028414617
0002e0 f2 07 9f 3d e9 f7 04 3e a7 53 ea be 81 b4 96 3e
       0.07765187 0.12985195 -0.45766947 0.2943459
0002f0 11 34 48 be 84 e2 5c 3d f4 2a 93 bd e5 91 fa 3e
       -0.19551112 0.05392696 -0.07185927 0.48939434
000300 21 1b 8a bd d5 c8 a2 3e 31 c2 69 bd 2f 43 c4 bd
       -0.06743456 0.31793848 -0.05706996 -0.09583127
000310 87 c1 e6 3b 2c 8a ac bd 40 99 99 3d ed 9d 9f bd
       0.007042113 -0.08424792 0.07499933 -0.07793794
000320 f2 40 05 3f b3 42 a3 bd 53 56 ad be ef 53 16 be
       0.52052224 -0.07971706 -0.33854923 -0.14680456
000330 9f f6 93 3e d3 01 d8 3d e1 91 23 3f 50 7c dd be
       0.28899094 0.10547223 0.6389447 -0.43258905
000340 df b2 04 be 73 8d 20 bf 48 e7 76 3e b4 6b 19 3f
       -0.12958859 -0.62715834 0.24111664 0.59929967
000350 2f 81 9a be 9e f9 f4 3e 17 25 7e 3d 9e 20 25 3e
       -0.30176684 0.47846693 0.06204709 0.16125724
000360 16 1a e0 3e 15 fa 14 3f c8 e6 d0 be 12 d6 ac bd
       0.43769902 0.58194095 -0.40801072 -0.08439268
000370 fc 07 f1 bd be 55 e1 3d c4 ae 8a 3d 19 24 1e be
       -0.11769101 0.11002682 0.06771615 -0.15443458
000380 8e f2 96 3e c5 c3 86 3d 0a 18 c4 3e 99 fe bc 3e
       0.2948193 0.06580309 0.3829959 0.36912993
000390 d6 75 fd 3e eb 56 db 3e e0 8f 8b be 89 1a 7b be
       0.49503964 0.4283975 -0.27258205 -0.24521841
0003a0 c0 01 e2 3e 60 3d 97 3c 2d df 7a be cf 78 30 be
       0.4414196 0.018461883 -0.24499197 -0.17233585
0003b0 c6 e4 51 3e ca 1b 62 bd 55 c5 75 bd 7e b4 06 3e
       0.20497426 -0.055202283 -0.060002644 0.1315479
0003c0 43 7f cb 3d ec 72 5a be 39 07 d0 bd d9 e4 c4 3d
       0.099363826 -0.21332902 -0.101576276 0.09613962
0003d0 24 a1 06 bf 21 7c d0 3e 78 36 c9 bd 6b 52 b8 3e
       -0.5258963 0.40719703 -0.09824842 0.3600038
0003e0 0e 7b 8a be 96 99 a1 3d a9 3d 6b be ad 12 aa 3e
       -0.27047008 0.07890622 -0.2297274 0.33217373
0003f0 78 77 b5 3e c6 54 3c bd 06 ef 19 3a 78 c9 48 3e
       0.3544271 -0.045979284 0.0005872104 0.19608104

net.4.bias f4 [5]
000000 20 97 99 3d 4c 6c 36 bd 33 e2 df 3d fe d2 92 bc
       0.07499528 -0.044536874 0.10931816 -0.017922875
000010 25 3d df 3d
       0.10900334
