models/Level3/checkpoint_3000/agent_0.pth (torch, 286024 bytes, 6 tensors)

net.0.weight f4 [256, 14]
0	0xbe24a3d5	-0.16078122
1	0xbe3abb42	-0.18235496
2	0x3e1b2359	0.15150203
3	0x3d967d36	0.07348101
4	0xbe044d57	-0.12920128
5	0xbe88c35a	-0.2671154
6	0x3d3d59f9	0.046228383
7	0xbea96fcf	-0.33093116
8	0x3e6ed676	0.23323998
9	0x3ddb578f	0.1071006
10	0x3ebb441c	0.365754
11	0x3dc73482	0.09726812
12	0x3eab2059	0.33423117
13	0xbdaa6b38	-0.083212316
14	0xbd3f5e5c	-0.046720847
15	0xbd766fc7	-0.060165193
16	0xbd2ed5cf	-0.042684373
17	0xbec05083	-0.37561426
18	0x3e18b619	0.14913215
19	0xbdd89ef8	-0.10577196
20	0xbdd9e7a0	-0.10639882
21	0x3ebbf0d5	0.36707178
22	0xbea68d23	-0.32529554
23	0xbe9777bf	-0.29583547
24	0xbe493365	-0.19648512
25	0x3e6c50eb	0.23077743
26	0x3ebd0473	0.36917457
27	0x3e72e05f	0.23718403
28	0x3dcd8b7c	0.1003637
29	0x3e5744b5	0.21022303
30	0x3daba80e	0.08381663
31	0x3d68fdfd	0.056882847
32	0x3d2535b3	0.040334415
33	0xbc58029a	-0.013184214
34	0x3cc1691a	0.023609687
35	0xbdb36e13	-0.08761229
36	0xbe964792	-0.2935148
37	0xbea11820	-0.31463718
38	0x3e896be8	0.26840138
39	0xbe87d7cb	-0.26531824
40	0x3d9b5894	0.07585254
41	0x3bfbc2cb	0.0076831332
42	0x3e553c9f	0.20823906
43	0x3c8c006c	0.017090045
44	0x3e2880c0	0.16455364
45	0xbe78ce60	-0.24297476
46	0x3d49fcd5	0.049313385
47	0x3e047c30	0.12937999
48	0x3eab9fab	0.33520254
49	0xbe0a4a23	-0.13504843
50	0xbdaf2372	-0.085516825
51	0xbda57cb1	-0.080804236
52	0xbe8e1152	-0.2774759
53	0x3ed89c84	0.42306912
54	0xbe3822dd	-0.1798205
55	0xbe490461	-0.19630577
56	0xbe6702a2	-0.22559598
57	0xbb2e799a	-0.0026622773
58	0x3d3a6b4d	0.045512486
59	0x3d9183ec	0.0710524
60	0x3e48654c	0.19569892
61	0x3d2610cf	0.040543374
62	0x3de16331	0.110052474
63	0xbe3ae3aa	-0.1825091
64	0x3e95d582	0.29264456
65	0x3e3aa6e6	0.18227729
66	0xbea814f2	-0.3282848
67	0x3ecd2980	0.40070724
68	0xbd5c439c	-0.053775415
69	0x3e01a10b	0.1265909
70	0xbe5011dc	-0.20319313
71	0x3e89824f	0.2685723
72	0xbed0df7b	-0.40795502
73	0xbe6f0274	-0.2334078
74	0xbe1b157f	-0.15144919
75	0x3d8c9daa	0.068660095
76	0x3d6185e0	0.055059314
77	0x3ea584e3	0.32327947
78	0x3df502e9	0.11963446
79	0xbe4a95a3	-0.19783644
80	0x3e818e80	0.2530403
81	0x3e870a25	0.26374927
82	0xbdc36f78	-0.09542745
83	0x3e462db8	0.19353378
84	0x3dc11879	0.09428496
85	0x3caf1878	0.021373972
86	0x3e00ac14	0.12565643
87	0x3e31c9ec	0.17362183
88	0x3df09971	0.117480166
89	0x3d2fd073	0.042923402
90	0x3de55121	0.11197115
91	0xbe8a6d6c	-0.27036607
92	0x3e62e57d	0.22157855
93	0xbebee3ad	-0.37283078
94	0xbd9bb7ea	-0.07603438
95	0x3de7fdd2	0.11327709
96	0xbe139575	-0.14412482
97	0x3e516b0d	0.20450993
98	0x3d55aa56	0.052164398
99	0x3efd1e40	0.4943714
100	0xbeaad230	-0.33363485
101	0x3ee79fde	0.45239156
102	0x3e40560e	0.18782827
103	0x3cc2089c	0.023685746
104	0x3d233ac6	0.039850973
105	0xbdb55c9d	-0.08855555
106	0x3dcfccaa	0.101464584
107	0xbe6abe28	-0.22924101
108	0xbdfffc7f	-0.12499332
109	0xbe51bc67	-0.20482026
110	0x3ede44a0	0.43411732
111	0xbd414f82	-0.047194965
112	0xbe91db0e	-0.28487438
113	0x3e851f94	0.26000655
114	0x3d82456e	0.06360899
115	0xbe11b073	-0.14227466
116	0xbe5ef384	-0.21772581
117	0x3e8ebc16	0.27877873
118	0x3e2bc3be	0.16773888
119	0x3d0bfcae	0.03417652
120	0xbe29a0f3	-0.16565304
121	0xbd84f317	-0.06491678
122	0x3dbe4415	0.09290329
123	0xbcb50e86	-0.022101652
124	0xbe23de9b	-0.16002886
125	0xbcf579ab	-0.029965242
126	0xbe9bb39e	-0.30410475
127	0x3e45a4b7	0.19301115
128	0x3e64c00d	0.22338887
129	0x3eb35653	0.35026798
130	0x3e6e7058	0.23285043
131	0xbe598699	-0.21242751
132	0x3eb16b1e	0.34652036
133	0x3e137d6f	0.14403318
134	0xbe3243cb	-0.17408673
135	0xbeae1d77	-0.34006855
136	0x3e17390d	0.14767857
137	0x3d9c09ff	0.07619094
138	0xbe5d3ae4	-0.21604496
139	0xbec4268c	-0.3831066
140	0x3c399a6e	0.011328323
141	0x3ec758b8	0.38934875
142	0xbe9da1c8	-0.30787492
143	0xbd238d22	-0.039929517
144	0xbe026fca	-0.12737957
145	0x3e3cb6d8	0.18429124
146	0xbe8675a0	-0.26261616
147	0x3e930d3c	0.28721035
148	0xbe99973b	-0.29998192
149	0xbe0c8515	-0.13722642
150	0xbe764dba	-0.24053088
151	0x3cc90e35	0.024542907
152	0xbe56cced	-0.2097661
153	0x3e8fc675	0.28081098
154	0xbe82123f	-0.25404546
155	0xbcfff54c	-0.031244896
156	0xbe13a2ba	-0.14417544
157	0xbd0d790a	-0.03453926
158	0x3e6be276	0.23035607
159	0x3e4ff96c	0.2030999
160	0x3e6d0d2a	0.23149553
161	0x3e9e0e5e	0.30870336
162	0xbde837b3	-0.11338749
163	0xbe5f5d1b	-0.2181286
164	0xbe2075a9	-0.15669884
165	0xbe2e9c8e	-0.17051908
166	0xbd0ae461	-0.033909205
167	0xbe83f606	-0.25773638
168	0xbe1c5735	-0.15267642
169	0xbd6677d8	-0.056266636
170	0x3da43a88	0.080189764
171	0xbe0c620d	-0.13709278
172	0xbcad2bc5	-0.021139035
173	0xbe0db552	-0.138387
174	0xbe0def51	-0.13860823
175	0xbe224a99	-0.15848769
176	0xbdb4baed	-0.08824716
177	0x3e9c7b16	0.30562657
178	0xbeaba3bc	-0.33523357
179	0x3de2a697	0.11066931
180	0x3e51b400	0.20478821
181	0x3ea5ade5	0.32359233
182	0xbd790823	-0.060798775
183	0x3e3a6c30	0.18205333
184	0x3e36dcfb	0.17857735
185	0xbe12476e	-0.14285061
186	0xbd8bca51	-0.06825698
187	0xbdb3391f	-0.08751129
188	0xbd86ee01	-0.065883644
189	0x3e3a6dd6	0.18205962
190	0xbed34ed6	-0.41271085
191	0x3daf6ed0	0.08566058
192	0x3e6a4462	0.22877648
193	0xbe8e4d82	-0.2779351
194	0x3ddf8084	0.10913184
195	0xbe39fc38	-0.1816262
196	0x3e427e49	0.18993486
197	0x3e60fe56	0.21972021
198	0x3c8b7eb4	0.01702819
199	0x3e36138e	0.17780897
200	0x3db84b97	0.089987926
201	0xbdd381f7	-0.10327523
202	0xbd8f1138	-0.06985706
203	0xbde60d39	-0.11232991
204	0x3da3a56c	0.07990536
205	0xbe7f8244	-0.24952036
206	0x3dc61bf5	0.09673301
207	0xbeab34d3	-0.3343874
208	0xbde8a0da	-0.11358805
209	0xbebcc6b8	-0.3687036
210	0x3d01e193	0.031709265
211	0x3e2abdf8	0.1667403
212	0xbe1f7a4f	-0.15574001
213	0xbc03c740	-0.00804311
214	0xbded7953	-0.115954064
215	0xbd194f5f	-0.03742921
216	0xbe15af8b	-0.14617746
217	0x3ec37f6d	0.38183156
218	0xbe258e81	-0.16167642
219	0x3e615d4a	0.22008243
220	0xbe5de70c	-0.21670169
221	0x3ed6f705	0.41985336
222	0x3dfd4b0f	0.12367832
223	0xbd97e7a4	-0.07417229
224	0xbe7a8c7f	-0.24467658
225	0xbed196e5	-0.40935436
226	0xbeab68a5	-0.33478275
227	0xbeb350e5	-0.35022655
228	0xbd254fc8	-0.04035929
229	0x3e853fcd	0.2602524
230	0x3e2d9784	0.1695233
231	0xbd843a8e	-0.06456481
232	0xbd8927b4	-0.06697026
233	0x3d8abf9c	0.06774828
234	0x3e819c66	0.25314635
235	0x3e467b03	0.19382863
236	0xbd70c786	-0.05878403
237	0xbe090329	-0.13380112
238	0x3e36f8f9	0.17868413
239	0x3e379198	0.17926633
240	0xbe54b7bd	-0.20773216
241	0xbd970c42	-0.07375385
242	0xbd969b22	-0.07353808
243	0xbba7a24b	-0.0051157824
244	0x3ea4c944	0.32184803
245	0x3e610dae	0.21977875
246	0x3e027cce	0.12742922
247	0x3e17ed72	0.14836672
248	0x3e86d4f1	0.26334336
249	0x3e05d35d	0.1306891
250	0x3e7901b9	0.24317063
251	0xbdff574d	-0.12467823
252	0xbc681372	-0.014164792
253	0x3d2d75c6	0.042348646
254	0xbed16474	-0.40896952
255	0x3e80ad4a	0.2513221

net.0.bias f4 [256]
0	0x3e434813	0.19070463
1	0x3b26e800	0.0025467873
2	0xbe7bcf95	-0.24590905
3	0xbe935ef9	-0.28783396
4	0x3e973ce3	0.2953864
5	0x3e898489	0.2685893
6	0xbe342fc0	-0.1759634
7	0xbd194293	-0.037417006
8	0x3ea5be31	0.32371667
9	0x3e032706	0.12807855
10	0xbd55d7c2	-0.052207716
11	0x3e93951f	0.28824708
12	0x3e702488	0.23451436
13	0x3e181f67	0.14855729
14	0xbebc75fb	-0.36808762
15	0xbc773d96	-0.015090367
16	0xbe98c997	-0.298413
17	0xbdbac340	-0.09119272
18	0xbe14d305	-0.14533623
19	0x3db26917	0.087114505
20	0x3c3768b8	0.0111944005
21	0x3eaa7987	0.33295843
22	0x3db68d45	0.08913664
23	0xbd6bbf86	-0.057555698
24	0xbe85bb79	-0.26119593
25	0x3eb73f27	0.3579037
26	0xbe428d67	-0.18999253
27	0x3dc533e3	0.09629037
28	0x3e0fc633	0.14040451
29	0x3ecd5487	0.40103552
30	0x3e14d297	0.14533459
31	0x3e6fceaa	0.2341868
32	0x3deb50e3	0.11490037
33	0xbe7bc6b9	-0.24587525
34	0x3e940c01	0.28915408
35	0x3c4a893d	0.012361822
36	0x3e092c40	0.13395786
37	0x3e8cd858	0.27508807
38	0xbe625f71	-0.2210672
39	0xbecf41f4	-0.40480006
40	0xbe6d59e7	-0.23178826
41	0x3eb8d078	0.3609655
42	0x3dd601be	0.10449551
43	0x3da07e0e	0.07836543
44	0x3e878eea	0.26476222
45	0xbda43a1c	-0.08018896
46	0x3ed606d1	0.41802076
47	0xbe594806	-0.21218881
48	0xbe0734b3	-0.13203697
49	0xbe5a3592	-0.21309498
50	0xbdd25388	-0.102698386
51	0x3d33b9a8	0.043878227
52	0x3e5b0dd0	0.21391988
53	0xbde1471d	-0.10999892
54	0x3d1f88eb	0.038948935
55	0xbce4cd32	-0.027929876
56	0xbe28319b	-0.16425173
57	0x3e3280fb	0.17432015
58	0x3ec5631d	0.3855218
59	0x3e8e4780	0.27788925
60	0x3e8cd46a	0.2750581
61	0x3ebc31c0	0.36756706
62	0x3ba428d5	0.0050097504
63	0x3eb0edb8	0.34556365
64	0xbdaeed36	-0.08541338
65	0x3e69e03b	0.22839443
66	0x3ea14937	0.3150117
67	0x3e25ac81	0.16179086
68	0xbe987197	-0.29774162
69	0xbe5a9bbe	-0.21348473
70	0x3d816a06	0.063190505
71	0xbe528056	-0.20556769
72	0xbe14a556	-0.14516196
73	0xbcc1120b	-0.023568174
74	0x3ed7f668	0.4218018
75	0xbe612e35	-0.21990283
76	0x3d24a657	0.040197697
77	0x3e5b76ac	0.21431988
78	0xbe518808	-0.20462048
79	0x3e8bd0fe	0.27307886
80	0xbe9f6a2d	-0.31135693
81	0x3bc0ee0d	0.005887753
82	0xbdd9993a	-0.10624929
83	0x3e88ae14	0.2669531
84	0x3ec6492e	0.38727707
85	0xbd8ebff8	-0.06970209
86	0xbdabf605	-0.08396534
87	0xbd3f1138	-0.04664728
88	0x3e1b4a20	0.15164995
89	0xbe73df76	-0.23815712
90	0x3dbab634	0.09116784
91	0x3eb12b83	0.3460351
92	0xbd113415	-0.03545006
93	0xbd32826e	-0.04358142
94	0xbe00b528	-0.12569106
95	0x3e6e16ff	0.2325096
96	0x3eba6a21	0.36409095
97	0x3e61a92c	0.2203719
98	0x3d240e2b	0.040052574
99	0xbe143503	-0.14473347
100	0x3e84428c	0.2583202
101	0x3c208f35	0.009799768
102	0xbdba0a01	-0.09083939
103	0x3ecd8577	0.40140888
104	0x3e2b9d4c	0.16759223
105	0x3dd6b267	0.10483246
106	0xbd741763	-0.059592616
107	0x3e928883	0.28619775
108	0xbd9a4b69	-0.075339146
109	0x3e71317a	0.2355403
110	0x3e10dbe5	0.14146383
111	0x3d95f2ce	0.07321702
112	0x3eb98a49	0.36238316
113	0x3eace479	0.3376806
114	0xbd767f98	-0.060180277
115	0x3e601a79	0.21885099
116	0xbea9f2b2	-0.33192974
117	0x3ec95d9e	0.39329237
118	0x3eaba0c4	0.33521092
119	0x3e8abc5e	0.27096838
120	0xbcd6a2cf	-0.02620068
121	0xbe4d704a	-0.20062366
122	0x3e8d5294	0.27602065
123	0xbe343f04	-0.17602164
124	0x3eb2f883	0.34955224
125	0x3c8b7311	0.017022641
126	0xbcac0785	-0.02099968
127	0x3cf5dd9b	0.030012896
128	0xbdd4bac9	-0.10387189
129	0x3eb5800c	0.35449255
130	0x3d988282	0.074467674
131	0xbcd1f8bd	-0.025631303
132	0x3d9bfedb	0.07616969
133	0x3d138d52	0.036023445
134	0x3e3374bf	0.17525004
135	0x3e367719	0.1781887
136	0x3d91fedd	0.071286894
137	0x3e42072e	0.18948051
138	0x3e787a11	0.24265315
139	0xbe64c32a	-0.22340074
140	0x3ec871f3	0.39149436
141	0x3bf6b07f	0.007528364
142	0x3d4a4c8e	0.049389414
143	0xbe66e503	-0.22548299
144	0x3dac13cf	0.08402216
145	0x3e06a241	0.13147832
146	0x3dabc326	0.08386831
147	0x3edfc6f9	0.43706492
148	0xbd89b616	-0.06724183
149	0xbc21a5ed	-0.00986622
150	0xbe147d46	-0.14500913
151	0x3ee5b267	0.44862673
152	0x3e8eb59f	0.2787294
153	0x3e828ada	0.2549656
154	0x3e89cddf	0.2691488
155	0xbd65406a	-0.055969633
156	0x3ed8e225	0.42360035
157	0xbda7486c	-0.0816811
158	0x3dc7347c	0.097268075
159	0x3e677be7	0.22605859
160	0x3d56d1cc	0.05244617
161	0x3d31048d	0.04321723
162	0x3e4715d9	0.19441928
163	0xbdcda021	-0.10040308
164	0x3ea149ed	0.31501713
165	0xbe6119eb	-0.21982543
166	0x3e5df785	0.21676452
167	0x3e46176b	0.19344871
168	0x3e0aade3	0.13542895
169	0x3eb53049	0.353884
170	0x3dac445c	0.08411476
171	0x3dee4087	0.11633401
172	0x3eb5d477	0.3551366
173	0xbe109e97	-0.14122997
174	0x3e80be29	0.2514508
175	0xbe6b665b	-0.22988264
176	0x3d2783d2	0.040897198
177	0xbd19d898	-0.037560076
178	0x3eb21292	0.34779793
179	0x3ebcb268	0.36854863
180	0xbe2469ba	-0.16055956
181	0x3ec74eb1	0.38927224
182	0x3ecb19f0	0.39668226
183	0xbde0ac7e	-0.109704
184	0x3eb7cfb5	0.35900655
185	0xbb190367	-0.0023347975
186	0xbd845066	-0.06460647
187	0x3d87dad1	0.06633533
188	0x3d58eff8	0.052963227
189	0x3ecca82b	0.39972052
190	0x3eeb6ec2	0.4598294
191	0x3e2d45e7	0.16921197
192	0x3e110c0f	0.14164756
193	0xbe82de0d	-0.25560036
194	0x3e812413	0.25222835
195	0xbe52d452	-0.20588806
196	0x3e99f838	0.30072188
197	0x3eb69b6a	0.35665447
198	0x3e918d04	0.284279
199	0x3db0bef3	0.08630171
200	0xbe72f762	-0.23727182
201	0x3deb6062	0.11492993
202	0xbce658e6	-0.028118562
203	0xbd99ab34	-0.075033575
204	0x3ef9d066	0.48791808
205	0x3e637de7	0.22215997
206	0xbd9f7020	-0.07785058
207	0xbdd7d2bb	-0.105382405
208	0x3ed3fb8b	0.4140285
209	0x3e35f7d2	0.17770317
210	0xbea7fc9c	-0.32809913
211	0xbecac289	-0.39601544
212	0x3e6ccbab	0.23124568
213	0x3ce79158	0.028267547
214	0xbe720cc7	-0.23637687
215	0x3eae1fce	0.3400864
216	0x3d3ffb4d	0.04687052
217	0xbe99f5f7	-0.3007047
218	0xbdf850ce	-0.12124787
219	0x3d57d9ac	0.052697822
220	0xbedce5a1	-0.43143943
221	0x3dfcce80	0.12344074
222	0xbe0ee046	-0.13952741
223	0xbe1ea10b	-0.1549112
224	0x3edf55be	0.43620104
225	0x3ed7028d	0.41994134
226	0xbab66c48	-0.0013917768
227	0x3e10219e	0.14075324
228	0x3e794f30	0.24346614
229	0x3ebd5b80	0.3698387
230	0x3dfc17f6	0.12309258
231	0x3e75f3f1	0.24018838
232	0x3db573d6	0.088599846
233	0xbe773b57	-0.2414373
234	0x3db14620	0.086559534
235	0xbead0bfb	-0.33798203
236	0x3eaaf2a9	0.3338826
237	0x3dec6df3	0.11544409
238	0xbdb67014	-0.08908096
239	0xbd715a0a	-0.05892376
240	0x3d10a9d9	0.03531823
241	0xbe98ca42	-0.2984181
242	0x3ee192b5	0.4405724
243	0xbcfea32d	-0.031083668
244	0x3e525bdf	0.20542859
245	0x3e5e5e7d	0.21715732
246	0x3dace843	0.08442738
247	0x3e071a8e	0.13193724
248	0xbe4b4431	-0.19850232
249	0x3e3c4f62	0.18389657
250	0xbd8d3d77	-0.06896489
251	0x3e72c019	0.23706092
252	0xbe3ddbcf	-0.18540882
253	0x3ebe5e25	0.37181202
254	0xbe5a2a36	-0.21305165
255	0xbe2a67e3	-0.16641192

net.2.weight f4 [256, 256]
0	0x3d37a78a	0.044837512
1	0xbd669fcd	-0.05630474
2	0x3cdee7f8	0.02721022
3	0xbdd2b288	-0.102879584
4	0x3cf254bd	0.029581422
5	0xbdc59138	-0.09646839
6	0x3d911809	0.070846625
7	0x3cc61106	0.02417804
8	0xbdb1f4f0	-0.08689296
9	0x3c4a13bd	0.012333808
10	0xbdc94689	-0.09827907
11	0x3d2304a5	0.03979935
12	0x3d077dfb	0.03307913
13	0x3d8fbfbc	0.07018992
14	0x3c971205	0.01844121
15	0xbd40ce04	-0.04707147
16	0x3d4f6a82	0.050638683
17	0xbdd671fd	-0.1047096
18	0x3d71c5ba	0.059026457
19	0x3de47aac	0.1115621
20	0x3de7d16a	0.113192394
21	0x3dcab96c	0.09898648
22	0x3dd74843	0.1051183
23	0x3a9766d1	0.0011551027
24	0x3d84af9e	0.06478809
25	0xbe0b8fb3	-0.13629036
26	0xbc17ebf6	-0.009272566
27	0x3cb3cced	0.021948302
28	0x3e5654ee	0.20930836
29	0xbdbea010	-0.09307873
30	0xbb7a497b	-0.003819077
31	0xbbd4409e	-0.0064774295
32	0x3d51f455	0.051258404
33	0x3ca21996	0.019787591
34	0xbc97022e	-0.018433657
35	0x3bd6b7fa	0.0065526934
36	0x3dbfa392	0.093573704
37	0x3e068a27	0.13138638
38	0xbde5a149	-0.11212403
39	0xbd39c56f	-0.045354303
40	0x3d317ebc	0.043333754
41	0x3dbe3743	0.09287884
42	0x3d39316f	0.04521316
43	0x3d0a069e	0.033697717
44	0x3c18b1f8	0.009319775
45	0xbc8fd3d1	-0.017557057
46	0xbcda4116	-0.026642364
47	0xbc40165e	-0.011724083
48	0x3d9e57c6	0.07731585
49	0xbdbbe530	-0.091745734
50	0x3de2919e	0.110629305
51	0x3dd6d256	0.10489337
52	0xbcce31c8	-0.025170222
53	0x3e345a5f	0.17612599
54	0x3d8b7d80	0.068110466
55	0xbd1a2a8a	-0.037638225
56	0xbce838b9	-0.02834736
57	0x3cccbd66	0.024992656
58	0x3dde1a7e	0.10844897
59	0xbae22cef	-0.0017255823
60	0x3a819032	0.0009884892
61	0xbd8141bd	-0.06311367
62	0xbcc48774	-0.02399037
63	0xbde9c048	-0.11413628
64	0x3e3adfcc	0.18249434
65	0x3d03080b	0.031990092
66	0xbd6b65c8	-0.057470113
67	0xbd1e8cda	-0.038708545
68	0x3c8d20da	0.017227579
69	0xbbdd7c4a	-0.006759201
70	0x3e094782	0.13406184
71	0x3db16159	0.08661146
72	0xbd806789	-0.06269748
73	0xbd080420	-0.03320706
74	0x3c371997	0.011175535
75	0xbd748f2c	-0.05970685
76	0x3c06c672	0.008226024
77	0x3e045606	0.1292344
78	0xbde2f82b	-0.110824905
79	0xbe3b5d5c	-0.18297333
80	0x3db896fe	0.090131745
81	0x3c683175	0.014171948
82	0x3d6e127a	0.05812309
83	0x3dd0b2fc	0.101903886
84	0xbd28c256	-0.04120096
85	0x3e03c8a8	0.12869513
86	0x3ba76d03	0.0051094308
87	0xbdbb5708	-0.09147459
88	0x3d3e0910	0.04639536
89	0x3e63e792	0.22256306
90	0x3e6c978d	0.23104687
91	0xbd6c25c5	-0.057653207
92	0xbccad567	-0.024759961
93	0x3cf73f00	0.030181408
94	0x3dd6d555	0.104899086
95	0xbdda86c4	-0.10670236
96	0x3daa08d6	0.083024666
97	0xbd5acc4e	-0.053417496
98	0x3d52319e	0.05131685
99	0x3dae25f4	0.08503333
100	0x3da35c4d	0.07976589
101	0x3d684543	0.056706678
102	0xbd2c43e3	-0.04205693
103	0x3e5fb9f4	0.21848279
104	0x3e257296	0.16156992
105	0xbd75ed78	-0.06004092
106	0x3e2706d4	0.16311198
107	0xba67ec8e	-0.00088472
108	0x3b008b8a	0.0019614422
109	0x3d89b118	0.06723231
110	0x3e598220	0.21241045
111	0xbd1aef71	-0.037826005
112	0x3d16d2b2	0.03682203
113	0x3e356ed4	0.17718059
114	0x3abfadd2	0.0014623946
115	0x3ada3a50	0.0016649459
116	0x3dc540a7	0.09631472
117	0xbb9116ad	-0.004427752
118	0x3ce469bb	0.027882447
119	0x3d259ba2	0.040431626
120	0xbb4aa836	-0.0030923015
121	0xbc6550bd	-0.0139963
122	0x3d3d0c87	0.046154525
123	0x3cc795ad	0.024363363
124	0x3d831332	0.064001456
125	0xbd2d3e41	-0.042295698
126	0xbdd86c69	-0.105675526
127	0x3dd9fbf7	0.106437616
128	0x3b810960	0.003937885
129	0x3e0a0c26	0.13481197
130	0xbd95fd9b	-0.07323762
131	0x3d125bfb	0.03573225
132	0xbc4c250b	-0.012460004
133	0xbc5aa305	-0.013344531
134	0x3cf79c01	0.030225756
135	0x3dbb5438	0.09146923
136	0xbd32e962	-0.043679602
137	0xbc164423	-0.0091715185
138	0xbd897f7d	-0.067137696
139	0x3c29ce1d	0.010364083
140	0xbdedc53d	-0.11609886
141	0x3d85183a	0.064987615
142	0x3c153af4	0.009108294
143	0x3d83e707	0.06440549
144	0xbc9137e2	-0.017726842
145	0xbced17cf	-0.028942017
146	0x3e0a1246	0.13483533
147	0xbdec470e	-0.1153699
148	0x3c54caa6	0.012987768
149	0x3d62c32c	0.05536191
150	0x3d7a46fe	0.06110286
151	0xbc673d13	-0.014113682
152	0x3de2f14c	0.1108118
153	0x3d7241c8	0.059144765
154	0x3ce5cb3b	0.02805101
155	0x3e464f2d	0.1936614
156	0xbb75de24	-0.003751644
157	0xbbf27f43	-0.0074004247
158	0x3dcf386a	0.10118182
159	0xbd3f61fa	-0.046724297
160	0x3b3aefb6	0.0028524227
161	0x3d64df44	0.055876985
162	0xbd7372e1	-0.05943573
163	0x3dbe0825	0.09278897
164	0x3cd594bd	0.0260719
165	0xbe2730e9	-0.16327251
166	0x3b786f11	0.0037907998
167	0x3c17ff21	0.009277136
168	0x3e6b9e5b	0.23009627
169	0xbca268f9	-0.019825445
170	0x3d0f665a	0.03500972
171	0xbd9c756d	-0.07639585
172	0xbc100024	-0.008789096
173	0x3e266fda	0.16253605
174	0xbd62a576	-0.055333577
175	0xbda9ea13	-0.08296599
176	0xbd8148df	-0.06312727
177	0x3d5f3f8f	0.054503974
178	0xbb9c8aa4	-0.0047772694
179	0xbd046273	-0.03232045
180	0x3d83f178	0.06442541
181	0xbdb464d5	-0.08808295
182	0x3d9eba84	0.07750419
183	0xbd3d952d	-0.046284843
184	0xbcbcf1a5	-0.023064444
185	0x3d476feb	0.048690718
186	0xbe0d21c6	-0.13782415
187	0x3b9b0031	0.0047302474
188	0x3d94533e	0.0724244
189	0xbd62ba6f	-0.05535358
190	0x3b35afd1	0.0027723203
191	0xbba4d2e3	-0.0050300225
192	0x3ce67d7a	0.028136004
193	0xbd861269	-0.0654648
194	0x3bcdf9ff	0.0062859054
195	0x3c5ea664	0.013589475
196	0xba456330	-0.00075297337
197	0xbd8a8c8f	-0.06765091
198	0x3d6178bc	0.055046782
199	0x3ddbf7bf	0.10740613
200	0x3ea8c276	0.32960862
201	0xbd52fe06	-0.051511787
202	0x3dc1b1e2	0.094577566
203	0x3db4f1fb	0.088352166
204	0xbdcbddf5	-0.09954444
205	0xbe0484a7	-0.12941228
206	0xbd0af23d	-0.033922423
207	0xbe15b166	-0.14618453
208	0x3c0356b8	0.008016281
209	0x3d870baa	0.065940216
210	0xbd8cb536	-0.06870501
211	0xbd0839b9	-0.033258174
212	0x3d25e0bf	0.040497538
213	0x3d34a88b	0.044106048
214	0x3cafbfe8	0.021453813
215	0x3c9a6e51	0.018851431
216	0x3d953d1b	0.072870456
217	0xbccee42d	-0.025255287
218	0xbd2062d6	-0.039156757
219	0xbddaf756	-0.10691707
220	0xbd865d84	-0.065608054
221	0x3d902231	0.070377715
222	0xbd003a6e	-0.031305723
223	0x3d418217	0.047243204
224	0x39e18368	0.0004301325
225	0xbd14fc2d	-0.036373306
226	0xbd6e5c39	-0.05819342
227	0xbc8cf28d	-0.017205501
228	0xbc83a4b9	-0.016069757
229	0x3d115926	0.03548541
230	0x3ca4ca73	0.020116067
231	0x3e84ef8b	0.25964007
232	0x3d1f326e	0.038866453
233	0xbdf4e446	-0.11957602
234	0xbd79d3b3	-0.060992908
235	0xbda13cc4	-0.07872918
236	0x3caf8f0c	0.021430515
237	0x3d4a15c0	0.04933715
238	0x3e4b30c4	0.19842821
239	0xbdecd716	-0.11564462
240	0xbc18cd9e	-0.009326367
241	0x3d56c3f7	0.05243298
242	0x3de0754e	0.10959874
243	0xbcc1f956	-0.023678463
244	0x3e8e0263	0.27736196
245	0xbd741fab	-0.059600513
246	0xbb8b5e6d	-0.0042532
247	0xbcf1f946	-0.029537808
248	0x3c88d715	0.016704122
249	0x3d8d999b	0.069140635
250	0xbd3d9e60	-0.046293616
251	0x3dce74cb	0.1008087
252	0x3d15582e	0.036461048
253	0xbdc22c11	-0.09481061
254	0x3d5a20a6	0.053253792
255	0x3c488713	0.012239235

net.2.bias f4 [256]
0	0x3d46578a	0.048423328
1	0x3d49b404	0.049243942
2	0xbc9000ca	-0.017578501
3	0x3d923862	0.071396604
4	0xbdc1bef1	-0.09460247
5	0xbd552947	-0.05204132
6	0xbcdb36b8	-0.02675949
7	0xbe1a2b06	-0.15055475
8	0xbd4c1122	-0.049821027
9	0x3accb69c	0.0015618387
10	0x3dbff9ee	0.09373842
11	0xbb8c147c	-0.004274903
12	0x3d58fd6c	0.052976057
13	0x3d9b8f09	0.07595641
14	0x3d17e223	0.037080895
15	0x3e66ab52	0.22526291
16	0xbc750d22	-0.014956744
17	0xbe099351	-0.13435103
18	0x3e08a056	0.13342413
19	0x3df480c8	0.119386256
20	0xbc2f39e5	-0.0106949555
21	0x3e051e90	0.1299994
22	0x3d7e087e	0.062019818
23	0x3d9379c1	0.07200957
24	0x3d240f13	0.04005344
25	0xbcc61fad	-0.024185026
26	0x3d8a472f	0.067518584
27	0xbe44fe6a	-0.19237676
28	0x3d5c099d	0.053720105
29	0x3ddd3423	0.1080096
30	0x3cba5b08	0.022748485
31	0x3df24ff2	0.118316546
32	0x3d60883a	0.054817416
33	0x3aff022d	0.0019455604
34	0xbde386d3	-0.111097
35	0xbdc24f1a	-0.09487744
36	0xbc66e78a	-0.014093289
37	0x3cfcecca	0.030874629
38	0x3e0905ee	0.13381168
39	0x3d8a3829	0.06748993
40	0x3d772520	0.06033814
41	0x3dab14fe	0.08353613
42	0x3e168fd1	0.14703299
43	0xbd2a09aa	-0.041513123
44	0x3d909a14	0.07060638
45	0x3db516d9	0.088422485
46	0x3e05e41c	0.13075298
47	0x3e067776	0.13131508
48	0x3cc2885e	0.023746666
49	0x3c68e6ef	0.014215215
50	0x3dd7b543	0.1053262
51	0x3bbe90a7	0.0058155837
52	0x3d6bb36d	0.05754416
53	0xbe16b160	-0.147161
54	0x3daecdc9	0.08535344
55	0x3bc1f0d3	0.005918601
56	0x3d1d4ee4	0.038405314
57	0x3ca1639d	0.01970082
58	0x3b573c84	0.0032842467
59	0x3d4bf685	0.049795646
60	0x3d4c69ac	0.049905464
61	0xbd49e583	-0.049291145
62	0xbd4e82f5	-0.05041786
63	0x3c3b67f6	0.01143836
64	0x3cf96fb3	0.03044877
65	0x3e2ecab1	0.17069508
66	0xbcec39f3	-0.028836226
67	0x3d45e912	0.048317976
68	0x3dd33d25	0.10314397
69	0xbcf5674c	-0.029956482
70	0xbd960de0	-0.07326865
71	0xbcc3c346	-0.023896825
72	0x3e063250	0.1310513
73	0x3e0b3aa4	0.13596588
74	0x3de71497	0.11283224
75	0x3e00461d	0.12526746
76	0x3d66e909	0.056374583
77	0x3ddcdbad	0.10784087
78	0x3ba6e23e	0.005092888
79	0xbd2089d3	-0.03919394
80	0x3d2cf511	0.0422259
81	0x3d552e3f	0.052046057
82	0xbdcf874c	-0.10133228
83	0x3dc76e1a	0.09737797
84	0x3d7ecc9e	0.062206857
85	0x3ba71cd2	0.005099871
86	0x3d05f6f7	0.032706227
87	0x3d021649	0.031759534
88	0x3d991c17	0.07476061
89	0xbbc468a0	-0.0059939176
90	0x3d32cfa1	0.04365504
91	0xbd5b7072	-0.053574033
92	0x3b39e901	0.002836764
93	0x3dbc53dd	0.09195683
94	0xbcd8baf4	-0.026456334
95	0xbcf19b73	-0.02949307
96	0xbd3cf176	-0.046128713
97	0xbcd8c4c5	-0.026461015
98	0x3d1e16f8	0.038596123
99	0x3d8e7b82	0.06957151
100	0x3cc2b61f	0.023768483
101	0x3d15f314	0.03660877
102	0xbcbc1990	-0.022961408
103	0xbc49a500	-0.0123074055
104	0x3c1ee6d0	0.009698585
105	0x3e0b4f73	0.13604526
106	0x3d3150c1	0.043289904
107	0x3da6429c	0.081181735
108	0xbd5a7d91	-0.053342406
109	0xbd2c55c5	-0.042073984
110	0xbab3334e	-0.0013671906
111	0xbd6ecaa1	-0.05829871
112	0xbceaae26	-0.028647494
113	0x3d221454	0.039570168
114	0xbccfde8c	-0.025374673
115	0xbaf1cb90	-0.0018447507
116	0x3d90f01e	0.07077049
117	0xbd061072	-0.032730527
118	0x3d3c1376	0.045916997
119	0x3d86e59d	0.06586764
120	0x3d886a75	0.0666093
121	0xbc50124f	-0.012699678
122	0x3e22cb7e	0.15897939
123	0x3da0a5d0	0.07844126
124	0x3dc46fa3	0.095916055
125	0x3d40b44a	0.047046937
126	0xba7a4c3e	-0.0009548104
127	0x3d5011d5	0.050798256
128	0x3b9e6ab5	0.004834498
129	0x3d8cb69a	0.06870766
130	0x3d3e016b	0.04638807
131	0x3dee4ba6	0.116355225
132	0x3d8fc277	0.07019513
133	0x3e0b4694	0.13601142
134	0x3da26322	0.07929064
135	0xbd83419c	-0.06408998
136	0x3d31f221	0.043443803
137	0xbd553006	-0.05204775
138	0xbd1acef8	-0.037795037
139	0xbd988b1c	-0.07448408
140	0x3d55373c	0.05205463
141	0x3d34f9ac	0.04418342
142	0xbc1cde75	-0.009574522
143	0x3dd1ec0a	0.10250099
144	0x3d47967a	0.04872749
145	0x3dd4da19	0.10393161
146	0xbd571801	-0.052513126
147	0xbd371e6e	-0.044706754
148	0xbd1c5e88	-0.03817609
149	0x3db9ce97	0.09072607
150	0x3c8ba842	0.017048005
151	0xbc0a2e16	-0.008433839
152	0x3da06406	0.07831578
153	0x3d9dc06e	0.07702719
154	0xbd24116e	-0.040055685
155	0x3d936504	0.071970016
156	0xbca9a494	-0.02070836
157	0x3d2606ac	0.040533707
158	0xbca288ed	-0.019840682
159	0x3d786901	0.060647015
160	0xbd325e04	-0.04354669
161	0xbca9ffd2	-0.020751867
162	0x3d65c0db	0.056092124
163	0x3ba60411	0.0050664027
164	0xbd5ea9f5	-0.054361302
165	0x3d5c4a03	0.05378152
166	0xbde34c01	-0.11098481
167	0x3d70e8af	0.058815654
168	0x3dc52b29	0.09627373
169	0x3a3d2adf	0.0007216166
170	0xbbf95cb0	-0.007609926
171	0x3a9b8e52	0.0011867976
172	0x3d74b366	0.0597414
173	0xbc63a3eb	-0.013894062
174	0x3d43a7fa	0.047767617
175	0x3c0819df	0.008306949
176	0xbd29ed02	-0.041485794
177	0xbd54babd	-0.0519359
178	0x3b4e85b6	0.0031512803
179	0x3d6b1e80	0.057402134
180	0xbd522010	-0.05130011
181	0x3dcf3485	0.10117439
182	0x3cc7a7ec	0.024372064
183	0xbd2b0c21	-0.041759614
184	0xbd5c5122	-0.05378831
185	0x3dc29a20	0.09502053
186	0x3d1b3c6b	0.037899416
187	0xbc67e12b	-0.014152805
188	0xbe008903	-0.12552266
189	0xbe7694b5	-0.24080165
190	0xbd28f4d1	-0.0412491
191	0xbdbdab16	-0.09261148
192	0x3b81ae64	0.0039575566
193	0x3d89a4a7	0.06720858
194	0x3dd58829	0.10426361
195	0xbd26e0fb	-0.0407419
196	0x3d925b91	0.07146371
197	0x3db0c9b0	0.08632219
198	0x3c77a576	0.015115133
199	0x3cf408a3	0.029789275
200	0xbd04c4e1	-0.03241432
201	0x3d55f94e	0.05223971
202	0x3c63a152	0.013893442
203	0x3dcc7598	0.09983367
204	0x3d9fddc3	0.078059696
205	0xbc55dc38	-0.0130529925
206	0x3d3c0394	0.04590185
207	0x3d0c6f1b	0.034285646
208	0xbcd42a9a	-0.02589922
209	0xbd72fe22	-0.05932439
210	0x3e106dc9	0.1410438
211	0x3e4f795d	0.2026114
212	0xbc599239	-0.013279491
213	0x3d9e813e	0.07739495
214	0xbe12cf8d	-0.14336987
215	0xbce54976	-0.02798913
216	0x3b4def00	0.0031422973
217	0xbd25d9e4	-0.040491
218	0x3d8751e3	0.066074155
219	0xbab2956d	-0.0013624855
220	0x3e0cb0b8	0.13739288
221	0x3cbd336c	0.023095809
222	0x3d467eeb	0.048460882
223	0x3e1b9995	0.15195306
224	0x3ccc3208	0.0249262
225	0x3d9939ad	0.07481704
226	0x3d3c6d63	0.046002757
227	0x3d8a5fa5	0.06756524
228	0x3e56b8a0	0.20968866
229	0x3d62867b	0.05530403
230	0x3e095c22	0.13414052
231	0x3d8dd2c1	0.06924964
232	0xbc144a7c	-0.009050962
233	0xbe31fa96	-0.17380747
234	0xbdf888df	-0.12135481
235	0x3d5bd1e0	0.05366695
236	0x3d407d6b	0.046994608
237	0xbc867617	-0.016413732
238	0xbd94c4e2	-0.07264115
239	0x3de4bc95	0.11168782
240	0xbd1affbe	-0.03784155
241	0x3db73c8c	0.08947095
242	0x3d610894	0.05493982
243	0x3d13c2d1	0.036074463
244	0x3d54477f	0.051825996
245	0x3e0e8a0c	0.13919848
246	0x3d504f8b	0.050857108
247	0xbcf44302	-0.029817108
248	0x3d9b4940	0.07582331
249	0x3db9268f	0.090405576
250	0x39bb2cf3	0.0003570091
251	0xbe0a46d9	-0.13503589
252	0xbd880088	-0.06640726
253	0x3d94ba63	0.07262113
254	0x3dbf3f2c	0.09338221
255	0x3ad07a72	0.0015905632

net.4.weight f4 [5, 256]
0	0x3c76700e	0.015041364
1	0x3e102692	0.14077213
2	0x3cd6344e	0.026147988
3	0x3e0a9e15	0.13536866
4	0xbcc5230f	-0.024064569
5	0xbd27b91c	-0.04094802
6	0x3d02faf8	0.031977624
7	0x3d06d9a6	0.03292241
8	0xbdb748ee	-0.08949457
9	0xbd0698cc	-0.032860562
10	0xbd5b058d	-0.05347209
11	0xbdf63317	-0.12021463
12	0x3e4e10e7	0.20123635
13	0xbe794872	-0.24344042
14	0x3d7c7e1f	0.061643716
15	0xbe213908	-0.15744412
16	0xbde645d2	-0.11243786
17	0x3db4cfd1	0.088287
18	0x3d974fdc	0.07388279
19	0x3e37e4ab	0.17958324
20	0x3d54038a	0.051761188
21	0x3d4954fe	0.04915332
22	0x3e0f61e9	0.14002194
23	0x3ddb70c6	0.10714869
24	0x3dfbfe39	0.123043485
25	0x3e0c3cd7	0.13695084
26	0x3e53e8cb	0.20694272
27	0xbeb549fe	-0.35408014
28	0xbe50222a	-0.20325533
29	0xba95b0cc	-0.0011420487
30	0x3dc8fec3	0.09814217
31	0xbe07900f	-0.13238548
32	0x3e1d9fda	0.1539301
33	0xbe291f3c	-0.16515821
34	0xbe5eb19c	-0.2174744
35	0xbe313676	-0.17305931
36	0xbba37f0e	-0.0049895113
37	0xbd517b6f	-0.051143106
38	0x3e822378	0.25417686
39	0x3e3ebd91	0.18627001
40	0x3df00d36	0.1172127
41	0x3d0188bd	0.031624544
42	0x3e61753d	0.22017379
43	0xbe49231c	-0.196423
44	0x3cfd65ea	0.030932385
45	0x3d8face6	0.070154
46	0xbd9f88ba	-0.077897504
47	0x3de957cd	0.113937
48	0xbe28cf37	-0.16485296
49	0xbe596f7e	-0.21233937
50	0x3db68ea8	0.08913928
51	0xbc110c94	-0.0088530965
52	0x3ddb60b1	0.10711802
53	0xbe078300	-0.13233566
54	0x3df707e4	0.12062052
55	0xbb94d8e9	-0.0045424593
56	0xbe3e4892	-0.18582371
57	0xbdf5c331	-0.120001204
58	0x3e0c78ec	0.13718003
59	0xbdde5844	-0.10856679
60	0xbe45772c	-0.19283742
61	0xbbce186f	-0.006289534
62	0xbd7745ff	-0.060369488
63	0x3d0d4af3	0.034495305
64	0x3df63020	0.12020898
65	0x3d4ef2da	0.05052457
66	0x3cfb1f51	0.030654581
67	0x3de41ad5	0.1113793
68	0x3e964f61	0.29357436
69	0x3d4d0043	0.050049078
70	0xbcebb427	-0.028772427
71	0x3d9af7e6	0.07566814
72	0xbe7e92ec	-0.24860734
73	0x3e03d16c	0.12872857
74	0x3e3c1162	0.18366006
75	0xbe80cc9f	-0.25156114
76	0x3d058d4e	0.03260546
77	0x3d724823	0.059150826
78	0x3d16bd0d	0.036801387
79	0xbdba5631	-0.09098471
80	0x3cf05227	0.029336048
81	0x3c07eb5a	0.008295858
82	0xbde00db4	-0.10940114
83	0x3d852617	0.06501406
84	0x3d1c7e25	0.03820624
85	0xbea0e5d5	-0.31425348
86	0x3d9189eb	0.07106384
87	0xbda612a6	-0.08109026
88	0x3dac5326	0.08414297
89	0xbe0d0877	-0.1377276
90	0x3d82e487	0.063912444
91	0x3acd7db4	0.0015677721
92	0x3d2a83d1	0.041629616
93	0x3e3e67c9	0.18594278
94	0xbd934fb8	-0.071929395
95	0x3d6d0b32	0.057872005
96	0xbdc82062	-0.097718015
97	0xbdbe3305	-0.09287075
98	0x3d050d45	0.032483358
99	0xbd4d50eb	-0.050125998
100	0xbe08ab76	-0.13346657
101	0x3e194bbb	0.14970295
102	0x3cb6b24b	0.022301814
103	0xbdd77658	-0.10520619
104	0x3c9e15b3	0.019297456
105	0x3d6871d6	0.056749187
106	0x3dd230e1	0.10263229
107	0x3b803eff	0.0039137597
108	0xbe22809f	-0.15869378
109	0xbdc6af99	-0.09701461
110	0xbd79cbd5	-0.060985405
111	0xbdc8b4d0	-0.09800112
112	0x3cf86b45	0.030324588
113	0x3d2e0b86	0.04249146
114	0xbe5c681b	-0.21524088
115	0xbe4bdb9a	-0.1990799
116	0xbd813b63	-0.06310155
117	0xbd6e7594	-0.0582176
118	0x3e023f82	0.12719539
119	0xbe20548c	-0.15657252
120	0xbe68cf9a	-0.22735444
121	0xbdcfba0d	-0.10142908
122	0xbe103230	-0.14081645
123	0x3d3126c5	0.043249864
124	0x3e1360fb	0.14392464
125	0x3db5c515	0.08875481
126	0x3cd77243	0.026299601
127	0xbda68c88	-0.08132273
128	0x3dbc1385	0.091834106
129	0x3df48639	0.119396634
130	0x3e2bd886	0.16781816
131	0xbd748097	-0.059692945
132	0xbd86381f	-0.06553673
133	0xbec1f625	-0.37883106
134	0x3e21d027	0.1580206
135	0xbc04e487	-0.008111126
136	0xbe48135e	-0.19538638
137	0xbb221a40	-0.0024734885
138	0xbd348524	-0.044072285
139	0xbd9706f1	-0.07374371
140	0x3e898eaf	0.2686667
141	0xbe3f44c7	-0.1867858
142	0x3d27fc29	0.041011963
143	0x3d500dad	0.050794292
144	0x3cf4aa39	0.029866325
145	0x3dd0a666	0.10187988
146	0x3d765691	0.06014115
147	0xbcf279f5	-0.02959917
148	0xbdc54dd0	-0.09633982
149	0x3dfc776a	0.12327464
150	0xba78444a	-0.0009470625
151	0xbd5ffabd	-0.054682482
152	0xbc40c7d0	-0.011766389
153	0x3d0d034a	0.034426965
154	0xbda16653	-0.07880845
155	0x3de8fa65	0.11375884
156	0xbde4a5f7	-0.11164468
157	0xbe0c23e2	-0.13685563
158	0x3e104189	0.140875
159	0xbd92cea6	-0.07168321
160	0xbdc559a2	-0.09636237
161	0xbdb3c7d8	-0.087783515
162	0xbdaf5ca5	-0.085625924
163	0xbe0993ad	-0.1343524
164	0x3d36c3f9	0.044620488
165	0xbe13f28d	-0.14447995
166	0xbdc7c6a8	-0.097546875
167	0x3db91370	0.090369105
168	0x3bdce550	0.0067412034
169	0xbc978d4c	-0.018499993
170	0xbd1a9bcc	-0.037746236
171	0xbe7fdf46	-0.24987516
172	0xbe00f00e	-0.12591574
173	0x3dfd70d2	0.123750344
174	0x3d9f7851	0.077866204
175	0xbe01838b	-0.12647836
176	0x3b4be9dc	0.0031114733
177	0xbda2906d	-0.07937703
178	0xbc41fd61	-0.011840195
179	0xbe4e2ad9	-0.20133533
180	0xbdd6bef4	-0.1048564
181	0xbb7f5f49	-0.0038966706
182	0x3d9dec72	0.07711114
183	0x3dae2c39	0.085045286
184	0xbe04c56b	-0.12965934
185	0x3dd7800f	0.10522472
186	0xbd9efd7b	-0.07763191
187	0xbccdb994	-0.025112905
188	0xbe7238c2	-0.23654464
189	0xbe3afe92	-0.18261173
190	0xbd440bff	-0.047863003
191	0xbdb00ef6	-0.085966036
192	0x3d0f1f10	0.034941733
193	0x3e3c527f	0.18390845
194	0xbe6a7761	-0.22897102
195	0xbb3a2709	-0.0028404614
196	0x3d53d8a1	0.051720265
197	0x3e0acc36	0.13554463
198	0xbdb60499	-0.08887596
199	0xbe002e75	-0.12517722
200	0xbe3495f6	-0.1763533
201	0x3cb5a3d3	0.022172844
202	0x3dccf24f	0.10007154
203	0x3e80bf9d	0.2514619
204	0xbdd245a5	-0.1026719
205	0x3db85ca2	0.09002043
206	0x3d910311	0.07080663
207	0x3cfff349	0.031243937
208	0xbe8b7c7e	-0.27243418
209	0xbde4fb36	-0.11180727
210	0x3e6914c6	0.2276183
211	0x3dee62d6	0.11639945
212	0x3d567ff3	0.052368116
213	0x3e19b3aa	0.15009943
214	0xbec1a10d	-0.37818184
215	0xbe106f17	-0.14104877
216	0x3d8a6ca7	0.06759005
217	0x3df941d4	0.12170759
218	0x3d8793c4	0.06619981
219	0x3d1f4fb6	0.038894378
220	0x3e065d5e	0.13121554
221	0xbdbd5ee8	-0.092466176
222	0x3d0ab906	0.03386786
223	0x3e1b6a0e	0.15177175
224	0xbe6f5a31	-0.23374249
225	0xbd92b059	-0.07162542
226	0xbdd76ad7	-0.10518425
227	0xbe43a747	-0.1910678
228	0xbdf2acd7	-0.11849373
229	0x3e0ada14	0.13559753
230	0x3dd571b4	0.10422078
231	0xbdd1d286	-0.10245232
232	0xbd9b9302	-0.07596399
233	0xbe27389d	-0.1633019
234	0xbe226c19	-0.15861548
235	0x3dc9fbd2	0.09862484
236	0xbde27728	-0.110578835
237	0xbd35d966	-0.04439678
238	0x3cf4ce19	0.029883431
239	0x3ddaa3c7	0.10675769
240	0xbdb34eb1	-0.087552436
241	0xbe04c6a6	-0.12966403
242	0xbe49145a	-0.1963667
243	0x3d9c7d15	0.07641045
244	0x3e2e91b9	0.17047776
245	0x3e12e597	0.14345394
246	0xbd192242	-0.037386186
247	0xbd1d9af8	-0.038477868
248	0xbbc750d4	-0.0060826335
249	0x3ceef17a	0.02916788
250	0xbe0c04be	-0.13673684
251	0xbe86647d	-0.2624854
252	0xbdecfd29	-0.11571724
253	0xbde22de7	-0.110439114
254	0x3d6a59b1	0.057214443
255	0x3d9f7216	0.07785432

net.4.bias f4 [5]
0	0x3a7e1cec	0.0009693641
1	0x3d84e6cf	0.06489336
2	0x3ccf6ee4	0.025321431
3	0xbd85b68c	-0.06528959
4	0xbcf25987	-0.029583706
