models_backup/actor_agent1.pt (torch, 149626 bytes, 6 tensors)

fc1.weight f4 [256, 12]
000000 de 90 d7 bd ee ee 18 3e be 4c 02 3e 60 bd 37 be
       -0.10525678 0.14934894 0.12724587 -0.17943335
000010 c0 6e 93 3e c4 88 04 be 0c 6f c7 3d 94 33 85 3e
       0.28795433 -0.12942797 0.097379774 0.26015913
000020 d3 aa 0a be 2b a5 01 be e4 eb 66 3e f8 d8 02 bd
       -0.13541727 -0.12660663 0.22550923 -0.0319452
000030 20 9c e9 3c 30 4f 6f 3e 9c 76 39 3e b4 e3 4a 3e
       0.028516829 0.23370051 0.18111652 0.19813424
000040 ca 45 d1 bd 12 71 23 be 02 01 15 be c0 a8 b6 bc
       -0.10218389 -0.15961102 -0.14551166 -0.022297263
000050 10 3b f1 bc 8f 96 11 be 28 be 8f 3d 5a 61 ac bd
       -0.029447109 -0.1421759 0.07018691 -0.08417006
000060 e4 51 99 bd c0 df 46 3d 08 1a 2c be 14 fc 62 3e
       -0.074863225 0.04855323 -0.16806805 0.22166473
000070 8b 4b 01 be b8 fb 0c bd b4 9b 4b be 00 6a 0e be
       -0.12626474 -0.034419745 -0.19883615 -0.13907623
000080 0c 1a 8e 3e dc 3f ef 3d b0 b7 55 bd ee a6 3f 3e
       0.27754247 0.11682102 -0.05217713 0.18716022
000090 68 85 81 be 34 3e af 3d 15 69 36 be e0 fe 47 3c
       -0.25297093 0.08556786 -0.17813523 0.012206763
0000a0 b0 68 71 3e cc 66 b1 3d a6 0a 86 3e 0e 40 2c 3e
       0.23575091 0.08662185 0.2618 0.1682131
0000b0 d0 c2 49 3e c3 35 5f be a0 86 34 bc f7 a8 00 be
       0.19703221 -0.21797852 -0.011018425 -0.12564455
0000c0 f4 f5 30 be 48 17 8c 3e 00 32 82 3d 48 f3 10 bd
       -0.17281324 0.27361512 0.06357193 -0.03538826
0000d0 7e 8f 4f be c4 51 af 3d 46 99 48 be 18 06 01 3e
       -0.20269582 0.085605174 -0.19589719 0.12599981
0000e0 b6 92 4d be cc 53 80 3e da 0d 2b be 40 99 b2 bd
       -0.20075497 0.25063932 -0.16704503 -0.08720636
0000f0 18 ac 85 bd 00 2a 33 3b 16 53 96 bd ec 68 39 be
       -0.06526965 0.0027338266 -0.07340066 -0.18106431
000100 28 24 65 3e e0 85 1f 3d 30 88 92 3c a8 2d 00 be
       0.22377074 0.038946033 0.017887205 -0.12517416
000110 7c 4c ea bd da e4 88 3e ce ef 89 bd c2 7f 42 3e
       -0.114403695 0.267371 -0.06735192 0.18994048
000120 6e ae e1 bd 24 ea 83 3e b0 a4 a2 bc 2d 7d 22 be
       -0.11019598 0.25764573 -0.01985392 -0.15868063
000130 2c 5f 7e 3e c4 2b aa 3d f0 0a 73 bd 54 ab 6d 3e
       0.24840993 0.08309129 -0.059336603 0.23209888
000140 18 7e 94 bd f2 29 06 3e 50 e2 e8 3d e0 b3 4e be
       -0.07250613 0.13101938 0.11371291 -0.20185804
000150 90 6a eb 3d 48 9a ad 3d 04 3d 05 be b9 06 27 be
       0.114949346 0.084766924 -0.13011557 -0.16311158
000160 98 37 15 bd b0 e2 d7 bc 18 9f 7d 3e 34 f1 93 3d
       -0.03642997 -0.02635321 0.2476772 0.0722374
000170 d0 5e d0 bc 50 07 4d 3e 30 8e e9 bc 82 49 47 be
       -0.025435835 0.20022321 -0.028510183 -0.19461635
000180 ea 0c 85 be 4c fe 63 3e be 12 84 be 70 e0 2f 3e
       -0.25986415 0.22264975 -0.2579555 0.1717546
000190 3c ed 72 3e d9 cf 8c be 80 d7 5c bb cc 76 72 3e
       0.2372331 -0.27502325 -0.0033697784 0.2367813
0001a0 5e c2 23 be b4 bb c6 3d 26 5e 8d 3e 54 dc ff 3d
       -0.15992114 0.0970377 0.27610892 0.12493196
0001b0 34 0c 8a 3d d0 aa ac 3c 20 f4 97 bd 8d 4a 64 be
       0.06740609 0.021077543 -0.0741961 -0.22294064
0001c0 70 38 15 bd 42 ce 55 3e c2 6f 88 bd 00 f0 79 3d
       -0.036430776 0.20879462 -0.06661941 0.061019897
0001d0 54 c6 4e 3e f5 ca 85 be fe 45 86 3e 86 18 55 3e
       0.20192844 -0.26131406 0.26225275 0.20810136
0001e0 86 10 8a 3e b0 3d ba bc 00 55 c5 3d 1c dd e2 bd
       0.2696573 -0.022734493 0.09635353 -0.110773295
0001f0 87 80 88 be d6 bf 71 be c2 f9 1a be c2 5a 78 be
       -0.2666056 -0.23608336 -0.15134338 -0.24253371
000200 dc 3c 68 3e 40 10 c0 3b c8 dd 65 3d a4 01 b9 3d
       0.22679466 0.005861312 0.05611971 0.09033516
000210 cc 29 46 3e a6 6b bf bd 54 99 54 be 4a b4 27 be
       0.19351882 -0.09346704 -0.20761615 -0.16377369
000220 e6 76 4a 3e 0c de 80 bd a0 81 7b 3c 28 0d 1c be
       0.19771919 -0.06292352 0.015350729 -0.15239394
000230 70 c6 d7 bc 40 a7 91 3c 94 b2 d9 3d 52 b7 10 be
       -0.02633974 0.017779946 0.10629764 -0.14132431
000240 d0 d3 5d 3e 6c 99 36 3e 7f 77 0f be 14 70 7e be
       0.21662831 0.17831963 -0.14010428 -0.24847442
000250 62 0a 3a be 28 6a fe 3d 24 91 65 3e cb 9a 56 be
       -0.18168023 0.124225914 0.22418648 -0.20957486
000260 de e4 88 be ec 5c ee bd 68 05 91 3d 98 41 09 3e
       -0.26737112 -0.11638817 0.07081109 0.13403928
000270 94 d7 a1 bd 8a dc 47 be 90 03 fd bc 50 00 c4 3c
       -0.079024464 -0.19517723 -0.030885488 0.02392593
000280 2c 49 3e be d6 ff 7d be 4a 49 27 3e 52 57 3b 3e
       -0.185826 -0.24804625 0.16336551 0.18295029
000290 6e 40 26 3e 78 3d cd 3d 4c 47 78 3e 00 a9 32 3d
       0.16235515 0.1002149 0.24245948 0.043618202
0002a0 6b 93 75 be 05 31 85 be f8 a0 62 3d 2c dd 4c be
       -0.23982017 -0.2601396 0.055329293 -0.20006245
0002b0 40 a5 14 bc 40 d5 82 3b 60 df 5b 3c 60 30 44 3d
       -0.009072602 0.0039927065 0.013419956 0.047897696
0002c0 35 f1 3f be 52 47 df bd 88 49 27 3d ec ad 54 be
       -0.18744357 -0.10902275 0.04084161 -0.20769471
0002d0 14 a8 44 be 90 89 15 bd 04 c1 6a 3e 3c 5f 94 3d
       -0.19204742 -0.036508143 0.22925192 0.07244727
0002e0 ec 42 df 3d f4 c3 8e be 00 bf 0c 3c ae 78 95 bd
       0.10901436 -0.27883875 0.00859046 -0.072984084
0002f0 4c e0 71 3e d4 d7 f6 3d a2 e1 5e be 7a 4d 03 be
       0.23620719 0.12052885 -0.2176576 -0.12822524
000300 7c d5 86 3e 30 04 25 3d d0 c0 8d 3e 86 f3 ed bd
       0.2633475 0.040287197 0.27686167 -0.11618714
000310 c0 70 f1 bc 6e 74 87 be 88 8f 23 bd e6 c4 84 bd
       -0.029472709 -0.26456016 -0.039931804 -0.06482868
000320 bf 1a 16 be 8a 17 86 3e c0 18 74 bc 33 f5 13 be
       -0.1465864 0.26189834 -0.014898479 -0.14449005
000330 50 77 93 3d 28 db 5c 3e b6 66 dd bd 72 58 7f be
       0.072004914 0.21567976 -0.10810606 -0.24936083
000340 a0 45 07 3e 48 29 1d bd 7c 1d d4 bd 85 90 32 be
       0.13210154 -0.038369447 -0.10357186 -0.17437942
000350 ac 29 c0 3d 08 bb 71 bd 2c 21 62 be 00 5e 72 bc
       0.09382948 -0.059016258 -0.22082967 -0.014792919
000360 51 0e 83 be d2 db 8c 3e 8f 35 09 be 40 46 b3 3d
       -0.2559686 0.2751146 -0.13399337 0.087536335
000370 04 ce dc bd b4 30 bc 3d bc 49 88 3e 2c e3 64 3e
       -0.10781482 0.09188977 0.26618755 0.22352284
000380 60 cf e1 bd 76 96 19 3e 2d f6 48 be 5d 09 7b be
       -0.11025882 0.14998803 -0.19625159 -0.2451529
000390 74 78 83 3e de 67 55 3e 80 10 25 be be 13 85 3e
       0.25677836 0.20840403 -0.16119576 0.25991625
0003a0 ae f4 84 3e f8 fc 85 3d aa a7 86 be 48 ed 5d 3e
       0.25967926 0.065423906 -0.26299793 0.21672547
0003b0 b0 51 78 3d 4e 50 0e 3e 42 20 01 3e 48 77 8a 3d
       0.06062478 0.13897821 0.12609962 0.06761032
0003c0 90 e0 a9 bc c4 d3 40 bd e0 09 3e 3e bc 96 f6 bd
       -0.020736963 -0.047076955 0.18558455 -0.12040469
0003d0 22 1a a4 bd 24 ca 74 3e fe d0 61 be 54 00 66 3e
       -0.08012797 0.23905236 -0.2205238 0.22461063
0003e0 86 bc 84 3e 98 55 b7 bd b8 d0 70 3e 70 92 19 3e
       0.25925082 -0.089518726 0.2351712 0.14997268
0003f0 60 9d 4e 3e e0 59 0a be 98 89 64 3e 38 da 5c bd
       0.20177221 -0.13510847 0.22318113 -0.053919047

fc1.bias f4 [256]
000000 df 6c 50 be da 33 39 3e a7 d5 86 be 18 93 14 be
       -0.20354031 0.18086186 -0.2633488 -0.14509237
000010 32 e7 8e 3e 1f 2f 10 be 00 d7 fc 3a 9b c6 85 be
       0.27910763 -0.14080475 0.0019290149 -0.26128086
000020 50 f0 8f bd 3e 00 54 3e 27 51 92 be 60 bf 3b 3d
       -0.07028258 0.20703217 -0.2857754 0.045836806
000030 94 6b 02 3e 62 e2 e9 bd 94 2c 83 3e b9 06 90 be
       0.1273635 -0.11420132 0.25619948 -0.2813013
000040 49 8f 0d be b0 6c 79 3e 90 a7 6c 3d e6 71 43 3e
       -0.1382419 0.24357867 0.057776988 0.19086418
000050 0b 86 21 be 3a 56 7e be 08 39 c9 3d 7d 5b 84 be
       -0.1577379 -0.2483758 0.09825331 -0.2585105
000060 c8 17 af 3d fc 8a d7 3d 7a e9 de bd 94 2e ef bd
       0.08549458 0.10524556 -0.10884376 -0.11678806
000070 a8 c9 8c be a6 e1 f8 bd ac 96 5b 3e 60 ec 7b bc
       -0.27497602 -0.12152414 0.21444196 -0.01537618
000080 88 92 cf 3d 9a 4d 10 be a0 58 e6 3c 00 60 65 b8
       0.101353705 -0.14092103 0.028118432 -5.468726e-05
000090 ac 2b 01 3e 2c 1c d4 bd 44 65 5b be 94 d6 81 3e
       0.12614316 -0.10356936 -0.21425349 0.25359023
0000a0 ae 7b 3d be 12 bf e8 bd 96 25 86 be c2 dc 8b 3e
       -0.18504211 -0.11364569 -0.2620055 0.27316862
0000b0 da 0d 23 3e 74 3a b6 3d e4 72 65 3e 1c d5 48 3e
       0.15923253 0.08897868 0.22407109 0.19612545
0000c0 56 3c b5 bd a0 4f e0 bc 28 dc 9c bd 04 0e 8a 3e
       -0.08849399 -0.027381718 -0.07659179 0.26963818
0000d0 7a 1e 43 be 1e 53 5f be 94 8c f5 bd 50 46 b8 3d
       -0.19054595 -0.2180905 -0.11989704 0.08997786
0000e0 f0 d6 f5 3c 16 33 24 3e a0 45 eb 3d 40 a4 18 bc
       0.030009717 0.16035113 0.11487889 -0.009316504
0000f0 eb c2 85 be 6c 03 27 bd 10 e8 fd 3c a8 b6 59 bd
       -0.26125273 -0.040774748 0.030994445 -0.05315271
000100 50 fa aa 3d 16 31 df bd fe 42 3c be 4b 0f 89 be
       0.083485246 -0.10898034 -0.1838493 -0.2676948
000110 98 82 26 bd c0 fa bc bb 32 a2 4e 3e f4 c0 4c 3e
       -0.040651888 -0.0057671964 0.2017906 0.19995481
000120 df db 8a be 74 16 8a 3d 70 ed 67 be 84 2a 9a 3d
       -0.27120873 0.06742564 -0.22649169 0.075276405
000130 ca 2d 99 bd 50 aa 37 3d 81 73 2d be e0 9a 0c be
       -0.07479437 0.044840157 -0.16938592 -0.13730955
000140 f8 79 13 3d 62 18 87 3e c8 fe be 3d b2 7a 26 be
       0.03600499 0.2638579 0.093259394 -0.16257742
000150 82 14 27 3e 78 d6 cc 3d c0 e6 a2 bc da 3a 7b be
       0.16316417 0.10001844 -0.01988542 -0.24534169
000160 28 48 15 be f2 0a 26 be f4 0c 76 bd e0 61 ff 3d
       -0.14578307 -0.16215113 -0.060070947 0.1246984
000170 e5 22 66 be de a4 b1 bd e0 5d 5b 3d b0 d7 86 3e
       -0.22474249 -0.08674024 0.053556323 0.26336432
000180 11 a1 1c be e0 f8 ce 3d b0 aa 59 be b4 ab 62 bd
       -0.15295817 0.10106063 -0.21256518 -0.05533953
000190 3a 08 63 be 5e 9c f4 bd dc 01 57 be b4 28 9b bd
       -0.22171107 -0.11943887 -0.20996803 -0.07576123
0001a0 58 01 0b 3d 96 ff 73 be 58 94 87 be c8 88 51 be
       0.03393683 -0.23827967 -0.26480365 -0.20462334
0001b0 a8 c8 81 be a6 0a b7 bd 00 ea 34 bc d4 78 77 3e
       -0.253484 -0.08937578 -0.011042118 0.24167186
0001c0 9a c0 e4 bd 24 95 eb 3d b4 47 1e be 86 86 ea bd
       -0.11169548 0.11503056 -0.1545704 -0.114514396
0001d0 00 81 36 3d 70 c8 77 3e e8 bb 04 3e 34 20 93 3d
       0.044556618 0.24197555 0.12962306 0.07183877
0001e0 d6 19 88 3e 96 81 21 3e 20 c1 de bc 00 df 1e 3b
       0.2658221 0.1577209 -0.027191699 0.0024241805
0001f0 e0 01 c8 3c f0 fd 0b 3e fe 45 82 3e 04 40 67 be
       0.024414957 0.13671088 0.25444025 -0.22583014
000200 20 81 af bc 13 f5 21 be c0 9d b2 bb ea a8 8b be
       -0.021423876 -0.15816145 -0.005450934 -0.2727731
000210 8a 85 8c bd 2d e1 3f be 7c f0 bb 3d 6e 1c 85 3e
       -0.06861408 -0.18738241 0.09176728 0.25998253
000220 a8 7f 17 3e 7e 31 b1 bd 10 2a 16 bd c8 32 d2 3d
       0.1479479 -0.08652018 -0.036661208 0.10263592
000230 92 04 4f 3e b8 31 c7 3d 23 c4 8f be d2 df 54 be
       0.20216587 0.0972628 -0.28079328 -0.20788506
000240 a4 ee fb 3d 52 46 07 3e 24 7f 70 3e 5c be f1 3d
       0.123013765 0.13210419 0.23486 0.11803886
000250 00 e5 69 bc 1e 24 2d 3e d8 7b fc 3d 50 40 35 bd
       -0.014275789 0.16908309 0.12328309 -0.044250786
000260 c0 64 54 bd e6 70 0f 3e 50 d3 df bc 3e e5 48 3e
       -0.051853895 0.14007911 -0.027322441 0.19618699
000270 5a 47 44 3e 1e 77 90 3e e0 17 27 bc e2 51 44 3e
       0.19167843 0.2821588 -0.010198563 0.19171861
000280 60 75 1d 3d 8e a5 8b 3e 80 e0 b4 3d e4 a0 bd 3d
       0.038442016 0.27274746 0.088318825 0.09259203
000290 54 bf b6 3d 34 ce f8 bd a6 db 8f 3e 28 03 85 3e
       0.08923212 -0.12148705 0.28097266 0.2597897
0002a0 8e ac fc bd 60 b7 ce 3c 60 0e 6b 3c 95 55 23 be
       -0.123376 0.025233924 0.014346689 -0.15950616
0002b0 f4 18 42 3e 8c 99 14 3e 7f d5 67 be 34 c1 46 3e
       0.18954831 0.14511698 -0.22640036 0.19409639
0002c0 e0 6d 11 3c e8 00 4c 3d b4 79 89 3e d0 2d c3 bc
       0.008876294 0.04980555 0.26850665 -0.023825556
0002d0 e8 28 8a 3e 90 e7 f3 3c 70 29 0d 3e c2 1f 42 3e
       0.26984334 0.029773504 0.13785338 0.18957427
0002e0 9e 8c 77 be 0a ae ba bd da 30 36 3e 76 6f 4f be
       -0.24174735 -0.091152266 0.17792073 -0.20257363
0002f0 18 05 d9 3d dc ed 15 3e b4 6e 83 3d 78 b5 2a 3d
       0.10596675 0.14641517 0.06417599 0.04167697
000300 4a cd 1e be 54 dd 85 3d ec c9 5e be c0 cc 3b 3d
       -0.15507999 0.065363556 -0.21756715 0.04584956
000310 5a 83 80 be af e3 81 be 4e a6 dd bd 5c d9 8f 3e
       -0.25100213 -0.2536902 -0.10822736 0.2809552
000320 72 a8 80 3e b4 39 70 3e 88 64 44 3d e8 c1 77 3e
       0.25128514 0.23459512 0.047947437 0.24195063
000330 7d 92 03 be bc 08 1d be d7 7a 18 be 80 cd 81 3e
       -0.1284885 -0.15335363 -0.1489061 0.25352097
000340 98 dd d1 3d a2 bd d7 bd 84 9e 61 be 80 2c 07 3d
       0.10247344 -0.105342165 -0.22033125 0.033001423
000350 80 50 58 bb 4a b9 c4 bd ca 77 57 3e 90 86 64 3d
       -0.0033006966 -0.096056536 0.2104179 0.05579239
000360 70 ca 94 bc 20 b9 b8 3d f0 06 3f 3e 92 00 3d be
       -0.018162936 0.09019685 0.1865499 -0.18457249
000370 b9 d4 5d be 4d 43 8f be 00 52 51 be e4 4c 74 3e
       -0.21663179 -0.27981034 -0.20441437 0.23857456
000380 fc 99 c7 bd 20 d5 39 bd ee d0 e0 bd 79 13 51 be
       -0.09746167 -0.045369267 -0.1097735 -0.20417584
000390 b2 3d 82 be 88 f6 eb 3d b2 45 86 3e 76 d5 43 3e
       -0.25437695 0.115216315 0.26225048 0.19124398
0003a0 4c 03 f8 bd bd 23 8b be f8 37 57 be 19 90 01 be
       -0.12110004 -0.27175704 -0.21017444 -0.12652625
0003b0 20 09 10 be 38 49 57 3d 92 6e 09 be 94 65 5b 3e
       -0.14065981 0.05256006 -0.13421085 0.21425468
0003c0 9c 47 f9 3d 34 a4 65 3e 14 a9 91 3e 38 d2 a1 bd
       0.121718615 0.2242592 0.2844931 -0.07901424
0003d0 f3 41 81 be d0 0d 7c 3d 08 9d 1b be b1 99 21 be
       -0.25245628 0.06153661 -0.15196621 -0.15781285
0003e0 98 d4 40 3e 30 2d 2f be 68 5b 71 3e 08 fa 88 3d
       0.18831098 -0.17107081 0.23570025 0.06688315
0003f0 2c 73 58 3e 1a e7 40 be ac a8 78 3e 14 25 2a 3e
       0.21137685 -0.18838158 0.24283093 0.16615707

fc2.weight f4 [128, 256]
000000 5e 90 31 bd 38 d4 af 3c 08 59 57 bd a8 d6 87 3c
       -0.04335057 0.021463498 -0.05257514 0.016581848
000010 a0 d2 07 3d a0 cf f2 bb 18 c2 24 3d d0 29 68 3d
       0.033159852 -0.0074100047 0.040224165 0.0566805
000020 68 cc 03 bc 96 d1 77 bd 40 50 4f 3d 68 f3 e6 bc
       -0.00804434 -0.06050261 0.05061364 -0.028192237
000030 48 1d 0d bd 30 7c 92 bb f0 f1 7b bc 48 da 62 bc
       -0.034451753 -0.0044703707 -0.015377507 -0.013845988
000040 0e 4b 62 3d 86 bd 1a 3d 60 ae 59 bd c0 18 5e bb
       0.05524736 0.0377784 -0.053144813 -0.0033889264
000050 80 93 66 3b 18 e1 5d bd 00 34 37 bc 98 f7 1a bc
       0.0035183132 -0.054169744 -0.011181831 -0.009458445
000060 ea c6 0d 3d 00 6e 0f 3a f4 39 ae bc 42 48 70 bd
       0.034613527 0.00054714084 -0.021267869 -0.05866266
000070 ac 97 58 bd c0 c1 d5 3b 6c 90 a0 bc 80 0e fc 3c
       -0.05287902 0.006523341 -0.019600116 0.030768633
000080 44 e0 32 bd b4 bd 7f bd 7a 09 5f 3d a0 89 0d 3d
       -0.043670908 -0.062436774 0.054452397 0.034555078
000090 60 48 d2 3c 34 60 e9 bc 18 00 ca 3c 2c f9 b2 bc
       0.025669277 -0.028488256 0.024658248 -0.02184733
0000a0 c8 81 98 3c 00 7d 4e 3b 20 c8 d3 bc f6 a8 7b bd
       0.018616572 0.0031507611 -0.025852263 -0.06144043
0000b0 e8 e3 3b 3c c0 bf 3f bb 80 af 54 3a 52 ed 18 bd
       0.011467911 -0.002925858 0.000811331 -0.0373357
0000c0 20 8a 0f 3b c8 22 c7 3c 0c ce e4 bc f8 97 83 bc
       0.0021902397 0.024308577 -0.027930282 -0.016063675
0000d0 08 d8 24 3d 82 e1 75 bd 80 02 51 3a bc b6 ee 3c
       0.040245086 -0.060029514 0.000797309 0.029139869
0000e0 ae 50 25 bd 72 ee 2b 3d 30 49 26 3c 5e 28 12 3d
       -0.040360145 0.041975446 0.010149285 0.03568303
0000f0 c0 76 d2 3c 22 2c 59 3d 78 67 84 3c fe ef 40 3d
       0.02569139 0.053020604 0.016162619 0.047103874
000100 ac 1e 1d 3d 18 f2 70 bd fc 9d 74 3d 50 ab c7 bb
       0.03835933 -0.05882463 0.05972098 -0.00609342
000110 e6 42 7e bd dc 22 c1 bc fc c1 46 bd e8 45 66 bc
       -0.062075518 -0.023576193 -0.04852484 -0.014054753
000120 a2 3a 65 bd 4c c8 8b 3c 40 84 85 bc 9a 4d 19 bd
       -0.05596412 0.017063282 -0.016298413 -0.037427522
000130 60 7d fb bc a4 93 77 bd 7c c1 1c 3d 16 e1 0a 3d
       -0.030699432 -0.060443535 0.03827046 0.033906065
000140 40 a7 5d 3d 28 5b 84 3c e0 ab 00 bb 98 a3 fa bc
       0.05411458 0.016156748 -0.0019633695 -0.030595586
000150 88 71 0d bc 78 90 1c bd b0 b7 74 bc d6 ac 4d 3d
       -0.008633025 -0.038223714 -0.014936373 0.050213657
000160 38 37 47 3d 4e a6 32 3d 68 22 ef bc 20 84 8a 3b
       0.048636645 0.04361563 -0.02919121 0.0042271763
000170 fa 5e 10 3d 04 be ae 3c c0 a6 37 bc d0 d9 ab bc
       0.035246827 0.02133084 -0.01120919 -0.020977885
000180 e2 83 34 3d e6 fd 21 3d 20 e4 f6 3b 38 15 67 bd
       0.044071086 0.039548777 0.007534519 -0.05641672
000190 70 cc 72 bc 24 77 1f bd 58 72 b7 3c 78 69 28 bd
       -0.0148192495 -0.03893198 0.02239339 -0.041116208
0001a0 b0 94 8c bb 90 ee fd 3c b0 e3 f3 bc 38 64 6c 3c
       -0.004290186 0.030997545 -0.029771656 0.014428191
0001b0 76 7a 50 bd 08 92 1f 3d 00 73 c9 bb 98 09 aa 3c
       -0.050898038 0.038957626 -0.0061477423 0.020756528
0001c0 94 de 75 bd 40 13 b7 ba a4 56 61 3d 98 d8 61 bd
       -0.06002672 -0.0013967529 0.055014268 -0.0551382
0001d0 a8 94 28 bd 98 04 97 3c e8 da a8 bc 08 81 a4 bc
       -0.041157395 0.018434808 -0.020612195 -0.020081058
0001e0 a6 db 7f bd a2 5c 2e 3d 62 fd 73 bd bc 19 85 bc
       -0.062465332 0.04256881 -0.059567817 -0.016247623
0001f0 bc 9d df 3c 8e 99 7a bd f8 c8 7b 3c 70 0e b6 bc
       0.027296893 -0.061181597 0.015367739 -0.022223681
000200 fc d1 37 bd 20 a2 5e bb 48 1c 99 bc 38 c1 34 bc
       -0.04487799 -0.0033971146 -0.018690243 -0.011032395
000210 e0 53 8a 3b 16 e8 59 3d 9c bd 8c 3c 40 22 67 bc
       0.0042214245 0.05319985 0.017180257 -0.014107287
000220 58 48 67 3d 40 c8 be bb 48 fd a9 3c 4c a1 df bc
       0.056465477 -0.0058222115 0.020750657 -0.027298592
000230 e4 12 c4 3c c0 73 bf ba 24 74 53 bd 70 ab 95 bb
       0.023934789 -0.001460664 -0.051624432 -0.004567556
000240 b8 35 2f 3c 10 ac fd 3c a0 8e 6c 3c f2 80 30 bd
       0.01069396 0.030965835 0.014438301 -0.04309172
000250 42 14 51 bd a8 51 16 bc 44 59 7b 3d 74 ad d6 3c
       -0.05104471 -0.009174742 0.061364427 0.026205756
000260 bc 65 11 3d be 4c 2e bd 40 fa bf ba e6 93 0f 3d
       0.035497412 -0.042553656 -0.0014646724 0.035053156
000270 a8 92 26 3c a6 99 4c 3d 28 e4 1c bc 18 23 13 3c
       0.0101668015 0.049951218 -0.009575881 0.008980535
000280 1c cc 38 3d c4 c5 80 3c c8 30 55 3c ec 2b fd bc
       0.04511653 0.015719302 0.013012119 -0.030904733
000290 a0 2e 9d 3b 28 d3 6b 3d 4c 07 21 3d 98 53 a2 bc
       0.004796818 0.05757442 0.0393136 -0.019815251
0002a0 c0 8a 6b 3c ca 21 4c 3d bc 69 db 3c f0 dd 1d bd
       0.014376342 0.04983691 0.026783817 -0.038541734
0002b0 dc 98 7e 3d d0 cd c4 3c 94 55 92 bc b4 44 63 bd
       0.062157497 0.02402392 -0.017863072 -0.055485442
0002c0 22 d0 69 bd 68 86 e1 bc b0 53 ee 3c 40 e8 ef 3c
       -0.057083257 -0.02752991 0.02909264 0.02928555
0002d0 f0 9d c7 bc 00 86 92 3c 3a 7e 4d 3d 30 5c cd 3c
       -0.024367303 0.017886162 0.050169207 0.025068372
0002e0 90 ce 60 3c 00 f7 5b bb 56 9b 7c bd fc 5c 62 3d
       0.013721123 -0.0033563972 -0.061671577 0.055264458
0002f0 40 07 0a bd b8 22 6f 3c 14 8d 09 bd 38 3f dc bc
       -0.03369832 0.01459568 -0.03358181 -0.026885614
000300 4c b7 89 3c 00 55 87 ba d0 e5 e9 bc dc 47 55 3d
       0.016811036 -0.0010325015 -0.028551966 0.052070484
000310 f4 40 e5 3c 28 36 4f 3c b0 96 31 3c 0c 54 1d 3d
       0.027985074 0.012647189 0.010839149 0.03841023
000320 24 2b 8c 3c 8a 18 0f 3d c2 1b 44 3d 04 d2 1c 3d
       0.017110415 0.03493551 0.047878034 0.038286224
000330 a8 c7 33 3d 00 79 ef 3c d8 4f 01 bc 80 49 45 bb
       0.04389158 0.029232502 -0.007892571 -0.0030103624
000340 40 b6 f5 bc 60 7a 08 bb 90 89 c8 3b 7c d2 02 3d
       -0.02999413 -0.0020824894 0.0061199144 0.031939015
000350 80 0c d3 3a e8 51 67 3d ac 8e 26 3d 80 67 16 3a
       0.0016101748 0.056474596 0.040663406 0.00057374686
000360 38 15 48 3d a0 cc f0 bc e0 c6 4b bb d0 ab 2a 3c
       0.04884836 -0.029394448 -0.003109388 0.01041694
000370 18 0c d1 bc 20 bc ba bb b4 42 60 3d 10 16 cf bc
       -0.025518462 -0.005698696 0.054751113 -0.025279075
000380 cc 49 54 3d 86 fd 50 3d d0 d9 c1 bb c8 43 4a bd
       0.05182819 0.05102303 -0.005915858 -0.049381047
000390 70 da ae 3c 98 1e 2f 3d 84 99 29 3d 3c b7 d8 3c
       0.021344393 0.042753786 0.04140617 0.02645456
0003a0 b0 7b 62 3c 10 31 27 bd 68 cd 7e 3c 70 3e b6 3c
       0.013823435 -0.040818274 0.015551902 0.02224657
0003b0 b2 d2 06 bd 40 bb 4e 3b 90 6f e9 3c 20 3b e5 3b
       -0.03291578 0.0031544715 0.02849558 0.0069955736
0003c0 e2 09 20 3d d0 41 2e 3c 90 95 bf bc f4 c8 92 3c
       0.039071925 0.010635808 -0.023386747 0.017918088
0003d0 a8 69 98 bc f4 b2 fa 3c 3c 8c 17 3d 80 83 80 3c
       -0.018605068 0.03060291 0.036998972 0.015687704
0003e0 70 19 05 3d 00 21 26 3d 90 fa 6b bc d0 04 12 3d
       0.032494962 0.040558815 -0.0144030005 0.03564912
0003f0 44 5e 36 bd 08 82 f6 3c 98 23 59 bc 40 ed 02 bc
       -0.044523492 0.0300913 -0.013253115 -0.007991135

fc2.bias f4 [128]
000000 ba cf 64 3d 44 e8 d0 3c 40 4f f0 3b 50 6e 89 3c
       0.055862166 0.025501378 0.007333666 0.016776234
000010 04 5d 37 bd 00 40 a1 b7 e4 38 8f 3c 40 4e ca bb
       -0.04476644 -1.9222498e-05 0.017483182 -0.006173879
000020 10 0f a2 bb b4 2f 12 3d 82 2e 5e bd f6 1f 4b bd
       -0.0049456432 0.035690024 -0.054243572 -0.049591027
000030 0e a2 28 3d ea 87 6d 3d 0e 2e 08 bd 60 31 63 bd
       0.041170172 0.057990946 -0.033247046 -0.05546701
000040 9c bf c4 3c e4 38 df bc 78 15 40 bd f0 d0 ae bc
       0.024017148 -0.027248807 -0.046895474 -0.021339864
000050 20 fb 6f 3c 28 a4 df 3c 2c 44 e2 bc f8 93 7f 3c
       0.014647275 0.027299955 -0.027620398 0.015599243
000060 6c 21 9d 3c 46 25 39 3d c0 a9 70 bb 94 75 7b 3d
       0.019180976 0.045201562 -0.0036722273 0.061391428
000070 30 aa cb 3c a8 74 6c 3c 98 88 96 bc 00 21 e0 bc
       0.024861425 0.01443211 -0.01837568 -0.027359486
000080 00 17 15 3d 34 bc 28 bd b8 e1 38 3d e2 51 71 3d
       0.036398888 -0.04119511 0.045137137 0.05891598
000090 e0 fa 33 3c dc 64 4d bd 96 89 74 bd a0 28 09 bd
       0.010985106 -0.050145015 -0.059701525 -0.03348601
0000a0 b0 19 9a bc 68 45 96 bc d4 53 37 3d 1c 4f 1d 3d
       -0.018811077 -0.018343642 0.04475768 0.038405523
0000b0 56 81 53 3d 42 e1 56 bd e0 18 ad bb 0e fb 3c 3d
       0.051637016 -0.052460916 -0.0052825063 0.046137862
0000c0 00 3c 68 bc fc 1a 22 bd 4c a4 1a 3d ac 2a 3c bd
       -0.014174461 -0.039576516 0.037754342 -0.045939133
0000d0 f8 b0 45 bc e4 f4 2e 3d c0 90 0f bb 0c c0 43 bd
       -0.012066118 0.042714015 -0.0021906346 -0.047790572
0000e0 bc 66 83 bc 30 1e 6e bd f4 cd 03 3d 48 f5 35 3c
       -0.016040199 -0.058134258 0.032178834 0.011105843
0000f0 ea 9f 16 bd 58 c4 7d 3d 6c 28 65 bd a8 78 60 3d
       -0.0367736 0.061954826 -0.055946752 0.054802567
000100 d8 f0 34 bc 70 e9 4a bd e8 33 52 bd 48 7c d0 3c
       -0.01104375 -0.04953903 -0.051319033 0.025449887
000110 30 be 88 3c 0c a7 e3 3c 34 0b e3 3c 58 e1 be bc
       0.016692251 0.027789615 0.027715303 -0.023300812
000120 c8 16 69 bd 90 b9 d9 bc c0 3a 4e 3b 3e 20 3f bd
       -0.05690649 -0.02657774 0.0031468123 -0.046661608
000130 b0 8c 83 bc 3c 2c 81 bc 94 19 ad 3c b6 84 78 bd
       -0.016058296 -0.015768163 0.02113036 -0.060673438
000140 56 9f 24 bd dc f1 5b 3d 00 f8 99 bc 40 6b e7 3c
       -0.040191017 0.053697452 -0.018795013 0.028249383
000150 00 ed 46 3a d8 db 87 3c e2 4d 1a bd 90 ee 3b bd
       0.00075884163 0.016584322 -0.03767193 -0.045881808
000160 36 19 0f 3d 54 7f 68 bd f0 21 7d 3d 66 71 43 3d
       0.034936152 -0.056762055 0.061799943 0.047715567
000170 b4 a4 3e bd b0 46 6d bc 6e ae 19 3d 00 05 64 3d
       -0.046543792 -0.014482185 0.037519865 0.05566883
000180 90 4f 64 bc 16 72 03 bd d0 6d c6 3c 90 22 d6 bc
       -0.013934985 -0.032091223 0.024222285 -0.026139528
000190 36 45 62 bd 70 43 6e 3d a0 b1 8d 3b 40 b0 7a 3c
       -0.055241786 0.058169782 0.004324153 0.01530081
0001a0 e8 23 b9 3c 30 d8 15 3d 3c 18 37 bd 20 40 27 3b
       0.02260013 0.036583126 -0.044700846 0.00255204
0001b0 38 64 45 3c 30 cc aa bb 60 b1 22 bc a0 ee 4a 3c
       0.01204782 -0.0052123293 -0.009929985 0.012385994
0001c0 08 40 71 bc 64 37 be bc 4e 3a 28 bd 00 fb 48 3c
       -0.014724739 -0.023219772 -0.04107123 0.012266874
0001d0 14 49 44 3d a8 15 03 3c b8 a2 11 bc e0 ed 47 3d
       0.047921255 0.008000769 -0.008888893 0.04881084
0001e0 00 ed 98 bb ec 1b 3f 3d 58 20 fa bc e0 dd 30 bc
       -0.0046669245 0.046657488 -0.030533 -0.010795087
0001f0 cc bf d4 bc c0 21 f5 bb 12 35 6c 3d 5c e1 0b 3d
       -0.025970362 -0.00748083 0.0576678 0.034150466

fc3.weight f4 [4, 128]
000000 9c ac 32 bb 14 27 d5 3a 18 d8 a1 3a ee da 3b bb
       -0.0027263528 0.0016262257 0.0012347726 -0.0028664428
000010 38 80 d8 ba c8 05 fe 3a a6 95 29 3b 15 52 34 bb
       -0.0016517704 0.0019380385 0.002587655 -0.0027514745
000020 94 6e 80 3a 10 c6 70 3a 18 b1 42 bb 6e d3 23 bb
       0.000979858 0.0009184787 -0.0029707607 -0.0024997848
000030 f8 49 b7 3a 4c 2a 23 bb cc 99 6d ba 9e 5f 17 3b
       0.0013983836 -0.0024897037 -0.000906375 0.0023097764
000040 e8 9f be b9 e0 c8 9d b9 f0 8f 90 3a 7c b1 8c 3a
       -0.00036358763 -0.00030095037 0.0011029225 0.0010734047
000050 90 ae ad 3a 98 4b a6 39 55 a9 01 bb 5a ac 04 3b
       0.0013250876 0.0003171831 -0.0019784768 0.002024433
000060 80 41 38 b8 0a a1 37 3b f4 d2 80 ba f6 b1 30 3b
       -4.393002e-05 0.002801957 -0.0009828494 0.0026961542
000070 74 ba d9 3a 14 f8 20 bb 39 90 28 bb b0 f5 db ba
       0.0016611353 -0.0024561929 -0.002572073 -0.0016781595
000080 29 47 96 ba c4 4c e8 3a 10 f0 9e ba 38 e9 db b9
       -0.0011465299 0.0017723073 -0.0012125988 -0.00041944697
000090 24 2f 20 3b 0e 4f 05 3b 9c 10 44 3b ec 1a 39 3a
       0.002444216 0.002034131 0.0029917127 0.00070612016
0000a0 94 08 02 3b e0 28 86 39 3c 39 64 ba ac 5e fa 3a
       0.0019841539 0.00025588926 -0.00087060384 0.0019101701
0000b0 74 1d 81 3a 3a 80 1d 3b e4 cc 17 ba 6a e5 34 3b
       0.0009850697 0.0024032728 -0.0005790724 0.0027602562
0000c0 24 60 ba 3a 8b 2d b0 ba 55 d6 8d ba e0 2d f1 39
       0.0014219326 -0.0013441307 -0.0010821322 0.00046001282
0000d0 b4 db 14 3b e4 a7 37 3b 80 77 ca 38 80 b5 aa 3a
       0.002271396 0.0028023655 9.654369e-05 0.0013024062
0000e0 e0 39 11 ba 88 19 fd b9 c0 7f 52 b8 4b f3 f2 ba
       -0.0005539935 -0.00048274943 -5.0186878e-05 -0.0018535642
0000f0 04 dc 19 3b 24 32 4c 3a f1 ad 9c ba f0 c7 25 3a
       0.0023477087 0.0007789454 -0.0011953694 0.00063240435
000100 20 f1 88 b9 0f 90 ea ba 90 86 d2 3a 12 fd 17 3b
       -0.00026119594 -0.0017895716 0.0016061831 0.0023191613
000110 61 34 33 bb cc 4d 24 3a 32 d8 3f 3b c0 73 e0 3a
       -0.0027344453 0.0006267696 0.002927315 0.001712434
000120 30 b9 47 39 b4 74 d1 ba a0 e7 47 3a 4a 3f 1b 3b
       0.00019047107 -0.0015980215 0.00076257624 0.0023688846
000130 56 0a 19 bb 54 7e 83 3a 44 20 2f 3b fc 0e e5 ba
       -0.0023352108 0.0010032156 0.0026722113 -0.0017475779
000140 ca 9e 1c bb 98 c3 3d 3a a8 cf e6 3a 79 16 1d bb
       -0.0023898357 0.00072389236 0.0017609494 -0.0023969694
000150 d8 be e3 3a 46 db 37 3b 06 74 0a 3b f7 1b 28 bb
       0.0017375601 0.002805428 0.0021126284 -0.0025651434
000160 40 91 e6 39 0c 21 8c 3a 80 aa f9 38 fe 09 44 3b
       0.00043977238 0.0010691001 0.00011905003 0.0029913182
000170 ec 18 74 ba 42 8b 81 ba eb 58 8e ba f4 21 2a ba
       -0.0009311575 -0.0009883421 -0.001086024 -0.0006490045
000180 55 7d 0c bb 84 19 38 3a 20 35 5d 3a 7f 09 1e bb
       -0.0021437008 0.0007022845 0.0008438397 -0.0024114547
000190 0a 68 24 3b 44 41 26 ba 88 70 1e ba 40 d8 28 3b
       0.0025086426 -0.0006342123 -0.000604399 0.002576366
0001a0 06 62 3a 3b 00 a2 6a 3a bc 7d 2b 3b b8 7a 9e 3a
       0.0028439774 0.00089505315 0.0026167473 0.0012091016
0001b0 2c 0a dc ba 97 40 25 bb 57 fe de ba f4 e8 f7 ba
       -0.00167877 -0.00252155 -0.0017013055 -0.001891403
0001c0 49 df 25 bb 28 ab 0b ba 81 e4 b1 ba f4 7a f4 3a
       -0.002531009 -0.00053279335 -0.0013572128 0.0018652366
0001d0 e0 53 63 b9 b7 c5 3e bb 58 9e 41 ba 34 ba 2c 3a
       -0.00021679653 -0.0029109546 -0.0007385961 0.0006589026
0001e0 7c 4c 7b ba 78 db 63 3a 61 64 3a bb 14 cf 1b bb
       -0.0009586287 0.0008692066 -0.0028441178 -0.0023774551
0001f0 80 58 50 38 98 5e 38 ba cc aa 4b ba b5 dd a6 ba
       4.9673487e-05 -0.00070331385 -0.0007769286 -0.0012730869
000200 4e 27 02 bb 34 93 63 ba ec d5 2d ba c7 f2 a1 ba
       -0.0019859853 -0.0008681298 -0.0006631303 -0.0012355678
000210 ce fb a6 ba f8 27 62 3a d8 33 23 3a d8 38 95 3a
       -0.0012739839 0.00086271716 0.0006225682 0.0011384739
000220 d9 ab 8e ba 3c e4 80 ba 6d 7f 9a ba d0 78 f1 39
       -0.0010884955 -0.0009833644 -0.0011787243 0.00046057114
000230 df 11 ce ba bb ba 3c bb d8 0b 2d 3a 9c aa 36 3a
       -0.0015721879 -0.0028797823 0.0006601191 0.0006968172
000240 d7 6b 3a bb 8f a0 96 ba 20 aa 2f 39 0b 69 0a bb
       -0.0028445625 -0.0011491942 0.00016752677 -0.002111974
000250 40 10 83 38 10 92 54 ba a0 db 6d 3a c0 25 bf 3a
       6.2495936e-05 -0.0008108923 0.0009073559 0.0014583394
000260 90 4d 70 3a b0 f5 e2 39 70 a4 14 ba 40 1f 34 bb
       0.0009166831 0.0004328913 -0.0005670255 -0.0027484447
000270 b8 b4 0f 3a 66 2d 3c 3b 78 32 2a 3b d8 75 ef 3a
       0.0005481946 0.0028713583 0.0025970023 0.0018269373
000280 4c 8f a6 3a 78 5e b9 39 14 a6 19 3b 5c 99 2d 3b
       0.0012707501 0.00035356334 0.0023444938 0.0026489114
000290 e7 68 21 bb 70 5f 0f 3b 81 ed 99 ba 32 31 31 bb
       -0.0024629177 0.0021876954 -0.0011743755 -0.002703738
0002a0 4c 0e b2 3a 7c 1c 15 3b 58 6f b3 3a 9c a4 67 ba
       0.0013584583 0.0022752574 0.0013689799 -0.00088364794
0002b0 f6 b3 2d 3b 80 38 3d 3b 76 3c 80 ba 00 cf 19 3b
       0.002650497 0.0028872788 -0.0009783644 0.002346933
0002c0 7a eb 09 3b 96 01 42 3b 3a 19 28 bb d4 73 27 bb
       0.0021044896 0.0029602996 -0.0025649802 -0.0025551217
0002d0 ad 72 2f bb ac 6a 33 ba e4 67 40 3a 1c 02 ee 3a
       -0.0026771233 -0.00068442035 0.00073396997 0.0018158588
0002e0 10 65 a0 b9 98 9b 43 3b 4c 9a 31 bb 90 c9 5f b9
       -0.00030592876 0.002984738 -0.0027100025 -0.00021342025
0002f0 a0 54 66 b9 60 b4 d6 b9 e8 58 76 3a 52 a8 3c 3b
       -0.00021966035 -0.0004095165 0.00093974033 0.002878685
000300 00 b1 c0 ba 89 e5 a5 ba 00 36 3c 3a 99 af 20 bb
       -0.0014701188 -0.0012656908 0.00071796775 -0.0024518727
000310 ca a0 41 bb 5c 44 dc 3a ac 2b 2f 3a e4 46 bd 3a
       -0.00295453 0.0016805041 0.0006682228 0.0014440683
000320 98 42 22 ba 71 32 12 bb a3 ce c4 ba 58 79 d0 b9
       -0.0006189733 -0.0022307897 -0.0015015196 -0.0003976326
000330 12 8f 42 bb 7c 64 2b bb 94 0d d3 3a fe 8e e4 ba
       -0.0029687327 -0.0026152423 0.0016102069 -0.0017437635
000340 98 a6 df ba ce c9 35 3b 55 79 37 bb c2 41 41 bb
       -0.0017063199 0.0027738693 -0.0027995904 -0.0029488658
000350 50 80 10 bb d6 d5 10 3b 7d db fd ba 8c 4d df 3a
       -0.0022049136 0.0022100112 -0.0019367781 0.001703666
000360 6c 8b 38 3b c0 1b 44 3a 18 25 44 ba 06 9e 3c 3b
       0.0028159274 0.0007480942 -0.0007482334 0.0028780713
000370 c7 7e 2f bb 81 38 e8 ba 89 1e dc ba 1d 76 f1 ba
       -0.0026778446 -0.0017717035 -0.0016793768 -0.0018422041
000380 1f 36 a8 ba e9 5b 08 bb be 6d 16 3b e8 33 e9 3a
       -0.0012833512 -0.0020806736 0.0022953595 0.0017791959
000390 90 ab 59 ba 7a a5 39 3b 80 20 56 3a 50 8f 36 39
       -0.0008303458 0.0028327391 0.0008168295 0.0001741026
0003a0 ac 16 22 3b b2 ce 14 bb 1e 49 0f 3b 64 43 c6 ba
       0.0024732752 -0.0022706208 0.002186365 -0.0015126285
0003b0 3d f7 9f ba 58 1b 88 3a 58 85 9a 39 8a 7f 42 bb
       -0.001220442 0.0010384126 0.00029472518 -0.002967807
0003c0 10 11 2a bb f8 e6 27 ba ad a0 ca ba c0 da 0e 3b
       -0.0025950111 -0.00064049615 -0.0015459262 0.0021797866
0003d0 16 4f 2c 3b a3 b9 be ba f2 da c8 ba 32 ab 14 bb
       0.0026292256 -0.0014551174 -0.001532404 -0.0022685048
0003e0 59 5d 43 bb c8 66 c9 ba e6 08 09 3b ee ec 24 3b
       -0.0029810278 -0.0015365714 0.0020909845 0.0025165635
0003f0 33 8d d3 ba 10 65 ab 3a 6c 03 2f ba 60 99 a1 39
       -0.0016140103 0.0013076384 -0.000667623 0.00030822586

fc3.bias f4 [4]
000000 f1 dd a6 3d b5 35 1c bd 80 ca 58 bd 93 73 80 3d
       0.08147801 -0.038137157 -0.052927494 0.06272044
