models_backup/maddpg/checkpoint_ep800/adversary_0.pth (torch, 764002 bytes, 44 tensors)

network.0.weight f4 [128, 16]
000000 bc e5 8f be bb a7 04 3e 52 63 23 3e f1 f6 d7 3d
       -0.2810496 0.12954609 0.15955856 0.10545147
000010 14 04 f0 3d 7e f1 43 be a7 69 16 be 6f 5b 2c be
       0.11719528 -0.1913509 -0.1468874 -0.16831754
000020 03 ac ad 3d 46 1f 7a bd 99 dd 52 bb 32 3c 0d 3e
       0.08480074 -0.06106498 -0.003217554 0.13792494
000030 33 0c 47 3e 7f 12 75 3c 75 05 65 3e 95 07 1d 3e
       0.19438247 0.014958023 0.22365363 0.15334924
000040 bf 75 24 3e 83 2c 8d bd a3 0c 39 bd 2b 82 d6 3d
       0.16060542 -0.068932556 -0.045178067 0.10474046
000050 38 8c ea bd 9c 67 b8 bd 54 28 90 3e 60 d3 23 3e
       -0.11452526 -0.09004137 0.28155768 0.15998602
000060 c3 2c 45 3d 1a 76 fd 3d 64 f7 d7 bd 14 c9 36 3e
       0.04813839 0.12376042 -0.10545233 0.17850143
000070 06 e6 6c 3e 4e 14 53 3d a5 e6 26 3e 39 13 83 3e
       0.23134622 0.051533036 0.16298921 0.25600603
000080 de 31 79 be 3d 6b 2b 3e c0 62 11 bd 0e 9e 02 3d
       -0.24335429 0.16740127 -0.035494566 0.031889014
000090 a5 70 92 bd 23 52 08 be 51 39 45 be c0 59 9b bd
       -0.071503915 -0.13312583 -0.19260146 -0.07585478
0000a0 6b d9 1d be f1 71 32 3d 40 72 80 be 7f fb 83 3e
       -0.1541497 0.043565694 -0.25087166 0.25777814
0000b0 b3 3e 68 be c5 74 fd bc d1 a4 93 bd e1 6c 65 3e
       -0.22680168 -0.03093947 -0.072091706 0.22404815
0000c0 d0 79 0c be 7b e4 a6 bd 8f 18 05 be 40 5c 83 be
       -0.13718343 -0.08149048 -0.1299765 -0.2565632
0000d0 31 a3 38 3e d2 bd 6c 3e 38 ea 08 bd bf 6a 46 be
       0.18031003 0.23119286 -0.033426493 -0.19376658
0000e0 30 1e 73 be 0b 8e 14 bb ff 34 1c bd e9 59 6e be
       -0.23741984 -0.0022667672 -0.03813648 -0.23276486
0000f0 e8 7a 2b 3e 4d dc 3d 3e 32 56 52 3c 6b 68 b4 bd
       0.16746104 0.1854107 0.012837933 -0.08808979
000100 a6 fa 1d 3e 90 ab 35 3e 7b a5 47 be 19 6b 77 3e
       0.15427646 0.17741227 -0.1949672 0.24161948
000110 13 7b b2 bd 0c 75 1d be 32 23 1d be 8c 12 f3 bd
       -0.08714881 -0.15376681 -0.15345457 -0.11868772
000120 8e 4d 43 3e f0 ad 87 be 8a a9 7f 3e bd d5 01 3e
       0.19072554 -0.2649989 0.24967018 0.12679191
000130 33 2e 8c 3e 78 19 34 be 9d c8 10 be fc ac 3f 3e
       0.27378997 -0.1758784 -0.14139028 0.18718332
000140 68 47 79 3e 35 0f d2 3d 74 41 06 bc 57 44 1c 3e
       0.24343646 0.10256807 -0.008194316 0.15260445
000150 b2 67 22 3c 47 10 ee bd 81 b1 36 3e 4f 71 98 bd
       0.009912418 -0.116241984 0.1784115 -0.07443487
000160 1d ac 1b bc a7 ad 1d be a6 a9 fd bc 4e b4 4f bd
       -0.009501484 -0.15398274 -0.030964684 -0.05070906
000170 9b 7c 71 3e 70 30 e8 bd f4 42 1c 3e 80 47 80 be
       0.2358269 -0.11337364 0.15259916 -0.2505455
000180 c6 17 4b be e8 a5 1b 3e 64 63 b1 3d be 30 09 3e
       -0.19833288 0.15200007 0.086615354 0.133975
000190 71 39 7d bd 2d ad 1b bd 8b ec 3f bd 9c f7 3c bd
       -0.06182236 -0.03800695 -0.046856444 -0.046134576
0001a0 1f 70 29 be 8c cc 80 be 7b ff 8e be 44 bc ef 3d
       -0.16546677 -0.25156057 -0.2792929 0.11705831
0001b0 c9 99 11 be f0 4a ca 3d b5 b0 d7 3d 8b 46 72 bd
       -0.1421882 0.098775744 0.10531751 -0.059149306
0001c0 b8 1f 92 3d d4 d4 24 3e e0 48 8a bd 3b 58 f3 bd
       0.07134956 0.16096812 -0.06752181 -0.11882063
0001d0 a0 db 50 3e d3 2b 58 3d 92 be 75 3d dd da eb 3d
       0.2039628 0.05277617 0.059996195 0.11516354
0001e0 26 75 56 3e 8d 33 50 be ac a9 80 bd 19 4b c7 bd
       0.20943126 -0.20332165 -0.06282362 -0.097311206
0001f0 71 8e fd 3c c5 3b 5c 3c bf e6 ec bc 94 ab dc 3d
       0.03095171 0.013441985 -0.028918622 0.107749134
000200 eb dc 0a 3e 96 e3 2d be 29 a8 32 3e f3 63 48 be
       0.13560836 -0.16981348 0.1744696 -0.19569378
000210 c6 18 0d be f1 98 30 bd 55 e7 49 be 54 8d d9 bd
       -0.13778982 -0.043114606 -0.19717152 -0.10622659
000220 c4 94 8d be 0b 29 39 be e6 d1 8f be 6c 15 55 3e
       -0.27652562 -0.18082063 -0.28089827 0.20808953
000230 ea 86 66 3c 69 94 bb 3d 8a 4e 1b 3e 22 b5 d0 bc
       0.014070252 0.09159166 0.15166679 -0.025476996
000240 b1 69 3f 3e ee 58 a7 bd 73 3c f8 3c 68 46 3e 3c
       0.18692662 -0.08171259 0.030302262 0.011613466
000250 07 58 86 3e 17 7d 1a be bb 76 31 3e c9 79 07 be
       0.26239035 -0.1508678 0.17330448 -0.13230051
000260 f4 54 bd bd 6a 11 8c be 51 8a 19 3e 9e a3 8b be
       -0.09244719 -0.27357036 0.1499417 -0.27273268
000270 6f f9 4c 3e 81 86 2a 3e 1f 2e 11 be 80 7d 79 3d
       0.20017026 0.16652872 -0.1417775 0.0609107
000280 a2 40 26 be 25 66 d0 3d 36 c4 22 3e 2b 1c 07 bc
       -0.16235593 0.101757325 0.15895161 -0.008246462
000290 f5 75 3a bd dc d2 8d 3e 26 ae 00 be d6 22 06 bd
       -0.04552265 0.27699935 -0.12566432 -0.032748066
0002a0 d7 98 38 3e 7c 6a d7 bc 2c b6 2e 3d b1 e8 7f 3d
       0.18027054 -0.026295893 0.0426542 0.06247777
0002b0 64 79 34 be 8d b6 75 3e e6 d0 5a bd ef db 2a be
       -0.17624432 0.23995419 -0.053421877 -0.1668546
0002c0 c5 35 91 bd 72 c2 7f be c7 4d 58 3e f7 ef 62 3e
       -0.07090334 -0.24976519 0.2112342 0.22161852
0002d0 9e 73 8c 3e 8e d5 38 be a5 92 4d 3e 25 d3 4b be
       0.2743196 -0.18050215 0.20075472 -0.19904764
0002e0 10 9a e1 3d 03 9f 35 3e e7 cd 47 3d a1 f5 15 be
       0.11015713 0.1773644 0.04878035 -0.14644481
0002f0 f9 f4 c2 bd ba fe 87 be b7 b3 89 be e9 16 1a 3e
       -0.09519381 -0.26561528 -0.26894924 0.15047802
000300 32 da b7 bd af b7 b6 bc 33 c7 df 3c 5b dd 9a 3d
       -0.08977164 -0.022304384 0.027316665 0.075617515
000310 45 29 77 3e 30 a2 7f bd 0f a0 8e be 89 3e 02 3e
       0.24136837 -0.062410533 -0.2785649 0.12719168
000320 35 4d 7c bd dc 1f 59 be 1c 31 5e be 03 2d 19 be
       -0.061597068 -0.2120356 -0.21698421 -0.14958577
000330 8f d7 2c 3e 77 0a 12 bb 00 47 b0 bd 8c e6 90 3c
       0.16879104 -0.002228407 -0.08607292 0.017688058
000340 ab 6f f7 3d 52 f8 0c 3e 69 7d 0a be 43 f2 8f 3e
       0.12081846 0.13766602 -0.13524403 0.2811452
000350 2d 1a 58 3e 78 bc 1a be d5 5b ec 3d a6 ee 41 be
       0.21103735 -0.15110958 0.11540953 -0.18938693
000360 50 fe 31 bd d3 de e1 3d ce ce ff bd 3d fc 79 3e
       -0.043455422 0.110288285 -0.12490617 0.24412628
000370 25 0d 1d 3e 15 a6 8c be 05 9b 6c 3d 0e 28 47 be
       0.15337045 -0.2747046 0.057765026 -0.19448873
000380 0a 38 02 be ac ec 1c be 07 95 fe 3c 55 02 d0 bd
       -0.1271669 -0.15324658 0.031076921 -0.10156695
000390 f7 5f 3b 3d 53 0f 17 be 5d 03 72 be b4 ff 74 3e
       0.045745816 -0.1475194 -0.23634095 0.23925668
0003a0 4f e3 c3 3d e8 88 7d 3e ff 44 db 3d b2 61 73 3d
       0.0956484 0.24759257 0.10706519 0.05941934
0003b0 78 6a 00 be 12 3d 35 bc 9a 89 c0 3d b5 62 85 3d
       -0.12540615 -0.011061924 0.094012454 0.065129675
0003c0 ba 98 4f 3e 55 18 2e bd 1d 85 84 bd 2e 78 f1 3c
       0.20273104 -0.042503674 -0.06470702 0.029476251
0003d0 9c 26 33 be 36 40 00 be ac 17 ae bd 13 9d 23 3e
       -0.17495197 -0.12524495 -0.08500609 0.15977888
0003e0 1a b3 66 3e 3f 10 f2 bc 3e 4a 3e 3e 8d 99 db bd
       0.2252926 -0.029548762 0.18583009 -0.10722647
0003f0 99 d1 78 3b ec f9 8f be 91 e6 00 bd ef eb 6c be
       0.0037966727 -0.28120363 -0.031469885 -0.23136877

network.0.bias f4 [128]
000000 54 d8 4b 3d d3 f3 3d be ef 0e 1e 3e 4b 0a bd bb
       0.049766853 -0.18550043 0.15435384 -0.0057690493
000010 80 7a 98 3c 8f 56 8f 3d 27 8c 79 3e f0 1c e5 3d
       0.0186131 0.069989316 0.2436987 0.1118716
000020 88 25 ee 3d 21 56 2a be 7f e4 23 3e da f1 84 3d
       0.11628252 -0.16634418 0.16005133 0.06491442
000030 91 7a 12 bd 92 df 3e be 78 f8 c4 bd a5 07 06 3e
       -0.03576142 -0.18639973 -0.09617704 0.13088854
000040 26 6d 19 be cc 33 5a be bf a4 c2 bd 6d b7 26 be
       -0.14983043 -0.21308821 -0.09504079 -0.16280909
000050 57 8d 40 3e ba f2 07 be 65 b9 72 3e c9 2e 09 be
       0.18803917 -0.13276187 0.23703535 -0.13396753
000060 36 77 5d 3d b2 c5 b1 bd be c5 c1 3d e5 9a 3e 3d
       0.054068767 -0.086802855 0.094615445 0.046534438
000070 db 77 57 3e ca ed d7 3d 4a f8 1c be 09 a4 f7 bd
       0.21041815 0.105434015 -0.1532909 -0.12091834
000080 36 39 8a 3d 63 eb c9 3d 25 a2 70 3e 6c e2 d1 bc
       0.06749193 0.098593496 0.23499353 -0.025620662
000090 99 d8 64 3e 0e 73 41 bb a8 a7 cf 3d 74 f9 82 3e
       0.2234825 -0.002951804 0.101394 0.25580943
0000a0 be 86 91 3e 06 92 62 3e ca f0 5d 3e c8 4d a7 bd
       0.28423113 0.22126016 0.21673885 -0.081691325
0000b0 3f c0 c2 bd 66 fa 92 bd 31 3c 49 bc 6c 7e 08 bb
       -0.09509324 -0.07176666 -0.012282417 -0.0020827306
0000c0 b7 de 25 be bf 8f 43 be 23 77 81 bc 17 08 b9 3d
       -0.1619824 -0.19097804 -0.01580388 0.09034746
0000d0 88 40 13 3e 11 36 1f be 9a 29 88 3e 34 bd 45 3e
       0.14380085 -0.15547968 0.2659424 0.19310457
0000e0 b8 40 b0 bd 55 54 32 3e f7 b7 6c 3e 36 fa 40 be
       -0.08606094 0.17414983 0.23117052 -0.18845448
0000f0 1c e7 8f 3e 44 aa 7e 3e b8 09 5e 3e 9f dd 91 3e
       0.2810601 0.24869639 0.21683395 0.28489396
000100 ae 67 c7 bd 6a 37 5f bd 9e 91 6d 3e 32 a8 70 3e
       -0.09736572 -0.054496206 0.2320008 0.23501661
000110 43 90 07 3e 17 fc 3f be 86 a5 08 bd a6 3a d5 3d
       0.13238625 -0.18748508 -0.03336098 0.10411577
000120 65 f3 5d 3e 2e c4 61 3e bd 1d 1d bd d5 93 81 3e
       0.21674879 0.22047493 -0.03835844 0.253081
000130 eb 6c 3d 3d 4a a1 a3 bd 1c 3e fc 3d 22 fb 0c 3e
       0.04624645 -0.07989748 0.12316534 0.13767675
000140 dd b5 11 3e b2 49 f6 3d c7 d3 5f 3e 2c 54 13 be
       0.14229532 0.12025775 0.2185813 -0.14387578
000150 83 04 51 3e fd cc 7a 3e 91 b8 04 be 33 ad a3 bd
       0.20411877 0.2449226 -0.12961031 -0.079920195
000160 00 b4 50 be 6d a3 09 3e 2b cc 93 3e fe 87 73 3e
       -0.20381165 0.13441248 0.28866705 0.23782346
000170 25 68 e3 bc 5b 55 4c be 57 a6 55 be b7 f8 25 3e
       -0.02775962 -0.19954436 -0.20864235 0.16208158
000180 51 69 67 bd 38 33 57 3e 34 09 89 3e 8a f2 56 3e
       -0.056496922 0.21015632 0.26764834 0.20990959
000190 14 7e 89 bd 11 e1 56 3e 85 b9 16 be 20 c5 18 be
       -0.067135006 0.20984294 -0.14719208 -0.14918947
0001a0 21 aa a6 3d 95 f6 2f 3e ff 3a 8c bc 1b 68 28 be
       0.08137918 0.17183907 -0.017117975 -0.16445963
0001b0 cb 44 31 3e a1 43 43 3e ff a7 49 be 5a f2 52 3e
       0.17311399 0.19068767 -0.19692992 0.20600262
0001c0 99 96 2b be 5c 34 4c be 70 f6 3d 3e 29 ec b8 3c
       -0.16756667 -0.19941849 0.1855104 0.022573547
0001d0 da a4 71 3e 7d 28 08 bd d8 3e 1d 3d b0 24 7e 3e
       0.23598042 -0.033241738 0.03839001 0.24818683
0001e0 00 19 82 3e 8f 44 a0 bd 87 a7 36 bd f7 2d f6 3d
       0.25409698 -0.078255765 -0.04459336 0.12020486
0001f0 1c 3e 95 3e a5 da 09 be ac dd ce 3d 9e 12 42 3e
       0.29148948 -0.13462313 0.10100874 0.18952414

network.2.weight f4 [128, 128]
000000 9e 45 99 bd 87 00 9d 3d 75 5d 7b 3c ee 20 42 bd
       -0.074839815 0.07666116 0.015342106 -0.047394685
000010 e9 24 a1 3d f1 32 a2 bd 43 b5 32 3d d7 d0 97 bd
       0.07868368 -0.079198726 0.043629896 -0.0741288
000020 2d 8f 23 bd 58 88 9b 3c ca f4 84 3d c8 8c 92 3d
       -0.039931465 0.018985912 0.06492002 0.07155758
000030 3d cb 9d bd bf 4b e2 3c 76 9d 87 3d e5 39 c3 3c
       -0.0770478 0.02762401 0.0662183 0.023831317
000040 de b1 27 bd 34 64 8f 3d fe 5b 5c 3d be 93 ca 3c
       -0.04094111 0.07001534 0.053798668 0.024728652
000050 99 40 41 bd 31 b0 e5 bc b7 89 b5 3c 66 63 86 bd
       -0.047180746 -0.028038116 0.022160394 -0.065619275
000060 0c 02 ab ba 12 76 8a 3b 0c 7d 91 bc 9d d2 96 3b
       -0.0013046875 0.004225501 -0.017759822 0.004602744
000070 7e 05 61 3c 26 34 44 bd 88 19 d7 bc b1 99 92 3d
       0.01373422 -0.047901295 -0.026257291 0.071582206
000080 9b 35 bf bd 19 69 9a bd 93 1c 2a 3d 4f e5 cf bc
       -0.09336396 -0.07539577 0.041531157 -0.025377898
000090 99 51 57 bd 9c cf a8 3c 08 f9 1f 3b e0 f7 10 3c
       -0.052568052 0.020606808 0.0024409909 0.0088481605
0000a0 22 37 31 3d 3a bb d8 3c d0 47 6e 3c 06 a1 24 3d
       0.04326547 0.026456464 0.014543489 0.040192626
0000b0 7e 28 bf bd ae 64 8d bb e5 a2 ed bc 8b 4f c8 bb
       -0.09333895 -0.0043149805 -0.029008338 -0.006112998
0000c0 8e 85 86 bc 9c 97 1b bd 1a ac 20 bd a2 c6 c5 bd
       -0.016421106 -0.037986383 -0.03922663 -0.09657027
0000d0 16 f1 1e 3a bd a8 82 bd ba 8a 38 3c 6f 2e 99 bc
       0.0006063146 -0.063798405 0.011263544 -0.0186989
0000e0 a6 e5 62 bd ad c7 48 bd 27 c3 09 bd aa 9a a1 bd
       -0.05539479 -0.04901855 -0.033633377 -0.07890828
0000f0 5c 1b 31 3c 46 0f 4d bd fc a3 9f bd d8 e1 8c bd
       0.010809746 -0.050063394 -0.077949494 -0.06879014
000100 88 3f 15 bd 6d 00 47 3d 72 50 47 3d 36 ad 50 bd
       -0.03643754 0.04858439 0.048660703 -0.050946437
000110 31 ec 61 bd ff 14 a3 bc 92 17 60 3c 28 86 85 bd
       -0.05515689 -0.019907473 0.013677495 -0.06519729
000120 9b cf bb bc de c0 5f bd fc 07 80 bd a6 aa 98 3d
       -0.022926142 -0.05462729 -0.06251523 0.074544236
000130 b4 2e 99 bd 96 72 1b bd e4 98 76 bd 87 75 b6 bd
       -0.07479611 -0.037951075 -0.0602044 -0.08909135
000140 57 a7 0b 3d b7 35 09 bb ac bd 56 3d d3 04 67 bd
       0.034095135 -0.0020936558 0.05242698 -0.056401085
000150 35 2f bf 3c cd 29 a3 bd bf 1b 5c 3d 70 fa 51 3d
       0.02333794 -0.07966957 0.0537374 0.051264226
000160 f3 78 8c 3d 4a ff 19 3c 12 a0 b2 bd 15 a2 82 3d
       0.06859007 0.009399245 -0.08721937 0.06378571
000170 33 50 41 3d 92 dd 8a bd 45 f4 8c bd 29 19 ed 3c
       0.047195625 -0.067805424 -0.06882528 0.028942661
000180 03 60 89 bd 81 35 64 3d 0a d9 e3 3b bd 93 6b 3c
       -0.06707766 0.055715088 0.0069533633 0.014378485
000190 fd 9b 85 bd dc 96 ef bc 2f 7a 49 3d 83 9c a1 3b
       -0.06523893 -0.02924674 0.04918879 0.0049319877
0001a0 e0 7c 5b bc 92 2b 80 bd 2a 34 90 3d 21 66 33 bd
       -0.013396472 -0.062583104 0.070411995 -0.04379857
0001b0 6d e2 2f bd 02 ef 0d bd e4 92 d1 bc fe b7 3d bd
       -0.042940546 -0.034651764 -0.025582738 -0.046318047
0001c0 4f 97 cd 3c f2 69 fd 3c 8c 0e 01 3d 80 1c 72 3c
       0.025096564 0.030934308 0.031508014 0.014777303
0001d0 e0 fa 9b bc db 2a 81 3d 34 63 57 bd ad bd ad bc
       -0.019040525 0.06307002 -0.05258484 -0.021208609
0001e0 c1 6c d7 bc 0b 77 66 bd 03 9a c9 3c 50 3f fe bc
       -0.026296975 -0.056265872 0.024609571 -0.03103605
0001f0 a7 d7 a8 bd 1a ca 90 3d df 8c 14 bd 62 6d e0 bc
       -0.082442574 0.07069798 -0.036267158 -0.027395908
000200 80 6e 2a bd 6f 3f 0b 3d 44 bf e3 3c 9c ec 0f bd
       -0.041609287 0.033996042 0.027801163 -0.035137758
000210 25 50 89 3d bc 9c a7 3c 98 fe ea 3d b8 ec 11 3d
       0.067047395 0.020460479 0.11474341 0.035626143
000220 d7 f3 cf 3b 95 86 cc 3d ea 8b e6 bc 6e c7 ea bc
       0.0063462066 0.09986607 -0.028142888 -0.028659549
000230 62 7a 85 3d a6 54 87 3d 41 65 23 3c 19 da 04 bc
       0.06517483 0.06607942 0.009972871 -0.008108639
000240 31 b7 95 3d 57 8d 58 3d c4 f1 5e bd 2e 3c 95 3c
       0.073103316 0.052869167 -0.054429784 0.018217172
000250 14 1f ed bc 24 4d a8 bb 32 c6 8c bc f1 6c 0a 3d
       -0.028945483 -0.005136149 -0.01718435 0.0337953
000260 82 1e 29 3b 59 7e 3c 3d 99 17 aa ba 9c 6f 1a 3d
       0.0025805538 0.046018932 -0.0012977003 0.037704095
000270 ca ae c3 3d 55 8f 03 3d c9 e6 07 bd 16 51 b9 3c
       0.09554823 0.032119114 -0.03317908 0.022621673
000280 12 cb 57 3c 82 7d 86 bc 22 bc f2 3d 0f 03 46 3d
       0.013170974 -0.016417269 0.1185229 0.04834276
000290 bc 0d 22 3d c5 2d 7b 39 c6 1a 96 3d fe eb 69 3d
       0.03956388 0.00023954276 0.073293254 0.057109825
0002a0 78 72 d9 3d b2 68 05 bd d6 f6 82 3b ba 7a 8f 3d
       0.10617536 -0.03257055 0.0039967103 0.0700583
0002b0 c5 e8 7b 3c aa 17 2b 3d ea 4c f9 bc 80 54 59 3c
       0.015375321 0.041770615 -0.030432183 0.013264775
0002c0 41 55 e1 3d b3 3b b6 3d 6d bb ff 3c 0f ec 05 3d
       0.11002589 0.088981055 0.031217301 0.032695826
0002d0 63 01 f8 bc ec 45 84 bc 73 29 fb 3d 24 0c 06 3d
       -0.030274099 -0.016146623 0.12263765 0.032726422
0002e0 0d f5 e7 bc 40 f4 f5 3d 8c f5 a7 3d 93 96 0c 3d
       -0.028315092 0.120094776 0.08201131 0.034323286
0002f0 67 07 45 bd 30 af 8e 3d e1 24 98 bc 0f b8 bb bb
       -0.048102763 0.06967008 -0.018572273 -0.0057287286
000300 1e 32 9f 3d 40 9f ae 3c 4a 1f aa 3d 74 9f a6 3b
       0.07773231 0.02131617 0.08306749 0.0050849263
000310 f7 0b 82 3b 74 7e 9d 3a 66 a0 ba 3c c7 85 7f 3d
       0.0039687115 0.0012015835 0.022781562 0.06238344
000320 7a 45 0e bd b5 b4 32 3c 85 e1 8e 3d d9 5d 12 3d
       -0.034734227 0.010907342 0.06976608 0.03573403
000330 89 1f 00 bd b0 d8 34 3c a1 16 26 bd 64 7e 77 3c
       -0.031280074 0.01103799 -0.040548924 0.0151058175
000340 ad e7 bd 3d 48 17 d4 3d 60 e1 29 bd 8f 54 d8 3d
       0.09272704 0.10356003 -0.0414747 0.10563003
000350 d7 01 5c 3d 66 47 c7 bc db b7 aa 3d 7c c8 07 3d
       0.053712692 -0.024326038 0.08335849 0.03315018
000360 79 1f c2 bc 26 b6 ea 3d fe 3e 05 bd 20 ad a3 3d
       -0.023696648 0.11460523 -0.032530777 0.07992005
000370 61 5c 35 bb b9 62 0f bc 97 5e 6c 3b b0 b8 12 3d
       -0.002767347 -0.008751565 0.0036067122 0.035820663
000380 5f 87 c7 bc af 7c a4 bc 3b c6 97 3d b9 db 03 3d
       -0.024356542 -0.020078985 0.07410856 0.032191966
000390 3c e4 1a bb d0 e3 b8 3d c8 99 4a bc 53 30 35 3d
       -0.0023634573 0.09027827 -0.012365766 0.04423554
0003a0 60 4c ab 3d f2 ee 3a bd a2 7b 05 3d 0b b3 d1 bc
       0.08364177 -0.045638032 0.03258861 -0.02559807
0003b0 16 ee 87 bc ed 83 45 bd ad 28 19 bd 37 96 20 3d
       -0.01659302 -0.048221517 -0.037392307 0.039205756
0003c0 0c 7c bd 3d 97 4d a1 3c cd 32 ee 3d dd d1 64 3b
       0.09252176 0.019690318 0.11630783 0.0034915127
0003d0 65 06 a7 3d f1 54 bd bb 3c f1 1d bd f1 15 22 bc
       0.081555165 -0.005777948 -0.038560137 -0.009892927
0003e0 c3 f2 9c 3c 9f f6 0a bc d5 7e d0 3b d1 1b 9e bb
       0.019158727 -0.008481651 0.006362776 -0.0048250933
0003f0 43 ce 8d 3d 53 f4 c2 3d 96 38 e0 3c ee e4 20 3c
       0.06924107 0.095192574 0.027370732 0.009820206

network.2.bias f4 [128]
000000 9a 0c 64 3d a6 0b ac 3d 4f 79 80 3d 78 05 ac 3d
       0.05567608 0.08400659 0.06273138 0.083994806
000010 21 32 1b bd e6 59 a6 3d 67 dc 93 3d d4 47 b3 3b
       -0.037889604 0.081226155 0.07219773 0.005471209
000020 df d2 44 3d ce 90 38 bc 2e 12 c1 3d 62 2f ae bd
       0.048052665 -0.011264993 0.094272956 -0.08505131
000030 a3 2d 10 bb 15 a1 f0 bb 4e 67 f8 3c 87 3e b3 3d
       -0.0021999858 -0.007343421 0.030322697 0.087521605
000040 d1 c2 87 3d ad 18 4f 3d 4d d9 ca 3c b7 c6 ed bc
       0.06628955 0.050560642 0.02476182 -0.029025419
000050 42 8c 0d 3c 28 32 0e 3d 87 c0 3e bd 83 63 4d 3d
       0.008639397 0.0347158 -0.046570327 0.05014373
000060 04 b1 89 3d e7 a9 3b bd 19 74 f4 3c 9a 9c 3b 3c
       0.06723216 -0.04581633 0.029840516 0.011450911
000070 75 90 65 bb fd 3a 25 bd 75 81 29 3d 27 cf 80 bd
       -0.003502873 -0.04033946 0.041383225 -0.06289511
000080 ea 02 3a 3d 1f cb d6 3d 28 6b f7 3d e6 22 bd bd
       0.045412935 0.10487961 0.12080985 -0.09235172
000090 7a ad c3 bc b1 3e a9 3d fe c6 84 3d e5 32 0a bd
       -0.023886431 0.082639106 0.06483267 -0.033739943
0000a0 9c 93 dd 3d 8f 76 b4 3d 73 28 35 3b 74 f7 f8 3d
       0.1081917 0.08811676 0.0027642518 0.12156573
0000b0 cb d0 b1 3a 18 71 db 3d d9 c2 f4 3d 67 95 8b bd
       0.0013566253 0.1071493 0.11951227 -0.068156056
0000c0 51 b1 9a 3d 99 f1 e3 3d 42 2d 61 bd 7e d4 bc 3d
       0.07553352 0.111300655 -0.0549748 0.09220217
0000d0 04 94 71 3c f5 fe 4b 3d b7 01 e2 3c 28 3b a0 3d
       0.014744762 0.049803693 0.027588708 0.07823783
0000e0 d3 22 05 bd 23 e4 d7 3c 2f 36 7f 3d 18 71 a9 3d
       -0.032503914 0.026353901 0.062307533 0.08273524
0000f0 a4 cb ed bc f3 ff 9d 3c 98 9f 91 3d d7 22 a7 3d
       -0.029027767 0.019287085 0.07110518 0.08160942
000100 33 5b f8 3c 27 97 24 3d 15 80 3e 3d 49 dd 8f 3b
       0.030316925 0.040183213 0.046508867 0.004390393
000110 78 1d 3f 3d fc e6 0c 3d c8 b6 26 bd 6c 57 d2 3d
       0.046658963 0.03439997 -0.040701658 0.10270581
000120 fe 81 0d 3d e5 4e 48 bd f0 fa 9f 3d f0 8b b2 ba
       0.0345478 -0.048903365 0.078115344 -0.0013622027
000130 e9 54 20 bd 7e 90 1b bd b1 d7 f4 3d aa ba 89 3d
       -0.039143477 -0.037979595 0.11955202 0.067250565
000140 d7 cd 01 bd 5f 6d 39 bc 7c 1a 36 bd ed 35 26 bd
       -0.031690445 -0.01131758 -0.04445885 -0.04057877
000150 66 96 9b 3d 8b 6d 4b 3d c3 d1 ae 3d 58 f2 5e 3d
       0.075970456 0.049665015 0.085361026 0.054430336
000160 d3 c4 10 3e 04 39 80 3d 73 62 d7 3c dd f4 c4 bd
       0.14137582 0.06260875 0.026292061 -0.096170165
000170 c7 8c 49 3d 10 4a 60 3d 90 b4 3b 3d 0d a1 13 bc
       0.04920652 0.05475813 0.045826495 -0.0090105655
000180 1d 5a a9 3d 49 ea c0 3d ed 69 d3 3d f1 bb 4b bd
       0.08269141 0.09419686 0.10322938 -0.04973978
000190 15 d6 d3 3a ce 22 ec 3d 71 12 8a 3d a6 11 2a 3d
       0.0016161824 0.11530076 0.06741799 0.041520737
0001a0 76 1b 00 bd dc 04 8f 3c 8e fd 1d 3d 4c 5a 97 3d
       -0.03127619 0.017458372 0.038571887 0.0739027
0001b0 8c 24 5e 3d b2 f3 92 3d 62 0b a7 bc 40 f0 29 3d
       0.054234073 0.071753874 -0.02039117 0.041488886
0001c0 fa bf f5 3b 4f f1 14 3d a2 0d 3d bd 68 52 21 bd
       0.007499692 0.036362942 -0.04615558 -0.03938523
0001d0 07 fb 5d bd ed d5 5a 3d d6 74 00 bd de 94 4b bc
       -0.054194476 0.05342667 -0.031361423 -0.012425629
0001e0 7c 22 99 bc 59 c6 88 3d 24 92 13 bd 17 9e b3 3d
       -0.018693201 0.06678457 -0.036028042 0.087703876
0001f0 be ed b6 3d ea d1 94 3d 4b e1 fe bc f8 c2 29 bc
       0.089320645 0.072666004 -0.031113287 -0.010361426

network.4.weight f4 [5, 128]
000000 e5 3a 4b bd ae 52 10 bd b1 31 ee bc c5 cc db bc
       -0.049616713 -0.0352351 -0.02907643 -0.02683104
000010 85 b0 89 bd 11 83 08 3d 53 b1 ae bc 8c 32 71 bc
       -0.067231216 0.03332812 -0.02132479 -0.014721524
000020 1d 4d 04 bd 04 24 c2 bd af 99 83 3d e0 fc 79 3d
       -0.032300103 -0.09479526 0.06425797 0.061032176
000030 b3 93 8e 3c dc b2 6c bc 28 d3 11 3d 84 1a 4f 3d
       0.017404413 -0.01444694 0.035601765 0.050562397
000040 fc b0 7a bd 92 60 33 3d ba d2 71 3d 54 89 60 3d
       -0.06120394 0.04379327 0.059038855 0.054818466
000050 84 8e 0c 3b 34 db 5d 3d f6 fb 62 3c 4a a6 98 bd
       0.002144725 0.054164127 0.0138540175 -0.07453592
000060 25 16 c1 3c 46 66 6f 3c 3f ee 25 bd ff 4a 68 bd
       0.02357013 0.014611786 -0.040510412 -0.056712147
000070 9c 77 8d 3b 82 cb 5a 3d 18 e8 56 bd 5b 35 a4 3d
       0.004317237 0.053416736 -0.052467436 0.08017989
000080 26 fd 33 3d ea 67 27 bb 6e e3 6a bb 12 b3 47 bb
       0.043942593 -0.0025544115 -0.0035841125 -0.0030471724
000090 56 92 08 3e b5 42 22 3d 27 16 b5 3d 23 c4 04 bb
       0.13337073 0.039614398 0.08842116 -0.0020258508
0000a0 01 6f 44 bd 88 bb 1a 3d 26 48 ce bc 43 55 ae 3c
       -0.047957424 0.0377765 -0.025180887 0.02128089
0000b0 23 55 66 bc ee d5 f8 bc a8 dd 93 3d 5d 3b 2a bd
       -0.014058384 -0.030375447 0.07220012 -0.04156052
0000c0 31 3c 6b bd 81 45 87 bd 35 07 93 bd 33 1c 21 bd
       -0.05743045 -0.06605054 -0.07179109 -0.039333533
0000d0 04 ef 5d bd f1 4a 12 3b 04 dc 3e 3d 17 19 91 bd
       -0.05418302 0.00223225 0.046596542 -0.07084864
0000e0 df 06 07 3d 28 3a cc bc 12 67 ce bc 24 f2 83 3d
       0.032965537 -0.024930075 -0.025195632 0.06442669
0000f0 74 03 c4 3a df 27 cf 3b 3f be ff 3d b5 bd a0 3d
       0.0014954642 0.0063218917 0.124874584 0.07848684
000100 1b 1f 8c 3d a0 97 8d bc 53 8b 98 bd 76 6c 0d 3d
       0.068418704 -0.017284214 -0.07448449 0.034527265
000110 62 a5 b1 3d 85 cc 12 3d 1a 9b a5 bc 5f 28 4f bd
       0.086741224 0.035839576 -0.02021556 -0.05057561
000120 59 fc a1 3d ce c0 8e bd 28 19 a2 bd cd 33 9b 3d
       0.079094596 -0.06970368 -0.079149544 0.075782396
000130 1d 28 8d bc 9b 2d 32 bd 57 7f 75 3d 54 84 1e 3c
       -0.017231042 -0.043500524 0.059935894 0.009675104
000140 45 94 7a bc be 10 51 bd c5 7a 40 bd a7 21 82 bc
       -0.015294139 -0.051041357 -0.046992082 -0.015885187
000150 09 d8 3d bd a7 ef 28 bd f3 60 4c bd aa 4b 93 3d
       -0.046348605 -0.041244175 -0.049897145 0.07192166
000160 16 4d c9 3d d1 b2 ce bc 67 6f 9b 3c 4c af a4 3d
       0.09829156 -0.02523175 0.01897402 0.08041248
000170 9c 27 98 bd 0c 11 36 3d f7 88 18 3d 26 8b b3 bd
       -0.0742943 0.04444985 0.037239995 -0.08766775
000180 a5 84 fd bc ae ad 9a bd 4d ce 87 3d 42 73 1c bd
       -0.030947039 -0.07552658 0.066311456 -0.038195856
000190 e6 19 a9 3d d2 3b 67 b9 d3 04 95 bc bd 86 aa 3c
       0.08256893 -0.00022052162 -0.018190777 0.020816201
0001a0 7d 0e b1 bd 2d eb 98 3d 4e 29 59 bd 59 2c ed ba
       -0.086453415 0.07466731 -0.053017907 -0.0018094882
0001b0 32 44 ae bd f9 7f 87 bd 05 ba 87 3c d4 79 87 bd
       -0.08509101 -0.06616206 0.016568193 -0.06615034
0001c0 56 93 b1 bd 11 ab a8 3b 2c 76 08 3b 0f 16 ae 3d
       -0.0867068 0.005147346 0.002082239 0.08500301
0001d0 ba 5d 01 3c e5 63 19 bd 7c b0 9a bd c3 70 16 3d
       0.007895881 -0.037448782 -0.07553193 0.03672863
0001e0 83 46 70 bd 4e 60 ae 3d 06 02 76 bd 55 a4 d9 bc
       -0.058660995 0.085144624 -0.060060523 -0.026567617
0001f0 d6 13 f8 3d 01 37 4c bd 06 a3 2e bd e2 b1 95 3d
       0.121131584 -0.049857143 -0.04263594 0.07309319
000200 68 58 03 bd 87 a6 e0 3d 5c 94 eb 3d cd 57 f4 3d
       -0.032066733 0.109692626 0.11502907 0.11930809
000210 db 51 84 3d 19 e2 a6 3b 4f dd b1 3d 3e 60 82 3d
       0.06460925 0.005092871 0.086847894 0.06366013
000220 48 6c 91 3d 9a c0 c5 bc 6b 82 af 3d 16 5d 25 bd
       0.07100731 -0.024139691 0.08569797 -0.040371977
000230 0e 31 ea 3d 25 cf b5 bc 55 e1 a1 3d 54 17 ca 3d
       0.11435138 -0.0221935 0.07904307 0.09867731
000240 da 3e 73 bd 26 fb d4 3d f7 be 36 3d 6a 66 f7 3d
       -0.05938611 0.10399465 0.044615712 0.12080081
000250 84 42 1b 3d 37 d6 56 bc ab 4f e8 3d bc df c4 3d
       0.03790523 -0.013112596 0.113433205 0.096129864
000260 08 23 a3 bc 3b 42 0f 3d d2 d1 a2 bd f9 e0 db 3d
       -0.019914165 0.03497527 -0.07950176 0.107362695
000270 0f f9 d9 3c 66 b2 15 3d d9 ad c0 3d cb 12 f5 3b
       0.026608018 0.036547087 0.09408159 0.007479047
000280 ca 8d f9 3d 36 2f 85 3d e5 9d 12 3d 7f 62 57 bd
       0.12185247 0.065031454 0.03579511 -0.052584168
000290 1e a4 59 3d 9a ca a1 bc 9a 12 cd 3d 6b b7 2d 3b
       0.05313503 -0.019749928 0.100133136 0.002650703
0002a0 34 d5 e9 3d a8 32 67 3d f7 9c 12 bc 75 4d 76 3d
       0.114176184 0.056444794 -0.008948556 0.060132463
0002b0 07 27 90 3d 10 03 d2 3d 6e cc ea 3d 74 1a ee 3c
       0.07038694 0.102544904 0.11464773 0.029065348
0002c0 e9 09 b6 3d fe fb c8 3b 52 d1 5e bd 2e 5a e3 bc
       0.08888609 0.0061335554 -0.054398842 -0.027752962
0002d0 32 a2 44 3d 33 9e 47 3d 91 ef 91 bd d1 d7 0f 3d
       0.048006244 0.048734855 -0.07125772 0.035117928
0002e0 f2 e8 07 3e b7 e4 d2 3d 8c 34 a0 3d 40 80 09 bd
       0.13272455 0.1029753 0.078225225 -0.033569574
0002f0 ab 9b c9 bc bb 66 b7 3d 28 b4 6c 3d b2 f4 a4 3d
       -0.024610361 0.08955141 0.057788998 0.080544844
000300 88 b4 80 3b 35 1a fc 3c 5c 43 f6 3d 8d 77 9e 3d
       0.003927771 0.030774215 0.120245665 0.07737646
000310 ec 7d dc 3d 66 c4 06 3e 6e 73 8c bd e8 15 8a 3d
       0.10766205 0.13160858 -0.06857954 0.067424595
000320 db 57 78 3d a8 3f 8d 3d 24 c2 ab 3d 84 a3 ff bc
       0.06063066 0.06896907 0.08386639 -0.0312059
000330 10 24 94 3d 3e 4d 06 3e b6 4a 8d 3a a9 16 fd 3d
       0.07233441 0.13115403 0.0010779712 0.12357838
000340 31 d6 f5 3d 15 28 c6 3d d2 2e 97 3d ff c6 f9 3d
       0.120037444 0.09675614 0.07381977 0.121961586
000350 7c e0 bd 3d 82 db a5 3d 0c 75 b2 3d 49 d1 31 bd
       0.092713326 0.080985084 0.08713731 -0.04341248
000360 22 7f ad 3d 5e 81 fe 3d c3 40 97 3d 01 92 84 bd
       0.08471514 0.124270186 0.07385399 -0.064731605
000370 07 bd 75 3d e5 b2 38 bd 57 66 a5 bc 0e a7 6f bd
       0.059994724 -0.045092482 -0.020190401 -0.058508925
000380 26 33 d2 3d 83 1b 90 3d ea 41 77 3c bb c9 45 bd
       0.10263662 0.070364974 0.015091399 -0.04828809
000390 c5 e8 00 3d 8d b0 b4 bc 9d 2b 98 3d d6 35 ef 3d
       0.031471986 -0.022056842 0.074301936 0.1168019
0003a0 99 ff 85 3d 40 74 92 3c f7 33 02 3e 13 16 43 bb
       0.06542892 0.017877698 0.12715136 -0.0029767796
0003b0 4a b1 bf 3d a3 96 db 3d 28 4d 8e bd fa ac a3 3d
       0.09359987 0.10722091 -0.0694831 0.07991977
0003c0 f8 b5 89 bb 22 6a b9 3d 75 35 97 3b 46 e0 36 3c
       -0.0042026006 0.09053446 0.004614527 0.011161869
0003d0 c9 9a 28 bd 22 f3 12 bb 5a 60 40 bd c9 7a 86 bc
       -0.04116324 -0.002242275 -0.046966888 -0.01641597
0003e0 cc 50 14 3d 15 28 93 bd 68 b0 45 3d f4 df 8f 3d
       0.036209866 -0.071853794 0.048263937 0.070251375
0003f0 62 82 9a 3d fb 9f 2b bd b1 f5 43 bb 25 eb 05 bd
       0.075444 -0.041900616 -0.0029901082 -0.032694954

network.4.bias f4 [5]
000000 ac 7d 63 3d 8b 67 1b bd 93 02 45 bd 24 08 84 3d
       0.055539772 -0.037940543 -0.048098158 0.06446865
000010 42 ed e1 bd
       -0.110315815

network.0.weight f4 [128, 82]
000000 b9 d2 ed 3d e5 7a c3 3d 90 b3 18 bb 13 6c 2f bc
       0.11612458 0.09544925 -0.0023300387 -0.010706919
000010 10 21 e7 bd 48 2b af bd 08 c3 ba bc e3 6f 88 bd
       -0.11285603 -0.08553177 -0.022798076 -0.06661966
000020 7a 92 ea 3d 92 d1 05 3d e9 5e ae bc 24 39 20 3d
       0.114537194 0.032670565 -0.021285491 0.039116994
000030 32 cc 9d 3d 2c 7d bc 3c e7 83 5b be 95 50 22 be
       0.07704963 0.023008905 -0.21437036 -0.15851052
000040 3b 69 1d 3c 72 f6 42 3e 94 66 c5 bc c2 16 2c 3e
       0.009607608 0.19039324 -0.024096765 0.16805556
000050 06 2e 6e bd 44 9f e3 bd f4 df 04 3d d5 16 60 bc
       -0.05814936 -0.11114362 0.03244014 -0.013677319
000060 b3 9f c3 bd 96 cd b7 bd dc 06 4b 3d 43 ff c0 bd
       -0.095519446 -0.08974759 0.04956709 -0.09423687
000070 ba f2 20 be d4 35 27 3d 5c 18 f5 bc 54 57 62 3c
       -0.15717593 0.04082282 -0.029918842 0.013814766
000080 90 34 bf bd 18 41 22 3c 6e a8 b5 bd 86 ea 19 bd
       -0.093361974 0.009903215 -0.08870016 -0.037577175
000090 cd 25 64 3d d6 07 cb bd fe 2c 0a bd 81 4d c3 bd
       0.055700112 -0.09913604 -0.033734314 -0.09536267
0000a0 74 db ee bd 42 60 3d 3d 05 76 9c 3c 08 3e f2 3c
       -0.11662951 0.046234377 0.019099245 0.029570594
0000b0 8e 98 b4 3c 8b 1d c0 bd 94 01 ed bd d5 a1 30 bb
       0.0220454 -0.09380635 -0.11572567 -0.0026951928
0000c0 11 02 45 be 09 36 f6 bd e5 6d d7 bc 2a 43 e0 3d
       -0.1923907 -0.12022025 -0.026297519 0.109503105
0000d0 fd 1c 05 be 23 7c e2 bd 7b 2b 94 3d 6d bc 10 3d
       -0.1299934 -0.110588335 0.07234856 0.035335947
0000e0 35 f3 bc 3c 85 43 75 bd b0 66 14 3e 2c a5 cb 3d
       0.023065189 -0.059878845 0.14492297 0.099436134
0000f0 7f bb ee 3d 8d 4b 87 3d 23 bb 7b bd 0d e3 da bb
       0.11656856 0.06606207 -0.061457764 -0.0066798986
000100 b0 e4 2d 3e 77 62 89 3d 33 47 bc bd ea c8 52 3b
       0.16981769 0.06708234 -0.09193268 0.003216321
000110 31 a3 94 3c 74 86 60 bb 32 c8 79 3d 8f 47 20 3b
       0.018144222 -0.0034259828 0.060981937 0.0024456715
000120 dc e0 46 bd ae 92 c4 bb b2 f5 b4 bd 63 d2 2d bd
       -0.048554286 -0.005998931 -0.08835925 -0.04243697
000130 73 91 f5 bd 4b bd ca 3d 9f 57 a0 bd f8 0e 8c 3d
       -0.11990633 0.09899386 -0.078292124 0.068387926
000140 b3 45 ff 3d 0f cb 36 bd b6 c7 2a 3d e9 a0 80 bd
       0.12464466 -0.044627246 0.041694365 -0.06280691
000150 79 74 3f bd 0e 85 a4 bd c9 28 cf 3d 79 9d a1 bd
       -0.046741936 -0.08033191 0.10115201 -0.07891364
000160 78 2f 92 bc 36 39 20 bc 9e e9 3b bd c3 d5 28 3b
       -0.0178449 -0.009779265 -0.04587709 0.0025762178
000170 8e 2a ab 3c fc 67 d5 3d c7 03 d6 bd 20 ab 25 3d
       0.020894315 0.10420224 -0.10449939 0.0404464
000180 9c ab f2 3c 04 b2 bd 3d 1f 02 6f bd 11 5a 2d bd
       0.029622845 0.092624694 -0.058351632 -0.042322222
000190 e2 21 a4 3d 58 b7 58 bd 4e 4f 6e bc 0b f5 3f 3d
       0.08014275 -0.052909225 -0.014545275 0.04686455
0001a0 94 7e 99 bd 8d 76 c5 3d 3e 7c 3d bd af 01 5e bc
       -0.07494846 0.096417524 -0.046261065 -0.013550206
0001b0 19 ec 4c bd ed 3c 3a 3e 29 d7 6b bc 26 1a 4a bd
       -0.050029848 0.18187304 -0.01439456 -0.049341343
0001c0 14 88 8f 3d 17 73 98 3d 26 2e 7c bd 70 98 ec 3d
       0.07008377 0.07443827 -0.061567448 0.11552513
0001d0 d1 a4 a5 3d 40 09 91 3d d6 0c fb 3d 2d a7 ce 3c
       0.08088077 0.070818424 0.12258308 0.0252262
0001e0 8c 3c 67 bd 8c 31 0a be 6e 47 1d 3d a4 a2 b3 bd
       -0.056454226 -0.13495463 0.0383982 -0.087712556
0001f0 dd a4 6d bd 75 59 96 bc 89 68 1f be af e6 68 bd
       -0.058018554 -0.018353203 -0.15567221 -0.056860622
000200 b7 38 15 3d 0c 18 88 3d e6 ce e6 3d a2 1a b7 3d
       0.03643104 0.066452116 0.112699315 0.08940627
000210 8e d6 19 3c 86 48 e7 bc 5d d8 1d 3e 41 36 ef bb
       0.009389533 -0.028232824 0.15414567 -0.0073001687
000220 88 0f a6 bc 7b de 07 3d de 5a 90 3d cc cb 67 3d
       -0.020271078 0.03317116 0.070485815 0.05659084
000230 8b e8 eb 3d f0 ba 40 bd a3 e5 1c 3e 59 10 43 3d
       0.115189634 -0.047053277 0.15321974 0.047623012
000240 12 71 8d 3d dd d8 11 be 08 65 f3 bd 73 28 a1 bd
       0.06906332 -0.14242883 -0.118845046 -0.07869043
000250 1f 29 7d 3d c3 e5 5e 3d 6b af b1 bc f9 a6 67 bd
       0.061806794 0.054418337 -0.021690091 -0.056555722
000260 fb 81 b9 3d 4f fa 0b bd b7 22 e2 bd 36 4f 92 bd
       0.09057995 -0.03417426 -0.110417776 -0.071440145
000270 ec 1a 0e be 35 63 95 bc 66 ed 60 ba 38 02 89 bd
       -0.13877457 -0.018235782 -0.0008580297 -0.06689876
000280 da da 8a bd bd c3 b7 bd 95 3e ba 3d 80 c3 c6 3b
       -0.06780024 -0.08972881 0.09093968 0.006065786
000290 bf fc 15 bd a6 d5 0d 3d 44 55 16 be 04 de 30 bc
       -0.03661799 0.03462758 -0.14680964 -0.01079512
0002a0 96 ba b8 3d 32 3e 9f 3c 5e d3 3d 3e 52 b8 17 3e
       0.090199634 0.019438837 0.18537661 0.14816406
0002b0 97 03 2d 3e 29 c9 e8 3d 42 3b b4 3d a0 eb 97 3d
       0.168959 0.11366493 0.08800365 0.07417989
0002c0 26 60 a6 3d 9e c5 95 bd 66 6c d6 bc ef 6b 88 3c
       0.081238076 -0.07313083 -0.026174735 0.01665303
0002d0 ee 36 fd bc 7c a7 2a 3e a0 a4 d7 bc 9f 2a 19 3b
       -0.030909982 0.16665453 -0.026323617 0.0023371351
0002e0 bd 1f 03 be 66 24 1b bd 7f 5b c5 3d ff be b3 bd
       -0.12805076 -0.03787651 0.09636592 -0.08776664
0002f0 42 c0 01 be ff f3 db bb 0f e1 60 3c ba d2 b7 bd
       -0.12670997 -0.006712436 0.013725533 -0.0897574
000300 52 e2 0b be 7a 80 9d bd 0a b8 1c 3c 61 24 4f 3d
       -0.13660553 -0.076905206 0.009565363 0.050571803
000310 3c 43 d1 bc 5f 95 ac bb 2c e7 92 3d f9 1a 9b 3d
       -0.025544755 -0.00526683 0.07172999 0.07573504
000320 1c 23 c4 bd ef af 17 be 9e e7 4b bd bb 98 41 3d
       -0.09577009 -0.14813207 -0.049781434 0.047264796
000330 af d3 f4 bd be 08 8d bd b2 9d 2d bd 5d b2 4f 3c
       -0.11954438 -0.06886433 -0.042386718 0.012676802
000340 bc 86 19 bd 41 7e b6 bd a7 41 0b 3d 8f c3 36 bd
       -0.03748201 -0.089108 0.033998158 -0.044620093
000350 f1 a6 ec bd bd f5 04 be 1d 0d 13 be f4 61 83 3d
       -0.11555279 -0.12984367 -0.14360471 0.064151675
000360 86 49 cc bc 8f 4a 9c 3d 7e a4 06 3c b7 81 71 3d
       -0.024937402 0.076314084 0.008217929 0.058961596
000370 b4 78 86 bb c7 fe 7d bd ba 38 5e bd 9e ce 9a 3d
       -0.0041037444 -0.062010553 -0.054253317 0.0755894
000380 bb 7e 8a 3d 27 8e 2b 3d 76 07 4f bd 2b 25 51 3d
       0.06762453 0.041883614 -0.050544225 0.051060837
000390 9a f8 3e 3d 66 09 a9 3c 2f ba b4 bd 56 67 95 3d
       0.046623804 0.020634364 -0.08824574 0.072951004
0003a0 e0 d4 a9 3d fb ed af bc 1e 95 ef 3b ff 55 86 3d
       0.08292556 -0.021475783 0.0073114773 0.06559371
0003b0 90 a6 c6 3d cc d3 e6 bd 0e dc 21 3b 50 e6 6c bd
       0.09699738 -0.11270866 0.0024697813 -0.05783683
0003c0 3c 6a ed 3c 90 d9 a8 3d d9 1b c3 3d c8 e2 b0 bc
       0.02898132 0.08244622 0.09526796 -0.021592513
0003d0 51 a8 8d 3d 17 e1 fa 3c 3f bf 5b bd 99 ea ba 3d
       0.069168694 0.03062491 -0.053649183 0.09126777
0003e0 81 af 6a bd 69 b5 24 bd c8 32 3e 3d 60 ca 60 bd
       -0.05729628 -0.04021207 0.046435148 -0.0548805
0003f0 82 31 f5 3d d9 13 62 3d bf 57 9c 3d 16 5b 0c be
       0.119723335 0.05519471 0.07633924 -0.13706622

network.0.bias f4 [128]
000000 76 5e 59 3c e1 33 ac bc 34 39 94 3d 40 14 3a bc
       0.01326715 -0.021020832 0.07237473 -0.011357367
000010 ba c7 80 3d ef 24 ac 3d f0 28 21 3e c3 fa 84 bc
       0.06288095 0.08405482 0.15738273 -0.016232854
000020 7b 46 ba 3d c5 f0 f5 3d 01 72 4a 3e 69 a4 2d 3d
       0.09095474 0.12008814 0.19770052 0.042393122
000030 db be 0c 3e 4c 83 58 3c 2c 97 30 bd 9f ef 36 bd
       0.1374468 0.013214897 -0.04311292 -0.044662114
000040 72 b9 91 bd 78 6d eb bc 64 d1 d3 bb 06 61 8f bc
       -0.07115449 -0.028738722 -0.0064641703 -0.017502319
000050 b9 53 6f 3e 57 40 a3 bd 2d 3f 5d bd a1 1f 62 bc
       0.23371781 -0.07971256 -0.054015327 -0.013801486
000060 1b 49 ca bd 5c 52 32 3e b4 47 db bd c9 24 1b 3e
       -0.09877225 0.1741423 -0.10707036 0.15150751
000070 c9 2e 18 3e 93 a0 9a 3d 4e 64 8a b9 d1 3f bf 3c
       0.14861597 0.07550158 -0.00026396144 0.02334586
000080 1d 41 a2 3d bf d5 c7 bd 0e 29 9c bd 29 63 a4 3c
       0.079225756 -0.09757566 -0.07625018 0.020066814
000090 43 b6 c2 bb 64 1c 5f 3d d5 33 40 3e 0a 87 b9 bd
       -0.0059421374 0.054470435 0.18769772 -0.0905896
0000a0 6f f8 35 3e 1e 76 37 3d f3 bc 2b 3e fa 4d 31 bb
       0.17770551 0.04479038 0.16771297 -0.0027054534
0000b0 e8 8f 40 bc ac ee 81 3c 1f de a7 3d 8d a9 dd bc
       -0.01175306 0.015860878 0.08196663 -0.027058387
0000c0 ec 50 7c bd 5e b6 c9 bd c2 fc 95 bd e7 bf b9 3d
       -0.06160061 -0.09849237 -0.073236 0.090698056
0000d0 db 89 c5 3d 63 1b 08 3d 51 b1 7e 3d 51 e4 08 3e
       0.096454345 0.033229243 0.06218082 0.13368346
0000e0 68 9c 52 3d 9e e7 eb 3d be b7 41 3e 3d e5 54 3d
       0.051418692 0.11518787 0.18917748 0.05197643
0000f0 a9 80 87 3d 62 d2 37 3e 66 fa ea 3d 2e f9 f4 bd
       0.06616337 0.17951348 0.11473541 -0.1196159
000100 fb 98 28 3d 36 43 52 3d 51 3d a8 3d 44 41 02 3e
       0.04116152 0.05133363 0.0821482 0.1272021
000110 fa 00 30 3e 0b 08 c0 bd c7 ae f7 bd ee 47 31 3e
       0.17187873 -0.09376534 -0.12093883 0.17312595
000120 bd d3 2a 3d 89 d2 15 bd 85 84 f9 3d f0 2c c9 3d
       0.041705836 -0.036577735 0.12183479 0.09823024
000130 7e e1 fd bc e6 39 2c bd 3d 8b de 3d 71 20 8b bb
       -0.030991312 -0.042047404 0.10866401 -0.0042458107
000140 93 17 e0 3d a0 41 05 be 81 d5 9f 3c 0f 6b 9a 3d
       0.109419964 -0.13013315 0.019510986 0.07539951
000150 74 ab 12 3e 5e 08 f4 3d d0 d7 3d 3e b1 3e 3e bb
       0.14323217 0.119156584 0.18539357 -0.0029029066
000160 29 3f 0f bd b5 f1 a9 3c 0c f7 14 3c be 9b fa 3d
       -0.034972344 0.020745138 0.009092104 0.12236737
000170 cc 7a 04 3e 14 cc bd bc bc 5c 6b 3e e7 74 c8 3d
       0.12937468 -0.023168601 0.22984594 0.09787922
000180 a2 b0 47 3e 6e 62 23 3e cc 01 3b 3e 22 91 22 bd
       0.19500974 0.15955517 0.18262404 -0.03968919
000190 23 75 36 bc 61 76 56 bc b3 1f ab 3d 43 ac 3e 3e
       -0.011136326 -0.013089747 0.083556555 0.186204
0001a0 07 52 d0 bb 92 72 74 3d b9 4c ad 3d be f7 5d bd
       -0.0063574347 0.059679575 0.08461899 -0.054191343
0001b0 d5 c3 1b be 6d ee 77 bd 24 1b be 3d d7 90 8a bd
       -0.15211423 -0.060530115 0.092825204 -0.06765907
0001c0 9c 3e 6a 3d f8 e6 40 bd 40 2d 9d 3b 61 9d f2 3d
       0.057188615 -0.04709527 0.004796654 0.11846424
0001d0 16 fb 0f 3e dd 34 9e bd ff 11 3f 3d 45 81 de 3d
       0.14060625 -0.077249266 0.04664802 0.108645
0001e0 0b f7 b5 3d f2 c3 ef 3c ca ea 18 3e 69 15 19 3e
       0.0888501 0.029268239 0.14933315 0.14949574
0001f0 e6 7a 8f 3d d0 4d dd 3d e3 0e a6 bb b5 fa 9a bd
       0.07005863 0.10805857 -0.0050676926 -0.0756735

network.2.weight f4 [128, 128]
000000 06 86 0f 3d 30 51 03 3e 68 0d 8d bd ab 02 49 bc
       0.035039924 0.1282394 -0.06887323 -0.0122687025
000010 26 a2 88 3d a6 90 05 3d 93 a5 56 bd 7d 93 00 3d
       0.06671552 0.03260865 -0.052403998 0.031390656
000020 1d 71 99 3c fd 84 f2 3d 42 67 87 3d 15 12 a3 3c
       0.018730694 0.11841772 0.06611492 0.019906083
000030 2a 1d 93 bd 67 fe 9a 3d 40 ad f3 3c 44 54 ed 3b
       -0.07183297 0.07568055 0.029745698 0.0072427113
000040 d7 0c 0a 3e 41 13 7a bd 05 ce bd bd 9a 3c 42 3b
       0.1348146 -0.06105352 -0.09267811 0.0029638172
000050 40 66 74 bc 28 f7 95 3d 97 1d 3b 3d 50 2a 1a bd
       -0.014916956 0.07322532 0.045682516 -0.03763801
000060 a6 34 8c 3e d7 33 4f 3c 4d 45 1b bd 85 c6 99 bc
       0.27383918 0.012646637 -0.037907887 -0.01877142
000070 ce 9c 12 be d9 d9 65 3d 05 6e 89 3d c5 f2 5e bd
       -0.14317629 0.05611596 0.06710438 -0.05443074
000080 3f 4f 23 bd 00 06 97 bd a0 1b e4 3d df 8c 14 3e
       -0.039870497 -0.07374191 0.111380816 0.14506863
000090 c0 d3 55 3c 4f bd d0 bd 10 a5 6f 3d 08 d4 8a 3d
       0.013050973 -0.10192358 0.058507025 0.06778723
0000a0 b4 46 01 bd 2e 27 50 3d c6 44 9e bd 27 79 aa 3c
       -0.03156157 0.050818615 -0.07727961 0.020809723
0000b0 0c 95 2d 3d 15 c6 c0 3d 7c 05 cf bc b8 ea d3 3c
       0.04237847 0.09412781 -0.02527117 0.025868759
0000c0 a1 19 cd bd 1a 76 ae 3d de 73 5a bc d9 17 a3 bd
       -0.10014654 0.0851862 -0.013333289 -0.07963533
0000d0 ed fa b0 3d 58 9d 37 bd 9a 59 4f bd 6e 62 5f 3c
       0.0864161 -0.04482779 -0.05062256 0.013634307
0000e0 96 11 ab 3d 0d cf 13 be 4e a0 d4 3c 16 4d 66 3d
       0.083529636 -0.14434452 0.025955345 0.05622586
0000f0 b9 9f 90 bd 26 9d 80 bd 08 03 cc bd 40 01 c6 3d
       -0.07061715 -0.06279974 -0.09961516 0.09668207
000100 9f a8 32 3c 2c 2b 3d 3e 87 a3 1b bd b8 ff 60 bc
       0.01090446 0.184735 -0.03799775 -0.013732843
000110 b4 2e 2e 3d b5 90 e8 3d b7 75 0a 3e 2f 7d c0 bc
       0.04252501 0.11355726 0.13521467 -0.023497192
000120 40 1a 19 bd c7 6c 11 3e 70 d1 89 bd ba 25 94 3a
       -0.03737855 0.14201652 -0.067294 0.0011302747
000130 57 d3 51 bd 0e 14 06 3e f5 93 10 bd 74 3d 10 3e
       -0.05122694 0.13093588 -0.035297353 0.14085943
000140 03 04 5e 3d b9 ff d5 3d 02 2d 15 ba 2d a0 ec bd
       0.054203045 0.10449166 -0.00056906056 -0.115539886
000150 16 e6 68 bd 45 4e ba 3d 4c 14 66 bd 81 8f 19 3e
       -0.056860052 0.0909696 -0.0561717 0.14996149
000160 dc ca cf 3d a1 88 50 3c 8f 29 90 bd e3 b3 1f 3d
       0.10146114 0.012727887 -0.07039177 0.038989913
000170 c9 a4 ca bc 98 b5 7d bc 68 f5 81 3d 7f c2 56 3d
       -0.024736779 -0.01548519 0.06345636 0.05243158
000180 2d 4d db bc 16 0e 65 3d 0a 26 5a bd a1 13 8e 3d
       -0.026770199 0.055921637 -0.053258933 0.06937338
000190 29 02 da bd 56 bb 95 bc 19 7b 11 3c c8 25 1b 3c
       -0.10644943 -0.018277805 0.008879446 0.009469457
0001a0 7a e9 10 bd 09 9d cb bd 06 10 c8 3d 52 65 39 3e
       -0.03537891 -0.099420615 0.09768681 0.18105057
0001b0 fc 8a 15 ba 92 77 d6 3d d9 4c d0 3d 89 bf 28 3e
       -0.0005704609 0.10472025 0.101709075 0.16479315
0001c0 1a 08 23 3d bb 98 7c bd 79 d8 3b bd 0b 52 b8 3c
       0.039802648 -0.061669093 -0.04586074 0.022500059
0001d0 56 c1 94 bd 84 02 13 be 32 e7 63 bc 36 ad e3 ba
       -0.072634384 -0.14356428 -0.013910102 -0.0017370346
0001e0 cc 58 45 3d be 85 0d 3e 5b 9e 62 3c 17 9b b5 3d
       0.048180386 0.1382055 0.0138317 0.08867472
0001f0 32 18 e2 bd ab a2 88 bd cf 5e 60 3d 6c 0f 9b 3d
       -0.11039771 -0.066716515 0.054777917 0.07571301
000200 27 f7 f5 3c c5 20 dd 3d 03 b6 ad bd d9 43 7c 3d
       0.030025078 0.10797266 -0.084819816 0.061588142
000210 85 2c 55 bd 57 1e 53 3d b9 fa 39 3d 10 c9 e6 3c
       -0.05204441 0.051542606 0.045405123 0.028172046
000220 b3 87 6d bd 66 fb b2 3d b8 76 f1 3b c3 0e 93 bd
       -0.05799074 0.08739357 0.0073688887 -0.0718055
000230 fe b8 4b 3d 4f 99 00 3e 10 7c b6 3c f4 2a 73 3d
       0.04973697 0.12558483 0.022275954 0.059367135
000240 45 8e 84 3c 89 5c 25 bd 5f ef c5 bc 1d d6 59 bd
       0.01618112 -0.04037145 -0.024161993 -0.05318271
000250 3f 9b a6 3d 84 93 dc bd 94 37 a4 3d 80 2d be bc
       0.081350796 -0.10770324 0.08018413 -0.023215055
000260 72 36 fc 3d 03 46 5b 3d ab e5 34 bd d0 0e d8 39
       0.12315072 0.053533565 -0.04416434 0.00041209767
000270 c9 99 1f bd a2 c6 1e 3d cf 0e 41 3d 95 3f 02 3d
       -0.03896502 0.03876365 0.047133263 0.031798918
000280 30 05 b3 3c 28 6f 2e 3d 1b 6e 2d 3d 35 e2 b8 3d
       0.02185306 0.042586476 0.042341333 0.090275206
000290 72 e4 83 bd e7 01 69 bd 21 9e 8d bd 15 ba 88 3d
       -0.06440057 -0.05688658 -0.06914926 0.06676117
0002a0 fb 9f d6 3c 18 aa f4 3c a3 10 93 ba 54 86 07 3d
       0.026199332 0.029866263 -0.0011220168 0.03308709
0002b0 85 20 82 3c 70 dc 00 3e ba 45 54 3b 73 c2 2b 3d
       0.015884647 0.1258409 0.0032390193 0.041933488
0002c0 60 8e 1d bd 14 21 fb 3d 9d 2e 98 3d 33 a0 d2 ba
       -0.038465858 0.122621685 0.07430766 -0.0016069472
0002d0 fa 01 69 bd 54 54 52 3d c8 57 44 3d a0 54 56 bd
       -0.05688665 0.051349953 0.047935277 -0.0523268
0002e0 9f 6f 74 3d 5a de a6 bd c1 17 80 3d c1 bf 6f 3c
       0.059676763 -0.08147879 0.06254531 0.01463312
0002f0 e7 38 0a 3d 5f 78 3c 3d 14 86 b8 bd df c1 5b 3d
       0.033745673 0.046013232 -0.090099484 0.053651687
000300 c4 ad 17 3d 1b 6e e8 3c 42 a5 85 bc 2c ef 3d bc
       0.03703095 0.028372815 -0.016314153 -0.011592668
000310 4d e9 bc bc bc c1 0f 3e 95 bd 8f 3d 5d ab 40 bd
       -0.023060465 0.14038748 0.07018582 -0.047038425
000320 4d 14 e4 bb 69 61 e2 3b 0a 68 7f bd 6e 67 90 bb
       -0.006960428 0.006908585 -0.06235508 -0.004406861
000330 7b 83 d9 bd 79 c5 b6 3d 65 80 1f 3c 11 42 43 3e
       -0.10620781 0.08924384 0.0097352015 0.19068171
000340 18 f4 44 bd 2a 13 37 bc 68 83 92 bd 58 92 a3 bd
       -0.04808435 -0.011174003 -0.0715397 -0.07986897
000350 b9 7b 6b 3c 05 a7 20 ba 1f 2d 89 3d ab 97 8f 3d
       0.0143727595 -0.00061284035 0.06698059 0.0701135
000360 57 ee e6 3d 7b 2e a6 bd 49 a6 bb bc 9f 88 b3 bd
       0.112759285 -0.08114334 -0.02290644 -0.08766293
000370 1e 8b f7 bc e5 e6 83 bd 9e 12 0d 3d cf 63 76 3c
       -0.030217703 -0.06440524 0.034441583 0.015038445
000380 02 17 95 3d 3b 7f 82 3d cc d8 53 bc 25 17 28 3e
       0.07279779 0.063719235 -0.012930106 0.16415079
000390 66 03 f1 bd b8 3f a2 bd 5b 0c 45 bd 09 f2 95 bd
       -0.11768226 -0.0792231 -0.048107486 -0.07321555
0003a0 8c c0 f9 3c dc 6a c9 3b 7e 4a f4 bc 15 5d 29 3e
       0.030487321 0.006146772 -0.029820677 0.16539414
0003b0 4d 2f 06 bc 9d ac 95 3d 70 3c 13 3b 7b e2 23 3e
       -0.008189988 0.07308314 0.0022466443 0.16004364
0003c0 68 25 ab bd 08 22 57 bd 70 5a 95 bd 36 06 b7 bd
       -0.08356744 -0.05252269 -0.0729264 -0.089367315
0003d0 f7 d7 00 3d 9e 96 e9 bc 88 78 b1 bd 5a dd a4 bd
       0.03145596 -0.028514203 -0.08665568 -0.08050032
0003e0 7b d1 87 3d ab 02 ec 3d f4 a6 ac bd 84 3a 3f 3d
       0.06631752 0.115239464 -0.08430281 0.046686664
0003f0 75 12 c5 bd ff 46 14 3d a3 22 f8 bc 93 89 af 3d
       -0.09622661 0.03620052 -0.030289954 0.08571162

network.2.bias f4 [128]
000000 25 6c 72 3d 60 d4 83 3c c2 d1 19 bd ae 7d 35 bd
       0.059185166 0.01609248 -0.037553556 -0.04430931
000010 21 68 1b 3e 80 dc 1e 3e 9f 94 16 3e d3 9b 2a 3e
       0.15176441 0.15513802 0.14705132 0.16661005
000020 8e 66 6a 3d b7 2f 50 3d 7a bb 78 3c 2d 0e 1e 3d
       0.05722671 0.050826754 0.015181417 0.038587738
000030 b8 13 5c 3d 0d ea 17 bd f1 41 14 3e b8 f0 11 3e
       0.053729743 -0.037088443 0.1447828 0.14251983
000040 3f a0 0f bd 6b d6 05 3d 24 13 d0 3d a9 36 42 3d
       -0.035064932 0.032675188 0.10159901 0.04741541
000050 ce 1a 58 bc ed f6 92 3d ba 3a 14 3e dc 8a 88 bc
       -0.0131899845 0.071760036 0.14475527 -0.016667776
000060 a6 7e 73 3d f4 99 fe 3d 24 32 dd 3d 64 7b 3b bc
       0.059446953 0.12431708 0.10800579 -0.011442993
000070 46 3f 14 3e b6 d8 91 3d f0 4c 9d bd 36 fa 9b bd
       0.14477262 0.071214125 -0.0768069 -0.07616083
000080 27 00 89 3d de a2 21 3e 97 89 09 3e b9 da 45 3d
       0.06689482 0.15784785 0.13431393 0.048304293
000090 bf ea 7f 3d e1 a7 b2 3c 50 65 2c 3d 0a 10 97 3d
       0.06247973 0.021808567 0.042088807 0.07376106
0000a0 ff bc fa 3d 2a de c5 bd 29 57 4b 3d a4 70 19 bc
       0.122430794 -0.09661515 0.04964367 -0.0093652345
0000b0 04 be 08 3e 24 74 b8 bb e8 23 cb 3c cb 1a 0b 3e
       0.13353735 -0.0056290794 0.024797395 0.1358444
0000c0 e8 f2 63 bd 7e 6c a5 bd e2 c3 89 bd 7d 1a b4 3d
       -0.055651575 -0.08077334 -0.06726815 0.08794115
0000d0 dd 6d 14 3d 9e 5a 9a 3c 7b 94 3d 3d 81 e8 c7 3c
       0.036237586 0.018842038 0.04628418 0.024402859
0000e0 59 bd 67 bd c7 e5 04 3c f2 a6 ce bb a4 5f d4 bd
       -0.05657706 0.008111424 -0.0063065225 -0.103698045
0000f0 97 7d 3b 3c 31 4a 87 bd 80 3b 65 3d dd 3c e4 3d
       0.011443517 -0.06605948 0.055964947 0.11144421
000100 c5 bf 2b bd 6d d1 48 3d 89 20 a2 3d 0e 77 b3 bd
       -0.041930933 0.04902785 0.07916362 -0.08762942
000110 6e 04 4c 3d 05 1c 98 3d 52 ad f6 3b 37 b2 a7 bd
       0.049808912 0.07427219 0.0075279856 -0.08188289
000120 5d 45 47 bc 61 20 48 3d eb 1d c3 3d a9 12 0d 3e
       -0.012162534 0.048859004 0.09527191 0.1377665
000130 f9 a3 15 bc 8f ab 82 3d 95 90 b6 3d ff d0 9c 3d
       -0.009133332 0.063803785 0.089142956 0.0765705
000140 53 ab 53 3d 6c 50 af 3c 94 0c 1c 3e 69 15 79 3d
       0.05167706 0.021400653 0.15239173 0.060811434
000150 2e 9a a4 bc 8e ce 06 3d 04 68 d7 bd 61 c0 1d bd
       -0.02009305 0.03291183 -0.10517886 -0.038513545
000160 17 80 6d bd 7a 6e 30 3d 7a a0 29 bd 5a 6f e4 3c
       -0.057983484 0.04307411 -0.041412808 0.027885128
000170 d6 b9 45 bd 1f 48 ae 3d 4b c6 7a bb 23 e8 a2 3d
       -0.04827293 0.0850985 -0.0038265164 0.07954433
000180 06 0f 12 bd af 36 79 3d 5d 15 5d bd 90 c7 7b bd
       -0.03565886 0.060843166 -0.05397545 -0.061469615
000190 3d 2d e7 3d 41 ba d5 bd dd c1 e5 3d 84 44 08 bc
       0.112879254 -0.10435916 0.11218617 -0.008317117
0001a0 d6 bc c7 3b 5a 51 c2 3c 44 56 6e bd 06 23 a6 bc
       0.006095509 0.023720432 -0.058187738 -0.020280372
0001b0 a0 52 b4 3d 43 2a 7c 3d b0 1e 6d 3c b4 f7 9b bb
       0.08804822 0.06156374 0.0144726485 -0.004759753
0001c0 f1 5a df bd 6b b8 c4 3d 40 c8 2b 3e d4 54 ee 3d
       -0.109060176 0.096054874 0.16775608 0.116372734
0001d0 08 17 cb bd 2d ce 0b 3e 99 ec 80 3d 74 c7 5a 3d
       -0.09916502 0.13652869 0.062951274 0.05341287
0001e0 3c f7 77 bb 9d c1 40 3c c4 6e 02 3e 5f 97 18 bc
       -0.0037836572 0.011764911 0.12737566 -0.009313433
0001f0 60 97 b4 3d de 14 fd 3d 40 b5 7e 3c 95 e7 0b 3e
       0.08817935 0.12357496 0.015546143 0.1366256
