models_backup/maddpg/checkpoint_ep800/adversary_1.pth (torch, 764002 bytes, 44 tensors)

network.0.weight f4 [128, 16]
000000 06 fd 22 bd 81 20 80 be 87 81 31 bd 89 71 1e be
       -0.039792083 -0.250248 -0.043336418 -0.15472998
000010 59 4c a3 bd 20 f7 50 3e 83 e9 55 3d f2 b8 1c 3e
       -0.079735465 0.2040677 0.052224647 0.15304926
000020 31 8e 93 be 93 c6 1a 3e 8a a9 4b 3e 4b af eb bd
       -0.2881942 0.15114813 0.19888893 -0.11508044
000030 c8 2c 79 bc 96 00 6b 3d f4 ff c3 bd 90 49 95 3e
       -0.015208431 0.057373606 -0.095703036 0.29157686
000040 5f d8 77 be 3a 46 59 3e c1 fb 2b be 41 33 b0 3d
       -0.24203633 0.21218196 -0.16795255 0.08603526
000050 1c 30 a8 3d 5c 60 70 be a5 bb 8e be 3f b4 50 be
       0.08212301 -0.23474258 -0.27877536 -0.20381258
000060 04 65 ce 3d 7e f3 11 3e 02 04 58 3e 56 6e b9 bc
       0.10077861 0.14253041 0.21095279 -0.02263562
000070 75 d4 86 be fe 5c 47 3d a9 5e 29 3e 62 f6 86 3e
       -0.26333967 0.04867267 0.16540016 0.2635985
000080 d0 7a 81 bd b4 5b 28 be 99 77 0b 3e a3 6d 70 bd
       -0.06322253 -0.16441232 0.13619842 -0.058698308
000090 a6 7e c3 bd 22 73 25 be 3c 86 e5 3d a0 dd bf 3d
       -0.09545641 -0.16157201 0.11207244 0.093684435
0000a0 30 3c 83 3e a9 f3 3b be 75 a7 16 be 75 f0 da bd
       0.25631857 -0.18354668 -0.14712317 -0.10690395
0000b0 83 10 66 3d 50 62 9e 3d 32 4f f4 bd d7 1d 64 3e
       0.05616809 0.07733595 -0.11929168 0.22277008
0000c0 5c e6 30 bd 7c f4 8b be a6 5c de 3d 3a 75 d8 bc
       -0.043188438 -0.27334964 0.10857515 -0.026423085
0000d0 19 86 4e be 38 35 31 bd 18 f3 5d bd 6e 52 92 be
       -0.20168342 -0.043263644 -0.05418691 -0.28578514
0000e0 d9 7f 95 bc 92 56 07 3e cb db 76 be b4 f3 90 be
       -0.01824944 0.13216618 -0.24107282 -0.2831093
0000f0 1b 60 84 be d5 6a 65 be b5 74 19 3e 55 f5 86 3e
       -0.25854573 -0.22404034 0.14985926 0.26359048
000100 3e fd 2a 3e 25 dc 28 3e d8 5b 74 3e 2d 9f ae 3d
       0.16698167 0.16490228 0.2386316 0.08526454
000110 fd 60 8b be b7 e9 8a be 11 09 49 be 40 15 65 3e
       -0.27222434 -0.27131435 -0.19632365 0.22371387
000120 52 55 e7 bb 1d e6 20 be 7e c3 f7 3b 7b 13 81 be
       -0.0070597315 -0.15712781 0.0075611463 -0.25210175
000130 42 c3 76 bd 88 6c 3e 3d 25 d6 07 3e 69 ac a5 bd
       -0.060244806 0.046490222 0.13265283 -0.08089525
000140 13 d4 6d be e0 94 61 be a9 0c 21 3e 2f 1c 87 bc
       -0.23225431 -0.22029448 0.15727486 -0.016492931
000150 72 b1 53 3e 8b 2f 80 3d 09 c9 a9 3c 3f a5 84 3d
       0.20673159 0.06259068 0.020725744 0.06476831
000160 6b 04 b7 3d 14 4f 31 be c5 10 95 3e 1b 13 37 bd
       0.089363895 -0.17315322 0.29114357 -0.044695955
000170 bb 69 ca bd a0 aa f1 bd 6e 49 82 be 49 d0 28 be
       -0.09883448 -0.11800122 -0.25446647 -0.16485704
000180 6e f5 5a 3e 41 03 21 3d 89 c3 6c 3e 58 5f 87 3c
       0.21382686 0.039309744 0.23121466 0.016524956
000190 59 c2 24 3c 43 0e 4b be 89 4e 7c be 1a 49 32 be
       0.010056102 -0.19829659 -0.24639334 -0.17410699
0001a0 20 67 69 be 61 eb 55 3e f6 ef 8e 3e b3 62 3b be
       -0.22793245 0.20890571 0.2791745 -0.1829937
0001b0 c2 69 1b 3e 78 f0 41 be 2f e6 93 3d 6e 65 67 bd
       0.15177062 -0.18939388 0.072216384 -0.056493215
0001c0 1c 9a 92 be 79 66 22 be dd f6 49 be 84 da 10 3e
       -0.286332 -0.15859403 -0.19723077 0.14145857
0001d0 64 4e ee bc bc 5d 15 bd 2a 7b 57 3e 99 a8 d3 3d
       -0.029090114 -0.036466345 0.21043077 0.10334892
0001e0 f1 2e 72 3d b7 7d 8d bc b0 9d 0f be 27 5d 10 be
       0.059126798 -0.01727186 -0.14024997 -0.14098035
0001f0 6f 38 8e 3e c8 a3 66 be ec 1a 74 3e b4 da 8e 3e
       0.2777743 -0.22523415 0.23838395 0.27901232
000200 ef ba 11 3e 92 05 7f bc cf 2f a8 3d 84 b5 8c 3e
       0.14231466 -0.015565293 0.08212244 0.27482235
000210 47 35 17 3e cf 52 3f 3d b0 d1 67 be 66 8d 65 3e
       0.14766417 0.04670983 -0.22638583 0.2241722
000220 21 e0 82 3d 3d 9c 4c be 1c bf 3d 3e f6 ad ed bc
       0.063904054 -0.19981475 0.18529934 -0.029013615
000230 fa cf 6b 3e 95 1d 5e b9 b1 01 2d 3e 82 72 05 3e
       0.23028556 -0.0002118259 0.16895176 0.13031963
000240 e8 77 58 3e 95 4c 28 3c 15 70 18 be 31 93 38 3e
       0.2113949 0.010272165 -0.14886506 0.18024899
000250 15 8e 04 be 24 a0 ed 3d f3 13 2d be 0b f5 0f be
       -0.12944825 0.1160281 -0.16902141 -0.1405832
000260 aa cb bc bd 2e 3c 6f 3e 24 e0 76 be 64 4f 99 3d
       -0.09218533 0.233628 -0.2410894 0.07485846
000270 26 ad 55 be 21 7c 80 be 3c 66 0d 3e e6 6a a4 bd
       -0.20866832 -0.25094703 0.1380853 -0.08028202
000280 24 81 d5 3d a0 87 17 3d 03 ef 7b bd f4 5c 94 3e
       0.10425022 0.036994576 -0.061507236 0.28977168
000290 3a 7b 21 be b4 1e be bd f1 04 44 3e 9b 29 41 be
       -0.15769663 -0.092832 0.1914251 -0.18863527
0002a0 a6 e3 74 be 6d 0f f8 bd 93 a6 1e 3d 99 99 9a 3c
       -0.23914966 -0.12112317 0.038733076 0.01887207
0002b0 f3 ec 10 bd 76 28 fa bd a2 6e a4 bd 7f 54 66 3e
       -0.035382222 -0.122147486 -0.08028914 0.2249317
0002c0 2a af 5c bd 1a 55 0d 3e 9b c6 61 3d 1f f6 cc 3d
       -0.053877987 0.13801995 0.055121046 0.100078814
0002d0 18 fb b4 bc 45 ad 38 3d e4 26 cc bd 92 d3 96 3c
       -0.022092387 0.045087118 -0.09968355 0.018411431
0002e0 38 00 1d be 2f 01 2f 3d 9e 86 31 3e 12 77 89 3e
       -0.15332115 0.04272574 0.17336509 0.26848656
0002f0 15 0e 99 be a5 38 68 3e 01 e8 02 be fd 19 d4 3d
       -0.29893556 0.22677858 -0.12783815 0.10356519
000300 1b bf 0c 3d b3 7d 56 3e e4 5b 81 bd 46 00 2e 3e
       0.03436194 0.20946388 -0.06316355 0.16992292
000310 55 91 9a bd 70 1a 6c be 4b 74 71 3e 01 34 7d be
       -0.07547251 -0.2305696 0.23579518 -0.24726869
000320 cf be 82 3e c6 c3 25 bd 0f 48 3a 3b 12 61 ad 3d
       0.255362 -0.040469907 0.0028424298 0.0846578
000330 47 6a 4f 3e e0 bb fb 3d e1 29 2c be 67 67 19 be
       0.20255385 0.12291694 -0.1681285 -0.14980851
000340 94 6f 52 be 05 b9 da bd d2 fa 22 be 89 79 40 be
       -0.20550376 -0.10679821 -0.15915993 -0.18796362
000350 2e 05 1e 3b fa c0 3a 3d 3a b7 58 be 91 66 55 3d
       0.0024111974 0.045594193 -0.21163645 0.052099768
000360 16 6b 78 3e 56 5f 8b 3e 3e 7e dd 3d 9e 17 a0 3d
       0.242596 0.27221173 0.108150944 0.078170046
000370 c7 9e 1b 3e 7e 35 0b bc d9 64 60 3e 93 0e 27 be
       0.15197287 -0.00849664 0.2191347 -0.16314153
000380 0d 07 4a be 1e 5e d3 3d 70 02 2b 3e cf ca 5d be
       -0.19729252 0.10320686 0.16700149 -0.21659397
000390 83 0c 2e 3e 01 c5 5b be 76 d3 f2 3d 43 54 76 3e
       0.1699696 -0.2146187 0.11856739 0.24055581
0003a0 a6 b8 74 3e 22 20 5c be 5e 5e c1 bd 1d 83 46 bd
       0.23898563 -0.21496633 -0.09441827 -0.048464883
0003b0 1a 22 07 3d ee d6 4e be d7 f6 4e 3e 40 92 37 3d
       0.032991506 -0.20199177 0.2021135 0.04481721
0003c0 9b c6 09 be 07 ba 8c be 29 dc d0 bc 68 f8 e5 bc
       -0.13454668 -0.27485678 -0.025495606 -0.02807255
0003d0 29 a2 c0 3c 4c 5c 77 be 27 50 45 3d bf 1a fd bd
       0.023514824 -0.24156302 0.048172142 -0.12358617
0003e0 2c df 7a be bb 96 92 be ae a1 90 3c 8a 73 04 be
       -0.24499196 -0.28630623 0.01765522 -0.129347
0003f0 cb 38 8c 3e 26 78 64 be 9c 60 10 3e 23 19 80 3e
       0.2738708 -0.22311458 0.14099354 0.25019178

network.0.bias f4 [128]
000000 de c5 20 3e b9 82 1f be f2 05 0b 3e 14 df 00 be
       0.1570048 -0.1557721 0.13576487 -0.12585098
000010 09 70 b0 3b 3e 40 93 bd 08 df 6d 3d 3a 9e 38 bd
       0.0053844494 -0.071899876 0.058074027 -0.04507277
000020 c1 f8 03 be bd 30 2a be ea d0 8a 3b 86 58 48 bd
       -0.12887861 -0.16620155 0.0042363303 -0.048912548
000030 92 e1 9b 3e 14 fd a3 3b 4e 7c 96 3e bb ad 3b be
       0.30445534 0.0050045345 0.29391712 -0.18327992
000040 54 22 1b be 69 ee 4d bd f1 01 c4 3d 58 ed 26 3e
       -0.15149814 -0.050276194 0.09570683 0.16301477
000050 0e b8 8c 3e 77 cb d2 bd e2 58 83 3e b9 87 56 3e
       0.27484173 -0.10292714 0.2565375 0.20950212
000060 5f 56 1a 3e 75 13 ed 3d 9b 95 c8 3d 28 f0 23 3e
       0.1507201 0.11575977 0.0979416 0.16009581
000070 28 e7 2c be 84 66 12 3e d8 b3 45 be 69 aa 39 3e
       -0.16885054 0.14296919 -0.19306886 0.18131413
000080 96 ce c0 3c 01 b8 28 be 31 de ab bd 03 b9 8a 3e
       0.023536008 -0.16476442 -0.08391989 0.27094278
000090 e1 e3 19 be d2 58 9b bc bd 3f 8e 3e 8c e4 8f 3e
       -0.15028335 -0.018963251 0.27783003 0.28104055
0000a0 c0 30 2f be c0 6a 24 ba e0 27 40 3d 36 2f 5e bc
       -0.1710844 -0.00062720105 0.046913028 -0.013561061
0000b0 4c 79 8f 3e b7 1f 93 bd 29 27 17 be 2b 50 bd bc
       0.2802223 -0.071837835 -0.14761032 -0.023109516
0000c0 ba 51 83 bd 03 44 77 3e c2 33 fa 3d 6d 59 11 3e
       -0.064120725 0.24147038 0.12216903 0.1419427
0000d0 9b f4 3f be 36 6c 48 3d 33 fb 5c 3e eb 44 1e bd
       -0.18745653 0.048931323 0.215802 -0.038639944
0000e0 e4 dd 2d 3e 81 da 73 3d d2 7c 87 bc 74 b4 f9 bb
       0.16979176 0.059534553 -0.016539011 -0.0076203886
0000f0 b0 37 48 3e c9 8a b7 3d b9 a2 96 3e 09 8f 8d 3e
       0.19552493 0.08962018 0.29421023 0.2764819
000100 e9 73 87 bd 07 97 95 3e ab e6 52 3e c5 6a 33 3e
       -0.06613905 0.29216787 0.20595805 0.17521198
000110 fc 4c 63 bd 67 d7 c4 bd be 81 e5 3d 05 08 02 be
       -0.05549334 -0.09611397 0.11206387 -0.12698372
000120 ff b0 81 3e 36 fd ed 3d a4 d5 68 bc 45 cb 76 3e
       0.2533035 0.11620562 -0.014211092 0.24100979
000130 96 a1 32 3e 09 82 99 bd 6f 48 d6 bd 00 c5 ee 3d
       0.17444453 -0.07495505 -0.10463034 0.116586685
000140 cd 19 e2 bd aa 0b 08 be 8c 60 56 3e 83 3c 12 3e
       -0.11040077 -0.132857 0.20935267 0.14280896
000150 0e fa 30 3e c3 33 7e bc 12 e8 38 be 39 73 d9 3d
       0.17282888 -0.015515271 -0.18057278 0.1061768
000160 d5 24 fa bd 31 64 91 3e ce 52 0b bd 18 ed cc 3d
       -0.122140564 0.28396752 -0.034014516 0.100061595
000170 a0 4a 12 be 5b 64 3f 3e 0a 62 2c bd 17 75 1e bc
       -0.1428628 0.18690626 -0.042085685 -0.009671471
000180 04 88 3f 3e f4 ce 23 bd 17 d0 08 be 13 a9 43 3e
       0.1870423 -0.039992288 -0.1336063 0.19107465
000190 df c5 60 3e 58 1d 93 bd 63 63 70 3b 9e d6 a2 bc
       0.21950482 -0.07183331 0.0036680333 -0.019877728
0001a0 a6 77 8f 3e db f8 bc 3d ea f1 96 bd 33 f7 22 bd
       0.28020972 0.09227153 -0.0737036 -0.03978653
0001b0 93 c0 10 3e 7f 7d fe bd b7 d3 49 3d 43 da 17 be
       0.14135961 -0.1242628 0.049274173 -0.14829354
0001c0 0d 4e 9a bd 89 59 6d 3e 43 1d a9 bb 6e 67 29 be
       -0.07534418 0.23178686 -0.005160959 -0.16543362
0001d0 bb 4c 5b 3e 2a be 0c be c6 c8 29 3d 2f 25 8c 3e
       0.21415989 -0.13744417 0.041451238 0.2737212
0001e0 3b b9 32 bd 26 21 91 3e 93 29 28 3e 9f c7 92 3d
       -0.04363368 0.28345603 0.1642211 0.07166981
0001f0 08 93 02 bd a2 d6 93 bd 55 ec df 3d 6e 69 49 be
       -0.0318785 -0.07218672 0.10933749 -0.19669124

network.2.weight f4 [128, 128]
000000 f0 8d 15 3a af 18 88 3d 8f bb e7 bc b2 56 96 3d
       0.0005705049 0.06645333 -0.028287677 0.073407546
000010 e4 d3 31 3d d7 82 89 3d 9e 6c d3 bc 8b 3d 3e bd
       0.043414965 0.06714409 -0.025808629 -0.04644541
000020 0f cd 05 3d 77 a4 29 3d 07 a3 9c 3d 69 44 0c 3d
       0.032666262 0.04141661 0.076482825 0.03424493
000030 0b 23 ca 3d ee 18 e3 bc 05 b9 c7 bc bd d8 c4 3d
       0.09869965 -0.027721848 -0.024380216 0.09611652
000040 bf 61 0f bb 42 f1 5b ba 5b 86 34 bd f3 8d 9c 3d
       -0.002187833 -0.0008390137 -0.044073444 0.07644262
000050 07 1e b9 3d 02 97 8a 3d 52 01 57 3c d3 54 be bb
       0.090389304 0.06767084 0.013122873 -0.0058084517
000060 4a a2 a6 3d ab 33 d9 3d 3b ea bd bc 98 e7 3c 3d
       0.08136423 0.10605558 -0.023182979 0.046119303
000070 b8 d5 28 3d 7a 89 27 3c 0d 75 ba 3d f0 bd 9b 3d
       0.041219443 0.010225648 0.09104357 0.07604587
000080 d7 2d 85 3d 13 8e f1 3a eb 6f 7c 3d 11 b0 bd 3c
       0.06502884 0.0018429182 0.06163017 0.023155244
000090 2c f8 46 bd 3b 5b 9a 3c 7f 19 d7 3d 04 d8 32 bd
       -0.04857652 0.01884233 0.1050291 -0.04366304
0000a0 d0 d9 cc 3d 56 97 39 bd cb 59 9f 3d 63 27 1a 3c
       0.10002482 -0.04531034 0.077807985 0.009408805
0000b0 b4 5e bf 3d 19 c0 7e 3c dc d5 b0 b8 39 ad 02 bb
       0.09344235 0.015548729 -8.4321684e-05 -0.0019939675
0000c0 2d 62 21 3d c4 85 88 3d f7 48 17 3d 79 b2 c9 bc
       0.03940027 0.06666139 0.03693482 -0.024621235
0000d0 32 71 88 bc cf ca 9d 3d 2a 0d 85 3d e7 19 df 3d
       -0.016655538 0.07704698 0.064966515 0.10893612
0000e0 f2 32 ec 3d ab 6c b9 3d d3 e2 bf 3b 99 f6 51 bd
       0.115331545 0.0905393 0.005855897 -0.051260564
0000f0 67 a5 af 3d ad 35 46 3b 42 fb a4 3c 9e b1 d6 3d
       0.0857647 0.0030244396 0.02013934 0.104830965
000100 ea e8 68 3d 02 ff db 3d d6 39 42 bb 47 5f a5 3d
       0.05686275 0.10741998 -0.0029636524 0.08074813
000110 3c 57 e0 3b e5 b6 a4 bc c9 38 9f 3d 1b 71 44 3d
       0.0068463366 -0.020106742 0.07774503 0.04795943
000120 b0 7b 90 3d b5 d1 db ba 7c 68 fc 3d fd 58 3f 3d
       0.070548415 -0.0016770872 0.12324616 0.046715725
000130 98 b5 02 3d 8f a7 a9 3d c0 bf f3 3d 34 ac 6a 3d
       0.031911463 0.082839124 0.11901808 0.057293132
000140 33 94 9e bb 28 e9 7e 3d 74 8e 06 bd eb 6d f7 3d
       -0.004839444 0.062234074 -0.032850698 0.12081512
000150 81 cd 16 bc bf 26 fa 3d cf af c3 3c 6f 8b 19 bb
       -0.009204269 0.122144215 0.023887543 -0.0023429056
000160 0a 4f 0a 3d 2d cb 22 3c 1e 2b b5 3d a7 ca e3 3c
       0.033766784 0.009936136 0.088461146 0.027806593
000170 e8 d0 11 bd 54 d1 eb bc 9b 59 1f bd ac de 61 3d
       -0.03559962 -0.028786339 -0.038903814 0.055143997
000180 fd 74 36 3b ad bc 80 3d e3 53 45 3d 24 73 f4 3d
       0.0027840727 0.06285987 0.048175704 0.11936024
000190 32 f9 a6 3d db 6b cf bc 1e da 4d 3d f3 56 43 bd
       0.08152999 -0.025319984 0.05025684 -0.047690343
0001a0 a7 31 6c 3c ff b3 28 bc 74 29 69 3d 7d f2 50 3d
       0.014416135 -0.010296821 0.0569243 0.051012505
0001b0 19 bc 32 bd e4 04 8e 3d 9e 9b 13 3d fe be d8 3d
       -0.043636415 0.069345266 0.03603708 0.10583304
0001c0 c7 a9 89 3d c4 69 99 3d 49 54 e5 3d 7d d2 95 bc
       0.067218356 0.07490876 0.11197717 -0.018288845
0001d0 b4 78 e4 3d a1 95 3f 3d 6c 5b 37 bc d6 48 33 bc
       0.11155835 0.046773557 -0.01119123 -0.010942658
0001e0 a5 05 af bc 51 0f c2 3d d7 ae 78 bc 00 b6 cf bc
       -0.021364996 0.094755776 -0.015178404 -0.025355339
0001f0 d2 42 20 3d 3f 51 2e 3d 3c 39 2c bd 14 4f a2 bc
       0.039126225 0.04255795 -0.04204677 -0.019813098
000200 69 5b e4 bc 8b da 00 3e 46 2f 80 3c 97 24 ed 3d
       -0.027875619 0.12583368 0.015647542 0.115792446
000210 ad 02 8a 3d fc 3b fe bc 82 54 03 3e 47 69 a0 3d
       0.067387916 -0.031034462 0.12825206 0.0783258
000220 2a ca f4 3c 87 7a 91 bb b5 a5 fe 3d 7a 8a cb 3d
       0.029881556 -0.004439655 0.1243395 0.09938522
000230 ab 9e 30 3c 4b f7 8a 3d 53 72 62 3d 04 9b aa 3d
       0.010780017 0.06785449 0.05528481 0.08330348
000240 a5 69 a7 3d 52 bf 29 3d e9 e7 b5 3d d0 72 f7 3d
       0.08174447 0.041442223 0.08882124 0.120824456
000250 65 71 4e 3d 02 42 ef bb 3d 87 5e 3d 41 2d b8 3c
       0.05040111 -0.00730157 0.054328192 0.022482516
000260 cf ac 17 3d b0 05 0a bd 51 00 c9 3c ef b1 ed 3d
       0.037030037 -0.03369683 0.024536284 0.11606204
000270 10 fb fb 3c dc 94 51 bb e8 d9 01 3d 66 55 e9 3d
       0.030759364 -0.0031979596 0.031701952 0.113932416
000280 5c 0e 75 3d 96 c4 93 3c ef d7 07 3e 77 75 77 3d
       0.059828147 0.018038075 0.13265966 0.060414758
000290 45 b7 02 bd c8 63 94 3d 9e ad 8e 3d 61 ec 60 3d
       -0.03191306 0.07245594 0.069667086 0.05491293
0002a0 b4 26 f1 bc 3a 7c 56 bb d2 26 8b 3c 67 71 83 3c
       -0.0294374 -0.0032727853 0.016986284 0.016045285
0002b0 f0 eb d6 3d fc dd d9 3d 7e b1 28 bd f3 33 bd bc
       0.1049422 0.10638043 -0.041184895 -0.02309606
0002c0 b2 6f ad 3d a5 21 42 3d 26 ff d3 3d c2 e2 b1 3d
       0.0846857 0.047395367 0.103514 0.08685829
0002d0 71 5f 73 bc 2d 3f bb 3c ca bd 04 3c 73 fe 9f 3d
       -0.014854298 0.022857273 0.00810189 0.07812204
0002e0 f2 56 6c 3d d5 ee d7 3d c5 e5 d8 3a 86 45 cf 3d
       0.057700105 0.105436005 0.0016547969 0.101206824
0002f0 2c 47 80 3d e6 21 3a bd 9e 16 18 3c cf b6 2d 3c
       0.06263575 -0.045442484 0.009282736 0.010602667
000300 32 1a e2 3d 21 de 33 bd c2 a3 2a 3d d9 f9 d3 3d
       0.110401526 -0.04391301 0.041660078 0.10350389
000310 68 30 3e 3b fd 20 cd 3b 28 cc 31 3c 47 45 01 3e
       0.0029020552 0.006260036 0.010851897 0.12624083
000320 31 01 f0 3d b5 b5 64 3d 2a 1f a1 3c b0 5e 84 3d
       0.11718977 0.05583735 0.01966818 0.06463373
000330 2f 5e 9e bc 72 b3 f1 3d 7a b2 81 3d 3e fa 35 3d
       -0.01933202 0.118018046 0.0633287 0.044428103
000340 79 fa 3c 3d 57 36 b9 3d f8 9b 86 3d 7a ab b9 3d
       0.046137307 0.09043568 0.065727174 0.0906591
000350 62 2f 5b bc ae 7e 55 3c 8e 2a ef 3d 93 57 fc 3d
       -0.013377996 0.013030691 0.116780385 0.12321391
000360 d4 d8 bb 3d 9f 4b 93 3d 2f 53 b0 3d d8 1e d6 3d
       0.09172216 0.07192158 0.08609616 0.10455102
000370 30 9b 8c 3d a4 93 f0 3d 90 8a 2d 3d c0 35 1a bd
       0.06865537 0.1174691 0.04236847 -0.037648916
000380 bd 67 22 bd 8f 1c af 3d a7 c0 c9 bc 9e d0 54 3b
       -0.039649714 0.08550369 -0.024627997 0.0032472978
000390 7e 4e 43 3d a0 41 44 3c 64 66 54 3c e2 5b 3c 3d
       0.047682278 0.011978537 0.012963865 0.045986064
0003a0 4b be 9e 3d 48 38 fe 3d 4e ae 1b 3d fa ea ad bc
       0.07751139 0.124130785 0.038008027 -0.02123021
0003b0 9d 18 9a bb 49 10 54 3d c1 62 74 3c c6 a8 3e 3b
       -0.004702641 0.051773343 0.014916123 0.0029092296
0003c0 5f 61 ba 3c c9 d7 86 3d 62 b2 31 bd 0e 6f 33 bd
       0.022751508 0.065841265 -0.04338301 -0.043807082
0003d0 f6 a2 5b 3d 43 ad b6 3d 27 84 e3 3d 34 38 4c 3c
       0.05362221 0.08919766 0.111091904 0.012464572
0003e0 93 98 29 bc 03 a6 37 3d 11 1e c7 39 52 55 17 3c
       -0.010351318 0.044836055 0.0003797864 0.009236651
0003f0 f5 61 94 3c 3d 80 f4 bc 5d 24 8c 3d 0a a6 51 3d
       0.018113116 -0.029846305 0.06842873 0.051183738

network.2.bias f4 [128]
000000 54 71 b9 3d 01 f1 a1 3c d0 28 71 bd e0 14 d6 3d
       0.09054819 0.01976824 -0.058876812 0.104532
000010 9d 2a 7a 3d e8 97 de 3d be ee 6b 3d b2 dd 69 3d
       0.061075795 0.108688176 0.05760073 0.05709619
000020 5c 03 b5 3d f7 db 84 3b 2f d1 ec 3d 3c cb 3c 3d
       0.088385314 0.004054542 0.11563336 0.046092257
000030 80 be 4d 3d 00 12 08 3b 03 12 0a bd 95 f7 2a bd
       0.050230503 0.0020762682 -0.033708584 -0.04174002
000040 26 72 c3 bc 96 46 83 3d 3e e4 a3 3c 64 c1 14 3d
       -0.023858141 0.064099476 0.020006295 0.036317244
000050 a6 5e d7 3d 23 77 9f bc 86 01 33 3d 1c 09 57 3d
       0.105161 -0.019465989 0.043702625 0.05249892
000060 08 75 8a 3c 94 06 fb 3d 14 fa 28 3c e6 59 e4 bc
       0.016901508 0.12257114 0.0103135295 -0.027874898
000070 0f 5e e0 bc f5 10 78 bc e1 b0 98 3c c9 65 cb 3c
       -0.0273886 -0.015140762 0.01863903 0.024828808
000080 ed 83 fa bc 4c ce 3f bd 39 08 04 3e 75 b0 60 3c
       -0.030580485 -0.0468276 0.12893762 0.013713946
000090 f3 97 4e bc 7e bc 6a 3d 81 62 1a bc 6c 67 28 bc
       -0.01260947 0.057308666 -0.009422899 -0.010278564
0000a0 0b f6 cf bd 7e b1 01 3e 45 f7 c0 3c 0e 4b ef 3c
       -0.10154351 0.12665364 0.023555407 0.029210594
0000b0 76 5f dd 3d 9c a9 fb 3d 57 3c b4 3d 07 de 00 3e
       0.10809223 0.1228821 0.088005714 0.12584697
0000c0 4f eb 96 bd 1a fb 00 3c cf b3 44 bd 3a d6 da bc
       -0.073691 0.007872367 -0.04802304 -0.02671348
0000d0 ba cc 34 3c 21 19 a5 3d 6f c1 41 3d 55 ed ae 3d
       0.011035139 0.080614336 0.047303613 0.08541361
0000e0 14 b8 8e bc 30 10 81 bd 67 38 c9 3d 89 a2 2f bd
       -0.01742176 -0.06301916 0.09825211 -0.042879615
0000f0 e2 bb cd 3d 23 00 df 3d 95 ed 72 3d 68 66 ad bd
       0.100456014 0.10888698 0.059308607 -0.08466798
000100 14 de 40 bd 1d 6d 43 bd 63 7a 10 3c b5 15 26 bb
       -0.04708679 -0.04771148 0.008818242 -0.0025342528
000110 2f a0 13 3d 53 60 c4 3c 0c ea a3 3c 73 0f 87 3d
       0.036041435 0.023971712 0.020009063 0.065947436
000120 ac 89 ca 3d 4f f1 34 3d b9 6b 03 3e a2 fa 99 3c
       0.0988954 0.044175442 0.12834062 0.018796269
000130 8c a2 76 3d 1b 37 ba 3c 55 c5 9d 3c 42 ca e8 bc
       0.06021361 0.022731354 0.019259134 -0.028416757
000140 2c fb 01 3e af aa ca 3d be a5 85 3d c2 91 be 3b
       0.1269347 0.098958366 0.065257534 0.0058157155
000150 5c 5f 0a bd 3c 18 20 3d 44 a9 87 3d e2 93 42 bd
       -0.033782348 0.03908561 0.06624082 -0.047504313
000160 cc 92 6b bc c3 74 5c 3d c3 e6 41 3d 44 62 78 3d
       -0.014378261 0.05382229 0.047339212 0.06064059
000170 cc af 59 bc be 0b 94 bc 16 9f 80 3d 4e f4 82 3d
       -0.013286542 -0.018072005 0.06280343 0.06394254
000180 ac f0 ac 3d 0c b6 02 bd 0d 71 c0 bb 52 79 46 3c
       0.08444342 -0.031911895 -0.0058728517 0.012113886
000190 9c 9a b3 3d df 50 28 bd 8d e7 1f 3d ce c2 84 bc
       0.08769724 -0.04109275 0.039039183 -0.016206171
0001a0 f7 88 c7 3d 22 71 4e 3d d3 0f d7 bb 9c ce bf bd
       0.09742921 0.05040086 -0.0065631657 -0.093655795
0001b0 48 c9 3e 3d ad 26 a7 3d d8 28 82 3d 95 e7 7c 3d
       0.046578676 0.08161674 0.063554466 0.06174429
0001c0 94 97 ed 3d dd ff d9 3d b1 d4 98 3d 21 98 8e bd
       0.11601177 0.10644505 0.07462443 -0.0696261
0001d0 51 5b f5 3d 86 e0 de 3c 7d 73 bb bd 58 3c b3 3d
       0.11980308 0.02720667 -0.09152887 0.08751744
0001e0 c5 94 fb 3d dd bd 4d 3d ca 18 ec 3d 9a e8 40 b6
       0.12284235 0.050229896 0.11528166 -2.8745621e-06
0001f0 24 71 98 bc 33 e3 b5 3d 89 cd 91 bd a3 f8 97 bd
       -0.018608637 0.088812254 -0.07119281 -0.074204706

network.4.weight f4 [5, 128]
000000 14 7f 5c 3d e1 7a 03 3e fd 21 32 bd a3 35 84 3d
       0.05383213 0.12839843 -0.043489445 0.06455543
000010 fb 46 97 3d 7c e6 e6 3d 62 52 06 bd 28 67 32 3c
       0.07386585 0.1127443 -0.03279341 0.010888852
000020 09 ee 08 3d ee 55 8f 3d 64 55 7d 3d 47 bf a8 3d
       0.033430133 0.06998812 0.061849013 0.08239608
000030 83 25 91 3b a6 d7 d0 3c 0c f1 83 3d 02 52 44 3d
       0.0044295206 0.025493454 0.064424604 0.04792977
000040 dc 19 08 ba 93 3b 15 3e a9 4b 53 3c ec 05 c9 3c
       -0.00051918416 0.14573507 0.012896457 0.024538957
000050 81 f3 0e 3a f7 2a 44 bd a2 f2 00 bd 93 11 24 3d
       0.0005453155 -0.047892537 -0.031481393 0.040055823
000060 66 3d 3a 3d 85 a9 06 3e c3 16 b7 3d 8c 07 05 3e
       0.04546871 0.13150604 0.08939888 0.1299116
000070 9a 28 20 3d 36 56 ff 3b 70 e7 9d 3d f7 e7 d2 bb
       0.03910122 0.0077922596 0.07710159 -0.006436344
000080 25 95 d4 3d 9c 74 e4 bb 26 d6 7f 3d d5 ff 14 bd
       0.103800096 -0.0069719087 0.062460087 -0.036376793
000090 8c c4 de 3d 13 f9 d7 3c e9 a6 08 3e b3 21 8c 3d
       0.10877332 0.026363885 0.13344921 0.06842365
0000a0 18 54 81 bd c9 89 fc bc f0 2d 06 3e fd 05 47 3c
       -0.06314868 -0.03082742 0.13103461 0.012147424
0000b0 9d 97 4e bc 82 50 9c 3c a2 08 b9 3d 59 50 09 3e
       -0.01260939 0.019081358 0.0903485 0.13409556
0000c0 19 1d 2c bd eb e4 0f 3e b7 02 dc 3b 41 6a 26 3d
       -0.042019937 0.14052169 0.006714191 0.040628675
0000d0 d3 26 0c 3e 14 40 0d 3e ba 72 83 3d d3 88 6f 3b
       0.13686685 0.13793975 0.06418367 0.003655006
0000e0 3e 6b 1b bd 5a a6 6e bd f8 5c 70 3d 1a 5d 96 bc
       -0.03794407 -0.058264114 0.058682412 -0.018354941
0000f0 35 23 96 3c 4a b4 09 3e 6c e0 fe 3d bf 32 33 bd
       0.018327335 0.13447681 0.12445149 -0.043749567
000100 3c 7f 6e 3d d9 dc 38 bd ac 23 26 b9 a9 bb 83 3d
       0.05822681 -0.04513249 -0.00015844282 0.06432278
000110 14 07 e8 3c b9 fb 16 3e 84 3c 97 3c d9 50 0d 3d
       0.028323688 0.14744462 0.018461473 0.03450093
000120 88 3d e9 3d 95 90 0c bd 91 67 dd 3d 4e 9b 81 3d
       0.11388689 -0.03431757 0.10810769 0.0632845
000130 cc 1e a3 bd fa 65 80 bc ef d1 25 3d 41 ab 13 bd
       -0.079648584 -0.015673626 0.04048341 -0.036051992
000140 3c 47 c6 3d 5a c6 d7 bb 4c fd ee 3c eb d6 7c bd
       0.09681556 -0.0065849246 0.029173516 -0.0617284
000150 dd 07 00 3e 3a 87 6b bd aa 6b ed bc a4 d8 32 3d
       0.12503 -0.05750201 -0.028982002 0.043663636
000160 76 4f f0 3c e2 21 fe 3d a9 00 06 3e 12 eb dd bc
       0.029334765 0.124088064 0.1308619 -0.02708963
000170 da 94 ba bc e9 47 f7 ba 9a a6 61 3d db ef 97 3d
       -0.022776056 -0.0018866035 0.055090524 0.07418796
000180 cb bb 06 3d 14 2e a9 3c 0e e1 8a bc 0c 88 d6 bc
       0.032893937 0.020651855 -0.016953018 -0.02618792
000190 5d b6 02 3e c6 01 0c 3d 65 12 1a bd d0 e7 fa bc
       0.12764879 0.03418138 -0.0376152 -0.030628115
0001a0 46 39 90 3d 20 e9 6e 3d 97 8c 28 bd 6e a6 99 bd
       0.07042174 0.058327794 -0.041149702 -0.07502447
0001b0 85 cc db 3d 01 b2 e6 3d 5c c7 43 bd d2 b3 bd 3d
       0.107323684 0.1126442 -0.047797546 0.09262814
0001c0 54 66 0a 3e ba 0a 12 bd af 77 81 3d 29 89 32 3c
       0.13515598 -0.03565476 0.06321656 0.010896959
0001d0 a7 97 85 3d 04 ea 86 bd 64 51 2a bd 71 1d 89 3d
       0.06523066 -0.06587604 -0.041581526 0.06695069
0001e0 09 17 5c bc 7d 99 6b bd 25 d7 b4 3d bd 14 74 3d
       -0.013433226 -0.057519425 0.08830098 0.05959009
0001f0 65 99 9f 3c 7d fd 32 3a b3 7f 9e 3d 1e 7e 07 3c
       0.019482324 0.0006827934 0.077392004 0.008269815
000200 09 38 ab 3d 1f 05 20 bc 25 3a 69 3c be a6 9f 3b
       0.08360297 -0.009766846 0.014235054 0.004872172
000210 2f aa c5 3d 4a 10 e6 3d 0a 81 9d bd d4 d4 7b bc
       0.096516006 0.11233576 -0.07690628 -0.015370566
000220 64 15 14 3e b1 79 53 3c 17 86 2c 3d 49 3b f8 3d
       0.14461285 0.012907431 0.042120066 0.12120683
000230 29 9e 1f 3d 5e f5 a2 3d 35 3b 9f 3d 06 8c 66 bc
       0.038969193 0.07956956 0.07774965 -0.01407147
000240 d4 92 3f 3d b0 a4 a1 3d 59 3d 00 3e e5 54 9e 3d
       0.046770886 0.0789274 0.12523402 0.07731036
000250 6c 9a 03 3e b7 eb 2b 3b a4 f3 4c b9 f7 86 d3 3d
       0.12851876 0.0026233026 -0.00019545719 0.10328477
000260 ea 0f b0 3c 5c d7 f5 3d c2 0c 1b 3d 7e 3e a1 3d
       0.021491963 0.12003967 0.037853964 0.078732476
000270 4c a9 db bc 8a ac ca 3d 84 30 68 bc 79 84 ef 3c
       -0.026814125 0.098961905 -0.014171723 0.029237973
000280 87 2f de 3d c3 00 96 3c 73 1f 51 b9 a9 0d 70 bd
       0.10848909 0.01831091 -0.00019943509 -0.058606777
000290 b5 cf 4a 3c 94 bb a4 bb 1e d5 ad 3d d6 3a 2d 3c
       0.012378623 -0.005027244 0.084879145 0.01057311
0002a0 ee 31 43 3d 57 db eb 3d 68 69 d9 3d c2 21 c1 3d
       0.04765504 0.11516445 0.10615808 0.09430267
0002b0 a2 d3 64 bc a8 2d 65 3b e4 3e 63 bc 0c 50 e6 3d
       -0.013966473 0.003496984 -0.013869975 0.112457365
0002c0 52 4a 9d 3d eb 63 84 bb be 87 99 3d 5e f1 07 3e
       0.07680191 -0.0040402315 0.07496594 0.13275668
0002d0 14 37 b2 3c ed 61 8a 3b e7 5a 30 3d ba 4a 83 3d
       0.021754779 0.0042230994 0.04305544 0.06410737
0002e0 5b bc 1a 3d 9c 83 de bc fd 20 e5 3c 53 3b 62 3d
       0.037777286 -0.027162366 0.027969832 0.055232357
0002f0 db 92 db 3d 3b c9 01 bd 34 fc 4d 3d 2f 52 4e bd
       0.1072137 -0.03168605 0.050289348 -0.050371345
000300 5e 8d 24 3d 97 ea 56 3d 19 87 13 3d 19 1d f2 3d
       0.04017388 0.052469816 0.03601751 0.11821956
000310 3d bd f7 bc 44 c1 a9 3c 6b 91 3b 3c a3 c7 c1 3d
       -0.030241603 0.020722039 0.011448245 0.09461906
000320 d7 3e 13 3c 6a ed 54 3d 03 38 5e 3c cd bb dc 3d
       0.00898715 0.05198423 0.013563159 0.10778008
000330 75 d4 fc 3c 0d c2 3d 3d 4c 09 9e 3d 5e cc 92 bd
       0.030863026 0.04632764 0.07716617 -0.07167886
000340 36 39 68 3d 6a 5a 16 bd 07 5a df 3d 2c 72 a0 3d
       0.056695186 -0.03670732 0.10905843 0.078342766
000350 db 9c c7 3d 78 9b bf 3d a0 99 c3 3c 20 c5 ec 3d
       0.09746715 0.09355825 0.023876965 0.11561036
000360 2b cb 2b 3d cc 79 c3 bb 8b 75 04 3e 6c d2 8b 3d
       0.041941803 -0.005965447 0.12935464 0.06827244
000370 cb 31 fd 3d f7 f6 81 3d 5f c1 19 3d c0 a2 01 bd
       0.12363013 0.06345933 0.03753793 -0.03164935
000380 5a 60 da 3d 4e 84 31 3d 9f df 73 bd 3a 80 88 bd
       0.10662909 0.043339066 -0.059539434 -0.06665082
000390 a6 d2 4c bb 65 4e a6 3d e0 e0 01 3e 33 5e ae bc
       -0.0031253486 0.08120421 0.12683439 -0.021285152
0003a0 b5 88 ab 3d f4 53 36 3d 95 73 b4 3d 63 32 51 3b
       0.08375684 0.044513658 0.08811108 0.0031920902
0003b0 f9 81 d6 bc c2 f2 1f 3e 35 aa df 3d 79 1d 72 3d
       -0.026185023 0.15619949 0.10921136 0.05911014
0003c0 b6 3b 54 3b b6 92 3c bc fb 6f fb bc 55 6d 79 3d
       0.0032384223 -0.011509588 -0.030693045 0.060895283
0003d0 21 00 46 3b 44 16 f3 3c b6 31 f9 3c e4 f5 44 3b
       0.003021248 0.029673703 0.030419212 0.0030053789
0003e0 7e 3b e3 3d 65 e1 5e bd 39 24 ae 3d db 0e b0 3d
       0.110953316 -0.05441417 0.08503003 0.085965835
0003f0 56 35 00 3e f1 16 55 3d 85 71 a1 3c 56 0b 64 3c
       0.12520346 0.05202383 0.01970745 0.013918718

network.4.bias f4 [5]
000000 42 e2 47 3d 9f 22 d9 3d e4 85 8d 3d f9 0b b0 3d
       0.04879976 0.106023066 0.06910303 0.085960336
000010 76 b2 ef 3c
       0.029259901

network.0.weight f4 [128, 82]
000000 f2 cd 9e bb 3b 9f fa 3c 45 de 7d bd 04 0b 4d bd
       -0.004846328 0.030593505 -0.06197955 -0.050059333
000010 05 a1 cf 3d 30 d7 60 bd 99 0d 84 ba 61 8c eb bc
       0.10138134 -0.05489272 -0.0010074853 -0.028753461
000020 e4 fe d7 3d 66 b3 a5 3c a9 20 5b bd 9e b3 87 bd
       0.105466634 0.020227145 -0.053497944 -0.06626056
000030 01 a9 db 3d ed 4a e9 3d 6e 39 2a be 0a ca 95 3b
       0.10725594 0.11391244 -0.1662347 0.004571204
000040 0a 50 1b 3e 17 75 9a bd e7 37 b0 3d c6 65 89 bd
       0.15167251 -0.07541864 0.086044125 -0.06708865
000050 dd cf a9 bc 5d a3 88 3d 8b 53 75 bd 77 48 9f 3d
       -0.020729 0.06671784 -0.059894126 0.077774934
000060 20 f8 07 3d 07 3a 2f 3d 23 80 be 3d 22 aa 51 bd
       0.033195615 0.04277995 0.09301784 -0.051187642
000070 20 55 0e 3e c1 49 ae 3d 9f c2 88 bd b2 2d ab bd
       0.1389966 0.08510161 -0.06677746 -0.08358325
000080 9e e0 6a bd 4e 09 de 3c 6a 6a 16 3d 33 dc 60 bd
       -0.057343118 0.027104046 0.036722578 -0.0548975
000090 80 f4 80 3d 23 b2 1b 3e 0c 42 47 bd aa 89 b4 3d
       0.06296635 0.15204673 -0.04864697 0.0881532
0000a0 17 79 4d bd e4 43 83 3d d3 b6 b3 bd 82 b5 b9 3d
       -0.05016431 0.064094335 -0.08775105 0.09067823
0000b0 14 8e bf 3d c4 54 3e 3d db d5 ba 3c 47 d2 40 bb
       0.09353271 0.046467558 0.022807052 -0.002942221
0000c0 85 0a 2b be 8d c0 7b 3d eb 09 bb 3d 97 8f 01 3e
       -0.16703232 0.061462928 0.09132751 0.12652431
0000d0 42 4c b6 3b 0e 40 83 3d 11 ad 7b bc 79 7a e2 3c
       0.00556329 0.06408702 -0.015361086 0.02764629
0000e0 61 84 a4 bd 47 20 73 bd 25 3e 07 be f1 ec 20 bc
       -0.08033062 -0.059356954 -0.132073 -0.009822116
0000f0 ea 8c 3a 3d d8 6a 2c bd 01 c3 eb bd e5 04 6c 3d
       0.045544542 -0.04209408 -0.115118034 0.057621855
000100 e7 82 65 bd 87 bd 10 bd 6c 66 86 bd d0 f0 f8 bc
       -0.05603304 -0.035336997 -0.06562504 -0.030388266
000110 5f 94 ca 3d 8f dc 0c bd 32 15 88 bd 78 0d 75 3b
       0.09891581 -0.03439003 -0.06644668 0.0037392061
000120 3a 19 82 bd aa 99 46 bd 29 b0 19 3d 8e f8 7b bc
       -0.06352468 -0.04848639 0.037521515 -0.015379084
000130 c1 71 34 bd 48 99 2b be 42 c1 00 bd 2e 31 24 bd
       -0.044053797 -0.16757691 -0.031434305 -0.040085964
000140 82 ae 97 3d 17 b8 3c be 4c df b0 3d b3 19 04 3e
       0.074063316 -0.184296 0.086363405 0.12900428
000150 8c 03 20 bd a9 7e 59 3d 72 d9 20 bd ba 75 2d bd
       -0.039065883 0.05309931 -0.039269872 -0.0423486
000160 39 f6 a7 bd 8f 0e fe 3b 68 8a 02 3e 44 e0 e5 3d
       -0.0820126 0.0077532004 0.1274811 0.11224416
000170 17 77 af 3d de be b7 3d da 2a ef bc 25 19 4e 3d
       0.085676365 0.08971952 -0.029195238 0.05031695
000180 3f c2 57 bd e8 3e a8 3c 5b 06 fe 3d a1 b1 cb 3d
       -0.052675482 0.020537809 0.12403556 0.099459894
000190 1a 06 92 3d ec c7 ed 3d 82 b1 19 be 18 05 f1 bd
       0.0713007 0.11610398 -0.1500912 -0.1176855
0001a0 3c 37 df bd 24 53 97 bd 7d 8a bb bd 45 13 31 3d
       -0.10899207 -0.07388905 -0.09157274 0.043231267
0001b0 5e a5 8a bc 54 19 ca bd 5a 82 dc bd 0e 82 80 bc
       -0.016924556 -0.09868112 -0.1076705 -0.015687015
0001c0 0b eb 4e 3d f9 83 ca bd b1 33 58 3c c0 aa 02 be
       0.050517123 -0.09888453 0.013195918 -0.12760448
0001d0 c5 de c0 3d 7a dd 23 3d bb 1f ee bc af a9 11 be
       0.0941749 0.04000614 -0.029067865 -0.14224885
0001e0 ef 3b cc bd 15 47 cb bd 19 8d 02 3c da 2e c5 bd
       -0.09972369 -0.09925667 0.007968211 -0.09628077
0001f0 6d fe 10 3c 36 7c 62 3d 19 6a c7 bd 31 cf e2 3b
       0.008849722 0.055294238 -0.097370334 0.006921672
000200 48 c5 1f be d5 7b c2 bd 0a 05 6d bd 05 09 7e bd
       -0.156026 -0.09496275 -0.057866134 -0.06202032
000210 bb 61 5b 3d 42 90 9a 3d d5 f0 15 be a6 d5 b7 bd
       0.05356 0.07547046 -0.14642651 -0.08976297
000220 55 aa 1d bd da 63 df 3c 62 af bd bd e4 68 0b bb
       -0.03849252 0.027269293 -0.09261967 -0.0021272236
000230 a0 cf dd 3c 8a 14 ea 3d 27 ad 3c bd fb e3 5c bd
       0.027076542 0.11429699 -0.04606357 -0.053928357
000240 78 aa c5 ba f9 24 5e 3d 68 21 f1 3c 3b 09 1c 3d
       -0.0015080711 0.05423448 0.029434875 0.03809474
000250 90 3e 1e bd 5a 57 d5 bc 0d 87 68 bd 44 75 a3 3d
       -0.038633883 -0.026042629 -0.05676942 0.07981351
000260 7a 9c ec 3d c8 73 e6 3d a7 19 48 bd 14 6f b8 bd
       0.11553283 0.11252552 -0.04885259 -0.090055615
000270 75 b3 65 3d ad 0e 87 bd e8 86 af 3d 18 c4 01 3e
       0.056079347 -0.06594596 0.08570653 0.1267246
000280 2c 7b c2 3d 33 dc c2 bc a5 0b 93 bd 20 5f 71 3d
       0.094961494 -0.02378664 -0.071799554 0.05892861
000290 2e 3a 88 3b 8f db c5 bc d6 52 5c 3d 0c 77 df 3c
       0.004157326 -0.024152545 0.053789936 0.027278446
0002a0 40 c5 82 3c a9 1b 23 3d ee 32 bc bd b8 75 48 bd
       0.015963197 0.0398213 -0.091894016 -0.04894039
0002b0 98 a3 f2 bd 8f 0e af ba 21 25 01 be 8a 65 0f bd
       -0.11847609 -0.0013355779 -0.1261182 -0.035008945
0002c0 53 ea f6 bd 9a 88 94 3d 9e 52 10 3e 31 24 42 3c
       -0.120564125 0.07252617 0.14094016 0.011849449
0002d0 99 c2 fa 3d ee cb bb 3d e8 35 54 bd 3e d1 e1 bd
       0.12244148 0.09169756 -0.05180922 -0.11026238
0002e0 d2 f5 04 3e 89 dd a3 bd 20 11 88 3d 45 f1 9c 3c
       0.12984398 -0.08001239 0.06643891 0.019158015
0002f0 dc 55 69 ba 20 45 54 bd b8 9f 19 3e 9e d9 81 3d
       -0.00089010387 -0.051823735 0.15002334 0.06340335
000300 e3 98 88 3d 30 f4 e3 3d 6e f7 82 3c 7f e9 2d 3b
       0.06669786 0.111305594 0.015987124 0.002653688
000310 fd 21 0a be f9 2e a6 bd ca 6e 18 bb 92 5d 19 bc
       -0.13489528 -0.08114428 -0.0023259395 -0.009360688
000320 d4 43 58 3b dd 10 bf bd 9b e4 bd 3c d8 f0 6a 3d
       0.0032999413 -0.09329388 0.023180297 0.057358593
000330 7c 94 d1 3d 7a c5 0c bd 70 91 26 bd 16 9b ea bd
       0.10233399 -0.034368016 -0.040666044 -0.114553615
000340 dc f9 7a 3d 28 dd a9 bb 1d 55 9e bb 1a 4a 1f 3e
       0.06127344 -0.0051838346 -0.0048319236 0.15555611
000350 ae 1f 13 3c c3 eb 80 3d fc bd 36 3d 8f ad b1 3d
       0.008979721 0.06294968 0.044614777 0.08675682
000360 8b f4 c0 bd 13 14 ee 3c e8 75 07 be 93 cb 09 be
       -0.09421643 0.029062307 -0.13228571 -0.13456564
000370 20 7e 1d 3c f8 b7 32 3b 81 29 fb bd ae a5 af bd
       0.00961259 0.0027270298 -0.122637756 -0.08576523
000380 4d 46 c4 bd 2e dc be ba 2d 43 4d 3d c4 65 0e 3e
       -0.09583721 -0.0014561468 0.050112892 0.13906008
000390 f0 ea 0c 3e fe 40 03 3e 9c e8 bb 3d 32 6d d4 3d
       0.13761497 0.12817761 0.09175226 0.1037239
0003a0 c2 de cb 3d 8e 0c 6b bd b0 ec a7 3d 64 31 b7 3d
       0.09954597 -0.05738502 0.081994414 0.089449674
0003b0 90 37 81 bd 57 3f 19 3e a8 bd 24 bc 18 37 d6 3d
       -0.06309426 0.14965568 -0.010054983 0.10459727
0003c0 67 ca b5 bd b4 ef 10 3d 0e b0 c4 bc e6 a5 a6 bd
       -0.08876496 0.03538485 -0.02400973 -0.08137111
0003d0 6f 21 94 ba 5f 96 8c 3d 19 24 9a 3d 0c 8e ca bd
       -0.0011301468 0.068646185 0.07526416 -0.098903745
0003e0 cc b7 22 be 7b a5 d8 bd 7b ab 03 3d 0a 16 e3 3d
       -0.15890425 -0.10578438 0.03214596 0.11088188
0003f0 64 f7 2e 3e 16 66 9a 3d 07 03 4a 3c 58 33 9a bd
       0.1708656 0.075390026 0.012329823 -0.07529324

network.0.bias f4 [128]
000000 38 70 e1 bd 77 b6 0f 3e 56 3c 33 3d ba ce 9d 3d
       -0.11007732 0.14034449 0.043758713 0.077054456
000010 2e bb dd 3d 02 e3 dd 3d 87 0d 6f 3e cc bb 71 bc
       0.10826717 0.10834314 0.23345004 -0.014754247
000020 13 5d 2c 3d e1 2b ca bd 7d 52 1b 3e 0d fc 2a 3e
       0.04208095 -0.098716505 0.15168186 0.16697712
000030 b3 cc 85 bb cc 55 fc 3c b8 e5 00 3e ae 65 5e 3d
       -0.00408324 0.03080263 0.12587631 0.054296188
000040 0b 10 5b 3d 84 8f 4e bd 62 da d9 3c 6c 50 f1 3d
       0.053482097 -0.050429836 0.02659339 0.117829174
000050 0c c4 3e 3d d4 fa e1 3d a8 65 fa 3c 64 a4 80 3d
       0.046573684 0.1103417 0.030566052 0.06281355
000060 d1 f3 f4 3c d8 1e 51 3b 5e 59 42 3c 93 20 31 3d
       0.029901417 0.0031909253 0.011862127 0.043243956
000070 64 cd b1 3d 5a dd 1c bc ea 3e 9a bd e8 73 ac bd
       0.08681753 -0.009574259 -0.07531531 -0.08420545
000080 fb 66 c4 3d 01 8c e3 bd 10 91 63 3e 4f 10 d7 bc
       0.095899545 -0.11110688 0.22223306 -0.026252894
000090 39 e5 a5 bd 6a 42 d3 bc df a6 72 bd de 19 b3 bc
       -0.081003614 -0.025788505 -0.059241172 -0.02186292
0000a0 09 5d d6 3c 58 2c 84 bd 15 20 e6 bc a4 fb 46 3d
       0.02616741 -0.064537704 -0.02809147 0.048579827
0000b0 ca cd 05 3e 94 a4 9d 3b f5 09 93 3c 3d 6c f9 3c
       0.13066784 0.004810879 0.017949084 0.03044712
0000c0 82 d6 72 3e b9 88 e4 bc dd ec 01 3e 3f fd 5f bd
       0.2371464 -0.027897226 0.12688012 -0.054684874
0000d0 c5 7e 04 3d 0b 25 46 3e ab 34 04 bd ad 74 cb 3c
       0.03234746 0.19350068 -0.03227679 0.024835909
0000e0 2d a6 18 be 22 06 dd bd a3 2f 5b 3d 33 c8 6b 3e
       -0.14907141 -0.10792185 0.053512227 0.23025589
0000f0 42 99 a3 bd f5 2c a4 3d cc ef e2 bc c4 de c0 bd
       -0.07988216 0.080163874 -0.027702235 -0.09417489
000100 17 18 f1 bc a2 93 35 bd 32 d5 40 3e 50 a3 0e 3d
       -0.029430432 -0.044330247 0.18831328 0.034823716
000110 21 a5 27 bd 6c 7a c5 3d e2 0b 6f 3d 27 93 e7 bd
       -0.040928964 0.09642491 0.05836094 -0.11307364
000120 6d 13 2d bd 4c 5e 0a 3e 8e 8e 60 3d 36 5b 05 3e
       -0.042254854 0.13512534 0.05482345 0.13023075
000130 b3 4c ec 3d ee 8c 32 3e de 59 2b 3e 2c 13 29 3e
       0.11538067 0.17436573 0.167335 0.1651122
000140 e7 71 e4 3c db c7 ce 3c 00 77 63 3d 06 e7 37 3e
       0.027886344 0.025241783 0.05553341 0.17959222
000150 5c 25 32 3d fd d0 e3 3d 1d f2 41 bd 8c 62 09 bd
       0.04349266 0.11123846 -0.047350038 -0.033541247
000160 f0 0d 4f 3e 5d ea b0 3d 2e ab 27 3d f0 24 35 bd
       0.2022016 0.08638451 0.040934734 -0.04422468
000170 93 4b 8e bd 2b ac 39 3e a2 4e 74 3d 4d 78 d9 3c
       -0.069480084 0.18132083 0.059645303 0.026546622
000180 a3 82 7c 3d 9f 13 c2 3d 50 67 39 3e d3 c9 89 bd
       0.061648022 0.09476399 0.18105817 -0.06727948
000190 b8 7b 29 bd 06 cd 1a 3e e6 a3 d3 bd b8 a3 e4 3d
       -0.041377753 0.15117273 -0.103339955 0.111640394
0001a0 0b 4b e7 3c 5f 71 22 3e 28 74 c3 bd 2f 03 2d 3d
       0.028234025 0.1586356 -0.095436394 0.042239364
0001b0 b2 7a 08 bc e4 7d 6f bd de e6 46 3e 53 6c 24 3e
       -0.008330034 -0.058469668 0.19424006 0.16056947
0001c0 cc 1d c1 3d 4a 7c f8 3d 29 c4 28 3c bb 6a 10 3e
       0.094295114 0.12133081 0.0103006745 0.14103214
0001d0 2d c4 dd 3d fe b0 57 3e d6 9e b7 3d 11 56 f2 3c
       0.10828433 0.21063611 0.089658424 0.029582055
0001e0 05 8e 82 bd 75 db ec 3b b0 ff 8f bd bc a1 16 3e
       -0.06374744 0.0072283098 -0.070311904 0.14710134
0001f0 b4 6a 08 be 0d 00 24 3d 6b 84 16 bd c0 7d 4f bd
       -0.13321954 0.04003911 -0.036747377 -0.050657034

network.2.weight f4 [128, 128]
000000 6d c8 5a bd 5b 3a 64 3b 10 88 33 3d 53 9e 93 3d
       -0.053413797 0.0034824822 0.04383093 0.07207932
000010 96 16 76 3d bc ac 16 3e 55 35 b4 3d 13 c6 97 3d
       0.060080133 0.1471433 0.08799235 0.074108265
000020 48 f8 a7 bb 4b c4 5c be 69 c4 e6 3d 92 6b 2c 3d
       -0.005126033 -0.21559255 0.11267931 0.042094775
000030 58 63 47 bb 46 06 d2 bc 35 71 7d bc 76 84 08 3d
       -0.0030424204 -0.025637757 -0.015468885 0.03332945
000040 d8 e3 37 3e 6d d0 ae 3c 93 80 39 3c b4 e3 b2 3d
       0.17958009 0.02133962 0.011322158 0.08734837
000050 d8 4e 02 3e 65 d0 f0 3d a4 b1 be 3c fd 8b 21 3d
       0.12725389 0.11758498 0.023278065 0.039440144
000060 43 fb e4 3d 08 d9 d0 bd 40 be f8 bd b5 f1 c0 3d
       0.11180737 -0.101976454 -0.12145662 0.09421102
000070 6c 42 30 3e c2 d6 30 3e 27 79 91 bd 7b 42 36 3e
       0.17212838 0.17269424 -0.07103186 0.17798798
000080 51 83 96 3d 89 c6 62 bd cb 18 ce 3d 4d 9a 04 3e
       0.07349265 -0.05536512 0.10063323 0.12949486
000090 71 07 bd bc a2 6c d9 3c 84 f0 b2 3d 22 16 ef 3c
       -0.023074837 0.026541058 0.08737281 0.029185358
0000a0 7a 4c 8e 3c 8c fb b2 bd 11 02 1f 3e 74 f4 69 3d
       0.017370451 -0.08739385 0.15528132 0.057117894
0000b0 4e 1f 10 3d dd 03 d4 3d 81 20 26 be 33 aa dc 3d
       0.035186104 0.10352299 -0.16223337 0.107746504
0000c0 42 f0 f9 3d bb 34 81 bd be 1d 40 bd 53 b4 90 bd
       0.12204029 -0.06308886 -0.046903364 -0.07065644
0000d0 e1 6a 1b 3e 39 1e 57 3d 29 5e ee bd af ac 2d bc
       0.1517749 0.052519057 -0.116390534 -0.010600253
0000e0 40 3d 09 be 80 24 1b 3e fb 73 ec bd c0 74 0d 3e
       -0.13402271 0.15150642 -0.11545559 0.13814068
0000f0 24 ad 4d 3c 95 10 b4 bd 67 8d da 3b 75 d2 e3 3c
       0.012553487 -0.08792225 0.0066696885 0.027810315
000100 31 55 dc bd 2e 91 74 3c 85 21 df 3d 2c f0 c8 3d
       -0.107584365 0.014927192 0.10895065 0.09811434
000110 00 02 10 3e 30 08 01 3e 34 a7 62 3d 5b 36 01 be
       0.14063263 0.1260078 0.05533524 -0.12618391
000120 6f 52 c7 3c ae 82 3d bd e1 cd da 3d 2c df 2f 3e
       0.0243313 -0.046267204 0.106837995 0.17174977
000130 e8 36 36 3d 6f 42 4a ba 94 c0 f6 3d 34 14 03 3e
       0.044485956 -0.0007715588 0.1204845 0.12800676
000140 0d 82 a4 bd 29 06 ac 3b 4c 68 40 3c 52 80 2a 3b
       -0.08032618 0.005249758 0.011743616 0.0026016426
000150 14 e3 16 3d 3f b8 0d 3d 61 3e 0a be 5e 3e 25 be
       0.036837652 0.03459954 -0.13500358 -0.16137072
000160 7c 6f 4e 3a f9 4f 5a bd 01 38 c5 3d b0 28 52 3d
       0.0007874889 -0.053298924 0.096298225 0.051308334
000170 99 ad 29 3d 56 24 cf 3d 6f fa ad 3c 42 c5 af bd
       0.04142532 0.101143524 0.02123758 -0.08582546
000180 fb ca 29 3d 78 54 16 3c 16 4e b0 bd 7c 95 1d 3d
       0.041453343 0.009175412 -0.08608644 0.038472638
000190 aa fe de 3d 84 97 ad 3d 74 55 df bd 41 bd ff 3d
       0.10888417 0.08476165 -0.10904971 0.12487269
0001a0 3d bf d2 bd 6b ec 10 3e d0 e0 ae bd 4a 41 58 bd
       -0.10290382 0.14152686 -0.08538973 -0.05279664
0001b0 46 68 fd 3d e1 b9 b0 bd fc 75 cc 3d fd fd 36 3d
       0.12373404 -0.086292036 0.09983441 0.044675816
0001c0 08 3d d9 3b 74 02 49 3c 29 06 b3 3d 12 1a ab 3d
       0.00662959 0.012268651 0.08741409 0.08354582
0001d0 c8 38 0f 3c 9b df c3 3c 0f e2 8f 3d 3c 88 b3 3d
       0.008741565 0.023910334 0.07025539 0.08766219
0001e0 f9 39 e5 bd 9e 08 c9 3b 35 22 d1 bd ef 0c c9 3c
       -0.11192698 0.0061350605 -0.102116026 0.0245423
0001f0 8d 8a 96 bb ad 82 0c 3d d9 18 00 be 47 6d d3 bd
       -0.0045941533 0.03430431 -0.12509479 -0.103235774
000200 37 15 04 be fa 7f 05 3d f1 6a 1c 3e cc cc 11 3e
       -0.12898718 0.03259275 0.1527517 0.1423828
000210 b5 dd e8 3d 39 c0 98 3d 47 cc 24 3d de aa c8 3d
       0.11370412 0.074585386 0.040233877 0.09798215
000220 26 e8 84 3d c7 f6 10 be e9 19 87 3d 3e cf c6 bb
       0.06489591 -0.14156638 0.06596739 -0.0060671857
000230 75 7a 88 3d b2 e8 78 3d 2c e3 96 3d f6 62 35 3c
       0.06663982 0.06076879 0.07367548 0.011070957
000240 b5 2d f1 3d eb da 4e bd cf fa d6 bd a6 34 78 3c
       0.11776296 -0.050501745 -0.10497057 0.015149271
000250 ec ed d2 3d 29 3d 75 3b 7a c4 72 bb 87 93 77 3c
       0.10299286 0.0037420487 -0.0037043379 0.015110857
000260 00 b7 fe 3d e8 b2 7a bd 95 eb b7 bd ca ad d2 3d
       0.12437248 -0.061205775 -0.089804806 0.10287054
000270 73 9a e7 3d b5 22 04 3e 71 12 c7 bc 8f 46 38 3e
       0.11308756 0.12903865 -0.024300786 0.17995666
000280 df aa 87 3d b4 45 1c be 36 7c 5e 3c 44 4d 65 3d
       0.06624388 -0.15260965 0.013579419 0.05598189
000290 83 b7 33 be 3f 8e fd 3d c8 10 db bc ca c9 ea bd
       -0.17550473 0.12380647 -0.0267414 -0.114642695
0002a0 3b e3 2e 3e 1f 6f e8 bb f1 a4 22 3e 5d a0 fc 3d
       0.17078869 -0.007093325 0.15883233 0.12335274
0002b0 93 4b 18 bc c1 2d 08 3e 4b 77 04 3d 37 1b 4c 3d
       -0.009295362 0.13298704 0.03234033 0.04983064
0002c0 fb 44 c3 3d eb 66 29 be b2 b6 c9 3d 6d 08 88 bd
       0.09534641 -0.16543166 0.098492995 -0.06642232
0002d0 47 18 4e 3e be 40 3a 3d 72 02 36 bd f6 87 b0 3d
       0.20126449 0.0454719 -0.044435926 0.086196825
0002e0 72 0c a2 bd a0 6c 9b 3c 63 a7 f2 bc df b9 33 3e
       -0.0791253 0.018972695 -0.029620832 0.17551373
0002f0 da 53 9e 3c ca 3c b4 3c 65 54 91 3d 0b c4 2d 3e
       0.019327093 0.022001643 0.07096175 0.16969316
000300 0a 07 e6 bd c9 cf ac 3c 4f a2 c3 3d 7d 69 42 3e
       -0.11231811 0.021095173 0.09552442 0.18985553
000310 53 f5 91 3d b1 e7 9e 3d 1e e3 82 3d df ac 91 bd
       0.0712687 0.077590354 0.063909754 -0.07113051
000320 9e 36 94 3a ea 2f af 3d 63 e0 7c 3a 4e d0 27 3e
       0.0011307781 0.08554061 0.00096464733 0.16388056
000330 dc f5 02 3e ab 59 4d 3d bd 6b e1 3d ed d6 cd 3d
       0.127891 0.050134342 0.110068776 0.100507595
000340 a5 9e 45 3d e7 a8 eb bc 03 cf 1d 3d c0 2b 41 3c
       0.048247 -0.028767062 0.0385275 0.011790216
000350 9f 42 c2 3d 4e e8 e4 3d 4a 0a bf bd 1e bf 0d be
       0.09485363 0.11177121 -0.09328134 -0.13842437
000360 63 a5 fe 3d 7f aa 14 3e a8 99 d5 bc a5 5b 97 3d
       0.12433889 0.14518164 -0.026074246 0.07390527
000370 45 3e 25 3e 62 d0 13 bc da 43 a7 3d a1 81 8e bd
       0.16137035 -0.00902185 0.081672385 -0.069583185
000380 4e 71 1b 3e 1f 17 ab 3d d2 00 a6 3d 96 45 62 3d
       0.15179941 0.083540194 0.08105625 0.055242144
000390 61 2c 2a 3d 7b b1 d4 3d 13 4f b7 bd 48 a6 59 3b
       0.04154623 0.10385414 -0.08950629 0.0033210684
0003a0 be 7c 1b bd c0 39 9f 3d 1b a5 d3 bc ec 3c bb 3c
       -0.03796076 0.07774687 -0.025835564 0.022856198
0003b0 c9 ed ca 3d 20 b1 d2 bd d9 fd 4a 3d 8f a2 dc 3d
       0.09908635 -0.1028769 0.049558494 0.10773193
0003c0 a9 fb dc 3d ea 78 09 3e 0f ea 09 bd 79 bf 8b 3d
       0.10790188 0.13425031 -0.03367048 0.0682363
0003d0 19 72 04 3e b7 21 a6 3d 9f 59 14 3e b2 28 3f 3e
       0.1293415 0.08111899 0.14487313 0.18667868
0003e0 96 c5 04 bd 86 1a 01 3e cb 1a a4 bc 38 f7 84 3d
       -0.032414995 0.12607774 -0.020032307 0.06492466
0003f0 e4 f3 0a bd a5 e8 87 3d 6b 14 b8 bd 30 79 0f be
       -0.033924 0.0663617 -0.089882694 -0.14011073

network.2.bias f4 [128]
000000 e3 84 70 bc 3c 3e 83 3d 7d 72 c7 bd 28 c4 0d 3e
       -0.01468012 0.06408355 -0.09738634 0.13844359
000010 2f 37 1b 3e b4 92 a7 bc 46 53 eb 3d a3 01 b5 bd
       0.1515777 -0.020455696 0.114904925 -0.08838203
000020 22 77 72 bc 24 bb b5 bd bc 10 3e bd aa 6f 0b 3d
       -0.014798911 -0.08873585 -0.046402678 0.034042038
000030 d4 c6 59 bd d1 e9 b0 bd b7 c6 eb 3c 43 03 60 bd
       -0.053168133 -0.08638347 0.028781278 -0.05469061
000040 87 53 d9 3c dc 1d 9f 3d 54 24 41 3e 4f 3c 96 3c
       0.026529087 0.07769367 0.18861514 0.018339304
000050 90 76 6a 3c 4a 20 ca 3d 3d 28 dc bd 8a f6 fa bb
       0.014310494 0.0986944 -0.10749862 -0.0076587843
000060 79 3b b7 3c 96 16 4d ba e0 30 85 3c 84 b5 46 3d
       0.022367226 -0.0007823495 0.016258657 0.04851295
000070 a8 ee 09 3d af be a6 3d b2 19 84 bd 6b 3c 22 3e
       0.033674866 0.08141839 -0.064502135 0.1584336
000080 52 23 8e bb a6 77 15 3e e1 79 9f 3d 28 ea 08 3e
       -0.0043377066 0.14596424 0.077869184 0.13370574
000090 4e 93 5b bd 6f b6 1f 3e a4 d9 c7 bc db aa a0 3d
       -0.053607278 0.15596937 -0.024395771 0.07845088
0000a0 41 83 05 3e 3d 58 3e 3d 7f d2 0b 3e 9c 07 49 3d
       0.1303835 0.04647087 0.13654517 0.049079522
0000b0 b3 06 42 3d 67 69 2e 3d 22 ea 3f 3d b7 b0 4e 3d
       0.04736967 0.04258099 0.046854146 0.050461497
0000c0 d9 9b d2 bc f2 73 e4 3c ed d1 00 bd 7a b8 fe bb
       -0.02570908 0.027887318 -0.0314502 -0.007773456
0000d0 6e 46 a2 3c dc e5 29 3d fa df 93 bd 14 6d 11 3e
       0.019808974 0.041478977 -0.072204545 0.14201766
0000e0 6b 69 6c 3d ac 26 ac bd f8 46 64 bd 8a 99 00 be
       0.057717722 -0.084058136 -0.055731744 -0.1255857
0000f0 22 05 a1 bd a8 11 99 bd 88 dd 92 bd e1 0e 2c 3e
       -0.07862307 -0.07474071 -0.0717116 0.16802551
000100 c2 9a 18 bd 74 79 b6 bd d7 b1 00 3e d8 ce 53 3d
       -0.037256964 -0.08909884 0.1256784 0.051710933
000110 7d 40 5f bd ac b5 b5 3d ab e4 10 3b dd 72 32 3c
       -0.05450486 0.08872542 0.0022108953 0.010891643
000120 f5 69 eb 3c 64 64 bf 3c 09 46 a8 bd cb c4 0d bd
       0.028737048 0.0233633 -0.08216483 -0.034611505
000130 6c 9b f7 3b 7d 46 ff 3b bd f0 78 bb 7e 55 07 bc
       0.0075563695 0.0077903853 -0.0037985288 -0.008260129
000140 35 d5 84 3d e5 7f 8d bd 84 18 95 39 81 ef b2 bd
       0.064859785 -0.069091596 0.0002843776 -0.08737088
000150 f6 f9 97 3c 01 72 0d bd da f9 27 3d eb a8 b5 bc
       0.018551808 -0.03453255 0.04100976 -0.022175273
000160 22 ec 83 bd 3e e6 ad 3c 69 64 28 3e a9 cd 13 3b
       -0.06441523 0.021227952 0.16444553 0.0022553003
000170 91 ea e4 bd dc c9 5d bd 3b 8a 08 3e a2 aa 17 3e
       -0.111775525 -0.054147586 0.1333398 0.14811185
000180 65 a3 35 bd 07 f6 14 bc 9a 77 85 3d b0 1a 7e bb
       -0.04434528 -0.009091861 0.06516953 -0.0038773231
000190 24 1b ab bc b5 15 cd bc 09 1a a9 bd 01 c0 3a 3c
       -0.020886965 -0.025034765 -0.08256919 0.011398316
0001a0 02 e9 a1 bd ef 5a 9c 3d 31 e5 1e 3d c1 57 24 3e
       -0.07905771 0.07634532 0.038792793 0.160491
0001b0 7c 8f 88 3d 04 30 79 bd bd 27 91 3c 24 4d c9 3d
       0.066679925 -0.060836807 0.017719144 0.098291665
0001c0 23 57 9a 3c 6a ee dd 3d 41 89 00 3e b3 54 88 bb
       0.018840378 0.108364895 0.12552358 -0.0041604876
0001d0 5b 5a d2 bc f6 23 95 bd b2 fc a2 bd 39 d2 50 3d
       -0.02567785 -0.0728225 -0.07958354 0.050981734
0001e0 59 ca 1a 3e 8c 73 08 3e de 75 27 3c d2 29 a5 3d
       0.15116252 0.13325328 0.010220973 0.08064617
0001f0 aa cd d8 3d 1a 86 2d 3c 4c 4d d6 bd 73 d2 d3 bc
       0.10586102 0.010591054 -0.10463962 -0.025857186
