models/Level3/checkpoint_8000/adversary_0.pth (torch, 288432 bytes, 6 tensors)

net.0.weight f4 [256, 16]
-0.18485408 -0.011409204 -0.03278684 -0.12943508 -0.23845044 -0.14594775 -0.026809763 0.033956435
0.05682872 0.14553958 0.22941563 0.10578603 -0.08862701 -0.13732627 0.1685926 -0.1552004
-0.07240063 0.17262654 -0.108618416 0.12602687 -0.26076704 0.13798629 -0.013644835 -0.12472856
-0.095985524 -0.055705786 0.119751945 -0.020752953 0.096628375 0.18186463 0.22861212 0.18064901
0.048534106 -0.038226806 0.1662854 -0.23022027 0.010930518 -0.044214636 -0.059321865 0.24797687
-0.23062533 -0.2269221 -0.12904097 0.1346997 -0.06167259 -0.12284887 0.14072679 -0.03965706
-0.19332886 0.09255266 -0.19624688 -0.17601457 0.13194162 0.1463196 0.20255859 0.13562377
-0.18803236 -0.03728794 -0.06308179 -0.13535108 0.12774241 -0.014564963 -0.06593395 0.16472758
-0.068759814 -0.13823439 0.1195617 0.26520818 -0.13965882 0.050308265 0.020536609 -0.20166878
0.3143945 0.33357155 -0.20120569 0.055921096 -0.03439234 0.096678756 -0.06091078 -0.027402295
0.22358951 0.082139745 0.016251205 -0.26262242 -0.21004835 -0.18387578 0.16251396 0.14447165
0.15187544 0.22157612 0.067899294 0.09801948 0.15115614 0.09976129 -0.061459664 0.06991384
-0.014065723 0.06844329 -0.18543969 -0.07109634 -0.16643414 0.026556257 -0.19938464 -0.24963982
0.16089946 -0.22132057 0.14934482 0.053600106 0.16274717 0.11690848 0.20898631 0.1965686
0.06539731 0.16348173 0.06391557 0.14600228 -0.114556834 -0.14086927 0.27737767 0.206643
0.24551745 0.19246571 0.10603552 0.11291547 -0.19004427 0.19467911 0.22195065 -0.1353677
0.12806734 0.14682502 0.17256898 0.1742837 -0.019992717 -0.018847803 -0.025269482 0.22514571
-0.29818952 -0.17340343 0.24003516 0.020479318 -0.22388427 -0.035903487 -0.028851371 -0.075812556
0.05291492 0.0131133795 -0.27248406 0.019973932 0.024444332 -0.005300194 -0.097067766 0.10698248
-0.26918373 -0.2993314 -0.013317932 0.117349476 0.10663177 0.1436653 -0.13795988 -0.032004915
0.26321673 -0.036468126 0.058175925 0.06231305 0.032382466 -0.19098021 -0.15539308 -0.11422348
-0.28618905 -0.00867807 0.24032538 -0.19777316 -0.20670329 0.14254488 0.07598863 0.15428114
0.19696951 0.028745664 0.28145117 -0.062526055 -0.16097149 0.15708958 -0.14503339 -0.047778256
-0.057006884 -0.12625955 0.013467066 0.060069438 -0.075462535 -0.07452145 -0.21012715 -0.11234477
0.20667008 -0.0713123 -0.07153223 0.26273248 0.18457423 0.18339266 0.19383925 -0.12511092
-0.023240454 0.15771954 0.2093412 0.1666686 -0.26038617 -0.07129862 0.13166405 -0.21758421
0.18745324 -0.17507906 0.23591444 -0.24010256 -0.027597936 -0.057037253 -0.25367236 0.03280839
0.22165011 0.111108735 0.120035484 0.18848102 -0.0022218332 -0.14279738 -0.060416635 -0.19474044
-0.16138436 0.11979495 -0.15285088 0.1434827 -0.26720592 -0.21699968 0.14496194 -0.0042876787
0.042603597 0.23056175 0.15623553 -0.2251493 -0.16398805 -0.23482753 0.08628566 0.1612646
-0.08288019 0.12168273 0.20289215 0.2855844 0.16658664 -0.22879986 0.016986294 0.117377035
0.066197135 0.03907594 -0.048775498 -0.061427087 0.07416981 0.113430105 -0.14670458 0.12150439
00000000: 634a 3dbe aced 3abc 7e4b 06bd a18a 04be
00000010: 5a2c 74be 5473 15be 26a0 dbbc e715 0b3d
00000020: 3bc5 683d 5408 153e eeeb 6a3e 59a6 d83d
00000030: 1482 b5bd 429f 0cbe 8aa3 2c3e dbec 1ebe
00000040: c846 94bd 03c5 303e 5573 debd 300d 013e
00000050: 4283 85be 474c 0d3e 968e 5fbc b071 ffbd
00000060: 0f94 c4bd c02b 64bd 8240 f53d 1902 aabc
00000070: 19e5 c53d b93a 3a3e 4c19 6a3e 0efc 383e
00000080: b3cb 463d b693 1cbd b846 2a3e ddbe 6bbe
00000090: ea15 333c 681a 35bd 7cfb 72bd a6ed 7d3e
000000a0: 0c29 6cbe 445e 68be 5123 04be b8ee 093e
000000b0: 669c 7cbd 3098 fbbd af1a 103e 716f 22bd
000000c0: 00f8 45be 408c bd3d f1f4 48be 2a3d 34be
000000d0: b41b 073e ced4 153e 856b 4f3e f5e0 0a3e
000000e0: 8e8b 40be 3dbb 18bd 0731 81bd 7999 0abe
000000f0: e8ce 023e e2a1 6ebc 6108 87bd 59ae 283e
00000100: f2d1 8cbd 518d 0dbe c4dc f43d 5ec9 873e
00000110: b902 0fbe 0a10 4e3d 643c a83c 4382 4ebe
00000120: 51f8 a03e e4c9 aa3e dd08 4ebe 850d 653d
00000130: fbde 0cbd 83ff c53d 957d 79bd c77a e0bc
00000140: a6f4 643e e238 a83d 3f21 853c 7276 86be
00000150: ea16 57be ef49 3cbe 0f6a 263e 60f0 133e
00000160: 3c85 1b3e dae4 623e c90e 8b3d 70be c83d
00000170: adc8 1a3e a64f cc3d 21bd 7bbd fd2e 8f3d
00000180: eb73 66bc ff2b 8c3d e7e3 3dbe f59a 91bd
00000190: b66d 2abe 828c d93c 7d2b 4cbe 95a1 7fbe
000001a0: d4c2 243e dca1 62be d9ed 183e c98b 5b3d
000001b0: 32a7 263e b76d ef3d 8200 563e 4749 493e
000001c0: 06ef 853d c167 273e 2be6 823d 9f81 153e
000001d0: c69c eabd 0940 10be 7204 8e3e 399a 533e
000001e0: ed68 7b3e bb15 453e 2729 d93d 3a40 e73d
000001f0: f79a 42be f659 473e 0847 633e d59d 0abe
00000200: 1624 033e 4c59 163e ecb5 303e 6d77 323e
00000210: c4c7 a3bc b566 9abc f201 cfbc 998c 663e
00000220: 4cac 98be ab90 31be c7cb 753e 3ec4 a73c
00000230: eb41 65be 890f 13bd b659 ecbc 9d43 9bbd
00000240: 51bd 583d 80d9 563c 0883 8bbe 5fa0 a33c
00000250: 7b3f c83c 40ad adbb 77cb c6bd a119 db3d
00000260: 73d2 89be f741 99be 7533 5abc ec54 f03d
00000270: c261 da3d ff1c 133e 5b45 0dbe 9617 03bd
00000280: 58c4 863e 9a5f 15bd e149 6e3d f83b 7f3d
00000290: 7aa3 043d 5190 43be 5d1f 1fbe 00ee e9bd
000002a0: 5f87 92be 772e 0ebc db17 763e 0c85 4abe
000002b0: 07aa 53be 49f7 113e ed9f 9b3d e0fb 1d3e
000002c0: 60b2 493e 077c eb3c 5e1a 903e a90d 80bd
000002d0: b6d5 24be 17dc 203e a283 14be 22b3 43bd
000002e0: 0d80 69bd 2f4a 01be f8a4 5c3c 5f0b 763d
000002f0: 1a8c 9abd b49e 98bd 922b 57be 0415 e6bd
00000300: 52a1 533e 2f0c 92bd 7d7f 92bd df84 863e
00000310: 0701 3d3e 49cb 3b3e cc7d 463e 141d 00be
00000320: c462 bebc 3b81 213e 8a5d 563e 2cab 2a3e
00000330: 5651 85be 0305 92bd f1d2 063e 65ce 5ebe
00000340: bef3 3f3e ed47 33be 8e93 713e 72dd 75be
00000350: 1115 e2bc e59f 69bd 58e1 81be 1762 063d
00000360: 3ff8 623e fa8c e33d 2ad5 f53d 2b01 413e
00000370: 2d9c 11bb 7a39 12be 6f77 77bd 0a6a 47be
00000380: f141 25be 0e57 f53d f184 1cbe 21ed 123e
00000390: 37cf 88be 2a35 5ebe e770 143e a87f 8cbb
000003a0: 1c81 2e3d 6118 6c3e 35fc 1f3e 8a8d 66be
000003b0: 7cec 27be a176 70be 89b6 b03d 8c22 253e
000003c0: 17bd a9bd cc34 f93d f6c2 4f3e 1e38 923e
000003d0: b095 2a3e 834a 6abe d726 8b3c 5f63 f03d
000003e0: 5d92 873d 180e 203d d1c8 47bd f89a 7bbd
000003f0: 57e6 973d 0b4e e83d ba39 16be 4bd7 f83d

net.0.bias f4 [256]
-0.050464053 -0.21691436 -0.2271096 -0.31208485 -0.17889476 0.52390414 0.5076651 0.050431184
-0.063279584 0.22946066 -0.14788182 -0.19136992 0.5269731 0.19950123 0.29380098 0.45678738
-0.012202377 0.8493449 0.24966341 0.13844171 0.31721735 0.38141918 0.13627386 0.4385802
0.15954778 -0.053013694 -0.3849458 0.14686993 0.11724191 0.41477612 0.12800662 0.42110974
0.59921145 -0.18998921 -0.20318127 -0.24448696 0.102976285 -0.15027773 0.30796152 0.17935693
-0.32590008 0.6808649 -0.048273094 0.19582678 0.2010146 0.09184904 -0.151477 0.52898186
0.34343183 -0.15725926 0.23690853 0.14905143 0.06874301 -0.24514304 -0.23223007 0.011167259
-0.04712314 0.12038236 -0.19496167 0.5760104 -0.021648562 -0.06422982 -0.02475986 -0.117561415
-0.33481824 -0.3504596 -0.11530262 0.08737358 0.4667497 -0.37367198 0.43426403 -0.084188126
0.24528025 -0.0890128 0.55257833 -0.11562672 0.45917493 0.32858515 -0.10611382 0.12720123
-0.22490989 -0.087658405 -0.18189313 0.3574653 -0.17056301 0.40256724 -0.17300193 0.74841803
0.41434485 0.041223437 0.25246984 0.06784817 -0.36233965 -0.20354865 -0.28753105 -0.12049994
-0.28163707 0.42134514 0.12685503 0.28669655 0.18616723 0.1502292 -0.12068092 -0.25872505
0.5492298 -0.13214618 0.3430293 0.3541325 -0.19449344 0.5049443 -0.07963209 0.64575297
0.7819095 0.00025910122 0.36453694 -0.0328942 -0.29990816 0.3770978 0.034239296 -0.40680376
0.4346014 0.30867478 -0.36284262 0.32060403 0.729767 -0.17653154 -0.306394 0.381354
-0.15948425 0.10983189 -0.06673614 -0.00071991934 -0.2823261 -0.0248159 0.26908377 0.11886175
0.2821053 0.54378587 -0.3001349 0.503569 0.61787677 -0.095241174 -0.047522195 -0.14608401
-0.21809454 0.1654149 0.1787998 0.078160256 0.43560797 0.21187365 0.23023546 -0.057466302
0.5485612 -0.117683895 0.048095856 0.26456547 0.10167209 -0.24664165 0.013801295 0.69710934
-0.29168794 0.20992774 0.3343134 0.24344052 0.113799855 0.09660385 -0.18932746 0.11195022
-0.13986936 0.36217603 0.22139293 0.122656375 0.48355588 -0.20824566 -0.41129887 -0.17271116
0.4939174 -0.07333768 0.56164104 0.46302652 -0.56134325 0.37313753 0.046149895 0.013253748
0.31294236 0.36644685 0.2360348 -0.18854651 0.10249455 -0.06922178 -0.25509784 0.60706663
0.3482594 -0.28919768 0.124343894 -0.09309123 0.22556788 0.23355159 0.37876797 0.0053956364
-0.40472758 0.025840795 0.04031824 -0.16174525 0.11726127 -0.04174777 0.26894972 0.008074036
0.37799042 0.12862712 0.51462394 0.4056618 0.089057036 0.30214858 0.6102692 0.39222935
-0.2533643 0.1019259 0.2345974 0.17038906 0.1583175 0.07371903 -0.0076947855 -0.07757455
0.23827603 0.25115702 0.26983917 0.57363594 -0.31804758 -0.13931987 -0.14778343 0.23241197
0.5764764 0.006937188 -0.0735318 -0.2557326 -0.02546628 0.24073295 -0.13581568 0.13613902
-0.06609325 -0.08121612 -0.113775946 0.60695094 -0.044827443 0.03625217 0.2974778 -0.35286546
-0.050816007 -0.007389281 -0.06035286 -0.03391525 -0.09198064 0.054795604 0.17145063 -0.20237672
00000000: 65b3 4ebd cc1e 5ebe 6b8f 68be 96c9 9fbe
00000010: 3030 37be 951e 063f 57f6 013f ee90 4e3d
00000020: ba98 81bd bcf7 6a3e 556e 17be 7af6 43be
00000030: b6e7 063f 0d4a 4c3e 156d 963e 09e0 e93e
00000040: 7bec 47bc ab6e 593f c4a7 7f3e aac3 0d3e
00000050: 506a a23e 6049 c33e 608b 0b3e 958d e03e
00000060: 7e60 233e e324 59bd 9e17 c5be 1265 163e
00000070: 871c f03d 895d d43e 2b14 033e b29b d73e
00000080: ec65 193f 888c 42be c00e 50be ca5a 7abe
00000090: 3be5 d23d 68e2 19be 22ad 9d3e 58a9 373e
000000a0: 60dc a6be 294d 2e3f 02ba 45bd d186 483e
000000b0: c5d6 4d3e 591b bc3d c91c 1bbe 5b6b 073f
000000c0: 4cd6 af3e 9208 21be 2698 723e f0a0 183e
000000d0: 23c9 8c3d c706 7bbe b8cd 6dbe e1f6 363c
000000e0: 3204 41bd 078b f63d 08a4 47be 6b75 133f
000000f0: 5358 b1bc ed8a 83bd 31d5 cabc 0ac4 f0bd
00000100: 4c6d abbe 716f b3be c823 ecbd ebf0 b23d
00000110: d1f9 ee3e ef51 bfbe db57 de3e d36a acbd
00000120: bf2a 7b3e 584c b6bd c675 0d3f b4cd ecbd
00000130: fa18 eb3e 503c a83e 3452 d9bd 0a41 023e
00000140: c74e 66be 4086 b3bd 3142 3abe b105 b73e
00000150: 12a8 2ebe 4b1d ce3e 6b27 31be 5398 3f3f
00000160: 0225 d43e e8d9 283d ba43 813e fbf3 8a3d
00000170: 9584 b9be 0f6f 50be 4537 93be acc8 f6bd
00000180: bc32 90be 8dba d73e 49e6 013e e4c9 923e
00000190: 9fa2 3e3e afd5 193e 8f27 f7bd 9c77 84be
000001a0: 539a 0c3f 5451 07be 89a1 af3e db50 b53e
000001b0: 4a29 47be 0844 013f 2616 a3bd 1150 253f
000001c0: 392b 483f fad7 8739 96a4 ba3e 12bc 06bd
000001d0: 908d 99be f612 c13e 813e 0c3d 9548 d0be
000001e0: 1384 de3e 9f0a 9e3e 82c6 b9be 3626 a43e
000001f0: 03d2 3a3f afc4 34be addf 9cbe d540 c33e
00000200: d74f 23be 8bef e03d f5ac 88bd f8b8 3cba
00000210: 0c8d 90be b74a cbbc 59c5 893e ca6d f33d
00000220: 1b70 903e 8d35 0b3f 48ab 99be e6e9 003f
00000230: 2c2d 1e3f ce0d c3bd a2a6 42bd 0c97 15be
00000240: 2d54 5fbe 8662 293e 4b17 373e 7c12 a03d
00000250: 0208 df3e 68f5 583e d8c2 6b3e c961 6bbd
00000260: 826e 0c3f 4104 f1bd 2900 453d 2075 873e
00000270: 7539 d03d a18f 7cbe d41e 623c c275 323f
00000280: 1f58 95be 4cf7 563e 202b ab3e 7948 793e
00000290: e60f e93d 3dd8 c53d 0fdf 41be 2846 e53d
000002a0: ea39 0fbe 236f b93e d4b4 623e 4433 fb3d
000002b0: a394 f73e 5a3e 55be c495 d2be 32db 30be
000002c0: bee2 fc3e 1132 96bd b5c7 0f3f d011 ed3e
000002d0: 31b4 0fbf e20b bf3e ac07 3d3d 4026 593c
000002e0: fb39 a03e ec9e bb3e 1bb3 713e 5612 41be
000002f0: aae8 d13d 26c4 8dbd 2f9c 82be b868 1b3f
00000300: 0e4f b23e b811 94be 03a8 fe3d 9da6 bebd
00000310: 44fb 663e 2628 6f3e e0ed c13e e1cd b03b
00000320: 7438 cfbe 13b0 d33c bd24 253d 8ca0 25be
00000330: ad26 f03d b6ff 2abd c7b3 893e f648 043c
00000340: f687 c13e d4b6 033e 65be 033f e7b2 cf3e
00000350: 8963 b63d 38b3 9a3e 9a3a 1c3f 49d2 c83e
00000360: f7b8 81be 87be d03d 4d3a 703e 787a 2e3e
00000370: fc1d 223e 01fa 963d 8a24 fcbb 68df 9ebd
00000380: a2fe 733e a797 803e 5c28 8a3e ced9 123f
00000390: 22d7 a2be dea9 0ebe 8a54 17be 67fd 6d3e
000003a0: f593 133f 5a51 e33b d797 96bd 62ef 82be
000003b0: a99e d0bc b382 763e 4413 0bbe 0768 0b3e
000003c0: e65b 87bd a354 a6bd 5d03 e9bd 2361 1b3f
000003d0: fb9c 37bd 287d 143d 034f 983e c8aa b4be
000003e0: 7224 50bd c821 f2bb 8f34 77bd b8ea 0abd
000003f0: 5960 bcbd 5b71 603d c190 2f3e d83b 4fbe

net.2.weight f4 [256, 256]
0.3780467 -0.36736393 -0.015271707 -0.24329138 0.0187534 -0.0009840239 0.05796691 0.004828226
0.017480245 0.40259737 0.11953836 0.19597799 -0.08850337 -0.08246222 0.2046425 0.10554846
0.055006336 0.12340066 -0.041026495 0.1138485 -0.03437762 0.03489301 -0.076141775 -0.07784109
0.103299946 -0.10871436 -0.18340985 0.0266665 0.060950648 -0.020968564 -0.13601343 -0.0853225
0.015422302 0.18265128 -0.033759702 0.0012281516 -0.32604656 -0.11376751 -0.005641627 -0.36337742
0.19672602 0.08474822 0.08353877 0.015200658 0.19318359 -0.057822257 -0.120408185 0.11634944
0.04367291 0.07876906 0.007888742 -0.13982034 0.15404838 -0.31918976 0.24751237 -0.082854345
-0.0037032217 -0.19550078 0.4160897 0.046130132 0.048422575 0.19484493 0.024436194 0.08005387
-0.1637864 -0.1331095 -0.0872342 -0.013696402 0.049418684 -0.0044940948 0.085137 -0.034418732
0.068934835 -0.034987357 0.11350916 -0.038241956 0.18732956 0.027072119 0.028614717 -0.1543991
0.121067755 0.06799645 0.02455765 -0.01680453 0.34817955 0.10895329 -0.08405305 -0.0013872631
0.04826821 0.128828 0.056882966 -0.0039944076 -0.1821208 0.1932174 -0.13269442 0.063462935
0.29336187 -0.036415864 -0.11469354 -0.0073838467 0.09460347 -0.04539507 0.03535429 -0.0871754
-0.043630153 -0.06708151 0.0036994063 0.06498651 0.17132388 0.16447924 0.014483136 -0.1354194
0.0208851 -0.13434534 0.1027415 -0.052758947 0.051247276 -0.21421735 0.17387009 -0.08718782
0.024361681 -0.1275723 -0.1487427 -0.07108452 -0.009019985 -0.10217545 -0.10228143 0.10730381
0.103963956 0.2747993 -0.019000046 -0.17120577 -0.053714205 0.18159667 0.029600251 0.21425915
0.1327929 0.08057397 -0.53784174 -0.07478807 0.015970143 0.37173057 0.030392302 -0.0054550106
0.12837936 0.051257763 0.12678292 -0.10540477 0.12173502 -0.04395147 0.17181723 0.028832588
0.0720019 0.08669141 0.18775178 -0.092068344 -0.23779841 -0.0020346656 0.1405667 0.1451851
-0.1655108 0.0389832 0.0973382 -0.08429455 0.020979863 -0.103281505 -0.115695104 -0.09754893
-0.27625906 0.12016545 0.10821063 0.1170642 -0.19770148 0.18200578 0.08089195 -0.2560867
-0.051000036 -0.030816972 0.14123364 0.058455583 -0.056667387 -0.2377324 -0.008464037 0.18692768
0.07523794 -0.04669643 0.14818445 0.10930598 -0.033767525 -0.06361523 -0.18704692 -0.0015669183
-0.011472666 0.11601584 0.16077128 0.114599474 0.071252875 0.057019684 -0.011889325 -0.102580555
-0.16046053 -0.036902223 0.05859897 0.025982095 -0.108293094 -0.033826653 0.07591994 0.10296534
0.079912476 0.12790877 -0.03720394 0.06421084 -0.10606313 -0.11861134 0.0893877 -0.042326275
-0.028028987 0.017647607 -0.08706335 -0.0018563627 0.05519118 -0.144761 0.17726664 -0.17631802
0.14215429 0.06265577 0.019664194 -0.02289103 0.08515332 -0.10777721 -0.093384966 0.08229117
-0.1064811 -0.010822719 0.0531778 -0.06275381 0.008367703 -0.025433345 -0.03903102 -0.018079787
0.08051306 -0.111644 0.026292825 0.04162521 0.026498849 -0.00976975 0.01238325 -0.061209172
-0.08347905 -0.019222882 0.016093642 -0.0032479137 0.11727523 -0.12531275 -0.0048928373 0.024218127
00000000: 568f c13e 2017 bcbe 2f36 7abc 6021 79be
00000010: bba0 993c 5dfa 80ba b66e 6d3d 1836 9e3b
00000020: bb32 8f3c 3e21 ce3e 87d0 f43d 74ae 483e
00000030: 4141 b5bd f4e1 a8bd ce8d 513e ca29 d83d
00000040: 534e 613d 7cb9 fc3d 660b 28bd 6729 e93d
00000050: 8ccf 0cbd f9eb 0e3d 38f0 9bbd 266b 9fbd
00000060: ec8e d33d a2a5 debd cbcf 3bbe b473 da3c
00000070: 63a7 793d 44c6 abbc 1b47 0bbe 90bd aebd
00000080: d3ad 7c3c f008 3b3e 9d47 0abd eef9 a03a
00000090: 93ef a6be f1fe e8bd 66dd b8bb 9b0c babe
000000a0: 8c72 493e 7a90 ad3d 6016 ab3d 2e0c 793c
000000b0: ebd1 453e 08d7 6cbd 9198 f6bd 9d48 ee3d
000000c0: 5ee2 323d ac51 a13d c83f 013c 102d 0fbe
000000d0: dcbe 1d3e d76c a3be e273 7d3e 8aaf a9bd
000000e0: c0b1 72bb 5b31 48be b609 d53e f3f2 3c3d
000000f0: c056 463d 6e85 473e 6a2e c83c 49f3 a33d
00000100: 9fb7 27be db4d 08be d8a7 b2bd e066 60bc
00000110: 3f6b 4a3d 3343 93bb 4f5c ae3d a8fa 0cbd
00000120: b52d 8d3d e74e 0fbd 7e77 e83d 99a3 1cbd
00000130: 52d3 3f3e 59c6 dd3c 6969 ea3c cc1a 1ebe
00000140: 5ff2 f73d b941 8b3d 202d c93c a7a9 89bc
00000150: 9744 b23e e722 df3d 0124 acbd d3d4 b5ba
00000160: e3b4 453d 7deb 033e 1dfe 683d 85e3 82bb
00000170: e07d 3abe c8da 453e 0ce1 07be dbf8 813d
00000180: 8733 963e cd28 15bd 72e4 eabd 32f4 f1bb
00000190: 77bf c13d 2ef0 39bd a9cf 103d 0489 b2bd
000001a0: 88b5 32bd 0862 89bd bd71 723b a617 853d
000001b0: 876f 2f3e 3f6d 283e ad4a 6d3c 62ab 0abe
000001c0: 3b17 ab3c d391 09be 236a d23d c419 58bd
000001d0: aae8 513d cb5b 5bbe 000b 323e 878f b2bd
000001e0: 2692 c73c 50a2 02be 0250 18be c394 91bd
000001f0: 8fc8 13bc 5d41 d1bd ed78 d1bd 1ac2 db3d
00000200: 0eeb d43d 7eb2 8c3e fca5 9bbc 9150 2fbe
00000210: 6d03 5cbd 7af4 393e 3a7c f23c c066 5b3e
00000220: ddfa 073e f703 a53d ffaf 09bf 7d2a 99bd
00000230: d1d3 823c 7853 be3e 47f9 f83c f2bf b2bb
00000240: e175 033e a9f3 513d 62d3 013e 75de d7bd
00000250: 3650 f93d 7506 34bd dbf0 2f3e 5232 ec3c
00000260: bb75 933d 448b b13d 0142 403e 548e bcbd
00000270: 6d81 73be 0658 05bb b8f0 0f3e 67ab 143e
00000280: aa7b 29be d9ac 1f3d 4059 c73d 9fa2 acbd
00000290: f6dd ab3c 4185 d3bd 8ef1 ecbd bcc7 c7bd
000002a0: d471 8dbe 4e19 f63d 899d dd3d 5bbf ef3d
000002b0: 4272 4abe b95f 3a3e aeaa a53d cc1d 83be
000002c0: 6ae5 50bd e073 fcbc 8d9f 103e 1f6f 6f3d
000002d0: 101c 68bd 1f70 73be bfac 0abc f869 3f3e
000002e0: 5916 9a3d c144 3fbd aabd 173e d0db df3d
000002f0: d14f 0abd b448 82bd 3a89 3fbe 0e61 cdba
00000300: d9f7 3bbc b699 ed3d 3aa1 243e 21b3 ea3d
00000310: 07ed 913d 798d 693d 72cb 42bc c115 d2bd
00000320: c44f 24be c926 17bd 7905 703d 67d8 d43c
00000330: c5c8 ddbd d18d 0abd ea7b 9b3d 7edf d23d
00000340: 27a9 a33d 84fa 023e 2963 18bd f980 833d
00000350: a037 d9bd 81ea f2bd e610 b73d 515e 2dbd
00000360: 0c9d e5bc b791 903c 454e b2bd 3251 f3ba
00000370: 2610 623d 3a3c 14be 6385 353e b68c 34be
00000380: e590 113e ab51 803d ce16 a13c f885 bbbc
00000390: dd64 ae3d 4cba dcbd 9e40 bfbd 4688 a83d
000003a0: c312 dabd c651 31bc f7d0 593d 1285 80bd
000003b0: b118 093c 9759 d0bc fede 1fbd 101c 94bc
000003c0: 08e4 a43d 9ca5 e4bd 0d64 d73c 327f 2a3d
000003d0: 1d14 d93c 4d11 20bc 1de3 4a3c 78b6 7abd
000003e0: 10f7 aabd 4e79 9dbc d0d6 833c f3da 54bb
000003f0: ff2d f03d fc51 00be 1854 a0bb 1865 c63c

net.2.bias f4 [256]
0.058748834 -0.03607081 0.07569985 0.033960316 0.12357998 -0.11739907 -0.03205921 0.088794135
-0.053240314 0.08986736 0.04854611 -0.032082736 -0.058952104 0.09192268 -0.21170226 0.08956223
-0.09299719 0.03047066 0.02678126 -0.23852877 0.0704204 -0.22821459 -0.0563001 -0.00462193
-0.06385742 0.12850346 -0.06728078 0.03502697 0.014017124 0.17779468 -0.01766307 0.06926902
-0.055343475 0.12060846 -0.0023170225 0.03073092 -0.0076833074 -0.16905777 0.115009055 -0.07120336
0.06732168 0.010179747 0.11252943 -0.050690223 -0.03159457 -0.012664317 0.12083282 -0.0028062498
-0.032455884 -0.011950454 -0.0467248 0.14882557 0.07336902 0.0030348839 0.011569322 -0.022327345
0.12768528 -0.0120417 0.07475093 0.07536141 -0.011979662 -0.035315633 0.050332032 0.045005184
0.11472973 0.1464237 0.07921376 0.09191291 0.10919893 -0.03080203 0.031964205 0.03383149
0.04332648 0.0933804 0.0066549755 -0.041658968 -0.06288827 0.040433224 -0.029379122 -0.15119119
0.020499706 0.0788102 0.05183226 0.09235188 0.071701705 -0.0564558 0.05507214 -0.22390647
0.083262116 -0.12746681 0.08020108 0.054742474 -0.18481414 0.009338302 0.00070300646 0.046189334
-0.089497015 0.15580511 0.10030486 -0.074447796 0.11563085 0.025371268 -0.22900058 0.07663412
0.031943038 0.09951259 0.052684147 0.09933633 0.086365834 0.06356948 0.0058208257 0.13447842
-0.0014101048 0.19376054 -1.0486481e-05 0.07933248 0.2004875 0.1308048 0.09421866 -0.051998008
-0.058789276 0.06374796 -0.0849305 0.06264156 0.030018032 0.14395252 -0.12951303 0.18313575
0.09066095 0.025451165 -0.07418447 0.013421583 0.13742824 0.020029515 -0.030140102 0.043124996
0.03460442 0.12830198 0.08952727 0.07310051 0.13012919 0.062032446 -0.002157859 0.13678633
0.2638411 0.092396475 0.14099853 0.065907545 0.07907101 0.1372304 -0.006015453 -0.025235387
0.11097952 -0.1398906 0.016268283 0.013752724 0.034151334 0.068359196 0.07527945 0.020587172
0.012490958 0.10799913 0.093456596 0.06006253 0.1599633 0.07110761 -0.01795263 -0.12385162
0.09976683 -0.023826124 -0.075794354 0.07795608 0.07268703 0.12417063 0.031775817 -0.06927893
-0.054274205 0.034159258 -0.07350075 0.017904522 0.17634732 0.015774129 0.0023631305 0.03150668
0.030453114 0.008915022 0.16582292 0.057098806 -0.22457139 -0.0058240537 -0.0059894095 0.15468891
-0.012815687 0.041209444 -0.04634294 0.07839762 0.14019878 -0.060676325 0.17789745 -0.0022573632
0.13001342 -0.03472685 -0.1403333 -0.045088246 0.14858836 0.08616581 0.16666858 -0.22090633
-0.23457806 0.16981392 0.12124908 0.20675135 -0.07118153 0.17420615 0.13591455 0.12870769
0.15724634 0.11625921 0.069142506 0.029873796 -0.07837998 -0.024630625 -0.007716965 -0.021734105
0.0820988 -0.0067821317 0.12781109 0.1566327 0.12673151 0.15505657 0.023511462 -0.021794053
-0.061048698 -0.0120643545 0.09034307 -0.06414629 0.14622694 -0.10784955 0.06054577 -0.005030043
0.07977009 0.017061282 0.04943115 0.09314166 -0.12166883 0.20153132 -0.0041746898 0.0170175
-0.07660181 0.118631594 -0.08966501 0.04878327 0.07446228 0.0120104235 -0.050454404 0.053958397
00000000: 9ea2 703d fcbe 13bd 8608 9b3d f919 0b3d
00000010: 8017 fd3d ec6e f0bd 8550 03bd b3d9 b53d
00000020: 8412 5abd 610c b83d 49d8 463d 3069 03bd
00000030: c377 71bd f541 bc3d 7ac8 58be 676c b73d
00000040: 5075 bebd 9b9d f93c 5f64 db3c e340 74be
00000050: 9238 903d 16b1 69be ef9a 66bd 8f73 97bb
00000060: aec7 82bd 6996 033e 81ca 89bd 7178 0f3d
00000070: 14a8 653c cf0f 363e 24b2 90bc eadc 8d3d
00000080: d7af 62bd 9101 f73d 30d9 17bb 69bf fb3c
00000090: 41c4 fbbb 7b1d 2dbe de89 eb3d 11d3 91bd
000000a0: f3df 893d f4c8 263c d475 e63d 8da0 4fbd
000000b0: 4f69 01bd ff7d 4fbc 3377 f73d 0fe9 37bb
000000c0: 76f0 04bd d6cb 43bc 8162 3fbd bb65 183e
000000d0: 7f42 963d e7e4 463b 418d 3d3c d6e7 b6bc
000000e0: eebf 023e 8d4a 45bc 0417 993d 1557 9a3d
000000f0: 5846 44bc 20a7 10bd f628 4e3d 5b57 383d
00000100: 6cf7 ea3d 18f0 153e d33a a23d d63c bc3d
00000110: b0a3 df3d 8a54 fcbc e6ec 023d e392 0a3d
00000120: 1b77 313d 393e bf3d fb11 da3b 98a2 2abd
00000130: 91cb 80bd 4f9d 253d 7cac f0bc ddd1 1abe
00000140: 00ef a73c 3e67 a13d 104e 543d fc22 bd3d
00000150: 58d8 923d 323e 67bd 5393 613d bd47 65be
00000160: 5485 aa3d a986 02be 7740 a43d a539 603d
00000170: eb3f 3dbe adff 183c f749 383a 0731 3d3d
00000180: 364a b7bd 608b 1f3e a26c cd3d 1678 98bd
00000190: decf ec3d 68d7 cf3c 217f 6abe 59f2 9c3d
000001a0: b4d6 023d 42cd cb3d 55cb 573d d970 cb3d
000001b0: 92e0 b03d b730 823d a0bc be3b b6b4 093e
000001c0: 44d3 b8ba 2a69 463e 18ef 2fb7 1179 a23d
000001d0: 984c 4d3e b2f1 053e b6f5 c03d ddfb 54bd
000001e0: 06cd 70bd 4a8e 823d 0bf0 adbd 384a 803d
000001f0: 60e8 f53c 4a68 133e 109f 04be f087 3b3e
00000200: 73ac b93d f67e d03c 07ee 97bd 33e6 5b3c
00000210: fdb9 0c3e f014 a43c 60e8 f6bc d6a3 303d
00000220: 5dbd 0d3d 9861 033e 135a b73d b8b5 953d
00000230: 9640 053e bc15 7e3d de6a 0dbb b711 0c3e
00000240: 2e16 873e 5d3a bd3d eb61 103e 89fa 863d
00000250: fbef a13d 2086 0c3e 471d c5bb 71ba cebc
00000260: 3b49 e33d 7b3f 0fbe 1045 853c 1b53 613c
00000270: 45e2 0b3d e8ff 8b3d 1d2c 9a3d 6ea6 a83c
00000280: e0a6 4c3c a62e dd3d 2c66 bf3d 2104 763d
00000290: 6bcd 233e dea0 913d 6511 93bc eba5 fdbd
000002a0: 8d52 cc3d 012f c3bc 123a 9bbd 70a7 9f3d
000002b0: f0dc 943d 2c4d fe3d 5c27 023d 1de2 8dbd
000002c0: a14e 5ebd 94ea 0b3d 9087 96bd 81ac 923c
000002d0: 6494 343e bf38 813c c0de 1a3b 260d 013d
000002e0: cf78 f93c 5010 123c 7ccd 293e 70e0 693d
000002f0: 0bf6 65be b4d7 bebb cf42 c4bb c566 1e3e
00000300: e3f8 51bc 3ccb 283d 18d2 3dbd ee8e a03d
00000310: 4590 0f3e bd87 78bd c02a 363e 45f0 13bb
00000320: 3d22 053e be3d 0ebd 88b3 0fbe 74ae 38bd
00000330: 8c27 183e b377 b03d 2bab 2a3e 4535 62be
00000340: 3b35 70be b3e3 2d3e 7051 f83d a0b6 533e
00000350: 9fc7 91bd 1963 323e 2f2d 0b3e f3cb 033e
00000360: 2f05 213e 4f19 ee3d 969a 8d3d e4b9 f43c
00000370: af85 a0bd 2ac6 c9bc 98de fcbb b90b b2bc
00000380: 6a23 a83d a53c debb e9e0 023e 5364 203e
00000390: e8c5 013e 26c7 1e3e 1c9b c03c 7189 b2bc
000003a0: 330e 7abd 92a9 45bc ca05 b93d 215f 83bd
000003b0: 84bc 153e 3ae0 dcbd d7fe 773d 0fd3 a4bb
000003c0: 805e a33d 1ac4 8b3c 5178 4a3d 0ec1 be3d
000003d0: 822d f9bd 3a5e 4e3e d6cb 88bb 4968 8b3c
000003e0: 69e1 9cbd 1ff5 f23d 4aa2 b7bd f7d0 473d
000003f0: ae7f 983d 5ec7 443c 47a9 4ebd 7b03 5d3d

net.4.weight f4 [5, 256]
0.36458647 0.003443301 0.15978529 0.05442507 0.07600136 -0.04377407 0.14635462 0.11543176
0.37810546 -0.05863142 -0.12881714 0.2405671 -0.17931315 0.16134125 -0.70379895 -0.0066187666
-0.2870748 -0.09028875 0.08367241 -0.6925414 0.54281193 -0.2253203 -0.18747562 -0.12680092
-0.05743214 0.25549984 -0.57308817 -0.083457954 0.124952145 0.37460044 -0.11069431 0.040761523
-0.019651145 0.03271429 -0.0032074638 0.10414476 0.028950674 -0.2878471 0.32644412 -0.03915525
0.14873333 0.06702524 -0.09030506 -0.045946315 -0.020418262 0.013884653 0.2368129 0.44384885
-0.05410352 -0.12560837 -0.028316585 0.36685568 0.025929967 -0.16664939 0.12289331 0.025249839
-0.38568452 0.039054874 0.3004379 0.07583879 0.11754635 -0.21602741 -0.10421889 0.06544906
0.065792434 0.10030599 0.6242932 0.2832235 0.31950924 -0.18092284 -0.025916183 0.1499117
0.33285442 -0.14107607 0.17053373 -0.037371144 0.22962582 0.04032825 -0.19754739 -0.24100187
-0.055673417 -0.13332535 0.032726377 0.08251335 0.17039305 0.050701614 -0.1394232 -0.61512417
0.043079797 0.12264269 -0.045205403 0.36103705 -0.09576515 0.084245816 -0.12756835 0.19276561
-0.1463483 0.18408975 0.44172284 -0.13442574 0.3309431 0.04708569 -0.6122627 0.1829804
-0.013572408 0.1311318 0.39153606 -0.009014968 0.3015899 -0.13870786 -0.12519962 0.26108193
-0.08294194 0.6757709 0.009542048 0.3924274 0.45577678 0.3823993 -0.016314665 -0.4943626
-0.19929624 0.073793784 -0.012858292 0.41023782 0.1704215 0.65061617 -0.009478593 0.4539048
0.20918563 -0.4064024 -0.09694072 0.1795617 0.017396469 0.21817459 0.1576407 0.029191928
0.2666341 0.5658165 -0.037227273 0.019892612 0.4145187 0.26167065 0.23989879 -0.08471259
0.16644153 0.055878103 0.35778144 0.07974184 0.21108265 0.16640721 0.016920285 0.1942209
-0.26452988 -0.21262334 -0.01002949 -0.0042854124 0.06360152 0.21347632 0.3710715 -0.18272547
-0.29949147 -0.088709496 0.18844202 0.24509262 -0.12937093 0.29452428 0.3529649 -0.3333474
0.47968674 -0.047208443 -0.22594889 0.12266014 0.029546395 0.51510775 0.03870395 0.03492631
-0.16529828 0.095395654 -0.012200922 -0.12678765 0.27758345 -0.035605934 0.12550658 -0.00067815196
0.08719997 0.14845799 -0.45407283 0.3157235 -0.18660027 0.06956791 -0.05126499 0.49085245
-0.052194078 0.33882272 -0.038961276 -0.09227392 0.02121595 -0.06598621 0.07542003 -0.06779303
0.5290269 -0.058014955 -0.33192796 -0.1467942 0.30706754 0.11840373 0.65144634 -0.43258905
-0.1266005 -0.6259418 0.24543914 0.61654425 -0.30176684 0.49398613 0.06743485 0.17980617
0.4575098 0.60158473 -0.38900304 -0.06306184 -0.10090495 0.12479418 0.08645778 -0.13232507
0.31197858 0.08604479 0.40248236 0.38723493 0.504962 0.4467443 -0.25839898 -0.22711532
0.45886862 0.025330817 -0.22605397 -0.15378869 0.21783572 -0.035990883 -0.041834287 0.15141734
0.11706593 -0.19625464 -0.09166235 0.11591086 -0.50588095 0.42638406 -0.07781996 0.37519386
-0.25277582 0.080176964 -0.20972432 0.3347849 0.35626096 -0.02791257 0.0070199915 0.21069808
00000000: 14ab ba3e 01a9 613b c19e 233e d2ec 5e3d
00000010: 9aa6 9b3d 704c 33bd fcdd 153e 7d67 ec3d
00000020: 0a97 c13e 8027 70bd a4e8 03be 3957 763e
00000030: de9d 37be a436 253e 2b2c 34bf 3de2 d8bb
00000040: 78fb 92be 4fe9 b8bd 715c ab3d 654a 31bf
00000050: b9f5 0a3f 5dba 66be 9cf9 3fbe 1ad8 01be
00000060: f73d 6bbd e0d0 823e e8b5 12bf 01ec aabd
00000070: e9e6 ff3d a1cb bf3e b3b3 e2bd 8ef5 263d
00000080: 70fb a0bc 6bff 053d 5034 52bb d949 d53d
00000090: f729 ed3c b260 93be af23 a73e 4161 20bd
000000a0: 8d4d 183e 8744 893d dcf1 b8bd 3432 3cbd
000000b0: 3344 a7bc 757c 633c 157f 723e 2840 e33e
000000c0: a79b 5dbd 7b9f 00be 2ff8 e7bc 82d4 bb3e
000000d0: 156b d43c 23a6 2abe 7daf fb3d c0d8 ce3c
000000e0: 7178 c5be 01f8 1f3d ffd2 993e 5e51 9b3d
000000f0: 24bc f03d 4a36 5dbe b770 d5bd 280a 863d
00000100: 2fbe 863d 3a6d cd3d aed1 1f3f ac02 913e
00000110: b796 a33e d643 39be 2d4e d4bc 7482 193e
00000120: e56b aa3e 3f76 10be 65a0 2e3e 7c12 19bd
00000130: 0823 6b3e 3c2f 253d dd49 4abe 32c9 76be
00000140: cf09 64bd 7186 08be 180c 063d c2fc a83d
00000150: 847b 2e3e 7fac 4f3d f5c4 0ebe c778 1dbf
00000160: 7174 303d 172c fb3d 4d29 39bd d9d9 b83e
00000170: 8520 c4bd 1289 ac3d 47a1 02be 5964 453e
00000180: 54dc 15be 0682 3c3e 7f29 e23e e7a6 09be
00000190: 6071 a93e eddc 403d 40bd 1cbf 375f 3b3e
000001a0: ce5e 5ebc 6a47 063e 6a77 c83e 84b3 13bc
000001b0: fe69 9a3e 6f09 0ebe 5434 00be 88ac 853e
000001c0: 77dd a9bd 52ff 2c3f 4056 1c3c 3fec c83e
000001d0: 935b e93e d7c9 c33e 55a6 85bc 181d fdbe
000001e0: 5014 4cbe 3221 973d 96ab 52bc b10a d23e
000001f0: f982 2e3e c88e 263f 1a4c 1bbc 3666 e83e
00000200: c234 563e fa13 d0be db88 c6bd 06df 373e
00000210: 0a83 8e3c 2969 5f3e 906c 213e e923 ef3c
00000220: 4484 883e 5ad9 103f a07b 18bd d5f5 a23c
00000230: cc3b d43e b2f9 853e 07a8 753e cb7d adbd
00000240: a66f 2a3e 70e0 643d 212f b73e b14f a33d
00000250: 0d26 583e a766 2a3e 699c 8a3c d8e1 463e
00000260: 7670 87be efb9 59be bb52 24bc a56c 8cbb
00000270: 8441 823d 8999 5a3e 15fd bd3e 631c 3bbe
00000280: f256 99be 53ad b5bd f2f6 403e 8ff9 7a3e
00000290: d079 04be e3cb 963e d1b7 b43e 83ac aabe
000002a0: 8099 f53e a45d 41bd 255f 67be 3d35 fb3d
000002b0: 480b f23c 1ade 033f 0888 1e3d e40e 0f3d
000002c0: f443 29be cc5e c33d 60e6 47bc 9fd4 01be
000002d0: 6b1f 8e3e 87d7 11bd cc84 003e 02c6 31ba
000002e0: e695 b23d 5f05 183e 3c7c e8be 83a6 a13e
000002f0: 2414 3fbe 9f79 8e3d 3dfb 51bd 0351 fb3e
00000300: 75c9 55bd 2c7a ad3e dc95 1fbd 1cfa bcbd
00000310: 12cd ad3c c723 87bd d175 9a3d 12d7 8abd
00000320: 4f6e 073f 17a1 6dbd 76f2 a9be 3851 16be
00000330: f537 9d3e a87d f23d 30c5 263f 507c ddbe
00000340: 90a3 01be b93d 20bf 6654 7b3e d8d5 1d3f
00000350: 2f81 9abe c0eb fc3e 481b 8a3d 1c1f 383e
00000360: b93e ea3e 7501 1a3f 682b c7be 9126 81bd
00000370: 41a7 cebd 1794 ff3d c710 b13d 3980 07be
00000380: a8bb 9f3e 4038 b03d 2b12 ce3e a843 c63e
00000390: 3145 013f abbb e43e df4c 84be eb90 68be
000003a0: d4f0 ea3e 9382 cf3c b17a 67be c87a 1dbe
000003b0: 5410 5f3e 2d6b 13bd 6e5a 2bbd 260d 1b3e
000003c0: 43c0 ef3d faf6 48be 78b9 bbbd ac62 ed3d
000003d0: 6a81 01bf 034f da3e 1260 9fbd 6919 c03e
000003e0: d56b 81be d233 a43d f9c1 56be ed68 ab3e
000003f0: d667 b63e e7a8 e4bc f507 e63b 3dc1 573e

net.4.bias f4 [5]
0.09194328 -0.019404847 0.11768234 -0.039622802 0.12863077
00000000: c24c bc3d eaf6 9ebc 7003 f13d 854b 22bd
00000010: c9b7 033e
