models_backup/maddpg/checkpoint_ep100/adversary_0.pth (torch, 764002 bytes, 44 tensors)

network.0.weight f4 [128, 16]
0	0xbe7a2fc6	-0.24432287
1	0x3e1be312	0.15223339
2	0x3e39d73f	0.18148516
3	0x3d80eed0	0.0629555
4	0x3dad4433	0.084602736
5	0xbe155919	-0.1458477
6	0xbdf77238	-0.120823324
7	0xbe018067	-0.12646638
8	0x3d3d09f7	0.04615208
9	0xbcd16bf9	-0.02556418
10	0xbd37ddc9	-0.044889245
11	0x3de4cff2	0.11172475
12	0x3e314914	0.17313033
13	0x3d671f49	0.05642632
14	0x3e3bb076	0.18329033
15	0x3e17d336	0.14826664
16	0x3e353851	0.17697264
17	0xbd1dcfae	-0.038528137
18	0xbc397546	-0.011319464
19	0x3e04e0cd	0.1297638
20	0xbe155fd8	-0.14587343
21	0xbde91e1d	-0.11382697
22	0x3e7c58dd	0.24643274
23	0x3e06c98e	0.13162825
24	0xbb5263cf	-0.0032102948
25	0x3dc04c65	0.09389571
26	0xbe0523de	-0.13001963
27	0x3e1d7344	0.15376002
28	0x3e483172	0.19550112
29	0x3d1754ce	0.03694611
30	0x3e089e6a	0.1334168
31	0x3e7e4612	0.24831417
32	0xbe53b155	-0.20673116
33	0x3e42c084	0.19018751
34	0xbd835c6f	-0.06414115
35	0x3d42504d	0.047439862
36	0xbd1f47d2	-0.038886853
37	0xbe0f35ca	-0.13985363
38	0xbe2457ce	-0.1604912
39	0xbd643e26	-0.055723332
40	0xbe05eb91	-0.13078143
41	0x3d48053a	0.04883311
42	0xbe6d422c	-0.23169774
43	0x3e6899dd	0.22714944
44	0xbe403795	-0.18771203
45	0xbd0288bd	-0.031868685
46	0xbd406fed	-0.04698174
47	0x3e674802	0.22586063
48	0xbdf48f7f	-0.11941432
49	0xbd093041	-0.033493284
50	0xbdc33537	-0.09531634
51	0xbe59c514	-0.21266586
52	0x3e136c84	0.14396864
53	0x3e409f4a	0.18810764
54	0xbd822969	-0.063555546
55	0xbe7115e3	-0.23543505
56	0xbe5bd46c	-0.21467751
57	0xbd3b29a2	-0.045694
58	0xbdadb813	-0.08482375
59	0xbe7bc0aa	-0.24585214
60	0x3e090448	0.1338054
61	0x3e1055bd	0.14095207
62	0x3d679a79	0.0565438
63	0xbdf07e46	-0.11742835
64	0x3e2259d2	0.15854576
65	0x3e54e2fb	0.20789711
66	0xbe21ddd2	-0.15807274
67	0x3e4eac36	0.20182881
68	0xbdfe10b2	-0.12405528
69	0xbdf80a7e	-0.12111376
70	0xbe3b477d	-0.1828899
71	0xbd9c649d	-0.07636378
72	0x3e1f5619	0.15560187
73	0xbe675b67	-0.22593461
74	0x3e57eb93	0.21085958
75	0x3de7bae2	0.11314942
76	0x3e7df033	0.2479866
77	0xbe0a877f	-0.1352825
78	0xbe0ae378	-0.13563335
79	0x3e246444	0.16053873
80	0x3e7822c2	0.24232009
81	0x3e0a738f	0.13520645
82	0x3cce65bc	0.025194995
83	0x3decd206	0.11563496
84	0xbca90a13	-0.020634687
85	0xbdacb548	-0.08433014
86	0x3e16b24c	0.14716452
87	0xbd138d58	-0.036023468
88	0xbd3b031d	-0.045657266
89	0xbdfa1250	-0.12210524
90	0xbd74f8c7	-0.059807565
91	0xbc9aee65	-0.018912503
92	0x3e54f6d2	0.2079728
93	0xbd95e84b	-0.07319697
94	0x3e0cc8a0	0.13748407
95	0xbe6630be	-0.22479531
96	0xbe280fe8	-0.16412318
97	0x3e36a129	0.17834915
98	0x3d4632bb	0.048388224
99	0x3e0fd072	0.1404436
100	0xbcc72ef2	-0.024314377
101	0xbcd390d7	-0.025825901
102	0xbc2c07cd	-0.010499907
103	0xbcdce8a1	-0.026966395
104	0xbe0cedff	-0.13762663
105	0xbe5e8bc7	-0.21733008
106	0xbe7d3caf	-0.2473018
107	0x3dce0b4b	0.10060748
108	0xbdcfc2db	-0.101445876
109	0x3dcf4401	0.101203926
110	0x3e0a6dba	0.1351842
111	0xbd5ca3ee	-0.053867273
112	0x3d9b3e33	0.07580223
113	0x3e3f3ee0	0.18676329
114	0xbd117245	-0.035509367
115	0xbdc5ac14	-0.09651962
116	0x3e315a7e	0.17319676
117	0x3cc395fc	0.023875229
118	0x3cef2474	0.029192187
119	0x3dc21d0d	0.09478197
120	0x3e2f3629	0.17110504
121	0xbe373d05	-0.17894371
122	0xbdbf7035	-0.09347574
123	0xbdc78639	-0.09742398
124	0x3c680cba	0.0141631905
125	0x3c833517	0.016016526
126	0xbc304418	-0.010758422
127	0x3dcc1254	0.09964433
128	0x3e285593	0.16438894
129	0xbe1013ed	-0.14070101
130	0x3e0ba1d6	0.13635954
131	0xbe2dac09	-0.16960157
132	0xbdcb7dc8	-0.099361
133	0xbd8922c4	-0.06696084
134	0xbe226fe3	-0.15862994
135	0xbdf7a227	-0.12091475
136	0xbe7df613	-0.24800901
137	0xbe3d97a4	-0.18514878
138	0xbe7c33f5	-0.24629195
139	0x3e357dfb	0.17723839
140	0x3d650ac1	0.05591846
141	0x3d99c839	0.075088926
142	0x3e4238cd	0.1896698
143	0xbc977b80	-0.018491507
144	0x3e2f416e	0.17114803
145	0xbd40afbf	-0.047042605
146	0x3d849c5e	0.06475137
147	0xbc96acf1	-0.018393012
148	0x3e661ff4	0.22473127
149	0xbddb0485	-0.106942214
150	0x3e0d8db8	0.13823593
151	0xbdbfbb1c	-0.0936186
152	0xbe0975b6	-0.1342381
153	0xbe6ff3fe	-0.2343292
154	0x3de8851f	0.11353516
155	0xbe6e5148	-0.23273194
156	0x3e30c7d4	0.17263728
157	0x3e257ad8	0.16160142
158	0xbdc73cf5	-0.097284235
159	0x3d963dc7	0.07336002
160	0xbe169711	-0.14706065
161	0x3e14fc35	0.14549334
162	0x3e118715	0.14211686
163	0x3cfa513b	0.030556312
164	0xbd318aa1	-0.043345097
165	0x3e72ed8f	0.23723434
166	0xbdcc43fb	-0.09973904
167	0xbd877a82	-0.066151634
168	0x3e2fc461	0.17164756
169	0xbd7d36c9	-0.061819825
170	0x3956ec10	0.0002049657
171	0x3cf7fde6	0.030272435
172	0xbe0d02b8	-0.13770568
173	0x3e5111d2	0.20416954
174	0xbc1b32c1	-0.00947255
175	0xbe368aa2	-0.17826322
176	0xbd8eeef5	-0.06979171
177	0xbe54f275	-0.20795615
178	0x3e7bcba0	0.24589396
179	0x3e3a0ef2	0.18169764
180	0x3e74a07c	0.23889345
181	0xbe1313c7	-0.14363013
182	0x3e2a119f	0.16608284
183	0xbe1edf98	-0.15514982
184	0x3d97939f	0.07401203
185	0x3e5667fd	0.20938106
186	0x3c3c926f	0.011509522
187	0xbddc7175	-0.10763828
188	0xbddefbe3	-0.10887887
189	0xbe61e72a	-0.22060838
190	0xbe6c9891	-0.23105074
191	0x3e0ae491	0.13563754
192	0xbd84885b	-0.0647132
193	0x3c7ced54	0.015437443
194	0x3c988b29	0.018621044
195	0x3d704c67	0.058666613
196	0x3e6dfdf0	0.232414
197	0xbcf48eb5	-0.029853204
198	0xbe74b194	-0.23895866
199	0x3deebfd3	0.11657681
200	0xbd4972c3	-0.04918171
201	0xbe451a35	-0.19248278
202	0xbe4a0ef4	-0.19732267
203	0xbdd947c7	-0.106093936
204	0x3e381364	0.17976147
205	0x3c4401d8	0.01196333
206	0xbd8411ef	-0.06448733
207	0x3d3be76c	0.045874998
208	0x3e1456a3	0.14486174
209	0x3e2f26ae	0.17104599
210	0xbdc702cb	-0.097173296
211	0x3e79e3f1	0.24403359
212	0x3e30e38a	0.172743
213	0xbdf3bf90	-0.11901772
214	0x3da13e1b	0.07873174
215	0xbe1bd1c5	-0.1521674
216	0xbd9a98c1	-0.07548667
217	0x3e109961	0.1412101
218	0xbe27867e	-0.16359898
219	0x3e62280a	0.22085586
220	0x3dfcd805	0.1234589
221	0xbe713fc7	-0.23559485
222	0x3d16b9fb	0.03679846
223	0xbe2d57b0	-0.16927981
224	0xbdbe9b24	-0.093069345
225	0xbe000540	-0.12502003
226	0x3d7fb4e9	0.06242839
227	0xbd9a20ff	-0.07525825
228	0x3c8f055e	0.017458614
229	0xbe2b7b53	-0.16746263
230	0xbe58f1ac	-0.2118594
231	0x3e5aa2e2	0.21351197
232	0x3d84842c	0.06470522
233	0x3e5ec872	0.21756151
234	0x3d999f0d	0.0750104
235	0x3d16b6d9	0.03679547
236	0xbdd011ef	-0.101596706
237	0xbcf19c14	-0.02949337
238	0x3d962de5	0.073329724
239	0x3d4f4cf9	0.050610516
240	0x3e664979	0.22488965
241	0xbba0ce55	-0.004907409
242	0xbcfb071f	-0.030643044
243	0x3c73b8a0	0.014875561
244	0xbe4c4ab6	-0.19950375
245	0xbde9497d	-0.1139097
246	0xbde2dbf1	-0.11077107
247	0x3e2af1e5	0.16693838
248	0x3e3dc619	0.185326
249	0xbb99e66a	-0.004696657
250	0x3e16a142	0.14709952
251	0xbdc2cb54	-0.09511438
252	0xbc502ecc	-0.01270647
253	0xbe732dd1	-0.23747946
254	0xbcafb436	-0.021448236
255	0xbe64a74c	-0.22329444

network.0.bias f4 [128]
0	0x3b9095eb	0.004412403
1	0xbe631f1e	-0.22179839
2	0x3de3a5c7	0.11115604
3	0xbd54db41	-0.05196691
4	0xbcd089db	-0.02545636
5	0x3cf384aa	0.029726345
6	0x3e5053df	0.20344494
7	0x3d94b211	0.07260526
8	0x3d9449ac	0.07240614
9	0xbe53fe2f	-0.20702432
10	0x3de7bae2	0.11314942
11	0x3c839537	0.016062362
12	0xbd8fed36	-0.07027666
13	0xbe68bfcd	-0.22729416
14	0xbe07bf12	-0.13256481
15	0x3da99384	0.082800895
16	0xbe485bee	-0.19566318
17	0xbe811dd6	-0.25218076
18	0xbe111492	-0.14168003
19	0xbe514b8d	-0.20438977
20	0x3e11d2ec	0.14240617
21	0xbe317e5c	-0.17333359
22	0x3e43fd28	0.1913954
23	0xbe33ca58	-0.17557657
24	0x3bef9359	0.0073112664
25	0xbe02c534	-0.1277054
26	0x3d5d78ec	0.0540704
27	0x3bc4ab0f	0.006001837
28	0x3e2c10f0	0.16803336
29	0x3d86e40b	0.065864645
30	0xbe4404de	-0.19142482
31	0xbe2f6d29	-0.17131485
32	0x3c9ca10c	0.019119762
33	0x3d627fd3	0.055297684
34	0x3e42627b	0.1898288
35	0xbd97d442	-0.07413532
36	0x3e32daba	0.1746625
37	0xbd401473	-0.046894502
38	0x3d70df8e	0.05880695
39	0x3e57225a	0.21009198
40	0x3e764959	0.24051417
41	0x3e3a5ffe	0.1820068
42	0x3e2cc336	0.16871342
43	0xbdeda727	-0.116041474
44	0xbe183f54	-0.14867908
45	0xbdef7b46	-0.116934344
46	0xbd59a745	-0.053138036
47	0xbd2645ec	-0.040594026
48	0xbe54aa8f	-0.20768188
49	0xbe66285b	-0.22476332
50	0xbd79ca63	-0.060984027
51	0x3d47bea2	0.048765786
52	0x3dc89f3d	0.09795997
53	0xbe45b97c	-0.19309038
54	0x3e5f1fa2	0.2178941
55	0x3e16fc73	0.14744739
56	0xbe0250cb	-0.12726133
57	0x3e0815e4	0.132896
58	0x3e3c53b2	0.18391302
59	0xbe69eca9	-0.22844185
60	0x3e76e5c9	0.24111094
61	0x3e4f2c26	0.20231685
62	0x3e34acdf	0.1764407
63	0x3e75ed73	0.24016361
64	0xbe119198	-0.14215696
65	0xbdd79a00	-0.1052742
66	0x3e40e91a	0.18838921
67	0x3e4088ea	0.18802229
68	0x3db08c4f	0.08620512
69	0xbe6ae7c1	-0.2293997
70	0xbd900e9c	-0.070340365
71	0x3d6efcb7	0.058346476
72	0x3e3d6383	0.18494992
73	0x3e31ab72	0.17350557
74	0xbda298e7	-0.0793932
75	0x3e57c994	0.2107299
76	0x3a0937e0	0.0005234461
77	0xbdfc0e7c	-0.1230745
78	0x3da48fd0	0.080352426
79	0x3dc3c1b8	0.09558433
80	0x3dc79abb	0.09746309
81	0x3dac690f	0.08418476
82	0x3e35d351	0.17756392
83	0xbe433e2f	-0.1906669
84	0x3e21e565	0.15810163
85	0x3e49bb64	0.1970039
86	0xbe2c00ec	-0.16797227
87	0xbdf2e3d6	-0.118598625
88	0xbe74cc7b	-0.23906128
89	0x3dbb1c87	0.091363005
90	0x3e75bf8d	0.23998852
91	0x3e4568aa	0.19278207
92	0xbd480bd8	-0.04883942
93	0xbe7b796f	-0.24558042
94	0xbe7d2839	-0.24722375
95	0x3df95876	0.12175076
96	0xbdd2e856	-0.10298221
97	0x3e2c9a22	0.16855672
98	0x3e65f267	0.2245575
99	0x3e245efd	0.1605186
100	0xbde37711	-0.111066945
101	0x3e28ecdc	0.16496605
102	0xbe461984	-0.19345671
103	0xbe419713	-0.18905286
104	0x3d35bf78	0.044372052
105	0x3dffb007	0.124847464
106	0xbd6e3eae	-0.058165245
107	0xbe4f2929	-0.20230545
108	0x3dfcc69d	0.1234257
109	0x3e1535f4	0.14571363
110	0xbe75d589	-0.24007238
111	0x3e28682b	0.16445987
112	0xbe5b4d85	-0.2141629
113	0xbe798509	-0.24367155
114	0x3e0ecfd9	0.13946475
115	0xbc65febb	-0.014037783
116	0x3e49923f	0.19684695
117	0xbd9d165b	-0.076702796
118	0xbc411985	-0.0117858695
119	0x3e4eb2a1	0.20185329
120	0x3e573b34	0.21018678
121	0xbdf3e4ce	-0.119088754
122	0xbdb578a9	-0.08860905
123	0x3d8e3e49	0.06945474
124	0x3e7f8d4b	0.24956243
125	0xbe371fb0	-0.17883182
126	0x3d7b80db	0.061402183
127	0x3e11afd7	0.14227234

network.2.weight f4 [128, 128]
0	0xbd91c7ad	-0.07118163
1	0x3d9d997d	0.07695291
2	0x3cb11986	0.021618616
3	0xbd3218ea	-0.04348079
4	0x3da65bfb	0.08123013
5	0xbd966ebe	-0.07345341
6	0x3d4be2dd	0.0497769
7	0xbd924f8f	-0.07144081
8	0xbd0a3e17	-0.03375062
9	0x3cba4c6d	0.02274152
10	0x3d8f32aa	0.06992085
11	0x3d9d5625	0.076824464
12	0xbd96f5fa	-0.07371135
13	0x3d0b6ded	0.03404038
14	0x3d96d8ab	0.07365545
15	0x3ce39da0	0.027785122
16	0xbd1ea6a3	-0.038733136
17	0x3d92a8a4	0.07161072
18	0x3d7832c8	0.060595304
19	0x3ccafdfd	0.024779314
20	0xbd32f7d9	-0.043693397
21	0xbcdcaf74	-0.026939131
22	0x3cde844c	0.027162693
23	0xbd7ac83c	-0.061226115
24	0x3b748969	0.0037313348
25	0x3bc95f29	0.006145377
26	0xbc5d9387	-0.013523943
27	0x3c1b5013	0.00947954
28	0x3c9f8a8e	0.019475248
29	0xbd2e77eb	-0.04259483
30	0xbca6ab74	-0.020345427
31	0x3da104f5	0.078622736
32	0xbdb102df	-0.08643126
33	0xbd91e74f	-0.07124197
34	0x3d45c27b	0.048281174
35	0xbcc81d5f	-0.024428068
36	0xbd4c5689	-0.049887214
37	0x3cdfc76c	0.027316771
38	0x3c0f9494	0.008763451
39	0x3c75a1db	0.014992203
40	0x3d49f1f6	0.049303018
41	0x3d025025	0.031814713
42	0x3c9b2576	0.018938761
43	0x3d3061a6	0.043061875
44	0xbdb28049	-0.08715875
45	0x3967eaf1	0.00022117399
46	0xbcd5b721	-0.0260883
47	0xbb7aed83	-0.003828854
48	0xbc63d65e	-0.01390609
49	0xbd18cc40	-0.037304163
50	0xbd0b1cde	-0.033963077
51	0xbdba0f0e	-0.09084903
52	0x3ba21e55	0.0049474635
53	0xbd77c5ad	-0.060491253
54	0x3c75e861	0.015009017
55	0xbc45a1d5	-0.01206251
56	0xbd5a07d2	-0.053230114
57	0xbd33f0da	-0.043930866
58	0xbcfb71f2	-0.030693982
59	0xbd9bf5c2	-0.07615234
60	0x3c5df301	0.013546706
61	0xbd41f378	-0.04735133
62	0xbd96f84c	-0.073715776
63	0xbd83bc7c	-0.06432435
64	0xbcf87056	-0.030327003
65	0x3d656c57	0.056011524
66	0x3d5a2547	0.053258207
67	0xbd3b3aba	-0.045710303
68	0xbd5384ad	-0.0516402
69	0xbc54e130	-0.012993142
70	0x3c994b1d	0.018712575
71	0xbd7430b2	-0.059616752
72	0xbca7cc43	-0.020483142
73	0xbd4d228d	-0.05008178
74	0xbd6e5f28	-0.058196217
75	0x3d9ffdd2	0.07812084
76	0xbd92b5fa	-0.071636155
77	0xbd13b8e7	-0.03606501
78	0xbd64a696	-0.05582293
79	0xbdab8c9e	-0.0837643
80	0x3d1d6a7b	0.038431626
81	0x39e6921b	0.00043977876
82	0x3d6441c7	0.055726793
83	0xbd5100a2	-0.051025994
84	0x3cd406a0	0.025882065
85	0xbd965674	-0.073407084
86	0x3d5e7cba	0.054318167
87	0x3d590ff5	0.052993733
88	0x3d911cff	0.07085609
89	0x3c7a02f8	0.015259497
90	0xbdaa8b12	-0.08327307
91	0x3d8df147	0.069307856
92	0x3d5a49d4	0.053293064
93	0xbd864fd0	-0.06558192
94	0xbd8c5a68	-0.06853181
95	0x3d007e92	0.031370707
96	0xbd78d603	-0.060750972
97	0x3d77c2ba	0.06048844
98	0x3c62a7b4	0.013833929
99	0x3caa6c33	0.020803547
100	0xbd7d6de2	-0.06187237
101	0xbcc3e0a2	-0.023910824
102	0x3d59e3d3	0.053195786
103	0x3bdbcd2f	0.0067078094
104	0xbc1b1bb4	-0.009467054
105	0xbd65343a	-0.05595801
106	0x3d9679e4	0.073474675
107	0xbd1e5abb	-0.038660746
108	0xbd19f9a1	-0.03759158
109	0xbcfdfe8f	-0.031005172
110	0xbcccfab1	-0.025021883
111	0xbd2bbc95	-0.041927893
112	0x3d054ff0	0.032546937
113	0x3d098f67	0.033584025
114	0x3d1dec73	0.038555574
115	0x3c9465cd	0.018114949
116	0xbc8b118b	-0.016976139
117	0x3d8742ad	0.06604514
118	0xbd368c6e	-0.044567518
119	0xbc775f79	-0.015098446
120	0xbca4ebeb	-0.020132026
121	0xbd4f54d2	-0.050618
122	0x3ce0a74c	0.027423523
123	0xbcd2a01a	-0.025711108
124	0xbd9d2319	-0.0767271
125	0x3d9ecd83	0.07754042
126	0xbd00cfec	-0.03144829
127	0xbccad67a	-0.024760474
128	0xbd9529c6	-0.07283358
129	0x3c30f49a	0.010800505
130	0x3a2ac40d	0.0006514199
131	0xbd737b1e	-0.059443586
132	0x3d10ecd4	0.035382107
133	0xbc466452	-0.012108879
134	0x3dafb3ff	0.085792534
135	0x3b3a52d9	0.0028430729
136	0xbc94d1de	-0.018166479
137	0x3d8db053	0.06918397
138	0xbd5f1ff3	-0.05447383
139	0xbd8170d8	-0.06320351
140	0x3d0cebaa	0.034404434
141	0x3d0e0a7a	0.03467796
142	0xbc779170	-0.015110359
143	0xbd303f23	-0.043028962
144	0x3d4dcdf3	0.050245237
145	0x3cf48078	0.029846415
146	0xbd9dfee1	-0.0771463
147	0xbbde0f6d	-0.0067767412
148	0xbd72cc04	-0.059276596
149	0xbcee18cf	-0.029064564
150	0xbd3a2960	-0.045449615
151	0x3c7c25ab	0.01538984
152	0xbd042531	-0.03226203
153	0x3c61758b	0.013760935
154	0xbcdc289a	-0.02687483
155	0x3c144dbe	0.009051738
156	0x3d81065e	0.063000426
157	0x3bfd9416	0.0077386005
158	0xbd8175ea	-0.063213184
159	0xbbfa8e45	-0.0076463544
160	0xbc33d6c3	-0.010976496
161	0xbd28d6db	-0.041220527
162	0x3dbc7be7	0.0920332
163	0x3caf360c	0.021388076
164	0x3c3f6a33	0.011683035
165	0xbd114be5	-0.03547277
166	0x3d2b14f2	0.041768022
167	0x3cc59d22	0.024122778
168	0x3d9e86ae	0.07740532
169	0xbd82e45f	-0.063912146
170	0xbcfdd217	-0.030983968
171	0x3d14342f	0.03618258
172	0xbcbbda0f	-0.022931127
173	0x3c1756ef	0.009237035
174	0xbd85d0fb	-0.065340005
175	0xbc567b94	-0.013090987
176	0x3da03d15	0.078241505
177	0x3d89e1b1	0.067325
178	0xb9dc3246	-0.00041999127
179	0x3b53508d	0.0032244057
180	0xbd7afcaa	-0.061276115
181	0xbd3cb930	-0.046075046
182	0x3dbb84f7	0.091562204
183	0x3adf35ce	0.0017029585
184	0xbd6169c5	-0.05503251
185	0x3db982e4	0.090581685
186	0x3d4b66b3	0.04965849
187	0x3b2eb8d6	0.0026660464
188	0xbd9c926f	-0.076451175
189	0x3d2a2cc8	0.041546613
190	0xbd2fa787	-0.042884376
191	0xbd1f8f79	-0.038955186
192	0x3d403d95	0.04693373
193	0xbc3de970	-0.0115913
194	0x3d5883e4	0.052860156
195	0xbcc60b06	-0.024175178
196	0xbcaa0cac	-0.020757996
197	0xbcfd8cdf	-0.030950962
198	0xbbdb4e03	-0.0066926493
199	0x3d1bed05	0.038067836
200	0xbd84d5cf	-0.06486093
201	0xbc9be285	-0.019028911
202	0x3d3e2432	0.046421237
203	0x3bac9f81	0.005268038
204	0xbd81abf4	-0.063316256
205	0xbca1e930	-0.019764513
206	0xbd882bdd	-0.06648991
207	0xbc22b67c	-0.009931203
208	0x3d731418	0.059345335
209	0x3da08efe	0.078397736
210	0xbd95f425	-0.073219575
211	0x3dae1b42	0.08501293
212	0x3cb68178	0.022278532
213	0xbd50811d	-0.050904382
214	0x3d7a3764	0.06108798
215	0x3bf23ff1	0.0073928763
216	0xbd50d801	-0.050987247
217	0x3daa36df	0.08311247
218	0xbd87ae52	-0.06625046
219	0x3d4be418	0.049778074
220	0xbce49f09	-0.027907865
221	0xbd1d8dfa	-0.038465478
222	0xbc54a2b9	-0.012978249
223	0x3c021fd5	0.00794216
224	0xbd7864f6	-0.06064316
225	0xbd54dec0	-0.051970243
226	0x3d2bdbee	0.04195779
227	0x391a7c8a	0.00014732979
228	0xbd0271e8	-0.03184691
229	0x3d60eb6c	0.054912016
230	0xbd42be9e	-0.047545068
231	0x3c6ad77a	0.0143336
232	0x3d71d460	0.059040427
233	0xbd8e3b57	-0.06944912
234	0x3b90a149	0.004413758
235	0xbd4025ec	-0.046911165
236	0xbd44d047	-0.04805019
237	0xbd9b7d27	-0.0759223
238	0xbd822e84	-0.063565284
239	0x3c7a9b01	0.015295745
240	0x3d692e33	0.056928825
241	0xbc0c7778	-0.008573405
242	0x3dbb5e1b	0.091488086
243	0xbcc00ef7	-0.023444636
244	0x3d5e6c0d	0.054302264
245	0xbd193b88	-0.03741029
246	0xbd8d3a1f	-0.06895851
247	0xbd322a04	-0.0434971
248	0xbbff9ca8	-0.0078006573
249	0xbd042677	-0.032263245
250	0xbccbf160	-0.02489537
251	0xbd1e1102	-0.03859044
252	0x3d29e41e	0.041477315
253	0x3d7b5920	0.061364293
254	0xbb887772	-0.0041646296
255	0xbcbcc753	-0.023044264

network.2.bias f4 [128]
0	0x3d77f674	0.06053777
1	0x3d5d2366	0.053988837
2	0x3d012bb4	0.03153582
3	0x3d600d1c	0.054700002
4	0xbd4afc5d	-0.04955708
5	0x3d34078e	0.043952517
6	0x3d1028a1	0.035194997
7	0x3cb7f446	0.022455346
8	0x3c9092fc	0.017648213
9	0xbb217633	-0.0024637103
10	0x3d7269c5	0.0591829
11	0xbdaba1f2	-0.08380498
12	0xbd542b1a	-0.051798917
13	0xbb45d558	-0.0030186977
14	0xbb647cf1	-0.003486451
15	0x3d623e50	0.055235207
16	0x3d980925	0.07423619
17	0x3c97ca9d	0.01852923
18	0xbc4b6614	-0.012414474
19	0xbd8f17ab	-0.06986936
20	0x3c8daf91	0.01729563
21	0xbc5fe73a	-0.013665969
22	0xbda053b3	-0.07828464
23	0x3cb56e51	0.02214733
24	0x3cf96cf4	0.03044746
25	0xbda3c064	-0.0799568
26	0x3cfc2ed3	0.030784046
27	0xbc8de7c3	-0.017322427
28	0xbd0ca2eb	-0.03433506
29	0xbd9f785c	-0.077866286
30	0x3c1c90f5	0.009556045
31	0xbd7bc37a	-0.061465718
32	0x3bdca089	0.0067330045
33	0x3d9a538b	0.07535466
34	0x3dafb16a	0.08578761
35	0xbdb2a463	-0.087227605
36	0xbd35bcf7	-0.044369664
37	0x3d1a0bcc	0.037608907
38	0x3c513315	0.012768527
39	0xbd856e75	-0.06515209
40	0x3da87b8a	0.08226688
41	0x3d5d6562	0.054051764
42	0x3c0deb04	0.008661989
43	0x3d9c4034	0.07629433
44	0xbd3235bf	-0.043508288
45	0x3da5a4fe	0.080881104
46	0x3d9f827b	0.07788559
47	0xbdaf48e5	-0.085588254
48	0x3d354638	0.04425642
49	0x3da99cf7	0.08281892
50	0xbd318b60	-0.04334581
51	0x3da5afac	0.080901474
52	0xbc9ea0e4	-0.019363828
53	0x3c730e48	0.014834948
54	0x3d008a14	0.03138168
55	0x3d67838b	0.056521934
56	0xbd8b9b1d	-0.06816695
57	0xba804ba3	-0.0009788166
58	0x3cc77bc8	0.024351016
59	0x3cf2eb16	0.029653113
60	0xbd8877a5	-0.066634454
61	0xbc9ae6e6	-0.01890893
62	0x3d037930	0.032097995
63	0x3d48b488	0.049000293
64	0xbcb9e844	-0.02269376
65	0xb9ef2256	-0.00045611215
66	0x3c9806f1	0.018557997
67	0xbcd90290	-0.02649048
68	0x3b6f0fd6	0.0036477945
69	0x3a16cd50	0.000575264
70	0xbd1c09dd	-0.038095344
71	0x3d91b190	0.071139455
72	0xbc8e8c72	-0.017400954
73	0xbdad5894	-0.084641606
74	0x3d4e8c76	0.050426923
75	0x3c1bedb3	0.009517121
76	0xbd94adbd	-0.072597004
77	0xbd95fff8	-0.07324213
78	0x3da43d39	0.0801949
79	0x3d13318e	0.03593593
80	0xbda78ee3	-0.0818155
81	0xbd055a59	-0.032556865
82	0xbd973620	-0.073833704
83	0xbd903bc7	-0.070426516
84	0x3d488c17	0.048961725
85	0x3c895364	0.016763397
86	0x3d6ac89d	0.057320226
87	0x3d821778	0.063521326
88	0x3d95ef58	0.07321042
89	0x3d10d1f1	0.035356466
90	0xbcaddeda	-0.021224428
91	0xbdbd72a1	-0.09250379
92	0x3d7d531a	0.06184683
93	0x3d7b9776	0.06142374
94	0x3d57543e	0.052570574
95	0x3aceae8a	0.001576857
96	0x3d81bcb5	0.06334821
97	0x3d86f8fc	0.06590459
98	0x3d5d3891	0.054009024
99	0xbd2e69c9	-0.042581353
100	0xbd132019	-0.035919283
101	0x3d963b9f	0.073355906
102	0x3d2166a4	0.039404526
103	0x3c25b282	0.01011336
104	0xbd6c7bdc	-0.05773531
105	0xbd7e7cb6	-0.062130652
106	0x3c376ec6	0.011195844
107	0x3d115099	0.035477255
108	0x3d2d0d8d	0.04224925
109	0x3d2a1d9a	0.041532136
110	0xbc617aa6	-0.013762152
111	0x3c642c4b	0.013926576
112	0xbcace765	-0.021106431
113	0xbbad6035	-0.00529101
114	0xbda58c0a	-0.08083351
115	0xbce8a7a1	-0.028400244
116	0xbd4fd4e4	-0.050740138
117	0x3d90e1be	0.07074307
118	0xbca2ac6b	-0.019857606
119	0xbbc52184	-0.0060159583
120	0xbd405540	-0.0469563
121	0x3d9204ab	0.071297966
122	0xbd90afed	-0.07064805
123	0x3d64b1f6	0.05583378
124	0x3ce2fe25	0.027709076
125	0x3d9e5b79	0.07732291
126	0xbce53f59	-0.027984308
127	0x3b1093e7	0.0022060813

network.4.weight f4 [5, 128]
0	0xbd501692	-0.050802775
1	0xbd1d1c37	-0.038356986
2	0xbce86d3f	-0.028372405
3	0xbcd2b05a	-0.025718857
4	0xbd90f9b0	-0.07078874
5	0x3cee1189	0.029061096
6	0xbcf73493	-0.030176437
7	0xbcb6779f	-0.022273837
8	0xbd16ba67	-0.03679886
9	0xbd97f37f	-0.0741949
10	0x3d77c784	0.060493007
11	0x3d7d19ba	0.061792113
12	0xbb52017f	-0.0032044349
13	0xbc70b04e	-0.014690472
14	0x3cb55dbe	0.022139426
15	0x3d59682e	0.05307787
16	0xbd434edf	-0.04768264
17	0x3d37b606	0.044851325
18	0x3d64ed9f	0.055890676
19	0x3d3bee97	0.045881834
20	0x3a58c0bc	0.0008268466
21	0x3b50e82b	0.0031876664
22	0x3c20f01d	0.0098228725
23	0xbd98c622	-0.07459666
24	0x3c9aff08	0.018920437
25	0x3bf2a9f0	0.007405512
26	0xbd2706c7	-0.040777948
27	0xbd4e7825	-0.050407548
28	0xb9c97cc2	-0.0003843066
29	0x3d61e617	0.05515107
30	0xbd5957d8	-0.05306229
31	0x3da2994b	0.079393946
32	0x3d065846	0.032799028
33	0xbb9c0163	-0.0047609075
34	0xbbac3f55	-0.005256573
35	0xba03290b	-0.00050033693
36	0x3daedf5e	0.08538698
37	0x3ca74d6d	0.020422662
38	0x3da87e22	0.08227183
39	0x39de0e84	0.00042353955
40	0xbd478956	-0.048714958
41	0x3d0e3bf3	0.03472514
42	0xbcb04239	-0.021515952
43	0xbc311b09	-0.010809668
44	0xbd3f3864	-0.046684638
45	0xbcd74b85	-0.026281128
46	0x3d826d81	0.063685425
47	0xbd760b54	-0.060069397
48	0xbd756471	-0.05991024
49	0xbd839438	-0.06424755
50	0xbdab7854	-0.0837256
51	0xbd4c49f9	-0.049875233
52	0xbd4dd227	-0.050249245
53	0xbba96b0b	-0.005170231
54	0x3d2bdb95	0.041957457
55	0xbd8088c9	-0.0627609
56	0x3cd777cd	0.026302243
57	0xbcc4b784	-0.024013288
58	0xbcf74b70	-0.030187339
59	0x3d66ec7c	0.056377873
60	0x3beda103	0.00725186
61	0x3c236a38	0.009974055
62	0x3d926d37	0.07149737
63	0x3d9c4c92	0.07631792
64	0x3d8efdb9	0.069819875
65	0xbd10af99	-0.035323713
66	0xbd99803d	-0.07495163
67	0x3d179a61	0.03701246
68	0x3d70ad81	0.058759216
69	0x3ceada1f	0.028668461
70	0xbc99e73b	-0.018787017
71	0xbd2d57ce	-0.042320065
72	0x3d9d24cf	0.07673036
73	0xbd82e2b9	-0.063909
74	0xbd91c1ee	-0.07117067
75	0x3d99858d	0.07496176
76	0xbc8e8991	-0.017399581
77	0xbd4dea13	-0.05027206
78	0x3d4a9bab	0.049464863
79	0x3c076fd7	0.008266411
80	0xbd22a346	-0.03970649
81	0xbda2583e	-0.07926987
82	0xbd342dd2	-0.04398901
83	0xbca54a68	-0.020177081
84	0xbd38ad5b	-0.0450872
85	0xbd21e316	-0.039523207
86	0xbd4ffcff	-0.050778385
87	0x3d92c1f4	0.071659
88	0x3dacddaa	0.084407166
89	0xbce9eb81	-0.02855468
90	0xbb8931f2	-0.004186862
91	0x3da1ef3f	0.07906961
92	0xbd8200bb	-0.063477956
93	0x3d2ee0c0	0.042694807
94	0x3d1a64f6	0.03769394
95	0xbdb64873	-0.08900537
96	0xbd871902	-0.06596567
97	0xbd95d38c	-0.0731574
98	0x3d6cf459	0.057850216
99	0xbd2cff1e	-0.042235486
100	0x3d9e5f8e	0.07733069
101	0xbc459ab9	-0.012060815
102	0xbc983735	-0.018581012
103	0x3cba12bf	0.022714017
104	0xbda47ed6	-0.080320045
105	0x3c21c2b6	0.009873083
106	0xbd627fc9	-0.055297647
107	0x3b6fbdc2	0.003658161
108	0xbd971de3	-0.07378747
109	0xbd7b833d	-0.061404455
110	0x3c74830e	0.014923824
111	0xbd893e5d	-0.06701348
112	0xbd97efa0	-0.07418752
113	0xbbe57f95	-0.0070037344
114	0x3b68897c	0.0035482338
115	0x3daa8342	0.08325817
116	0x3bec4683	0.007210554
117	0xbd21fa86	-0.03954556
118	0xbd9b0077	-0.07568448
119	0x3d17de69	0.03707734
120	0xbd7275c5	-0.059194345
121	0x3d8a3ef0	0.067502856
122	0xbd67d309	-0.056597743
123	0xbcea3842	-0.028591279
124	0x3d8ce547	0.06879669
125	0xbd2e2b3b	-0.042521697
126	0xbd2cc827	-0.042183068
127	0x3d9ef6ad	0.077618934
128	0xbd1495ee	-0.036275797
129	0x3d91e642	0.07123996
130	0x3da1bbda	0.07897158
131	0x3dac4d2d	0.084131576
132	0x3bd56c94	0.0065131877
133	0xbd0883a4	-0.033328667
134	0x3d35a7c6	0.044349454
135	0x3d5b99bd	0.053613413
136	0x3d1e2e9e	0.038618676
137	0xbd3d949a	-0.046284296
138	0x3d5a966d	0.053366113
139	0xbd291c1d	-0.041286577
140	0x3d8498a1	0.06474424
141	0xbcd6a9d6	-0.026204031
142	0x3d2846f0	0.041083276
143	0x3d858dd0	0.06521189
144	0xbd910ece	-0.07082902
145	0x3d8b2380	0.067938805
146	0x3c3734f6	0.01118206
147	0x3d994afe	0.07485007
148	0x3cff5797	0.031169696
149	0xbd9d2be1	-0.07674385
150	0x3da0edd4	0.07857862
151	0x3d7da148	0.061921388
152	0xbd5ccf82	-0.053908832
153	0xb9b4d7fa	-0.0003449319
154	0xbda37bcf	-0.07982599
155	0x3d8c6e13	0.068569325
156	0xbbb4b184	-0.0055143256
157	0xba79dab4	-0.00095311855
158	0x3d63e017	0.05563363
159	0x3bd49284	0.0064871926
160	0x3dad88a4	0.08473328
161	0x3cfeace7	0.031088306
162	0x3af0d241	0.0018373207
163	0xbd6e6595	-0.058202345
164	0x3d29ae64	0.041426077
165	0xbda103d3	-0.078620575
166	0x3d52b098	0.051437944
167	0xbcf3d360	-0.029763877
168	0x3da1d14b	0.079012476
169	0x3cc3b8bb	0.023891797
170	0xbc836743	-0.01604045
171	0x3c2f9131	0.010715769
172	0xbc83f427	-0.016107632
173	0x3d901489	0.07035167
174	0x3d94a87a	0.07258697
175	0xbd060892	-0.032723017
176	0x3d5c406b	0.05377237
177	0xbcf7fe2c	-0.030272566
178	0xbd77f501	-0.06053639
179	0xbd9c0683	-0.076184295
180	0x3c1fa9f7	0.009745113
181	0x3bb5cde2	0.005548225
182	0xbd9985a7	-0.07496195
183	0xbbae360e	-0.0053165024
184	0x3dc0b90c	0.09410295
185	0x3d918ec5	0.07107309
186	0x3d24b449	0.040210996
187	0xbd985ba2	-0.074393526
188	0xbd8254ae	-0.063638076
189	0x3d424bb0	0.047435462
190	0x3d285f75	0.04110666
191	0x3d488ae3	0.048960578
192	0xbd1ec54d	-0.03876238
193	0xbc524c4d	-0.012835574
194	0x3db11d37	0.086481504
195	0x3d3227eb	0.0434951
196	0x3d93bacc	0.07213363
197	0x3dbcd977	0.092211656
198	0xbd902858	-0.07038945
199	0x3ca1d88e	0.019756582
200	0x3cbefcac	0.023313843
201	0x3cb43332	0.021997068
202	0x3d39fe9c	0.04540883
203	0xbd1c7726	-0.038199566
204	0x3d0633b9	0.03276417
205	0x3db19f2f	0.0867294
206	0xbd0aadcc	-0.033857152
207	0x3dba9d67	0.09112053
208	0x3d0bc792	0.034125872
209	0x3cf6bf1b	0.030120423
210	0x3d1b9f3b	0.03799365
211	0x3db3936d	0.087683536
212	0x3d71a75a	0.05899749
213	0x3d18bd89	0.03729013
214	0x3d4ecc01	0.050487522
215	0xbd4b4969	-0.049630556
216	0x3d266803	0.040626537
217	0x3dbbe0e1	0.091737516
218	0x3c0c0952	0.008547144
219	0xbd8a6ca6	-0.06759004
220	0x3d49c587	0.049260642
221	0xbd4d514f	-0.05012637
222	0xbcc83b22	-0.02444226
223	0xbd845d92	-0.064631596
224	0x3d2dcad7	0.04242977
225	0x3ce8d960	0.028423965
226	0xbc96a73e	-0.018390294
227	0xbd580ac6	-0.05274465
228	0xbb0fd225	-0.0021945324
229	0xbd97cc7f	-0.074120514
230	0x3d2c16ef	0.04201406
231	0x3daac343	0.083380245
232	0x3c52efcd	0.012874556
233	0xbd5f4868	-0.05451241
234	0x3dbf6c79	0.093468614
235	0xbd3c5734	-0.0459816
236	0x3d2de0db	0.042450767
237	0x3d8d23ab	0.06891569
238	0xbd94cec0	-0.07265997
239	0x3d3b06d6	0.045660816
240	0xbd6c6297	-0.05771121
241	0x3cff2fbe	0.031150695
242	0xbcfe6e25	-0.03105838
243	0x3b7b1696	0.0038313023
244	0xbd2fdda5	-0.042935986
245	0xbc76eb0f	-0.015070691
246	0xbd5e9b50	-0.054347336
247	0xbca8f749	-0.020625727
248	0x3ba49301	0.005022407
249	0xbda2f2ff	-0.07956504
250	0xbb8a0234	-0.0042116884
251	0x3c963d73	0.018339848
252	0x3d49e7f4	0.049293473
253	0xbd700a79	-0.058603738
254	0xbbed7df0	-0.007247679
255	0xbd2a1f53	-0.04153378

network.4.bias f4 [5]
0	0x3d735659	0.05940852
1	0xbd80756e	-0.06272398
2	0xbd9ed0b4	-0.07754651
3	0x3d30e864	0.043190375
4	0xbdb02c60	-0.08602214

network.0.weight f4 [128, 82]
0	0x3d56a97b	0.052407723
1	0x3d899e0b	0.067195974
2	0xbc044469	-0.008072951
3	0xbc066186	-0.008201962
4	0xbdb2217b	-0.08697792
5	0xbd3a841a	-0.045536138
6	0xbd03dc66	-0.03219261
7	0xbdb5edd7	-0.08883255
8	0x3dd0b865	0.101914205
9	0x3c08398b	0.008314501
10	0xbccbe3ab	-0.024888834
11	0x3c755d27	0.0149758225
12	0x3db912e0	0.09036803
13	0x3b89d00e	0.0042057103
14	0xbdd5c356	-0.10437648
15	0xbdf60be3	-0.12013986
16	0xbc228ee6	-0.009921765
17	0x3d81a220	0.06329751
18	0xbd544113	-0.051819872
19	0x3deb7559	0.11496992
20	0xbc43b55e	-0.011945097
21	0xbbbebb94	-0.005820701
22	0x3d1ced47	0.038312223
23	0xbb97eda8	-0.004636485
24	0xbda9c5b5	-0.08289663
25	0xbd85ebfb	-0.0653915
26	0x3d9db8a0	0.0770123
27	0xbdc5e2a3	-0.09662368
28	0xbe029fae	-0.12756225
29	0x3d3283e2	0.043582805
30	0x3da3fe59	0.08007497
31	0x3d55c061	0.05218542
32	0xbcfb3765	-0.030666063
33	0x3d67d914	0.056603506
34	0xbdb5726e	-0.08859716
35	0xbd85f095	-0.06540028
36	0x3da05cbb	0.07830187
37	0xbc61ed90	-0.0137895495
38	0xbd161aa4	-0.0366465
39	0xbdae016e	-0.084963664
40	0xbde77a2f	-0.113026015
41	0x3d90210a	0.07037552
42	0xbc08bd84	-0.008345965
43	0x3d02e5ad	0.031957317
44	0x3ce53115	0.027977506
45	0xbdc31a59	-0.0952651
46	0xbbbbd29f	-0.005731895
47	0x3d122064	0.03567542
48	0xbda8bfad	-0.08239684
49	0xbda7a0c9	-0.08184964
50	0xbc84144b	-0.016122958
51	0x3da5217f	0.080630295
52	0xbde6aff7	-0.112640314
53	0xbd11f051	-0.035629574
54	0x3d5d12be	0.053972952
55	0x3d273695	0.040823538
56	0x3c1fb0e6	0.009746766
57	0xbd283ef5	-0.041075666
58	0x3dec274d	0.115309335
59	0x3dc5fe28	0.09667617
60	0x3de29562	0.11063649
61	0x3d8a4861	0.067520864
62	0x3cf9f220	0.030510962
63	0xbd363bf0	-0.044490755
64	0x3df73754	0.120711
65	0x3dbde486	0.09272103
66	0xbd8b5b3d	-0.06804512
67	0xbd091cad	-0.033474613
68	0x3d0bf59a	0.03416977
69	0x3d7688ae	0.06018894
70	0x3d15e4a1	0.03659499
71	0x3d2b1599	0.041768644
72	0xbca79844	-0.020458348
73	0x3caaa0a3	0.02082855
74	0xbd7be9e0	-0.061502337
75	0xbd46eeb1	-0.048567478
76	0xbd82ec53	-0.063927315
77	0x3d6ed41c	0.058307752
78	0xbdb56a5e	-0.088581786
79	0x3d9c1823	0.07621791
80	0x3de59ce2	0.11211564
81	0x3c29a0bb	0.010353263
82	0x3d9b7de1	0.07592369
83	0xbd3048c3	-0.04303814
84	0xbd438509	-0.047734294
85	0xbd687421	-0.056751374
86	0x3da791b3	0.08182087
87	0xbde985f3	-0.11402502
88	0xbd5c0281	-0.053713325
89	0xbb9e2c44	-0.004827054
90	0xbd3c7999	-0.046014402
91	0x3c5bbc73	0.013411629
92	0x3c32c65f	0.010911553
93	0x3d91362d	0.07090411
94	0xbd3c46ac	-0.045965835
95	0x3cf06d55	0.029349009
96	0xbcafef60	-0.021476448
97	0x3d9b69d3	0.07588544
98	0xbd2786ef	-0.040900167
99	0x3c335b5a	0.010947073
100	0x3d979d3a	0.074030355
101	0xbc1016d1	-0.008794502
102	0xbd27d044	-0.040970102
103	0xbcab0101	-0.020874502
104	0xbdf16652	-0.11787094
105	0x3dbe5182	0.0929289
106	0xbd3cec43	-0.046123754
107	0xbcc7c45b	-0.024385622
108	0xbd8c96cf	-0.06864702
109	0x3e01df3a	0.1268281
110	0x3d06b20e	0.03288465
111	0xbda95e0e	-0.08269893
112	0x3c9b858d	0.01898458
113	0x3d6c55d4	0.05769904
114	0xbd8f5fb7	-0.07000678
115	0x3d9348e2	0.07191636
116	0x3d5fb08e	0.054611735
117	0x3d3d5bf7	0.046230283
118	0x3de2d4e4	0.11075762
119	0x3c82dd6b	0.015974721
120	0xbd8310a3	-0.063996576
121	0xbdaa3b93	-0.08312144
122	0x3d462b1c	0.048380956
123	0xbd5ee1a5	-0.05441441
124	0xbd216350	-0.039401352
125	0x3d164a44	0.03669192
126	0xbdeec96b	-0.11659511
127	0xbd0c5c92	-0.03426797
128	0xbc70532f	-0.01466827
129	0x3d4b9fc8	0.049712926
130	0x3d7c5062	0.061600097
131	0x3d94d271	0.07266701
132	0x3d7e26b7	0.06204864
133	0xbcb36788	-0.021899953
134	0x3dc41729	0.0957473
135	0xbd1c1f54	-0.038115814
136	0xbdc69950	-0.09697211
137	0x3d879f4f	0.066221826
138	0x3c43d367	0.011952258
139	0x3d8aa01d	0.067688204
140	0x3d8b14a7	0.067910485
141	0xbc6063b7	-0.013695649
142	0x3de9c39e	0.11414264
143	0x3ccd0c77	0.025030358
144	0x3d742f95	0.05961569
145	0xbdd86d6a	-0.10567744
146	0xbda502d8	-0.08057183
147	0xbd8aece5	-0.06783465
148	0x3d9084a3	0.070565484
149	0x3cc93e4d	0.02456584
150	0xbd0887f3	-0.033332776
151	0xbd2ae973	-0.04172654
152	0x3dec04c9	0.1152435
153	0xbd806036	-0.06268351
154	0xbd7709db	-0.060312133
155	0xbd663d11	-0.05621058
156	0xbdd19ac3	-0.102345966
157	0x3b9ab586	0.0047213463
158	0x3baf2b4e	0.0053457385
159	0x3cfc078a	0.030765314
160	0xbd497a93	-0.04918916
161	0xbce9c9de	-0.02853864
162	0x3da87ca7	0.082269005
163	0xbc687897	-0.014188907
164	0xbda0a362	-0.07843663
165	0x3d17be11	0.037046496
166	0xbddc6e86	-0.10763268
167	0xba920582	-0.0011140557
168	0x3d8be805	0.068313636
169	0x3cf1bd02	0.029509071
170	0x3e064345	0.13111599
171	0x3de11f58	0.109923065
172	0x3e07d74b	0.13265721
173	0x3dcc76ac	0.09983572
174	0x3d7b57af	0.06136292
175	0x3d8fda8d	0.07024107
176	0x3d2a529a	0.04158268
177	0xbd663183	-0.05619956
178	0xbcad60b4	-0.021164276
179	0x3c6c426d	0.014420134
180	0xbd0ea54a	-0.0348256
181	0x3dea990b	0.11454972
182	0xbd06513b	-0.03279231
183	0xbb8674cb	-0.0041032783
184	0xbdd46af5	-0.10371963
185	0x389ecfe6	7.572751e-05
186	0x3d998fa4	0.074981004
187	0xbdfd346a	-0.12363513
188	0xbdb927f1	-0.09040821
189	0x3be9345c	0.0071168374
190	0x3d065b3e	0.03280186
191	0xbd9d0377	-0.076666765
192	0xbdfdc714	-0.12391487
193	0xbd0ad851	-0.0338977
194	0x3c6ecf60	0.014575809
195	0x3d45ff0c	0.048338935
196	0xbd182649	-0.037145887
197	0x3c406950	0.011743858
198	0x3dab43c5	0.083625354
199	0x3db2e3ae	0.08734833
200	0xbdb50287	-0.08838373
201	0xbe01bd15	-0.12669785
202	0xbd9fec9d	-0.07808802
203	0x3c11ff9c	0.00891104
204	0xbdbe444a	-0.09290369
205	0xbd84f7ad	-0.06492553
206	0xbd7bc0b4	-0.061463073
207	0xb9d8f1d7	-0.00041378915
208	0xbd17322f	-0.036913093
209	0xbd6f197a	-0.058373906
210	0x3d1fc77c	0.039008602
211	0xbd3fe8e4	-0.04685296
212	0xbde26400	-0.1105423
213	0xbe073f1a	-0.13207665
214	0xbe08b0a7	-0.13348638
215	0x3ddffe89	0.109372206
216	0xbc64b1c9	-0.013958403
217	0x3d7c0386	0.061526798
218	0xbcc21e6c	-0.023696147
219	0x39d6c511	0.00040964087
220	0x3d119e90	0.035551608
221	0xbda1ac44	-0.07894185
222	0xbd8919e3	-0.066943906
223	0x3d057499	0.0325819
224	0x3d895476	0.06705563
225	0x3c36acc4	0.011149589
226	0xbc8dc9ed	-0.0173082
227	0x3cf43c6d	0.02981397
228	0x3c667da6	0.014068043
229	0x3d1383c3	0.03601433
230	0xbd85de5b	-0.065365516
231	0x3dc09307	0.09403043
232	0x3dd12bf5	0.10213462
233	0xbccdca05	-0.025120744
234	0xbbb231e4	-0.0054380763
235	0x3d90861e	0.07056831
236	0x3dbb46b2	0.091443434
237	0xbdc20aff	-0.094747536
238	0xbb70f264	-0.003676557
239	0xbd8223fe	-0.06354521
240	0x3d5b9932	0.053612895
241	0x3ce5ceee	0.028052773
242	0x3dab5414	0.08365646
243	0x3b22450f	0.00247604
244	0x3d9db67e	0.07700823
245	0x3c1c249e	0.009530215
246	0xbc4c0451	-0.012452201
247	0x3d4b3909	0.04961494
248	0xbd536c95	-0.051617224
249	0xbdcc7a6a	-0.09984286
250	0x3d9ccb2b	0.07655939
251	0xbd561474	-0.0522656
252	0x3dc08315	0.09400002
253	0x3d7c640f	0.06161886
254	0x3dbf24b2	0.09333171
255	0xbdad0edf	-0.08450102

network.0.bias f4 [128]
0	0x3b30bf6e	0.002696957
1	0x3c865842	0.016399506
2	0x3d703e53	0.058653187
3	0xbcca22e2	-0.024674837
4	0x3d96d700	0.07365227
5	0xbd4f471f	-0.050604936
6	0x3de79322	0.1130736
7	0xbd08e1d0	-0.033418477
8	0x3c6d50f8	0.0144846365
9	0x3dc83c74	0.097771555
10	0x3e03371c	0.12813991
11	0x3d3591c8	0.04432848
12	0x3da1adea	0.078944996
13	0x3d4cec22	0.05002988
14	0xbcc739a7	-0.024319483
15	0xbd908e38	-0.07058376
16	0xbd14651d	-0.03622924
17	0xbda75523	-0.081705354
18	0x3ce9cb1e	0.028539237
19	0xbd198d1d	-0.03748809
20	0x3e08b4ee	0.13350269
21	0xbda899f4	-0.08232489
22	0xbc95a209	-0.018265741
23	0xbc84457f	-0.01614642
24	0xbda5eb26	-0.08101492
25	0x3dcd3484	0.10019782
26	0xbdc6764b	-0.09690531
27	0x3daaac93	0.08333697
28	0x3dae4c9a	0.08510704
29	0x3dbd29fa	0.09236522
30	0xbd999fbc	-0.0750117
31	0x3b9f9a57	0.0048706937
32	0x3ad39ac4	0.0016144146
33	0xbdb2a224	-0.08722332
34	0xbd2cda28	-0.042200238
35	0xbd111ac5	-0.03542592
36	0xbc65bcac	-0.014022034
37	0x3d0aedd6	0.033918224
38	0x3dbedea4	0.09319809
39	0xbd5e76cf	-0.054312523
40	0x3dec9a91	0.11552919
41	0x3d95b46c	0.07309803
42	0x3ddab435	0.10678903
43	0xba03e8c0	-0.0005031936
44	0xbcd13165	-0.025536248
45	0x3daf875d	0.0857074
46	0x3d3b9763	0.04579867
47	0x3b84ecdf	0.0040565575
48	0xbdad4100	-0.084596634
49	0xbdc58c39	-0.09645886
50	0xbd226980	-0.039651394
51	0x3c8b74de	0.0170235
52	0x3c9809b8	0.018559322
53	0x3d4fe6dd	0.050757278
54	0xbd21d758	-0.03951201
55	0x3db7cd2c	0.0897468
56	0xbc3361ac	-0.01094858
57	0x3dbac266	0.0911911
58	0x3db8aab1	0.09016932
59	0x3cbe4e9c	0.023230843
60	0x3d27179d	0.040794004
61	0x3d88e9ac	0.066851944
62	0x3d359984	0.044335857
63	0xbda3da22	-0.0800059
64	0xbc95a756	-0.018268269
65	0x3d11951f	0.035542604
66	0xbc6efc9a	-0.014586592
67	0x3df6941c	0.12039968
68	0x3dabdd77	0.083918504
69	0xbbc89831	-0.0061216583
70	0xbdc4f309	-0.09616668
71	0x3df7a162	0.12091328
72	0x38d794f2	0.00010279742
73	0x3bf3fb8d	0.0074457587
74	0x3d90270f	0.070387
75	0x3bb4fdde	0.0055234274
76	0xbd9d99d0	-0.07695353
77	0xbc8e3a56	-0.017361801
78	0x3d4a502e	0.04939287
79	0xbbf4845a	-0.0074620666
80	0x3dc80ffc	0.09768674
81	0xbdc37c8d	-0.095452406
82	0xbc0e662c	-0.008691352
83	0x3d60c168	0.054871947
84	0x3dc36984	0.0954161
85	0x3db7da2f	0.08977162
86	0x3dc854a0	0.09781766
87	0x3c47dc07	0.012198455
88	0x3a9df895	0.0012052233
89	0xbd34fe76	-0.044187985
90	0xbd838148	-0.06421143
91	0x3d33c819	0.043892
92	0x3dd89d51	0.10576881
93	0xbd350a64	-0.044199362
94	0x3e026385	0.12733276
95	0x3dd3a2ae	0.10333763
96	0x3dfb02ab	0.12256368
97	0x3da8d5f9	0.08243937
98	0x3dde320f	0.10849392
99	0xbc8be3db	-0.017076423
100	0xbd4ba289	-0.049715552
101	0xbcabbf8a	-0.020965356
102	0x3dadd4d5	0.0848786
103	0x3ddd3f7d	0.10803125
104	0xbc7b421f	-0.015335589
105	0x3d31939c	0.043353662
106	0x3d153802	0.036430366
107	0xbd234859	-0.039863918
108	0xbdbad7e5	-0.0912321
109	0xbbe717bc	-0.00705239
110	0x3d831e0c	0.06402215
111	0xbd5ef438	-0.054432124
112	0xbc80c0c0	-0.01571691
113	0xbd4366a0	-0.047705293
114	0xbdb973ba	-0.09055276
115	0x3d347131	0.04405326
116	0x3dea540f	0.11441814
117	0xbddb3d71	-0.107050784
118	0xbb7cf2f4	-0.003859696
119	0x3dacf080	0.08444309
120	0x3d1658d2	0.0367058
121	0x3d8075ba	0.062724546
122	0x3d8ec98f	0.06972038
123	0x3dbb54fb	0.09147068
124	0x3db1231f	0.08649277
125	0x3dab2d47	0.08358245
126	0xbcb5472c	-0.022128664
127	0xbce6eb13	-0.028188264

network.2.weight f4 [128, 128]
0	0x3d9faf6c	0.07797131
1	0x3d60f595	0.054921705
2	0xbd854a94	-0.06508365
3	0xbbdf2a0a	-0.0068104314
4	0x3da2dd02	0.0795231
5	0x3bd91ae4	0.00662552
6	0xbd59d828	-0.05318466
7	0xbd25a0e2	-0.040436633
8	0x3d20293a	0.039101817
9	0x3d90ef8a	0.070769385
10	0x3cff7986	0.031185877
11	0x3bde1b95	0.0067781904
12	0xbd61850a	-0.055058517
13	0xbca62f82	-0.020286325
14	0xbd303f92	-0.043029375
15	0x3c7dd8da	0.015493596
16	0x3d9c9536	0.07645647
17	0xbd5399ee	-0.05166047
18	0xbd89a0bf	-0.06720113
19	0x3d2e445d	0.042545665
20	0xbca39cc3	-0.01997221
21	0x3da5d092	0.08096422
22	0xbb3c957c	-0.0028775623
23	0x3c1380e5	0.009002899
24	0x3dc5a547	0.09650665
25	0x3c6ec63d	0.014573631
26	0xbd55e778	-0.0522227
27	0xbc8e4b1c	-0.0173698
28	0xbd059758	-0.032615036
29	0xbc08d16f	-0.008350714
30	0x3d577904	0.052605644
31	0xbd687f81	-0.056762222
32	0x3c835579	0.016031967
33	0xbd05b3bc	-0.03264211
34	0x3dc93900	0.09825325
35	0x3dc77f80	0.097411156
36	0x3bc88e0a	0.006120448
37	0xbd59ab0a	-0.05314163
38	0x3d5c9083	0.053848755
39	0xbc86ade6	-0.016440343
40	0xbc531ff6	-0.012886038
41	0xbd4d5f9a	-0.05014
42	0xbcbc512e	-0.022987928
43	0x3d009cb0	0.03139943
44	0x3daea5e2	0.085277334
45	0xbbd87766	-0.0066060303
46	0xbac99a60	-0.001538109
47	0x38ceafe9	9.855611e-05
48	0xbd207061	-0.039169673
49	0x3cdf5c5a	0.027265716
50	0xbd88f1a6	-0.06686716
51	0xbdaaee54	-0.08346239
52	0x3d9a3c80	0.07531071
53	0xbd55c1be	-0.05218672
54	0xbd858021	-0.06518579
55	0x3c529b57	0.012854419
56	0x3d9716c2	0.073773876
57	0xbda35184	-0.07974532
58	0xbc6803ee	-0.014161093
59	0x3d83d731	0.06437529
60	0xbd2336ad	-0.039847065
61	0xbd195c5d	-0.0374416
62	0xbd035f39	-0.032073233
63	0x3d29906a	0.04139749
64	0x3c04031b	0.008057381
65	0x3dad02c2	0.08447792
66	0xbc0edbaf	-0.008719369
67	0x3ce06543	0.027392035
68	0x3dc1d4ca	0.094644144
69	0x3b8ac489	0.0042348546
70	0x3d9c0f3b	0.076200925
71	0xbd28df46	-0.041228555
72	0xbca5167d	-0.020152325
73	0x3d752d81	0.05985785
74	0xbd9905f8	-0.074718416
75	0x3c0a962e	0.008458657
76	0xbbb0f960	-0.0054008216
77	0x3d2aa12a	0.041657604
78	0xbd2a9dfd	-0.041654576
79	0x3cb04b09	0.021520155
80	0x3d8a52e7	0.067540936
81	0x3d141d87	0.036160972
82	0x3b73f02c	0.003722201
83	0xbdb1940b	-0.08670815
84	0xbd6c438c	-0.057681605
85	0x3d2ea37b	0.042636376
86	0xbd90194e	-0.070360765
87	0x3d90a5e9	0.07062895
88	0x3d25b931	0.040459815
89	0x3cf2db3e	0.029645558
90	0xbd96a216	-0.07355134
91	0x3d0c8a1a	0.03431139
92	0xbd36e83f	-0.04465508
93	0x3ad49f65	0.001622182
94	0x3d2ee153	0.042695355
95	0x3d84325c	0.06454918
96	0xbd11cddd	-0.035596717
97	0x3d54c96d	0.051949907
98	0x3d539563	0.05165614
99	0xbc546a6c	-0.012964826
100	0xbd828085	-0.063721694
101	0xbb8e00ee	-0.004333607
102	0xbbff57f2	-0.0077924663
103	0x3ba10b2d	0.0049146623
104	0xbbc9b2dd	-0.0061553554
105	0xbd2cc8eb	-0.042183798
106	0x3dbf78a2	0.09349181
107	0x3db6586d	0.08903585
108	0xbd56915b	-0.052384716
109	0x3bce3495	0.0062928894
110	0x3d99ea48	0.07515389
111	0x3d747d3a	0.059689738
112	0x3cfd5ee6	0.03092904
113	0xbd4106c5	-0.047125597
114	0xbd819fb1	-0.06329287
115	0x3dc3e761	0.095656164
116	0xbc4b2b70	-0.012400493
117	0xbdc21c29	-0.094780274
118	0x3d712f28	0.058882862
119	0x3d7b204d	0.0613101
120	0x3d09d0d6	0.033646427
121	0x3db1ef7e	0.08688258
122	0x3c4460e6	0.011985993
123	0x3d7cbd77	0.061704125
124	0xbc96927c	-0.018380396
125	0xbd610a51	-0.05494148
126	0x3cf805aa	0.030276138
127	0xbc95fa84	-0.018307932
128	0x3d745ae0	0.059656978
129	0x3d6dffba	0.058105208
130	0xbda73d7a	-0.081660226
131	0x3d6a5755	0.057212193
132	0xbd2a55db	-0.041585784
133	0x3d2cf820	0.042228818
134	0x3d45c094	0.04827936
135	0xbc98fdcf	-0.018675713
136	0xbccb5374	-0.024820067
137	0x3d7a75db	0.061147552
138	0xbb7fa26a	-0.0039006718
139	0xbda97b80	-0.08275509
140	0x3d8c4457	0.06848972
141	0x3d604c1d	0.054760087
142	0xbcd3465f	-0.025790391
143	0x3d985351	0.07437766
144	0xbc9640e0	-0.018341482
145	0xbd0778b7	-0.033074107
146	0xbba002f1	-0.004883163
147	0xbcc4f81c	-0.024044089
148	0x3d9c3741	0.07627726
149	0xbdc33e60	-0.095333815
150	0x3d50eaed	0.051005293
151	0x3b1b9a5f	0.0023743135
152	0xbc055f14	-0.008140344
153	0x3d832d73	0.06405153
154	0xbd552d58	-0.052045196
155	0x3c73e065	0.014885043
156	0x3d64b83f	0.055839773
157	0xbc6e8a93	-0.014559406
158	0x3d272d32	0.040814586
159	0x3d0ff543	0.03514601
160	0x3da7dcd4	0.081964165
161	0x3d8aded2	0.06780781
162	0x3d12bf5f	0.035827037
163	0x3d7bf4ab	0.06151263
164	0xbd8105eb	-0.06299957
165	0xbc30b9c9	-0.010786482
166	0xbd6c99b3	-0.057763766
167	0x3c78363f	0.015149652
168	0x3d675750	0.056479752
169	0xbd7210fc	-0.05909823
170	0x3d205af3	0.039149236
171	0x3d346518	0.044041723
172	0x3d16f5a0	0.03685534
173	0x3d9f478f	0.077773206
174	0x3c9e9848	0.019359723
175	0x3d2b7cfe	0.04186725
176	0x3af4c760	0.0018675141
177	0x3d8f11f8	0.06985849
178	0x3d6a4fae	0.057204895
179	0x3c9807b8	0.018558368
180	0xbd68808d	-0.05676322
181	0x3d21ece9	0.039532576
182	0x3d3cbf12	0.046080656
183	0xbd7b6be9	-0.061382208
184	0x3d97d5af	0.07413804
185	0xbd275fd3	-0.04086287
186	0x3d4ba3eb	0.04971687
187	0x3cfa3b07	0.030545725
188	0x3d6558aa	0.05599276
189	0x3da6aa6c	0.08137974
190	0xbd2d3599	-0.042287443
191	0x3c3d3771	0.011548863
192	0x3cfecefc	0.031104557
193	0xbd49b5ce	-0.049245648
194	0x3ca4ee38	0.020133123
195	0x3c620fa8	0.013797678
196	0xb9be1c96	-0.00036260922
197	0x3d555888	0.052086383
198	0x3ce85546	0.028360974
199	0xbd5b6afc	-0.053568825
200	0x3c213bb4	0.0098408945
201	0xbd1f4257	-0.038881626
202	0xbd7c6c70	-0.06162685
203	0x3c8716cb	0.01649036
204	0xbd9558fa	-0.072923616
205	0x3cc3dc59	0.02390878
206	0x3c105d0a	0.008811245
207	0x3dc87780	0.09788418
208	0xbd0927dc	-0.03348528
209	0xbd668bbf	-0.056285616
210	0xbd9d29f0	-0.076740146
211	0xbd72af9f	-0.059249517
212	0x3c30667f	0.0107666245
213	0xbd0d7752	-0.03453762
214	0x3d93cd25	0.072168626
215	0x3ccb5143	0.024819022
216	0x3da1d1d7	0.07901352
217	0xbd87430c	-0.06604585
218	0xbc8c8aa9	-0.017155962
219	0xbd9fa512	-0.077951565
220	0xbd3d3e94	-0.046202257
221	0xbd0b6bdb	-0.034038406
222	0x3cded64a	0.02720179
223	0x3cc2f3f8	0.023797974
224	0x3da48633	0.08033409
225	0x3d7c5593	0.061605047
226	0x3d831ab7	0.0640158
227	0x3dbbd741	0.09171916
228	0xbd9698cc	-0.073533624
229	0xbd8837b3	-0.06651249
230	0xbd563c38	-0.052303523
231	0xbd768adb	-0.060191017
232	0x3d258454	0.0404094
233	0x3d29598a	0.041345157
234	0xbd0a0eed	-0.03370564
235	0x3dc8a96b	0.09797939
236	0xbd2c545d	-0.042072643
237	0x3a9b7446	0.0011860214
238	0x3be744b1	0.007057749
239	0x3daeeb1e	0.08540939
240	0xbdb59ea3	-0.08868148
241	0xbce8f9f9	-0.028439509
242	0xbd8dc100	-0.069215775
243	0xbd24e9b3	-0.040261935
244	0x3d81dad4	0.06340566
245	0x3c6bc8da	0.014391148
246	0xbd3743d1	-0.04474241
247	0xbd360926	-0.04444232
248	0x3d718a2b	0.058969658
249	0x3d97b5a1	0.0740769
250	0xbd878892	-0.066178456
251	0x3cf792b6	0.030221324
252	0xbd554d7a	-0.05207584
253	0x3d37e315	0.044894297
254	0xbd280e81	-0.041029457
255	0x3ccf1314	0.025277652

network.2.bias f4 [128]
0	0x3d898eb4	0.067166716
1	0x3cf57e19	0.029967355
2	0xbc8ee196	-0.017441552
3	0xbd6d7420	-0.057972074
4	0x3d8f506c	0.06997761
5	0x3d6f45fe	0.05841636
6	0x3d994f7e	0.07485865
7	0x3dbd2186	0.0923491
8	0x3d8577ab	0.065169655
9	0x3bfcdbcb	0.007716631
10	0x3cd10093	0.02551297
11	0x3d31d690	0.043417513
12	0x3b6e7c78	0.0036390107
13	0xbcecacf3	-0.028891062
14	0x3dd01d43	0.10161831
15	0x3dc2bf74	0.09509173
16	0xbcb89fb4	-0.02253709
17	0xbc67f83a	-0.014158303
18	0x3d7eefc5	0.06224038
19	0x3d6fd620	0.058553815
20	0xbd94aef8	-0.07259935
21	0x3cddd933	0.027081108
22	0x3dd47a3a	0.10374875
23	0xbcbb9d3f	-0.02290213
24	0x3c6d5d43	0.014487567
25	0x3d8bcb4e	0.06825887
26	0x3d81faa8	0.06346637
27	0xbbd8b633	-0.0066135167
28	0x3dd122c8	0.10211712
29	0x3dabc1a3	0.08386543
30	0xbd8f987a	-0.070115045
31	0xbd66567f	-0.056234833
32	0x3c7a13ab	0.015263478
33	0x3dd149bb	0.10219141
34	0x3d76dc5e	0.060268752
35	0x3cb4ffa2	0.022094551
36	0x3d7beb15	0.06150349
37	0xbd8d2550	-0.068918824
38	0x3b242846	0.002504842
39	0x3db3979a	0.0876915
40	0x3dac0ebf	0.0840125
41	0xbdad3f51	-0.08459342
42	0xbb8246a5	-0.0039757066
43	0xb986b22b	-0.00025691217
44	0x3d8a4866	0.0675209
45	0xbd2b210a	-0.041779555
46	0x3d0e0214	0.03466995
47	0x3dafacef	0.08577906
48	0xbd470ce3	-0.048596274
49	0xbd985f48	-0.074400485
50	0xbd5d18df	-0.053978797
51	0x3d55e123	0.05221666
52	0xbd43b67a	-0.047781445
53	0xbd8ace4a	-0.06777628
54	0x3d4b6ace	0.049662404
55	0x3d4270a6	0.04747071
56	0xbd475cd1	-0.0486725
57	0xbcef7767	-0.02923174
58	0xbd18aa88	-0.037272006
59	0xbdbd3a55	-0.092396416
60	0xbd1c776b	-0.038199823
61	0xbd59a299	-0.05313358
62	0x3d666719	0.056250665
63	0x3d8ff8d1	0.0702988
64	0xbd34f118	-0.044175237
65	0x38ddf776	0.000105841944
66	0x3c8a8adf	0.016911922
67	0xbd9e9bfc	-0.077445954
68	0x3d54fff5	0.052001912
69	0xbbed7611	-0.0072467406
70	0x3c502c77	0.012705914
71	0xbd9c1f55	-0.076231636
72	0x3b4256fb	0.0029653895
73	0xbd0b5dd6	-0.034025036
74	0x3d6afa2c	0.05736749
75	0x3da8475d	0.082167365
76	0xbd80cb13	-0.06288733
77	0x3d98da71	0.074635394
78	0x3d458ef9	0.048232052
79	0x3d1348e7	0.035958197
80	0x3d648170	0.055787504
81	0x3d2e5605	0.042562503
82	0x3d94aaf1	0.07259167
83	0x3cc387e2	0.023868505
84	0xbce45d32	-0.02787647
85	0x3d06e62f	0.032934364
86	0xbda53cb8	-0.08068222
87	0xbced2282	-0.028947119
88	0xbd3255cc	-0.043538854
89	0xbd16b925	-0.03679766
90	0xbcbbb191	-0.022911819
91	0xbb51eca3	-0.0032031916
92	0xbd1f598e	-0.038903765
93	0x3d22ecb9	0.039776538
94	0xbb9ef2c6	-0.004850718
95	0x3dc02339	0.09381718
96	0xbce2a616	-0.027667087
97	0x3b2877c5	0.0025706154
98	0xbd3db668	-0.046316534
99	0xbd88a500	-0.06672096
100	0x3d8551e5	0.06509761
101	0xbda2ec28	-0.079551995
102	0x3d883ba0	0.066519976
103	0xbd884517	-0.06653803
104	0x3c93c731	0.018039318
105	0xbc367994	-0.011137385
106	0xbd6e1583	-0.058125984
107	0xbc031bbf	-0.008002221
108	0x3d442780	0.047889233
109	0x3d957982	0.072985664
110	0x3c8eff2a	0.017455656
111	0x3adabfc4	0.0016689231
112	0xbdbecefb	-0.09316822
113	0x3d685d8f	0.05672985
114	0x3dccfd34	0.10009232
115	0x3d958dd8	0.07302445
116	0xbda3ea43	-0.08003666
117	0x3d818993	0.06325068
118	0xbd3fee7a	-0.04685829
119	0xbc5a590b	-0.013326894
120	0xbd68699d	-0.056741346
121	0xbd145d8d	-0.03622203
122	0x3dac85c3	0.084239505
123	0x3b8158fb	0.003947375
124	0x3dbb8bb1	0.091575034
125	0x3da8b0b9	0.08236832
126	0x3cc5b92f	0.024136154
127	0x3dad9555	0.084757484
