models_backup/maddpg/best_ep4/agent_0.pth (torch, 378894 bytes, 22 tensors)

network.0.weight f4 [128, 14]
000000 a6 bd 7c be 3a d3 1a be 12 6d 4e be ea 86 82 be
       -0.2468172 -0.15119639 -0.20158795 -0.25493556
000010 bc 7b d8 3d 04 dd 73 bd 7d c4 56 be 40 23 d1 3c
       0.105704755 -0.05953695 -0.20973392 0.025529504
000020 80 c3 96 bb 50 a3 2b 3e 54 dd 98 3d 38 11 7b 3d
       -0.004600942 0.16761518 0.0746409 0.061295718
000030 1c b7 07 3e 20 d1 34 bc b8 b0 5a bd 85 a6 7e be
       0.13253444 -0.011036187 -0.05339119 -0.2486821
000040 ac 82 23 3e 4c e4 42 3e 4a 92 8c bd 00 e0 e8 38
       0.15967816 0.19032401 -0.0686384 0.00011104345
000050 f8 aa 4e 3e b0 95 35 3d 61 2b 32 be 9c b2 5d 3e
       0.20182407 0.044332206 -0.1739936 0.21650165
000060 1c c0 d2 3d 7a 15 11 3e f8 d5 67 bd 32 52 ed bd
       0.10290548 0.14168349 -0.05660054 -0.11587943
000070 ba 2d 7e be ce fd b2 bd e8 0e 28 3e 78 69 88 3d
       -0.24822131 -0.08739816 0.16411936 0.066607416
000080 1a 96 25 3e 22 3c d1 bd e0 cb 6f be fa 0d 45 3e
       0.1617054 -0.102165475 -0.23417616 0.19243613
000090 20 bf 5f 3d f4 3c b8 3d 78 58 69 3d 96 58 e7 bd
       0.05462563 0.08996001 0.056969136 -0.11296193
0000a0 54 ec 93 3d a0 1e dc 3c 90 04 44 3e d0 59 87 3c
       0.072228104 0.026870072 0.19142365 0.016522318
0000b0 10 2a 53 be 18 b4 dc 3d a2 1c 47 be 80 8e ff 3c
       -0.20621514 0.10776538 -0.19444516 0.031195879
0000c0 76 96 5f 3e 2a e4 17 be 8c 08 64 3e 62 12 49 be
       0.2183474 -0.14833131 0.22268885 -0.19635919
0000d0 67 8c 81 3e b8 e3 2a bd f8 30 a9 3d 2c 59 ad 3d
       0.2530243 -0.041721076 0.08261293 0.08464274
0000e0 ba b5 43 3e 60 1f 07 bc e8 5f 6a be 82 a7 75 3e
       0.19112292 -0.0082472265 -0.22888148 0.2398968
0000f0 ec c1 dc 3d 52 0a 25 be 40 dc 7e 3d 64 4c 45 3e
       0.10779175 -0.16117218 0.062221766 0.19267422
000100 62 05 fc bd 42 b6 48 3e 70 d8 e1 bd 88 0d f6 3d
       -0.12305714 0.19600776 -0.1102761 0.120143
000110 58 69 84 bd e6 68 d2 bd cb b3 76 be 80 39 a7 3c
       -0.06465405 -0.10273914 -0.24092023 0.02041316
000120 90 21 ac 3d 32 d6 eb bd 16 c6 37 3e c0 d1 37 3e
       0.08404839 -0.11515464 0.17946658 0.17951107
000130 82 70 4a 3e 4e 5e 3f 3e ac 60 98 3d d4 32 be 3d
       0.19769481 0.18688318 0.07440314 0.092870384
000140 96 ab 2b 3e c2 ec 35 be 8f bf 75 be f2 9d 02 3e
       0.16764674 -0.17766097 -0.23998855 0.12755564
000150 49 e8 65 be d0 d2 34 3e 74 88 8c bd 64 b1 74 bd
       -0.22451891 0.17658544 -0.06861964 -0.059739485
000160 b7 a3 81 be ca 13 ad bd 60 46 15 be 7c 7b 7b bd
       -0.25320217 -0.0845104 -0.14577627 -0.06139706
000170 4b cc 84 3e b8 03 d4 3d ba 7e 73 be b6 36 5d 3e
       0.25937113 0.10352272 -0.23778811 0.21602902
000180 30 b0 5f be b0 be 24 bd c6 0f 0b be 5c 72 ac 3d
       -0.21844554 -0.040220916 -0.13580236 0.0842025
000190 7e d2 32 3e 98 9d 83 bd 78 b7 31 3d 30 36 d5 3c
       0.17463109 -0.06426543 0.04338786 0.026026815
0001a0 08 28 fd 3d 10 03 95 bc 0a 80 84 be a8 a7 e7 bc
       0.12361151 -0.018189937 -0.25878936 -0.028278187
0001b0 f4 24 83 3d 10 12 12 3d c8 23 23 3d c8 53 ae bd
       0.064035326 0.035661757 0.039829046 -0.08512074
0001c0 b6 03 39 be ad 29 44 be 28 1e b1 3d 66 bf 51 be
       -0.18067822 -0.19156523 0.0864833 -0.20483169
0001d0 c8 6c df bd 8a 0e 37 be 88 64 ff 3d fe 59 04 3e
       -0.1090942 -0.1787664 0.12470347 0.12924954
0001e0 f0 7d aa 3d 82 43 0d 3e fe 5f 77 be c8 a8 88 3d
       0.08324802 0.13795283 -0.24157712 0.066728175
0001f0 20 d9 07 3e 34 70 1d 3e 26 bf 72 be 40 85 5e bc
       0.1326642 0.15374833 -0.2370573 -0.013581574
000200 19 38 23 be 00 84 16 3c 5e 8f 2c be 22 9e 44 3e
       -0.15939368 0.009186745 -0.16851565 0.19200948
000210 d0 cf 95 3c e2 86 14 3e 20 c3 49 3e 8b 4c 87 3e
       0.01828757 0.14504579 0.1970334 0.26425585
000220 08 92 e8 3d 9c 3d 3b 3e 8d 0d 1f be 24 bd 40 bd
       0.11355978 0.18285221 -0.15532513 -0.04705538
000230 20 21 40 3c 40 b2 85 bb 0a 3c 83 bd 74 12 b5 3d
       0.011726648 -0.004080087 -0.06407936 0.0884141
000240 f8 45 6d bd 2c ab 45 bd 7a 0e 96 bd 90 0d 63 3d
       -0.057928056 -0.048258945 -0.0732698 0.055432856
000250 08 fe cd 3d 8c 17 ee 3d 72 3c 2a be 18 5a 1e be
       0.10058218 0.11625585 -0.1662462 -0.15464056
000260 b0 2e df 3d c8 c5 ad 3d 98 f6 47 be 74 30 5c be
       0.10897577 0.084849894 -0.19527662 -0.21502858
000270 54 32 ad 3d 00 76 5b 3b 88 59 3a bd 56 ad 46 be
       0.08456865 0.0033487082 -0.04549554 -0.1940206
000280 28 91 cf bc b0 e6 a6 3d 4c 9f 3e be b8 16 33 3d
       -0.02533777 0.08149469 -0.18615454 0.04372284
000290 c8 30 b8 3d 40 ed f7 bb 50 58 85 bc d2 9d 4e be
       0.08993679 -0.007566124 -0.016277462 -0.20177391
0002a0 20 76 d6 3c 48 ae ee bd bd 44 82 3e 50 81 52 3e
       0.026179373 -0.11654335 0.25443068 0.20557141
0002b0 78 4d b0 3d c2 f3 6a be f2 ec 87 be a5 e2 84 be
       0.08608526 -0.22944549 -0.26547962 -0.25954166
0002c0 64 95 ad 3d 2e 65 6e 3e 20 9d 65 3e 5e 93 25 3e
       0.084757596 0.23280784 0.2242322 0.16169497
0002d0 40 86 3e bc ec 84 0f be c4 42 42 be a2 9a 54 be
       -0.011628687 -0.1401555 -0.18970782 -0.20762113
0002e0 80 6b 5f be 08 69 1b be ea 53 2a 3e ee 6c 1c 3e
       -0.21818352 -0.15176785 0.16633573 0.15275928
0002f0 f0 f9 4a be 28 3a 1a 3d 84 5d 06 bd 50 c7 b3 bc
       -0.19821906 0.03765312 -0.032804027 -0.021945626
000300 28 3b 44 3e e0 3b 52 be 78 61 8c 3d 32 e2 3a 3e
       0.19163191 -0.20530653 0.06854528 0.18250349
000310 48 60 d7 3d 00 cd 89 3a fc 5b 07 3e 04 3b 3e be
       0.10516411 0.0010513365 0.13218683 -0.185772
000320 3c 74 39 be 50 e1 0e be c4 1b 10 be ea f3 43 3e
       -0.18110746 -0.13953137 -0.14073092 0.19136015
000330 0e 28 05 3e fc a3 fa 3d 00 a9 61 bc 00 ad e3 bd
       0.13003561 0.12238309 -0.013773203 -0.111169815
000340 0a 39 6c be 10 3c 49 3e 75 a2 22 be de 46 96 bd
       -0.23068634 0.19651818 -0.15882285 -0.073377356
000350 2a 7c b1 bd 82 32 57 3e 86 5a 77 be 50 ed e5 3d
       -0.086662605 0.21015361 -0.24155626 0.112269044
000360 ba ca 51 3e 1c af 2d 3e 60 c0 52 3e 05 16 71 be
       0.2048749 0.1696133 0.20581198 -0.23543556
000370 00 1b 91 3c 90 09 25 3d d0 6e da bc d0 24 99 3d
       0.01771307 0.040292323 -0.026664168 0.074777246
000380 4a 79 71 3e 18 ba 51 3e 98 04 17 3e 39 94 87 3e
       0.23581424 0.20481145 0.14747846 0.26480272
000390 f8 fc f2 bd 36 ad b2 bd 04 4f 4a be 5e 14 45 3e
       -0.11864656 -0.087244436 -0.19756705 0.1924605
0003a0 c0 c0 24 3c 38 b5 11 3d 40 9d e0 3b a0 bb 58 be
       0.010055721 0.035573214 0.006854683 -0.21165323
0003b0 20 ba 01 3c 5a f8 80 bd 68 f5 44 3d 43 eb 83 3e
       0.007917911 -0.06297369 0.0480856 0.25765428
0003c0 e0 55 ff 3c b0 2f 6c 3e 30 dd 3a be c0 fd b8 bc
       0.031168878 0.23065066 -0.18248439 -0.022581935
0003d0 f8 dd d6 3d 90 fb 5b 3d d0 32 8b bd 0a d9 19 3e
       0.10491556 0.053706706 -0.06796801 0.150242
0003e0 00 f1 0f bc c6 a6 3a 3e e8 fb 47 3d 9b 9d 7d be
       -0.008785486 0.18227682 0.04882422 -0.24767153
0003f0 cc 3e 73 bd 2c d7 dd 3d 4b dd 50 be c0 ed 81 bd
       -0.05938606 0.108320564 -0.20396917 -0.06344175

network.0.bias f4 [128]
000000 9e 6d 6f be 9c 7a 28 be 8a c4 d3 bd 7c 25 25 3e
       -0.2338166 -0.16453022 -0.10340221 0.1612758
000010 4e 8a 47 3e d8 f3 55 3e dc 76 68 be e0 66 76 3c
       0.19486353 0.208938 -0.22701591 0.015039176
000020 a0 8c 84 bc 60 c3 11 bc e0 24 5e 3c b8 5c 08 3e
       -0.016180336 -0.008896679 0.013558596 0.1331662
000030 de 9e 4f 3e 16 c1 be bd b3 15 73 be ef ad 31 be
       0.20275447 -0.09314172 -0.23738746 -0.17351507
000040 10 c9 88 3c 4c e4 2a bd fc bd 3d be f9 aa 87 be
       0.016697437 -0.041721627 -0.18529505 -0.2649763
000050 8e 71 7b 3e 24 eb fc bd b0 07 f2 3c aa 1b 2b 3e
       0.24555036 -0.12349537 0.029544681 0.16709772
000060 6f e7 36 be dc e6 ef bd 1f e1 4b be 2e f9 23 3e
       -0.17861722 -0.11713955 -0.19910096 0.16013023
000070 a8 ba 8e bd 40 ba db bb c8 88 42 3d c0 7f ec bb
       -0.069691956 -0.0067055523 0.047493726 -0.0072173774
000080 00 17 33 3b 16 ab 5b be 27 c4 67 be 23 7e 86 3e
       0.0027326941 -0.21451983 -0.2263342 0.2626811
000090 8c 93 2e be d0 33 5d 3e 28 d5 50 3e c2 fa 06 3e
       -0.17048472 0.21601796 0.20393813 0.13181594
0000a0 a4 ba eb 3d ae 4e 11 3e b0 ee b7 3c be 3d 45 3e
       0.11510208 0.1419017 0.022452682 0.19261834
0000b0 50 a4 22 3e 20 e7 3c 3e 8a a4 70 3e a4 70 06 3e
       0.15882993 0.18447542 0.23500267 0.13128906
0000c0 00 43 42 3d 60 74 24 3c d6 c0 2c 3e ac b0 4a bd
       0.047427177 0.010037512 0.16870436 -0.049484894
0000d0 ea 1e 3d 3e 48 26 f4 bd f4 b7 03 bd 66 c4 d1 bd
       0.18468824 -0.11921364 -0.032157853 -0.10242538
0000e0 76 86 77 be b3 59 67 be 68 57 f8 3d ce c9 88 be
       -0.24172387 -0.22592811 0.121260464 -0.26716465
0000f0 56 31 a1 bd c3 9a 10 be 30 bb 8e bd 60 47 30 3d
       -0.07870738 -0.14121537 -0.06969297 0.04303682
000100 e0 37 d2 bd 8e 81 87 bd 00 26 33 bc 54 78 1f bd
       -0.102645636 -0.066165075 -0.010934353 -0.038933113
000110 00 19 82 be 5c 69 75 bd 47 17 87 3e 22 04 26 3e
       -0.25409698 -0.05991493 0.26384947 0.16212514
000120 a6 18 76 be 18 33 d1 3d 0c 01 7c bd 08 40 3b 3d
       -0.2403284 0.102148235 -0.061524436 0.04571536
000130 90 9c c2 3c 30 84 53 be ea d5 79 3e 18 de 92 3d
       0.023756295 -0.20655894 0.24398008 0.07171267
000140 cc 1d 53 bd 16 03 08 be dc f2 4b 3e f6 90 d4 bd
       -0.05154209 -0.13282427 0.19916862 -0.103792116
000150 1c ae ea 3d 70 5d 46 bd 4c fb 5a 3e 28 21 7b 3d
       0.1145899 -0.048428953 0.21384925 0.061310917
000160 e4 94 e6 3d c0 f6 8c 3d 00 c8 5d be 5f 13 45 be
       0.112588674 0.06883001 -0.21658325 -0.1924567
000170 bc 57 b1 3d 9e 21 21 be ae eb 48 3e 12 8e 42 be
       0.08659312 -0.1573548 0.19621155 -0.18999508
000180 4f 75 83 3e cd 90 5d be e8 80 61 3d 24 60 4a 3e
       0.25675437 -0.21637268 0.055054575 0.19763237
000190 d1 f0 77 be 40 a6 47 3e b4 5b 30 be 80 9b 0a bb
       -0.24212958 0.19497013 -0.17222482 -0.0021149814
0001a0 c4 1f ea 3d a8 f6 be 3d b2 ea 74 3e 24 bc d3 3d
       0.1143184 0.0932439 0.23917654 0.10338619
0001b0 40 2a ed 3d 0a d1 31 be 00 a9 df 3a 16 65 7f be
       0.11580324 -0.17364898 0.0017063916 -0.24940905
0001c0 78 67 46 3e 08 0b 55 bd d8 60 76 bd 20 e0 a6 bd
       0.19375408 -0.052012473 -0.06015095 -0.08148217
0001d0 8c 58 e5 bd 80 9d fb bb b2 f6 42 3e 44 f1 af 3d
       -0.111985296 -0.0076786876 0.1903942 0.0859094
0001e0 d1 ef 2c be 42 62 20 3e e4 a7 63 3e 02 ce 23 3e
       -0.16888358 0.15662482 0.22232014 0.15996554
0001f0 60 32 a6 bc 1b b5 88 3e 12 be 7f 3e 90 94 66 be
       -0.020287693 0.26700673 0.2497485 -0.2251761

network.2.weight f4 [128, 128]
000000 3e f2 41 3d 00 2f 0a 3c 78 fc 7c bc f4 8b ea 3c
       0.04735016 0.008434057 -0.015441053 0.028631188
000010 f2 28 48 bd 8e 14 ac bd ab 61 ae 3d 2f e1 0a bd
       -0.048867173 -0.08402358 0.085147224 -0.033906158
000020 34 06 8b 3c 5d 45 9b 3d 2d e1 2b bd 02 55 6c bd
       0.016970731 0.07581589 -0.04196279 -0.057698257
000030 76 0a 7d bd 12 22 9b bd de 4a 51 3d dd f6 81 3d
       -0.061777554 -0.07574858 0.05109679 0.063459136
000040 38 db a5 bd 68 50 98 bc a0 14 19 3b 30 1f 0c 3c
       -0.08098453 -0.018593028 0.002335824 0.008552358
000050 51 2f 86 3d b2 56 1b 3d 2c 73 cb bc 72 3e 36 3d
       0.06551994 0.037924476 -0.024835192 0.044493146
000060 ec 67 8c 3c e5 89 89 bd d7 62 74 bd fa 77 43 3d
       0.017139398 -0.067157544 -0.059664574 0.04772184
000070 40 be 8e 3a d4 01 b7 3c 56 29 1e 3d cc 59 0c 3d
       0.0010890439 0.022339739 0.03861364 0.034265324
000080 f3 2f 88 3d 9c 7b 8b 3c 3c ab cd 3c 98 04 32 3c
       0.066497706 0.017026715 0.025106065 0.010865353
000090 33 96 a1 bd 2d 70 0b bd 80 e5 81 3c 9c 1d 98 bd
       -0.07889976 -0.034042526 0.015856504 -0.074275225
0000a0 02 b2 e9 bc c8 28 20 bd d9 43 1c bd e0 fe c0 bb
       -0.028527264 -0.039101392 -0.038150642 -0.0058897585
0000b0 56 f7 0a bd 4b da 83 bd 80 a5 0e bc 40 6e 3e bc
       -0.033927284 -0.064381205 -0.00870645 -0.011622965
0000c0 8c 8f 91 bc 94 7b 92 bc ac 61 c9 bc 30 d0 89 bb
       -0.017768644 -0.017881192 -0.024582706 -0.004205726
0000d0 33 8e 25 bd 7b 23 85 bd ce 6b 1d 3d 9e bf 94 bd
       -0.040418815 -0.06500908 0.03843289 -0.072631106
0000e0 a6 94 26 3d 80 20 e6 3b b6 e8 4c 3d 54 11 fb 3c
       0.040669106 0.0070229173 0.050026618 0.030647911
0000f0 38 ce e1 3c 60 00 f5 bb 36 c7 2f 3d a8 8c ef 3c
       0.027564153 -0.0074768513 0.04291459 0.029241875
000100 d7 84 1d bd 50 b7 12 bd d4 5b fe 3c 46 d1 1b 3d
       -0.038456764 -0.03581935 0.031049646 0.038041376
000110 31 6f 93 3d 00 14 30 3a 7c aa 05 3d c8 10 9f bc
       0.071989425 0.00067168474 0.03263329 -0.019417182
000120 48 23 d9 3c b4 47 e5 3c f1 d6 7e bd 5a 1d 57 3d
       0.026506081 0.027988292 -0.062216703 0.052518226
000130 b1 e4 8c 3d d0 1f 85 bb 36 80 14 3d 74 95 9e bd
       0.06879557 -0.0040626302 0.036255084 -0.0774335
000140 6e d1 68 3d 22 8c 0c bd fd 0a 9f 3d 3c dc b5 bc
       0.056840353 -0.03431333 0.07765768 -0.022199742
000150 3a af 68 bd d0 b4 78 3c e2 2c 0c bd 90 4e b9 3c
       -0.056807734 0.015179828 -0.03422249 0.02262047
000160 8e 3f 84 bd a4 e9 96 bd 12 03 25 3d 69 b6 96 3d
       -0.064574346 -0.07368782 0.04028613 0.07359011
000170 15 bf 8e 3d 96 e0 44 3d be 5c 49 3d 50 be a5 3c
       0.0697004 0.048065744 0.04916071 0.02023235
000180 d3 31 4f bd c0 08 cb bb a2 ea 04 3d 2c bd 9d 3c
       -0.050584625 -0.0061961114 0.032450326 0.019255243
000190 7f 5d 5a bd 68 44 b3 bc 08 05 2d bc 98 5d 52 bd
       -0.05331182 -0.021883205 -0.010560282 -0.05135879
0001a0 d7 0c a3 3d 7e 6b 49 3d 50 47 d0 bc 98 ec b1 bd
       0.079614334 0.04917478 -0.02542463 -0.08687705
0001b0 1c b2 7d bd 36 a1 3f bd 64 9f 9e bd 90 a3 ba 3c
       -0.061937436 -0.046784602 -0.07745245 0.02278307
0001c0 f4 05 0b 3d c0 9d b9 bc 57 91 a8 bd 80 db b6 3a
       0.033941224 -0.022658229 -0.082308464 0.0013950914
0001d0 54 43 e0 bc 58 77 24 bc b7 a8 1d bd 10 35 41 3c
       -0.027375855 -0.010038219 -0.038490977 0.011792436
0001e0 dd 29 9a 3d 00 e4 70 3b 37 cf aa 3d 76 58 10 bd
       0.07527516 0.0036756992 0.08340304 -0.035240613
0001f0 08 5f af bc a9 f6 a6 bd 0e 97 6d 3d 84 25 f5 bc
       -0.02140762 -0.081525154 0.058005385 -0.029925115
000200 5e dc 81 bd 54 aa a0 bc c9 a5 a5 bd e8 6d 05 bc
       -0.0634086 -0.019612469 -0.08088262 -0.0081438795
000210 ce 3d 4c bd 7c 20 37 bd f5 12 88 bd 90 5f 81 3b
       -0.04986363 -0.044708714 -0.06644241 0.0039481595
000220 9b 4b 4a bd 7b 46 8c 3d 04 74 df 3c c0 d8 1f bb
       -0.04938851 0.068493806 0.027277 -0.0024390668
000230 ee 6f 7d 3d 3f 62 8e 3d eb 64 a0 bd 74 12 eb 3c
       0.061874323 0.06952333 -0.078317486 0.028695323
000240 e8 3f 8f 3c d6 2d 65 3d 32 42 66 3d 26 0d 26 3d
       0.017486528 0.055951916 0.056215473 0.040539883
000250 c9 1d 01 bd 51 5b 76 bd 91 7b af 3d 70 28 da 3b
       -0.031522546 -0.06014568 0.0856849 0.0066576526
000260 65 af ad 3d 10 ea 91 bd 2d 13 40 bd b6 f1 0f 3d
       0.084807195 -0.07124722 -0.046893287 0.035142623
000270 4e b3 1d 3d 5b 22 b1 bd b8 ac de 3c b0 6e ab 3b
       0.038501076 -0.08649131 0.027181968 0.005231701
000280 9f 8d 93 bd 2d 5a 8e 3d ae 1c 78 3d a8 1c e7 3c
       -0.072047465 0.069507934 0.060574226 0.028211907
000290 bd ef a1 3d 94 32 e8 bc 72 21 25 3d 25 f9 a2 bd
       0.079070546 -0.02834443 0.0403151 -0.07957677
0002a0 10 90 32 bc c3 1a b3 3d 45 f3 8f 3d dc 5d 91 bc
       -0.010898605 0.08745339 0.07028822 -0.017744951
0002b0 28 46 88 bd 5b 9b 02 bd 48 71 40 bc 10 e9 32 3c
       -0.06654006 -0.03188644 -0.011745758 0.010919824
0002c0 3b 67 91 3d 80 e9 ba bb 13 67 ac bd 3c 31 d2 3c
       0.07099768 -0.005704105 -0.08418097 0.025658242
0002d0 84 04 aa bc c5 6b 13 bd 03 28 98 3d 98 e1 93 bc
       -0.020754106 -0.03599145 0.07429507 -0.018051907
0002e0 eb ff b1 3d e0 1b 0b bc 92 65 ea bc fa f5 11 3d
       0.086913906 -0.008490533 -0.028612886 0.035634972
0002f0 00 f8 69 bd 76 86 e8 bc 00 78 a2 bb ed 67 86 bd
       -0.057121277 -0.028384428 -0.004958153 -0.06562791
000300 30 be 0d 3c df df 5e bd 56 79 78 bd 40 cf da bc
       0.008651301 -0.05441272 -0.06066259 -0.026710153
000310 2d 9d 8d 3d c0 f9 2e bc 58 b0 4a bc 16 98 1a 3d
       0.069147445 -0.010679662 -0.012371145 0.037742697
000320 8c 50 ac 3c ae a0 5f 3d 97 bb ad 3d 3c 74 0a 3d
       0.021034501 0.054596595 0.084830455 0.033802256
000330 c0 61 ce bb 28 f6 6a 3c 42 5d 46 bd a6 dc 4d 3d
       -0.006298274 0.014340915 -0.04842878 0.050259255
000340 3b c4 33 bd 80 6d cb bc 70 59 1c 3c 62 a6 65 bd
       -0.04388831 -0.024832487 0.009542808 -0.05606688
000350 cb a7 93 3d ce 45 11 3d 98 48 91 bc bc 7d 92 bc
       0.07209738 0.03546696 -0.01773481 -0.01788222
000360 80 30 8c 3a 66 28 48 3d 16 bb 6d bd 8b e6 87 bd
       0.0010695606 0.048866652 -0.058039747 -0.066357695
000370 5a 9e 35 3d e8 d4 f1 3c f8 ce 89 3c 99 d6 9d 3d
       0.04434047 0.029520467 0.016822323 0.07706947
000380 b9 9a 8e bd 00 ce 9b bd e8 ee 8d bc 85 4f af bd
       -0.06963105 -0.07607651 -0.017325833 -0.08560089
000390 48 78 8e 3c 44 dd f3 bc ed 05 a5 3d e0 77 cb bb
       0.017391339 -0.029768594 0.08057771 -0.0062093586
0003a0 00 dd 13 bb 30 44 5f bc 25 c7 91 bd f8 f5 03 3d
       -0.0022562146 -0.013627097 -0.07118062 0.032216996
0003b0 81 79 30 bd ea dd 74 3d 23 42 37 bd 03 ba 6e bd
       -0.043084625 0.059781946 -0.044740807 -0.058282863
0003c0 fd 32 94 3d 04 ca 9b 3c 88 d4 fc 3c 18 dd 92 bc
       0.07236288 0.019017227 0.030863062 -0.017927691
0003d0 a8 83 17 bd 90 2b a1 3c d6 41 16 3d 11 1a 9f bd
       -0.03699079 0.019674093 0.03668388 -0.07768644
0003e0 02 75 4b 3d c0 ed f2 3a 58 c4 5e 3c b6 55 51 3d
       0.049672134 0.001853399 0.013596617 0.05110713
0003f0 91 2a 86 3d a5 e0 0e bd a0 57 5b 3c 38 ec 38 bc
       0.06551088 -0.034882206 0.013387591 -0.011286788

network.2.bias f4 [128]
000000 6d 66 29 bd 4f e4 9e 3d a2 11 46 bd c1 8b 39 bd
       -0.041357446 0.0775839 -0.04835666 -0.045299295
000010 f0 fc 6d 3c 38 50 14 3d bb 72 a8 bd 65 3c 95 3d
       0.014525637 0.036209315 -0.08225008 0.0728691
000020 df cb 88 bd ba 08 f8 bc 82 1c 54 bd ea 7b 19 bd
       -0.0667951 -0.030277599 -0.051785 -0.03747169
000030 08 3e 4b 3c 19 f3 16 bd f0 ae a3 bd 7e 76 37 3d
       0.012404926 -0.03685293 -0.07992351 0.044790737
000040 40 91 6b bc 93 8f 99 bd 98 67 67 bd 9b fe b3 bd
       -0.014377892 -0.07498088 -0.05649528 -0.087887965
000050 50 3f 08 bc a0 36 85 3c c0 2b b5 bb 59 fe a8 3d
       -0.008315876 0.016261399 -0.005528897 0.08251638
000060 6e d9 7b 3d 40 16 78 3c 48 60 43 3c d8 10 4a 3c
       0.061486654 0.015142024 0.011924811 0.012333117
000070 41 e5 64 bd 77 8b aa 3d 76 e3 d4 bc 61 2f 8a 3d
       -0.055882696 0.08327382 -0.025987368 0.06747318
000080 8e 29 f6 bc e6 4e 4b 3d 51 2f a8 3d 4e 7a 3d 3d
       -0.030049112 0.04963579 0.0821215 0.046259217
000090 f5 95 01 bd 0c ee 62 bd c5 15 80 3d 80 e8 c0 3b
       -0.03163715 -0.0554028 0.06254152 0.005887091
0000a0 0c df a0 3c 6a 59 a1 bd 23 fd 99 3d 18 23 a3 bc
       0.019637607 -0.078783825 0.07518985 -0.019914195
0000b0 10 03 07 3c fe 0e 52 3d 58 36 3f 3c 1e 8e 95 bd
       0.008240476 0.05128383 0.011670671 -0.07302497
0000c0 a5 30 83 bd 92 84 86 bd 59 c8 25 bd ad 4f 9d 3d
       -0.064057626 -0.065682545 -0.04047427 0.076812126
0000d0 15 6d 9f 3d 6d 13 13 bd 9a 79 61 3d 2c 98 b6 3c
       0.077844776 -0.035907198 0.05504761 0.022289358
0000e0 fa c3 01 3d b0 0a 83 3c 00 33 a4 3b 9d 39 0c bd
       0.03168104 0.015996307 0.0050109625 -0.03423463
0000f0 58 27 52 bd 25 5c 24 bd e8 7b 46 bd 1e ee 07 bd
       -0.051307052 -0.04012694 -0.04845801 -0.03318607
000100 e8 5d b1 3c f0 2c b6 bb b8 3a ce bc 58 ed b0 3c
       0.021651223 -0.005559556 -0.025174484 0.02159755
000110 18 e4 77 3c a8 f3 11 3d c0 26 44 3c d0 d8 8f bb
       0.015130065 0.03563276 0.011972129 -0.0043898597
000120 f6 90 59 3d d0 f9 b0 3b 12 34 8d bd 52 40 18 bd
       0.05311676 0.0054008737 -0.06894697 -0.037170716
000130 13 10 85 3d e5 df 90 bd 98 9f 82 bd 22 8c 33 3d
       0.064972065 -0.070739545 -0.06378096 0.043834813
000140 1a 0a 55 3d e1 27 af 3d 20 b6 05 3d 7d 84 38 bd
       0.052011587 0.08552528 0.03264439 -0.045048226
000150 e8 57 15 3d 72 bc 3a 3d 7b f6 9f bd b7 e3 23 bd
       0.036460787 0.04558987 -0.07810684 -0.040012088
000160 11 33 92 3d 28 8e 61 bc 5a 80 40 3d c7 33 a4 3d
       0.071386464 -0.013766803 0.046997406 0.08017688
000170 2d 3b 96 3d c0 56 14 3d b1 54 60 bd 70 53 88 3b
       0.07335506 0.036215544 -0.054768268 0.004160337
000180 0f ef 87 3d 71 f7 89 bd 60 ea de 3b 64 29 92 3c
       0.06637394 -0.06736649 0.006802842 0.017842002
000190 f6 d7 79 bd 94 8a 1a bd bc 50 a0 3c 00 46 04 ba
       -0.060996972 -0.037729815 0.019569747 -0.0005045831
0001a0 30 06 d7 bc 3c f1 00 bd 93 17 9b 3d ce d5 73 3d
       -0.026248068 -0.03148006 0.07572856 0.059530072
0001b0 76 37 3d 3d e2 e3 51 bd f8 8d dd 3c 7e 19 5e bd
       0.04619547 -0.051242717 0.027045235 -0.05422353
0001c0 b0 8d 58 3c f0 97 aa bc 4c 3a 86 3c 3e c8 31 bd
       0.013217375 -0.020824403 0.01638522 -0.043403856
0001d0 9a f9 43 3d 0c 28 29 bd 87 13 88 3d a0 ce 75 bc
       0.04784546 -0.041297957 0.066443495 -0.0150028765
0001e0 e2 c2 ee bc fb 9f 88 3d b0 db 97 bc 00 a0 98 bb
       -0.029145662 0.06671139 -0.018537372 -0.0046577454
0001f0 08 e6 8f bc 55 87 a6 3d ba e3 9b bd 93 e9 ad bd
       -0.017565742 0.08131281 -0.07611795 -0.08491816

network.4.weight f4 [5, 128]
000000 28 c0 df 3c 9b 47 33 bd 69 86 a9 3d 34 3c a2 bc
       0.027313307 -0.04376946 0.0827759 -0.019804098
000010 e1 1d 81 3d 92 77 4b 3d 5b 92 8f 3d 7f ce af 3d
       0.06304527 0.049674578 0.07010337 0.08584308
000020 30 e6 69 3c c0 d1 94 bb 20 5d 2d bd 86 39 de bc
       0.014276072 -0.0045416057 -0.04232514 -0.027127039
000030 f4 fa fd 3c 22 a6 17 3d 7a 83 05 bd 80 71 02 3c
       0.031003453 0.03702367 -0.03259609 0.007961631
000040 f0 af c0 3b 34 dc c8 bc fc 8d d1 bc 24 a2 32 bd
       0.0058803484 -0.024519064 -0.025580399 -0.04361166
000050 70 f0 96 bb e0 11 43 3b 8b 60 b2 3d d6 95 25 bd
       -0.004606299 0.0029765293 0.0870982 -0.040426098
000060 70 d6 a5 bb 18 d5 8e bc 5b aa 89 bd f6 96 61 3d
       -0.0050609633 -0.017435595 -0.06721946 0.05507561
000070 74 8b 9e bd 92 51 3e 3d 1a ed 32 3d 5c 22 b5 bc
       -0.07741442 0.04646451 0.04368315 -0.02211111
000080 39 3e 95 3d 12 b3 f9 bc 48 58 d2 bc 1d a2 20 bd
       0.07287259 -0.030480895 -0.025676861 -0.039217103
000090 14 ce 2c bd 26 9c 27 3d c0 5c 8b ba e1 a5 92 bd
       -0.04218872 0.0409204 -0.00106325 -0.07160545
0000a0 d6 49 b0 bd e0 15 6c bb 10 d8 83 3c e2 20 e7 bc
       -0.08607833 -0.003602378 0.016094238 -0.028213922
0000b0 38 06 03 3d 99 c9 8f bd c2 c9 89 bd 07 b8 a2 3d
       0.031988353 -0.070208736 -0.067279354 0.07945257
0000c0 4a fc 28 3d 11 94 21 bd 54 0c e8 bc ee 7d 30 3d
       0.041256227 -0.039447848 -0.028326191 0.043088846
0000d0 28 eb 2a bc 8b 35 8d 3d 36 76 60 3d 3a 82 09 3d
       -0.010432042 0.06894978 0.054800235 0.03357146
0000e0 a2 5b 66 3d 48 96 51 bc e7 3d a4 3d 80 29 80 3a
       0.05623973 -0.0127921775 0.080196194 0.0009777993
0000f0 7d c4 b0 3d c5 2e 3d bd ad 91 ae 3d e8 0f ae 3c
       0.08631227 -0.04618718 0.08523879 0.021247819
000100 a0 fa e8 3b 11 ca 1e bd f8 7d 85 bd da 00 0d bd
       0.007109955 -0.038766924 -0.06518167 -0.03442464
000110 6b cc 92 3d b8 5c 97 bc cd 1f a4 3d 00 04 c7 39
       0.07167896 -0.018476829 0.08013878 0.00037959218
000120 b7 97 44 bd 14 02 54 bd 4f 1b 9e 3d 7a e1 2f bd
       -0.04799625 -0.051759794 0.077200525 -0.04293964
000130 ea 3f 12 3d cd 14 16 bd 88 6f 61 bc 3d 6a a4 bd
       0.035705484 -0.03664093 -0.013759501 -0.08028076
000140 e0 26 77 3b 77 e1 33 bd dc 2b f4 bc d6 53 85 bd
       0.003771238 -0.043916192 -0.02980607 -0.06510131
000150 f0 76 d3 bb f1 48 2f bd e7 73 9f bd f4 bb 9c bc
       -0.0064533874 -0.04279417 -0.077857785 -0.019132592
000160 e0 0a 24 bb 5f 72 85 bd 8a 00 11 3d b2 fd 35 bd
       -0.0025030896 -0.06515955 0.035400905 -0.044431396
000170 66 fc 81 bd d8 c6 24 3c d9 31 95 bd 36 6f 1b 3d
       -0.06346969 0.010057174 -0.07284898 0.037947856
000180 d3 94 b4 bd 6f db 31 bd 38 ef 8d bd 7d a6 35 bd
       -0.088174485 -0.04342216 -0.06930393 -0.04434823
000190 d8 c8 ef bc f0 37 bf 3b 28 ee 21 bd 0a 63 68 3d
       -0.029270574 0.0058355257 -0.039533764 0.056735076
0001a0 4c 50 8b 3c c9 d3 9a 3d 98 43 94 bc 00 5f 57 3a
       0.017006062 0.07559926 -0.018098637 0.0008215755
0001b0 e8 69 75 bc 00 aa c0 39 bd 30 af bd 0c e0 97 bd
       -0.014978863 0.00036747754 -0.08554218 -0.074157804
0001c0 cc 73 ad bd 52 69 48 3d b4 72 a8 3c 0a 10 65 3d
       -0.08469352 0.048928566 0.020562507 0.0559235
0001d0 d0 eb dc bc 5e 94 a9 bd 80 7e 3c 3c 97 39 45 bd
       -0.026967913 -0.08280252 0.011504769 -0.048150625
0001e0 e0 61 5c 3b 7a 1e b4 bd a0 96 9d 3b 18 f4 70 3c
       0.0033627674 -0.087948754 0.0048092157 0.014706634
0001f0 27 7f 83 3d 90 06 41 bc a8 3d 81 bc e0 2f 37 3b
       0.06420737 -0.01178135 -0.01577647 0.002795212
000200 60 b7 96 3b 7a ac 17 3d e9 9e a0 3d ce 2d 8a bd
       0.0045994967 0.03702972 0.0784281 -0.06747018
000210 2a 7e aa bd 1f c4 07 bd f6 3a e6 bc 30 1e e3 bc
       -0.08324845 -0.03314602 -0.028104287 -0.027724355
000220 b0 cd c2 3b 32 1b af bd 91 ec 87 3d b9 ff 9e bd
       0.00594493 -0.08550109 0.06636918 -0.07763619
000230 c8 5e 05 3d 83 dc 91 3d d0 49 84 3b 49 46 a2 3d
       0.032561094 0.071221374 0.0040371194 0.07923562
000240 03 55 8b 3d 60 9b 0f bc 7a 61 48 3d c3 72 86 3d
       0.06803324 -0.008765072 0.048921086 0.06564858
000250 f1 f0 a7 bd 6d 45 93 3d b8 f6 06 3d a7 43 9a 3d
       -0.08200253 0.07190976 0.032950133 0.07532435
000260 08 06 11 3c a0 a1 fe bb 71 60 b0 bd 80 b5 d5 3a
       0.008851536 -0.007770732 -0.08612145 0.0016304702
000270 58 35 8f bd 24 9a 41 bd c8 bb bd 3c b0 7f 37 bd
       -0.069925964 -0.04726614 0.02316083 -0.044799507
000280 20 54 07 bc ee b4 75 3d cb d8 8c 3d 69 1d ab 3d
       -0.008259803 0.059987 0.068772875 0.08355219
000290 b0 0e 8a 3b e8 a8 ae bd 88 37 13 3d 83 16 8f bd
       0.0042131767 -0.0852831 0.03594163 -0.06986716
0002a0 61 e7 37 bd 96 28 fd bc ca ad 75 bd 5f 95 8c 3d
       -0.044898394 -0.030903142 -0.05998019 0.06864428
0002b0 b8 e3 4e bc cc c5 a4 bd 6a f5 1b bd 0a f0 21 3d
       -0.012627535 -0.08045539 -0.038075842 0.03953556
0002c0 c6 30 7e bd 99 00 aa bd 05 97 87 3d 68 9a 64 3c
       -0.062058233 -0.08300895 0.066206016 0.013952829
0002d0 da 06 4f 3d a9 bb 52 bd eb 32 10 bd 00 34 78 bc
       0.050543644 -0.051448498 -0.03520481 -0.0151491165
0002e0 da 77 3a 3d 84 2a a8 3c f4 60 13 bd df 54 9c 3d
       0.045524456 0.020528086 -0.035981134 0.076333754
0002f0 40 a3 12 3d bd e4 84 3d 80 15 dd ba 56 2f 01 3d
       0.03580022 0.06488941 -0.0016867369 0.031539284
000300 5f 63 5b bd a0 4a 83 bd 24 33 2d bd b7 e3 9c 3d
       -0.053561565 -0.06410718 -0.0422851 0.07660621
000310 82 9c 7e bd ed 3f a3 bd b6 d5 48 3d df de 74 bd
       -0.062160976 -0.07971177 0.049031936 -0.05978286
000320 1c 9a b4 bd 4e 6e 9c bd 86 c0 78 3d 88 cd 04 3d
       -0.088184565 -0.076382264 0.06073048 0.032422572
000330 c0 ea a5 3b 00 29 51 3b e0 44 14 3d f2 b0 12 3d
       0.005063385 0.0031915307 0.036198497 0.03581328
000340 c0 c7 d3 3c e6 2a 6c 3d d0 e9 89 bc 50 98 fa 3c
       0.025852084 0.0576581 -0.016835123 0.030590206
000350 89 83 82 3d c4 b9 a8 3c 40 97 44 bb a8 35 56 bd
       0.063727446 0.020596392 -0.0029997379 -0.052297264
000360 b6 d9 01 3d cd 51 84 bd 3c 24 6c bd 90 6f 72 3c
       0.031701766 -0.06460915 -0.057651743 0.014797106
000370 0e 8e 77 bd e8 95 9b bd ba d1 7c 3d 4b e4 9e 3d
       -0.06043821 -0.07596952 0.06172345 0.07758387
000380 24 0f 4d bd 0c 1d 88 bc 20 2e 13 bc 35 65 80 bd
       -0.050063267 -0.016615413 -0.008983165 -0.06269304
000390 7b 77 00 bd 40 5f 76 3b 52 de 8f bd 5e 98 2d 3d
       -0.031363945 0.0037593395 -0.07024826 0.042381637
0003a0 a9 21 a1 3d 35 8e 9c 3d 00 24 71 bc 87 c4 af 3d
       0.07867748 0.07644311 -0.014718056 0.085824065
0003b0 2e 19 9c bd 49 00 b5 bd eb 6c a0 3d 3c 0e 23 bd
       -0.0762199 -0.08837945 0.078332745 -0.039808497
0003c0 5a ce 7e 3d 15 6e 81 3d a8 59 37 3c 86 1e 6a bd
       0.06220851 0.063198246 0.011190809 -0.057158016
0003d0 97 ef 17 bd 4f 18 b3 3d 58 44 11 3d b4 eb f9 bc
       -0.037093725 0.08744871 0.03546557 -0.0305079
0003e0 e0 a3 68 bb 19 cc 85 bd 32 a2 9f bd b5 7f 81 bd
       -0.0035498068 -0.06533069 -0.07794608 -0.06323186
0003f0 4c 70 c1 3c 49 e3 12 bd 00 01 b5 bb 48 b8 5b 3c
       0.023613118 -0.035861287 -0.005523801 0.013410635

network.4.bias f4 [5]
000000 a0 ef 24 bb 3f a1 04 bd 9e 8d 3b 3d 2d 6a 2f bd
       -0.0025167242 -0.03238034 0.045789354 -0.042825866
000010 f1 32 a3 3d
       0.07968701

network.0.weight f4 [128, 82]
000000 32 ab 6b 3d 44 1f da bc 73 34 9e 3d ed ed 8c 3d
       0.05753631 -0.026626237 0.07724848 0.06881318
000010 ad ff ca 3d 99 8e bb 3d 60 0e 37 bd 35 1f d1 3d
       0.099120475 0.09158058 -0.044691443 0.102110304
000020 dd 2f be 3d dd e7 d1 bd 7c 1f c1 bc c8 fb 78 bd
       0.09286473 -0.102493025 -0.023574583 -0.060786992
000030 69 a1 5e bd 26 c1 cd bd d0 40 9e 3b 03 74 9e 3d
       -0.05435315 -0.10046606 0.0048295036 0.07736971
000040 9e 60 20 3d 5c 7a e3 3c c0 7c 65 3b 7a ec 27 3d
       0.03915464 0.027768306 0.0035016984 0.040997006
000050 c7 bb c4 bd 2e 95 c9 bd 90 e1 41 bc 62 b2 c3 bd
       -0.09606128 -0.09842907 -0.011833563 -0.09555508
000060 e0 c6 7c 3b 82 7d 2a bd 60 c2 ad bb af 71 66 bd
       0.0038570687 -0.0416236 -0.0053027123 -0.05626076
000070 60 c1 f7 3b a7 07 96 3d 84 ce f9 bc 3c 3e fc bc
       0.007560894 0.07325678 -0.030493982 -0.030791394
000080 8c 56 c6 bd 86 71 18 bd 4e 76 cf bd 60 1a ca bb
       -0.09684476 -0.03721764 -0.10129987 -0.006167695
000090 c8 67 a2 bc 80 13 d8 bb 2c 6b 81 bc 01 b3 7d bd
       -0.019824877 -0.0065941215 -0.015798174 -0.06193829
0000a0 76 56 22 bd 8e 01 0b bd 2b cf b7 3d 91 bc 97 3d
       -0.039633237 -0.03393703 0.08975061 0.07409013
0000b0 d0 6a af bc a4 52 c7 bd f3 0f 87 3d e8 c4 68 3c
       -0.021413237 -0.09732559 0.06594839 0.014207102
0000c0 a8 0a 3e 3c c6 32 85 bd c2 ca 08 3d a2 1c 9b bd
       0.01159922 -0.06503825 0.03339649 -0.07573821
0000d0 9a 9e 6e 3d fc 28 de bc 8e 79 45 3d 59 03 c9 bd
       0.058256723 -0.027119152 0.048211627 -0.09815092
0000e0 64 c8 db 3c 8c f9 f2 3c e0 fe b8 3b c6 bd 59 3d
       0.026828952 0.029660009 0.005645618 0.053159498
0000f0 2c 15 df bc a0 ce 76 bc e6 46 3c 3d 10 54 86 bd
       -0.027231775 -0.015063912 0.04596605 -0.065590024
000100 be 93 2d bd 51 2a 9e 3d fe e3 72 3d 60 ac 23 bb
       -0.042377226 0.07722915 0.05929946 -0.002497457
000110 96 7f 52 3d ae 0a c7 bd ec 2e 9e 3c 36 36 08 3d
       0.051391207 -0.09718834 0.019309483 0.033254825
000120 4a 28 51 3d 60 82 5c bc 1b b9 91 3d 78 f8 c2 bd
       0.051063813 -0.013458818 0.07115384 -0.09520048
000130 e0 5f 07 bb 5c 9b e4 3c ac bf a9 3c 0e 11 54 3d
       -0.0020656511 0.027906112 0.02072128 0.051774077
000140 c2 a0 56 3d 34 37 8d 3c 82 7c be bd 0a a2 67 3d
       0.052399404 0.017238237 -0.09301092 0.056551017
000150 22 d6 7b 3d b2 ca 4f 3d 14 be d4 bd f4 8e 84 bc
       0.06148351 0.050730415 -0.10387817 -0.016181447
000160 96 0c 78 bd fc e5 8d bd 1c 87 68 bd 4f 8d d7 bd
       -0.060558878 -0.06928632 -0.056769475 -0.10524999
000170 fc fe a5 bd 5b 79 a7 3d 22 f9 61 3d 00 8a de 39
       -0.08105275 0.081774436 0.055169232 0.00042445958
000180 bc 71 41 bd 95 04 8b bd 57 54 c7 3d 67 ae cc bd
       -0.047227606 -0.06787983 0.097328834 -0.09994202
000190 c0 42 e2 ba 08 aa 1b 3c 56 84 cf bd f9 67 ad 3d
       -0.0017262325 0.009500988 -0.10132663 0.08467097
0001a0 fb c9 b3 3d 50 b3 65 3c 74 06 91 3c f6 6d 0e 3d
       0.08778759 0.014019802 0.017703272 0.034772836
0001b0 d2 0b 18 3d 03 6e e0 3d 72 27 2d 3d e8 1e 4d 3c
       0.037120648 0.10958483 0.042273946 0.012519576
0001c0 94 65 25 bd 35 db cb 3d 4a c4 b7 bd c8 eb 98 bc
       -0.040380076 0.0995392 -0.08972986 -0.018667117
0001d0 c9 f6 8a 3d 87 b4 cd 3d 6b 0d c0 3d 90 90 09 3c
       0.06785352 0.100441985 0.09377559 0.008396283
0001e0 b2 74 46 3d c0 48 e4 bc 79 bb a2 3d 0d d1 81 bd
       0.048451133 -0.027866721 0.07945914 -0.063387014
0001f0 c8 5c 4b 3c 8e 1a cc bd 59 5a b8 3d 1c 97 b8 bc
       0.0124122575 -0.099660024 0.090016074 -0.022532992
000200 06 d5 a0 bd 71 da 45 bd 00 a9 c1 bd d8 2a 81 bd
       -0.07853131 -0.048304025 -0.09456062 -0.06307
000210 de 1c 35 3d 1c 4e a9 bd 98 85 59 3c a0 61 36 bd
       0.044216983 -0.08266851 0.01327648 -0.044526696
000220 7b 41 90 3d 14 a3 89 bd 70 cc 5c 3c 38 b9 f8 bc
       0.070437394 -0.06720558 0.013476476 -0.030361757
000230 ae 26 0c 3d 30 dd ad bb a0 89 55 bb 24 aa a2 3c
       0.034216575 -0.0053059086 -0.0032583252 0.01985652
000240 5b db b1 bd 7e 10 8f bd 76 08 28 3d f3 2a 85 3d
       -0.08684417 -0.069855675 0.041023694 0.065023325
000250 b0 6d 83 bd 78 27 04 3c 38 a0 26 bd f6 35 b7 bd
       -0.064174056 0.008066051 -0.04068014 -0.08945839
000260 90 24 a9 bd 99 9e b2 bd a7 72 d5 bd 54 4b a4 3c
       -0.08258927 -0.08721656 -0.10422259 0.02005545
000270 32 37 3a 3d 30 96 e1 bd 70 51 94 3b 60 ce 8d bd
       0.045462795 -0.11014974 0.0045263097 -0.069241285
000280 c9 88 a3 bd 03 a5 8d 3d c1 0c 9f bd 8f 2f d1 3d
       -0.07985074 0.06916239 -0.077661045 0.10214149
000290 48 a7 e8 bc ac 62 a3 3c 40 c5 1c 3b 77 db 92 3d
       -0.028400078 0.019944511 0.002392128 0.07170766
0002a0 81 c9 d2 bd 54 e4 e0 3c e4 cf d5 3c 7a a1 11 bd
       -0.1029234 0.027452625 0.026100107 -0.035554387
0002b0 a6 b7 91 bd 33 6c bc 3d e8 bd 3b bc 4f f4 c4 bd
       -0.07115106 0.09200325 -0.011458851 -0.09616911
0002c0 fc a0 b3 bc 09 7c ca bd 1c 67 b4 bd f3 4b 93 3d
       -0.02192735 -0.09886939 -0.08808729 0.071922205
0002d0 d0 50 1c 3c 37 06 b8 bd f6 65 1b bd 60 f9 ec bc
       0.009540752 -0.089855604 -0.037939034 -0.028927505
0002e0 b6 21 67 3d d3 85 86 3d 74 ed 87 3c 8c 8a 98 bc
       0.056428634 0.06568494 0.016592719 -0.018620752
0002f0 f0 30 fe bc 44 0d af 3c eb 41 d4 3d 98 0b 5e bc
       -0.031029195 0.02136863 0.10364135 -0.013552569
000300 b4 73 8f 3c 66 52 69 bd 2c 2e a9 bc 9f d5 9d 3d
       0.017511226 -0.056963347 -0.0206519 0.077067606
000310 fa d1 09 3d 40 33 cf 3b 01 04 84 3d 70 6e c8 3b
       0.033647515 0.006323248 0.06446076 0.006116681
000320 3a 62 73 bd 80 34 4c 3a 11 18 83 3d cd 5f 85 3d
       -0.059419848 0.00077898055 0.06401075 0.06512413
000330 ad 90 98 3d dc 55 99 bc 75 a4 c7 3d f7 db ca bd
       0.0744947 -0.018717699 0.097481646 -0.09905236
000340 0c cb 83 bd 2a 34 6b 3d c6 d0 33 3d 0a 99 6e 3d
       -0.064352125 0.057422794 0.043900274 0.05825142
000350 64 64 e7 3c 6a 2b a1 bd e5 cb ba 3d 67 48 87 3d
       0.028246112 -0.07869609 0.09120921 0.066056065
000360 55 7c 92 3d 99 2e b7 bd 8c 59 be bc 26 dd 21 3d
       0.07152621 -0.08944435 -0.023236059 0.039517544
000370 6c 16 a8 3c dc fb 0b bd 08 09 18 3c 4c 0e 90 bd
       0.020518504 -0.03417574 0.009279497 -0.07033977
000380 92 0c 76 3d f0 c4 6f bc 09 54 98 3d e4 0f e0 3c
       0.06007058 -0.014634356 0.074379034 0.027351327
000390 05 ba c9 bd 2f cc bf bd 07 05 a4 3d 29 22 d6 3d
       -0.098499335 -0.09365117 0.080087714 0.10455734
0003a0 00 74 4d bc 61 40 a9 3d 53 99 4f bd 70 eb 5b bc
       -0.012539864 0.082642324 -0.05068333 -0.013422832
0003b0 03 01 62 bd 03 ca 97 3d 04 34 c6 3c 44 42 ad bd
       -0.055176746 0.074115776 0.024194725 -0.08459905
0003c0 56 ab 27 3d 8c 62 c5 bd 80 b8 49 bc 60 a4 10 bb
       0.040934883 -0.09637937 -0.012312055 -0.0022070631
0003d0 89 14 aa bd 07 2c 92 bd 98 ab b7 bd 78 0f 9a bd
       -0.08304698 -0.07137304 -0.08968276 -0.07522482
0003e0 be a9 1f bd c0 29 3e 3b e0 d1 1f bc 21 41 c3 3d
       -0.03898024 0.0029016584 -0.009754628 0.09533907
0003f0 98 d0 93 bd 98 70 11 bd 88 fc bc bd 6b ed 97 bd
       -0.072175205 -0.03550777 -0.09227854 -0.07418331

network.0.bias f4 [128]
000000 ac 4a 92 bc f8 f9 60 3c 78 60 51 bc 7a ae 1d bd
       -0.017857872 0.013731472 -0.012779348 -0.038496472
000010 bd 4d c2 3d 8a 43 00 3d f6 18 75 3d d5 f0 d2 bd
       0.09487484 0.03131441 0.059838258 -0.10299841
000020 b6 50 3b bd a8 f1 2c 3c 26 e2 70 3d e8 61 60 bc
       -0.04573127 0.010555662 0.058809422 -0.013695218
000030 da e7 77 3d 91 dd d2 bd 33 bc ad 3d 69 bc 9c 3d
       0.060523845 -0.10296167 0.08483162 0.07653124
000040 be d5 6e 3d 4f e9 8c bd c9 4f b2 3d 53 ac bd 3d
       0.05830931 -0.068804376 0.08706624 0.09261384
000050 2b e1 c3 3d a6 05 0f 3d b1 f4 80 3d 46 2a 1a 3d
       0.09564432 0.034917496 0.06296671 0.03763797
000060 50 d3 74 bc c4 be 68 bd d0 cc d0 bb 76 db c0 bd
       -0.014942959 -0.056822553 -0.006372072 -0.09416859
000070 23 25 82 3d 16 c1 03 bd ae 67 48 3d 54 14 95 3c
       0.063547395 -0.032166563 0.048927 0.01819817
000080 64 a8 d2 3c 4a 8e d5 bd b2 db a6 bd 9b c5 91 3d
       0.02571506 -0.1042753 -0.08147372 0.071177684
000090 89 74 86 bd 03 8d cc 3d f0 cb 9d bb 96 6f 9a bd
       -0.06565196 0.09987833 -0.004815571 -0.075408146
0000a0 d9 42 a8 3d 57 e8 ae 3d 1c 88 af bd 38 80 5d 3c
       0.08215875 0.08540409 -0.08570883 0.013519339
0000b0 27 e2 a6 3d 2b 35 b1 bd 62 9a a1 bd 70 46 fe 3b
       0.08148604 -0.08652719 -0.07890774 0.0077598616
0000c0 fc 3f 12 bd 17 a2 cd 3d 9e 64 ca bd 90 6c 86 bd
       -0.03570555 0.10040682 -0.098824725 -0.065636754
0000d0 8d c5 bf 3d 26 04 79 3d af 3c 52 bd 64 c3 c6 bd
       0.09363852 0.060794972 -0.051327404 -0.097052366
0000e0 93 da dc 3d 0c 2d 81 bc 21 e1 9d 3d 89 5b be 3d
       0.10783877 -0.01576855 0.077089556 0.09294803
0000f0 72 d2 74 3d 6d ce 8a 3d 9c f6 3d bd b9 01 80 3d
       0.05977101 0.06777654 -0.046377763 0.062503286
000100 1c fa 81 3c a0 1e 3f 3c 43 1e 84 3d ee 63 11 3d
       0.015866332 0.011665016 0.064510845 0.03549569
000110 0d a1 6c bd 64 97 a3 3c 66 52 4d bd 7f 12 84 3d
       -0.057770777 0.01996965 -0.05012741 0.0644884
000120 02 a9 7c 3d 1e 07 cd bd 92 f8 08 3d f0 71 a7 bc
       0.061684616 -0.10011123 0.03344018 -0.020440072
000130 f5 27 d0 3d fc de 1f bd 7c bc 8c 3c b0 9a 01 bd
       0.10163871 -0.039031014 0.01717972 -0.031641662
000140 38 7a 7d 3c 5e b2 c1 bd 80 14 cf ba c5 8b ae 3d
       0.015471034 -0.09457849 -0.0015798956 0.08522753
000150 5e 2c 5c 3d 80 c0 83 bc ad 79 88 3d b3 4b 83 3d
       0.05375325 -0.016083002 0.06663833 0.06410923
000160 a8 e2 55 bc f6 a2 9d bd 90 5f 69 bc 10 04 6a 3c
       -0.013054527 -0.07697098 -0.014243975 0.014283195
000170 fc dd c7 bc b0 82 50 3c 65 e0 50 bd 48 47 9a bc
       -0.024397843 0.012726471 -0.05099525 -0.018832818
000180 3f 4f ab bd a4 aa f5 3c e0 b2 4e 3c f0 0a a2 bb
       -0.08364724 0.029988594 0.012615889 -0.0049451515
000190 c0 03 3e bd 4e 30 46 3d ae 52 74 bd 62 8b 0b 3d
       -0.046390295 0.04838591 -0.059649162 0.034068473
0001a0 04 a3 96 bc a7 15 db 3d ff f8 44 bd e5 b8 8d 3d
       -0.018388279 0.10697489 -0.048089024 0.069200315
0001b0 80 15 24 3a 00 9d 11 3b 3c d8 9d 3c 27 8c be 3d
       0.0006259307 0.0022218823 0.019268148 0.09304076
0001c0 e0 25 41 3c 55 4e d6 3d 71 77 4c bd db 1a 5f bd
       0.011788815 0.104641594 -0.049918596 -0.05446897
0001d0 cc a1 c2 bd fc 7d f0 3c 1a fd 34 3d e6 0c 3d 3d
       -0.095035166 0.029356949 0.04418669 0.04615488
0001e0 73 33 d6 3d cb 83 c8 3d f3 7d d6 3d e4 60 e3 3c
       0.10459032 0.097907625 0.10473242 0.027756162
0001f0 fe 28 0a 3d b4 4f b3 3c ec 18 f7 bc 83 65 c1 3d
       0.0337305 0.021888591 -0.03016325 0.0944319

network.2.weight f4 [128, 128]
000000 da 54 a2 bd 20 f8 39 bc 5d 6d 88 3d 00 09 0e 3b
       -0.079263404 -0.0113506615 0.066614844 0.0021672845
000010 0e ef 1c 3d 4a 4b 4b bd 40 a6 fe 3c ad 4d 06 bd
       0.038313918 -0.049632348 0.031085134 -0.03278892
000020 cc d5 91 3c 3e f7 7f 3d 6c 5a 8e 3c b8 2b 0d bd
       0.017802142 0.062491648 0.0173771 -0.03446552
000030 76 ec 2b 3d 4c 47 17 bd a2 2e 0a 3d 9f 81 2f bd
       0.041973554 -0.03693323 0.03373588 -0.042848226
000040 7d 56 8a bd 63 3d 95 bd cc 25 09 bd d3 5b 98 3d
       -0.067547776 -0.07287099 -0.03348331 0.07439389
000050 c4 15 9d bd 23 f9 a4 3d 3c 73 8c bd fd 07 50 bd
       -0.07670167 0.080553316 -0.06857917 -0.05078887
000060 c0 4f b1 bb 4a 59 d7 bc 48 bb c0 3c a9 8c 20 bd
       -0.0054111183 -0.026287694 0.023526803 -0.039196644
000070 02 d5 6f 3d b5 a8 a6 bd c5 60 9f 3d c0 29 78 3c
       0.05855275 -0.08137647 0.07782129 0.015146673
000080 c4 25 af bd 58 af 6d bd 4f 40 75 bd 7a d2 54 3d
       -0.08552125 -0.05802855 -0.059875783 0.05195854
000090 e5 49 02 bd 2c cc 14 3d 88 21 6a bd f2 c5 89 bd
       -0.031808753 0.036327526 -0.057160884 -0.06727208
0000a0 b4 10 85 bd aa bf 21 3d 0a fd 52 3d 4a 33 16 3d
       -0.064973265 0.039489426 0.051510848 0.036670007
0000b0 4a fc a1 bd ce 48 5d 3d 37 ab 87 3d c0 e9 21 3c
       -0.079094484 0.05402451 0.066244535 0.0098823905
0000c0 7a a1 7a bd 11 07 a1 bd 40 f9 ef bb be 54 03 3d
       -0.061189152 -0.07862676 -0.007323414 0.03206324
0000d0 00 da c4 bb e0 0f fb 3b b5 78 ae bd ea 13 7d 3d
       -0.006007433 0.0076618046 -0.08519117 0.06178657
0000e0 80 8c 49 3b e8 e5 bf 3c 99 72 85 bd db ba a5 3d
       0.003075391 0.023425058 -0.065159984 0.080922805
0000f0 3b 52 0e bd 00 d9 36 3c b3 92 86 3d 10 83 a5 3b
       -0.03474639 0.011160135 0.065709494 0.0050510243
000100 e8 96 14 bd 54 bb e9 bc 2a 1e 2a bd 65 5b 9f 3d
       -0.036276728 -0.028531708 -0.041532673 0.07781104
000110 e8 53 9a 3c 9b f1 3e bd aa e4 49 bd 80 e8 d6 3a
       0.018838838 -0.04661713 -0.049290337 0.0016396195
000120 a4 be f6 bc c0 4e c7 3c 0e ca 4c bd 30 ca ad 3c
       -0.030120201 0.024329543 -0.049997382 0.021214575
000130 79 df 9b bd 43 9d 8e 3d 8c 3c 08 3d f0 0a 34 bc
       -0.076109834 0.06963589 0.033260867 -0.010988936
000140 7c 00 b0 3c d7 73 ad bd c0 30 a6 ba fc ab 86 bd
       0.021484606 -0.0846936 -0.0012679324 -0.06575772
000150 54 95 f6 3c 47 37 8f 3d 4d b0 9b bd 80 c8 8d 3b
       0.030100502 0.06992965 -0.07601986 0.00432688
000160 59 83 85 3d ab 78 9f 3d 40 0b e2 bc 4a ce 1a 3d
       0.06519193 0.077866875 -0.027593255 0.03779439
000170 b4 ba 91 bc 2a 8e 04 bd cb 53 15 bd fa 1f 57 3d
       -0.017789222 -0.03236214 -0.036456864 0.05252073
000180 f2 18 64 3d c8 5a b4 3c 64 64 83 bd a3 ad 8a 3d
       0.055687852 0.022015944 -0.06415632 0.067714
000190 00 02 e8 3c 38 0d 50 3c 4e 84 74 bd eb 1b 85 bd
       0.028321266 0.012698464 -0.059696488 -0.064994656
0001a0 43 37 95 3d 0e ac 7b bd 44 b1 d6 3c a5 b9 b0 3d
       0.07285931 -0.06144338 0.026207574 0.08629159
0001b0 16 77 5a 3d 60 3b 9c bc 12 5e 8e bd 7e 98 1e bd
       0.053336225 -0.019071281 -0.06951536 -0.038719647
0001c0 7f 75 a8 3d 82 27 4b 3d 72 93 2b 3d 10 e2 9d bd
       0.082255356 0.049598224 0.04188866 -0.077091336
0001d0 a9 07 43 bd 80 ed 38 3b da 6a 00 3d c0 b0 28 3b
       -0.047614727 0.0028217733 0.0313519 0.0025740117
0001e0 72 d3 5b 3d d0 21 03 bc a2 a6 47 3d 74 f9 57 bd
       0.053668447 -0.008003667 0.048742898 -0.05272813
0001f0 c2 3b 2f bd 18 9f 2d 3c be 1f 22 3d 7d a5 b1 3d
       -0.0427816 0.010597013 0.039581053 0.086741425
000200 60 f0 9c bd 44 d6 ff bc b3 2c 79 bd e4 ff 99 bd
       -0.076630354 -0.0312301 -0.060833644 -0.075195104
000210 77 25 11 bd 7d f2 32 bd 4a f8 29 3d e0 2d a9 bc
       -0.03543612 -0.043688286 0.041496553 -0.020651758
000220 4e 6e ae bd 77 b8 87 bd 78 f8 fa bc a0 24 a1 3c
       -0.08517133 -0.06626981 -0.030636057 0.019670784
000230 40 2e 68 bc f0 af 50 3c 58 ed cf 3c 18 6e 80 bd
       -0.014171183 0.012737259 0.025381729 -0.06270999
000240 53 2c 7f bd b8 36 c0 bc c8 c5 ae bd 58 df fb 3c
       -0.06229813 -0.023463592 -0.085338175 0.030746147
000250 40 52 19 bd 22 31 d8 bc 32 97 37 3d d0 02 a7 bd
       -0.037431955 -0.026390616 0.044821925 -0.08154833
000260 4f 31 24 bd 6a b2 45 3d bd 0b 60 bd 71 af 93 3d
       -0.040086087 0.048265852 -0.054698694 0.07211197
000270 90 58 53 bd f4 5f 82 bc 44 87 d5 3c 00 8c e1 b9
       -0.05159813 -0.015914895 0.026065476 -0.00043019652
000280 1f 3f 0b bd 3c 8b 9f bd 70 4e 1d bc d0 a3 a3 bb
       -0.033995744 -0.07790229 -0.0096012205 -0.004993893
000290 9c c4 af 3c 93 f4 7e bd 64 92 93 bc 38 a8 d9 3c
       0.021456055 -0.062244963 -0.01801414 0.02656947
0002a0 64 51 a3 bc bd be 84 3d 1f 81 a2 3d e0 5d 7a bc
       -0.019936271 0.06481693 0.07934784 -0.015281171
0002b0 b0 3d 83 3c 20 84 47 bc 60 f5 76 3b a4 6d 73 bd
       0.016020626 -0.012177497 0.0037682876 -0.059430733
0002c0 7a 66 3a 3d 6c 1c af bc ec ac 78 bd 8a c1 56 3d
       0.045507886 -0.021375857 -0.060711786 0.052430667
0002d0 78 af 1b bc 9e aa 14 3d 78 4f ad bd a2 b2 60 3d
       -0.009502284 0.036295526 -0.08462423 0.054857858
0002e0 5e b1 9c bd a0 b9 ce 3b a2 30 e3 bc 41 41 52 bd
       -0.076510176 0.0063087493 -0.02773315 -0.051331762
0002f0 0e f3 3c 3d 19 29 25 bd e9 55 8f 3d fe b8 67 3d
       0.046130233 -0.040322397 0.06998808 0.056572907
000300 35 0c ab 3d 05 2c ac 3d b0 83 92 3c 40 91 50 3c
       0.08351938 0.084068336 0.01788506 0.012729943
000310 06 1d 09 3d 80 5b 0c 3a 00 fa 08 bc c0 39 0f 3c
       0.033474945 0.0005354211 -0.008360386 0.008741796
000320 c0 0a cd bc bf 72 9e 3d c2 ec 38 3d 34 39 9b bd
       -0.02502954 0.0773673 0.045147665 -0.0757927
000330 15 46 4c bd 12 67 2c 3d 80 0e d9 bb 27 5b 8c 3d
       -0.049871523 0.042090483 -0.006624043 0.068533234
000340 ff b3 94 3d d8 18 13 3c 06 62 53 3d 90 59 d5 bb
       0.07260894 0.008978091 0.051607154 -0.006510921
000350 52 26 1c 3d cf 1e ad 3d e6 13 7e 3d 43 05 af 3d
       0.038122483 0.08453142 0.062030695 0.085459255
000360 3c d1 92 bd 12 32 6b 3d 32 09 ad bd bc 34 aa bc
       -0.071688145 0.057420798 -0.084490195 -0.020777099
000370 ab d4 87 3d 36 bb 23 bd 21 9f a8 3d 94 ca b1 bc
       0.0663236 -0.03997346 0.082334764 -0.021703042
000380 5b bc 94 3d 74 71 ac bc 1c 59 85 bc 0a 83 ad bd
       0.072624885 -0.021050192 -0.016277842 -0.08472259
000390 c0 25 66 3b ca 6f 6e 3d 8e d7 07 3d d0 4d bd 3c
       0.0035117716 0.05821208 0.033164553 0.023108393
0003a0 aa 2b 06 3d 5e cd 1b 3d 56 9e 4a bd 74 67 9f bd
       0.032756485 0.03803765 -0.049467407 -0.07783404
0003b0 a4 66 8b bc 4c 7f 55 bd e6 d6 34 3d fe 6f e6 bc
       -0.017016716 -0.052123353 0.044150256 -0.028129574
0003c0 59 59 87 bd 6c 50 04 3d 53 df 9e 3d 00 ca 51 3a
       -0.066088386 0.03230326 0.077574395 0.00080028176
0003d0 98 5d 46 bc 30 a4 0e 3c c5 9a a1 3d ed c9 a4 3d
       -0.012107275 0.008706138 0.07890848 0.08046327
0003e0 60 68 81 bb 1e e8 30 3d 2c 1f 89 bd 60 be 51 bb
       -0.00394921 0.043190114 -0.06695399 -0.0032004341
0003f0 c7 32 b3 3d 64 95 e5 3c b9 06 a7 3d a0 8c cf bb
       0.087499194 0.028025337 0.08155579 -0.0063339025

network.2.bias f4 [128]
000000 23 63 83 3d a4 09 94 bd e4 6e 82 bc 2a d4 51 3d
       0.06415393 -0.07228401 -0.015922017 0.051227726
000010 8c 28 c7 3c 43 60 38 bd f8 1d 87 3c 1c 7a a1 3c
       0.024311326 -0.045013677 0.016493782 0.019711547
000020 8b bf 1f bd 00 32 af 39 8d 12 91 bd d4 01 84 bd
       -0.03900103 0.00033415854 -0.070836164 -0.06445661
000030 e8 16 ac bd 62 9a 65 bd 7a 37 4c 3d d9 f1 b1 3d
       -0.084028065 -0.056055434 0.049857594 0.08688707
000040 92 c4 78 3d 4e 4d 7e 3d 6e 6d 31 3d b6 94 50 3d
       0.06073434 0.062085442 0.04331725 0.05092307
000050 26 e5 67 bd 46 cf 70 3d 42 b0 02 3d b4 2f ae 3c
       -0.056615017 0.05879142 0.031906374 0.021262981
000060 a2 78 75 3d 20 a1 9c 3b f2 27 5e 3d b0 da 07 bc
       0.059929498 0.00477995 0.054237314 -0.008291885
000070 e0 9a 1b bb 00 37 46 bd 40 76 0e 3b 3e 74 8b bd
       -0.0023743436 -0.048392296 0.0021737963 -0.06809281
000080 34 a0 9a bd 6b 64 a3 3d cc 68 c2 bc 78 33 12 bd
       -0.075500876 0.079781376 -0.023731612 -0.035693616
000090 2a eb ee bc 26 af 34 3d 9b 82 20 bd 2d fa 47 bd
       -0.02916487 0.044112347 -0.039187055 -0.04882257
0000a0 75 40 a3 3d 90 60 df bc 98 e0 51 3c d8 78 a1 bd
       0.079712786 -0.027267724 0.012809895 -0.07884377
0000b0 b0 ca 52 3c 9f 6b a6 3d 94 43 ee 3c a5 84 a9 bd
       0.012865707 0.08125996 0.029084958 -0.08277253
0000c0 ae 79 6d bd c2 01 99 bd bf 3c 54 bd 46 aa 30 bd
       -0.05797737 -0.074710384 -0.051815744 -0.043131135
0000d0 16 cd 15 bd 69 40 af bd fc 26 c2 bc 80 05 4c bc
       -0.03657254 -0.08557207 -0.02370023 -0.012452483
0000e0 b4 ef ad 3c 18 ad 58 3c 38 91 fc 3c f3 07 91 bd
       0.021232463 0.0132248625 0.030830964 -0.07081594
0000f0 67 1c b1 bd 8b d0 50 bd aa c3 a5 bd 42 ad 01 bd
       -0.086479954 -0.050980132 -0.080939606 -0.031659372
000100 5d 7e 2a bd 22 1f 1a 3d de 0d 7e bd 60 61 c7 3c
       -0.041624416 0.037627347 -0.062024944 0.024338424
000110 e6 ca e3 bc e8 7f 5d 3c 40 bf d3 bb e7 32 87 3d
       -0.02780671 0.013519265 -0.0064620078 0.06601506
000120 40 6d 7e bd 3d 3c a9 3d a6 53 1a 3d 48 e0 1e bc
       -0.062115908 0.08263443 0.03767743 -0.0096970275
000130 5a 49 75 3d a0 24 42 3b 58 57 3c 3c ae 30 e8 bc
       0.059884407 0.002962388 0.011495434 -0.028343525
000140 67 8b 94 bd 64 5d 6e bd ba 5e 55 bd e0 71 0d bc
       -0.072531514 -0.058194533 -0.05209229 -0.008633107
000150 26 94 fa bc b0 e4 a7 3c ad ba 82 3d 42 6d 3c 3d
       -0.03058822 0.020494789 0.06383262 0.046002634
000160 eb 2b a7 bd 8c 53 82 bd 4b 84 1e bd 83 a3 49 bd
       -0.081626736 -0.063635916 -0.038700383 -0.049228203
000170 6e a7 33 bd bb e3 ae 3d 7c 1c f7 3c ba f2 04 bd
       -0.043860845 0.0853953 0.03016495 -0.032458045
000180 02 e5 44 3d c6 48 3d 3d aa f1 19 3d 8e 6c 51 3d
       0.04806996 0.04621198 0.037583984 0.051128916
000190 90 67 82 bd 7d e0 96 3d 49 f5 93 bd e0 56 67 3b
       -0.06367409 0.073670365 -0.07224519 0.0035299584
0001a0 bf 59 80 3d 2a dc e1 bc d6 82 5f 3d 80 22 0a ba
       0.06267118 -0.027570803 0.054568134 -0.0005269423
0001b0 92 d6 98 bd 2f 22 8e bd 5a c3 a9 bd 10 73 d6 bc
       -0.07462801 -0.06940114 -0.082892135 -0.026177913
0001c0 3a 2f 77 3d b0 f3 8e bc 1a a8 45 3d e6 d8 b4 bd
       0.060347773 -0.017450184 0.048256017 -0.088304326
0001d0 3d e8 83 bd 78 c4 34 bd 60 29 3a bb d7 46 66 bd
       -0.0644078 -0.04413268 -0.002840601 -0.056219902
0001e0 74 b4 de 3c 6a a0 37 3d 43 47 ae bd f9 7d 33 bd
       0.027185656 0.044830717 -0.08509686 -0.04382131
0001f0 fd a4 82 3d 4a 16 13 3d e0 a8 0a bb d0 28 19 bc
       0.06379125 0.03590993 -0.0021157786 -0.009348109
