models/Level3/checkpoint_9000/critic.pth (torch, 327998 bytes, 5 tensors)

net.0.weight f4 [256, 59]
00000000: 167a 263e ad7a 723d 9145 80be 0e19 a93d
00000010: f592 e7bd 156f c13d b3fd d7bd 64c6 68bd
00000020: c314 323c 1d4c 6d3c 311b 443d aebe 69b7
00000030: ddeb 1cbe 47da 623e feb6 50be 1953 0e3e
00000040: 2f23 75be 45b8 753e 4f50 26be 0bfd c0bd
00000050: 557b 3ebe a0f4 a03d d9e9 bfbb 1100 12bd
00000060: afc1 863d 464b 8c3d 59cc 06be 37dc f83c
00000070: 2ac2 4fbe 7d8e e33d 6eab dfbd 8f53 9a3d
00000080: 9371 22be c496 0dbc a0bb bfbd 04bf 013e
00000090: bcb1 a93d d00f c3ba 0397 1bbd 0322 97bd
000000a0: 4092 a23d 1d43 b8bd 743d d7bd 01f5 a83d
000000b0: c6ed 25be 29a4 a43d 6d87 b2bd ee89 c33b
000000c0: ffa9 1fbe 4e61 073e 41c0 ab3d 201a 40be
000000d0: acd9 5abc 857b 4cbd f895 a23d 07ab 523d
000000e0: 67ad 1abe bf32 0cbe 6778 c33d bd74 543b
000000f0: 0998 cbbd d3ad a3be fed8 063e 5d94 553d
00000100: 797f 5e3d 4d65 613d 3337 6f3d 8f4d f4bd
00000110: 85a4 3e3d 0a69 96bc a9ff bebd effb d2bd
00000120: fd40 94bd 519d 1ebe d0b3 803d c01c 29be
00000130: 0775 47bd bb92 8fbe 9c1b 183e 566a 0a3e
00000140: 5e7c d33c 93cb 063d 5676 8cbd 054b e63d
00000150: f4c4 933d b3a7 423e 4140 b23d e37b 2b3d
00000160: 2572 93bd 07a1 693d b79e 82bd c8ea 87be
00000170: 60d6 0e3d 3183 32be b032 24bd 3e0b a13d
00000180: 4ecb ac3d aada 85bd 817e a5ba 2f22 d3bb
00000190: eebe 6d3c ee50 6abe 513a a83d 16c9 51be
000001a0: 877c 27be 1f0f 52be d778 b6bd 69f9 a4bd
000001b0: 8ef0 0ebd 8e70 523d b327 04be 03c1 e1bc
000001c0: 639c fdba 054e 0a3d f356 42ba 9746 2d3c
000001d0: b0eb 2ebe 6e59 2e3e b789 55be b073 d93c
000001e0: 1732 133e f458 dd3d d2aa 4bbe 184c 623d
000001f0: bb44 2e3d 0e24 403e 8bd3 a23c 5f13 aa3d
00000200: ccb6 f7bd ab3a b63d 96a2 19be eb96 413e
00000210: bbd8 8c3d 5ab5 aabc f9c1 e93b 28e2 14bd
00000220: b252 573e 619b 173c e994 a1bd 4a07 013e
00000230: fc8a e4bd f5dd 1abc 4b46 a63d d8e4 103c
00000240: 8b8f 913d b432 e4bb 032c 093e ec11 bd3c
00000250: c156 913e e522 653c 5606 623e bc35 983d
00000260: 60ca 4a3d ff9f a33d 5647 17bd cc56 e23b
00000270: 884d 8bbd a3b7 8ebd 1298 3a3e 86ca 37be
00000280: 2752 0c3d 4be9 3b3e 0a50 493d e821 71bd
00000290: 0a39 7dbc fc3d b43d 0f68 97bc f167 683e
000002a0: 10cd f73d fab3 5dbe 343c 85be 8680 16ba
000002b0: ec4b 323b c901 5dbe 0f8c 10be 1e76 9fbd
000002c0: dfd1 36bd 7136 cb3d aff5 2fbe 298d 0e3d
000002d0: ad0e 46be a091 b3bd 61e7 c3bd bd73 1a3e
000002e0: f1a2 c43e dd3e 0d3e 0bb0 7fbd 3c25 173d
000002f0: e8d5 c93d 6310 64be e5ed 043b d9ab 77bc
00000300: d0fe e93c 032e 37be a938 98bd 618d 273e
00000310: 765c 17be 88b1 063d 90e3 61bc 52ad 16be
00000320: 3ddd 0a3e 05d1 42be 00b4 e73d a193 34be
00000330: 531b 013e 4729 993d 2ef5 ee3c 1210 493d
00000340: 5aec 273e a094 733d d489 69be 6a16 08be
00000350: 8010 8abd 88b0 5cbd 9b0e 6f3e 1982 bbbd
00000360: f09a 62bc bfab 373e 9d9a aebd 81a8 12be
00000370: accc 7abd f580 4cbc 6774 c9bd 9f96 873d
00000380: 4b84 bdbc 08ef bfbc 35fb dc3d e9db 0e3d
00000390: 9918 0ebe 2eed 79bd 99a5 51bc cbcb 703d
000003a0: e048 4ebd 7e29 143d 3cd4 abbd cd8f 35bd
000003b0: 8777 06be a899 33be c692 e93c 7817 44be
000003c0: 14b5 35be c9a1 0ebe 0203 b93d 61ca 173e
000003d0: ccf9 48be c462 183b 8f96 993b de77 213e
000003e0: fb39 1b3e 7988 84bc 8c07 c6bc 4100 8e3c
000003f0: 97ec 733e d5bc 95bd 99d5 2c3d 47d8 8bbc
0.1625751 0.059199024 -0.25053075 0.08256732 -0.11307327 0.09445015 -0.10546436 -0.056829825
0.010869208 0.014483479 0.047877494 -1.3932278e-05 -0.1532435 0.22153579 -0.20382306 0.13898887
-0.23939203 0.23996074 -0.16241573 -0.09423264 -0.18601735 0.078591585 -0.0058567342 -0.035644595
0.06579911 0.06850295 -0.1316389 0.030378444 -0.20288911 0.11111162 -0.109213695 0.07535469
-0.15863638 -0.008641902 -0.093619585 0.12670523 0.08285853 -0.0014882032 -0.037985813 -0.07379534
0.07938051 -0.08997176 -0.10509768 0.08249856 -0.16203985 0.080391236 -0.08717237 0.0059673702
-0.15592192 0.13220713 0.08386279 -0.18759966 -0.013357561 -0.049922485 0.079387605 0.051432636
-0.1510521 -0.13691233 0.09544449 0.0032418214 -0.09941108 -0.31968555 0.13168713 0.052143443
0.054320786 0.05502825 0.05840225 -0.11928856 0.046543617 -0.018360633 -0.09326107 -0.10301959
-0.07238958 -0.15489699 0.062842965 -0.16514874 -0.04869559 -0.28041634 0.14854282 0.13517126
0.025816139 0.032908987 -0.06858508 0.112447776 0.072153 0.19009285 0.08703662 0.041866194
-0.07199506 0.057038333 -0.06377929 -0.2654631 0.034872413 -0.17432858 -0.040087402 0.078634724
0.08437215 -0.065358475 -0.0012626202 -0.006443284 0.014510853 -0.22882435 0.08214248 -0.20486864
-0.16356097 -0.2051358 -0.08909767 -0.08055384 -0.03489738 0.05137687 -0.12905769 -0.027557855
-0.0019348975 0.03376581 -0.0007413469 0.010575912 -0.17082095 0.17026302 -0.20853315 0.026544422
0.14374577 0.10807982 -0.19889382 0.05524835 0.042546015 0.18763754 0.019876262 0.08304476
-0.120954126 0.08897909 -0.15003428 0.18905227 0.068772756 -0.020838428 0.007133719 -0.036348492
0.2102764 0.009253354 -0.078897305 0.12600437 -0.11159322 -0.009452333 0.08118876 0.008843623
0.07107457 -0.006964052 0.13395695 0.023079835 0.283865 0.01398537 0.2207273 0.07432124
0.049509406 0.07989501 -0.036933266 0.0069073197 -0.06801897 -0.0696862 0.18222073 -0.1794835
0.034258034 0.18350713 0.049148597 -0.058870226 -0.015455494 0.08800885 -0.018482236 0.226959
0.120996594 -0.21650687 -0.26022494 -0.00057411974 0.0027205897 -0.21582712 -0.14115928 -0.07786201
-0.044633742 0.09922493 -0.17183565 0.03480259 -0.19341536 -0.0876801 -0.095656164 0.15083213
0.38405564 0.13793512 -0.062423747 0.036900744 0.098552525 -0.22271876 0.0020283398 -0.015116655
0.028563887 -0.17888646 -0.07432682 0.16362526 -0.14781365 0.03288415 -0.013787165 -0.14714554
0.13560958 -0.19025047 0.11313629 -0.17634441 0.1260808 0.07478576 0.029169645 0.04908759
0.16398755 0.05946791 -0.22806484 -0.132898 -0.067414284 -0.05387929 0.23345415 -0.091556735
-0.013830885 0.1793661 -0.08525584 -0.14322092 -0.061230347 -0.012481918 -0.09836655 0.066205256
-0.023134371 -0.023429409 0.107901014 0.03487769 -0.13876571 -0.061017208 -0.012795829 0.058788102
-0.050362468 0.036172383 -0.0839009 -0.044326592 -0.13131534 -0.17539084 0.02851237 -0.19149578
-0.17744857 -0.13928904 0.09033777 0.14823295 -0.1962654 0.0023252228 0.0046871374 0.15768382
0.15158837 -0.016178356 -0.02417352 0.017334105 0.2382072 -0.073114075 0.04219589 -0.017070903

net.0.bias f4 [256]
00000000: e29c cfbc 2300 8bbe 25c9 ef3d e8ef b4bd
00000010: a059 5ebd 57fb 4fbd 3732 8cbe fa92 9f3d
00000020: 0dff 32be 1137 72be bdfe 79bd 88bf f93d
00000030: d8aa 01be f21e f83d 894c f53d 8cb7 ac3d
00000040: f290 a93d 29ed 0cbe 09a3 8fbe b580 cebd
00000050: 131c 54bd 2fd1 82be c111 d9bd c465 db3d
00000060: 78d9 cc3c 669f 183e b4bd 253d 0c1e b33d
00000070: 1391 e23d b363 943d f1fc e8bd da41 c9be
00000080: af97 883d 2462 22be f5f5 47be 5499 e4bd
00000090: 42b0 53be 0bbf ae3c 5719 373a 6ab9 46bd
000000a0: 89a4 99be 2a73 40be bdfc 533e 874e 313e
000000b0: 0eb7 88be 8ba9 e9bd d81b aabd 3e64 4ebd
000000c0: 62d9 f53d 2f31 39be cf6d 65bd c070 09be
000000d0: 109a 313d d448 963e af9b b8be c4ed f73b
000000e0: ab0f 30be 4325 2e3e 892c e93d 3cdc c5bd
000000f0: bd6b b5bd 91c8 76bd ad47 803d fa23 933e
00000100: 8426 95be 8c95 063e d390 90be c8db 42be
00000110: 47cc 75be 6437 abbe ef56 5f3c e9eb 78be
00000120: b26f b6be 4692 7cbe 8bd3 92be 6339 52bd
00000130: b52d 0fbd 09be 52be d880 abbd 035a 70be
00000140: 13f7 32bb fda4 263e fbe4 9cbe 883f 80be
00000150: 4964 6ebe f553 43be 5ff6 94ba 2f6f 4bbe
00000160: 3fe9 9cbd 94ca b5be f7fe fe3d 2f96 0d3d
00000170: 84d6 3ebe b735 4ebd e162 1fbd 19a9 14be
00000180: fece 28be 54bb 8c3d 010e 03be 8a29 18be
00000190: d309 1abe 72a9 86be 7780 95bd f5fa cdbd
000001a0: 0771 1a3d 95cc 2dbe 74f3 8abd a6a8 833e
000001b0: 2e65 48be 5e29 81bd 41fc 2bbe 57b2 49be
000001c0: cf10 40be a715 9abe 2879 28be 4fa9 fe3d
000001d0: 108f 13bd 53c4 03be 5710 84be f330 2fbe
000001e0: ad46 aabd 284f 0dbe be9b b0bd 4a39 64be
000001f0: 46b2 64bd 70f8 7fbe 396e 06be 0ecf 3cbc
00000200: a57e 78be 982a 92be b3a2 11bd 3e0d 483e
00000210: bb77 71be d3fb 093e e4a8 10be c969 92be
00000220: a534 f9bd 27f6 0ebe 9e3e 443d 6ed0 69be
00000230: fa6d e6bc 8adc 58be a57a 31be 7b2b 493e
00000240: e21b 05be afcb 83be 11f1 f73c 70a3 5b3d
00000250: 463f 423e 4eea debd 0b34 6b3d 2ba1 dbbd
00000260: 901f d8bd 13b3 b0be 0392 17be fe2c 96be
00000270: 01d2 573c 587b 0dbe ae05 57bd a62a 2ebe
00000280: 2b20 c23d 56fe 8c3e d8e6 a8be 4cdd bdbd
00000290: 5c27 1fbc c66c 91bd 56df 03be a5d2 9d3e
000002a0: 7444 083d abee 7fbe ed7b 5fbe e331 483b
000002b0: 41a0 fabd afdf eebd b5e3 ab3d b61e a23d
000002c0: c2b2 a5be d8a8 69be 683f d0bc 1cf1 7cbd
000002d0: 34b0 c1be 5a54 9bbe b609 84be cfe3 42be
000002e0: 824b adbe b849 96be b42d 323e c4b8 d6bd
000002f0: bafa 183d 8c9b 7d3e f098 293e 64f4 2dbe
00000300: c4f9 4cbe 84bb 89be d7f1 973c 8c0c 243e
00000310: 8f88 62be 8643 02be 16ab afbd cfa0 24be
00000320: b30d 46be 735e 91be 6a02 e5bd 028a c4be
00000330: fd44 a3be d5de dcbd b10a b9be 1d35 8d3e
00000340: 1f8d ad3d 250f 4bbe 0d93 7cbe 2051 06be
00000350: 7755 a1be 246a 32be 2c41 4ebe 49d7 a5bd
00000360: 72ca 6ebe 7e43 a8bc fbb4 33be f29b 86bd
00000370: 7400 4ebd 3cbe bf3b 85af 46be 6bf8 1b3e
00000380: 7847 eb3d 7f98 04be e564 9b3e b2cf afbd
00000390: 51fd a8bd bb52 ebbd 01dd 8ebe 737d 40bc
000003a0: 1103 8b3e 725f 4bbe 29b5 b43d 8a85 bd3c
000003b0: dda8 91be 98a8 50bd 22dd 8e3e fb41 32be
000003c0: bfe8 6d3d 0b9e 823e 49d6 e13a 3534 8f3e
000003d0: 2eb1 e63d 9952 8cbe efbd 183d 3654 26be
000003e0: 29e5 e8bc adc4 46bd 7639 2dbd 0d2e 653e
000003f0: 202e 303e d2ac 2dbe 4727 003d 2df6 8a3e
-0.025343362 -0.27148542 0.11708287 -0.08834821 -0.05428469 -0.050776806 -0.2738206 0.077917054
-0.17480107 -0.23653819 -0.061033953 0.12194735 -0.12662828 0.12115277 0.119774885 0.08433446
0.08279599 -0.13762344 -0.28054073 -0.10083143 -0.051784586 -0.2555022 -0.105990894 0.1071277
0.02500604 0.14904556 0.040464118 0.08745965 0.11062827 0.072455786 -0.1137637 -0.39308053
0.06669556 -0.1585775 -0.19527419 -0.111620575 -0.20672706 0.02133133 0.0006984672 -0.04851667
-0.30008343 -0.18793932 0.20701881 0.17315112 -0.2670216 -0.11409291 -0.08306092 -0.050388567
0.12004353 -0.18085168 -0.056012925 -0.13421917 0.043359816 0.29352438 -0.36056277 0.0075661857
-0.17193477 0.17006402 0.113854475 -0.09661147 -0.0885844 -0.06024987 0.06263671 0.28738385
-0.29130948 0.13142985 -0.28235492 -0.19029152 -0.24003707 -0.33440697 0.013631566 -0.24308743
-0.35632092 -0.24665174 -0.2867702 -0.05132426 -0.0349557 -0.20580305 -0.08374184 -0.23471837
-0.0027307912 0.16273876 -0.30643448 -0.2504847 -0.23280443 -0.19074996 -0.0011364928 -0.19866632
-0.07661676 -0.35506117 0.124509744 0.034567054 -0.18636519 -0.050344195 -0.038912658 -0.1451763
-0.16485211 0.068716675 -0.12798311 -0.14859596 -0.1504281 -0.26301152 -0.07299893 -0.10057632
0.037705448 -0.16972573 -0.06784716 0.25714606 -0.19569847 -0.06306718 -0.16795446 -0.19696938
-0.18756412 -0.30094644 -0.16452467 0.12434637 -0.036025107 -0.1286786 -0.25793716 -0.17108516
-0.083142616 -0.13799727 -0.086234555 -0.22287479 -0.055834077 -0.24997115 -0.13127984 -0.011523975
-0.24267061 -0.2854812 -0.035555553 0.19536301 -0.2358083 0.1347497 -0.14126927 -0.28596333
-0.12168244 -0.13961087 0.04791128 -0.22833416 -0.028128613 -0.21177879 -0.17331941 0.19645493
-0.12998918 -0.25741336 0.030266317 0.053622663 0.1896945 -0.10884534 0.05742268 -0.107241
-0.10552895 -0.34511623 -0.14801793 -0.293312 0.013172627 -0.13816583 -0.05249565 -0.17008457
0.09478792 0.27537793 -0.3298862 -0.09270725 -0.009713974 -0.07100825 -0.12878165 0.30824772
0.033268407 -0.24993388 -0.21824618 0.0030547313 -0.12237597 -0.11663758 0.08393041 0.07916014
-0.32362944 -0.22818315 -0.02542086 -0.061753377 -0.37829745 -0.30337793 -0.2578866 -0.19032215
-0.3384667 -0.29353118 0.17400247 -0.1048446 0.037348486 0.24766368 0.16562247 -0.16987759
-0.20017153 -0.26900876 0.018547935 0.16020411 -0.22122405 -0.1272107 -0.08577554 -0.16076969
-0.19341163 -0.28392372 -0.11182101 -0.38386542 -0.3188857 -0.10784689 -0.3614097 0.27579585
0.08474182 -0.19829996 -0.2466547 -0.13116884 -0.31510517 -0.17423302 -0.20142049 -0.08097703
-0.23319414 -0.020539995 -0.17549507 -0.06572713 -0.0502934 0.005851535 -0.19402893 0.15231483
0.11488241 -0.12948798 0.30350414 -0.085845366 -0.08251441 -0.11490389 -0.27902988 -0.011748659
0.27150777 -0.19860628 0.08823616 0.023134965 -0.28449145 -0.050942034 0.27903086 -0.17407982
0.058083292 0.25511202 0.001723 0.27969518 0.11264263 -0.27406767 0.03729051 -0.16243061
-0.028429585 -0.04852741 -0.042291127 0.22380848 0.17205095 -0.16960457 0.031287458 0.27140942

net.2.weight f4 [256, 256]
00000000: 1e1b 9a3d 8cd8 a4bd 1741 8f3c ef86 cdbc
00000010: 74f7 903c fc94 a23c 48bf 0a3d 8e79 183d
00000020: 2e52 68be f7cc 3c3c 62a5 2f3d e469 703c
00000030: 42f5 ab3d 9543 94bd 85e3 163d 5ee0 e6bc
00000040: ef63 163e e1fd 4cbe 57d7 eb3c 9e80 debd
00000050: 9f0b 723d d082 533d dc8b 6cbd 23ce 1a3d
00000060: 7fdd abbd 4f1e 0b3d 6769 473d 415a 49bd
00000070: 1c9d ab3c b480 77bc d5d0 173d e157 01be
00000080: fa92 0d3d 318b a93c a813 1dbe b94b 2bbe
00000090: 3405 ca3d 5ee7 bcbd 3cf5 a8bb 897d 373d
000000a0: 9107 35be ab59 e93c 49d9 903d 7116 8f3d
000000b0: 0608 72bc ca0e 76bd 4fed 343d bca2 cb3d
000000c0: e23c 9e3c 47ac 8bbd 449b 883d 0f98 15bc
000000d0: 4330 ff3c 536c fd3c e196 a5be abba 4ebb
000000e0: b381 27bd 0654 183d d17a c53d 64d4 dd3a
000000f0: 981a a0bd fa3a 023d 0796 a4bc 40de b73d
00000100: e7f7 40be 43dd 4c3d d634 97bd 1ccb b13c
00000110: b1ae 78be d250 11bc f47d 59bd 0bf7 ddbe
00000120: ece2 f0be e7b4 b7bd 8333 69be 80c2 7a3d
00000130: 39ef 4abd 20c0 be3d 966c 22bd b1e7 26bf
00000140: ad63 c5bc edff 6f3c f188 8dbe f4d0 e23c
00000150: 14c5 e2ba ddf1 b6bc f9b4 ed3b 0f5b 7a3d
00000160: b310 6ebd 6b30 2fbe c748 4b3c ee22 98bc
00000170: 3d75 cf3c 8802 c23d 4778 85bc b9f5 473b
00000180: aeee aa3d ec96 ddbc fc2c 5f3d 47b2 bbbb
00000190: 93c5 1a3d 8c14 9abd b772 3e3d dace e13c
000001a0: 90cc 3dbc 536b 573d 1933 2c3d 69e1 c4bc
000001b0: 08bd 7fbc 0421 87bc 6319 13bd 0d1b 98bc
000001c0: a129 a1bd 039e 0fbe 4378 b9bc 68d2 c6bc
000001d0: b417 9d3c dec2 d8bc 264e 81be b182 b13d
000001e0: a2a8 8f3d faed cdbe 2ded da3c b885 333b
000001f0: e8ce c43b 1386 033d 0c0e 88bc a334 26bd
00000200: 2547 b53c df02 0d3d 3444 c0bc 6e53 933d
00000210: 02a7 18be 4fbb 823d 2151 31bc a6d5 8f3c
00000220: 5a54 6c3d ad68 9a3c e09c 3f3d cafd d93b
00000230: 6d3e 093d 3c69 7ebd 5146 f03d e3ce 453d
00000240: 2bd0 9cbe 1c67 03bd 8ac4 8e3d 7daf 7bbd
00000250: 039c bc3d b096 35bd fa64 6e3d 526d cf3c
00000260: 16cd ce3b a354 923b 7a57 183d 364a 3bbd
00000270: 41c5 d83c d7b6 2a3c 3967 edbc da58 1abe
00000280: 1290 30bc 1178 c03b 6e9a 813c b62e 473c
00000290: a895 d03d 42cf 743d 7018 983d c18f e83d
000002a0: b64a a4bb 9691 083d 73cb 4e3d 8211 8fbc
000002b0: 2555 bcbd 2bd0 e43c c67f 8c3d 04c8 2b3d
000002c0: 8715 24be e817 c23c 65d0 813d 21ab d0bc
000002d0: 7db3 003d d787 79be b009 8fbd 0b24 83bc
000002e0: dd85 febe aa6b 9abd 34cc 9abc 6f15 a3bd
000002f0: d047 2f3d cae7 c03d e1a7 6d3d 2340 aaba
00000300: f4d8 e5be 4bde f2bc 6240 75ba 573f 0b3c
00000310: cc3a 043c 908c 373d 199c 0e3d 0b47 8f3c
00000320: e8b6 f33c d2b0 1b3c b1a9 173d 9f63 9ebe
00000330: 4229 18bd 4ea1 d2bd 64d4 99be c292 6fbc
00000340: 1f69 783c 0a4f 65bc 399e 3fbd a3e9 c33c
00000350: ea8c 9dbd 13d5 c5bc b883 50bc d974 07be
00000360: 3611 d43c f5bb be3d cc81 d8ba 8f34 943d
00000370: 9489 253d 1b1d 603c 5d04 ad3d cc43 21bc
00000380: 67e0 1d3d da57 78bd 151b 173d 20be cdbd
00000390: 1eb4 923d ac80 433d 0935 b53d 9ed0 1e3e
000003a0: 20ed 8e3d 4c78 b8bd e9ce 153d c4c5 aebc
000003b0: 6000 b0bc 13c2 883d e7aa 053c ff6a 01bd
000003c0: b8f5 a13c 3ea2 013d 38b3 ed3d f9b1 933d
000003d0: 9b8c 8bbc 3432 b3be 00df 05bd 53e3 58bd
000003e0: 7224 7dbd 054f 0cbd 48d5 2bbc 4df4 7b3d
000003f0: 14c6 bf3c d137 6a3c 6893 bbbc 08ee 49bc
0.075247034 -0.080491155 0.017487092 -0.025088755 0.01769612 0.019846432 0.033873826 0.0372253
-0.22687599 0.011523477 0.04288233 0.014673684 0.083963886 -0.07239453 0.036838073 -0.028183158
0.14686559 -0.20018722 0.028789205 -0.108643755 0.059093114 0.051638424 -0.057750568 0.037794244
-0.083918564 0.03396445 0.048684504 -0.04915834 0.020948939 -0.015106369 0.037064392 -0.1263118
0.034563996 0.020696254 -0.1533953 -0.16728105 0.09864274 -0.09223817 -0.0051561873 0.044797454
-0.17678668 0.02848514 0.07072694 0.06986702 -0.014772421 -0.060072698 0.044171628 0.099431485
0.01931614 -0.06819969 0.066702396 -0.009130492 0.031150943 0.030935442 -0.32341674 -0.0031544368
-0.040895175 0.037189506 0.09642566 0.0016924259 -0.07817572 0.031794526 -0.02009107 0.08977938
-0.18844567 0.0500157 -0.073831245 0.021703295 -0.2428539 -0.008869367 -0.053098634 -0.4335254
-0.47048128 -0.08970051 -0.22773556 0.061220646 -0.049544547 0.09313989 -0.039654337 -0.65197283
-0.02409538 0.01464842 -0.2764354 0.027687527 -0.0017301165 -0.022332126 0.0072542396 0.061121996
-0.058121394 -0.17108314 0.012407488 -0.018571343 0.025324458 0.09473139 -0.016292704 0.0030511452
0.08346306 -0.027049504 0.05448626 -0.0057280394 0.037786078 -0.0752345 0.04649612 0.027564455
-0.011584416 0.052592587 0.042040918 -0.024033265 -0.015609033 -0.016495235 -0.035912883 -0.018567586
-0.07869268 -0.1402512 -0.022640353 -0.024270251 0.019176342 -0.026460107 -0.25254935 0.086675055
0.07014586 -0.40220624 0.026724422 0.0027392935 0.0060061105 0.032110285 -0.01660826 -0.040577542
0.02212865 0.034426566 -0.023470022 0.07193647 -0.14907458 0.063833825 -0.010822565 0.01755793
0.05769763 0.018848741 0.046780467 0.0066525685 0.0335068 -0.062112078 0.11732162 0.048293006
-0.3062757 -0.032080755 0.069710806 -0.061446656 0.092094444 -0.04433316 0.058201768 0.025320683
0.0063110692 0.004465656 0.0371928 -0.04572507 0.026461245 0.010419569 -0.028979884 -0.15072957
-0.010776537 0.005873688 0.015820708 0.012157133 0.10184795 0.05976797 0.07426536 0.11355544
-0.005013789 0.033341967 0.050486993 -0.017464403 -0.091959275 0.027931293 0.06860308 0.041938797
-0.16023837 0.02369304 0.06338576 -0.025472226 0.031421173 -0.24368225 -0.069842696 -0.016008398
-0.49711505 -0.075400665 -0.0188962 -0.079630725 0.042793095 0.0941921 0.05802143 -0.0012989085
-0.44892085 -0.029647013 -0.0009355602 0.008498988 0.008070659 0.044811785 0.034816835 0.01748993
0.029750302 0.0095026065 0.037027065 -0.3093538 -0.03714872 -0.10284673 -0.30044854 -0.014622392
0.015161782 -0.013995895 -0.046781752 0.023915118 -0.07692893 -0.024149453 -0.012726717 -0.13228168
0.025887113 0.09313194 -0.0016518175 0.07236587 0.040414408 0.013678814 0.08448098 -0.009842824
0.038544085 -0.060630657 0.03689106 -0.10046029 0.07163261 0.047730133 0.08848006 0.15509269
0.06978822 -0.0900732 0.036574278 -0.021334536 -0.021484554 0.06677642 0.008158422 -0.03159618
0.019770488 0.031648867 0.11606449 0.0721168 -0.01703482 -0.3499924 -0.032683372 -0.05295117
-0.061802335 -0.034255046 -0.010487862 0.06151228 0.02340988 0.014295534 -0.022897437 -0.0123248175

net.2.bias f4 [256]
00000000: 9135 413e 9ef0 363e 4efb 853e 9fad 233d
00000010: 3a6b 38be 505f 32be 8e75 4b3e f488 dabd
00000020: 5957 01be d509 cabd 572f 1dbe 6620 bf3d
00000030: 2b45 f9bb dff8 c7bc 5780 22bd 304c 993d
00000040: d6e3 35be e7cc 7fbd 06fd 593e 6b4e 2cbd
00000050: 5066 4bbd e6ef 11be 4a3d 1bbe 425d 12be
00000060: db36 483e 1a5b 3f3e 56f7 3dbd 2fea e43c
00000070: 8d2c c9bd 900b 2cbe 605b 64be 3683 04be
00000080: cb37 17be 30db 54be 4151 53be 3eaf 8ebd
00000090: a36a 29be 599d 40be 0538 39bd 5018 c5bc
000000a0: cae9 1bbe 61b7 6bbe 5f39 bdbc 22c5 5ebe
000000b0: 26b3 28be 51c9 65be 00fd 863e 6692 37be
000000c0: eb34 60bd aac7 f8bd 3322 52be 0de9 3fbe
000000d0: 613a acbd 33ab efbd f882 22be 3a32 84be
000000e0: f1a4 b53c 0d68 fdbd 0111 3abc 6ac3 c73d
000000f0: 4bc5 edbd 8327 9abe 43db 7abe 1638 75bd
00000100: 97d8 41be 99f2 383d 985f 963e 511f 18be
00000110: 6ad0 383d 61d3 923e 2659 f73d 2cfc fabd
00000120: 82f7 c2bd 5448 50be ad9c 6bbc 6cd1 413e
00000130: ab56 803e e472 67be ad6b 28bd ec71 febd
00000140: da44 f43d a4b9 3fbe 2df1 7f3c 7aed 023d
00000150: 9816 1b3e 1c3c e53d 8c80 453d 995c 90bd
00000160: 6e97 e1bd 2950 0d3e a3a5 423d c47f a9bc
00000170: eac6 24bd e079 d2bd c2ea 37bc f849 9bbe
00000180: 0cb6 51bc af5f 0fbe 0f4d 70be b311 f4bd
00000190: 463a a43e b154 543d de18 a8bd 169d 6e3e
000001a0: 6785 5b3e 006b 96bc df43 4c3d f815 983e
000001b0: ce14 b5bc 0e19 323c 8ae8 f5bd 31f1 a03e
000001c0: 5f2d 5abe bc3e 4e3d baa6 84be f5b6 57be
000001d0: 7837 8b3e 91c6 023e 941f 84bd 6e3b 58be
000001e0: 1a14 17be ca1e aabd 0cb3 183e 5228 883e
000001f0: 4c29 1d3d 0b11 533e 4ff6 47be d2d0 39be
00000200: 0185 863d c7dd f53d a2c2 1ebd 9d20 76bd
00000210: 9fb3 773e 4227 31be f49e 6abe 3cae 813e
00000220: 56e0 02be eb02 04bd 3fcf 13be ea47 14be
00000230: 62c1 8dbe 9c51 d8bd 92b0 42be 8703 1fbe
00000240: 304c 91bd 243a 65be d70d b13d e047 f6bd
00000250: ad0f 44be 466f 0cbe d364 673e 751d b43d
00000260: 0e7c 40bc 1f54 a8bd 8932 3cbe aee9 9c3d
00000270: 94e1 a03e 8afe ed3d f283 6f3c b0aa e73d
00000280: 871c 26bd 0e10 853e 328e 8e3e 2144 0e3d
00000290: eb74 68bd e8b7 bcbd ee25 8d3d 14bc e33d
000002a0: dfea 61be bd25 b23b bd64 5abe 9411 0c3e
000002b0: 1afc f6bd b638 b73d c843 38be ecf3 9d3c
000002c0: 264d edbd af9f 843b 0e5a 43be 9b13 f7bc
000002d0: ba71 a6bd d63b afbb bce7 993e 672c 5b3e
000002e0: bf8d 9dbd 975e 03be 8a16 3f3e c4e3 5bbe
000002f0: 83d6 25bd de36 d8bd cec4 a7bc 0b34 9d3e
00000300: 3930 dcbd 4405 933e 832c 923e a3c2 47be
00000310: 0e69 8a3c 3f05 e6bd 29bc 02be 11cc 7b3d
00000320: fd78 e7bd 24eb e23d b792 1fbe e82d b93c
00000330: ae70 abbd 1219 863d eee0 46bd 9a49 b9bd
00000340: 8c32 58be 8edc a7bd 10aa e2bd 5cf3 09be
00000350: 27c9 4fbd 8e69 15be d956 433e 628b 793e
00000360: 58f9 473e fc56 343e c0f2 a9bd 1017 dbbc
00000370: 047d 863d 9030 cabd 21dc 703e 729f 7f3e
00000380: a8ed 34bd 3b4d 5e3e 0a69 edbd c84c fc3d
00000390: 7a78 01bd c038 44be 70d8 433e 81f8 f6bc
000003a0: 2a52 cbbd 0308 38be 62d0 03be c7b9 8e3e
000003b0: 9a1a 0fbe b053 403e 5e02 75be d10a bebc
000003c0: be5e 16be 5aa4 a33d 784b ec3d bae4 97bd
000003d0: 8bb8 86be 4906 723d d481 4e3e d746 b5bd
000003e0: 9e51 543e 6169 87bd fb9c 2fbe c950 8a3e
000003f0: 9ea7 81be db6b 5cbe 8ef5 49be 2a9f 5a3e
0.1886809 0.17865226 0.26168293 0.0399605 -0.18009654 -0.17419171 0.19869062 -0.10670653
-0.12630977 -0.098651566 -0.1535009 0.093323514 -0.0076071224 -0.024410663 -0.039673176 0.07485235
-0.17762694 -0.06245127 0.21287927 -0.042066973 -0.04965812 -0.1425167 -0.15160099 -0.14293388
0.19552176 0.18687096 -0.046378456 0.027943699 -0.098229505 -0.16801286 -0.22300482 -0.12940678
-0.14767377 -0.20786738 -0.20636465 -0.069670185 -0.16544585 -0.18810023 -0.04521944 -0.024059445
-0.15225902 -0.23019172 -0.023098646 -0.21754888 -0.1647459 -0.22440077 0.263649 -0.1792694
-0.054737967 -0.12147458 -0.20520858 -0.18741246 -0.084095724 -0.117025755 -0.15870273 -0.2581957
0.022173377 -0.12373362 -0.011356593 0.09754069 -0.11609896 -0.3010827 -0.24497704 -0.05986794
-0.18930279 0.045153234 0.29369807 -0.14855696 0.045120634 0.28676894 0.120775506 -0.12255129
-0.095198646 -0.20340091 -0.014380616 0.18927544 0.25066122 -0.22602421 -0.041118313 -0.124240726
0.11927195 -0.1872316 0.015621466 0.031964757 0.15145338 0.111931056 0.048218295 -0.070489116
-0.11015211 0.1380011 0.047521245 -0.020690806 -0.04022876 -0.10277152 -0.011225404 -0.3032987
-0.012799751 -0.14001344 -0.23466896 -0.11917438 0.3207571 0.05183858 -0.08207868 0.23302111
0.21437608 -0.018361568 0.049869414 0.2970426 -0.022104647 0.010870231 -0.12007244 0.31434014
-0.2130637 0.050352797 -0.25908452 -0.21065886 0.27190757 0.1277106 -0.064513355 -0.2111642
-0.14753762 -0.08306654 0.14912051 0.26593262 0.038369462 0.2061197 -0.19527553 -0.18146065
0.06568337 0.12005191 -0.038759835 -0.060089696 0.24189614 -0.17300132 -0.22912198 0.25328243
-0.1278089 -0.032229345 -0.14434527 -0.14480558 -0.27686602 -0.10562441 -0.19012669 -0.1552869
-0.0709461 -0.2238546 0.08645218 -0.12025428 -0.19146605 -0.13714322 0.22597055 0.08794681
-0.011748327 -0.0821917 -0.18378653 0.07661758 0.31422102 0.11620815 0.014618861 0.11311853
-0.04055455 0.2598881 0.2784286 0.03473294 -0.056752127 -0.09214765 0.06892 0.111198574
-0.22062252 0.0054366277 -0.21327491 0.1367858 -0.12059803 0.08946364 -0.17994606 0.01928135
-0.115869805 0.004047356 -0.19077322 -0.030160716 -0.0812716 -0.005347709 0.30059612 0.21403657
-0.076930515 -0.12829052 0.18660942 -0.21473604 -0.040487777 -0.1055734 -0.020479586 0.30703768
-0.10751385 0.28714955 0.28549585 -0.19507842 0.016895797 -0.11231469 -0.1276709 0.06147391
-0.113023736 0.11080006 -0.15583311 0.022604898 -0.08371101 0.065477505 -0.048554353 -0.090472415
-0.21113032 -0.08196364 -0.11067593 -0.1347174 -0.050728943 -0.14591047 0.19076099 0.24369577
0.19528711 0.17611307 -0.08298254 -0.026744395 0.065668136 -0.09872544 0.23521473 0.24963167
-0.04417196 0.21709149 -0.115923 0.12319332 -0.031609036 -0.19162273 0.19125533 -0.030147793
-0.09927781 -0.17971806 -0.1287246 0.27876112 -0.13974991 0.18781924 -0.23926684 -0.023198517
-0.14684579 0.07990332 0.11537832 -0.07416673 -0.2631267 0.059088025 0.20166713 -0.08851402
0.2073426 -0.06611896 -0.17149727 0.2701476 -0.25323194 -0.21525519 -0.19722578 0.21349779

net.4.weight f4 [1, 256]
00000000: 7fab 173d e6b5 ab3e 7222 dd3d 2b13 403e
00000010: 3379 bebe b598 6fbe f2c5 d13d b270 a0bd
00000020: 8e7f 67be 4815 1ebd 4c41 68be 0304 413e
00000030: 1587 633e 4bcd 71be d503 193e c99c 803e
00000040: 19f8 07be 22f9 6bbe 1d46 e23d 7b56 c73b
00000050: a8a4 81bc bdaa 80be c9af 6fbe 8360 5abd
00000060: 458c 333d ba73 843d 534d 5e3d f859 debc
00000070: 729b 89be 29c3 c4be a957 c5bd 1998 89be
00000080: e477 6cbd 929f 89be e348 84be adc4 a7bb
00000090: ba9c a9bd bc91 37be cee4 0cbd 6e06 523e
000000a0: e81f c8bd a0d0 4a3e d963 373e b8d3 bbbe
000000b0: c4b5 c3bd a202 973e a6a9 ed3d b611 86be
000000c0: 6320 57be c128 53bd b087 74bd 4964 28bd
000000d0: 8859 3ebe 4a96 6cbe b5cc efbc 5f8d b4be
000000e0: 685f 7e3d 3b2e 1fbe 560c 35ba e74f c23d
000000f0: a1ab e6bd 30dc 9bbe ee25 8cbe 3971 d73c
00000100: c87e 23be 77bc 013e 241d 323e a1a7 02be
00000110: 3cc8 c43e 3b35 863d 1266 843d d8f5 66be
00000120: b194 32be b98d b0be 119e 853e 53dd ab3d
00000130: 9a72 c83d f930 c9be 9589 74be ee9d 45be
00000140: 0512 aa3e f6dd 84be e6d3 913e 8566 673e
00000150: 79d2 013d 012e a23e fa8f 243e 1bc9 b8be
00000160: 4569 56bd 07ff ad3e 78ef bd3d 525c 403c
00000170: 7a14 853e 85eb 62bd 4940 4dbe a177 81be
00000180: 8eab 803b ef4d 60be 1e89 8ebe 218c 59be
00000190: 0dbb 1b3e 33be 403e 2d04 bfbd 8e33 c13d
000001a0: 07b3 bb3d 982c 8fbe 708b 5c3b 4721 123e
000001b0: cede 0a3d d39c 69be 4010 2bbe 735f 193e
000001c0: 7e74 b7be b8a4 153e 4692 da3e a06f 94be
000001d0: b292 b73d 40a6 c23d 9599 73be 0a1c 8ebe
000001e0: 8305 0bbe daad 8dbd 468e 143e 555d d33d
000001f0: ba4d 43bd d0b1 a53d 53ca 8fbe e21c 803e
00000200: 2296 043e 938e 143d cfa3 bdba 734e 10bd
00000210: b1fa c63d fa0a 63bd 3460 ebbe 361c 113d
00000220: fc83 ccbd 82e6 b03e a848 38be e560 45be
00000230: dcf0 9bbe 315e 44bd 1336 6abe 7b3e 70bd
00000240: 3b75 873e 2235 61be dc64 9c3e 46f8 2dbd
00000250: 55c8 25be 87bb 9fbe b2ad 013e 6840 ad3e
00000260: 4d10 edba 314c 3c3e 86ab 92bd b06c 0d3e
00000270: 258e 0c3e d5f9 e83d 10a4 093e 949c 923e
00000280: 2055 4dbe c306 803e 18e6 8f3d 6f9a c33e
00000290: 8f17 183c 5325 1cbe aaf7 a23d e666 123e
000002a0: fc17 70be 9979 d93c 9e92 5dbe cea8 8a3b
000002b0: dbcb e6bd ff5e 69bc eb5f 36be 3b37 453e
000002c0: 1f93 51bd 9027 3ebc 20d5 11be 5724 3dbe
000002d0: 0c62 94bd cef2 553e 47db eb3d 6891 de3d
000002e0: f518 35be 6eae a2be 8abf 9b3d 3e54 98be
000002f0: abf2 0c3e 5836 68be 2d89 07be 93d6 153e
00000300: a33d febd af6a 083e ab86 8a3d 716c 5fbe
00000310: 4267 ee3d c2c5 16be 67fd babc 9003 133d
00000320: 8dfb 2abe 5f39 0b3e 068c b1be 20c3 d63c
00000330: 22ec 8abc b672 243e 874b 87be 1804 96be
00000340: 31f7 70be 6d53 84be c44a b6bd 0cba 2dbe
00000350: 2cb1 c23b e760 34be d0a8 f63d 6855 9d3d
00000360: 724f 1d3e 7adf 723d dadc 8fbe 01c6 41be
00000370: 61c2 07bc 23c4 6dbe 56f6 0b3e 2be7 683d
00000380: 7fa1 6e3e a095 d13d 2a53 92be 21ef 173e
00000390: 805c b23e 53f4 7fbd a1ed 8c3d 3962 8fbe
000003a0: 358d 41be 9f79 b2be 1808 b0bd 5028 8e3d
000003b0: a204 ccbc 7a92 583e eebf e8be 1ead 58be
000003c0: 1c70 21be 0c4f c83d d584 463e 4976 a03c
000003d0: 3259 9dbe 1e55 b73e 0737 e63d a64d 97bd
000003e0: ea23 703d a2e1 113e ad72 72bd fbfc 943d
000003f0: 9859 73be 7eef 9ebe 8bfa 4fbe 536c bf3d
0.037028786 0.33537215 0.107975855 0.18757312 -0.37201843 -0.23398097 0.10242833 -0.07833995
-0.22607252 -0.038594514 -0.22681159 0.18849187 0.22219498 -0.2361347 0.14942868 0.25119618
-0.13278235 -0.23044255 0.11048529 0.0060833073 -0.015825585 -0.25130263 -0.234069 -0.053314697
0.043834943 0.064673856 0.05427296 -0.02714251 -0.26876408 -0.38430145 -0.096358605 -0.26873854
-0.057731524 -0.26879555 -0.25836858 -0.005119881 -0.08281846 -0.17926687 -0.034397893 0.20510265
-0.09771711 0.19806147 0.17909183 -0.36684966 -0.095561534 0.29494196 0.116046235 -0.26185387
-0.21008448 -0.051552538 -0.059699714 -0.041111264 -0.18588841 -0.23104206 -0.029272417 -0.35264108
0.062102705 -0.1554498 -0.000690644 0.094878964 -0.11263204 -0.30441427 -0.27372688 0.026299106
-0.15966332 0.1266955 0.17393929 -0.12759258 0.38434017 0.06553122 0.06464781 -0.2255472
-0.17439534 -0.34483126 0.26097158 0.083918236 0.097874835 -0.39295176 -0.23880608 -0.19298527
0.33216873 -0.25950593 0.28481978 0.22597702 0.031694863 0.31675723 0.16070548 -0.3609093
-0.052346487 0.33983633 0.09274191 0.011740761 0.25992185 -0.05540039 -0.20044054 -0.25286582
0.003926701 -0.2190473 -0.27838987 -0.21244861 0.15208073 0.18822555 -0.09326968 0.094336614
0.09165006 -0.2796371 0.0033652447 0.14270507 0.03390389 -0.2281373 -0.16705418 0.14977817
-0.35831064 0.14613616 0.42689723 -0.28991413 0.08963527 0.09504366 -0.23789056 -0.27755767
-0.13576321 -0.06917925 0.14507398 0.10320536 -0.047681548 0.08090556 -0.2808405 0.25022036
0.12947896 0.036268782 -0.0014468374 -0.035231065 0.09715784 -0.05543039 -0.45971835 0.035427295
-0.099861115 0.34550864 -0.17996466 -0.19275244 -0.304572 -0.04794139 -0.2287219 -0.058653336
0.26456627 -0.21992925 0.305457 -0.0424731 -0.16189702 -0.3119776 0.12663916 0.338382
-0.0018086523 0.1838844 -0.07161622 0.13810992 0.13726099 0.11375777 0.13441491 0.28635085
-0.20052004 0.2500516 0.07026309 0.3820376 0.009282961 -0.15248613 0.079573944 0.14297065
-0.2344665 0.02654724 -0.21637961 0.004231549 -0.11269351 -0.01424384 -0.17810027 0.1925935
-0.051165696 -0.011606112 -0.14241457 -0.18470894 -0.072452635 0.20893404 0.11516433 0.10867578
-0.17685302 -0.31773704 0.076048926 -0.29751772 0.13764445 -0.2267698 -0.13235922 0.14632635
-0.124141 0.13321947 0.06763967 -0.21818711 0.116407886 -0.14723876 -0.02282591 0.03589207
-0.16697522 0.13596104 -0.34677142 0.02621609 -0.0169583 0.16059384 -0.2642481 -0.29299998
-0.23531796 -0.258449 -0.08900979 -0.16965503 0.0059415307 -0.1761509 0.12043917 0.076823056
0.15362337 0.059295155 -0.28098184 -0.18923189 -0.00828609 -0.23219351 0.13668188 0.056861084
0.23303793 0.10233617 -0.28579074 0.14837314 0.34836197 -0.062488865 0.068812616 -0.28004625
-0.18901522 -0.34858415 -0.08595294 0.06941283 -0.024904553 0.21149626 -0.4545893 -0.21159789
-0.15765423 0.09780702 0.19386609 0.019587653 -0.30732113 0.35807127 0.112409644 -0.07387857
0.058628 0.14246228 -0.059191395 0.07274815 -0.23764646 -0.31042093 -0.20310418 0.09346833
