models/maddpg/checkpoint_ep1150/adversary_1.pth (torch, 764002 bytes, 44 tensors)

network.0.weight f4 [128, 16]
0	0xbd0debf9	-0.03464887
1	0xbe7ed892	-0.24887303
2	0xbcffce89	-0.031226413
3	0xbe20599b	-0.15659182
4	0xbdb192c7	-0.08670574
5	0x3e53dd2e	0.20689842
6	0x3d307c1e	0.043087117
7	0x3e1c4772	0.15261629
8	0xbe96d3ac	-0.29458368
9	0x3e20ae44	0.15691477
10	0x3e483043	0.1954966
11	0xbdf1ba20	-0.11803079
12	0xbcbcc69d	-0.023043925
13	0x3d67fabb	0.0566356
14	0xbdc9d5cb	-0.09855231
15	0x3e94202a	0.2893079
16	0xbe83ba29	-0.25727966
17	0x3e634c3f	0.22197054
18	0xbe37abf9	-0.17936696
19	0x3dc6297b	0.096758805
20	0x3dc881f6	0.09790413
21	0xbe7d05df	-0.24709271
22	0xbe90b126	-0.28260154
23	0xbe5e0d93	-0.21684866
24	0x3de145e5	0.109996594
25	0x3e0229db	0.12711279
26	0x3e6925b3	0.22768287
27	0xbd0ddfa6	-0.034637116
28	0xbe87351d	-0.2640771
29	0x3d8e52eb	0.06949409
30	0x3e2a53ae	0.16633484
31	0x3e905801	0.28192142
32	0xbd954a62	-0.07289578
33	0xbe29780b	-0.16549699
34	0x3e0742c4	0.13209063
35	0xbd7867c6	-0.06064584
36	0xbdc380a8	-0.095460236
37	0xbe29ffa2	-0.16601422
38	0x3df04cbf	0.11733388
39	0x3db46f1f	0.08810257
40	0x3e870622	0.26371866
41	0xbe421567	-0.18953477
42	0xbe1102cc	-0.14161223
43	0xbde6209f	-0.11236691
44	0x3d707f73	0.058715295
45	0x3db0420e	0.08606349
46	0xbdfe07ea	-0.12403853
47	0x3e6eee6b	0.23333137
48	0xbd59dd78	-0.053189725
49	0xbe90d3e3	-0.28286657
50	0x3def6af8	0.116903245
51	0xbccc879a	-0.024967004
52	0xbe57f4d4	-0.21089488
53	0xbd03eeeb	-0.03221027
54	0xbd7c0446	-0.061527513
55	0xbe972c18	-0.29525828
56	0xbcd503d8	-0.02600281
57	0x3e037e7e	0.12841222
58	0xbe7e5e6d	-0.24840708
59	0xbe944ff2	-0.28967243
60	0xbe882a6c	-0.26594865
61	0xbe6f4fd8	-0.23370302
62	0x3e14a1a3	0.14514785
63	0x3e8bb636	0.27287453
64	0x3e293e74	0.1652773
65	0x3e327580	0.17427635
66	0x3e76d442	0.24104407
67	0x3db5ecbd	0.08883045
68	0xbe8c0f00	-0.27355194
69	0xbe8de5c3	-0.27714357
70	0xbe4d0546	-0.20021543
71	0x3e62a7e1	0.22134353
72	0xbc0dda96	-0.008658072
73	0xbe23b612	-0.15987423
74	0x3c172ba5	0.009226714
75	0xbe82881f	-0.25494477
76	0xbd8197af	-0.063277595
77	0x3d5b378f	0.05351978
78	0x3e0b2ae7	0.13590585
79	0xbd9f7609	-0.07786185
80	0xbe6dc79d	-0.23220678
81	0xbe63d1f3	-0.22248058
82	0x3e23f95d	0.16013093
83	0xbc8d4ffb	-0.017250052
84	0x3e53fcd6	0.20701918
85	0x3d86c6d1	0.0658089
86	0x3ca1c659	0.0197479
87	0x3d7cf7a6	0.061759613
88	0x3da68be9	0.081321545
89	0xbe33b0da	-0.17547932
90	0x3e95cde2	0.2925864
91	0xbd3029e4	-0.0430087
92	0xbddda3b1	-0.10822237
93	0xbdf7e2be	-0.121037945
94	0xbe83ded2	-0.25755936
95	0xbe2a89ae	-0.16654083
96	0x3e59cdd2	0.2126992
97	0x3d432e3e	0.04765152
98	0x3e70f2e2	0.23530152
99	0x3c5129d0	0.0127663165
100	0x3c54d610	0.01299049
101	0xbe48c92a	-0.19607988
102	0xbe7ed34b	-0.2488529
103	0xbe33f0ae	-0.17572281
104	0xbe6be30b	-0.23035829
105	0x3e5a0881	0.21292306
106	0x3e8ff7db	0.28118786
107	0xbe3d5aaf	-0.18491624
108	0x3e1b97e9	0.15194668
109	0xbe40206b	-0.18762366
110	0x3d8e8bc0	0.06960249
111	0xbd6199c9	-0.0550783
112	0xbe8fd9d9	-0.28095892
113	0xbe24c9de	-0.16092631
114	0xbe44a31e	-0.1920285
115	0x3e14c9e7	0.14530145
116	0xbd17057d	-0.03687047
117	0xbd19bad3	-0.037531685
118	0x3e52949e	0.20564505
119	0x3dd1a2e0	0.10236144
120	0x3d2df106	0.042466186
121	0xbc6ddd5c	-0.014518108
122	0xbe1946cc	-0.14968413
123	0xbe137a1c	-0.1440205
124	0x3e8c6af8	0.2742536
125	0xbe734262	-0.23755792
126	0x3e737c1b	0.23777811
127	0x3e8ac636	0.27104348
128	0x3e0bb4ff	0.13643263
129	0xbc5c0b7b	-0.0134304715
130	0x3d9e1f9c	0.07720873
131	0x3e8f7eb8	0.28026366
132	0x3e208561	0.1567588
133	0x3d2b73a2	0.041858323
134	0xbe699491	-0.2281058
135	0x3e68ed93	0.22746877
136	0x3d81d96f	0.063403
137	0xbe540436	-0.20704731
138	0x3e4509d8	0.19242036
139	0xbd149e2e	-0.036283664
140	0x3e70c491	0.23512484
141	0x3c3f6c39	0.011683517
142	0x3e3271f4	0.17426282
143	0x3e116d22	0.14201787
144	0x3e52c5f3	0.20583324
145	0x3bfc70ca	0.007703875
146	0xbe114a0e	-0.14188406
147	0x3e359449	0.17732348
148	0xbe0b8f1c	-0.1362881
149	0x3e015355	0.12629445
150	0xbe3538c9	-0.17697443
151	0xbe175b66	-0.1478096
152	0xbdcea553	-0.10090127
153	0x3e76722a	0.24066988
154	0xbe7d8f71	-0.2476175
155	0x3da48556	0.08033244
156	0xbe5d6b93	-0.21623068
157	0xbe86294e	-0.26203388
158	0x3e0ff2b3	0.14057426
159	0xbda281aa	-0.07934888
160	0x3dd11e14	0.10210815
161	0x3d0cc03b	0.034363013
162	0xbd58a5ff	-0.05289268
163	0x3e955c50	0.2917199
164	0xbe28eed1	-0.16497351
165	0xbdbeb8be	-0.093125805
166	0x3e418bfb	0.18901055
167	0xbe4491af	-0.19196199
168	0xbe79f799	-0.24410857
169	0xbdfd5b24	-0.12370899
170	0x3d1dd90d	0.038537074
171	0x3c8f3321	0.017480435
172	0xbd3131e5	-0.043260474
173	0xbe00ec13	-0.12590055
174	0xbdade84e	-0.08491574
175	0x3e68f696	0.22750315
176	0xbd3d9bf4	-0.046291307
177	0x3e0dfdea	0.13866392
178	0x3d7c9e90	0.061674654
179	0x3dccaf5f	0.09994387
180	0xbce9a694	-0.028521813
181	0x3d3ac4a2	0.04559768
182	0xbdd87d6f	-0.105707996
183	0x3c839ad7	0.016065044
184	0xbe2232ff	-0.15839766
185	0x3d25997c	0.040429577
186	0x3e2f6163	0.17126994
187	0x3e8a3af8	0.26998115
188	0xbe9b9077	-0.30383655
189	0x3e68ad99	0.22722472
190	0xbe0336ff	-0.12813948
191	0x3dd6637f	0.10468196
192	0x3ceb4ec2	0.028724078
193	0x3e5773e1	0.21040298
194	0xbd8272b7	-0.06369536
195	0x3e314b7e	0.17313954
196	0xbd9aeb65	-0.07564429
197	0xbe716bb7	-0.23576246
198	0x3e74d2ec	0.23908585
199	0xbe838007	-0.25683615
200	0x3e83631a	0.25661546
201	0xbd37be31	-0.044859115
202	0x3b8e02ce	0.0043338304
203	0x3daadd2a	0.08342965
204	0x3e529e90	0.205683
205	0x3e055790	0.13021684
206	0xbe30bb38	-0.17258918
207	0xbe171721	-0.14754917
208	0xbe62c133	-0.22144012
209	0xbdd787ed	-0.10523973
210	0xbe3451e3	-0.17609362
211	0xbe48bb87	-0.19602786
212	0x3c9d66cf	0.019214062
213	0x3d5cac7a	0.053875424
214	0xbe4d155b	-0.20027678
215	0x3d6f8e4a	0.058485307
216	0x3e830b3c	0.2559451
217	0x3e8d98be	0.27655596
218	0x3dfa0f7b	0.12209984
219	0x3daa92c3	0.08328774
220	0x3e29a71b	0.16567652
221	0x3baf48bc	0.005349247
222	0x3e5eb6fe	0.21749493
223	0xbe171345	-0.14753444
224	0xbe4dc2ca	-0.20093837
225	0x3dd92707	0.10603147
226	0x3e2d68fd	0.16934581
227	0xbe6271f0	-0.22113776
228	0x3e2ce49b	0.16884081
229	0xbe5780ee	-0.21045277
230	0x3def1157	0.11673229
231	0x3e741bff	0.23838805
232	0x3e6f91f9	0.23395528
233	0xbe5e6aa7	-0.21720372
234	0xbdc2b2f2	-0.09506787
235	0xbd47ce10	-0.0487805
236	0x3cf79256	0.030221146
237	0xbe4c2705	-0.1993676
238	0x3e4ba980	0.19888878
239	0x3d3bc2d1	0.04584009
240	0xbe0c64c7	-0.13710319
241	0xbe8e8e80	-0.27843094
242	0xbcb8154c	-0.022471093
243	0xbcc12f50	-0.02358213
244	0x3cc25932	0.023724172
245	0xbe7bef39	-0.24602975
246	0x3d440a35	0.047861297
247	0xbe027039	-0.12738122
248	0xbe814eda	-0.2525547
249	0xbe948d64	-0.29014122
250	0x3c9e7eb8	0.019347534
251	0xbe06d1a2	-0.13165906
252	0x3e8c9a0c	0.27461278
253	0xbe66e63f	-0.2254877
254	0x3e1092ec	0.14118546
255	0x3e81b005	0.25329605

network.0.bias f4 [128]
0	0x3e250ed3	0.16118936
1	0xbe0ad794	-0.13558799
2	0x3e1291d5	0.14313443
3	0xbdebd5c1	-0.1151538
4	0x3c371f63	0.011176917
5	0xbd8c72af	-0.06857812
6	0x3d7ed53c	0.062215075
7	0xbd29014d	-0.041261006
8	0xbdf68c7f	-0.12038516
9	0xbe1fe67a	-0.15615264
10	0x3c10cf8b	0.008838545
11	0xbd396f7a	-0.045272328
12	0x3ea074a7	0.31339
13	0x3c89eede	0.016837534
14	0x3e9a5d08	0.30149102
15	0xbe36ddad	-0.17858
16	0xbe1cef46	-0.1532565
17	0xbd45a603	-0.048254024
18	0x3dd5b7c4	0.10435441
19	0x3e2b2c29	0.16716065
20	0x3e901b5f	0.28145882
21	0xbdb12d1b	-0.08651181
22	0x3e84a1eb	0.25904784
23	0x3e5eda26	0.21762905
24	0x3e1e3894	0.1545127
25	0x3df4dfe0	0.11956763
26	0x3de3186c	0.110886425
27	0x3e389138	0.18024147
28	0xbe2736fd	-0.1632957
29	0x3e18063d	0.1484613
30	0xbe3eeff9	-0.1864623
31	0x3e3b0899	0.18264998
32	0x3ce53d8a	0.027983446
33	0xbe1c59f3	-0.15268688
34	0xbda83063	-0.08212354
35	0x3e929221	0.28627113
36	0xbe17aab4	-0.14811212
37	0xbbf596e3	-0.0074947937
38	0x3e91f136	0.28504342
39	0x3e9200e9	0.2851632
40	0xbe2c58b6	-0.16830716
41	0x3c0a1881	0.008428694
42	0x3d60f653	0.054922413
43	0xbb67e413	-0.0035383746
44	0x3e918d6f	0.28428218
45	0xbd944bb2	-0.07241
46	0xbe126f3a	-0.14300242
47	0xbc96c813	-0.01840595
48	0xbd6fe913	-0.058571886
49	0x3e7d34ae	0.24727127
50	0x3e014239	0.12622918
51	0x3e189ae0	0.1490283
52	0xbe37b12d	-0.17938681
53	0x3d6cbb2d	0.057795692
54	0x3e66a7ac	0.22524899
55	0xbd14435c	-0.03619705
56	0x3e35bc70	0.17747664
57	0x3d8ba063	0.06817701
58	0xbb887fa0	-0.0041656047
59	0xbbcd3fb9	-0.0062637
60	0x3e53c065	0.20678861
61	0x3dc1237d	0.09430597
62	0x3e9ad3ab	0.30239615
63	0x3e929450	0.28628778
64	0xbd7661ec	-0.06015198
65	0x3e9d3a5b	0.30708584
66	0x3e5a9885	0.21347244
67	0x3e3bae3a	0.18328181
68	0xbd461837	-0.048362937
69	0xbdb1150f	-0.08646595
70	0x3df8ee7a	0.12154861
71	0xbdf08e00	-0.11745834
72	0x3e81bb4f	0.25338218
73	0x3dfaeaa9	0.12251789
74	0xbc1d50ad	-0.009601754
75	0x3e801b96	0.25021046
76	0x3e3dfd7e	0.18553731
77	0xbd968c30	-0.073509574
78	0xbdc700f1	-0.097169764
79	0x3dfa5fad	0.1222528
80	0xbdd06e8d	-0.10177336
81	0xbe03993b	-0.12851422
82	0x3e5e64c7	0.21718131
83	0x3e2556dc	0.16146415
84	0x3e395f63	0.18102793
85	0x3b934c04	0.0044951458
86	0xbe392b50	-0.18082929
87	0x3deb72bf	0.114964955
88	0xbde84cd4	-0.11342779
89	0x3e969054	0.2940699
90	0xbcea6e32	-0.028616998
91	0x3dd55d3c	0.10418174
92	0xbe08f501	-0.13374712
93	0x3e460e54	0.19341403
94	0xbd014baf	-0.031566318
95	0xbad6fabf	-0.0016401632
96	0x3e432706	0.19057855
97	0xbd1ceb56	-0.03831037
98	0xbdfd11c2	-0.12356903
99	0x3e479d86	0.19493684
100	0x3e665d4d	0.22496529
101	0xbd8a4bcc	-0.06752738
102	0x3c9d9d23	0.019239968
103	0xbc568b41	-0.013094724
104	0x3e908072	0.28222996
105	0x3dc765ab	0.097361885
106	0xbd911848	-0.070847094
107	0xbd1689c3	-0.036752474
108	0x3e146e4c	0.144952
109	0xbdd31b0e	-0.10307895
110	0x3d5c3f0e	0.05377107
111	0xbe0f2922	-0.13980535
112	0xbd9089b2	-0.07057513
113	0x3e6e7d05	0.23289879
114	0xbad9be9c	-0.0016612592
115	0xbe159ef1	-0.14611413
116	0x3e60d298	0.21955335
117	0xbe0c4e76	-0.13701805
118	0x3d5cff78	0.05395457
119	0x3e9171ab	0.28407034
120	0xbd0ff3eb	-0.035144728
121	0x3e946fe8	0.28991628
122	0x3e2f9d18	0.1714977
123	0x3da5e3f1	0.08100117
124	0xbc6f1942	-0.014593424
125	0xbd84bb31	-0.064810164
126	0x3df60a0c	0.12013635
127	0xbe38afcd	-0.18035813

network.2.weight f4 [128, 128]
0	0x3bdd6875	0.006756837
1	0x3da6b3b5	0.08139745
2	0xbc95add6	-0.018271368
3	0x3da337b8	0.07969612
4	0x3d48c7c5	0.04901864
5	0x3d9d7f91	0.07690347
6	0xbca28edd	-0.019843513
7	0xbd13a6b1	-0.03604764
8	0x3d40adc2	0.04704071
9	0x3d49b335	0.04924317
10	0x3daa35ad	0.08311019
11	0x3d259146	0.040421747
12	0x3ddcb81a	0.10777302
13	0xbca07185	-0.01958538
14	0xbc88b73a	-0.016688932
15	0x3dd526d1	0.10407794
16	0x3c1d894d	0.009615255
17	0x3b81f108	0.0039655007
18	0xbd1ba0ac	-0.037995026
19	0x3da9d61c	0.08292791
20	0x3dc81d6c	0.09771237
21	0x3d9c55e9	0.076335736
22	0x3ca29422	0.019846026
23	0x3b619859	0.0034423082
24	0x3db589d6	0.08864181
25	0x3de74baf	0.112937324
26	0xbc85a1ec	-0.016312562
27	0x3d5a9c10	0.05337149
28	0x3d557b95	0.05211981
29	0x3c935e11	0.01798919
30	0x3dcca99b	0.09993287
31	0x3dad6da5	0.08468179
32	0x3d927ff4	0.07153311
33	0x3bd2db51	0.006434836
34	0x3d89cb75	0.067282595
35	0x3cf06b96	0.029348176
36	0xbd204f76	-0.03913828
37	0x3ce69b08	0.028150097
38	0x3de7b568	0.11313897
39	0xbd143783	-0.036185753
40	0x3ddbd238	0.107334554
41	0xbd0ca020	-0.034332395
42	0x3db6e487	0.08930307
43	0x3ca714c3	0.020395642
44	0x3dccc137	0.0999779
45	0x3cb355f0	0.021891564
46	0x3bc91188	0.006136123
47	0x3b357e2e	0.0027693617
48	0x3d3a9c40	0.045559168
49	0x3d956d0d	0.072961904
50	0x3d303212	0.0430165
51	0xbc883b41	-0.016629817
52	0xbc3a9c20	-0.011389762
53	0x3db5493e	0.088518605
54	0x3d929d4c	0.07158908
55	0x3df1b676	0.1180238
56	0x3df79b44	0.120901614
57	0x3dc8bc38	0.09801525
58	0x3c5c4c09	0.013445863
59	0xbd3d61a9	-0.046235714
60	0x3dbf3580	0.09336376
61	0x3c2f911a	0.010715747
62	0x3cd128b9	0.025532113
63	0x3de398d9	0.11113138
64	0x3d8dbae1	0.0692041
65	0x3decdad3	0.11565175
66	0x3b07f41e	0.002074487
67	0x3dafe9af	0.085894935
68	0x3cb1bb70	0.021695822
69	0xbc42f95a	-0.01190027
70	0x3dab6522	0.08368899
71	0x3d7041d9	0.058656547
72	0x3d9e3847	0.07725578
73	0x3bc95b2f	0.006144903
74	0x3e04f273	0.12983112
75	0x3d592443	0.053013097
76	0x3d1a9cd2	0.03774721
77	0x3dc33257	0.09531086
78	0x3e01cfc2	0.1267691
79	0x3d88eb4a	0.06685503
80	0x3c273a7e	0.010206817
81	0x3d9babc8	0.07601124
82	0xbcd39a46	-0.0258304
83	0x3e03dbeb	0.12876861
84	0xb98e8daa	-0.00027189899
85	0x3e098f0a	0.13433471
86	0x3cf5e942	0.030018453
87	0x3bbe45e3	0.005806671
88	0x3d25d908	0.04049018
89	0x3c854039	0.016265975
90	0x3dcc61ea	0.09979613
91	0x3d088ec3	0.033339273
92	0xbce77e2c	-0.028258406
93	0xbcbb84f3	-0.022890544
94	0xbd01ecc3	-0.031719934
95	0x3d76fcc9	0.06029967
96	0x3c2431fe	0.010021685
97	0x3d982041	0.07428027
98	0x3d635179	0.05549762
99	0x3e04a931	0.12955166
100	0x3db3efd0	0.08785975
101	0xbc922a96	-0.017842572
102	0x3d7d008c	0.0617681
103	0xbd1ad68c	-0.037802264
104	0x3ca5e4d8	0.020250723
105	0xbb5c2663	-0.0033592216
106	0x3d8d1a2d	0.06889758
107	0x3d69f0ab	0.057114284
108	0xbd13cb77	-0.03608271
109	0x3da642af	0.08118188
110	0x3d331bc1	0.04372764
111	0x3de563c2	0.11200668
112	0x3d9575f3	0.07297888
113	0x3da718eb	0.081590496
114	0x3df200d4	0.11816564
115	0xbb885131	-0.0041600694
116	0x3def2fef	0.116790645
117	0x3d582059	0.052765224
118	0xb8cf7fde	-9.894346e-05
119	0xbb9a6c2b	-0.0047126017
120	0xbbe08ea1	-0.00685294
121	0x3dcf24ae	0.10114418
122	0xbc212a9a	-0.009836817
123	0xbc8bbb79	-0.017057167
124	0x3d3d5181	0.046220306
125	0x3d4b6044	0.049652353
126	0xbd098108	-0.03357032
127	0xbc39f475	-0.011349787
128	0xbd0d9631	-0.03456706
129	0x3dded129	0.10879738
130	0x3b70bac7	0.0036732422
131	0x3ddc661c	0.10761663
132	0x3d78e1ec	0.06076233
133	0xbd2a58bb	-0.041588526
134	0x3dfa1e4e	0.122128114
135	0x3d81402e	0.063110694
136	0x3c6b9c4b	0.014380525
137	0xbc688c91	-0.01419367
138	0x3defcfa6	0.11709528
139	0x3dbcce63	0.09219053
140	0xb9f2e18f	-0.0004632589
141	0x3d6e1011	0.05812079
142	0x3d3c2a67	0.045938876
143	0x3d966253	0.073429726
144	0x3d8c61b6	0.068545744
145	0x3d1222fa	0.035677887
146	0x3da78827	0.08180266
147	0x3de97d38	0.11400837
148	0x3d2cd538	0.04219553
149	0xbc7d78c6	-0.015470689
150	0x3d3e1051	0.04640228
151	0x3c39cce6	0.0113403555
152	0x3ce33bdc	0.027738504
153	0xbd2a2f30	-0.041548908
154	0x3c8eb7bd	0.017421598
155	0x3ddcc0f0	0.107789874
156	0x3c952db5	0.018210271
157	0xbc3c061c	-0.011476066
158	0x3cb799b6	0.022412162
159	0x3dd497f1	0.10380543
160	0x3d56d4d1	0.05244905
161	0x3c465183	0.012104395
162	0x3e00f8bf	0.12594889
163	0x3d59b837	0.053154197
164	0xbd32ed94	-0.043683603
165	0x3d797d70	0.060910642
166	0x3d724b63	0.059153926
167	0x3d3f9464	0.046772376
168	0xbd16d84b	-0.036827367
169	0xbc890d3a	-0.01672994
170	0x3b5beb5d	0.0033557035
171	0x3b291530	0.0025799982
172	0x3dc86c9f	0.09786343
173	0x3dc90ae2	0.09816529
174	0xbd47e2af	-0.048800167
175	0xbcf617bb	-0.030040612
176	0x3da07bbc	0.078361005
177	0x3d28bf4e	0.041198067
178	0x3dc585f8	0.09644693
179	0x3d9bcb63	0.07607152
180	0xbcad6cbc	-0.021170013
181	0x3c1ed626	0.009694612
182	0x3a9cde21	0.0011968055
183	0x3d8639cd	0.065539934
184	0x3d549602	0.05190087
185	0x3dc58d3c	0.09646079
186	0xbbd8a971	-0.006611996
187	0x3dc3e3aa	0.09564908
188	0x3d58efab	0.05296294
189	0xbd625b80	-0.055263042
190	0x3b6e5919	0.0036369024
191	0x3b850ba3	0.004060225
192	0x3dcaaf01	0.098966606
193	0xbd5d77a0	-0.05406916
194	0x3d147fb9	0.03625462
195	0x3dc6f6ad	0.097150184
196	0xbc5a9d1b	-0.013343121
197	0xbb3f1a95	-0.0029160131
198	0x3b914d34	0.004434252
199	0x3decce92	0.11562838
200	0x3de1a7e2	0.11018349
201	0x3d3d4d5e	0.04621636
202	0x3c47871b	0.012178208
203	0x3d6b313c	0.05742
204	0xbccf7f4e	-0.025329258
205	0x3dd416a4	0.10355881
206	0x3d5fb418	0.05461511
207	0x3d044460	0.03229177
208	0x3d02f29f	0.031969663
209	0x3d9c4759	0.07630796
210	0x3d6c2bc6	0.057658933
211	0x3da4f837	0.08055156
212	0xbcc02cfd	-0.023458952
213	0xba8173fb	-0.0009876484
214	0x3de28d80	0.11062145
215	0x3de7908e	0.113068685
216	0x3dadfa0c	0.08494958
217	0x3d85db8c	0.06536016
218	0x3d955c55	0.072930016
219	0x3dc8be26	0.09801893
220	0x3d771ce8	0.0603303
221	0x3de28ee7	0.11062413
222	0x3d117784	0.03551437
223	0xbd355f2c	-0.044280216
224	0xbd42d35e	-0.047564857
225	0x3d982623	0.07429149
226	0xbd067dca	-0.032834806
227	0xbc13a41c	-0.009011295
228	0x3d264deb	0.040601652
229	0x3afed5ae	0.0019442344
230	0x38c7eedd	9.533551e-05
231	0x3d0c7979	0.034295533
232	0x3d910993	0.07081904
233	0x3deb6e98	0.114957035
234	0x3cc6d474	0.024271227
235	0xbce99ccb	-0.028517148
236	0xbc4794c3	-0.012181464
237	0x3d18651e	0.037205808
238	0x3bad0ddd	0.0052811936
239	0xbb8e7425	-0.0043473416
240	0x3c858b29	0.016301708
241	0x3d7433c5	0.059619684
242	0xbd4fa066	-0.050690077
243	0xbd749158	-0.059708923
244	0x3d443cc5	0.047909517
245	0x3da7712c	0.08175883
246	0x3dcb1044	0.09915212
247	0x3b9c1488	0.0047631897
248	0xbcd9cc03	-0.026586538
249	0x3d1cae7b	0.038252335
250	0xbbd17935	-0.006392623
251	0xb9aff640	-0.00033562072
252	0x3c198e4a	0.009372303
253	0xbd17b894	-0.03704126
254	0x3d6c8d39	0.057751868
255	0x3d218f37	0.03944322

network.2.bias f4 [128]
0	0x3dc488ff	0.095964424
1	0x3c64440c	0.013932239
2	0xbd7148d1	-0.058907334
3	0x3dd27818	0.10276812
4	0x3d995d88	0.07488543
5	0x3df4fb83	0.119620346
6	0x3d6beebe	0.05760073
7	0x3dbb1017	0.09133928
8	0x3d98b066	0.0745552
9	0xbc83bcc1	-0.016081216
10	0x3e18b104	0.14911276
11	0x3d6b3fd3	0.057433914
12	0x3dbd50d1	0.0924393
13	0xbad3b175	-0.0016150909
14	0xbd193a19	-0.037408922
15	0xbcc3d3af	-0.02390465
16	0xbce47069	-0.027885633
17	0x3d698a8b	0.05701689
18	0x3ceed40e	0.02915385
19	0x3dacdcd1	0.08440555
20	0x3dcb8f85	0.099394836
21	0xbc9f7723	-0.019465989
22	0x3d339c86	0.043850444
23	0x3d86398d	0.06553946
24	0x3d2d2ea8	0.042280823
25	0x3e100d24	0.14067513
26	0x3bb0b7a2	0.0053929845
27	0xbce3c573	-0.027804112
28	0xbd0ff47e	-0.035145275
29	0xbcb755a1	-0.022379698
30	0x3c98b0e1	0.01863903
31	0x3cc8ea58	0.024525806
32	0xbd019526	-0.03163638
33	0xbd3fefd8	-0.046859592
34	0x3dfdee05	0.12398914
35	0x3c80d9b9	0.015728818
36	0xbc9ac41b	-0.018892338
37	0x3d4ebe79	0.050474618
38	0xbb8ea4ee	-0.0043531572
39	0x3b7ea98c	0.0038858382
40	0xbdd0e25e	-0.10199426
41	0x3de2ff71	0.11083878
42	0x3cc4d5b0	0.024027675
43	0x3ca3943a	0.01996814
44	0x3e139095	0.14410622
45	0x3e26d85f	0.16293477
46	0x3d89a4df	0.067209
47	0x3df725e4	0.12067774
48	0xbd04f73b	-0.03246234
49	0xbabdd60b	-0.0014483345
50	0xbd4418c4	-0.04787518
51	0xbce9b31c	-0.028527789
52	0x3c15482c	0.009111445
53	0x3dcd6714	0.10029426
54	0x3d26b683	0.0407014
55	0x3dae392a	0.08506997
56	0x3c1f1662	0.009709926
57	0xbd810fd0	-0.06301844
58	0x3db8282f	0.089920394
59	0xbd2b102a	-0.041763462
60	0x3dd9197f	0.10600566
61	0x3dc451d7	0.09585922
62	0x3d99ad5e	0.0750377
63	0xbdac96a5	-0.08427171
64	0xbce42cd2	-0.027853403
65	0xbc519a6c	-0.012793165
66	0x3d0fdec6	0.035124563
67	0xbc0b5e7a	-0.008506412
68	0x3d13a02f	0.036041435
69	0x3be8fdf8	0.0071103536
70	0x3cbcd6e4	0.023051687
71	0x3d81d8af	0.06340157
72	0x3e0528ec	0.13003892
73	0x3d34f5b3	0.04417963
74	0x3e0444b0	0.12916827
75	0x3c41c7b5	0.011827399
76	0x3d71b4fc	0.05901049
77	0x3cb68a38	0.022282705
78	0xbc3ae689	-0.011407503
79	0xbce8ca42	-0.028416757
80	0x3e07cdb8	0.13262069
81	0x3def9ef1	0.117002375
82	0x3d6b63d3	0.057468247
83	0x3c10d102	0.008838894
84	0xbcc890ed	-0.024483168
85	0x3d51f513	0.05125911
86	0x3d8ee7bb	0.06977793
87	0xbd2b1578	-0.04176852
88	0xbd5e7204	-0.054307953
89	0x3d66bc11	0.056331698
90	0x3d5a1ce7	0.05325022
91	0x3d4c8104	0.049927726
92	0x3a651166	0.00087382493
93	0xbc9479b1	-0.018124433
94	0x3d9551a8	0.07290965
95	0x3dbc083f	0.0918126
96	0x3dbe67e2	0.09297158
97	0xbc9fd9e8	-0.019513085
98	0xbbe1696c	-0.0068790223
99	0x3c467952	0.012113886
100	0x3da5c782	0.08094694
101	0xbc547676	-0.012967696
102	0x3d48b4e7	0.049000647
103	0xbc84c2ce	-0.016206171
104	0x3dac8315	0.084234394
105	0x3d620b48	0.05518654
106	0xbc7f98d1	-0.015600399
107	0xbdc08113	-0.09399619
108	0x3d356259	0.044283245
109	0x3d76fffb	0.060302716
110	0x3dc76728	0.09736472
111	0x3e050731	0.12991025
112	0x3e015ac4	0.1263228
113	0x3ddfd68d	0.10929594
114	0x3da92445	0.08258871
115	0xbb444a21	-0.002995141
116	0x3df45663	0.119305395
117	0x3ced81fa	0.028992642
118	0xbdbb737d	-0.09152887
119	0x3de3808f	0.11108505
120	0x3de86979	0.11348242
121	0x3d4e45c0	0.050359488
122	0x3e284153	0.16431169
123	0x3bcb52ee	0.0062049543
124	0xbcec5793	-0.028850352
125	0x3da647d9	0.081191726
126	0xbd91cd89	-0.07119281
127	0xbd18b216	-0.03727921

network.4.weight f4 [5, 128]
0	0x3d66eccb	0.056378167
1	0x3e05e2ad	0.13074751
2	0xbd321d7a	-0.043485142
3	0x3d88f16f	0.06686675
4	0x3d9e4448	0.07727867
5	0x3debdb4d	0.11516438
6	0xbd065262	-0.03279341
7	0x3c4763a2	0.01216975
8	0x3d14d5dd	0.03633677
9	0x3d9b7310	0.07590306
10	0x3d843011	0.064544804
11	0x3dad750c	0.084695905
12	0x3c14fbe1	0.009093256
13	0x3ce277ef	0.02764508
14	0x3d898246	0.06714301
15	0x3d50e802	0.05100251
16	0x3af3ca92	0.0018599799
17	0x3e1907cf	0.14944385
18	0x3c7ca0b7	0.015419177
19	0x3d531f6e	0.051543646
20	0x3b2741ae	0.0025521326
21	0xbd442af7	-0.047892537
22	0xbd00ecfe	-0.031476013
23	0x3d320de7	0.04347029
24	0x3d4e5013	0.050369333
25	0x3e0a5588	0.1350919
26	0x3dbcc648	0.09217507
27	0x3e07128b	0.13190667
28	0x3d28b4f3	0.04118819
29	0x3c3e3d3e	0.011611281
30	0x3d9de770	0.07710159
31	0xbb726b20	-0.003699012
32	0x3dd9e03a	0.10638471
33	0xbbe470ff	-0.006971478
34	0x3d84bf29	0.064817734
35	0xbd1475fc	-0.03624533
36	0x3de3d58d	0.11124716
37	0x3cfca937	0.030842407
38	0x3e0bd383	0.13654904
39	0x3d926433	0.07148018
40	0xbd8136ce	-0.06309281
41	0xbce9856f	-0.028506009
42	0x3e089bbd	0.1334066
43	0x3c6d84fd	0.014497039
44	0xbc13608f	-0.008995189
45	0x3cdac041	0.026703002
46	0x3dc3891e	0.095476374
47	0x3e0bcfad	0.13653441
48	0xbd213e93	-0.039366316
49	0x3e141aab	0.14463298
50	0x3bdc0351	0.0067142625
51	0x3d334e70	0.043775976
52	0x3e0f3f5d	0.13989015
53	0x3e134c55	0.14384587
54	0x3d88203d	0.06646774
55	0x3bbe8cd1	0.0058151265
56	0xbd11e7dd	-0.035621513
57	0xbd6ea5f2	-0.058263727
58	0x3d79b58f	0.060964163
59	0xbc91694b	-0.017750403
60	0x3caf3c47	0.021391047
61	0x3e0d06af	0.13772081
62	0x3e02dabe	0.12778756
63	0xbd331aa5	-0.043726582
64	0x3d7f859f	0.06238329
65	0xbd2b3394	-0.041797236
66	0x3a46b10a	0.00075794815
67	0x3d88d4fd	0.06681249
68	0x3ce80714	0.028323688
69	0x3e1f5de0	0.15563154
70	0x3caa3b1a	0.020780135
71	0x3d177dfe	0.03698539
72	0x3df58155	0.11987559
73	0xbd0c906f	-0.03431743
74	0x3de3677a	0.11103721
75	0x3d8651f0	0.06558597
76	0xbda2dbbd	-0.07952068
77	0xbc571d0c	-0.013129484
78	0x3d3f4e45	0.046705503
79	0xbd13ab41	-0.036051992
80	0x3dcc1471	0.099648364
81	0xbb62faaf	-0.0034634282
82	0x3cff785c	0.031185322
83	0xbd7c2a0a	-0.06156353
84	0x3e02ca2b	0.12772433
85	0xbd6a0bf0	-0.05714029
86	0xbcdba2da	-0.026811052
87	0x3d3e2a48	0.04642704
88	0x3d1e6588	0.038671046
89	0x3e0153ef	0.12629674
90	0x3e087da3	0.13329177
91	0xbccc4144	-0.024933465
92	0xbca39964	-0.019970603
93	0xbaf611fd	-0.0018773671
94	0x3d6ed128	0.058304936
95	0x3da1427b	0.07874008
96	0x3d11c3ee	0.035587244
97	0x3cc6c12f	0.024262039
98	0xbc898bf3	-0.016790366
99	0xbcd6880c	-0.02618792
100	0x3e04f42d	0.1298377
101	0x3d1b3f7d	0.037902344
102	0xbd0e6b8c	-0.034770533
103	0xbcfae7d0	-0.030628115
104	0x3d964490	0.07337296
105	0x3d79e9a2	0.061013825
106	0xbd203288	-0.03911069
107	0xbd99a634	-0.07502404
108	0x3de04cd8	0.10952157
109	0x3df55b1c	0.11980268
110	0xbd38105f	-0.044937488
111	0x3e00c23a	0.12574092
112	0x3e0ef378	0.13960063
113	0xbd06b05e	-0.03288304
114	0x3d91e4e1	0.07123733
115	0x3cfb34bc	0.030664794
116	0x3d8ac971	0.06776703
117	0xbd86d35f	-0.065832846
118	0xbd2a5164	-0.041581526
119	0x3d9042f6	0.07044022
120	0xbc36e62f	-0.0111632785
121	0xbd6b95ce	-0.05751591
122	0x3dc18455	0.094490685
123	0x3d7e1baf	0.06203812
124	0x3cb0af88	0.021568075
125	0x3b6acf31	0.0035829062
126	0x3d9e7fb3	0.077392004
127	0x3c27a1db	0.01023146
128	0x3db28487	0.08716684
129	0xbbcaa9d2	-0.006184795
130	0x3c6940c5	0.014236634
131	0x3c0b45c3	0.008500519
132	0x3dd01f05	0.101621665
133	0x3dec8806	0.11549382
134	0xbd9d810a	-0.07690628
135	0xbc669395	-0.014073272
136	0x3e1901c0	0.14942074
137	0x3cb3f401	0.021966936
138	0x3d3af891	0.045647208
139	0x3dfe6da5	0.12423257
140	0x3d3a1d17	0.0454379
141	0x3da97498	0.082741916
142	0x3da82c01	0.08211518
143	0xbc16f181	-0.009212852
144	0x3d4f55aa	0.050618805
145	0x3dae9272	0.08524026
146	0x3e039786	0.1285077
147	0x3dddae1e	0.10824226
148	0x3e068641	0.13137151
149	0x3b2bebb7	0.0026233026
150	0xb949eeba	-0.00019257786
151	0x3dde21fc	0.10846326
152	0x3cf0b250	0.029381901
153	0x3e006006	0.1253663
154	0x3d303fbf	0.043029543
155	0x3da6cf4d	0.08145008
156	0xbcc14056	-0.023590248
157	0x3ddad3ab	0.10684904
158	0xbc683084	-0.014171723
159	0x3d0a5148	0.033768922
160	0x3de5a50e	0.11213122
161	0x3c960110	0.018311054
162	0x3b6fdccd	0.0036600113
163	0xbd6fc354	-0.05853589
164	0x3c884d99	0.016638564
165	0x3b80db71	0.0039324095
166	0x3db785ca	0.08961065
167	0x3c7794ea	0.0151111875
168	0x3d434ce7	0.04768076
169	0x3df3373f	0.11875772
170	0x3de05193	0.10953059
171	0x3dc8bd2a	0.09801705
172	0xbc114ec4	-0.008868877
173	0x3c809944	0.015698083
174	0xbbd59c5e	-0.0065188846
175	0x3dee6ee3	0.11642244
176	0x3da393d8	0.07987183
177	0x3b765049	0.0037584475
178	0x3d9987be	0.07496594
179	0x3e0d2542	0.13783744
180	0x3ce30721	0.02771336
181	0x3c633cd3	0.013869482
182	0x3d3eccd5	0.04658206
183	0x3d89ca67	0.06728058
184	0x3d21c368	0.039492995
185	0xbcde836d	-0.027162278
186	0x3d00c6fc	0.031439766
187	0x3d62907f	0.055313583
188	0x3de49ee5	0.11163119
189	0xbcd7a118	-0.026321933
190	0x3d61d718	0.05513677
191	0xbd4e428c	-0.050356433
192	0x3d3f9aa6	0.046778344
193	0x3d6accda	0.057324268
194	0x3d175cce	0.03695374
195	0x3df9f5f8	0.12205118
196	0xbcf7bd3d	-0.030241603
197	0x3d048392	0.032352038
198	0x3c72761a	0.014798665
199	0x3dc96dc0	0.09835386
200	0x3c97986a	0.018505294
201	0x3d54ed77	0.051984277
202	0x3c96db0b	0.018414995
203	0x3de40479	0.111336656
204	0x3cfd569f	0.030925093
205	0x3d4d11e7	0.0500659
206	0x3daf75e9	0.085674115
207	0xbd92cc5e	-0.07167886
208	0x3d798053	0.060913395
209	0xbd04bd2d	-0.032406975
210	0x3de55c28	0.11199218
211	0x3da0c3e1	0.07849861
212	0x3dd00793	0.10157695
213	0x3dc05dc5	0.09392885
214	0x3cdbc643	0.026827937
215	0x3df5c118	0.1199972
216	0x3d5859f6	0.05282017
217	0xbb24db19	-0.0025155006
218	0x3e08588e	0.13315031
219	0x3d931492	0.07181658
220	0x3e032462	0.12806848
221	0x3d81f9a9	0.06346447
222	0x3d2da27f	0.042391296
223	0xbccc0559	-0.024904894
224	0x3de22d34	0.11043778
225	0x3d4acf75	0.049514253
226	0xbd737f5e	-0.05944764
227	0xbd88803a	-0.06665082
228	0x39a28f6c	0.00031005905
229	0x3db21953	0.086962365
230	0x3e05d1fd	0.13068385
231	0xbcae5e33	-0.021285152
232	0x3db6cce5	0.08925799
233	0x3d4641a3	0.04840244
234	0x3dbaf612	0.091289654
235	0x3b51347c	0.0031922152
236	0xbcbca9a5	-0.023030112
237	0x3e2a5eac	0.16637677
238	0x3de6fbf5	0.11278526
239	0x3db91aad	0.09038291
240	0x3c2d72f9	0.010586494
241	0xbbf81c00	-0.0075716972
242	0xbc9d78b4	-0.019222595
243	0x3d9bf3a9	0.07614834
244	0x3beaf9a4	0.0071708728
245	0x3cf364a7	0.02971108
246	0x3cf931b6	0.030419212
247	0x3c084a4a	0.008318493
248	0x3de9eeab	0.114224754
249	0xbd5edfd4	-0.054412678
250	0x3dbf9cef	0.093561046
251	0x3db77b8a	0.0895911
252	0x3e03a918	0.12857473
253	0x3d678e75	0.056532342
254	0x3ca17185	0.01970745
255	0x3c83f46f	0.016107766

network.4.bias f4 [5]
0	0x3d4ddb94	0.050258234
1	0x3ddc52e2	0.10757996
2	0x3dc462bd	0.09589145
3	0x3db1f436	0.08689158
4	0x3cf7b7e8	0.03023906

network.0.weight f4 [128, 82]
0	0x3c68b664	0.014203642
1	0x3d53948b	0.051655333
2	0xbd5daaef	-0.054118093
3	0xbd3452f9	-0.04402444
4	0x3dcf3666	0.101177976
5	0xbd4ec6e4	-0.050482646
6	0xbc8eb59c	-0.017420582
7	0xbce85a58	-0.028363392
8	0x3dcf8f5a	0.10134764
9	0x3cddc0ae	0.027069416
10	0xbd70b5aa	-0.058767
11	0xbd84c2f1	-0.064824946
12	0x3dd0ddd9	0.10198564
13	0x3ded4603	0.11585619
14	0xbe1f7f35	-0.1557587
15	0x3b7f9895	0.0039000858
16	0x3e34c8d1	0.1765473
17	0xbd7a3d84	-0.061093822
18	0x3dadf0cd	0.08493195
19	0xbd082c3e	-0.033245318
20	0xbc8a0800	-0.016849518
21	0x3d7c0eb8	0.061537474
22	0xbd841261	-0.06448818
23	0x3d84ba92	0.06480898
24	0x3d18d722	0.03731454
25	0x3d133361	0.03593767
26	0x3dbd0e2d	0.092312194
27	0xbd7805d1	-0.060552422
28	0x3e0fac61	0.14030601
29	0x3da8675d	0.0822284
30	0xbd669c76	-0.056301557
31	0xbdac8d88	-0.084254324
32	0xbd63bf0a	-0.05560211
33	0x3d2fc373	0.042911004
34	0x3d0c8d0a	0.034314193
35	0xbd29020a	-0.04126171
36	0x3d8b8a5b	0.068134986
37	0x3e219406	0.15779123
38	0xbd55c6f1	-0.05219168
39	0x3db1b26e	0.08676611
40	0xbd37e416	-0.044895254
41	0x3d805337	0.06265872
42	0xbdb244dd	-0.08704541
43	0x3dcce356	0.100042984
44	0x3dc43f5c	0.09582397
45	0x3d460f44	0.048354402
46	0x3d0853c6	0.033283018
47	0xbb6ccdbf	-0.0036133376
48	0xbe20504c	-0.15655631
49	0x3d7900cd	0.06079178
50	0x3dbc1db0	0.0918535
51	0x3e0a73e6	0.13520774
52	0x3c2555ab	0.010091226
53	0x3d84681a	0.06465168
54	0xbcd39ddc	-0.02583211
55	0x3ccae0b5	0.024765352
56	0xbd99b939	-0.075060315
57	0xbd7b166d	-0.061300684
58	0xbe089566	-0.13338241
59	0xbbe3b32e	-0.00694885
60	0x3d312a39	0.043253157
61	0xbd342558	-0.043980926
62	0xbda9897b	-0.082781754
63	0x3d5b1e63	0.053495776
64	0xbd84cc53	-0.06484284
65	0xbd436a7c	-0.047708973
66	0xbd52d6ae	-0.051474266
67	0xbcf1ddca	-0.029524703
68	0x3db5eb20	0.08882737
69	0xbcd723a7	-0.026262118
70	0xbd9397e2	-0.07206704
71	0xbb40a811	-0.002939705
72	0xbd222487	-0.039585616
73	0xbd238870	-0.03992504
74	0x3cf41854	0.029796757
75	0xbc530953	-0.012880641
76	0xbceb81f4	-0.02874849
77	0xbe377a6c	-0.17917794
78	0xbd1e5e50	-0.038664162
79	0xbd317869	-0.043327723
80	0x3d4ba8d4	0.049721554
81	0xbe3cc92f	-0.1843612
82	0x3da3a40f	0.07990276
83	0x3df6bde6	0.12047939
84	0xbc90d836	-0.017681222
85	0x3d407060	0.04698217
86	0xbd082e97	-0.033247557
87	0xbd37de93	-0.044889998
88	0xbe000734	-0.12502748
89	0x3c9aa806	0.018878948
90	0x3de73086	0.11288552
91	0x3e007483	0.12544446
92	0x3d95ea66	0.073200986
93	0x3dc48ce0	0.09597182
94	0xbd268b6a	-0.0406603
95	0x3d3a5339	0.045489524
96	0xbd4e3dec	-0.050352022
97	0x3c602b61	0.013682217
98	0x3dc47b26	0.09593801
99	0x3da79319	0.081823535
100	0x3d915001	0.07095338
101	0x3e0e7305	0.13911064
102	0xbe0536df	-0.13009213
103	0xbe1923f8	-0.14955127
104	0xbe078e5e	-0.13237903
105	0xbda62aff	-0.081136696
106	0xbd9da63a	-0.07697721
107	0x3cf60381	0.030030968
108	0xbc9ad155	-0.018898645
109	0xbde48e59	-0.11159963
110	0xbdd18cac	-0.10231909
111	0xbd2a2694	-0.041540697
112	0x3d586f5e	0.052840583
113	0xbdd88e46	-0.105740115
114	0xbba8e3a4	-0.00515409
115	0xbe107227	-0.14106046
116	0x3dba306d	0.09091268
117	0x3d2197d9	0.039451454
118	0xbc4f3b14	-0.012648363
119	0xbe1feebc	-0.15618414
120	0xbde8ac48	-0.11360985
121	0xbdb8f195	-0.09030453
122	0x3ca7792e	0.020443525
123	0xbdd1fcdc	-0.10253307
124	0x3c315660	0.010823816
125	0x3d8bb319	0.068212695
126	0xbdbab4b7	-0.091165
127	0xbba10b3e	-0.0049146703
128	0xbe1d6435	-0.15370257
129	0xbdd08622	-0.10181834
130	0xbd6380b7	-0.055542674
131	0xbd8d0ed0	-0.06887591
132	0x3d7bd38b	0.06148104
133	0x3d76451e	0.06012451
134	0xbe051ad4	-0.12998515
135	0xbdac2adc	-0.08406612
136	0xbd901618	-0.07035464
137	0x3d3e4b09	0.046458278
138	0xbda63461	-0.08115459
139	0x3b30f5bd	0.002700194
140	0x3cb1f8e5	0.021725127
141	0x3e0f83ad	0.14015074
142	0xbd5617ec	-0.052268907
143	0xbd2c68a7	-0.04209199
144	0x3c8c0e72	0.017096732
145	0x3d833712	0.06406988
146	0x3d299f4a	0.041411676
147	0x3d6da59f	0.058019277
148	0xbd203378	-0.039111584
149	0xbca2028e	-0.019776609
150	0xbd19ec26	-0.037578724
151	0x3d8f9e80	0.07012653
152	0x3e076309	0.13221373
153	0x3e017922	0.12643865
154	0xbcbd2988	-0.023091093
155	0xbd6f2b55	-0.058390934
156	0x3d8a5a3b	0.06755491
157	0xbd883e9f	-0.06652569
158	0x3dc554d2	0.09635319
159	0x3e2d556a	0.16927114
160	0x3de9bc27	0.1141284
161	0xb9b09603	-0.00033681103
162	0xbd3187df	-0.043342467
163	0x3d8e4d43	0.0694833
164	0xbc9bb44f	-0.019006876
165	0xbd4b2cde	-0.049603336
166	0x3d85736d	0.06516156
167	0x3c9cbde5	0.019133518
168	0x3b0c9c78	0.0021455567
169	0x3d22d802	0.039756782
170	0xbddc52c7	-0.10757976
171	0xbd3fa363	-0.046786677
172	0xbdf8ead8	-0.12154168
173	0xbb9ac645	-0.0047233426
174	0xbe017fe3	-0.12646441
175	0xbcf92eca	-0.030417819
176	0xbdfe27ec	-0.12409958
177	0x3d91d32e	0.071203575
178	0x3e12294d	0.14273567
179	0x3c40a933	0.01175909
180	0x3dd57b5d	0.1042392
181	0x3d888e9d	0.06667826
182	0xbd4a2e57	-0.0493606
183	0xbe0cfd6a	-0.13768545
184	0x3e0033b4	0.12519723
185	0xbd977e29	-0.0739711
186	0x3d71c9ec	0.05903046
187	0x3cee38d8	0.02907984
188	0x3b0e92fe	0.0021755095
189	0xbd4664ce	-0.04843598
190	0x3e1b7424	0.15181023
191	0x3d98b4d0	0.07456362
192	0x3d8af6b5	0.06785337
193	0x3de5fa03	0.112293266
194	0x3c91ad15	0.017782727
195	0x3b27fda4	0.002563336
196	0xbe006e59	-0.12542094
197	0xbdc17eee	-0.09448038
198	0x3b5e8883	0.003395588
199	0xbc8bd6e0	-0.017070234
200	0xbb9bc27c	-0.004753409
201	0xbdcd00f7	-0.1000995
202	0x3c51d033	0.012805986
203	0x3d5dcb9f	0.054149266
204	0x3dd249fd	0.102680184
205	0xbd1f939f	-0.03895914
206	0xbd2de32a	-0.04245297
207	0xbe00bb23	-0.12571387
208	0x3d73c65c	0.059515342
209	0xbc24c16f	-0.010055884
210	0xbb46fcf0	-0.0030363165
211	0x3e1f3268	0.15546572
212	0x3c308aff	0.010775327
213	0x3d80bc5e	0.06285928
214	0x3d525fd1	0.05136091
215	0x3d9de685	0.07709984
216	0xbdd2f6a4	-0.10300949
217	0x3cffadac	0.031210743
218	0xbe14cd81	-0.14531519
219	0xbe05abcd	-0.13053818
220	0x3c576a9e	0.013147978
221	0x3b84b2c9	0.004049633
222	0xbdfd8753	-0.12379327
223	0xbdb1ab81	-0.0867529
224	0xbdc0ac92	-0.09407915
225	0x3b5fdd68	0.0034159068
226	0x3d2d5e5b	0.042326313
227	0x3e21b2d0	0.15790868
228	0x3e1e57db	0.15463202
229	0x3e1e1bf8	0.15440357
230	0x3dd9be57	0.106320076
231	0x3df81b49	0.12114579
232	0x3e00328d	0.12519284
233	0xbd438ede	-0.04774367
234	0x3dd2c1c1	0.10290862
235	0x3dd94766	0.10609321
236	0xbd9a0640	-0.07520723
237	0x3e280266	0.16407165
238	0x3c2c08c5	0.010500138
239	0x3def7da9	0.1169389
240	0xbdad09b4	-0.08449116
241	0x3da897cb	0.08232077
242	0xbbbbf7a0	-0.0057363063
243	0xbd7d1fc9	-0.06179789
244	0x3d1943fe	0.037418358
245	0x3daa102e	0.08303867
246	0x3db2a779	0.08723349
247	0xbe00b426	-0.12568721
248	0xbe258106	-0.161625
249	0xbdec752c	-0.11545786
250	0x3cbf10ec	0.023323499
251	0x3de2a99a	0.11067505
252	0x3e383ab6	0.17991146
253	0x3db3d992	0.087817326
254	0x3c5e16c1	0.01355523
255	0xbd95c448	-0.07312828

network.0.bias f4 [128]
0	0xbe090c2a	-0.13383546
1	0x3e3e40f6	0.18579468
2	0x3dc8db79	0.09807486
3	0x3de7ae01	0.113124855
4	0x3e553dfb	0.20824425
5	0x3e2c7c0a	0.16844192
6	0x3e9b1ec3	0.30296907
7	0x3c95287d	0.018207783
8	0x3dbaf651	0.091290124
9	0xbe0478ea	-0.1293675
10	0x3e7cc7cf	0.24685596
11	0x3e63e1cb	0.22254102
12	0x3e18ad03	0.14909749
13	0x3d4801fd	0.04883002
14	0x3e31a1b8	0.17346847
15	0x3db3555c	0.087565154
16	0x3dad165b	0.084515296
17	0xbda00f8c	-0.07815465
18	0x3ac76abe	0.0015214307
19	0x3e31bf2b	0.17358081
20	0x3d81b8bc	0.063340634
21	0x3e313271	0.17304398
22	0x3a205c4d	0.00061172695
23	0x3df1ec3f	0.118126385
24	0x3daf336a	0.08554728
25	0xbcdb7377	-0.026788456
26	0xbcb2900d	-0.021797204
27	0x3db1807a	0.08667083
28	0x3e11361b	0.14180796
29	0x3d261a40	0.040552378
30	0xbdcc93b5	-0.099891104
31	0xbd11c77a	-0.035590626
32	0x3e1297de	0.14315745
33	0xbe066828	-0.1312567
34	0x3e929514	0.28629363
35	0x3b50c939	0.003185822
36	0xbde275d6	-0.11057632
37	0x3bfea197	0.007770728
38	0xbd0fb469	-0.035084162
39	0xbd2c111f	-0.042008515
40	0x3d999f40	0.07501078
41	0xbdcdc2df	-0.10046934
42	0x3be1b42c	0.0068879332
43	0x3dd93fc2	0.10607864
44	0x3e2420de	0.16028163
45	0x3d4ba67e	0.049719326
46	0xba8790a2	-0.0010342787
47	0x3d67e895	0.056618292
48	0x3e9d5896	0.30731648
49	0xbd5deef2	-0.054182954
50	0x3e0fd3eb	0.14045684
51	0xbd85fc0b	-0.06542214
52	0x3dc5ac5c	0.096520156
53	0x3e8ddaf6	0.27706116
54	0xbd84b601	-0.06480027
55	0x3d8ef003	0.06979372
56	0xbe3e2592	-0.1856902
57	0xbda77fe2	-0.081786886
58	0x3d0bc920	0.034127355
59	0x3ea18013	0.31543025
60	0xbdc59169	-0.096468754
61	0x3d8341a5	0.06409005
62	0xbc884a49	-0.016636984
63	0xbd86b16e	-0.06576811
64	0xbd523b0d	-0.051325846
65	0xbd937857	-0.072006874
66	0x3e86e659	0.26347616
67	0x3daf2570	0.085520625
68	0xb8d705dc	-0.0001025309
69	0x3e0f4145	0.13989742
70	0x3db430c9	0.087983675
71	0xbe1d17ae	-0.15341064
72	0xbd71a507	-0.058995273
73	0x3e44a7b5	0.192046
74	0x3dad9c86	0.0847712
75	0x3e3bcc1c	0.1833958
76	0x3e38cee5	0.18047674
77	0x3e757303	0.23969655
78	0x3e697ba7	0.22801076
79	0x3e687562	0.22701028
80	0xbbfc0770	-0.0076913163
81	0x3b98c3d8	0.0046620183
82	0x3d0da6b5	0.034582812
83	0x3e811d54	0.25217688
84	0x3df698c2	0.12040855
85	0x3e1f05d5	0.15529568
86	0xbd8c506d	-0.068512775
87	0xbd7918c5	-0.060814638
88	0x3e93313b	0.28748497
89	0x3e035250	0.12824368
90	0x3daff2e9	0.08591253
91	0x3c47f38a	0.01220406
92	0xbd19b07c	-0.037521824
93	0x3e6fe430	0.2342689
94	0x3cc5bdfe	0.024138447
95	0xbbb2192f	-0.005435131
96	0x3de66852	0.11250366
97	0x3e29d53a	0.16585246
98	0x3e707330	0.2348144
99	0xbce23b27	-0.027616097
100	0x3bb183ba	0.0054173144
101	0x3e632b81	0.22184564
102	0xbdf423d9	-0.119209
103	0x3e1ddadb	0.15415518
104	0x3ac10ba7	0.0014728204
105	0x3e527fc2	0.20556548
106	0xbdfd8c34	-0.12380257
107	0x3dc9a2d3	0.098455094
108	0x3d1250f1	0.035721723
109	0xbdad5f63	-0.08465459
110	0x3e821dc3	0.2541333
111	0x3e5d982a	0.21640077
112	0x3e0c9c35	0.13731463
113	0x3e276047	0.1634532
114	0x3d06e524	0.03293337
115	0x3e5b2dc8	0.21404183
116	0x3e1f8eb4	0.1558178
117	0x3e8de5aa	0.27714282
118	0x3e1b0516	0.15138659
119	0x3db18fe8	0.08670026
120	0xbdc39bb1	-0.0955118
121	0x3d709211	0.05873305
122	0xbdb5cdb8	-0.08877128
123	0x3e511904	0.20419699
124	0xbe1fedb3	-0.15618019
125	0x3dcf0659	0.101086326
126	0xbd8b56da	-0.06803675
127	0xbda4fbfc	-0.08055875

network.2.weight f4 [128, 128]
0	0xbd6184f5	-0.05505844
1	0x3cc1c2ff	0.023652552
2	0x3d6496fb	0.05580805
3	0x3dae6d8f	0.085169904
4	0x3db290d5	0.08719031
5	0x3e291eae	0.1651561
6	0x3df6f2b1	0.120580085
7	0x3db5abc7	0.088706546
8	0x3bf214fc	0.0073877554
9	0xbe5f9a31	-0.21836163
10	0x3e0b84e8	0.13624918
11	0x3d9635c9	0.073344775
12	0x3d98cfa8	0.07461482
13	0xbca69ab2	-0.020337436
14	0xbb53ba68	-0.0032307152
15	0x3d3b5164	0.045731917
16	0x3e4a81e8	0.19776118
17	0x3c9b6e65	0.018973539
18	0x3bebcf70	0.0071963593
19	0x3ddcffec	0.10791001
20	0x3e2281e2	0.15869859
21	0x3e24c100	0.16089249
22	0x3cb0c2f4	0.021577336
23	0x3d4c8814	0.04993446
24	0x3e01a0d6	0.1265901
25	0xbdd4449d	-0.103646494
26	0xbe02c14b	-0.12769048
27	0x3dd7f620	0.105449915
28	0x3e56de8a	0.2098333
29	0x3e4c03c3	0.1992331
30	0xbd98f714	-0.074690014
31	0x3e535b22	0.20640233
32	0x3dd9c677	0.10633557
33	0xbd7f0f35	-0.062270362
34	0x3e01250a	0.12611786
35	0x3e2379b1	0.1596439
36	0xbd192a8f	-0.037394103
37	0x3d46b5b2	0.048513122
38	0x3dbb7ed1	0.09155048
39	0x3ccbec49	0.024892943
40	0x3cf96297	0.03044252
41	0xbdbc26e2	-0.09187104
42	0x3e43786d	0.19088908
43	0x3de4b664	0.11167601
44	0x3d5efca1	0.054440144
45	0x3de96cd9	0.11397714
46	0xbe25bcba	-0.16185275
47	0x3e05591f	0.13022278
48	0x3e122f6c	0.14275903
49	0xbd9f5050	-0.0777899
50	0xbd11c684	-0.03558971
51	0xbd5aa681	-0.053381447
52	0x3e48c352	0.19605759
53	0x3dc17b5a	0.094473556
54	0xbdf408e0	-0.11915755
55	0xbb73d17d	-0.0037203722
56	0xbe1b1148	-0.15143311
57	0x3e284a6e	0.16434643
58	0xbdcb7bda	-0.09935732
59	0x3e3d3d31	0.18480374
60	0x3b0b2d10	0.0021236576
61	0xbdb1d0d3	-0.08682408
62	0x3cb36827	0.02190025
63	0x3d590ca8	0.052990586
64	0xbddfb85d	-0.109238364
65	0x3c9cac17	0.019125028
66	0x3e0af20b	0.13568895
67	0x3e0fdc6b	0.14048927
68	0x3e2614d3	0.16218881
69	0x3e0dae46	0.13836011
70	0x3d96e311	0.07367528
71	0xbe03b0d7	-0.12860428
72	0x3ca23287	0.019799484
73	0xbd0920b0	-0.03347844
74	0x3df15135	0.11783067
75	0x3e61dd9c	0.22057194
76	0x3d6e18f8	0.05812928
77	0x3d03793b	0.032098036
78	0x3e0cee4d	0.1376278
79	0x3e15fe20	0.14647722
80	0xbda8da4f	-0.08244764
81	0xba3b4949	-0.0007144404
82	0x3c7c641a	0.015404725
83	0x3cf4aeb9	0.02986847
84	0x3da9ca10	0.082904935
85	0x3d467e46	0.048460267
86	0xbe138da6	-0.14409503
87	0xbe2e22ac	-0.17005414
88	0x3d6ad582	0.057332523
89	0xbd196b49	-0.03745583
90	0x3df70dcb	0.12063178
91	0x3d937011	0.07199109
92	0x3d926cd4	0.071496636
93	0x3df2dcad	0.11858497
94	0x3c928048	0.017883435
95	0xbdaaaff7	-0.08334344
96	0x3d71b87c	0.05901383
97	0x3d132f0b	0.035933536
98	0xbd925798	-0.071456134
99	0x3d65dbd4	0.056117848
100	0x3dfd49c9	0.12367589
101	0x3dd922d9	0.1060235
102	0xbddd4a8e	-0.10805236
103	0x3e125e51	0.14293791
104	0xbdbc40cb	-0.09192046
105	0x3e20ac34	0.1569069
106	0xbdbc8a61	-0.09206081
107	0xbd048151	-0.03234989
108	0x3e110ed5	0.14165814
109	0xbdb72fe7	-0.089446835
110	0x3e04f4b0	0.12983966
111	0x3d9d6a9a	0.07686348
112	0x3c86ae57	0.016440554
113	0x3cb585bd	0.022158498
114	0x3dc677a1	0.09690786
115	0x3df61070	0.12014854
116	0x3cc4b1e7	0.024010612
117	0x3d5a2664	0.05325927
118	0x3db402c2	0.087895885
119	0x3de2927a	0.110630944
120	0xbde419aa	-0.111377075
121	0x3cef82e4	0.029237218
122	0xbdcf730f	-0.101293676
123	0x3d3d2dea	0.046186365
124	0xbb9cf4b7	-0.0047899145
125	0x3d78255a	0.060582496
126	0xbe001243	-0.12506966
127	0xbdd734d4	-0.10508123
128	0xbe059f78	-0.13049114
129	0x3d4862e7	0.048922446
130	0x3e272d12	0.16325787
131	0x3e1de285	0.15418442
132	0x3e0db706	0.13839349
133	0x3db9c20c	0.09070215
134	0x3d8d336e	0.06894575
135	0x3de41844	0.11137441
136	0x3d9c07bb	0.07618662
137	0xbe1395d7	-0.14412628
138	0x3db452ef	0.08804881
139	0x3cb50728	0.022098139
140	0x3e0a5a71	0.13511063
141	0x3d869400	0.065711975
142	0x3dacab55	0.084311165
143	0x3cb0dc61	0.02158946
144	0x3e097933	0.1342514
145	0xbd579bfb	-0.05263899
146	0xbddeb58d	-0.10874472
147	0x3d086c59	0.033306453
148	0x3e05bf89	0.13061346
149	0x3d2c5061	0.042068843
150	0xbbab5827	-0.0052290144
151	0x3cc854d7	0.024454517
152	0x3e0d05b7	0.13771711
153	0xbd807c83	-0.06273749
154	0xbdc339ae	-0.09532486
155	0x3de6f601	0.1127739
156	0x3e15da4f	0.1463406
157	0x3e1cdf85	0.15319641
158	0xbce2eeeb	-0.027701816
159	0x3e51c5f0	0.20485663
160	0x3dbdc649	0.092663355
161	0xbe22e7be	-0.15908715
162	0x3d147639	0.03624556
163	0x3da27b25	0.07933644
164	0xbe40f813	-0.18844633
165	0x3e112872	0.14175585
166	0xbcbdbe30	-0.023161978
167	0xbdf2b40f	-0.1185075
168	0x3e3ae1c0	0.1825018
169	0xbc3046c2	-0.0107590575
170	0x3e42de90	0.19030213
171	0x3e26b2b1	0.16279103
172	0x3c020823	0.00793651
173	0x3e11c007	0.14233409
174	0x3d05f177	0.032700982
175	0x3d8f6884	0.07002357
176	0x3de98d11	0.114038594
177	0xbe371379	-0.17878522
178	0x3ddefcaf	0.10888039
179	0xbd517154	-0.05113347
180	0x3e7614d2	0.2403138
181	0x3dac4e97	0.08413427
182	0xbd405ab6	-0.04696151
183	0x3dbd6c3a	0.09249158
184	0xbdc1c5b8	-0.0946154
185	0x3cf800ab	0.030273756
186	0xbc8c60f6	-0.017136078
187	0x3e5e79a3	0.21726088
188	0x3c270e24	0.0101962425
189	0x3cbb500c	0.022865318
190	0x3dabcc60	0.08388591
191	0x3e4411fa	0.19147483
192	0xbde91ccb	-0.11382445
193	0x3ccc6992	0.024952684
194	0x3df5b654	0.11997667
195	0x3e688583	0.2270718
196	0x3db8839e	0.09009479
197	0x3db4b9c2	0.08824493
198	0x3da565b8	0.08076042
199	0xbd967dcf	-0.07348215
200	0xbb42e6e9	-0.0029739684
201	0x3dc71e9d	0.09722636
202	0x3c2c4291	0.010513918
203	0x3e4a156f	0.19734739
204	0x3e0fc7f6	0.14041123
205	0x3da04962	0.07826497
206	0x3e00b195	0.12567742
207	0x3def904f	0.116974466
208	0x3d3d7be1	0.04626072
209	0xbd0ba6a2	-0.03409446
210	0x3d2b93f3	0.041889142
211	0x3d147817	0.03624734
212	0x3e0bbcf3	0.13646297
213	0x3dfe7cda	0.12426157
214	0xbdce44ee	-0.10071741
215	0xbe15bde5	-0.1462322
216	0x3e2ff309	0.17182554
217	0x3e22c921	0.15897037
218	0xbba1983c	-0.004931478
219	0x3dbe6944	0.092974216
220	0x3e408aed	0.18802996
221	0x3be8b02e	0.0071010804
222	0x3da18894	0.07887378
223	0xbd89e883	-0.06733801
224	0x3e2ac906	0.16678247
225	0x3dd9a723	0.10627582
226	0x3dc07598	0.09397429
227	0x3d926db6	0.07149832
228	0x3d60d7d4	0.05489333
229	0x3dfc2cd0	0.12313235
230	0xbdb591dd	-0.08865712
231	0x3c996c81	0.018728497
232	0xbcf05ee8	-0.02934213
233	0x3db8e965	0.090288915
234	0xbd0337e8	-0.03203574
235	0x3d2806f7	0.041022267
236	0x3debda71	0.11516274
237	0xbdd895b4	-0.105754286
238	0x3d99fa9a	0.075185016
239	0x3e092e67	0.13396607
240	0x3def05de	0.11671041
241	0x3e128acd	0.14310761
242	0xbcd5187b	-0.02601265
243	0x3dc6c5ab	0.09705671
244	0x3e12083f	0.14260958
245	0x3ddb56f8	0.10709947
246	0x3e24dc5e	0.16099688
247	0x3e537fa2	0.20654157
248	0xbd02eaab	-0.031962078
249	0x3e13be54	0.14428073
250	0xbc9ffccb	-0.01952972
251	0x3dab4e22	0.08364512
252	0xbd0bbe6b	-0.034117144
253	0x3db804b9	0.08985276
254	0xbdb811f8	-0.08987802
255	0xbe113ac1	-0.14182569

network.2.bias f4 [128]
0	0x3cb7c441	0.022432448
1	0x3dc06298	0.09393805
2	0xbde68df4	-0.11257544
3	0x3e3712de	0.17878291
4	0x3e34ca27	0.1765524
5	0xbd255997	-0.040368643
6	0x3e09e02a	0.13464418
7	0xbdb502d7	-0.08838432
8	0x3c15c12d	0.009140295
9	0xbddd1e24	-0.107967645
10	0xbd7efda3	-0.062253606
11	0x3c92f58b	0.01793935
12	0xbd8b01a0	-0.06787419
13	0xbdef0a62	-0.11671902
14	0x3c0f7287	0.008755333
15	0xbd9cd818	-0.07658404
16	0x3cdab27d	0.026696438
17	0x3df92c44	0.12166646
18	0x3e742fe2	0.23846391
19	0x3b8f5517	0.004374157
20	0xbb48f026	-0.0030660718
21	0x3e022b14	0.12711746
22	0xbdf5837e	-0.11987971
23	0xbbfaf68a	-0.0076587843
24	0x3d3fa768	0.04679051
25	0xbc38e44f	-0.011284902
26	0x3beaaa98	0.0071614496
27	0x3d9738cb	0.07383879
28	0x3ca07583	0.019587284
29	0x3e01f3c7	0.1269065
30	0xbda9eb64	-0.0829685
31	0x3e4e1803	0.20126347
32	0xbb8e2352	-0.0043377066
33	0x3e2aa63f	0.1666498
34	0x3deb7b37	0.11498111
35	0x3e3307f9	0.1748351
36	0xbd5b934e	-0.053607278
37	0x3e4cb406	0.19990548
38	0xbd230c4c	-0.03980665
39	0x3de90e39	0.11379666
40	0x3e2c8f5e	0.16851565
41	0x3ce20d89	0.027594345
42	0x3e250248	0.16114151
43	0x3db6ebe1	0.08931709
44	0x3d0b9a90	0.03408295
45	0x3cc5fa09	0.024167078
46	0x3d85ed2c	0.065393776
47	0x3d2715be	0.04079222
48	0xbd3d2238	-0.04617521
49	0x3c0bc747	0.008531398
50	0xbd32c4f2	-0.043644853
51	0xbcc088fc	-0.02350282
52	0x3a8950f1	0.0010476393
53	0x3d901ac1	0.07036353
54	0xbdb85cf0	-0.090021014
55	0x3e2abce2	0.16673616
56	0x3db0dbf3	0.08635702
57	0xbdd435f7	-0.103618555
58	0xbd92c138	-0.0716576
59	0xbe14830e	-0.14503118
60	0xbdb8c2b9	-0.090215154
61	0xbdbd9368	-0.09256631
62	0xbdbe1485	-0.092812575
63	0x3e5487af	0.20754884
64	0xbd34d820	-0.044151425
65	0xbdb67974	-0.08909884
66	0x3e258a3a	0.1616601
67	0x3dc88053	0.09790101
68	0xbd9bd43d	-0.076088406
69	0x3dddf165	0.10837058
70	0x3cd84086	0.026397955
71	0xbc01e11a	-0.007927204
72	0x3c55d318	0.013050817
73	0x3d8bacc2	0.0682006
74	0xbdcb869f	-0.09937786
75	0xbd0dc4cb	-0.034611505
76	0xbba4a6ae	-0.0050247526
77	0xbc840ff1	-0.016120883
78	0x3d542403	0.051792156
79	0xbccd48b4	-0.025059082
80	0x3db02b89	0.08602054
81	0xbdb3e528	-0.087839425
82	0xbc9ae9bb	-0.01891028
83	0xbdd58f37	-0.10427707
84	0x3da3307b	0.07968231
85	0xbd69d5e9	-0.057088766
86	0x3d8b4f94	0.06802288
87	0xbd22283d	-0.039589155
88	0xbda0ec94	-0.07857624
89	0x3d86385a	0.06553717
90	0x3e59ff5a	0.21288815
91	0xbc944f46	-0.018104207
92	0xbe05b92b	-0.13058917
93	0xbd92fd6e	-0.07177244
94	0x3e2079c5	0.15671451
95	0x3e453e47	0.19262038
96	0xbd6a448f	-0.05719429
97	0x3caa6317	0.020799203
98	0x3de28ed1	0.11062396
99	0xbcc84319	-0.024446057
100	0xbcab1b24	-0.020886965
101	0xbd3eb0c2	-0.046555288
102	0xbda91a09	-0.08256919
103	0x3ab05f6a	0.001345617
104	0xbda1e902	-0.07905771
105	0x3e04caeb	0.12968032
106	0x3c939e36	0.018019777
107	0x3e53f833	0.20700149
108	0x3d513356	0.05107435
109	0xbda8b4a7	-0.08237582
110	0xbbd7602f	-0.0065727453
111	0x3df3a4ed	0.118966915
112	0x3b5c3975	0.0033603583
113	0x3e09b770	0.13448882
114	0x3e198229	0.14991058
115	0xbca1a04a	-0.019729752
116	0xbd3f7ced	-0.046749998
117	0xbdbeb4c5	-0.09311823
118	0xbdda939b	-0.10672685
119	0x3cf1404d	0.029449606
120	0x3e49e2cf	0.19715427
121	0x3e3cb117	0.1842693
122	0xbc2a3c0d	-0.010390294
123	0x3df2f7fe	0.11863707
124	0x3e088004	0.13330084
125	0xbb98b34d	-0.004660046
126	0xbdf849e8	-0.121234715
127	0xbcd3d273	-0.025857186
