models_backup/maddpg/checkpoint_ep1650/adversary_0.pth (torch, 764002 bytes, 44 tensors)

network.0.weight f4 [128, 16]
0	0xbe93d657	-0.28874466
1	0x3e01b46e	0.12666485
2	0x3e2953ed	0.16535921
3	0x3df5132c	0.11966547
4	0x3de83e55	0.11340014
5	0xbe54eac2	-0.20792678
6	0xbe28c43a	-0.16481104
7	0xbe35b602	-0.17745212
8	0x3db17314	0.086645275
9	0xbd8a7670	-0.067608714
10	0xbb332077	-0.0027332583
11	0x3e03f995	0.12888177
12	0x3e5a4c65	0.21318205
13	0x3c8f6341	0.017503383
14	0x3e7877a7	0.24264394
15	0x3e3580f6	0.17724976
16	0x3e23cceb	0.15996139
17	0xbd9c4c9b	-0.07631799
18	0xbd52790b	-0.051384967
19	0x3dd24f97	0.10269087
20	0xbdf1d5d2	-0.11808361
21	0xbdadb011	-0.084808476
22	0x3e95ba9e	0.2924394
23	0x3e2b01c8	0.16699898
24	0x3d5c1842	0.05373407
25	0x3e02acaa	0.12761179
26	0xbdd7d1e2	-0.10538079
27	0x3e369bc2	0.17832854
28	0x3e7ca6f4	0.24673063
29	0x3d6b01a1	0.0573746
30	0x3e35dc11	0.1775973
31	0x3e882094	0.26587355
32	0xbe80fb74	-0.25191844
33	0x3e2368ad	0.159579
34	0xbcb52fa5	-0.022117445
35	0x3d0d3ecb	0.034483712
36	0xbdb74aab	-0.08949789
37	0xbe0e4277	-0.13892542
38	0xbe521bc0	-0.20518398
39	0xbdb60156	-0.088869736
40	0xbe2c0a95	-0.16800912
41	0x3d023076	0.031784497
42	0xbe8869b3	-0.26643142
43	0x3e839059	0.25696066
44	0xbe72c23c	-0.23706907
45	0xbcd28c2f	-0.02570161
46	0xbd93f989	-0.072253294
47	0x3e6e9591	0.23299243
48	0xbe11c53b	-0.14235394
49	0xbde65ba0	-0.11247945
50	0xbe126557	-0.1429647
51	0xbe8fe729	-0.2810605
52	0x3e4190c4	0.1890288
53	0x3e831fd0	0.2561021
54	0xbc66ed02	-0.014094593
55	0xbe2b8642	-0.16750434
56	0xbe8c4a59	-0.27400473
57	0x3c3e6766	0.011621332
58	0xbc5142b3	-0.01277225
59	0xbe72e6c8	-0.23720849
60	0x3e4d6fe6	0.20062217
61	0x3e60881e	0.21926925
62	0xbbbc3091	-0.0057430943
63	0xbd582799	-0.05277214
64	0x3e1bc84b	0.15213124
65	0x3e36bf5d	0.17846437
66	0xbe4d4f30	-0.20049739
67	0x3e832c46	0.25619715
68	0xbda973ec	-0.082740635
69	0xbe297483	-0.16548352
70	0xbe1c9026	-0.15289363
71	0xbe07287f	-0.13199042
72	0x3e484f64	0.19561535
73	0xbe8d96c3	-0.27654085
74	0x3e828392	0.25491005
75	0x3df26913	0.118364476
76	0x3e8f93c1	0.28042415
77	0xbe37d4b6	-0.17952237
78	0xbe088110	-0.13330483
79	0x3e53c9bb	0.20682423
80	0x3e80b388	0.2513697
81	0x3dc5e856	0.09663455
82	0xbc2cf64a	-0.010556767
83	0x3e21b906	0.15793237
84	0x3bff6a04	0.0077946205
85	0xbdf0a808	-0.117507994
86	0x3e3b456a	0.18288198
87	0xbd9ed0a3	-0.07754638
88	0xbc163595	-0.009168048
89	0xbe20ab04	-0.15690237
90	0xbd0b7965	-0.034051318
91	0xbd7b4c2b	-0.061351936
92	0x3e76f195	0.24115594
93	0xbde8fbf3	-0.113761805
94	0x3e22ca06	0.15897378
95	0xbe80e88c	-0.2517742
96	0xbe55be4f	-0.20873378
97	0x3e054997	0.13016354
98	0x3de0631d	0.10956404
99	0x3e0ad9ff	0.13559721
100	0xbdbbea0f	-0.091755025
101	0xbd357905	-0.044304866
102	0xbd809467	-0.062783055
103	0xbd6194f8	-0.05507371
104	0xbe464b96	-0.19364771
105	0xbe8e50a5	-0.27795902
106	0xbe9f22ea	-0.31081325
107	0x3dd1670f	0.10224735
108	0xbe1cb539	-0.15303506
109	0x3e00918d	0.12555523
110	0x3dc50735	0.09620515
111	0xbd0dad17	-0.0345889
112	0x3d9619ec	0.07329163
113	0x3e21c069	0.15796055
114	0xbd9164b0	-0.07099283
115	0xbdf06cfd	-0.11739538
116	0x3e502ca0	0.20329523
117	0x3d711ade	0.058863513
118	0x3d89556b	0.06705745
119	0x3df1e966	0.11812095
120	0x3e5c4365	0.21510084
121	0xbe5dce76	-0.2166079
122	0xbd81d55b	-0.063395225
123	0xbdf56068	-0.11981279
124	0x3d272bff	0.040813442
125	0x3c70f1a4	0.014706049
126	0xbcd4bd96	-0.025969308
127	0x3deb2dd5	0.11483351
128	0x3e0461bc	0.12927908
129	0xbe48a901	-0.1959572
130	0x3e4c7b05	0.19968803
131	0xbe5a3cf2	-0.21312311
132	0xbe2bdc5b	-0.16783278
133	0xbcddc38b	-0.027070781
134	0xbe5e3b00	-0.21702194
135	0xbdbd4963	-0.09242513
136	0xbe9cd201	-0.3062897
137	0xbe375917	-0.17905079
138	0xbe96cfe3	-0.2945548
139	0x3e5dcd3f	0.21660326
140	0x3b31cd9c	0.002713061
141	0x3df8b020	0.12142968
142	0x3e0d9fb5	0.13830455
143	0x3b763078	0.003756551
144	0x3e4d28b8	0.20035064
145	0xbdb940e1	-0.09045578
146	0x3cd555cd	0.02604189
147	0x3cbc182c	0.022960745
148	0x3e888493	0.26663646
149	0xbe29e66f	-0.1659181
150	0x3e382b70	0.1798532
151	0xbe160d34	-0.14653474
152	0xbdc0a12e	-0.094057426
153	0xbe92bd13	-0.28659877
154	0x3e1d59fc	0.15366358
155	0xbe95aca1	-0.29233268
156	0x3e58dd70	0.21178222
157	0x3e396d27	0.18108045
158	0xbe1c7896	-0.15280375
159	0x3d938053	0.0720221
160	0xbe26c3f4	-0.16285688
161	0x3db13744	0.08653119
162	0x3e399ec1	0.18126966
163	0xbc9be8f2	-0.019031975
164	0xbd93d2c8	-0.07217938
165	0x3e94464a	0.28959876
166	0xbe095bb5	-0.1341389
167	0xbcba72e7	-0.022759868
168	0x3e314804	0.17312628
169	0xbcc7849e	-0.024355229
170	0x3d4272a2	0.047472604
171	0x3d80e774	0.06294146
172	0xbe35b7aa	-0.17745844
173	0x3e825b6e	0.2546038
174	0xbd84790c	-0.064684
175	0xbe1eda74	-0.15513021
176	0xbd7d89ba	-0.061898924
177	0xbe855d4f	-0.2604775
178	0x3e592127	0.21204053
179	0x3e7060ca	0.23474422
180	0x3e8d6ec9	0.27623585
181	0xbe42e224	-0.19031578
182	0x3e51bc8a	0.20482078
183	0xbe5a08c8	-0.21292412
184	0x3de9d70c	0.1141797
185	0x3e313308	0.17304623
186	0x3d502f31	0.050826255
187	0xbe265389	-0.16242804
188	0xbdb973e5	-0.09055308
189	0xbe8c1614	-0.27360594
190	0xbe8efc04	-0.27926648
191	0x3e237697	0.15963207
192	0xbdf589f0	-0.119892
193	0xbd3ad6fb	-0.045615178
194	0x3d55bbb1	0.05218095
195	0x3dd238df	0.102647536
196	0x3e66121d	0.22467847
197	0xbdce93b2	-0.100867644
198	0xbea221eb	-0.31666502
199	0x3df9f82b	0.122055374
200	0xbdb1b51d	-0.08677123
201	0xbe75d420	-0.240067
202	0xbe86337d	-0.26211157
203	0xbe43c9d3	-0.19119959
204	0x3e443d4a	0.19164005
205	0x3c995993	0.01871947
206	0xbdb5bc9d	-0.08873866
207	0x3ca20612	0.019778285
208	0x3dfe025f	0.12402796
209	0x3e0e8ff2	0.13922098
210	0xbe08709f	-0.13324212
211	0x3e8d72a3	0.27626523
212	0x3e560884	0.20901686
213	0xbe153e7b	-0.14574616
214	0x3de74166	0.11291771
215	0xbe3c75f6	-0.18404374
216	0xbd42b39e	-0.047534578
217	0x3df42a0b	0.119220816
218	0xbe00e303	-0.12586598
219	0x3e80bec5	0.25145546
220	0x3e1975e2	0.14986375
221	0xbe8b506b	-0.27209792
222	0x3d78ef2b	0.060774963
223	0xbe4700b8	-0.19433868
224	0xbe07e90e	-0.13272497
225	0xbe1b3a6d	-0.15159006
226	0x3cd93de0	0.026518762
227	0xbdce07ec	-0.10060105
228	0x3d40dd9f	0.047086354
229	0xbe1adddd	-0.15123697
230	0xbe78ddff	-0.24303435
231	0x3e743a8a	0.23850456
232	0x3dd76694	0.10517612
233	0x3e7f1937	0.24911962
234	0x3ddbe880	0.10737705
235	0x3d69a08e	0.057037883
236	0xbdf7ba60	-0.12096095
237	0xbc8531b4	-0.016259052
238	0x3dd5ae4c	0.10433635
239	0x3d73fa73	0.05956502
240	0x3e444def	0.19170354
241	0xbd3f10cb	-0.046646874
242	0xbd7269ed	-0.05918305
243	0x3ce85f1d	0.028365666
244	0xbe3f0d89	-0.18657507
245	0xbe050d52	-0.12993363
246	0xbdbf874b	-0.09351977
247	0x3e26f4f2	0.16304377
248	0x3e698741	0.22805502
249	0xbcf8a0e7	-0.030350162
250	0x3e3fb27a	0.18720427
251	0xbdfe830a	-0.124273375
252	0x3c021c97	0.007941387
253	0xbe94ceb8	-0.29063964
254	0xbceaf062	-0.028679077
255	0xbe70b5bc	-0.23506826

network.0.bias f4 [128]
0	0x3d84f6de	0.06492399
1	0xbe2f3ba5	-0.17112596
2	0x3e328664	0.17434078
3	0x3cf45907	0.029827608
4	0x3cf6e2ca	0.030137438
5	0x3da1bf43	0.078978084
6	0x3e8b80f0	0.2724681
7	0x3dfe2dfa	0.12411113
8	0x3e16b03f	0.1471567
9	0xbe1acf0e	-0.15118048
10	0x3e3d5ec5	0.18493183
11	0x3da66fcd	0.08126793
12	0x3c0a60d4	0.008445937
13	0xbe411d5a	-0.18858853
14	0xbdbb5c01	-0.09148408
15	0x3e1433ec	0.14472932
16	0xbde8f25d	-0.11374352
17	0xbe3bc4d8	-0.18336809
18	0xbd8604de	-0.06543897
19	0xbe11b0de	-0.14227626
20	0x3e512b79	0.2042674
21	0xbdc20fae	-0.09475647
22	0x3e8605e6	0.26176375
23	0xbdcc4e10	-0.09975827
24	0x3d9d0eaa	0.076688126
25	0xbd9c9f00	-0.07647514
26	0x3de56c00	0.1120224
27	0x3d6c19ee	0.057641916
28	0x3e66b09b	0.22528307
29	0x3deaff1f	0.11474442
30	0xbe0fd6f8	-0.14046848
31	0xbdd2fe66	-0.10302429
32	0x3dca47dc	0.09876987
33	0x3dde8339	0.108648725
34	0x3e847b9a	0.2587555
35	0xbb2843e8	-0.002567524
36	0x3e817935	0.25287786
37	0x3ba50438	0.0050359033
38	0x3ddc3e90	0.1075412
39	0x3e876b54	0.26449072
40	0x3e9972c8	0.29970384
41	0x3e8160c2	0.25269133
42	0x3e763c14	0.24046355
43	0xbd82f3cb	-0.06394156
44	0xbd9f371b	-0.077741824
45	0xbd491353	-0.049090695
46	0x3c0e43fd	0.008683202
47	0x3b509f87	0.0031833367
48	0xbe1864bd	-0.14882179
49	0xbe43fa8e	-0.19138548
50	0x3bb8cc80	0.0056396127
51	0x3dd616e1	0.104535826
52	0x3e273b73	0.16331272
53	0xbe1d8e85	-0.15386398
54	0x3e8eeb7c	0.27914035
55	0x3e60b093	0.21942358
56	0xbda4a24e	-0.0803877
57	0x3e38a487	0.18031512
58	0x3e79f6f2	0.24410608
59	0xbe3139d5	-0.17307217
60	0x3e96b384	0.29433835
61	0x3e8b1429	0.27163818
62	0x3e737020	0.23773241
63	0x3e976b4d	0.29574051
64	0xbdae2fee	-0.085052356
65	0xbcd1271b	-0.025531342
66	0x3e810acf	0.2520356
67	0x3e821e0d	0.25413552
68	0x3e2449ef	0.16043828
69	0xbe2d1913	-0.16904096
70	0xbcc45099	-0.023964213
71	0x3dfdc5e0	0.12391257
72	0x3e7e94b3	0.24861412
73	0x3e845827	0.25848505
74	0xbcc0f6c6	-0.02355517
75	0x3e8a091b	0.26960072
76	0x3d74c493	0.05975778
77	0xbd897d0c	-0.06713304
78	0x3e0e1a24	0.1387716
79	0x3e1d5ffc	0.15368646
80	0x3e1c9eb6	0.15294918
81	0x3e039ffd	0.12854
82	0x3e67aeca	0.2262527
83	0xbde24a76	-0.110493585
84	0x3e5ad978	0.2137202
85	0x3e87b7b2	0.26507336
86	0xbe00d672	-0.12581804
87	0xbd922220	-0.07135415
88	0xbe4b5522	-0.19856694
89	0x3e12c943	0.14334588
90	0x3e988ef9	0.2979658
91	0x3e833cbe	0.2563228
92	0x3c468f34	0.012119103
93	0xbe362dc9	-0.17790903
94	0xbe181eb4	-0.14855462
95	0x3e2f2454	0.17103702
96	0xbd0dcd21	-0.034619454
97	0x3e6ad700	0.22933578
98	0x3e90180c	0.28143346
99	0x3e6d9437	0.2320107
100	0xbd4606d5	-0.04834636
101	0x3e623adf	0.2209277
102	0xbdd3ed48	-0.10347992
103	0xbe10bfcf	-0.14135669
104	0x3db997ab	0.090621315
105	0x3e504558	0.20338953
106	0xbbe3e629	-0.0069549275
107	0xbe163cf4	-0.1467169
108	0x3e4b9061	0.19879295
109	0x3e59bf26	0.21264324
110	0xbe2c95b6	-0.16853985
111	0x3e6238a0	0.22091913
112	0xbe18cc23	-0.14921622
113	0xbe42d7e9	-0.19027676
114	0x3e56dc72	0.2098253
115	0x3cd20ce3	0.02564091
116	0x3e7cb893	0.24679784
117	0xbc9ae1fe	-0.01890659
118	0x3db5d98b	0.08879384
119	0x3e909dcf	0.28245398
120	0x3e8bec70	0.27328825
121	0xbd8ab868	-0.06773454
122	0xbcd38ff6	-0.025825482
123	0x3e0bea40	0.13663578
124	0x3e9b02bb	0.3027552
125	0xbdfaa1ac	-0.12237868
126	0x3ddb7619	0.10715885
127	0x3e5c56c6	0.21517476

network.2.weight f4 [128, 128]
0	0xbd9916d4	-0.07475057
1	0x3d9d0087	0.07666116
2	0x3c7d2911	0.0154516855
3	0xbd4214bd	-0.04738306
4	0x3da12e78	0.07870191
5	0xbda230a4	-0.07919434
6	0x3d331027	0.043716576
7	0xbd97cbee	-0.074119434
8	0xbd2356a6	-0.039877556
9	0x3c9b9ca2	0.018995587
10	0x3d851cbc	0.06499621
11	0x3d92ce19	0.07168216
12	0xbd9d42aa	-0.07678731
13	0x3ce24bbf	0.02762401
14	0x3d87e466	0.066353604
15	0x3cc40de0	0.023932397
16	0xbd26fa52	-0.040766068
17	0x3d8f6434	0.07001534
18	0x3d5ca0e4	0.053864375
19	0x3cca93be	0.024728652
20	0xbd414099	-0.047180746
21	0xbce5b031	-0.028038116
22	0x3cb6a33f	0.022294639
23	0xbd8659d9	-0.06560106
24	0xba925808	-0.0011165151
25	0x3b8a7612	0.004225501
26	0xbc9144b7	-0.017732961
27	0x3b9a0707	0.0047005448
28	0x3c622969	0.013803818
29	0xbd4427e5	-0.04788961
30	0xbcd5c82c	-0.026096426
31	0x3d92b49d	0.071633555
32	0xbdbebf49	-0.093138285
33	0xbd9a67da	-0.07539339
34	0x3d2a9681	0.041647438
35	0xbccfe54f	-0.025377898
36	0xbd575199	-0.052568052
37	0x3cab0051	0.020874174
38	0x3b2edbc7	0.002668129
39	0x3c132770	0.008981571
40	0x3d3182e7	0.04333773
41	0x3cd91bfc	0.026502602
42	0x3c70b6e2	0.01469204
43	0x3d24fb06	0.040278457
44	0xbdbe9496	-0.09305684
45	0xbb8c5037	-0.0042820233
46	0xbced9db2	-0.029005859
47	0xbbc84f8b	-0.006112998
48	0xbc86858e	-0.016421106
49	0xbd1b979c	-0.037986383
50	0xbd20a288	-0.039217502
51	0xbdc5a3f8	-0.09650415
52	0x3a45b189	0.00075414084
53	0xbd82a8bd	-0.063798405
54	0x3c38c621	0.011277706
55	0xbc98835b	-0.018617323
56	0xbd62e5a6	-0.05539479
57	0xbd484537	-0.048894133
58	0xbd09c327	-0.033633377
59	0xbda18225	-0.07886151
60	0x3c311bab	0.010809819
61	0xbd4cf801	-0.050041202
62	0xbd9fa3fc	-0.077949494
63	0xbd8cba63	-0.06871488
64	0xbd140740	-0.036139727
65	0x3d47ec57	0.048809376
66	0x3d487141	0.048936132
67	0xbd5050ac	-0.050858185
68	0xbd61ec31	-0.05515689
69	0xbca2d1fe	-0.019875523
70	0x3c6043cf	0.013688042
71	0xbd856da0	-0.0651505
72	0xbcbb89f1	-0.022892924
73	0xbd5fb5d5	-0.054616768
74	0xbd8005aa	-0.0625108
75	0x3d98b53b	0.07456442
76	0xbd992eb4	-0.07479611
77	0xbd1b7296	-0.037951075
78	0xbd765174	-0.060136274
79	0xbdb62d7d	-0.08895395
80	0x3d0bdbf9	0.03414533
81	0xbb0935b7	-0.0020936558
82	0x3d56d2c5	0.0524471
83	0xbd66c615	-0.05634125
84	0x3cbf7c3a	0.023374666
85	0xbda2ad29	-0.07943184
86	0x3d5c1bbf	0.0537374
87	0x3d51fa70	0.051264226
88	0x3d8c78f3	0.06859007
89	0x3c1ccc29	0.00957016
90	0xbdb27e69	-0.08715517
91	0x3d82eb0f	0.0639249
92	0x3d4276ab	0.04747645
93	0xbd8add92	-0.067805424
94	0xbd8cf445	-0.06882528
95	0x3ced1929	0.028942661
96	0xbd8911b5	-0.066928305
97	0x3d649108	0.055802375
98	0x3be92217	0.0071146595
99	0x3c6e915d	0.0145610245
100	0xbd842dba	-0.06454034
101	0xbcee6314	-0.029099979
102	0x3d4d9fb4	0.050201133
103	0x3ba19c83	0.0049319877
104	0xbc5b7ce0	-0.013396472
105	0xbd80234d	-0.06256733
106	0x3d90342a	0.070411995
107	0xbd335dce	-0.04379063
108	0xbd2fbc8e	-0.04290443
109	0xbd0de8e5	-0.034645934
110	0xbcd192e4	-0.025582738
111	0xbd3db7fe	-0.046318047
112	0x3cce76e1	0.02520317
113	0x3cfd69f2	0.030934308
114	0x3d019aca	0.03164176
115	0x3c721c80	0.014777303
116	0xbc9bfae0	-0.019040525
117	0x3d813132	0.063082114
118	0xbd565686	-0.05232861
119	0xbcabd3f5	-0.020975092
120	0xbcd6bb58	-0.02621238
121	0xbd6578f7	-0.056023564
122	0x3cca1486	0.02466799
123	0xbcfd9981	-0.030956985
124	0xbda8a746	-0.0823503
125	0x3d90d7da	0.070724204
126	0xbd148831	-0.036262695
127	0xbce044c0	-0.027376533
128	0xbd5df1a8	-0.05418554
129	0x3c64e02e	0.013969464
130	0x3c70cfbc	0.014697965
131	0xbd83fabd	-0.06444309
132	0x3d7166d7	0.058935966
133	0x3c32467d	0.0108810635
134	0x3dcec95d	0.10097001
135	0x3cde1d7d	0.02711367
136	0xbc5e3687	-0.013562805
137	0x3daf4edc	0.08559963
138	0xbd31baf3	-0.04339118
139	0xbd16fe21	-0.03686345
140	0x3d3b71f9	0.04576299
141	0x3d7277c8	0.059196264
142	0xbba76988	-0.005109016
143	0xbc80251c	-0.015642695
144	0x3d2cdf2d	0.042205025
145	0x3cf7b223	0.03023631
146	0xbda74906	-0.08168225
147	0xb8b6fc67	-8.72545e-05
148	0xbd1377e0	-0.036002994
149	0xbcf72935	-0.030171016
150	0xbd0a2660	-0.033728004
151	0x3b94826b	0.0045321486
152	0xbc3ef6cd	-0.011655522
153	0x3d16c2df	0.036806937
154	0xbcaf8dd5	-0.021429935
155	0x3cd8a3de	0.026445325
156	0x3dabd259	0.0838973
157	0x3c9f5022	0.01944739
158	0xbd40ab6c	-0.04703848
159	0x3c2fcab0	0.010729477
160	0xbc0e5022	-0.008686097
161	0xbcef77b6	-0.029231887
162	0x3dccc3fc	0.099983186
163	0x3d0c3649	0.034231458
164	0x3cae7402	0.021295551
165	0xbc234da5	-0.009967242
166	0x3d7d9f2f	0.061919387
167	0x3d4388f3	0.047738027
168	0x3dbb4b90	0.09145272
169	0xbd27febf	-0.04101443
170	0xbbcf5d6e	-0.0063282764
171	0x3d759b54	0.059962586
172	0x3b9a00fd	0.004699825
173	0x3d040b7e	0.032237522
174	0xbd203025	-0.039108414
175	0x3affb77c	0.0019509639
176	0x3dcb6048	0.099304736
177	0x3d8e1fbc	0.069396466
178	0x3c92185f	0.017833887
179	0x3cb7471d	0.022372777
180	0xbd292daa	-0.041303314
181	0xbcc1b254	-0.023644604
182	0x3dee1ca2	0.11626555
183	0x3ca26a8c	0.019826196
184	0xbd1b4c7f	-0.03791475
185	0x3de47cbe	0.11156605
186	0x3d98c314	0.07459083
187	0x3cd5601b	0.026046803
188	0xbd6bce08	-0.057569534
189	0x3d73b01c	0.059494123
190	0xbd075e98	-0.033049196
191	0xbc82342b	-0.015894016
192	0x3d7f2e42	0.062299974
193	0x3c09259b	0.008370782
194	0x3d90f3a1	0.070777185
195	0xbb8f1da9	-0.0043675494
196	0xbc3ede29	-0.011649647
197	0xbc10cea4	-0.008838329
198	0x3c40f717	0.011777661
199	0x3d2d07ca	0.042243756
200	0xbd2c923b	-0.042131644
201	0xbc3d9f49	-0.011573621
202	0x3d415804	0.04720308
203	0x3ccf1af9	0.025281416
204	0xbd20069b	-0.0390688
205	0x3b4d8ae3	0.00313633
206	0xbd54b647	-0.051931646
207	0xbbd3e41a	-0.006466401
208	0x3dadad3d	0.08480308
209	0x3db9963a	0.090618566
210	0xbd4e2a81	-0.050333504
211	0x3d93a29c	0.0720875
212	0x3d439004	0.047744766
213	0xbd1c08b1	-0.038094226
214	0x3d9214fc	0.07132909
215	0x3cc4246c	0.023943149
216	0xbd02c422	-0.031925328
217	0x3dd0cafd	0.10194967
218	0xbd22fae4	-0.03979005
219	0x3d872b08	0.066000044
220	0xbcc55bc7	-0.024091614
221	0xbcb372f3	-0.021905398
222	0xbd0b90f2	-0.034073777
223	0x3cdf0c9e	0.027227696
224	0xbd1230a6	-0.035690926
225	0xbcf11cd2	-0.029432688
226	0x3d7d70be	0.061875097
227	0x3ca287ab	0.019840082
228	0xbc91ce29	-0.0177985
229	0x3da9996d	0.08281217
230	0xbd003782	-0.031302936
231	0x3d0506ec	0.032477304
232	0x3d89f092	0.06735338
233	0xbd8fc98d	-0.07020865
234	0x3ccdce61	0.025122823
235	0xbd52fbfb	-0.05150984
236	0xbcd75a24	-0.0262881
237	0xbd884b20	-0.06654954
238	0xbd501e19	-0.050809953
239	0x3cc6b8ef	0.024258105
240	0x3da222e7	0.07916813
241	0x3c42e028	0.011894263
242	0x3dca00e7	0.09863453
243	0xbbaa192f	-0.0051909904
244	0x3d9500de	0.07275556
245	0xbc92c234	-0.017914869
246	0xbd855ba4	-0.0651162
247	0xbcb9bd91	-0.0226734
248	0xba08ba53	-0.0005215753
249	0xbce41d84	-0.027846105
250	0xbbe8c183	-0.0071031465
251	0xbc691d8b	-0.014228235
252	0x3d570089	0.052490745
253	0x3daacb0b	0.083395086
254	0x3ca3a605	0.019976625
255	0x3ac4c312	0.0015011749

network.2.bias f4 [128]
0	0x3d64556e	0.055745535
1	0x3d98d921	0.07463289
2	0x3d8e3f70	0.069456935
3	0x3dab4346	0.08362441
4	0xbd49e885	-0.049294014
5	0x3d8cc826	0.06874113
6	0x3daeab0c	0.08528718
7	0x3d5d6005	0.05404665
8	0x3d4b873b	0.049689513
9	0xbc73038f	-0.014832391
10	0x3ddf3e30	0.10900533
11	0xbdae2f62	-0.08505131
12	0x3c9d7b9b	0.019223979
13	0xbbf0a115	-0.007343421
14	0x3cd09368	0.025460914
15	0x3db992d7	0.090612106
16	0x3d8842ab	0.06653341
17	0x3d3df83d	0.046379317
18	0x3d17f5f0	0.03709978
19	0xbcfcec40	-0.030874372
20	0x3c0cdd4c	0.008597683
21	0x3dce2529	0.100656815
22	0xbd2659d9	-0.04061303
23	0x3d37df06	0.044890426
24	0x3d583ca0	0.05279219
25	0xbd988b1a	-0.074484065
26	0x3dae385d	0.08506844
27	0xb9fb6190	-0.0004794714
28	0xbc4edcb4	-0.012625862
29	0xbd1682ef	-0.03674596
30	0x3d304de3	0.04304303
31	0xbd80d479	-0.06290526
32	0x3d844d63	0.06460073
33	0x3dc58499	0.096444316
34	0x3dc00b0a	0.093771055
35	0xbdbd4e4e	-0.09243451
36	0x3d0fb846	0.035087846
37	0x3db4541c	0.08805105
38	0x3dcc93c0	0.099891186
39	0xbd678e67	-0.05653229
40	0x3db442bb	0.0880179
41	0x3db3ea73	0.08784952
42	0x3b1bf04f	0.0023794358
43	0x3e34b377	0.17646585
44	0x3d657428	0.05601898
45	0x3dba517c	0.09097573
46	0x3e070464	0.13185269
47	0xbd157cce	-0.036495976
48	0x3dae6fd7	0.085174255
49	0x3daff4f4	0.08591643
50	0xbd613ef0	-0.054991663
51	0x3dabf2bd	0.08395908
52	0x3c3fea21	0.0117135355
53	0x3d8f497b	0.06996437
54	0x3e10c15d	0.14136262
55	0x3d601fb9	0.054717753
56	0xbcde7f51	-0.027160319
57	0x3c6613d3	0.014042812
58	0x3d9f9416	0.07791917
59	0x3db7a9f1	0.089679606
60	0xbd44f7a0	-0.048087716
61	0x3d208fe7	0.039199736
62	0x3e0004fc	0.12501901
63	0x3dac07d1	0.08399928
64	0x3d2b5777	0.04183146
65	0x3d4cf458	0.05003771
66	0x3d26caa1	0.040720586
67	0x39d0c0a0	0.00039816368
68	0x3dbad132	0.09121932
69	0x3d17a906	0.037026428
70	0xbd267782	-0.040641315
71	0x3dc75bca	0.09734304
72	0x3d9eb31e	0.07749008
73	0xbd329bde	-0.043605678
74	0x3d8647d0	0.06556666
75	0xbb0a61fc	-0.0021115532
76	0xbd203042	-0.039108522
77	0xbcf4d4bb	-0.029886594
78	0x3df5d28e	0.12003051
79	0x3d9b642d	0.075874664
80	0x3cde8e79	0.027167546
81	0xbc8db854	-0.017299809
82	0xbd68921e	-0.056779973
83	0xbd1a5abd	-0.03768419
84	0x3d7a0b6a	0.06104604
85	0x3d0cdf5e	0.034392707
86	0x3db2ca18	0.087299526
87	0x3d5f06c6	0.05444982
88	0x3e44f40a	0.19233719
89	0x3d63c9e7	0.05561247
90	0x3d96b05a	0.07357855
91	0xbdb049cf	-0.08607828
92	0x3d4b01b7	0.049562182
93	0x3d604a10	0.05475813
94	0x3d3bb490	0.045826495
95	0xbc13e97e	-0.009027837
96	0x3ddd1892	0.10795702
97	0x3d910e36	0.07082789
98	0x3e0bda55	0.13657506
99	0xbd4bcb55	-0.04975446
100	0xba0c75d8	-0.0005358136
101	0x3dc8ff79	0.098143525
102	0x3d5c793c	0.053826556
103	0x3d3d8703	0.046271335
104	0xbd5236fb	-0.051321965
105	0x3d9ea0ba	0.077455
106	0x3cf0ec98	0.029409692
107	0x3d2cb3d3	0.04216368
108	0x3d2cfb84	0.04223205
109	0x3d97110f	0.073763005
110	0xbca78bf8	-0.020452484
111	0x3ceadf34	0.028670885
112	0xba536be9	-0.0008065091
113	0x3d82afb0	0.06381166
114	0xbda13884	-0.078721076
115	0x3d21fbda	0.039546825
116	0x3b200c45	0.0024421376
117	0x3d505196	0.050859056
118	0xbd064fda	-0.032790996
119	0xbc4b94de	-0.012425629
120	0xbd0a59e7	-0.033777144
121	0x3e164eec	0.14678544
122	0xbd0b755a	-0.034047462
123	0x3d9d72d0	0.07687914
124	0x3e0f9f5d	0.14025636
125	0x3d90eb8c	0.07076177
126	0x3cdc6e19	0.026907967
127	0xbc300ee2	-0.010745736

network.4.weight f4 [5, 128]
0	0xbd4b2ca5	-0.049603123
1	0xbcaeaad0	-0.021321684
2	0xbc54e9f0	-0.012995228
3	0xbc42702b	-0.011867563
4	0xbd7ca094	-0.061676577
5	0x3d4bbab2	0.049738593
6	0xbb5a3caa	-0.0033300319
7	0x3db64e1e	0.089016184
8	0xbc8f7ac2	-0.01751459
9	0xbdbcf35f	-0.09226107
10	0x3daabc0d	0.08336649
11	0x3d79fce0	0.061032176
12	0x3d17f383	0.037097465
13	0xbc6cb2dc	-0.01444694
14	0x3d501721	0.050803307
15	0x3d91800b	0.071045004
16	0xbd664fa6	-0.056228302
17	0x3d7b68c1	0.061379198
18	0x3d9e6eb5	0.077359594
19	0x3d957b23	0.07298877
20	0x3b0e66c4	0.0021728734
21	0x3da13ea2	0.078732744
22	0x3d0043f7	0.031314816
23	0xbd76acd8	-0.06022343
24	0x3d207ce6	0.039181612
25	0x3ce4931e	0.027902182
26	0x3d8dc246	0.0692182
27	0xbd36be41	-0.044615034
28	0x3c9812dd	0.018563682
29	0x3d92ed67	0.07174187
30	0xbd1fdd5b	-0.03902946
31	0x3da4373d	0.08018348
32	0x3d808a52	0.062763825
33	0x3c4882fe	0.012238262
34	0x3c2293f3	0.009922969
35	0xbb444715	-0.0029949595
36	0x3e255b85	0.16148193
37	0x3d776538	0.060399264
38	0x3de28d10	0.11062062
39	0x3c4a18af	0.012334987
40	0xbd0b39aa	-0.03399054
41	0x3d6033c5	0.05473687
42	0xbccbdc84	-0.024885423
43	0x3d37e83d	0.044899214
44	0x3b8cb999	0.004294586
45	0xbc8696aa	-0.016429264
46	0x3dbda288	0.09259516
47	0xbccf8fe3	-0.025337165
48	0xbd2d37e1	-0.04228962
49	0xbd5e4d37	-0.054272857
50	0xbd930449	-0.07178552
51	0xbd0891b2	-0.03334207
52	0xbd2ab1c9	-0.041673455
53	0x3ca8f3ed	0.020624125
54	0x3e2b9160	0.16754675
55	0xbd7a75a0	-0.061147332
56	0x3d47f9ca	0.0488222
57	0xbc2c4953	-0.010515529
58	0xbc18aac4	-0.009318057
59	0x3dac087a	0.08400054
60	0x3c8715c7	0.016489876
61	0x3cca879c	0.024722867
62	0x3e1b151d	0.15144773
63	0x3dc46ce1	0.095910795
64	0x3db46516	0.08808343
65	0xba6c9e4e	-0.0009026275
66	0xbd7a6dfd	-0.06114005
67	0x3d502e97	0.05082568
68	0x3de45cc9	0.1115051
69	0x3d594eea	0.053053774
70	0xbca46404	-0.020067222
71	0xbd128ddd	-0.035779823
72	0x3dcfbb65	0.101431645
73	0xbd5c7848	-0.053825647
74	0xbd884526	-0.06653814
75	0x3d9c8b6b	0.07643779
76	0xbaf51264	-0.0018697497
77	0xbcd3ffb3	-0.025878763
78	0x3d9f7cb2	0.077874556
79	0x3cd11a86	0.025525343
80	0x3c197fc1	0.009368838
81	0xbd3a6926	-0.045510434
82	0xbd0b3735	-0.033988196
83	0xba9c2e04	-0.0011915569
84	0xbd08d208	-0.033403426
85	0xbcd813c2	-0.026376609
86	0xbd0d52b5	-0.034502704
87	0x3d93a0be	0.072083935
88	0x3dfb50d8	0.12271279
89	0xbc25ae8e	-0.010112418
90	0x3d303050	0.043014824
91	0x3e26c29a	0.16285172
92	0xbd950f53	-0.072783135
93	0x3d36110c	0.04444985
94	0x3d1888f7	0.037239995
95	0xbdb38705	-0.08765987
96	0xbca6f3eb	-0.020379981
97	0xbd853f00	-0.06506157
98	0x3daffd11	0.085931905
99	0xbd1c1eaf	-0.0381152
100	0x3dcc9b2a	0.09990533
101	0x3c823da5	0.015898535
102	0xbb99924c	-0.0046866294
103	0x3d2084d1	0.039189164
104	0xbda115b0	-0.07865465
105	0x3dc59050	0.09646666
106	0xbd1ef553	-0.03880818
107	0x3c47e6b1	0.012200997
108	0xbda65d61	-0.08123279
109	0xbd4cdf58	-0.050017685
110	0x3c87eb23	0.016591614
111	0xbd5afe1a	-0.053464986
112	0xbd958800	-0.073013306
113	0x3cc70fb6	0.024299484
114	0x3c79915e	0.015232412
115	0x3e4e4e87	0.20147143
116	0x3df9711b	0.12179776
117	0xbd02eed3	-0.03196604
118	0xbd968215	-0.0734903
119	0x3d1670c3	0.03672863
120	0xbd3b4d2d	-0.045727897
121	0x3e31037f	0.1728649
122	0xbd430a85	-0.047617454
123	0xbc5e2474	-0.013558496
124	0x3e1657b7	0.14681898
125	0xbd467427	-0.048450615
126	0x3d86d15a	0.065828994
127	0x3db8e6a2	0.09028365
128	0xbd035415	-0.03206261
129	0x3de6f578	0.11277288
130	0x3df423ee	0.119209155
131	0x3dfb5bb9	0.12273354
132	0x3d85959c	0.06522676
133	0x3c1bd801	0.009511949
134	0x3dbee3dd	0.09320805
135	0x3da74bc9	0.08168752
136	0x3d984bb9	0.07436318
137	0xbcc5ba7e	-0.024136778
138	0x3dbaa827	0.09114104
139	0xbd255d16	-0.040371977
140	0x3e014b54	0.12626392
141	0xbcb5cf25	-0.0221935
142	0x3dab87b9	0.083754964
143	0x3dd36df4	0.10323706
144	0xbd728a50	-0.059213936
145	0x3dddbf86	0.10827546
146	0x3d4ddca4	0.050259247
147	0x3e039d66	0.12853011
148	0x3d1b4d08	0.03791526
149	0x3d4ce02c	0.050018474
150	0x3df1dfb7	0.11810248
151	0x3dca46cc	0.09876785
152	0xbc86172b	-0.01636847
153	0x3d1aa4f8	0.037754983
154	0x3ceb405f	0.028717218
155	0x3de020af	0.10943734
156	0x3cf14a0b	0.029454252
157	0x3d2cf92e	0.042229824
158	0x3dc7f19b	0.097628795
159	0x3bf512f8	0.007479068
160	0x3e0515e8	0.12996638
161	0x3d8b4c4b	0.06801661
162	0x3d1bd966	0.038049124
163	0xbd575523	-0.052571427
164	0x3daf9476	0.085732386
165	0xba996e3f	-0.001170583
166	0x3df2dd2a	0.1185859
167	0x3b9b4014	0.0047378633
168	0x3ded9b18	0.116018474
169	0x3d784d0f	0.060620364
170	0xbc129ca5	-0.00894848
171	0x3dc30810	0.09523022
172	0x3de06113	0.109560154
173	0x3dd5ea43	0.104450725
174	0x3dfe5690	0.12418854
175	0x3d421ae0	0.04738891
176	0x3dbe4de0	0.09292197
177	0x3bf735ae	0.007544241
178	0xbd5ed14e	-0.054398827
179	0xbcd4fc0e	-0.025999095
180	0x3d50c341	0.05096746
181	0x3d69e4e9	0.05710307
182	0x3d6f100a	0.058364905
183	0x3d13de83	0.036100876
184	0x3e0e3fad	0.13891478
185	0x3dd7b04e	0.10531674
186	0x3daa93f2	0.083289996
187	0xbcae8d3b	-0.021307578
188	0xbcb189c2	-0.021672133
189	0x3dc72d8e	0.09725486
190	0x3dbec125	0.09314183
191	0x3dadaeed	0.0848063
192	0x3c6881f7	0.014191142
193	0x3d18bf96	0.037292086
194	0x3dfbc96a	0.12294276
195	0x3da5c857	0.080948524
196	0x3dfba152	0.12286629
197	0x3e0c8e9c	0.13726276
198	0xbd8c6b44	-0.06856397
199	0x3d91a3d5	0.071113266
200	0x3d932f3d	0.07186744
201	0x3d97e03c	0.07415816
202	0x3daf9210	0.08572781
203	0xbcff3d93	-0.03115729
204	0x3d9d49bf	0.076800816
205	0x3e0c3519	0.1369213
206	0x3bd6fcae	0.0065608835
207	0x3e02e2eb	0.12781875
208	0x3e209583	0.15682034
209	0x3dca715e	0.09884904
210	0x3d9c021b	0.07617589
211	0x3e00c76a	0.1257607
212	0x3dc1d5dd	0.09464619
213	0x3dabcca0	0.083886385
214	0x3db95e48	0.09051186
215	0xbd31c663	-0.043402087
216	0x3de52dab	0.11190351
217	0x3e01fd79	0.12694348
218	0x3dd37e14	0.10326782
219	0xbc50f614	-0.012753982
220	0x3d75db17	0.060023393
221	0xbd38b2e5	-0.045092482
222	0xbca56657	-0.020190401
223	0xbd6fa6f1	-0.058508817
224	0x3deba0ec	0.11505303
225	0x3d92fad3	0.07176747
226	0x3cb9e471	0.022691937
227	0xbd45c9bb	-0.04828809
228	0x3d15c509	0.03656486
229	0xbc8e3def	-0.017363517
230	0x3d9c74fd	0.07639501
231	0x3df8165a	0.12113638
232	0x3d87fe6e	0.066403255
233	0x3dba9d6b	0.09112056
234	0x3e04d79d	0.12972875
235	0xb9abac63	-0.000327441
236	0x3dc0be28	0.094112694
237	0x3de33adf	0.11095213
238	0xbd8e407c	-0.06945893
239	0x3da823f8	0.082099855
240	0xba986a47	-0.0011628353
241	0x3dd9f195	0.10641781
242	0x3bd9c423	0.006645696
243	0x3d8224d8	0.06354684
244	0x3d7e5340	0.062091112
245	0xbb11ab30	-0.002222728
246	0xbd4035ed	-0.046926428
247	0xbc867ac9	-0.01641597
248	0x3d1c78dd	0.0382012
249	0xb9a9692c	-0.0003231255
250	0x3d59d496	0.053181253
251	0x3d975cf5	0.07390777
252	0x3de2ea7e	0.11079882
253	0xbd2b8a04	-0.04187967
254	0x3dd57230	0.1042217
255	0xbd0555eb	-0.03255264

network.4.bias f4 [5]
0	0x3d9939f5	0.074817576
1	0xbd130161	-0.035889987
2	0xbd3dcec9	-0.046339784
3	0x3d8f589b	0.06999322
4	0xbdaa76fd	-0.083234765

network.0.weight f4 [128, 82]
0	0x3dac0ddc	0.08401081
1	0x3d8985d7	0.06714981
2	0x3c3e2c7e	0.011607287
3	0xbcd40b1d	-0.025884205
4	0xbe198349	-0.14991488
5	0xbdc8933d	-0.097937085
6	0xbd194e7b	-0.03742836
7	0xbda31acd	-0.07964096
8	0x3da0b663	0.078472875
9	0x3d4ff023	0.05076612
10	0xbd1459bf	-0.0362184
11	0x3d68f242	0.05687166
12	0x3d4c53e2	0.049884684
13	0x3c8538b9	0.016262399
14	0xbe592766	-0.21206436
15	0xbe3fbe5a	-0.18724957
16	0xbc465020	-0.012104064
17	0x3e41e5da	0.18935338
18	0xbd71156d	-0.058858324
19	0x3e3d8377	0.18507181
20	0xbd67fea7	-0.05663934
21	0xbe2a5c5a	-0.16636792
22	0x3d5f49ff	0.054513928
23	0xbd9609cf	-0.073260896
24	0xbd73873b	-0.059455138
25	0xbddcdce0	-0.10784316
26	0x3d65b89d	0.056084264
27	0xbdcfe4ce	-0.10151063
28	0xbe119d58	-0.14220178
29	0x3b29f993	0.0025936111
30	0xbce23470	-0.027612895
31	0xbc74853b	-0.014924343
32	0xbdb870a7	-0.09005862
33	0x3c8774de	0.016535219
34	0xbdc99fd1	-0.09844936
35	0xbd120e7a	-0.035658337
36	0x3d477db2	0.048703857
37	0xbe14da06	-0.14536294
38	0xbcddc675	-0.02707217
39	0xbe0e4bfd	-0.13896175
40	0xbdd04646	-0.101696536
41	0x3ce94e31	0.028479667
42	0x3c4e2541	0.012582124
43	0x3d16ea18	0.036844343
44	0x3cb7a3ba	0.022416938
45	0xbdec7d41	-0.11547328
46	0xbde84897	-0.113419704
47	0xbd00c144	-0.031434312
48	0xbe42a590	-0.1900847
49	0xbe1888d2	-0.14895943
50	0xbd343137	-0.043992247
51	0x3da7cbab	0.081931435
52	0xbe11b8a2	-0.14230588
53	0xbde22d81	-0.110438354
54	0x3da53ce4	0.080682546
55	0x3d113ae2	0.035456546
56	0x3d4dbe1e	0.050230138
57	0xbd59a14b	-0.053132337
58	0x3e05114e	0.12994882
59	0x3e0cf820	0.13766527
60	0x3dedf8af	0.11619698
61	0x3db3ab43	0.087729
62	0xbda9321b	-0.0826151
63	0x3b6c60f6	0.0036068535
64	0x3e22ddbd	0.15904899
65	0x3dadc59e	0.08484958
66	0xbde98b70	-0.11403549
67	0x3c24f058	0.010067068
68	0x3cc251c3	0.023720628
69	0xbce86c09	-0.028371828
70	0x3d9504cf	0.07276308
71	0x3b1c4451	0.002384443
72	0xbd26b3c4	-0.04069878
73	0xbcac9745	-0.021068225
74	0xbdbccbf0	-0.092185855
75	0xbd84deb0	-0.06487787
76	0xbde7d54e	-0.113199815
77	0x3e2ea207	0.17053996
78	0xbd9ff471	-0.078102954
79	0x3da72706	0.0816174
80	0x3e0f3b9a	0.1398758
81	0xbd816f8c	-0.06320104
82	0x3d81d87e	0.06340121
83	0xbd73c92f	-0.059518036
84	0xbd8e2f90	-0.069426656
85	0xbdad6ccd	-0.08468018
86	0x3dca77a6	0.098861024
87	0xbd999bd8	-0.07500428
88	0x3cc80335	0.024415592
89	0xbc8ff7b1	-0.017574163
90	0xbccd2fb7	-0.025047166
91	0x3c67fc95	0.014159341
92	0x3ccf2134	0.025284387
93	0x3dd93ea3	0.1060765
94	0xbdd8634e	-0.10565816
95	0x3d4da6d3	0.050207924
96	0x3d1a6084	0.0376897
97	0x3dd0b684	0.10191062
98	0xbd44da7f	-0.048059937
99	0xbcba0110	-0.022705585
100	0x3db8d401	0.090248115
101	0xbd17dae4	-0.037073985
102	0xbd185991	-0.037194792
103	0x3d08fe46	0.03344562
104	0xbd80317f	-0.06259441
105	0x3d82e0de	0.06390546
106	0xbd896704	-0.06709102
107	0xbccde46f	-0.02513334
108	0xbd6d143d	-0.05788063
109	0x3e296509	0.16542448
110	0xbd280164	-0.04101695
111	0xbd31d937	-0.043420043
112	0x3da00d73	0.07815065
113	0x3dab7798	0.0837242
114	0xbdbd79f1	-0.09251774
115	0x3daa6a84	0.083210975
116	0x3d9b513b	0.07583853
117	0x3d860f84	0.06545928
118	0x3def09c7	0.11671787
119	0x3cf584ea	0.029970605
120	0xbd1bb181	-0.038011078
121	0xbe1af56c	-0.15132684
122	0x3d0b4c19	0.03400812
123	0xbdb7794b	-0.08958682
124	0xbd4d7cb9	-0.050167773
125	0xbaf9af84	-0.00190495
126	0xbe23fde8	-0.16014826
127	0xbd2a748e	-0.04161506
128	0x3d36436e	0.0444979
129	0x3d9b1c88	0.07573801
130	0x3df75447	0.120766215
131	0x3dca1f22	0.09869219
132	0xbc4fe052	-0.0126877595
133	0xbc7017d9	-0.014654123
134	0x3e1d9647	0.15389358
135	0xbca82d5e	-0.020529445
136	0x3cca943d	0.024728889
137	0x3bd1b029	0.0063991738
138	0x3d92ba63	0.07164457
139	0x3d3fd019	0.046829317
140	0x3e113732	0.14181212
141	0xbd58fbdf	-0.052974578
142	0x3e217b02	0.1576958
143	0x3d049e38	0.03237745
144	0x3dd62398	0.10456008
145	0xbe0e5863	-0.13900904
146	0xbdd0bb41	-0.10191966
147	0xbda22f3d	-0.07919166
148	0x3cdd4157	0.027008696
149	0x3d85a0c5	0.06524805
150	0xbc5e036f	-0.013550623
151	0xbd8f3419	-0.06992359
152	0x3dd51e59	0.10406179
153	0xbcaa29ec	-0.020771943
154	0xbda8cde1	-0.08242393
155	0xbd261971	-0.040551607
156	0xbe06f6ac	-0.13180035
157	0x3b9fbee2	0.00487505
158	0xbaa87838	-0.0012853211
159	0xbded3c58	-0.11583775
160	0xbd8026d8	-0.06257409
161	0xbdefafdd	-0.11703465
162	0x3d870961	0.06593586
163	0x3cba20fc	0.022720806
164	0xbd8705f2	-0.06592931
165	0x3c8d4ce4	0.017248578
166	0xbe277544	-0.16353327
167	0x3b7e3c73	0.0038793355
168	0x3de6be6b	0.11266788
169	0x3b7598c4	0.0037475089
170	0x3e3fc9d7	0.1872934
171	0x3e0ae034	0.13562089
172	0x3e4ca261	0.19983818
173	0x3dd0328b	0.1016589
174	0x3dd5e052	0.10443176
175	0x3d80cee8	0.06289464
176	0x3dee3b2b	0.11632379
177	0xbda9c940	-0.082903385
178	0x3d272476	0.040806256
179	0x3cc89102	0.024483208
180	0xbd4ad007	-0.049514797
181	0x3e10161a	0.14070931
182	0xbb8295b5	-0.0039851316
183	0x3bc72f55	0.0060786405
184	0xbe1441fe	-0.14478299
185	0xbd330b4b	-0.04371194
186	0x3d902d8b	0.07039937
187	0xbdb36f86	-0.08761506
188	0xbe215f0c	-0.15758914
189	0x3bad7609	0.005293612
190	0x3bfe9355	0.007769028
191	0xbdb1637f	-0.086615555
192	0xbe1299a2	-0.14316419
193	0xbda9f14e	-0.08297978
194	0x3d9cc450	0.07654631
195	0x3d6f36f7	0.058402028
196	0xbc9615e2	-0.018320981
197	0x3d222033	0.03958149
198	0x3da83418	0.08213061
199	0x3da9a785	0.08283905
200	0xbdcf76e4	-0.101300985
201	0xbe218b9b	-0.15775912
202	0xbd87c451	-0.06629241
203	0x3d335e59	0.04379115
204	0xbe0b3c5c	-0.13597244
205	0xbd6bd7fe	-0.057579033
206	0xbd1537e0	-0.03643024
207	0x3c1c3877	0.009534947
208	0xbd0bfcf0	-0.034176767
209	0xbdc45e13	-0.09588256
210	0x3dcece28	0.10097915
211	0xbd16b0ff	-0.03678989
212	0xbd46f353	-0.048571896
213	0xbdf9e21e	-0.122013316
214	0xbdecd259	-0.11563558
215	0x3d739b9c	0.059474573
216	0xbd25e0d3	-0.040497612
217	0x3da246d0	0.07923663
218	0xbcb80ef4	-0.022468068
219	0x3d852ac7	0.065023
220	0xbd20851d	-0.039189447
221	0xbd55f771	-0.05223793
222	0xbd435ba9	-0.047694836
223	0x3da73f72	0.08166398
224	0x3d83b9da	0.06431933
225	0x3d474dbb	0.048658114
226	0xbd2d3fcb	-0.042297166
227	0x3d9aa255	0.07550494
228	0x3d7d3e98	0.061827272
229	0x3d25c081	0.04046679
230	0xbdba49a3	-0.09096076
231	0x3d930cac	0.07180151
232	0x3dcd7785	0.10032562
233	0x3ba2dcf4	0.0049701873
234	0x3cc833b3	0.024438715
235	0x3dbd6588	0.09247881
236	0x3df69b8b	0.12041386
237	0xbdce6989	-0.10078723
238	0x3d11ad13	0.035565447
239	0xbd85d685	-0.06535057
240	0x3d563640	0.05229783
241	0x3e08dc47	0.13365279
242	0x3e0477b2	0.12936285
243	0x3b6b9330	0.0035945885
244	0x3d6023c8	0.054721624
245	0x3d2dd748	0.042441636
246	0xbda8aafe	-0.08235739
247	0x3d5a2773	0.053260278
248	0xbd55d4e7	-0.052204993
249	0xbd6a628b	-0.057222884
250	0x3d6d6119	0.057953928
251	0xbc5782ab	-0.013153712
252	0x3dbb6819	0.091507144
253	0x3d918b2c	0.07106623
254	0x3d701a6e	0.058618955
255	0xbe045f5a	-0.12926999

network.0.bias f4 [128]
0	0x3da8a812	0.08235182
1	0xbd80ab06	-0.0628262
2	0x3e1418ec	0.14462632
3	0x3d8d39d2	0.06895794
4	0x3e2a1ad6	0.166118
5	0x3e863173	0.26209602
6	0x3e7db168	0.24774706
7	0xbd7c090b	-0.06153206
8	0x3e60e9d4	0.21964198
9	0x3e0f730f	0.14008735
10	0x3ea93d08	0.33054376
11	0x3df05474	0.11734858
12	0x3e78b5da	0.24288121
13	0xbd902e95	-0.07040135
14	0xbd96ee01	-0.073696144
15	0x3d21fbdc	0.039546832
16	0xbe0abf34	-0.135495
17	0x3e0c0f07	0.13677607
18	0x3d09c013	0.033630442
19	0x3da9c18e	0.08288871
20	0x3ecaf595	0.3964049
21	0xbd154aac	-0.036448166
22	0xbdea5d67	-0.11443596
23	0x3d82dd19	0.06389827
24	0xbe3d66a8	-0.18496192
25	0x3e944d50	0.28965235
26	0xbda2c154	-0.07947031
27	0x3e94729c	0.2899369
28	0x3e9082a9	0.28224686
29	0x3d17faf6	0.03710457
30	0x3de936a4	0.11387375
31	0x3e189cae	0.14903519
32	0x3e3daf2e	0.18523857
33	0xbd8c715d	-0.0685756
34	0xbdeff089	-0.117158
35	0x3e66aa44	0.22525889
36	0x3da82a79	0.08211226
37	0x3de8d424	0.113685876
38	0x3ea11369	0.3146012
39	0xbe1d3771	-0.1535318
40	0x3e9b5d95	0.30344835
41	0xbccebedd	-0.025237495
42	0x3ea73813	0.3265997
43	0x3dcec5a4	0.10096291
44	0x3d52a95c	0.051431045
45	0xbc5be467	-0.013421155
46	0x3e314aea	0.17313734
47	0xbd15cf1d	-0.03657447
48	0x3c50bd62	0.012740465
49	0xbe25ba5a	-0.16184369
50	0xbe04220f	-0.12903617
51	0x3e4acf7b	0.1980571
52	0x3e695666	0.22786865
53	0x3d96caac	0.07362875
54	0x3e55f57c	0.20894426
55	0x3e9bc6ea	0.30425197
56	0x3e166254	0.14685947
57	0x3e399d8d	0.18126507
58	0x3ebfe3fb	0.37478623
59	0x3e5a630f	0.2132685
60	0x3e2d3856	0.16916022
61	0x3eae9de5	0.3410484
62	0x3e62627c	0.22107881
63	0xbe114bea	-0.14189115
64	0x3e4ab758	0.19796503
65	0xbcb24b8f	-0.021764545
66	0x3e5a09c4	0.21292788
67	0x3e80c3a2	0.25149256
68	0x3ebaba7e	0.36470407
69	0xbe12bf7f	-0.14330862
70	0xbe2b3a73	-0.16721515
71	0x3e8c05f4	0.27348292
72	0x3e09ff49	0.1347629
73	0xbdc2c57d	-0.09510324
74	0x3e89efdf	0.2694082
75	0x3e721377	0.23640238
76	0x3d8393f0	0.06424701
77	0xbd882bea	-0.06649001
78	0x3e8cbae8	0.27486348
79	0xbd81a2a5	-0.0632985
80	0x3e850668	0.2598145
81	0xbe464f94	-0.19366294
82	0x3e26a3fd	0.16273494
83	0x3e14ca4c	0.14530295
84	0x3e7ac4c5	0.24489124
85	0x3dea6661	0.114453085
86	0x3ea424bb	0.32059273
87	0xbd0967f9	-0.03354642
88	0xbdb017b9	-0.08598275
89	0x3e28b639	0.16475762
90	0x3e1e80a2	0.15478757
91	0x3e7fcf17	0.24981342
92	0x3e4f3e78	0.20238674
93	0x3d4ad344	0.049517885
94	0x3ecd4633	0.4009262
95	0x3e4e906c	0.2017228
96	0x3eaa6ac5	0.33284584
97	0x3e9bb324	0.3041011
98	0x3eac69b4	0.33674395
99	0xbdd605f4	-0.10450354
100	0x3db0eedf	0.08639311
101	0x3d6a1518	0.057149023
102	0x3e3c7895	0.18405373
103	0x3e9ef363	0.31045064
104	0x3d8f478e	0.0699607
105	0x3e31f786	0.17379579
106	0x3e797482	0.2436085
107	0xbe0dfd6e	-0.13866207
108	0xbe68bea9	-0.22728981
109	0xbdd63518	-0.104593456
110	0x3e494e0b	0.19658677
111	0xbe141bd3	-0.14463739
112	0x3e4d7fb0	0.2006824
113	0x3c816797	0.015796466
114	0x3e1b0d68	0.15141833
115	0x3e875a4b	0.26436076
116	0x3e6cc791	0.23123004
117	0x3ca66804	0.02031327
118	0x3e02a4a8	0.12758124
119	0x3e43214e	0.19055673
120	0x3e55d5a8	0.20882285
121	0xbc8824ad	-0.01661905
122	0x3ebcc003	0.36865243
123	0x3e8c065b	0.273486
124	0x3e25b4f9	0.16182317
125	0x3e6be586	0.23036775
126	0x3db9cde5	0.090724744
127	0xbdfaf3c0	-0.12253523

network.2.weight f4 [128, 128]
0	0x3bade3c9	0.005306695
1	0x3e11eeb3	0.14251213
2	0xbda8f7e6	-0.08250408
3	0xbd0452b6	-0.03230544
4	0x3d2d3afa	0.042292573
5	0x3d2712b8	0.040789336
6	0xbd6252c5	-0.055254716
7	0x3d828505	0.06373028
8	0x3c8c0e0a	0.017096538
9	0x3e068ecb	0.13140409
10	0x3d834a33	0.06410637
11	0xbb517e3e	-0.0031966115
12	0xbd96cd6c	-0.073634
13	0x3e075a17	0.1321796
14	0x3d4ae827	0.049537804
15	0xbbd0f7e4	-0.006377207
16	0x3e12bb3a	0.14329234
17	0xbdb7031f	-0.08936142
18	0xbdc8caf0	-0.09804332
19	0xbd1c954e	-0.038228326
20	0xbcaa296d	-0.020771706
21	0x3d213b86	0.039363407
22	0x3d685a79	0.056726906
23	0xbd810acc	-0.063008875
24	0x3ed06058	0.40698504
25	0x3c1d1398	0.009587191
26	0xbd1ba587	-0.037999656
27	0xbcfb4a41	-0.030675055
28	0xbe1e3cbb	-0.15452854
29	0x3d811544	0.06302884
30	0x3d96a1e9	0.07355101
31	0xbd90c551	-0.07068885
32	0xbd6728f0	-0.056435525
33	0xbdc2d6f3	-0.095136546
34	0x3df6a6c0	0.12043524
35	0x3e28dfd9	0.16491641
36	0x3c0f7e16	0.008758089
37	0xbe015eac	-0.1263377
38	0x3d82a966	0.063799664
39	0x3dca5b31	0.09880675
40	0xbd086bfb	-0.033306103
41	0x3d90d0a0	0.07071042
42	0xbda71a44	-0.08159307
43	0x3cd0877d	0.02545523
44	0x3d064152	0.032777138
45	0x3e11c909	0.14236845
46	0xbd5702e2	-0.052492984
47	0x3d50994f	0.050927456
48	0xbdd14e00	-0.102199554
49	0x3db23afa	0.08702655
50	0xba8d9eb7	-0.0010804747
51	0xbd906545	-0.07050566
52	0x3dbb732c	0.09152827
53	0xbd80a5d6	-0.06281631
54	0xbd41bb35	-0.047297675
55	0xbca64fc7	-0.020301713
56	0x3dbbd272	0.09170999
57	0xbe26f6a2	-0.1630502
58	0x3cfca2d0	0.030839354
59	0x3d3e1683	0.046408188
60	0xbdc48e4e	-0.09597455
61	0xbd4889b7	-0.04895946
62	0xbe00fb88	-0.12595952
63	0x3daeb6dc	0.085309714
64	0xbc23c1ec	-0.009994965
65	0x3e56eea4	0.20989472
66	0xbc85ac66	-0.016317558
67	0xbd66d893	-0.056358885
68	0x3bdede78	0.0068014227
69	0x3e04f53f	0.12984179
70	0x3e2eb1c7	0.17060004
71	0xbca9723d	-0.020684356
72	0xbd68daf9	-0.056849454
73	0x3e3745e3	0.17897753
74	0xbd9572bd	-0.07297275
75	0x3c4bf9e5	0.012449716
76	0xbd90fa89	-0.07079036
77	0x3e1c2896	0.15249857
78	0xbd1f9e94	-0.03896959
79	0x3e2c7c1f	0.16844223
80	0x3d797033	0.060898017
81	0x3de42811	0.111404546
82	0xbcef4526	-0.029207777
83	0xbe18cfb1	-0.14922978
84	0xbd6f55db	-0.058431488
85	0x3db6bccd	0.0892273
86	0xbd4e2fda	-0.050338604
87	0x3e2e722d	0.17035742
88	0x3dccbe62	0.0999725
89	0xba09a35c	-0.00052504777
90	0xbda00ec0	-0.07815313
91	0x3d2ee836	0.042701922
92	0xbcf32f00	-0.029685497
93	0xbb7c0829	-0.0038457012
94	0x3d6e8faf	0.058242496
95	0x3cf9884a	0.030460496
96	0xbd0d91b8	-0.034562796
97	0x3d5328a8	0.051552445
98	0xbdd8e0eb	-0.10589775
99	0x3dbed521	0.09317995
100	0xbddfcdf4	-0.10927954
101	0xbd07b5c1	-0.03313232
102	0xbcabc2fb	-0.020966997
103	0x3c9ee3dd	0.019395763
104	0xbd68d897	-0.05684718
105	0xbe1255e6	-0.1429058
106	0x3de14c4d	0.11000881
107	0x3e446522	0.19179204
108	0x3ca40ec2	0.020026568
109	0x3de509f7	0.11183541
110	0x3dd8c30e	0.10584079
111	0x3e3cf28c	0.184519
112	0x3d0d8e82	0.034559734
113	0xbd7f9b75	-0.062404115
114	0xbd08769f	-0.03331625
115	0x3be574c4	0.007002445
116	0xbdd01034	-0.101593405
117	0xbe1a7437	-0.15083395
118	0xbcf26f49	-0.02959408
119	0xbcd59e84	-0.026076563
120	0x3d4fe0ab	0.05075137
121	0x3e1a2b0b	0.15055482
122	0x3bd6f4e5	0.0065599554
123	0x3dac5062	0.08413769
124	0xbe057294	-0.1303199
125	0xbd907184	-0.070529014
126	0x3cd7da31	0.026349159
127	0x3dbabc2d	0.09117923
128	0x3bbccd59	0.005761784
129	0x3de18d15	0.110132374
130	0xbdb597ac	-0.0886682
131	0x3d663293	0.056200575
132	0xbd723d4f	-0.0591405
133	0x3d73ce23	0.05952276
134	0x3d366363	0.044528376
135	0x3d617c3a	0.055050112
136	0xbd61692a	-0.055031933
137	0x3dd1326d	0.10214696
138	0x3c083b49	0.008314916
139	0xbda161f2	-0.0788001
140	0x3d3eaaa8	0.04654947
141	0x3e1e342d	0.15449591
142	0x3d3c33a4	0.045947686
143	0x3d3a0aef	0.045420583
144	0x3cbe4be4	0.023229547
145	0xbd5815f9	-0.05275533
146	0xbce7b09e	-0.02828246
147	0xbd936275	-0.071965136
148	0x3da328ee	0.07966791
149	0xbdf7f8ef	-0.12108027
150	0x3dbb110c	0.09134111
151	0xbd13986c	-0.036034033
152	0x3e85ed10	0.26157427
153	0x3d44c6a7	0.048041012
154	0xbd29e30f	-0.041476306
155	0xbbf90f44	-0.0076006968
156	0xbd47432f	-0.048648056
157	0x3d5dc9de	0.054147594
158	0x3d53ae91	0.05168015
159	0x3ccf9620	0.02534014
160	0x3b5a4f95	0.0033311595
161	0x3d019266	0.031633757
162	0x3d4a1f24	0.049346104
163	0x3deb9af1	0.11504162
164	0xbd87869d	-0.06617472
165	0xbd9d608f	-0.07684433
166	0xbd8629cc	-0.06550941
167	0x3dbc4fd2	0.09194912
168	0x3c94f576	0.018183451
169	0x3d3d4ad2	0.046213932
170	0xbb978225	-0.0046236687
171	0x3d0bc55c	0.034123763
172	0x3c76c05d	0.015060511
173	0x3e223589	0.15840735
174	0xbcb72315	-0.022355596
175	0x3d44a435	0.048008163
176	0xbd3186c2	-0.043341406
177	0x3df8f254	0.121555954
178	0x3daae62b	0.08344682
179	0x3b20055d	0.002441726
180	0xbd53aa57	-0.05167612
181	0x3d3c4f39	0.04597399
182	0x3d4506f5	0.048102338
183	0xbd8e8c0c	-0.069603056
184	0x3d88db8b	0.066824995
185	0xbdc0f609	-0.094219275
186	0x3d878441	0.06617022
187	0x3c66c9cd	0.014086199
188	0x3c508a52	0.012728291
189	0x3d625e14	0.0552655
190	0xbdf5714c	-0.119845
191	0x3d654323	0.05597223
192	0x3d0593b9	0.032611582
193	0x3d819a21	0.06328226
194	0xbba4c36a	-0.005028178
195	0xbd31e85c	-0.043434486
196	0xbd000957	-0.031258907
197	0x3e1fc41b	0.15602152
198	0x3dc986c7	0.0984016
199	0xbd33e4ad	-0.043919254
200	0xbcafbb49	-0.02145161
201	0x3d41970a	0.047263183
202	0xbd70e6b3	-0.058813762
203	0x3b13b206	0.002253653
204	0xbe011971	-0.12607361
205	0x3df8e746	0.12153487
206	0x3c2596ed	0.010106784
207	0x3e5bbbd7	0.21458374
208	0xbd570550	-0.0524953
209	0xbc21b41c	-0.009869602
210	0xbdbd4d2e	-0.092432365
211	0xbdb8f336	-0.09030764
212	0x3c8143b5	0.015779356
213	0x3c2ace32	0.010425137
214	0x3d8e1e08	0.06939322
215	0x3daf2dc0	0.08553648
216	0x3ded02f2	0.115728274
217	0xbda4f2e5	-0.08054141
218	0xbcd84d6d	-0.026404107
219	0xbdaca808	-0.08430487
220	0xbd0382e1	-0.032107238
221	0xbd545851	-0.051842038
222	0x3d15c434	0.036564067
223	0x3bfc04d3	0.007691005
224	0x3d8cd4fa	0.068765596
225	0x3d71e1e4	0.059053317
226	0xbdb243e6	-0.08704357
227	0x3e358de7	0.17729913
228	0xbe003cad	-0.12523146
229	0xbdab50ca	-0.08365019
230	0xbd832e63	-0.06405332
231	0xbd8c17fc	-0.06840512
232	0x3ccaf2bf	0.024773953
233	0xbc31fbf1	-0.01086329
234	0xbca4e527	-0.0201288
235	0x3e401357	0.18757378
236	0x3b4eb2f0	0.003153976
237	0x3da24eb6	0.07925169
238	0x3ae58ca3	0.0017513226
239	0x3e261344	0.16218287
240	0xbdb49c3b	-0.08818861
241	0xbd6731f5	-0.056444127
242	0xbd8384be	-0.06421803
243	0xbdc4462f	-0.09583699
244	0x3c319b94	0.010840315
245	0xbcbc9211	-0.023018869
246	0xbdc7b8c2	-0.09752037
247	0xbdc24ac9	-0.094869204
248	0x3d8d1448	0.06888634
249	0x3e040253	0.12891512
250	0xbdab43ee	-0.08362566
251	0x3d31b4ce	0.04338532
252	0xbdd85d01	-0.10564614
253	0x3d1b6611	0.037939135
254	0xbd245c1d	-0.04012691
255	0x3dcaff4a	0.09911974

network.2.bias f4 [128]
0	0x3c9fd342	0.019509915
1	0xbc20b5cd	-0.00980897
2	0xbda7a640	-0.081860065
3	0x3cc8be4a	0.0245048
4	0x3e86e080	0.26343155
5	0x3e8ea7de	0.27862448
6	0x3e703940	0.23459339
7	0x3e82fe16	0.25584477
8	0x3c994d33	0.01871357
9	0x3dd172a7	0.10226946
10	0xbc2a413a	-0.010391528
11	0xbb774703	-0.0037731535
12	0x3ded21d3	0.11578717
13	0xbd790f8c	-0.060805842
14	0x3e49f493	0.19722204
15	0x3e4cbb51	0.1999333
16	0xbd8101c4	-0.06299165
17	0x3dea19d3	0.11430707
18	0x3e180160	0.14844275
19	0x3cca5f55	0.024703661
20	0x3d9b03ed	0.07569108
21	0x3e14cccf	0.14531253
22	0x3e47a7f3	0.19497661
23	0xbd701f3d	-0.05862354
24	0x3e021f90	0.12707353
25	0x3e473066	0.19452056
26	0x3e246504	0.1605416
27	0x3d08d264	0.03340377
28	0x3e48fe88	0.19628346
29	0x3d224102	0.039612778
30	0xbdcc514f	-0.09976446
31	0xbdd06d6d	-0.10177121
32	0x3e09ba5a	0.13449994
33	0x3e6a5828	0.22885191
34	0x3e629a41	0.22129156
35	0x3e0314bb	0.12800877
36	0x3d7e142e	0.062030964
37	0x3e287772	0.16451815
38	0x3dca753d	0.09885643
39	0x3d1af021	0.03782666
40	0x3e378720	0.1792264
41	0xbe04e731	-0.12978818
42	0x3df0b4f9	0.11753268
43	0xbd131a13	-0.03591354
44	0x3e805f49	0.25072697
45	0x3d846e97	0.06466406
46	0xbc7dc5eb	-0.015489082
47	0x3e529da3	0.20567946
48	0xbd63f2e8	-0.055651575
49	0xbdf9cb0e	-0.12196933
50	0xbdc857a6	-0.097823426
51	0x3e3042a8	0.17212927
52	0x3dfa5845	0.12223867
53	0x3e14b793	0.14523153
54	0x3b8d1f08	0.0043066777
55	0xbc9ba589	-0.018999832
56	0xbda9c1e4	-0.08288935
57	0x3db15f81	0.08660794
58	0x3dc8712b	0.0978721
59	0xbe064ea5	-0.13115938
60	0x3d91ff19	0.07128734
61	0xbdcac8a0	-0.099015474
62	0x3d653b80	0.055964947
63	0x3e25cdd8	0.16191804
64	0xbda13d38	-0.07873005
65	0x3ddf98e2	0.10917832
66	0x3e1ca28a	0.15296379
67	0xbdf179bc	-0.11790797
68	0x3caa47fd	0.02078628
69	0x3e347693	0.17623357
70	0xbc6631fc	-0.014050003
71	0xbdde92c3	-0.10867836
72	0xbd62953d	-0.055318106
73	0x3e235e97	0.15954052
74	0x3e38dca4	0.18052918
75	0x3e552196	0.20813593
76	0x3e41da8d	0.18931027
77	0x3cd18e99	0.025580691
78	0x3e0ce381	0.13758661
79	0x3dfd3350	0.12363303
80	0x3ceb4e93	0.02872399
81	0xbc7f34ca	-0.015576551
82	0x3e79ea6c	0.24405831
83	0x3de094f8	0.109659135
84	0x3d7b9cba	0.061428763
85	0x3d06ce8e	0.03291183
86	0xbe16dd23	-0.14732794
87	0xbda9b644	-0.082867175
88	0xbdb7b5e2	-0.08970238
89	0x3e0cdeec	0.13756913
90	0xbdabab92	-0.08382334
91	0x3ddb90bc	0.10720965
92	0xbdb902be	-0.09033726
93	0x3e0f9ea9	0.14025368
94	0x3d4c7111	0.049912516
95	0x3d520108	0.051270515
96	0xbd99be0e	-0.07506953
97	0x3e0704ac	0.13185376
98	0xbda667bb	-0.08125254
99	0xbdd473a0	-0.10373616
100	0x3e2e127b	0.16999237
101	0xbe101a48	-0.14072526
102	0x3e3d8f70	0.18511748
103	0x3dd764ef	0.105172984
104	0xbcbd22dd	-0.023087913
105	0x3decdd08	0.11565596
106	0xbd6e5644	-0.058187738
107	0xbd515fcb	-0.051116746
108	0x3e152cdc	0.14567894
109	0x3d0de0e0	0.034638286
110	0xbc59f083	-0.013301971
111	0xbd046cf2	-0.03233046
112	0xbe1556a2	-0.14583829
113	0x3e14a1b1	0.14514805
114	0x3e816b38	0.25277114
115	0x3e2de3b3	0.16981392
116	0xbe03699e	-0.12833259
117	0x3e9649e9	0.29353264
118	0x3e356620	0.17714739
119	0x3e1146c0	0.14187145
120	0x3d8c30e1	0.068452604
121	0x3d9070f1	0.07052792
122	0x3e376ef5	0.1791342
123	0xbc9d3da5	-0.019194433
124	0x3d81ed95	0.06344143
125	0x3e4554c4	0.19270617
126	0xbc52486c	-0.0128346495
127	0x3e6fcab5	0.2341717
