models/Level1/checkpoint_final/critic.pth (torch, 297066 bytes, 9 tensors)

net.0.weight f4 [256, 24]
00000000: f96e dfbe 5d31 0ebf 2b57 033f 1311 6a3e
00000010: 7e59 91be 5178 41be 0d06 22bf 71a0 2abf
00000020: 5357 23bf c041 eebe d4f2 813e db07 62be
00000030: a641 823e 49c7 343e 00a0 f03e 5c05 db3e
00000040: 9a39 e4be 367d 47bf 5e6d c3be 7c23 0dbf
00000050: ab3e 9cbf 583b a7be 8f23 5f3f 347b 0bbf
00000060: 43c1 aabf 3a38 e7bf 0f6a bf3d 0709 b4be
00000070: 532d cabe 94d4 f0bc 83d3 893e 8e82 cebe
00000080: 7bc1 a23e 50ff cfbe 878a 96bd 7b11 d2be
00000090: 6f77 2e3e fa51 e43d 3cdc f83d 88ec be3e
000000a0: 6619 593e 9e51 cfbe fc49 29be 76ee 19bd
000000b0: 8508 853f ccca 6ebe 5a0b 2a3f 5fb7 62be
000000c0: 0b37 99be 314a babe 1557 98be 0504 eb3e
000000d0: 68c6 aebe ec75 bcbe 4fbb b8bc ad4c b9be
000000e0: 2a4b 4b3e 183d 6bbe fd5e 06bf d7dd fd3e
000000f0: 7689 1a3e cadd df3e 7273 313e cb4b 86bb
00000100: 5d4a 13bf 4348 acbf df6d 5dbf dc47 063e
00000110: 0374 ae3c a18c a03e f1e5 5f3e b3ac 0dbf
00000120: 25c7 9f3f 9d4d 4e3f a9b7 d9bd 2307 54be
00000130: c0e9 50bd e616 11bb 4efc a33e badc 0abf
00000140: 4434 3b3e 2a77 bbbe 5d2c e7be de02 dcbe
00000150: 54a7 a23d e654 623e 000c 90bf e069 3ebf
00000160: e617 1bbe d584 25bf 9327 8d3e 2669 883d
00000170: 6991 19bc 7a44 4d3e 645d 443f bcd5 9cbe
00000180: 4f36 a4bf 02b1 203f 14e6 623e cba6 c93e
00000190: ff90 eb3d dd17 f9bc 4942 c8be bfeb 173c
000001a0: 8164 b4be 947b b03d e419 a43d 522e ec3e
000001b0: 4ff9 503e 70dd e23d fc86 cfbd 48b9 22bf
000001c0: b479 353e a2fd 5c3e fd6e 46bf 93af 0dbf
000001d0: f1f0 223f 8442 443f 7997 b7bf 3dc5 00bf
000001e0: 297b 293f 924b 843e 4c18 6fbe 1281 1bbf
000001f0: f9b3 f9bd a12a 673e 9fcd 853e 4257 653e
00000200: f296 3f3e aa3d a83e 53cf 11be 7135 fcbe
00000210: 77c4 fe3d 6d01 85bb bf77 e2be f973 cabd
00000220: 8291 d4bd a426 213e 3b6b 213e 2cfc 5dbe
00000230: c0d6 df3e 4d29 d1be bd24 49bf 86f9 d8be
00000240: ac4c 35bf 3dd2 3c3f f33c 993e f17f 1d3e
00000250: cad6 a93d 8732 423e 4c4b 973e 891e 8a3e
00000260: f2d3 af3e 1823 9bbd 0934 ee3d 829b a53d
00000270: a921 523e 8624 8f3d 6570 1dbf cd2f 0fbf
00000280: 902a 14bf 6f75 5f3e 839a e3be 9fca fabe
00000290: acff 51bf c5e6 7b3f 604e 203f da03 17bf
000002a0: cdbc c2bf 4893 23bf 5161 393e aeca bb3d
000002b0: cfd6 83be 8f8f 93bc b36e d33e 0539 6f3f
000002c0: b9bf ef3e 419e 643f f4e7 a73e 356d 6cbe
000002d0: 1d85 0e3e 89a1 1ebd c966 b03e 7bd7 75bf
000002e0: 79c5 d3bd bd54 31bd 112c 283f 7353 f83e
000002f0: e198 d03e 54fa 8bbe a46d d4bf 73e3 8fbf
00000300: 8793 7e3e b6a6 80bf f500 3f3e 1792 b23e
00000310: 5a80 463e 4210 70bd a6f2 433f f849 24bf
00000320: 4e38 073f 48c4 f1be 79ca 42bd 6925 4cbe
00000330: 7a2a b53b 8be8 423e 4929 d83d 7986 e73e
00000340: 3bcb 7cbe 0b55 953e ffc9 1dbc 5442 09bf
00000350: 7f2f 173f 1d54 25c0 d3b0 d73e 3642 213e
00000360: 7d93 f0bf bb0a 63bf 064e 4abe 638a 3abe
00000370: 1053 dfbe d616 873c d22c 883f 59e5 23be
00000380: 088d 503f 82b0 8bbd 37e4 86be 7a39 9fbe
00000390: 5ef3 443e d520 93be 9f10 29be eb1d 5a3e
000003a0: ecc9 093f fe5e 463e aa88 b5bf 3b47 2abe
000003b0: cf9b 5d3f 9651 40bd d5c1 0f3d 7cb5 1bbe
000003c0: 87dd dc3e 824d cb3e acdb a4bd 1a61 40bf
000003d0: 0d11 a33e 1b37 a93e 572b 7e3f 5626 9cbe
000003e0: c592 453f cea1 e4be 6fcf 71be 8844 4dbf
000003f0: d233 5bbe 1bef bfbe 24d9 b3be cb4f 7bbf
-0.43639353 -0.5554407 0.5130488 0.22858076 -0.2838859 -0.18893553 -0.6329048 -0.66651064
-0.6380512 -0.46534538 0.25380576 -0.22073309 0.2544071 0.17654146 0.4699707 0.42777526
-0.44575197 -0.7792543 -0.38169378 -0.5513227 -1.2206625 -0.32662463 0.87163633 -0.5448487
-1.3340229 -1.8064034 0.09346401 -0.35163137 -0.39487705 -0.02939824 0.26919183 -0.4033398
0.3178824 -0.40624475 -0.07350641 -0.41028962 0.17037748 0.11148448 0.121513814 0.37289834
0.21201095 -0.40491956 -0.16532129 -0.03758093 1.0393225 -0.23319548 0.6642357 -0.22140263
-0.29924807 -0.3638473 -0.29753938 0.45901504 -0.34135747 -0.36808717 -0.022550253 -0.3619131
0.19852892 -0.22972524 -0.5248869 0.49583313 0.150915 0.437239 0.17329195 -0.0040983907
-0.57535344 -1.3459553 -0.86495775 0.1311335 0.021295553 0.3135729 0.2186506 -0.55341643
1.2482649 0.8058718 -0.106307335 -0.20705847 -0.05100417 -0.0022138893 0.3202843 -0.5424305
0.18281657 -0.36614352 -0.45151034 -0.42970937 0.079420716 0.22102699 -1.1253662 -0.743803
-0.15145835 -0.6465581 0.27569255 0.066606805 -0.009373047 0.20045653 0.76705 -0.30631816
-1.2829074 0.6277009 0.2215808 0.39385065 0.11502265 -0.030406887 -0.39113072 0.009272515
-0.35232928 0.08617321 0.08012751 0.4612909 0.20407604 0.11077392 -0.10133168 -0.63563967
0.17722207 0.21581128 -0.77513105 -0.5534603 0.636489 0.76663995 -1.4343101 -0.5030096
0.6620355 0.25838906 -0.23349112 -0.6074382 -0.1219253 0.22574855 0.2613344 0.22396567
0.18709925 0.32859546 -0.14239244 -0.49259523 0.124398164 -0.004059008 -0.44231984 -0.09885401
-0.10379316 0.15737396 0.15763561 -0.21678227 0.4371853 -0.40851822 -0.78571683 -0.4237787
-0.70820117 0.737583 0.29929313 0.15380837 0.08292921 0.18964587 0.29549634 0.2697642
0.3434139 -0.07575053 0.11631019 0.080863014 0.20520653 0.06989388 -0.61499625 -0.55932313
-0.57877445 0.21822141 -0.4445382 -0.48982713 -0.8203075 0.98399 0.6261959 -0.5899025
-1.5213867 -0.6389661 0.1810353 0.091695175 -0.25749823 -0.01801279 0.41295394 0.9344638
0.4682596 0.89303976 0.32794154 -0.23088534 0.13917966 -0.03872827 0.3445342 -0.9603192
-0.10340399 -0.043293703 0.6569224 0.48501167 0.40741637 -0.27339423 -1.659596 -1.1241287
0.24860965 -1.0050876 0.18652709 0.34877083 0.193849 -0.058609255 0.7654213 -0.6417537
0.5282029 -0.47220063 -0.047556374 -0.19936146 0.0055287452 0.1903402 0.105547495 0.45219782
-0.24686901 0.29166445 -0.009630679 -0.53616834 0.5905685 -2.5832589 0.42127094 0.15747914
-1.879501 -0.8868825 -0.19756326 -0.18216853 -0.4361806 0.016490381 1.0638678 -0.16005458
0.81465197 -0.068207756 -0.2634599 -0.3109854 0.19233462 -0.28735986 -0.16510247 0.21300475
0.53823733 0.19372174 -1.4182332 -0.16628735 0.8656587 -0.046952806 0.035096962 -0.1520595
0.43137762 0.3970757 -0.080497116 -0.75148165 0.31848946 0.33049855 0.9928488 -0.30497998
0.7717708 -0.44654697 -0.23614286 -0.80182695 -0.21406487 -0.3748711 -0.35126603 -0.9816863

net.0.bias f4 [256]
00000000: bf2a fdbd da50 9dbf 8434 9ebf 97a1 403f
00000010: e582 103f ae67 2f3f 3cb1 ec3e 9fcd 373e
00000020: 2942 ecbe 0bf5 51bf cdc5 43bf 0556 663d
00000030: c3ed 563f 3998 94bf b784 1abf 7a5f c7be
00000040: 80c8 4abe 5309 06bf ac3c 5b3d 8ebf a8bd
00000050: 3e56 8fbf 745c 6e3f 5a47 323f dcaf 36be
00000060: 11d7 c8be a6b3 c83d 77ef 873e add4 6dbf
00000070: 69cf 35bf 402a c4bf 65c8 b33d 623a a7bf
00000080: 751d a6bf b1ed 02bf df1f b53e 20e3 0b3f
00000090: d91f 223d 3e99 91bc 72b7 143f 778f 51be
000000a0: 5c24 063f d53c e7bd aa0e 913e 38ba 07bf
000000b0: bd46 02bf 34dc 96be 47d6 65bf 3d26 063f
000000c0: 17ff 20be 5bdd 68bf 9658 4f3d 2f33 b73e
000000d0: 17bc dc3e c887 efbd 0ab0 89bc e458 1fbd
000000e0: 4414 8cbf 369f 4bbe 2892 643e f3a8 d23e
000000f0: d033 aabe 39f7 a6bf 5cbd 47bf 57ab 9fbf
00000100: 8c96 d2bc af37 81bf de5b bdbe 1144 82bf
00000110: cba1 45bf 72a2 37bf 56b0 cb3e 3c08 8cbf
00000120: f713 d1be 9dc7 83bf 5366 29be 0999 8a3e
00000130: 3f1f c53c 453a 123f 7594 b1be 6403 843e
00000140: cbce 3fbf 818d abbf f2fc c7bd 0448 72bf
00000150: 683d 693e 1ad2 62bf 2d0a 2dbf 843f 02bf
00000160: c275 bfbe 6372 d63e d4fa 96bf d29e dfbe
00000170: a784 28bf 32dc 723e ecc7 95bf bc18 bdbf
00000180: 1af7 2c3f f549 ae3e 2555 bebf 8198 c83e
00000190: 4a99 c7be 6e81 0dbe d079 34bf 3622 5d3f
000001a0: 9f70 723e 3c01 a7be e9f1 29bf c3ea 0b3f
000001b0: 01f0 9abf a15c ecbe e095 a8bf c127 ce3d
000001c0: 3c1b 54bf 83ed 653e 5115 bf3d 1c9f 88bf
000001d0: 0899 273f 5f1a fcbd bb2d c4be ba21 9dbf
000001e0: 7f5e 16bf e5f9 e93e 52a9 5e3e 0cb7 1b3f
000001f0: b5e3 63be f3e8 aebe 1728 44bf 62b7 50bf
00000200: 830c c43d d685 bb3f d0c8 cdbe 55f0 44be
00000210: 0bda 103f eb27 cfbe 06eb 84be 618f 113c
00000220: 249b d2bd 2bdd 4abe acd6 99bf 0597 99bf
00000230: 61a9 853e 944f c9be 860d 5a3e 4a18 e1be
00000240: fdae 633e 27c7 863d 4f83 1f3e 99eb 593e
00000250: d2ac 15bf 8178 63bf d487 0a3f 0bb0 c6bf
00000260: 7640 10bf 0c1b 38bf a16d ccbe 6294 f93e
00000270: 258a 73bf 5a4c b93e f61e 99bf 5f6b 73be
00000280: b077 02c0 3fb0 7dbe 4c66 223d 4a93 eb3e
00000290: 3a50 1c3f a2b5 84bc 53fc 7a3e f55f 8dbe
000002a0: 32e9 823e 5918 e3be 4ca6 89be bc63 073e
000002b0: 8ead 97bf 9bed b43e 10cc 6e3d b160 223d
000002c0: 8e44 bbbd 147c 51be 4e5c 5d3d 08b3 0abe
000002d0: 8677 c93b 42e3 5ebf 161a b4bf e3b5 9dbf
000002e0: 75b2 bebf 62c7 a73e 856c 96be 5be9 83bd
000002f0: a936 4dbf b4b5 c8be 00d7 e6be 3442 83bf
00000300: e08d c33e b48c 9c3d 6803 2bbf f21b 623e
00000310: 4e9f 433f 27db 08be d8e9 93bf 8ddd abbe
00000320: 0d38 8ebe 2a49 27bf bc8e 1ebe cb39 3cbf
00000330: 7a0a 03bf a4ad a13b b923 b8bc 38de 0c3d
00000340: c9e7 a7bf 76d9 32bf 030a b3be 1933 b5bf
00000350: 51ce 44bf cc22 7cbf 46df 47be 0912 793f
00000360: a5ab 8d3e cdd8 8a3e 85ec 813e 8678 0a3e
00000370: 86e9 023e af91 b1be 3bac 0d3e 9f05 22bf
00000380: 263e 94be fdf6 97bf 6c6e 05be 0ebd cfbc
00000390: a005 2dbe 7acc 93bf 4d1a 023e c00f 38bf
000003a0: 44a7 393e ccf8 763f e9d4 693e f30d 40bf
000003b0: 42be f2be e115 b03c 8f1d 2d3e 535d 0e3d
000003c0: 87d5 0f3f 3afa 143f b3d3 dbbd d84c fb3e
000003d0: ee8c 563e 0365 8dbf dcdd b3bf 129e 4cbf
000003e0: 3838 42be 5c7e 8e3e 0926 e53e 863b 143e
000003f0: fc4c 5d3f e979 81bf 5aed 4bbe dad3 dbbe
-0.12361669 -1.2290299 -1.2359776 0.75246567 0.5644973 0.6851758 0.4622897 0.17949532
-0.46144226 -0.8201453 -0.76473695 0.05623438 0.83956546 -1.1608955 -0.60358757 -0.3894003
-0.19803047 -0.5235798 0.053524658 -0.08239661 -1.1198194 0.9310982 0.69640124 -0.17840523
-0.39226583 0.0979989 0.26549885 -0.9290264 -0.7101961 -1.5325394 0.087784566 -1.3064692
-1.297774 -0.5114394 0.35375878 0.5464344 0.039581154 -0.017773267 0.58092415 -0.20464884
0.5239923 -0.112909 0.283315 -0.5301852 -0.5088919 -0.29464877 -0.89780086 0.52402097
-0.15722309 -0.9096276 0.05062159 0.35781237 0.4311225 -0.1169582 -0.016807575 -0.038903132
-1.0943685 -0.19884953 0.22321379 0.41144523 -0.33242655 -1.3044196 -0.78023314 -1.2474164
-0.025706552 -1.0095118 -0.36984152 -1.0177022 -0.772 -0.71732247 0.3978297 -1.0940013
-0.40835544 -1.0295292 -0.1654294 0.27069882 0.02406275 0.5712016 -0.34683576 0.25783837
-0.74924916 -1.3402559 -0.09765042 -0.9464114 0.22777331 -0.8860184 -0.6759365 -0.5087817
-0.3739453 0.41884145 -1.1795297 -0.43675858 -0.6582741 0.2371681 -1.1701636 -1.4773173
0.6756455 0.340408 -1.4869734 0.3917885 -0.38984138 -0.13818905 -0.7049837 0.86380327
0.23675774 -0.3261813 -0.6638475 0.5465509 -1.2104493 -0.4616442 -1.3170738 0.10066176
-0.82854056 0.22453885 0.09330238 -1.0673556 0.6546788 -0.123097174 -0.3831614 -1.2275918
-0.5873794 0.45698467 0.21744278 0.6082618 -0.22254832 -0.341621 -0.7662367 -0.8152982
0.09572699 1.4650218 -0.4019227 -0.19232304 0.5658271 -0.40460142 -0.2596056 0.008884282
-0.10283497 -0.19810931 -1.2018638 -1.1999213 0.26105788 -0.39318526 0.21294221 -0.43963844
0.22234721 0.06580954 0.15577434 0.2128128 -0.5846683 -0.8885575 0.5411351 -1.5522474
-0.5634836 -0.7191627 -0.3992739 0.4874602 -0.95132667 0.36191064 -1.1962574 -0.23771428
-2.0385551 -0.24774264 0.03964834 0.4601081 0.61059916 -0.01619989 0.24510317 -0.27612272
0.2556854 -0.44354513 -0.26884687 0.1322164 -1.184984 0.3533753 0.058300078 0.039642993
-0.09143935 -0.20457488 0.054043107 -0.13544858 0.0061482815 -0.8706552 -1.4070461 -1.2321132
-1.4898211 0.32769305 -0.2937967 -0.064409934 -0.8016153 -0.39201128 -0.45085907 -1.0254579
0.3819418 0.076440245 -0.6680207 0.22080973 0.76414955 -0.1336485 -1.1555738 -0.33567467
-0.27777138 -0.65346014 -0.15484136 -0.73525685 -0.5118786 0.0049340297 -0.022477971 0.03439161
-1.311761 -0.6986307 -0.34968576 -1.4156219 -0.76877314 -0.98490596 -0.19518766 0.97293144
0.27670017 0.2711853 0.25375763 0.13522539 0.12784395 -0.3468146 0.13835232 -0.6328983
-0.28953665 -1.187225 -0.13030404 -0.025358703 -0.16896677 -1.1546776 0.12705345 -0.7189903
0.18130213 0.96473384 0.22835125 -0.75021285 -0.4741078 0.021494808 0.16905807 0.03475697
0.5618519 0.58194315 -0.10733738 0.49082065 0.20952198 -1.1046451 -1.4052081 -0.79928696
-0.18966758 0.2783078 0.4475558 0.14475831 0.86445594 -1.0115329 -0.19914761 -0.42935067

net.2.weight f4 [256]
00000000: 734c bb3f aa31 6b3f 70b0 763f e12c 1b3f
00000010: 74f2 c33f 6800 113f 4a93 923f 7cd9 ab3f
00000020: 7f02 943f c19a ae3f a720 0d3f 7f96 623f
00000030: 8910 903f 1f71 6e3f 5bd0 9f3f 7476 a63f
00000040: 5959 413f 862b ab3f 607d ba3f 0b69 713f
00000050: 453e e93e 1359 e23f 8dfc 943f 0ab2 543f
00000060: 185f 783f 4db7 bb3f a2ef dd3f 7bef 9b3f
00000070: 1666 363f 35b7 0940 f8d8 8d3f aa38 a03f
00000080: e783 3c3f a871 663f e1e4 fc3f 0f3b 713f
00000090: 835a 5b3f ff88 c13e 228a aa3f 94db a13f
000000a0: 70a0 8c3f 05dc 9a3f 1574 c73f 64b3 bc3f
000000b0: 4805 cb3f 8b8b 593f 2fd3 973f 45ab a13f
000000c0: 8aa1 d33f ecca ac3f e8f6 4f3f 4e22 913f
000000d0: b1d7 8b3f b9da 993f 0547 b03f e5e3 753f
000000e0: a8a2 743f a4c3 b93f 88e3 c03f ab23 5f3f
000000f0: 04f6 ea3e e9b5 ca3f 51c8 1040 497d 253f
00000100: a6f0 e83f 8859 a13f 6ef9 c93f 387d 643f
00000110: 7197 803f 57b3 e73f 47f1 c23f efed 323f
00000120: 98f0 603f 210b 533f c183 0c3f c1ea 433f
00000130: 194f 203f b201 9e3f 2a69 863f d173 4e3f
00000140: 5a98 c23f 7d9d 3c3f 0a62 8a3f 0942 973f
00000150: 4da3 143f 0940 bc3f a762 593f 459a 563f
00000160: 01a6 c03f f953 c73f 6fa2 3e3f e6e0 f93e
00000170: 6eab d53f 6e28 a33f 02d9 ea3f 05ca ec3e
00000180: 8fd5 863f 5ea6 933f b4b2 923f 2ffd 963f
00000190: ece3 953f 7396 913f 2c70 803f 5c8d 8e3f
000001a0: b08a 0240 cd59 4a3f f369 263f 51b6 0f3f
000001b0: b304 6c3f 63f4 a83f e615 203f b1bd 503f
000001c0: 3580 be3f 30af ad3f 1119 543f 2fa0 dd3e
000001d0: 324d e63f ba71 903f 42b6 da3f d38a 6e3f
000001e0: c61e 9a3f 8ba6 163f 35d1 7d3f 76c4 903f
000001f0: 9eab a03f e057 f43f d30d a73f f865 8c3f
00000200: b743 a23f e3b8 7a3f d363 ab3f c877 e03f
00000210: 3418 703f d567 f13f ed29 e03f 1317 7e3f
00000220: 7579 6f3f b716 de3f 6770 ef3f 9a96 513f
00000230: 28e9 a83f ba71 d23f 3b0e cd3f 3c91 d03f
00000240: 3553 533f 5f78 283f eb81 7a3f 68b4 7b3f
00000250: 4789 c23f 9ef9 923f c685 533f bd2a bd3f
00000260: 86f1 b03f f3e8 853f a672 e43f 876b af3f
00000270: 58ab 423f 18a7 d63f a3db 703f 82d6 8b3f
00000280: a191 ec3f 9cae 963f 392d 0c40 2d34 853f
00000290: 3acd 803f 5d0d 9c3f d5e6 813f a0e3 f63f
000002a0: 6e88 763f 04fe bd3f b32f 8b3f 8e21 8a3f
000002b0: 4587 b53f ebea 943f 2efc a83e 533a 993f
000002c0: 8179 a43f 44d8 bc3f 5976 b33f 5358 de3f
000002d0: b5b0 ab3f eab7 5e3f fe6b c73f b270 ca3f
000002e0: d22f 303f c629 583f da29 6c3f f8cb e43f
000002f0: 14c6 1d3f a4bd 3a3f 2a8a 6f3f 5ceb b73f
00000300: 6575 943f 500e ad3f c510 6c3f e8cd 503f
00000310: 45d2 c43f c7e5 d33f 0328 803f 75df 903f
00000320: 2c6d 7c3f 080b ab3f 1553 b03f b15a 993f
00000330: 6941 6b3f 78a8 ab3f 50f6 873f c856 903f
00000340: d2fd f33f bea4 8a3f 0cbd ed3f f72e 5c3f
00000350: 17ec dc3e 1166 403f bf9d cf3f f3d6 3e3f
00000360: 52ff c53f f5ea e43f 9469 cf3f 43b9 aa3f
00000370: 7f1d 833f e262 893f bc56 c13f 2860 973f
00000380: 460c b13e c7b8 323f 90e7 783f c247 d73f
00000390: a4ac 533f cc63 ca3f 0c96 d33f 9e0a 283f
000003a0: dd99 f73f 2066 a43f 7e05 ad3f e1c7 a93f
000003b0: 3160 7a3f 276b a23f 33c0 993f 5f99 943f
000003c0: a694 aa3f dcda 4a3f 80d9 9f3f a299 c63f
000003d0: 68a7 913f 4239 db3f b8fc 303f 39d6 673f
000003e0: 4cbc b13f c675 683f 4d4e 0440 9b9d 863f
000003f0: 4d73 883f 2c5f 3c3f 3b85 5b3f eb13 c73f
1.4632705 0.91872656 0.9636297 0.60615355 1.5308366 0.56641245 1.1451199 1.3425746
1.1563262 1.3640977 0.5512795 0.8851089 1.1255046 0.9314136 1.248546 1.3004899
0.7552696 1.3372657 1.4569511 0.9430091 0.4555532 1.7683433 1.1639572 0.83084166
0.970201 1.4665314 1.7338755 1.2182459 0.7124952 2.151807 1.1081839 1.2517292
0.73638767 0.90017176 1.9757348 0.9423074 0.85684985 0.37799832 1.3323405 1.2645135
1.0986462 1.2098395 1.55823 1.4742246 1.5860987 0.8497855 1.1861323 1.2630392
1.6533673 1.3499427 0.81236124 1.1338594 1.0925199 1.2019874 1.3771673 0.96050864
0.95560694 1.451283 1.5069437 0.871638 0.4589082 1.5836765 2.2622263 0.64644295
1.819844 1.2605448 1.5779245 0.8925357 1.0046216 1.8101605 1.5229882 0.6989431
0.87867117 0.82438856 0.5488854 0.7653008 0.62620693 1.2344267 1.0500844 0.8064547
1.5202744 0.7367781 1.0811169 1.1817027 0.5806168 1.4707042 0.84916157 0.83829147
1.505066 1.5572501 0.74466604 0.48804396 1.6692941 1.2746713 1.8347476 0.4624788
1.0533923 1.1535146 1.1460786 1.1796016 1.1710181 1.1374038 1.0034232 1.113689
2.0397148 0.79043275 0.65005416 0.5613757 0.9219467 1.3199581 0.62533414 0.81539446
1.4882876 1.3569088 0.8285075 0.43286273 1.7992308 1.1284707 1.7086871 0.9318058
1.2040641 0.58847874 0.9914735 1.1309955 1.2552373 1.9089317 1.3051094 1.0968618
1.2676915 0.97938365 1.3389839 1.7536554 0.9378693 1.8859812 1.7512795 0.9925396
0.93544704 1.7350682 1.8706177 0.81870425 1.3196154 1.6440957 1.6019968 1.6294322
0.8254884 0.6580867 0.9785449 0.98322153 1.5198144 1.1482427 0.82626 1.4778668
1.3823707 1.0461715 1.7847488 1.370469 0.760427 1.6769743 0.9408514 1.0924838
1.8481942 1.1772037 2.1902602 1.0406548 1.006263 1.2191578 1.0148569 1.9288216
0.96301925 1.4843144 1.0873932 1.079149 1.4181906 1.1634191 0.33004898 1.1970924
1.284958 1.4753499 1.4020492 1.7370704 1.3413302 0.8699938 1.5579832 1.5815642
0.6882297 0.8443874 0.9225136 1.7874746 0.6163037 0.7294562 0.93570197 1.4368701
1.1598326 1.3519993 0.9221309 0.8156419 1.5376669 1.6554497 1.0012211 1.1318194
0.98604083 1.3362741 1.3775355 1.1980802 0.9189668 1.3410788 1.0622044 1.1276484
1.9061835 1.0831525 1.8573318 0.8600916 0.43148872 0.7515574 1.6220015 0.74546736
1.5468543 1.7884203 1.6204095 1.3337787 1.0243376 1.0733302 1.5104594 1.182622
0.34579676 0.698132 0.97228336 1.6818774 0.82685304 1.5811706 1.6530166 0.656412
1.934383 1.2843666 1.3517301 1.3264123 0.97803026 1.268895 1.201178 1.1609305
1.3326614 0.792402 1.2488251 1.5515635 1.1379213 1.7126849 0.6913562 0.9056125
1.3885589 0.9080471 2.067279 1.0516847 1.0660187 0.7358272 0.8575017 1.5552953

net.2.bias f4 [256]
00000000: b023 073f 1600 363e 5601 7d3e be94 e23e
00000010: acf8 3f3f 8f74 a93e 98ce 813e faf1 ef3e
00000020: 01ec a73e 7d71 033f a9eb a7be 5992 bd3e
00000030: ace7 c63e 7f3d ce3e a3ae 003f 9e7f f23e
00000040: 9111 723e 388d 083f cc57 473f c704 1a3f
00000050: fd68 8cbd 07c0 313f cd56 0e3f a802 e3bc
00000060: 0886 c33e f4f0 563f 7e22 0f3f f63b c33e
00000070: 668b 6a3e dee2 1a3f 20bf ac3e 5ebe 253e
00000080: 0f52 823d 99c1 c03e b265 143f 534b cc3d
00000090: 7ba5 a83d 54a2 10be cb06 fc3e 3646 dc3e
000000a0: 3c62 263f 1d2a 5c3e d0fb d93e 88bd 3d3f
000000b0: 1ff7 043f b3b6 2a3d 90d2 ca3e 5c27 c63e
000000c0: 4684 563f e499 da3e a0e2 ad3e 9c23 203f
000000d0: f573 f43e 8931 b53e bded 123f 9a48 163e
000000e0: 33a0 5e3e c9ab e13e 0b19 e13e 5f5d ac3e
000000f0: 1ce5 d9bc b28c b73e 1df2 413f cfe0 e9bc
00000100: dbbd 3a3f fffb 0a3d 63a4 0e3f c49c 113e
00000110: 52d4 513e a632 433f 7eb6 2b3f a528 ebbc
00000120: 014a b43e b650 283d 8a42 eebe 43fb 3f3e
00000130: 21c0 97be de60 033f 8d28 bb3e d63d 4b3e
00000140: 4022 093f 61a6 a63d 8d1d 003f c30f 913e
00000150: 1b46 bc3d f59e 1b3f f7b7 9d3b b58b 563e
00000160: 5f30 2c3f 7336 243f a1ed 313e f3cb 3a3e
00000170: 9f43 1e3f 7e9b 3e3e f2db 313f 1a35 91bd
00000180: ac49 003f 1bc4 193f af48 d43e be57 6e3d
00000190: c7f9 e33e 8f4e 463e f220 e53d 3632 a23e
000001a0: eb6b 103f b261 3a3e da7c b4bd e0a6 383d
000001b0: 2311 603e ddcc 1a3f b892 c9bd 455f b83e
000001c0: b17b 133f 9652 053f 4475 7e3e 7b6d 76be
000001d0: f743 5c3f e321 0c3f f42e 203f 1492 393e
000001e0: f079 f93e 32cc 413e affe 093f 330e bb3e
000001f0: f1fb 963e 83d9 4d3f 5835 e53e 87a6 eb3e
00000200: ab08 fa3e 5bb3 8c3d 023f 013f 6e35 c03e
00000210: c5bd d03e ec08 233f fc9d b33e d475 42bd
00000220: b4b8 c13e a275 3f3f 61c4 223f b849 9b3e
00000230: e4b4 3d3f 58b0 233f 6442 cd3e 1e72 163f
00000240: cbbb ae3e 088d b03e 2559 bd3d 4602 7c3e
00000250: 2596 ba3e 82b4 3e3e f739 c13e 4c17 e33e
00000260: 7840 e93e 50e3 203e f937 0e3f 6020 e93e
00000270: d8c8 7b3e aef6 da3e 8293 783e 5c6d b53e
00000280: 8e8b ce3e bcfa 0c3f 83c8 593f 55b9 b53e
00000290: 7719 dd3e 8903 c53e 85eb 523e 5e2a 2d3f
000002a0: 07fb 163f 214e 963e 373b 053f 24ec e83e
000002b0: a5d8 ca3e 09aa c93e 590a 98bd 1e55 023f
000002c0: 94d1 9e3e 6372 8d3e d598 133f aecb 333f
000002d0: acc1 a83e 3519 923e abf2 1b3f 93d4 1b3f
000002e0: 1e6f 453e 8695 a93e 0764 953e 1f0e 473f
000002f0: c24a 233d 9e19 9c3d f3f7 033f 5b33 053f
00000300: 4593 183f 10da 053f 4aca 313e ca02 e43d
00000310: 2cc2 1c3f 7f97 de3e e0ce 413e 8348 a43d
00000320: ace9 873e 9b4e c03e abfa 2d3f bead 863e
00000330: 54b3 3d3e d3ae 013f b547 b23e b6ab 143e
00000340: c7bd 3d3f d44c 693e c702 293f 4ab1 813e
00000350: 4d8a 87be bba5 b3be 28a8 043f 3850 f13e
00000360: ef84 123f a749 413f 5d71 1e3f 9c2c f23e
00000370: 75fc df3e d2f4 c23e 9464 cd3e fed2 b83e
00000380: 8ea3 09be dfd4 593d 2b8d a23e 706a 3f3f
00000390: 1afa 8b3e 371d 0b3f b410 1c3f 2b0d 8e3d
000003a0: 9c97 3c3f 8c44 d73e f538 aa3d a2bd af3e
000003b0: acfc d93e b410 bf3e 363d ca3e 36f0 133f
000003c0: cf64 253f 6ea0 ac3e 8c80 e83e c02a 513f
000003d0: f679 073f 13af 543f 8a55 323d 1404 4fbe
000003e0: 35f5 043f f4ef d73d 7fea 283f bf01 b33e
000003f0: 343d 013f 256f 7d3d 8030 fa3d b8b0 fd3e
0.5278883 0.1777347 0.24707541 0.44254106 0.7498882 0.3309674 0.2535293 0.468643
0.32797244 0.51345044 -0.32796982 0.37025717 0.38848627 0.40281293 0.50266474 0.4736299
0.23639514 0.5334048 0.7786834 0.6016354 -0.068559624 0.69433635 0.556012 -0.027711228
0.38188195 0.83961415 0.55912006 0.38131684 0.22904739 0.6050242 0.33739567 0.161859
0.06363308 0.37647703 0.57967675 0.099753045 0.08234688 -0.14124423 0.49223933 0.43022317
0.64993644 0.2150044 0.4257493 0.74117327 0.51939577 0.04167814 0.3961377 0.38701904
0.83795583 0.42695534 0.33961964 0.62554336 0.47744718 0.35389355 0.5739401 0.14676133
0.21740799 0.44076374 0.4396442 0.33664986 -0.026598506 0.3584953 0.7576006 -0.02854958
0.72945946 0.03393173 0.55719584 0.14219958 0.2049115 0.7624916 0.67075336 -0.028705904
0.3521271 0.041092597 -0.4653514 0.18748192 -0.2963877 0.5131968 0.36554375 0.19847807
0.53567886 0.08137203 0.5004509 0.28332338 0.09193059 0.60789424 0.00481319 0.20951732
0.6726131 0.6414558 0.17375804 0.18241863 0.6182193 0.18614003 0.69476235 -0.070902064
0.50112414 0.6006486 0.41461703 0.058189146 0.44526502 0.19365905 0.111879244 0.31678933
0.5641467 0.1820133 -0.08812876 0.04508102 0.21881537 0.60468847 -0.098424375 0.36010185
0.57610613 0.5207914 0.24849421 -0.24065201 0.86041206 0.5473921 0.62571645 0.1812213
0.48725843 0.1892555 0.5390424 0.3653427 0.2948909 0.8041002 0.4476726 0.46025488
0.48834738 0.06870147 0.5048677 0.37540764 0.40769783 0.6368549 0.3508147 -0.04747565
0.3783623 0.7478887 0.635809 0.3032968 0.7410414 0.63940954 0.40089715 0.5876788
0.3412765 0.34482598 0.092455186 0.24610242 0.36442676 0.18623546 0.37739536 0.44353712
0.45556998 0.15711713 0.5555416 0.45532513 0.24588335 0.42766327 0.2427502 0.35434997
0.40340847 0.5507009 0.8507158 0.3549296 0.4318349 0.3847926 0.20597656 0.6764277
0.5897679 0.29356483 0.5204348 0.4549266 0.39618412 0.3938754 -0.07423849 0.5091113
0.3101927 0.27626333 0.5765508 0.70232666 0.3296026 0.28534856 0.60917157 0.6087124
0.19280669 0.3312189 0.29177877 0.7775592 0.039866216 0.076220736 0.51550215 0.5203149
0.59599715 0.5228586 0.17362323 0.111333445 0.6123378 0.43474957 0.18926573 0.08021643
0.26545465 0.3755997 0.67960614 0.2630443 0.1852544 0.50657386 0.34820333 0.14518628
0.741177 0.22783214 0.6601986 0.25330573 -0.26472703 -0.3508738 0.51819086 0.47131515
0.5723409 0.7550301 0.6189173 0.4729966 0.43747297 0.38077408 0.40115798 0.36098474
-0.13441297 0.053181525 0.31748328 0.74771786 0.2733925 0.54341453 0.60962987 0.06936105
0.7366884 0.42044485 0.08311645 0.34324366 0.42575586 0.3731743 0.39499825 0.5778841
0.64606947 0.33716148 0.45410573 0.81705856 0.5292047 0.8307964 0.043538608 -0.202164
0.51936656 0.10543814 0.6598281 0.3496227 0.50484014 0.061873574 0.12216282 0.49548888

net.3.weight f4 [256, 256]
00000000: 491c 37bf 306b 723e d84f 12bf 48a2 0bbf
00000010: 9ef6 20be 715f 8cbe 3e64 30be a2a4 cdbf
00000020: dd0c 8e3d 7d76 533e fa8d 463d aa9e 16bf
00000030: a4bd 2ebe 6b2e 703e 697c 65bf 4c67 36bf
00000040: 0093 0b3e 9788 ac3d 775b 6cbf 1bb2 133e
00000050: c576 963d 154d d4bc ca21 32bf c234 78be
00000060: 2232 f5bd 1d71 9fbe 18b4 d03d dda5 923d
00000070: 3901 f03d 079c 0cbe bc66 b53c f4a4 b43d
00000080: 6e50 7ebe 640d 7bbe ded7 a1be b405 683e
00000090: 9a79 8abe 1135 02bf decc f8be ef44 3dbe
000000a0: 80fe 05bf 1d5c 1cbe 4613 173f 056b 0fbf
000000b0: 0455 033e 871b 8dbd 9f49 51bd 3500 203f
000000c0: cbee c73d 7225 94bd d015 03bf 721c 633d
000000d0: bddd 53bf 2e57 69be 0ea4 dd3e 0ab3 46be
000000e0: 75a6 2bbf a3a3 b0bc dcd6 243f 3e31 a03d
000000f0: 94f8 8ebe 0e08 073e e814 13be 0cc1 00bf
00000100: 0226 ba3e 2f30 8dbf 3eaa a6be d27f 9a3e
00000110: 712d ed3d 9699 dfbe b6b5 183e d376 913d
00000120: 2457 b6be a2ba 15be 22ff 3fbe d55a 3cbd
00000130: f26d dc3d 13f3 37bf 261c eb3d 981c 1ebe
00000140: 441d d4bd 064c 663e ca67 48bf 732d 0bbf
00000150: 7323 b0be 961e ecbb f25e 2dbd 82a9 88bf
00000160: 9914 d7be b175 b13d 1d6a a3bd 201f 203e
00000170: 98be 3bbf ccc9 50bf 32f0 f3be fafc dfbe
00000180: b54b 31bf 56ab d3be 4702 fc3e 4902 2cbf
00000190: 3e93 8dbe e1e3 c63e 1579 7bbf ebe1 06bf
000001a0: aacf 3f3e e80a d7be e614 c7be 8c2a a93e
000001b0: 9dab ab3e a3d5 36bf 1277 57be b153 21bf
000001c0: 837e 4cbd 7591 a0bf 8eb1 cb3c 4e44 ba3c
000001d0: 79b7 14be 3a91 6c3e adba 15bf 2f96 2dbe
000001e0: 9756 bbbe 4e5b 8dbe c211 b73e ce61 f13d
000001f0: 6bd9 8c3e bfca 73be f711 65bf b83f 57bf
00000200: e688 21bf 6e29 0abf 30c9 34be 16af 0e3e
00000210: 29df 26bf 81ce 9fbe 301e 04be 3fa2 11be
00000220: bac0 28bf 5cb8 45bf b939 603d 54f1 523e
00000230: c559 96be 6bb1 ba3e a344 cf3e 38a0 cabd
00000240: 6f2e 74bf 2fc2 e7be 0201 393e c970 60be
00000250: cef5 95be a57a 0d3f 692e 3fbe 08c9 a0be
00000260: bd1f b6be 7fbd 803e f6c7 e6bc 6602 78bf
00000270: 1ef6 7abe e56c 873e 4284 f1be bfb9 fdbe
00000280: 8197 9ebd 1fa1 b9bf 63a0 80be 3481 5fbe
00000290: 23bf 9ebe 39ce 25bc bac2 3d3e 7f47 223f
000002a0: 42f8 c43e e84b 6a3e ce2d e4be 7ae4 23bf
000002b0: 53f8 38bd 389b b03e a480 b73d 1618 1bbf
000002c0: 23d9 9abd c78e 2dbf ab9e e73e e494 c1bf
000002d0: 30d4 423e 46e4 af3e 7d7b 5e3e a6ec 473e
000002e0: 5333 5d3e 8762 253e 915f c4be ef35 80bf
000002f0: d7cd bcbe 1637 6bbd 8dd5 a5be a1a9 77be
00000300: 28c1 80bd 193f bb3e c9ca 7ebf 0632 37bf
00000310: 7a77 a0bf c26a b03c 3bac e1be 2b03 993e
00000320: b3c2 563e d3ce c63d 9066 9abf 8b30 0cbe
00000330: 9ac0 4d3e 92bc ebbe 7f7d 423e 20cb b9be
00000340: be4c 323f 89ed 94bf 625d 24bf 9dd6 4cbe
00000350: 2e6b 58be cc76 9c3d 6717 063f 73f2 7fbf
00000360: bfe4 6bbf 4e64 cd3e 1374 06bf da73 90be
00000370: 8f81 7e3e 0ab3 0ebf aa3e 8b3d e78c b03e
00000380: 8f83 4e3d d04e 973e ba71 523e 9a1a 08be
00000390: 8820 c33b 65de 803e 7e8a 6fbe 1b8e b7be
000003a0: be2d ff3e f65c fcbd 01a0 28bf 8e39 3b3f
000003b0: 05e2 8abf 8418 8fbf 2fc6 02bf c0ff 083d
000003c0: 61c5 82bf ccc3 74bf 921a b7bf 3716 5dbf
000003d0: 6608 1abf b1c9 07bf 1403 be3e 64b0 4f3d
000003e0: 2037 af3e 6530 efbe a99e 493d 1fbb 02bf
000003f0: 76b2 a9bd 373c 9e3d 3608 25bf f920 0e3d
-0.71527535 0.23673701 -0.5715308 -0.54544497 -0.15719077 -0.27416566 -0.1722574 -1.6065867
0.06936047 0.20650668 0.048475243 -0.5883585 -0.1706453 0.23455207 -0.8964296 -0.7125137
0.13630295 0.0842449 -0.92327064 0.1442341 0.07346872 -0.025915662 -0.6958281 -0.24238876
-0.11972453 -0.31140986 0.101906 0.07160542 0.11718983 -0.13731395 0.022143714 0.08820525
-0.24835369 -0.24516827 -0.31610006 0.22658426 -0.270459 -0.5086222 -0.485938 -0.18483327
-0.5234146 -0.15269513 0.59013784 -0.56022674 0.128254 -0.06890016 -0.0510956 0.62500316
0.09762343 -0.072337046 -0.5120516 0.05544705 -0.8276022 -0.22787163 0.43289226 -0.19404235
-0.6705087 -0.021562403 0.6439035 0.07821892 -0.27924025 0.13186666 -0.14363444 -0.50294566
0.36357123 -1.103033 -0.3255176 0.30175644 0.11580933 -0.43671864 0.14913067 0.07102742
-0.35613358 -0.14621976 -0.18749669 -0.04598506 0.10763158 -0.71855277 0.11479978 -0.15440595
-0.103571445 0.22489938 -0.7828337 -0.54366225 -0.34402046 -0.0072057946 -0.042326875 -1.067673
-0.42007902 0.08665026 -0.07979224 0.15636873 -0.733377 -0.8155792 -0.47644192 -0.43747693
-0.69256145 -0.41341656 0.49220487 -0.67190987 -0.276514 0.38845733 -0.9823163 -0.52688473
0.18731561 -0.42000508 -0.38883132 0.33040273 0.33529368 -0.71419734 -0.21041515 -0.6301833
-0.04992534 -1.254439 0.024864938 0.022737648 -0.14523114 0.23102275 -0.5848797 -0.16951822
-0.365895 -0.27608722 0.35755736 0.11786233 0.27509627 -0.2380781 -0.8948054 -0.840816
-0.63099515 -0.53969467 -0.17654872 0.13933977 -0.65184265 -0.31212237 -0.1290214 -0.14222048
-0.6591908 -0.77234435 0.05474255 0.20599872 -0.29365364 0.36463484 0.40482053 -0.098938406
-0.9538335 -0.45265338 0.1806679 -0.21918024 -0.29289097 0.55265266 -0.18670048 -0.31403375
-0.3557109 0.25144574 -0.02817152 -0.9687866 -0.24507949 0.26450267 -0.47171217 -0.49555776
-0.07743741 -1.4502295 -0.25122365 -0.21826631 -0.310052 -0.010119968 0.18531314 0.63390344
0.38470656 0.22880518 -0.44566196 -0.640205 -0.045158695 0.34493423 0.08960083 -0.6058363
-0.07560947 -0.67795986 0.45238242 -1.5123563 0.19026256 0.34353846 0.21726795 0.19523868
0.2160161 0.16150866 -0.3835416 -1.0016459 -0.36875793 -0.05742558 -0.3238949 -0.24185802
-0.06286842 0.36571577 -0.99528176 -0.71560705 -1.2536461 0.021535281 -0.44076714 0.2988523
0.2097271 0.09707417 -1.206255 -0.13690393 0.20093003 -0.46042305 0.18993185 -0.36287785
0.6964835 -1.163499 -0.6420499 -0.20003743 -0.21134636 0.07639846 0.5237946 -0.99979323
-0.92145914 0.4011559 -0.52520865 -0.28213388 0.2485411 -0.5574194 0.067990616 0.344825
0.050418433 0.29552317 0.20551196 -0.13291398 0.0059548058 0.25169674 -0.23392674 -0.35850605
0.49839586 -0.123224184 -0.65869147 0.73134696 -1.0850226 -1.1179357 -0.51083654 0.033447027
-1.0216485 -0.9561126 -1.4304984 -0.8636202 -0.60169065 -0.5304213 0.37111723 0.05070533
0.34221745 -0.4671661 0.049223576 -0.51066774 -0.08285992 0.07726329 -0.64465654 0.034699414

net.3.bias f4 [256]
00000000: aefe 91be 62b5 33bf ee91 37bf fdda 92be
00000010: d679 c7be a456 33bf 1e12 fcbe b54c ffbe
00000020: bcc5 17bf f0f7 1bbf a59a 27bf cf7e 23bf
00000030: 6f69 eabe bb5b 23bf cd68 e2be 857f 07bf
00000040: 5983 16bf 6d60 00bf 9ad0 3fbf e154 36bf
00000050: 0a3f 21bf 0ad8 2a3e 8eea 55bf f780 3bbf
00000060: ce3c 24bf 876d e0be 9f4b 11bf c42f 2cbf
00000070: cd5b b4be 0b7a 6cbf 5269 1dbf 510b 44bf
00000080: 2ae5 e5be 3501 e9be 5bad 0dbf 82a7 a4be
00000090: fcbe efbe a224 3bbf 445e 9ebe 3e06 903d
000000a0: 06d0 0bbe 401c e0be b683 d6be 33aa eabe
000000b0: 1c24 0abe 8079 1abf e78b e5be b911 8fbe
000000c0: 3283 5bbf 5b4d fcbe cbc5 e43d 893f b0be
000000d0: 3001 d5be 14b9 1abf ee3b 12bf 4572 ecbe
000000e0: 3095 f8bd 416c 5abf 9931 51bf c888 b4be
000000f0: 1ee9 debe 3682 e5be 2212 bebe 3384 1bbf
00000100: 92df 03bf 3dbf 1ebf 4248 4cbe 5ff1 4bbe
00000110: 0997 01bf 9ee2 1cbf 470b 13bf 7a58 1fbf
00000120: 3d7d 49bf 0f7b 0cbf 8a12 2abf 77f4 e8be
00000130: 0267 e7be 4680 d7be 5387 a23d 9033 01bf
00000140: b294 56be c694 32bf 2742 f1be c5ac d6be
00000150: c238 0fbf 0664 b1be 0993 1cbf 4f02 5abe
00000160: da65 11bf 01b2 cbbe 6ed9 7bbe d2f3 c0be
00000170: 6428 37bf 4476 d9be c62e 29bf 6594 e5be
00000180: f3c8 8f3d 8fe4 83be 2db9 1b3e 93df febe
00000190: e685 adbe adc8 06bf e559 5fbf ae59 10bf
000001a0: c36f 833e c1fb 00bd 1226 06bf a995 07bf
000001b0: fb43 45bf 6e2b 42bf 904e aabe 2a81 25bf
000001c0: 089e 97be f0f9 1dbf 5275 f3be c854 e2be
000001d0: db63 9abe 9e97 aabe 1d86 13bf 295b d1be
000001e0: 8b5e 9cbe d3fb 08bf d61c 46bf 2009 f03d
000001f0: 0d7d 09bf e120 3bbf 5ef7 52bf 8325 d6be
00000200: 6ad2 4cbe 6864 9ebe dae4 c6be cd39 2fbf
00000210: 82b1 15bf bd34 e5be 00a4 f3be f570 0dbf
00000220: 00f4 29bf 5c57 1dbf 66bf 11bf 06b0 44bf
00000230: f2d9 9b3d 52d6 98be d7cc dbbe 48e7 1ebf
00000240: d257 35bf ecfa 5cbf 5aeb 36bf aea1 17bf
00000250: 1885 32be f7c8 d3be 331b ebbe 2167 2d3e
00000260: 1d89 29bf 5200 3abf 02e4 bebe 6fc8 1ebf
00000270: 18fe 18bf ef5b 36bf 7eec 89bf c5bf 06bf
00000280: b7d0 62bf e00b adbe a65b 2dbf 5bd9 22bf
00000290: 4c1f 84be afd1 08bf 7435 85be 2c23 16bf
000002a0: 3927 42bf af1d 0ebf 66c2 4cbf d0b5 83bf
000002b0: f79a 4cbf de64 d2be 2478 c0bd 5f7b 3bbf
000002c0: 1463 20bf 8cab edbe 250f febe c1f3 71be
000002d0: c164 e9be 1181 00bf 9c68 07bf 26c6 25bf
000002e0: d1ed 1fbf 2172 3fbf e58d 80bf b1a7 44bf
000002f0: b543 18bf 838e 0dbf 93a4 0abf 6274 2dbf
00000300: a96a 63bf 7a20 21bf 0344 80bf 3efc 22bf
00000310: 8649 12bf 03b3 edbe c2a1 6dbf f3ef 08bf
00000320: 3542 8dbd 6fe7 f6be 5fa9 363d 20a9 46bf
00000330: 8093 0cbf c2fe eabe 37e4 1cbf 6cc1 edbe
00000340: ee00 2ebf 9158 3cbf 0852 f8bc c2ab 40bf
00000350: 0130 58bf 065d 27bf 6405 12bf bb1b 623e
00000360: c3d1 e9be 5e4c bfbe f8fa 04bf 3056 81be
00000370: 6896 98be 117a 8ebe 4b23 03bf abe0 0fbf
00000380: 081c c9be 7a26 37bf 08ac f5be 5f9d c4be
00000390: ace9 03bf 86a6 61be 8a3b 09bf 6d49 c4be
000003a0: b9e1 c3be eb4d 0fbf e940 3cbf bd54 fabe
000003b0: f9a1 26bf 94e5 b4be 4949 6abf 3f46 1fbf
000003c0: a3da 1ebe e59e 23bf 973d 19bf c4d8 03bf
000003d0: b580 97be 86d4 09bf 162d 2ebd 0659 39bf
000003e0: eeed 13bf ee3d c3be 8abc 1bbf 149d b1be
000003f0: 4991 813d 69f7 fdbe 8e6e 08bf 8d53 5dbf
-0.28514618 -0.70198643 -0.71707046 -0.286827 -0.3896014 -0.7005408 -0.49232572 -0.4986321
-0.59286094 -0.609252 -0.65470344 -0.6386537 -0.45783564 -0.63811845 -0.44220582 -0.52928954
-0.5879417 -0.50147134 -0.74927676 -0.71223265 -0.62986815 0.16683975 -0.8356103 -0.7324366
-0.6415528 -0.43833563 -0.56756014 -0.67260385 -0.35226288 -0.9237372 -0.6148883 -0.7657977
-0.449014 -0.45508733 -0.55342644 -0.32159048 -0.46825397 -0.7310277 -0.30931294 0.070324406
-0.13653573 -0.43771553 -0.41897362 -0.45832977 -0.13490337 -0.60341644 -0.448333 -0.2794321
-0.85747063 -0.49277768 0.111705385 -0.34423473 -0.41602468 -0.60438657 -0.57122695 -0.4618093
-0.1213783 -0.8532143 -0.81716305 -0.35260606 -0.4353723 -0.44825906 -0.3712321 -0.60748595
-0.51513016 -0.62010556 -0.19949439 -0.19916295 -0.50621086 -0.6128329 -0.5743908 -0.6224438
-0.78706723 -0.5487527 -0.6643454 -0.45499012 -0.45195776 -0.42090052 0.07935967 -0.50469303
-0.2095516 -0.6975826 -0.47120783 -0.41928688 -0.5594598 -0.34646624 -0.6116186 -0.21289943
-0.5679604 -0.39784244 -0.24594662 -0.3768602 -0.71546006 -0.42473042 -0.66086996 -0.4483978
0.0702075 -0.25760314 0.15207358 -0.4977995 -0.3389122 -0.52649957 -0.87246543 -0.5638684
0.25671205 -0.03149009 -0.5240184 -0.5296274 -0.77056855 -0.7584752 -0.33263063 -0.64650214
-0.29612756 -0.617095 -0.47550446 -0.44205308 -0.3015431 -0.333188 -0.57626516 -0.40889862
-0.3054088 -0.53509253 -0.7738775 0.117204905 -0.5370644 -0.73097044 -0.824087 -0.41825494
-0.20002142 -0.3093598 -0.38846475 -0.6844757 -0.5847398 -0.447668 -0.4758606 -0.55250484
-0.6638794 -0.61461425 -0.56932676 -0.7683109 0.07609929 -0.29851013 -0.42929718 -0.6207166
-0.7083713 -0.86320376 -0.7145287 -0.5923108 -0.17433584 -0.41364262 -0.4591919 0.16933872
-0.66224843 -0.7265674 -0.3728333 -0.6202459 -0.59762716 -0.7123403 -1.0775297 -0.5263637
-0.88599724 -0.33798122 -0.6771797 -0.6361291 -0.25805128 -0.5344495 -0.26017344 -0.5864742
-0.758411 -0.55514044 -0.7998413 -1.028986 -0.7992396 -0.4109258 -0.09397915 -0.73235124
-0.6265118 -0.46419942 -0.4962093 -0.23628141 -0.45584682 -0.5019694 -0.52893996 -0.64755476
-0.62472254 -0.7478352 -1.0043303 -0.76818377 -0.5947831 -0.5529558 -0.5415737 -0.6775571
-0.88834625 -0.6294018 -1.0020756 -0.6366614 -0.5714344 -0.46425638 -0.9282495 -0.53491133
-0.068973936 -0.48223445 0.04459512 -0.77601814 -0.5491257 -0.4589749 -0.6128573 -0.46436632
-0.6797017 -0.7357264 -0.030312553 -0.7526208 -0.8444825 -0.6537632 -0.57039475 0.22080891
-0.45667848 -0.3736295 -0.5194545 -0.25261068 -0.2980225 -0.27827504 -0.5122573 -0.5620219
-0.392792 -0.71543086 -0.47982812 -0.38401315 -0.5152843 -0.2203618 -0.53606474 -0.3833727
-0.3825815 -0.5597827 -0.73536545 -0.48892775 -0.650909 -0.35331404 -0.91518074 -0.6221656
-0.15513091 -0.6391433 -0.59859604 -0.51502633 -0.29590383 -0.5383991 -0.042523466 -0.72401464
-0.57784927 -0.38133186 -0.6083456 -0.34690154 0.06326539 -0.4960282 -0.53293693 -0.86455613

net.5.weight f4 [256]
00000000: 476e 0140 ab71 b740 3d89 9c40 3fd9 b840
00000010: d724 9d40 b96d a340 03eb 8b40 4fc3 a040
00000020: c11b c040 6460 9e40 1224 8d40 c014 b440
00000030: b690 8640 02a4 ce40 3f2b 8b40 73c2 9f40
00000040: e903 8340 59f2 b940 1129 1540 294a b140
00000050: adad a040 3bef 0a41 2840 c240 1f73 c140
00000060: babc c240 98e2 3340 b314 a340 5bba 9540
00000070: 749d 943f 8aad 2340 7fcd 9040 0772 bc40
00000080: 3d84 5640 d19a b340 3fd1 b140 fe74 6e40
00000090: 0f55 a540 1ceb a640 dab9 8640 2ef3 0141
000000a0: 27ec 0640 008c 5940 09cd 7140 af7a 9840
000000b0: ae08 8bbf 3a6d 7840 e991 ac40 a649 3640
000000c0: 6d31 6440 f311 8940 5e2d 0f41 dc2c 8540
000000d0: 6a2d ab40 173a 7840 11e4 6340 4f36 6a40
000000e0: 9d5f f23f d79b a140 9a0c 9140 e8fb b240
000000f0: c38e db40 181e 7e40 fc56 c73f adab 9340
00000100: 0efb 9f40 a4bc b640 1482 0040 4ef2 a23f
00000110: 03e9 8e40 1538 b640 9269 8340 aa69 1f40
00000120: 5293 483b 28bf ac40 04d7 c840 375f a740
00000130: 4430 8940 5401 a840 f019 e940 2cb6 d340
00000140: 5d99 8640 c90f 6c40 122c 8e40 a7a6 5840
00000150: 7c01 3940 cbc7 d840 74f2 8240 a5cc 223f
00000160: 4d1f 3f40 92bd 0c40 f22a bf40 90ec bb40
00000170: 8e13 9940 d7d3 a740 cacc 5640 680a 3b40
00000180: efb8 0241 0b31 2940 f7d5 0d41 04d2 5340
00000190: 0322 3240 aa55 8640 1628 a93f be14 4940
000001a0: 3f51 3841 ce8d dc40 213b 6940 183a 4440
000001b0: cf37 9440 b1bc c340 e52b 7840 b8eb d840
000001c0: 48f2 ad3f db4f fb3f 4979 5d40 6c26 8b40
000001d0: a7ca e03e a6ac 9340 5f5b 7a40 e12b a640
000001e0: d869 5840 5f60 8240 04a5 9640 91b1 43be
000001f0: 01fd 6240 b018 d040 a1f4 ac40 7f5c 8940
00000200: d98a 3c40 9d1a b740 fb36 ab40 0824 6940
00000210: d817 9f40 5f90 bb40 113a 9d40 7a3c a840
00000220: c014 b340 d04b c040 42c4 6040 b86b ef3f
00000230: bfbd 3641 9c9f 8a40 e031 af40 826c f040
00000240: e028 b740 952b c640 0ee0 8340 4f68 9b40
00000250: 9e7c febf 6ce2 7a40 c6f5 a840 d1bb 1f41
00000260: 1efb 3b40 271b 1d40 329e 8c40 f2f4 9340
00000270: 8a40 a040 9bfd c040 6a85 ab40 13c5 bb40
00000280: da31 d740 8159 46bf c5da f63f 3f1c b040
00000290: 420e b340 9715 7940 d4a0 8a40 fc9b d640
000002a0: ca58 b740 c281 9f3f 0393 c240 660c a140
000002b0: 678e cb40 577a 9b40 bf97 06bf dd1b 7340
000002c0: b5cc d740 1d0a 9440 dccc 6540 4ecb 07bf
000002d0: 1fb1 af40 70b5 af40 d54b 8840 2bab 9340
000002e0: 2ed0 bd40 bc06 d740 78e3 8140 d82f 8c40
000002f0: a96b 7240 0483 ca40 5d2d cd40 e0b4 b240
00000300: 917d 5e3e 940b e840 bb63 9540 e3bd cf40
00000310: 6855 6c40 2664 a640 9b51 7b40 0825 4f40
00000320: e30f 2c40 458a d240 90aa a540 c211 a840
00000330: 1fa2 9c40 7cb7 873f b920 b240 29f1 c040
00000340: 1f6f d440 0f0b d140 4c6d 19c0 a9ab 9d40
00000350: e3a5 1640 4bfb 4d40 ab52 9840 1110 0741
00000360: 74a3 a840 c56d 8540 d34a a640 1e35 bf40
00000370: bfb4 bfbf 703f a63e 54a6 f140 ec65 ba40
00000380: fa4a b640 44dc 7440 5d92 ff3e c647 433f
00000390: 1a07 cc40 0048 c2be 747c 8740 ed3b 8140
000003a0: 962d c940 a6fc b040 d904 2240 f79d 5940
000003b0: 1c41 8240 93be ba40 6fd9 0840 8682 bd40
000003c0: bace 55be f94c 3f40 50a7 bf40 d803 d440
000003d0: 391f 7140 6f2a 9940 dcae 3f3f 2cf0 4740
000003e0: d3f7 bd40 dd41 f63f 3db8 9e40 fd9f 8540
000003f0: 4b0a f740 9514 9a40 1d09 b240 5de6 2240
2.0223558 5.7326255 4.8917527 5.7765193 4.910747 5.107144 4.372438 5.0238414
6.003388 4.9492664 4.410653 5.627533 4.205165 6.4575205 4.349029 4.9924865
4.0942273 5.8108335 2.3306315 5.5403028 5.0212007 8.683406 6.0703316 6.045303
6.085538 2.8107052 5.0962768 4.6789985 1.1610551 2.557467 4.525085 5.8889194
3.3518212 5.6126485 5.5567927 3.7258906 5.166633 5.2162 4.210187 8.12187
2.1081636 3.39917 3.7781394 4.764976 -1.0862024 3.8816667 5.3928113 2.8482451
3.5655167 4.283441 8.948576 4.161726 5.3492937 3.8785455 3.560795 3.6595647
1.8935429 5.0502734 4.5327883 5.5932503 6.861177 3.9705868 1.557342 4.6147065
4.9993963 5.7105274 2.0079393 1.2730196 4.465944 5.694346 4.106637 2.4908242
0.0030605388 5.3983345 6.276247 5.230373 4.287142 5.250162 7.284416 6.615988
4.206221 3.6884634 4.4428797 3.3851717 2.8907156 6.774389 4.0920963 0.6359351
2.9862854 2.1990705 5.9739923 5.8726273 4.783637 5.2446094 3.3562493 2.9225101
8.17015 2.6436183 8.8647375 3.3096933 2.783326 4.197957 1.3215358 3.141891
11.519835 6.89231 3.644234 3.0660458 4.6318126 6.1167836 3.877679 6.7787743
1.3589563 1.9633745 3.4605277 4.34844 0.4390461 4.6148252 3.9118268 5.1928563
3.3814602 4.074264 4.7076435 -0.19110705 3.5466921 6.5030136 5.404862 4.292541
2.9459746 5.7219987 5.3504615 3.6428242 4.9716606 5.8613734 4.913338 5.2573824
5.596283 6.0092545 3.5119786 1.8704748 11.421325 4.3319836 5.4748383 7.5132456
5.7237396 6.19282 4.1211004 4.856483 -1.988178 3.9200697 5.2800016 9.983354
2.937202 2.4547822 4.394311 4.6236506 5.0078783 6.0309577 5.360036 5.867807
6.7248354 -0.7748032 1.9285513 5.503448 5.5954905 3.8919427 4.3321323 6.706541
5.7295885 1.2461474 6.080446 5.0327635 6.361133 4.858684 -0.52575296 3.7985756
6.7437387 4.6262345 3.5906286 -0.53044593 5.490371 5.490898 4.259257 4.6146445
5.9316626 6.719572 4.059017 4.3808403 3.787821 6.328493 6.4117875 5.5845795
0.21727587 7.2514133 4.668424 6.4919295 3.6927128 5.199725 3.9268558 3.2366352
2.6884696 6.5793786 5.1770706 5.2521677 4.89479 1.060287 5.5664945 6.0294385
6.6385646 6.5326 -2.397296 4.9272046 2.353875 3.2184627 4.7600913 8.441422
5.269953 4.1696496 5.196634 5.975234 -1.4977034 0.32470274 7.5515537 5.8249416
5.6966524 3.825944 0.49916354 0.7628139 6.375867 -0.37945557 4.233942 4.038565
6.2868147 5.530841 2.5315459 3.4002664 4.070448 5.8357635 2.138271 5.922183
-0.20879641 2.989073 5.989174 6.625469 3.7675307 4.78643 0.7487619 3.124034
5.936502 1.923885 4.95999 4.17578 7.7200065 4.8150125 5.5636125 2.5453103

net.5.bias f4 [256]
00000000: 9fad 1fc0 f79b 2240 a11a 2440 42eb 2440
00000010: 07ca 2140 4de7 2440 3a57 2340 8015 2540
00000020: b60c 1c40 f615 2140 0b6a 2140 6782 2140
00000030: 6619 2640 6030 2640 12b5 2440 0620 22c0
00000040: 586f 2640 2a5e 2440 ce58 2340 07a0 2340
00000050: 98ba 1e40 3fa6 24c0 8acd 2440 0378 2340
00000060: 4f74 2540 2735 22c0 bc74 2240 323b 2540
00000070: 4874 21c0 15cd 2340 90f7 2240 ff70 2340
00000080: 5ab3 0240 26d2 2540 a24e 2340 d488 21c0
00000090: 7219 2040 a9da 2840 4a63 2440 899f 24c0
000000a0: 2914 20c0 f291 20c0 92e4 2440 1333 2340
000000b0: 516e 1dc0 9811 2340 cf03 2240 3cfb 2040
000000c0: e632 21c0 4cb2 2440 0a9c 25c0 f765 2540
000000d0: 3909 1540 2a9c 2440 1cc1 2440 55e2 2640
000000e0: a4a5 20c0 6df9 1f40 dc00 2540 4842 2540
000000f0: d05f 1d40 a0c4 2240 f3eb 1fc0 a6ee 2440
00000100: 95b2 2540 56fe 2440 9b42 20c0 a197 1fc0
00000110: c482 1e40 c8e1 2040 1d80 2640 a9ee 2540
00000120: 4a1a 1dc0 fa5f 2540 64bf 2340 5c40 2540
00000130: 71c7 2740 d7bc 2540 34b7 25c0 a3eb 2140
00000140: 4c98 2440 c401 2340 a533 2540 2d0a 2640
00000150: fa6c 2540 3e01 2440 a20d 2640 098f 1fc0
00000160: adad 20c0 a9db 1fc0 e83c 2540 758a 2440
00000170: 4d88 2540 fe5a 2040 9a1c 2040 7b32 2540
00000180: 1a1d 25c0 4a10 0340 abfe 24c0 c9d7 2340
00000190: be4f 2540 910b 22c0 8e3e 1ec0 1881 2540
000001a0: 5906 25c0 13b7 24c0 e0bf 2240 b7b1 2440
000001b0: 7799 2040 96d8 2340 763e 1340 0638 2740
000001c0: 6f75 21c0 5309 2740 3080 2540 4412 2540
000001d0: 9165 1ec0 4418 22c0 bbd0 2040 5ba3 2240
000001e0: a74c 1440 400b 2540 d6c3 1f40 5d7b 1ec0
000001f0: 9226 2540 255b 1c40 403b 22c0 ed5f 2440
00000200: 09e4 20c0 f3ce 2440 3429 2540 78b1 2340
00000210: e6f9 2440 eaa3 2440 5e4d 2340 20d7 2340
00000220: 2275 2640 50f6 2440 0cec 2040 6693 2740
00000230: 7ec5 25c0 ea6a 2340 dab4 2540 5853 22c0
00000240: 79ee 2040 c07f 2140 99a3 2040 92da 2440
00000250: de97 1cc0 bbe1 2440 9e2a 2140 8cdc 24c0
00000260: 9963 2640 f873 1fc0 961f 0540 09e0 2440
00000270: 325e 2340 02bf 2340 ecc2 21c0 e0ee 2440
00000280: 5b28 22c0 0c8c 1dc0 de47 2640 3e1a 2140
00000290: cda7 0440 d692 2340 18d6 2340 3749 2440
000002a0: 626b 1c40 49f3 1ec0 8444 2040 f117 1f40
000002b0: 97be 2040 ab5d 2440 56bd 1cc0 5c48 2740
000002c0: c06c 2340 6df9 2440 3671 2440 d18f 1ec0
000002d0: f0c9 2240 6c6e 2540 7fe6 2040 b045 2040
000002e0: fe2c 2540 4e0e 1a40 2e62 2240 e295 1d40
000002f0: 0d3f 2540 0a56 2540 9abe 2140 f4e6 2440
00000300: e7dc 0940 9b17 2440 bf58 2540 86a0 2340
00000310: 4909 2540 1240 2440 d931 2240 ff15 21c0
00000320: dfae 21c0 2eef 2440 bd51 0e40 e852 22c0
00000330: 3a73 2440 7856 1dc0 fb5c 2640 541f 2240
00000340: 41dd 1e40 622d 1f40 9eda 1cc0 1c96 1c40
00000350: b8e1 2540 16e1 2540 cbf9 2240 4a86 25c0
00000360: 1cc9 2240 257e 21c0 5986 2440 62c3 2440
00000370: 6221 1dc0 4993 1dc0 bcd3 2540 a7ef 2440
00000380: 32f0 2240 3281 2440 d348 1dc0 c12f 1ec0
00000390: 8ed2 2340 1605 febf 67c8 2140 aec2 2440
000003a0: 820f 2440 8c84 2140 5a1f 2540 b087 1f40
000003b0: c9b1 1f40 7d05 2440 7eea 2440 25aa 1e40
000003c0: e5ba 19c0 14ec 2540 9df0 2540 206b 1d40
000003d0: b895 2540 293d 2140 a080 20c0 1bbc 2440
000003e0: 33a9 2440 022e 20c0 df93 2240 3242 2240
000003f0: 01df 24c0 a265 2440 21c3 2440 5e11 2440
-2.494972 2.5407693 2.5641253 2.576859 2.5279558 2.5766175 2.552199 2.5794373
2.4382758 2.5169654 2.5220973 2.5235841 2.5953002 2.5967026 2.5735517 -2.5332046
2.600546 2.5682473 2.5522952 2.5566423 2.4801388 -2.5726469 2.575045 2.5542
2.585224 -2.5344942 2.538375 2.581738 -2.5227222 2.5593922 2.54636 2.5537717
2.0421968 2.5909514 2.5516744 -2.5239763 2.501553 2.638346 2.5685601 -2.5722373
-2.5012305 -2.5089078 2.5764508 2.5499923 -2.4598582 2.5479488 2.5314825 2.5153341
-2.5187316 2.5733824 -2.5876489 2.5843484 2.328688 2.5720315 2.5742865 2.6075642
-2.51011 2.4995987 2.5781775 2.5821705 2.458973 2.543251 -2.4987762 2.577066
2.5890248 2.5780234 -2.5040653 -2.4936297 2.4767313 2.5137806 2.6015694 2.5926917
-2.4547296 2.583983 2.5585566 2.5820532 2.621548 2.5896509 -2.5893068 2.5300071
2.5717955 2.5469828 2.5812771 2.594371 2.5847764 2.5625758 2.594582 -2.4931052
-2.5106003 -2.497782 2.5818424 2.5709507 2.5864441 2.5055537 2.5017457 2.581206
-2.5799012 2.0478692 -2.5780437 2.5600455 2.582992 -2.531956 -2.472568 2.5860043
-2.5785124 -2.573674 2.5429611 2.5733469 2.5093668 2.5600944 2.3006873 2.6127944
-2.5227926 2.609944 2.585949 2.5792398 -2.4749491 -2.532731 2.51274 2.5412204
2.3171785 2.5788116 2.4963279 -2.4762795 2.5804791 2.443063 -2.5348663 2.5683548
-2.5139182 2.5751312 2.5806398 2.5577068 2.5777526 2.5725045 2.551597 2.5600052
2.6008992 2.5775337 2.5144072 2.6183715 -2.590179 2.5534005 2.5891633 -2.536337
2.5145552 2.5234222 2.5099852 2.5758405 -2.4467692 2.5762775 2.5182261 -2.575961
2.599829 -2.4914532 2.0800529 2.576174 2.5526242 2.5585332 -2.527522 2.5770798
-2.533713 -2.4616728 2.5981364 2.5172267 2.0727417 2.5558372 2.5599422 2.5669687
2.4440541 -2.483599 2.5041819 2.4858363 2.5116327 2.568217 -2.4490561 2.6137915
2.5535126 2.5777237 2.5694098 -2.4775279 2.5435753 2.5848646 2.5140684 2.5042534
2.580871 2.407123 2.5372424 2.4622731 2.5819733 2.5833764 2.5272584 2.5765963
2.1541078 2.5639408 2.5835416 2.5566726 2.5786917 2.5664105 2.5342925 -2.5169675
-2.5262983 2.5770984 2.223739 -2.5363102 2.5695329 -2.4584026 2.599425 2.533162
2.4822543 2.487145 -2.4508433 2.446662 2.5919018 2.5918632 2.5464962 -2.5863214
2.5435247 -2.5233243 2.5707 2.5744252 -2.4551625 -2.4621146 2.5910482 2.5771272
2.5459104 2.5703855 -2.4575698 -2.4716647 2.5597262 -1.9845302 2.5278566 2.5743823
2.5634465 2.523715 2.5800385 2.4926567 2.4952261 2.562835 2.5768123 2.4791348
-2.4020321 2.592534 2.5928109 2.4596634 2.587263 2.519358 -2.5078506 2.573981
2.572827 -2.502808 2.5402753 2.5352902 -2.576111 2.5687032 2.5744097 2.56356
