models/level3_complex/checkpoint_ep50/adversary_0.pth (torch, 677986 bytes, 44 tensors)

network.0.weight f4 [128, 16]
0	0xbda16e44	-0.078823596
1	0xbe5e9851	-0.21737792
2	0xbc75ec1c	-0.015009906
3	0xbe02f821	-0.12789966
4	0x3e652dc4	0.2238074
5	0x3e1fabe1	0.1559291
6	0xbe085dce	-0.13317034
7	0x3e6d9a80	0.23203468
8	0x3e7e3fbd	0.24829002
9	0xbd98a578	-0.07453436
10	0xbe281f05	-0.16418083
11	0x3df4b356	0.11948268
12	0xbc179c71	-0.009253607
13	0xbd97bad7	-0.07408684
14	0xbdbacda0	-0.09121251
15	0x3dbc5b6c	0.09197125
16	0x3dedf9f0	0.116199374
17	0x3dd49b78	0.10381216
18	0x3dd85ccd	0.10564575
19	0xbe3729bd	-0.17887016
20	0xbe70a244	-0.234994
21	0x3e7576ea	0.23971143
22	0x3d4b5389	0.049640212
23	0xbd0d5959	-0.034509037
24	0x3d0d9018	0.034561247
25	0xbdd44464	-0.10364607
26	0xbe4fddb3	-0.20299415
27	0x3c8f92e4	0.017526098
28	0xbdf12378	-0.11774343
29	0xbde3c270	-0.111210704
30	0xbd82afd8	-0.06381196
31	0x3d90aa20	0.07063699
32	0x3c3a5973	0.011373865
33	0xbe4889ec	-0.19583863
34	0xbe7259ae	-0.23667023
35	0xbd15b8ab	-0.036553066
36	0xbc255bdf	-0.010092705
37	0x3e727d9c	0.23680729
38	0x3e3544c7	0.17702018
39	0xbe4fbbfe	-0.20286557
40	0xbd7c5eff	-0.061614033
41	0x3dcb0690	0.09913361
42	0xbaf356d2	-0.0018565303
43	0x3c8df2aa	0.017327625
44	0xbe6cbb26	-0.23118266
45	0x3bc5b23b	0.0060332096
46	0xbdc7fec1	-0.09765387
47	0xbde31632	-0.11088218
48	0x3cbffa33	0.023434734
49	0xbddd1614	-0.10795227
50	0x3e56ff7b	0.20995896
51	0xbd89a491	-0.06720842
52	0xbe4a0e2f	-0.19731973
53	0x3c8f4ed9	0.017493652
54	0x3e3e49b9	0.1858281
55	0xbd93e65a	-0.072216704
56	0x3c82a726	0.015948843
57	0xbe606e91	-0.21917178
58	0xbdfe0d08	-0.12404829
59	0xbe6cf434	-0.23140031
60	0x3e12108f	0.14264129
61	0xbe269ad6	-0.16270003
62	0xbe63b4b0	-0.22236896
63	0x3df40363	0.119147085
64	0x3dc4fcbe	0.09618519
65	0xbd6d3758	-0.057914108
66	0xbe4ecf9b	-0.20196383
67	0xbe12a35e	-0.14320132
68	0x3e1de4f4	0.1541937
69	0xbd8cc588	-0.068736136
70	0xbda7a58e	-0.08185874
71	0xbe23ab65	-0.1598335
72	0x3d2c5779	0.042075608
73	0x3e719501	0.23591997
74	0x3e77338d	0.24140759
75	0xbe51fd59	-0.205068
76	0x3d331e01	0.043729786
77	0x3d8bffbb	0.06835886
78	0xbd0d34a1	-0.03447402
79	0x3e290188	0.1650449
80	0xbdd32b33	-0.10310974
81	0xbd434dbb	-0.04768155
82	0xbe2824e8	-0.16420329
83	0x3c9d107b	0.019172898
84	0xbe0a9c79	-0.13536252
85	0xbe64dbfd	-0.22349544
86	0x3e65d68f	0.22445129
87	0xbe7a5078	-0.24444759
88	0x3deaec83	0.11470892
89	0xbcdebd7a	-0.027189959
90	0x3b1ad7b3	0.0023627102
91	0xbda53e85	-0.08068565
92	0x3c22d702	0.009938957
93	0x3e370d88	0.17876256
94	0xbda5d72b	-0.08097681
95	0xbe3712cc	-0.17878264
96	0x3e19719f	0.1498475
97	0xbb034d55	-0.0020035107
98	0x3e3cff1d	0.18456693
99	0xbdb40e68	-0.0879181
100	0x3d0a6424	0.033786908
101	0xbdc392de	-0.09549497
102	0xbdefd46e	-0.117104396
103	0xbe1958a8	-0.14975226
104	0xbe256a43	-0.16153817
105	0xbe00ce5f	-0.12578724
106	0x3e09399c	0.13400882
107	0x3dd78b92	0.10524668
108	0x3afaf5ca	0.0019146737
109	0xbdb8bece	-0.09020768
110	0xbdd91172	-0.105990306
111	0xbdc3b81c	-0.095566005
112	0xbd96adce	-0.07357369
113	0x3dad1b37	0.084524564
114	0xbe15340f	-0.1457064
115	0x3e49af86	0.19695863
116	0xbdf30433	-0.11866035
117	0x3e196df1	0.14983346
118	0x3d329e09	0.043607745
119	0xbe6ad056	-0.22931036
120	0xbd1ec372	-0.03876061
121	0x3da61b74	0.08110705
122	0x3e09816a	0.13428274
123	0xbe5cbb53	-0.21555834
124	0x3db5b173	0.088717364
125	0xbbddebe7	-0.0067725065
126	0x3defa62f	0.11701619
127	0xbc8e4720	-0.0173679
128	0x3d337257	0.043810215
129	0xbe7903bc	-0.24317831
130	0x3e3a9a8a	0.18223014
131	0x3d8e4eb1	0.06948603
132	0xbdb9e082	-0.090760246
133	0xbd82a584	-0.06379226
134	0x3e4a7cdc	0.19774193
135	0xbe370825	-0.178742
136	0x3deb6b6a	0.11495097
137	0x3bbf317b	0.005834756
138	0x3e152c1e	0.1456761
139	0x3e0fdd94	0.14049369
140	0x3dce8325	0.100836076
141	0xbe18f4f9	-0.149372
142	0xbe2ee7dc	-0.17080635
143	0xbd0a040e	-0.033695273
144	0x3d94f93c	0.072741
145	0x3dac0e0c	0.08401117
146	0xbdc2f7f5	-0.0951995
147	0xbe50796c	-0.20358819
148	0xbe1319ae	-0.14365265
149	0xbdf27001	-0.11837769
150	0x3e1a9635	0.15096362
151	0x3e667d50	0.2250874
152	0x3df1c91e	0.11805938
153	0x3dc75121	0.09732271
154	0xbe417a0a	-0.1889421
155	0xbe42d8bd	-0.19027992
156	0x3df65b58	0.12029141
157	0x3d1ed513	0.038777422
158	0xbe62fc51	-0.22166564
159	0x3dee89fa	0.11647411
160	0xbe36035f	-0.17774723
161	0x3e1757c2	0.1477957
162	0x3e7e50b3	0.24835472
163	0xbe28bc69	-0.16478123
164	0xbe645bae	-0.22300598
165	0xbe436f5e	-0.19085452
166	0xbd9cad05	-0.07650188
167	0x3e4d59ea	0.2005383
168	0x3e34091e	0.17581603
169	0x3d1b6004	0.037933365
170	0x3c843cbc	0.016142242
171	0x3e7a1bda	0.24424687
172	0x3e56b6e6	0.20968208
173	0xbdf00d1b	-0.1172125
174	0x3e03de3d	0.12877746
175	0xbe3defa9	-0.18548454
176	0xbd8a9544	-0.067667514
177	0xbd2156f3	-0.03938956
178	0xbdbec9f1	-0.09315861
179	0xbe79637c	-0.24354357
180	0x3e4bd8e0	0.1990695
181	0xbe16de33	-0.147332
182	0xbe78a4c6	-0.24281606
183	0xbd624e2d	-0.055250335
184	0xbdf522e2	-0.11969544
185	0x3d276511	0.04086787
186	0x3da570f9	0.080781884
187	0x3df86ab1	0.12129725
188	0xbccd995c	-0.025097542
189	0xbd97872e	-0.0739883
190	0xbdc02bb5	-0.093833365
191	0xbe00bff3	-0.12573223
192	0x3e379242	0.17926887
193	0xbe37c224	-0.17945153
194	0xbd004fd7	-0.03132614
195	0xbd935306	-0.0719357
196	0xbdfb581c	-0.12272665
197	0x3de8ab2c	0.113607734
198	0xbe0ff373	-0.14057712
199	0x3e5ef999	0.21774901
200	0xbdc4fc71	-0.09618462
201	0xbdb21607	-0.08695608
202	0x3e1edda9	0.15514244
203	0x3e39a8f2	0.18130854
204	0x3e50f160	0.20404577
205	0x3de85816	0.11344926
206	0x3d32f2fb	0.043688755
207	0x3d0761b8	0.033052176
208	0x3e1541f1	0.14575936
209	0xbe4297f8	-0.19003284
210	0xbd508d5b	-0.050916057
211	0xbdcdd7b4	-0.10050908
212	0xbe51ccd1	-0.20488288
213	0x3d6a9f69	0.05728093
214	0x3c6d9bbe	0.014502464
215	0xbe47c241	-0.19507696
216	0xbe0daca4	-0.13835388
217	0x3d8fd353	0.07022729
218	0xbd475459	-0.048664425
219	0xbd5fc9b4	-0.05463572
220	0x3db20bdb	0.086936675
221	0x3de12670	0.109936595
222	0xbe1be2ee	-0.15223286
223	0x3d0aa153	0.033845257
224	0x3c3d9386	0.011570817
225	0x3de10790	0.109877706
226	0x3df91bf0	0.12163532
227	0x3cf2eea7	0.029654814
228	0xbe7be9b9	-0.24600877
229	0x3de2f75b	0.110823356
230	0x3e4ff409	0.20307936
231	0x3e214f88	0.15752995
232	0xbe1a8761	-0.15090705
233	0x3df1991a	0.1179678
234	0xbe47871b	-0.19485132
235	0xbe4188d9	-0.1889986
236	0x3e2230b1	0.15838887
237	0xbda00c8e	-0.078148946
238	0x3ddeae76	0.108731195
239	0x3dbf29e3	0.09334161
240	0x3e518379	0.20460309
241	0x3e55b054	0.20868045
242	0xbdd17e04	-0.10229114
243	0x3e1c385d	0.15255876
244	0x3e61c520	0.22047853
245	0xbdf74fa1	-0.12075735
246	0x3c7ca30c	0.015419733
247	0xbdfaafa5	-0.12240533
248	0xbe7adb2c	-0.2449767
249	0x3e174c4d	0.147752
250	0x3e503f2a	0.20336595
251	0x3cee2c47	0.029073847
252	0xbca9fa84	-0.020749338
253	0xbc99ff25	-0.01879842
254	0x3e67a3ed	0.22621126
255	0xbe5af965	-0.21384199

network.0.bias f4 [128]
0	0xbcc6b6b6	-0.024257045
1	0x3db33f9c	0.08752367
2	0xbe63abbf	-0.22233485
3	0xbe94ce21	-0.29063514
4	0x3c805c45	0.015668998
5	0x3e30aaea	0.17252699
6	0x3e6fcec3	0.23418717
7	0xbd9b8f2d	-0.07595668
8	0x3e63ef6f	0.22259305
9	0x3e397062	0.18109277
10	0xbde2e995	-0.110797085
11	0xbe5e1b63	-0.21690135
12	0x3e4854c2	0.19563583
13	0xbe89d35c	-0.26919067
14	0x3d85ae4e	0.065273866
15	0xbea5742a	-0.3231519
16	0xbe993c7f	-0.29928967
17	0xbdeee13e	-0.11664055
18	0xbe931d9e	-0.28733534
19	0xbea24a60	-0.3169737
20	0x3d8d5051	0.06900085
21	0xbe93bdc0	-0.28855705
22	0x3eaf4e80	0.34239578
23	0x3df2a4cf	0.11847841
24	0x3d15b524	0.036549702
25	0x3ead3a3d	0.33833495
26	0x3e1d5fff	0.15368651
27	0xbea63c54	-0.32467902
28	0xbd64ec65	-0.055889506
29	0x3e640bcf	0.2227013
30	0xbe227f84	-0.15868956
31	0x3e85fa9d	0.26167765
32	0xbd861373	-0.065466784
33	0x3eb14fa1	0.34631065
34	0x3df61829	0.12016327
35	0x3dfcff1d	0.123533465
36	0x3ac3c164	0.0014934954
37	0xbe4c82a1	-0.19971706
38	0x3cd88bb3	0.026433801
39	0xbea122d6	-0.3147189
40	0xbb65bd63	-0.003505551
41	0x3ea17356	0.31533307
42	0xbe7d54f0	-0.24739432
43	0xbeb3e335	-0.35134283
44	0xbe4a5fcf	-0.1976311
45	0x3e2f0394	0.17091209
46	0x3e8e6a69	0.2781556
47	0x3c36b090	0.011150494
48	0xbe974fac	-0.29552972
49	0x3dd6425b	0.10461875
50	0x3e0bd5a3	0.13655715
51	0xbe36a491	-0.17836215
52	0xbea7b17b	-0.32752594
53	0x3dbded19	0.092737384
54	0xbe85a593	-0.26102886
55	0x3ea1366c	0.31486833
56	0x3e539bae	0.20664856
57	0x3e27c2ca	0.163829
58	0xbe25ad98	-0.16179502
59	0xbe204b34	-0.15653688
60	0xbdbc666b	-0.09199222
61	0xbce9841a	-0.028505374
62	0x3e68b9c2	0.22727111
63	0xbe14784f	-0.14499019
64	0x3df169ed	0.11787782
65	0xbdcb810e	-0.099367246
66	0x3e48ca12	0.19608334
67	0x3cd31463	0.025766557
68	0xbdcd05d9	-0.10010881
69	0x3e0c1a3e	0.13681886
70	0x3ea86dfa	0.32896405
71	0x3dd6d575	0.104899324
72	0x3eac671a	0.3367241
73	0x3e06701e	0.13128707
74	0x3e85c9dd	0.26130572
75	0xbd9c79a8	-0.076403916
76	0x3e8b80ff	0.27246854
77	0x3e124299	0.14283217
78	0xbe5381e6	-0.20655021
79	0xbd5eb039	-0.054367278
80	0xbe9fbb62	-0.3119765
81	0xbea6c708	-0.32573724
82	0xbea682bc	-0.32521617
83	0x3e770ca1	0.24125911
84	0xbe9313c3	-0.28726014
85	0x3e17375f	0.14767216
86	0x3e816a76	0.25276536
87	0x3e8bda03	0.27314767
88	0xbe695725	-0.22787149
89	0xbdb35e6a	-0.087582424
90	0x3d962876	0.07331936
91	0xbe8e5b4a	-0.27804023
92	0xbe9ae825	-0.30255237
93	0x3d6e86db	0.058234077
94	0x3e4804af	0.19533037
95	0xbe31a039	-0.17346276
96	0xbe836a98	-0.25667262
97	0xbddb48d1	-0.10707248
98	0x3e29ce96	0.16582713
99	0xbda8f51a	-0.082498744
100	0xbe019e40	-0.12658024
101	0xbc25189f	-0.010076671
102	0xbe4c1eab	-0.19933574
103	0x3e09518f	0.13410018
104	0xbe16a735	-0.14712222
105	0x3e65a3d5	0.22425778
106	0x3c943dc8	0.018095866
107	0x3a2dac10	0.00066250656
108	0xbd276757	-0.040870037
109	0x3ea590be	0.32336992
110	0x3e8833bd	0.26601973
111	0x3dbdb26b	0.09262546
112	0x3e9a4a03	0.3013459
113	0xbdc6b5f5	-0.09702674
114	0xbe8c19df	-0.27363488
115	0xbe5ef664	-0.21773678
116	0xbe910cd6	-0.28330106
117	0x3e4da536	0.20082554
118	0x3e62be77	0.22142969
119	0xbe24e8f9	-0.16104497
120	0x3e30ca47	0.17264663
121	0xbe87257b	-0.26395783
122	0x3e94c97c	0.2905997
123	0xbc906ebe	-0.017630931
124	0x3eac1ed8	0.33617282
125	0xbe8e29b2	-0.27766186
126	0x3e7b765c	0.2455687
127	0xbcbd06a9	-0.023074465

network.2.weight f4 [128, 128]
0	0xbd318d3c	-0.043347582
1	0x3dad9145	0.084749736
2	0x3d8aaae9	0.0677088
3	0xbd8d17f7	-0.068893366
4	0xbc9ac09f	-0.018890677
5	0xbc87dff4	-0.016586281
6	0x3d05b766	0.032645606
7	0xbdb65722	-0.08903338
8	0xbd5e9055	-0.054336865
9	0xbd8a2f67	-0.067473225
10	0x3d99b5d2	0.075053826
11	0xbd492a82	-0.049112804
12	0x3c658ab7	0.014010123
13	0x3d04426d	0.03228991
14	0xbbe5ec44	-0.0070166904
15	0xbdad1d24	-0.08452824
16	0x3db0d945	0.08635191
17	0x3d853072	0.06503381
18	0x3c58e11a	0.013237262
19	0x3bdef388	0.0068039335
20	0xbdae228b	-0.08502682
21	0x3da0dd55	0.07854716
22	0x3dac93b0	0.08426607
23	0x3d81ef7c	0.06344506
24	0x3d6ee311	0.058322016
25	0xbd976b49	-0.0739351
26	0x3d981941	0.07426692
27	0xbdb58769	-0.08863718
28	0x3d8946ab	0.06702932
29	0xbd9ab0a9	-0.075532265
30	0xbcd970ad	-0.026542986
31	0xbd6b4355	-0.05743726
32	0xbdb081a2	-0.086184755
33	0x3d46c0c3	0.048523676
34	0xbd888d0d	-0.06667528
35	0xbd6a0b2c	-0.05713956
36	0xbd6177d0	-0.055045903
37	0x3d4baa7d	0.049723137
38	0xbcc916a0	-0.024546921
39	0x3da756db	0.08170863
40	0x3bdf61eb	0.0068170927
41	0xbdb40663	-0.08790281
42	0x3ccf6bdc	0.025319986
43	0x3c447176	0.011989942
44	0xbda2b5dc	-0.07944843
45	0x3c18e065	0.009330844
46	0x3bcd23ee	0.0062603867
47	0xbda1daca	-0.07903059
48	0xbd4ebcee	-0.050473146
49	0xbd34c8d6	-0.044136845
50	0xbc2e1bc1	-0.010626734
51	0x3c9fd1d6	0.019509237
52	0xbda1a638	-0.07893032
53	0xbd0a42cb	-0.033755105
54	0x3d9d64f9	0.07685275
55	0x3d86ead7	0.06587761
56	0x3d58eeee	0.052962236
57	0x3dafe52d	0.08588634
58	0x3db4ace8	0.08822042
59	0x3d35ed26	0.044415615
60	0x3d7369bc	0.059427008
61	0xbd8ad2b5	-0.067784704
62	0xbd9b46f0	-0.0758189
63	0xbcc7a9e0	-0.024372995
64	0x3cd6c304	0.026216038
65	0xbd69b010	-0.057052672
66	0xbd244291	-0.040102545
67	0x3cc8f607	0.024531377
68	0x3d1d042d	0.03833406
69	0xbc32ef42	-0.010921301
70	0x3baba72c	0.0052384343
71	0xbcc52fdc	-0.024070673
72	0xbd87dab8	-0.06633514
73	0x3d2bff3c	0.041991457
74	0xbdaf6cb9	-0.08565659
75	0x3d0b0722	0.03394235
76	0x3a938833	0.00112558
77	0x3d88dedf	0.06683134
78	0x3d900eae	0.0703405
79	0xbd66e5b1	-0.056371395
80	0x3c8cf9f5	0.017209033
81	0xbd0e2dec	-0.034711763
82	0xbcc953c8	-0.024576083
83	0xbd39d70a	-0.045371093
84	0xbd26a3d7	-0.040683594
85	0x3d32dd28	0.043667942
86	0xbd416c6a	-0.047222532
87	0xbb8641ad	-0.0040971846
88	0xbd9fbd01	-0.077997215
89	0xbd89004e	-0.06689511
90	0x3db10df6	0.08645241
91	0x3d5b1bea	0.053493418
92	0xbd65e557	-0.05612692
93	0xbcadb12d	-0.021202648
94	0x3d6784bf	0.05652308
95	0xbd32ce58	-0.043653816
96	0x3d03dcf6	0.032193147
97	0xbd85caf7	-0.06532853
98	0xbd41297b	-0.0471587
99	0xbd132622	-0.03592504
100	0xbd8815a2	-0.06644751
101	0x3d771541	0.060323004
102	0xbda55f89	-0.080748625
103	0x3da17bd7	0.07884949
104	0x3cb97e15	0.022643128
105	0x3d6c4b96	0.057689272
106	0xbc045cf5	-0.008078803
107	0xbd0926f1	-0.033484403
108	0x3c9d4957	0.01920001
109	0xbd016ee2	-0.031599887
110	0xbcc0d865	-0.023540685
111	0x3d090225	0.03344931
112	0x3d0ad031	0.033889953
113	0x3cb02d18	0.021505877
114	0xbda410f7	-0.08011048
115	0x3db1e4cf	0.0868622
116	0x3d5d92f8	0.05409524
117	0xbd349f72	-0.04409737
118	0x3d43cf9c	0.047805414
119	0xbd60b147	-0.054856565
120	0xbc91f5ac	-0.01781734
121	0xbda078b9	-0.07835526
122	0x3d68cac0	0.056833982
123	0x3b33a28c	0.0027410118
124	0xbca58836	-0.020206552
125	0x3d6a4dcd	0.057203103
126	0xbdb4b171	-0.08822907
127	0x3d1e7cb8	0.03869316
128	0xbdae4f1a	-0.08511181
129	0xbd94f497	-0.07273214
130	0x3cca331c	0.024682574
131	0x3ceb669f	0.028735457
132	0xbda7dc08	-0.081962645
133	0xbd3d12a3	-0.04616035
134	0x3cff474e	0.03116193
135	0xbd981f80	-0.07427883
136	0x3da54dfc	0.08071515
137	0x3d142a81	0.036173347
138	0xbc065430	-0.008198783
139	0x3ca50258	0.02014272
140	0xbd1e6a02	-0.038675316
141	0x3c331fe2	0.010932894
142	0x3d1dad8f	0.038495596
143	0xbd6fef8a	-0.05857805
144	0x3b4e09c0	0.0031438917
145	0x3da4e74b	0.08051928
146	0xbbfaf170	-0.007658176
147	0xbdb383ef	-0.08765399
148	0xbd4b0fc5	-0.049575586
149	0xbd93abfa	-0.07210536
150	0x3d983195	0.07431332
151	0x3d307366	0.043078803
152	0xbd791a6a	-0.060816206
153	0x3ca98500	0.020693302
154	0xbd064566	-0.032781027
155	0xbd9401dd	-0.07226918
156	0x3d8a890f	0.06764423
157	0xbc86a4e8	-0.016436055
158	0xbd69a832	-0.05704517
159	0x3c31fec3	0.010863963
160	0xbdb13bff	-0.086540215
161	0xbd34aef0	-0.044112146
162	0xbc6cb670	-0.014447793
163	0xbd20d8a4	-0.039269105
164	0x3c64c523	0.013963017
165	0xbcf51014	-0.029914893
166	0x3c8b63e1	0.0170154
167	0xbcf39430	-0.029733747
168	0x3c9c176e	0.01905414
169	0xbd8ea823	-0.06965663
170	0xbd9081b0	-0.07055986
171	0xbd343d85	-0.044003982
172	0xbbf6a070	-0.00752645
173	0xbcae8692	-0.021304403
174	0xbdad101e	-0.0845034
175	0x3d03982c	0.032127544
176	0x3d53516e	0.05159133
177	0x3d9b106f	0.07571494
178	0x3d82142e	0.06351505
179	0xbcc7ad8c	-0.024374746
180	0xbd8fd14b	-0.07022341
181	0xbb8924a0	-0.0041852742
182	0x3d1c2632	0.038122363
183	0x3d007de6	0.031370066
184	0xbd11f677	-0.035635438
185	0xbd98b55b	-0.07456466
186	0x3d9e9667	0.07743531
187	0x3da22a27	0.07918196
188	0xbd8e410c	-0.069460005
189	0x3d02a8f4	0.031899408
190	0x3d9f4457	0.07776707
191	0xbda46718	-0.08027476
192	0xbda7e9e3	-0.08198907
193	0x3da135ea	0.078716114
194	0x3d9d4f37	0.07681125
195	0x3d451b0e	0.048121504
196	0x3bca6850	0.006176986
197	0x3d980294	0.07422367
198	0xbd9a7806	-0.07542424
199	0xbd7a8bc8	-0.061168462
200	0x3dab600d	0.083679296
201	0xbdae7ff3	-0.08520498
202	0xbd988f46	-0.07449202
203	0x3da81335	0.082067885
204	0xbd4e25b8	-0.05032894
205	0x3da6362f	0.081158035
206	0x3c40ef70	0.011775836
207	0xbda14691	-0.078747876
208	0x3d09fe18	0.03368959
209	0x3d2b6b92	0.041850634
210	0x3d969f2d	0.07354579
211	0x3d94ec6d	0.07271657
212	0x3aae557b	0.0013300622
213	0xbdaba92b	-0.083818756
214	0x3d1aa1e5	0.03775205
215	0xbc4e66c5	-0.012597744
216	0x3d27e802	0.040992744
217	0xbc872009	-0.016494768
218	0xbd6d1a08	-0.057886153
219	0xbc0096c0	-0.007848442
220	0xbd035af0	-0.032069147
221	0xbc25ae08	-0.010112293
222	0x3c90371f	0.017604409
223	0xbdb4a9ff	-0.08821487
224	0xbd8b22e0	-0.06793761
225	0xbd16bbd3	-0.036800217
226	0x3da6839b	0.081305705
227	0x3c83f520	0.016108096
228	0xbb66b920	-0.0035205558
229	0x3c9de6e0	0.019275129
230	0xbd355c88	-0.044277698
231	0xbcaf6d14	-0.021414317
232	0xbda60204	-0.08105853
233	0xbd17a1c9	-0.037019525
234	0x3d6576fe	0.056021683
235	0x3b2760c0	0.0025539845
236	0x3d542a56	0.051798187
237	0xbd9341ef	-0.0719031
238	0x3cf46041	0.029831054
239	0xbd22d222	-0.03975118
240	0xbd2ab6b3	-0.04167814
241	0xbd9e89f3	-0.077411555
242	0xbc0d7d40	-0.008635819
243	0x3d854a5d	0.06508324
244	0x3ce3cfb0	0.027808994
245	0xbcbaa88b	-0.022785446
246	0x3c567a06	0.013090616
247	0xbdb27e1e	-0.08715461
248	0xbbaeaa80	-0.005330384
249	0x3d2c6792	0.04209096
250	0x3d595e86	0.05306866
251	0xbd9ba090	-0.07598984
252	0x3da5dc57	0.08098667
253	0x3cfc0854	0.03076569
254	0xbd3e9223	-0.046526086
255	0xbcc3cf49	-0.023902552

network.2.bias f4 [128]
0	0xbcb090d0	-0.021553427
1	0xbda9dc46	-0.08293967
2	0x3d889f21	0.066709764
3	0xbc7cb077	-0.015422932
4	0xbd9e6824	-0.07734707
5	0x3d0ef4e2	0.034901507
6	0xbd3090e7	-0.04310694
7	0x3daf2237	0.08551448
8	0xbc5b7aa4	-0.013395939
9	0xbcae409e	-0.021271046
10	0xbd66d6a0	-0.056357026
11	0xbd25e02b	-0.040496986
12	0xbc83ab20	-0.01607281
13	0x3c824664	0.015902705
14	0xbd751f94	-0.05984457
15	0x3dafdda9	0.085872
16	0x3ba0cc24	0.004907148
17	0xbc5bf658	-0.013425432
18	0x3d2a87c6	0.04163339
19	0x3b3bbf21	0.0028647857
20	0xbd95ef39	-0.07321019
21	0x3c6b3942	0.014356913
22	0xbd549089	-0.051895652
23	0xbcc47c11	-0.02398494
24	0x3b8cd9c4	0.0042984206
25	0x3d699ecc	0.057036206
26	0x3d6d47fb	0.057929974
27	0x3cc9f02e	0.02465066
28	0x3d2452f6	0.04011818
29	0xbd0e38f5	-0.034722287
30	0xbd06e675	-0.032934625
31	0xbd04c8f2	-0.0324182
32	0xbd37680b	-0.044776957
33	0xbd87b9e9	-0.066272564
34	0x3d69f63d	0.057119597
35	0x3cd4dcfa	0.025984276
36	0xbd3532e4	-0.044237986
37	0xbd711084	-0.05885364
38	0x3c3de1eb	0.011589508
39	0xbd2e81ab	-0.04260413
40	0xbcbeaa72	-0.023274634
41	0xbd698b68	-0.057017714
42	0x3d396e10	0.04527098
43	0x3d621c1f	0.0552026
44	0xbcd8cd17	-0.026464982
45	0xbb028846	-0.001991765
46	0x3b848120	0.004043713
47	0x3d5df655	0.05419
48	0xbd06ee14	-0.032941893
49	0x3d12c9c2	0.035836942
50	0x3d90cffb	0.07070919
51	0xbcbcb57a	-0.023035754
52	0x3c6afd40	0.014342606
53	0x3d9b6d39	0.07589192
54	0x3d9bd9ee	0.07609926
55	0xbbef7191	-0.0073072393
56	0x3c6b933c	0.014378365
57	0x3d4803a0	0.048831582
58	0x3d1166d8	0.03549847
59	0xbd80e1f9	-0.06293101
60	0xbd29c6c5	-0.041449327
61	0xbda71c33	-0.081596754
62	0xbd11d552	-0.03560383
63	0x3d327a42	0.043573625
64	0xbd565649	-0.05232838
65	0x3d368391	0.044559065
66	0x3d78d4d4	0.060749844
67	0xbd14912d	-0.036271263
68	0x3dacaf81	0.08431912
69	0x3d75374a	0.05986718
70	0x3d4b504f	0.049637135
71	0x3d83e895	0.06440846
72	0x3d534e58	0.051588386
73	0xbd821fcc	-0.06353721
74	0x3d225808	0.039634734
75	0x3d67658d	0.05649333
76	0xbd9570a6	-0.072968766
77	0x3cda7581	0.026667358
78	0x3d5270e6	0.0513772
79	0x3bc7607f	0.0060845013
80	0xbcc68324	-0.024232455
81	0xbad7a6ca	-0.0016452905
82	0x3b80c195	0.003929327
83	0xbd095363	-0.03352679
84	0x3dadb1e7	0.08481198
85	0x3bc29e71	0.005939298
86	0x3d9adc82	0.0756159
87	0x3cecb3b8	0.02889429
88	0x3d8d8999	0.0691101
89	0xbd8d7aec	-0.06908211
90	0x3c7749d2	0.015093284
91	0x3d89f1bf	0.067355625
92	0x3da9a45d	0.08283303
93	0xbd85b694	-0.06528965
94	0x3da0f556	0.07859294
95	0x3d4aba9f	0.049494382
96	0xbd975042	-0.07388355
97	0x3d973ca3	0.073846124
98	0x3d8cad99	0.068690486
99	0xbc021684	-0.007939938
100	0xbbe1af35	-0.0068873414
101	0x3bc0f0a8	0.0058880635
102	0xbcb7aa90	-0.022420198
103	0xbd963fb2	-0.07336368
104	0x3c7a86d6	0.015290936
105	0xbd810c83	-0.063012145
106	0xbcde1bb2	-0.027112816
107	0x3da2e702	0.079542175
108	0x3d8cf426	0.06882505
109	0xbd3ec123	-0.04657091
110	0xbd1e0a01	-0.03858376
111	0x3d4c5154	0.049882248
112	0xbd8c9b00	-0.068655014
113	0xbcb5b6da	-0.022181917
114	0xbcb55206	-0.022133838
115	0xbd0d63f6	-0.03451916
116	0xbd074301	-0.033022884
117	0xbd22c30b	-0.03973679
118	0xbc756a52	-0.014978962
119	0x3be99269	0.007128049
120	0xbd12f1c9	-0.035875116
121	0xbc9f2ff7	-0.019432051
122	0xbd9b2a60	-0.07576442
123	0x3cbc0c2b	0.02295502
124	0x3d9b911a	0.07596035
125	0xbc1f3062	-0.009716125
126	0x3beedf18	0.0072897784
127	0xbd2d9714	-0.042380407

network.4.weight f4 [5, 128]
0	0x3ca43f1c	0.020049624
1	0xbc2af971	-0.010435448
2	0x3cd6aab3	0.026204443
3	0xbd8e0409	-0.069343634
4	0x3cc127bb	0.023578515
5	0x3d30b0e5	0.04313745
6	0x3d98233a	0.07428594
7	0xbd118a71	-0.03553242
8	0xbc9325f3	-0.017962432
9	0xbd6f382c	-0.05840318
10	0x3da3f278	0.080052316
11	0x3c6f2497	0.014596126
12	0x3d88a9ba	0.06672998
13	0x3d6a56d8	0.057211727
14	0x3d0fcac7	0.035105493
15	0x3c342837	0.010995916
16	0xbd28b3d9	-0.04118714
17	0xbca54f9c	-0.020179562
18	0x3db1b9b1	0.08677996
19	0xbd46737a	-0.04844997
20	0x3daa4a84	0.08314994
21	0x3c548032	0.012970017
22	0x3d811b54	0.063040406
23	0xbd4ce3eb	-0.050022047
24	0x3d3b5815	0.0457383
25	0x3d7e931e	0.06215202
26	0x3d92607b	0.071473084
27	0xbdac3148	-0.08407837
28	0x3d8cae41	0.06869174
29	0xbda07d28	-0.07836372
30	0xbc986816	-0.01860432
31	0x3cfc4c8e	0.030798223
32	0x3d3fb9ce	0.046808057
33	0xbc98af7b	-0.018638363
34	0xbda6e2ea	-0.08148749
35	0x3c3cde5b	0.011527623
36	0xbc07bbaa	-0.008284489
37	0x3da0cb0f	0.0785123
38	0xbd9b3d71	-0.075800784
39	0x3ca4c91e	0.020115431
40	0xbdb23e4a	-0.08703287
41	0xbd860719	-0.065443225
42	0x3cebf285	0.028802166
43	0x398f6ba8	0.00027355296
44	0xbd021908	-0.031762153
45	0xbd55eac8	-0.052225858
46	0xbc0df448	-0.008664198
47	0xbd829f64	-0.063780576
48	0x3d84fd73	0.06493654
49	0xbd22b6ef	-0.03972524
50	0x3b35e594	0.0027755247
51	0xbd4bc8d5	-0.049752075
52	0x3d34ca70	0.044138372
53	0xbd534547	-0.05157974
54	0x3d9d6863	0.07685926
55	0xbcb6af28	-0.022300318
56	0x3d3b74cb	0.04576568
57	0x3d00f718	0.031485647
58	0x3d96f210	0.073703885
59	0x3d83b339	0.064306684
60	0x3d5046c7	0.05084875
61	0x3b14ae4c	0.0022686897
62	0xbd800a4b	-0.06251963
63	0x3cd0da60	0.025494754
64	0xbc92ea93	-0.01793412
65	0xbd5841f4	-0.052797273
66	0x3ca22f69	0.019797998
67	0xbd91a234	-0.07111016
68	0x3d1e7420	0.038684964
69	0x3d87d050	0.06631529
70	0x3d584444	0.05279948
71	0x3d583726	0.05278697
72	0x3cb5ef49	0.022208827
73	0xbce07076	-0.027397376
74	0x3d24e569	0.040257845
75	0xbd4e803c	-0.050415263
76	0x3c85e36a	0.016343791
77	0xbd9f10c8	-0.07766873
78	0x3d079ef6	0.03311058
79	0x3c02100f	0.007938399
80	0x3bd2858a	0.0064246105
81	0xbcbd0c3a	-0.02307712
82	0x3d3c0d85	0.04591133
83	0xbd23022d	-0.039796997
84	0xbbb3c79a	-0.005486441
85	0x3d997d93	0.074946545
86	0xbcbc3715	-0.022975484
87	0x3cd1bb84	0.02560211
88	0xbd5b0051	-0.0534671
89	0xbd9c3528	-0.07627326
90	0x3d7d19a8	0.061792046
91	0x3c33591a	0.010946536
92	0x3d98951d	0.07450316
93	0x3d676574	0.056493238
94	0xbdad05b1	-0.08448351
95	0x3d7cdebc	0.061735854
96	0xbdab2dd0	-0.083583474
97	0xbc9fda40	-0.01951325
98	0x3d9dabab	0.07698759
99	0xbdb24fd3	-0.087066315
100	0xbc625acf	-0.013815596
101	0x3ce3a3be	0.02778804
102	0xbd24a0e6	-0.040192507
103	0xbcdbe32e	-0.026841726
104	0xbd867d72	-0.065668955
105	0xbda124a0	-0.07868314
106	0xbd3ab671	-0.045584146
107	0xbdb1a1c1	-0.0867343
108	0x3d2f0435	0.04272862
109	0x3d64d390	0.055865824
110	0xbc8884aa	-0.016664822
111	0x3d8433da	0.064552024
112	0xbd0c3843	-0.034233343
113	0xbd9b3b30	-0.075796485
114	0x3d1f60b5	0.038910586
115	0x3d412a99	0.047159765
116	0x3ca7b1fd	0.020470614
117	0xbdaf723a	-0.08566709
118	0xbda1bea4	-0.0789769
119	0x3c08a2b1	0.00833957
120	0x3db10043	0.08642628
121	0xbcf65082	-0.030067686
122	0xbd44a89e	-0.04801237
123	0xbc60c51a	-0.013718868
124	0x3d44a6c1	0.04801059
125	0xbd8dfaa6	-0.06932573
126	0x3b887c79	0.004165229
127	0x3ab83ff4	0.0014057145
128	0xbd480bf2	-0.048839517
129	0x3d9d2571	0.07673157
130	0x3d91d6e6	0.07121067
131	0xbc02351b	-0.007947232
132	0x3ce0571d	0.027385289
133	0xbd5215ba	-0.05129025
134	0xbd0ef0d1	-0.03489763
135	0x3d20619e	0.039155595
136	0xbc9aa565	-0.018877694
137	0x3c9fa4a5	0.019487688
138	0x3a1b7f2f	0.00059317326
139	0xbbf4aa5c	-0.0074665975
140	0xbd605dbf	-0.054776903
141	0x3c26a44b	0.010171006
142	0xbc307cd6	-0.010771951
143	0x3d8e0058	0.06933659
144	0x3d889087	0.066681914
145	0xbc4edd90	-0.012626067
146	0x3cd0912c	0.025459848
147	0x3db6b104	0.08920482
148	0x3cea4714	0.028598346
149	0xbd22770e	-0.03966432
150	0xbc714f9a	-0.014728451
151	0xbd45f55a	-0.04832969
152	0xbb958970	-0.004563503
153	0xbd66a759	-0.05631194
154	0xbca85793	-0.020549571
155	0x3d8a4643	0.067516826
156	0x3bc085ac	0.00587531
157	0xbdb2a097	-0.08722036
158	0xbdacba56	-0.08433978
159	0x3d70d831	0.058799926
160	0xbd8cb413	-0.06870284
161	0x3d9ba40f	0.07599651
162	0x3d61f644	0.055166498
163	0x3cacd5cd	0.021098042
164	0xbd9e0cee	-0.0771731
165	0x3cdd3d96	0.027006906
166	0xbd87e7d6	-0.06636016
167	0xbda968d6	-0.08271949
168	0x3db69ad0	0.08916247
169	0xbdab4da6	-0.0836442
170	0x3d39d9a4	0.045373574
171	0xbd17f4b6	-0.03709861
172	0xbd1a3226	-0.03764548
173	0x3c49a378	0.01230704
174	0x3bfed2f0	0.0077766106
175	0x3d9e1263	0.07718351
176	0x3d3318b4	0.04372473
177	0xbd2975aa	-0.04137198
178	0xbb70ff0d	-0.0036773116
179	0xbd8d49c3	-0.068988346
180	0xbc7abaab	-0.015303294
181	0x3d8b25e0	0.067943335
182	0xbc809c70	-0.015699595
183	0x3d0fb02b	0.035080116
184	0x3cfd96ad	0.030955637
185	0xbc893ace	-0.016751673
186	0x3daf2d7f	0.085535996
187	0x3db2c276	0.08728497
188	0x3d430167	0.04760876
189	0x3bcfa351	0.0063366075
190	0x3a97d74a	0.0011584547
191	0xbbf0f51d	-0.0073534385
192	0xbcbe0406	-0.023195278
193	0xbd896762	-0.06709172
194	0x3d8f569b	0.069989406
195	0x3bd04464	0.006355809
196	0xbd864a6c	-0.065571636
197	0x3d877d34	0.066156775
198	0xbca5f9e6	-0.020260762
199	0x3c852dc1	0.016257169
200	0xbc9f338f	-0.019433765
201	0x3c7be05e	0.0153733175
202	0x3d6314a5	0.05543961
203	0xbc887fd4	-0.016662516
204	0x3d9d1670	0.07670295
205	0xbda27bcd	-0.079337694
206	0xbd5b93a8	-0.053607613
207	0xbadeb068	-0.0016989829
208	0x3b3950c3	0.0028276898
209	0xbc074254	-0.00825556
210	0x3cfc8ff4	0.030830361
211	0xbd0dfbd4	-0.03466399
212	0xbd23c878	-0.039986104
213	0xbda4db5a	-0.080496505
214	0x3c3385f1	0.010957227
215	0x3d08fe47	0.033445623
216	0xbd3a3310	-0.045458853
217	0x3d2cbad3	0.042170357
218	0xbd75e189	-0.06002954
219	0xbc5ff314	-0.013668794
220	0xbd8f24d3	-0.069894455
221	0x3d15b640	0.03655076
222	0x3ca26b63	0.019826597
223	0xbd8b8e46	-0.06814246
224	0xbd23e40f	-0.040012415
225	0x3d732400	0.059360504
226	0x3da4e7b2	0.08052005
227	0x3d050d63	0.03248347
228	0xbce7d806	-0.02830125
229	0x3caacce2	0.020849649
230	0x3c02826e	0.007965667
231	0x3c7a45f8	0.015275471
232	0x3d8bb3bd	0.06821392
233	0x3d915ac0	0.07097387
234	0xbd9f5ef6	-0.07781784
235	0x3d5d2682	0.053991802
236	0xbc7d7c29	-0.015471497
237	0xbcd23629	-0.025660591
238	0x3db3adb2	0.08773364
239	0xbd5fac5e	-0.05460774
240	0xbcf631e3	-0.030053085
241	0xbd23f090	-0.04002434
242	0x3cdbe6ad	0.026843393
243	0x3db2bd00	0.08727455
244	0x3d83d937	0.06437915
245	0x3d64a55a	0.055821754
246	0xbca628db	-0.020283153
247	0x3d5477e4	0.05187215
248	0x3d24d1fb	0.040239315
249	0xbd28f6e0	-0.041251063
250	0x3d84a3ff	0.06476592
251	0x3da48bb8	0.08034462
252	0x3c9f4cce	0.019445803
253	0x3c84c712	0.016208205
254	0x3c52bd0f	0.012862458
255	0xbd89e82c	-0.067337364

network.4.bias f4 [5]
0	0xbd2b9685	-0.041891593
1	0xbda043eb	-0.07825454
2	0x3c01e39e	0.007927803
3	0xbcfd0e3a	-0.030890573
4	0x3bdc5713	0.0067242472

network.0.weight f4 [128, 40]
0	0x3d8b900f	0.06814586
1	0xbb65d286	-0.0035068109
2	0x3e1e0ee7	0.15435372
3	0xbaf781d8	-0.0018883301
4	0x3dbbd36d	0.09171186
5	0x3e16233f	0.14661883
6	0x3e146194	0.14490348
7	0xbd346670	-0.044043005
8	0xbd05dcd3	-0.032681298
9	0xbd229839	-0.039695952
10	0xbe188aba	-0.1489667
11	0xbd5815a0	-0.052755
12	0xbdbe289a	-0.09285088
13	0x3dbd3d05	0.09240154
14	0x3c38332a	0.011242667
15	0xbcbd4a13	-0.02310661
16	0xbc653186	-0.013988858
17	0xbcedb41b	-0.029016545
18	0xbddc34ae	-0.10752235
19	0x3cc317a6	0.023814987
20	0x3dc7284d	0.09724484
21	0x3d49bdae	0.04925316
22	0xb7dca5fc	-2.6303336e-05
23	0xbdb25301	-0.08707238
24	0x3db419ea	0.08794005
25	0x3d1e9042	0.038711794
26	0x3d064cfd	0.032788265
27	0xbda8a81f	-0.082351916
28	0x3dcae795	0.09907452
29	0x3d94ed59	0.07271833
30	0xbd956e9d	-0.072964884
31	0xbda586b3	-0.080823325
32	0x3dab7235	0.08371393
33	0x3d3a6fe8	0.04551688
34	0x3d1e97a0	0.03871882
35	0x3e1cc607	0.15309916
36	0x3d043714	0.03227909
37	0xbd8e3308	-0.06943327
38	0x3bfb8bd2	0.00767658
39	0x3d8beee5	0.06832675
40	0x3e013ca2	0.12620786
41	0x3de1e072	0.11029138
42	0x3dd3008f	0.10302841
43	0xbe03759b	-0.12837832
44	0x3d6ff028	0.05857864
45	0x3e15df54	0.14635974
46	0xbdab2e20	-0.08358407
47	0xbd8b9e57	-0.0681731
48	0x3d911025	0.070831574
49	0xbbc477e7	-0.005995739
50	0x3c4f9c7e	0.012671588
51	0xbe0cb275	-0.13739951
52	0xbc7cb729	-0.015424528
53	0x3dd4ca80	0.10390186
54	0x3c306761	0.010766835
55	0xbdf42196	-0.119204685
56	0xbdd48aa2	-0.103780046
57	0xbd2e5f31	-0.04257125
58	0x3e03725f	0.12836598
59	0x3d6390f5	0.055558164
60	0xbe08fd06	-0.13377771
61	0xbd6cb679	-0.057791207
62	0xbd458df7	-0.04823109
63	0x3e1500f7	0.1455115
64	0xbcd31bab	-0.025770029
65	0x3e09efe0	0.13470411
66	0xbe187118	-0.14886892
67	0xbd6b8ca8	-0.057507187
68	0x3d196331	0.037448112
69	0xbd4b6b32	-0.049662776
70	0xbc2460d6	-0.010032853
71	0xbda98502	-0.08277322
72	0xbd0c60ab	-0.034271877
73	0x3cc1c644	0.02365411
74	0xbd7193ad	-0.058978725
75	0x3cf5200c	0.029922508
76	0xbdaffcec	-0.08593163
77	0xbcd3553c	-0.025797479
78	0x3d89acd9	0.06722421
79	0xbdf2e25f	-0.11859583
80	0xbc176b4b	-0.009241889
81	0xbdb23e6c	-0.08703312
82	0xbdabeeda	-0.08395167
83	0x3d7d025d	0.061769832
84	0x3cabbe89	0.020964878
85	0xbdb9d8fe	-0.09074591
86	0xbb9dcac6	-0.0048154322
87	0xbdc8c550	-0.098032594
88	0xbd13a391	-0.03604466
89	0xbe050ff1	-0.12994362
90	0xbe109c85	-0.14122207
91	0xbd484241	-0.04889131
92	0xbd8dbaa8	-0.069203675
93	0x3dffdc02	0.12493135
94	0x3cb44e0e	0.022009876
95	0xbc08ff84	-0.008361701
96	0x3e1784cf	0.14796756
97	0xbd61fdde	-0.055173747
98	0x3e1ba390	0.15199113
99	0xbd35bded	-0.04437058
100	0xbdcca1fd	-0.09991834
101	0x3e199e7d	0.15001865
102	0xbe047ec7	-0.12938987
103	0x3dc7277d	0.09724329
104	0xbd1f0fd9	-0.038833473
105	0xbe16e75d	-0.14736696
106	0xbd5d8c35	-0.05408879
107	0x3d921eab	0.07134756
108	0x3d9268b4	0.07148877
109	0xbddd1c31	-0.10796393
110	0x3ddd6b26	0.108114526
111	0xbd58ebda	-0.0529593
112	0xbdc88e2c	-0.09792742
113	0x3d27cb88	0.040965587
114	0x3cea6556	0.028612774
115	0x3de8a343	0.11359265
116	0x3cedec98	0.02904348
117	0x3e144a61	0.14481498
118	0xbcafc717	-0.021457238
119	0xbe04b861	-0.1296096
120	0xbe0976d3	-0.13424234
121	0xbdc9ecac	-0.09859595
122	0x3de4e4e4	0.1117647
123	0x3de98049	0.114014216
124	0xbddf09fd	-0.10890577
125	0x3b785b9c	0.00378964
126	0xbd7bbe84	-0.061460987
127	0xbda48cd7	-0.080346756
128	0x3def90d4	0.11697546
129	0xbddf8494	-0.10913959
130	0xbc18d262	-0.009327503
131	0xbd3c618c	-0.045991465
132	0x3ddb765a	0.10715933
133	0xbde63cc9	-0.112420626
134	0xbdc0e5b0	-0.094188094
135	0xbdf57bc1	-0.11986495
136	0x3e065c9a	0.13121262
137	0x3d6d06b2	0.057867713
138	0xbd7e7bc4	-0.06212975
139	0xbdae3eba	-0.08508058
140	0x3e177d8a	0.14793983
141	0xbd0d65a4	-0.03452076
142	0x3def5dfa	0.116878465
143	0xbe05659b	-0.1302704
144	0xbd8a3557	-0.06748455
145	0xbd05daee	-0.03267949
146	0xbc7a66e0	-0.015283316
147	0xbb61c86b	-0.0034451734
148	0xbd440921	-0.04786027
149	0xbde8c9e6	-0.11366634
150	0x3d71fd70	0.059079587
151	0xbe140d58	-0.14458215
152	0xbe133e53	-0.14379244
153	0xbdb88698	-0.09010047
154	0xbe1a6f63	-0.15081553
155	0x3df63fd5	0.12023894
156	0x3e0c58e3	0.13705783
157	0x3dd401de	0.10351919
158	0xbd372c77	-0.04472014
159	0x3d671a5f	0.056421634
160	0x3dbf08bc	0.09327838
161	0xbd9c08e3	-0.076188825
162	0x3df56af1	0.11983288
163	0xbe17ea1f	-0.14835404
164	0x3e046ede	0.12932917
165	0xbca4d056	-0.020118874
166	0xbe1941cc	-0.14966506
167	0xbcc5b7b9	-0.024135457
168	0xbdbbef92	-0.09176554
169	0x3dc629e9	0.096759625
170	0xbdaae6fd	-0.08344839
171	0xbdf9899a	-0.121844485
172	0xbe0625eb	-0.13100402
173	0x3c84680a	0.016162891
174	0x3d9704eb	0.07373985
175	0x3d8ce98b	0.06880482
176	0xbe0d5ced	-0.1380498
177	0x3db22573	0.08698549
178	0xbddc6a1f	-0.107624285
179	0xbd324b58	-0.043528885
180	0xbdd724a5	-0.10505036
181	0x3dae67ef	0.085159175
182	0xbdd70bfd	-0.105003335
183	0xbd09bf92	-0.03362996
184	0x3dc94545	0.09827665
185	0xbd3dd78a	-0.046348132
186	0xbd597a85	-0.05309536
187	0x3e0f05b7	0.13967024
188	0x3e1620c4	0.14660937
189	0x3df2818a	0.11841114
190	0xbdd3c728	-0.103407204
191	0xbe1a306b	-0.15057532
192	0xbe1b414f	-0.15161632
193	0x3dc1bfd4	0.094604164
194	0xbe17aa8a	-0.14811149
195	0x3d417427	0.047229912
196	0x3ddba9a0	0.10725713
197	0xbd39c95a	-0.04535804
198	0xbda814c7	-0.08207088
199	0xbd9633c8	-0.07334095
200	0x3cf75e40	0.03019631
201	0x3db1fd27	0.08690863
202	0x3dd5823d	0.104252316
203	0x3dd4c37f	0.103888504
204	0x3bee8472	0.0072789723
205	0xbcc563c0	-0.024095416
206	0xbd7906f4	-0.060797647
207	0xbc23b12b	-0.009990971
208	0xbdee1012	-0.11624159
209	0x3d5863a4	0.0528294
210	0x3ca5bdd8	0.020232126
211	0x3ddb2375	0.10700122
212	0x3dfa7df7	0.12231057
213	0x3db39fed	0.08770738
214	0x3d768779	0.06018779
215	0xbe1f4028	-0.15551817
216	0x3df03807	0.11729436
217	0xbb20b4a9	-0.0024521744
218	0x3de5ac14	0.11214462
219	0x3dcd1d4a	0.10015352
220	0x3e07f0ba	0.13275424
221	0x3cb8d127	0.02256067
222	0x3bf25db0	0.0073964223
223	0xbe175f29	-0.14782394
224	0x3de492cb	0.11160811
225	0xbd2da9d4	-0.04239829
226	0x3d7e327e	0.06205987
227	0xbcf19451	-0.029489668
228	0xbe1acacc	-0.15116423
229	0xbd368feb	-0.044570845
230	0x3d6627a3	0.056190144
231	0x3b13d571	0.002255764
232	0xbdba1577	-0.09086125
233	0xbd4c282b	-0.049842995
234	0x3cefcc58	0.029272243
235	0xbd7a946d	-0.061176706
236	0x3de0aca3	0.10970428
237	0x3df21614	0.11820617
238	0xbdab4b88	-0.08364016
239	0x3e047817	0.12936436
240	0x3cc6cbb0	0.024267048
241	0xbdb1859a	-0.086680606
242	0x3bf86c82	0.0075812945
243	0xbe15bc77	-0.14622675
244	0x3da61603	0.08109667
245	0xbd392be2	-0.045207866
246	0xbd74a501	-0.059727672
247	0xbde80e34	-0.11330834
248	0x3d3ddd4c	0.046353623
249	0xbd3d4286	-0.04620602
250	0xbe0cf6c9	-0.13766016
251	0xbe12dcc3	-0.14342026
252	0x3e1ef552	0.1552327
253	0x3d8914bf	0.0669341
254	0xbd0e6e6b	-0.03477327
255	0x3e235214	0.15949279

network.0.bias f4 [128]
0	0x3c969530	0.018381685
1	0x3de20009	0.11035163
2	0x3e174110	0.14770913
3	0x3cccb0af	0.024986593
4	0x3e145e43	0.14489083
5	0xbd8b2031	-0.067932494
6	0xbe212bb4	-0.15739328
7	0xbd3610dc	-0.044449672
8	0x3c9d0ca2	0.019171063
9	0xbe0217e3	-0.12704425
10	0xbe181819	-0.14852943
11	0xbe1145b6	-0.14186749
12	0x3dab5ee1	0.08367706
13	0xbdd7b345	-0.1053224
14	0xbd0197a5	-0.03163876
15	0x3d67d9d9	0.05660424
16	0x3cb9f999	0.022702025
17	0x3d5aa0db	0.05337606
18	0xbcee3fd3	-0.029083168
19	0xbd2542d5	-0.04034694
20	0x3e14ee97	0.1454414
21	0x3e01ece8	0.12688029
22	0x3e121dd3	0.1426919
23	0xbdd0cb43	-0.10195019
24	0x3d9e4d4a	0.077295855
25	0xbe123969	-0.14279713
26	0x3d3290a1	0.04359496
27	0x3d05dc6a	0.032680906
28	0x3dc32c87	0.09529977
29	0xbe092b48	-0.13395417
30	0xbc0e3a6f	-0.008680924
31	0x3d7103e3	0.058841597
32	0x3e082b2b	0.13297717
33	0xbd96ea93	-0.0736896
34	0x3c4b2106	0.01239801
35	0x3d806659	0.06269521
36	0x3d67ea32	0.05661983
37	0x3dda82b0	0.10669458
38	0x3c8ea75f	0.017413793
39	0x3e15f5a5	0.14644487
40	0xbc27e6ac	-0.010247868
41	0xbaf9e94e	-0.0019066723
42	0x3d75af2c	0.05998151
43	0x3c8c6ffc	0.017143242
44	0x3db8ee6a	0.09029849
45	0x3c519775	0.012792458
46	0x3d8d4f5d	0.06899903
47	0x3e0e975e	0.1392493
48	0xbe083ae0	-0.13303709
49	0xbe204966	-0.15653
50	0xbe1a9e0f	-0.15099357
51	0x3e09b8c8	0.13449395
52	0x3e06b77a	0.13155928
53	0x3d7ffc24	0.06249632
54	0xbda52783	-0.08064177
55	0xbc618015	-0.013763447
56	0x3dbac023	0.091186784
57	0x3a7e8a0e	0.0009709903
58	0xbd311f55	-0.04324277
59	0xbca81ec4	-0.020522483
60	0xbe16eb29	-0.14738144
61	0xbae99cf2	-0.0017823263
62	0xbd06ecc1	-0.03294063
63	0x3de4d7f5	0.11174003
64	0xbde8f1f4	-0.11374274
65	0xbd9df6c7	-0.07713085
66	0x3ae4535e	0.0017419865
67	0xbdff21bd	-0.12457607
68	0xbe1d9f3e	-0.15392777
69	0xbd1a508a	-0.037674464
70	0x3d9ee08b	0.07757672
71	0xbdf40c05	-0.11916355
72	0xbd83c650	-0.064343095
73	0x3d9fbcda	0.077996925
74	0x3db26b41	0.08711863
75	0x3c0791fe	0.008274553
76	0xbcc76bdc	-0.024343424
77	0xbdeefbc3	-0.116691135
78	0xbda093c3	-0.07840683
79	0x3aebc680	0.0017988235
80	0x3c330717	0.010926983
81	0x3c8d6bac	0.017263256
82	0x3d8f0890	0.06984055
83	0x3dd03b8a	0.10167606
84	0x3cc3941d	0.023874337
85	0x3dde678f	0.10859596
86	0x3e0d8a85	0.13822372
87	0x3c96c545	0.018404612
88	0xbdb1fe1f	-0.08691048
89	0x3d19e9cc	0.03757648
90	0x3db9fb7e	0.090811715
91	0xbc09d3a4	-0.008412275
92	0xbd769b0f	-0.06020647
93	0x3dad988b	0.08476361
94	0x3e1e746b	0.15474097
95	0x3e058df0	0.13042426
96	0xbdcb189e	-0.09916805
97	0xbce00d49	-0.027350085
98	0xbdab4e0a	-0.08364494
99	0xbc607ace	-0.013701154
100	0xbde88f44	-0.11355451
101	0xbdaa6a16	-0.083210155
102	0xbd96ea75	-0.07368938
103	0xbde07c9d	-0.10961268
104	0x3e150761	0.14553596
105	0x3dc24bfc	0.09487149
106	0x3c92885f	0.017887292
107	0x3dd9b6dd	0.106305815
108	0xbd4cedc2	-0.05003143
109	0xbe16c030	-0.14721751
110	0xbd49f4de	-0.04930579
111	0xbc59040f	-0.013245597
112	0xbc42d42a	-0.011891404
113	0x3c42ec57	0.011897168
114	0xbe1d3491	-0.15352084
115	0xbe0525e6	-0.13002738
116	0x3d9c0f7e	0.076201424
117	0xbd6d84d3	-0.057988
118	0xbdc6ec64	-0.09713057
119	0xbe062b3c	-0.1310243
120	0x3ded5280	0.11588001
121	0x3dcab068	0.09896928
122	0xbc9c1c11	-0.019056352
123	0x3d9aadbc	0.075526685
124	0xbd0010b6	-0.031265937
125	0xbe0f6826	-0.14004573
126	0x3deaf53a	0.114725545
127	0x3c76caef	0.015063032

network.2.weight f4 [128, 128]
0	0x3cfb46b6	0.030673366
1	0xbd24ad13	-0.04020412
2	0xbb57f504	-0.0032952437
3	0x3c94ac85	0.01814867
4	0xbd43fd62	-0.047849067
5	0x3c01f305	0.0079314755
6	0x3cff9b69	0.031202035
7	0x3dafd230	0.08585012
8	0xbd231574	-0.03981538
9	0xbbaec316	-0.0053333146
10	0xbcde1a25	-0.027112076
11	0xbd606a58	-0.054788917
12	0x3a62c4ed	0.000865056
13	0xbd993803	-0.074813865
14	0xbcba7745	-0.02276195
15	0x3d88fe4f	0.066891305
16	0x3c0a3640	0.008435786
17	0x3ccb8f9e	0.024848755
18	0x3da0e8d7	0.07856911
19	0x3d8666c0	0.06562567
20	0xbd3c0130	-0.04589957
21	0x3da139e3	0.07872369
22	0xbd95a1af	-0.07306229
23	0x3d238b05	0.0399275
24	0x3d9346d5	0.071912445
25	0xbd9c6495	-0.07636372
26	0xbc029da1	-0.007972152
27	0xbc56a66c	-0.0131012015
28	0x3daccc3c	0.08437392
29	0xbcb46cd6	-0.022024553
30	0x3caeb556	0.021326702
31	0xbd96dad8	-0.0736596
32	0xbbd2e0bd	-0.0064354823
33	0xbd442363	-0.04788531
34	0x3d955080	0.07290745
35	0xbd46d75f	-0.048545238
36	0x3db5772b	0.0886062
37	0xbda1bc0f	-0.078971975
38	0xbc076190	-0.008263007
39	0x3d68dc67	0.056850817
40	0xbd740de8	-0.059583575
41	0x3d51ee66	0.051252745
42	0x3db699ee	0.089160785
43	0x3bcc9f03	0.0062445416
44	0xbd92695d	-0.07149003
45	0x3d650d36	0.055920802
46	0xbc8f80a2	-0.017517392
47	0x3b44a837	0.003000749
48	0xbd98bb04	-0.074575454
49	0x3d58f091	0.052963797
50	0x3d1cad14	0.038250998
51	0x3da38658	0.079846084
52	0xbd16805b	-0.036743503
53	0xbd51425b	-0.051088672
54	0x3d5a0f90	0.053237498
55	0x3d994d89	0.07485492
56	0x3d6c248c	0.05765204
57	0x391ee6c7	0.00015154025
58	0x3d757a72	0.059931226
59	0xbd38c828	-0.04511276
60	0x3dbb11d0	0.09134257
61	0x3d75301a	0.059860326
62	0x3c253696	0.010083815
63	0xbd3fb33a	-0.046801783
64	0x3d09a40f	0.033603724
65	0xbd0cbb56	-0.034358345
66	0x3bea3a21	0.007148043
67	0xbd882d6d	-0.06649289
68	0xbbe9a5d8	-0.007130366
69	0x3c6b12bb	0.014347727
70	0x3d409c6a	0.047024168
71	0xbbcfc2a1	-0.0063403402
72	0xbce86b7b	-0.028371563
73	0x3c206036	0.0097885635
74	0xbd4065af	-0.046971973
75	0x3d7e59d8	0.0620974
76	0xbd09b738	-0.033621997
77	0xbd7e2575	-0.06204744
78	0xbd632d4b	-0.055463117
79	0x3da5a73c	0.08088538
80	0xbdb73f92	-0.08947672
81	0xbd87d8fd	-0.06633184
82	0x3c7427f0	0.0149021
83	0xbd9a0b5c	-0.07521698
84	0xbd2b4f9a	-0.04182396
85	0xbc04f95b	-0.008116092
86	0x3d498439	0.049198363
87	0xbc20fd21	-0.009825976
88	0x3d5338cf	0.05156785
89	0x3b936f43	0.0044993474
90	0xbd85e688	-0.06538111
91	0xbd6330b4	-0.05546637
92	0xbd42f475	-0.047596414
93	0xbd4b742a	-0.04967133
94	0x3d06b320	0.03288567
95	0xbd673265	-0.056444544
96	0x3d835061	0.064118154
97	0x3da52fac	0.08065733
98	0xbd8b4662	-0.06800534
99	0x3a2cfe48	0.000659917
100	0xbd914479	-0.07093138
101	0x3d32c3cc	0.043643758
102	0xbd97fc34	-0.07421151
103	0x3bc01416	0.0058617694
104	0x3a05ef0c	0.0005109168
105	0x3cedfbdb	0.029050758
106	0xbdaadcf0	-0.08342922
107	0xbb85ff83	-0.0040892973
108	0xbd5037aa	-0.050834335
109	0x3d40dde8	0.047086626
110	0x3da0f0c0	0.078584194
111	0x3c98594a	0.018597264
112	0x3d42688a	0.047462977
113	0xbd5b7cb8	-0.053585738
114	0xbcdf332d	-0.027246082
115	0xbd0eede4	-0.03489484
116	0x3da09243	0.07840397
117	0x3d72c736	0.059272014
118	0xbdaadba6	-0.08342676
119	0x3daafa4d	0.08348522
120	0xbc8ec1da	-0.01742642
121	0xbb0372f8	-0.002005754
122	0xbd2d6db0	-0.042340934
123	0xbb683f54	-0.0035438137
124	0x3d444b60	0.047923446
125	0x3d3421e0	0.04397762
126	0x3da8d4c3	0.08243706
127	0x3c23eca3	0.010005149
128	0x3d9e45b2	0.07728137
129	0xbd84e891	-0.06489671
130	0x3d2f40e3	0.04278649
131	0xbca7d0fe	-0.020485397
132	0x3da02b0a	0.07820709
133	0xbcc12b35	-0.023580173
134	0x3d373425	0.044727463
135	0xbd8b1c32	-0.06792487
136	0x3d0d22ed	0.034457136
137	0x3d93a4d4	0.07209173
138	0xbd96e370	-0.07367599
139	0x3d52ae58	0.0514358
140	0xbd97aec7	-0.07406383
141	0x3da14990	0.07875359
142	0xbca0a978	-0.019612059
143	0x3db14039	0.086548276
144	0xbd85c4b4	-0.06531659
145	0x3d854f39	0.06509251
146	0x3d737178	0.059434384
147	0xb92448df	-0.00015667405
148	0x3b96ecbb	0.004605857
149	0xbd969c4b	-0.07354029
150	0xbca80be0	-0.020513475
151	0xbd55cf86	-0.052199863
152	0xbcac8d91	-0.021063598
153	0x3cdbb9a9	0.026821928
154	0xbd8cc914	-0.0687429
155	0x3c027d1a	0.007964397
156	0x3d92c0c9	0.07165677
157	0xbd6c02cd	-0.05761986
158	0xbd424477	-0.047428574
159	0xbd76ad7a	-0.060224034
160	0xbd91aab9	-0.07112641
161	0x3d06e374	0.03293176
162	0x3d449ac3	0.047999155
163	0x3d76ff54	0.060302094
164	0x3d286b9f	0.04111826
165	0x3d9d6d50	0.07686865
166	0xbd18fc18	-0.03734979
167	0x3cc4a34f	0.024003653
168	0xbd36c772	-0.0446238
169	0xbc2bb500	-0.0104801655
170	0xbd000966	-0.031258963
171	0xbd401777	-0.046897378
172	0x3d0032ba	0.031298377
173	0xbd143f7d	-0.03619336
174	0xbca18a3c	-0.019719236
175	0xbd8c863f	-0.06861543
176	0x3cd72e14	0.026267089
177	0x3d591a42	0.053003557
178	0x3cf4ce34	0.029883482
179	0x3d02f126	0.03196826
180	0x3dad378b	0.084578596
181	0xbd3d8eee	-0.046278886
182	0x3c90dd35	0.017683605
183	0x3c2c4340	0.0105140805
184	0xbc81f81d	-0.01586538
185	0x3d4cc70d	0.049994517
186	0xbd9bfece	-0.076169595
187	0x3caedcf1	0.021345587
188	0xbcc36835	-0.0238534
189	0xbceba025	-0.028762886
190	0xbc1c9416	-0.009556791
191	0xbc777d67	-0.015105582
192	0x3d16c767	0.03681126
193	0x3d0d71ad	0.034532238
194	0xb9df6dd2	-0.00042615697
195	0xbd6c1c53	-0.0576442
196	0xbd75bb39	-0.059993003
197	0xbcc57211	-0.024102243
198	0xbd7a066e	-0.061041288
199	0xbcc1b266	-0.023644637
200	0x3dbbbd34	0.09166947
201	0x3d0c0ef7	0.03419396
202	0xbbe5b325	-0.007009881
203	0x3cafe195	0.02146987
204	0xbd4cf1f6	-0.05003544
205	0x3daf46ef	0.085584514
206	0x3db7c685	0.089734115
207	0x3da7c0dc	0.08191082
208	0x3d32409d	0.04351865
209	0x3daef60f	0.08543026
210	0xbd8888d8	-0.06666726
211	0x3c2a5cb6	0.010398081
212	0x3c83e327	0.016099526
213	0xbd944ee7	-0.07241612
214	0xbcbece72	-0.0232918
215	0x3d203d06	0.039120696
216	0xbd0e092a	-0.03467671
217	0x3dbcfc67	0.092278294
218	0x3d5c88ba	0.05384133
219	0xbd583ca8	-0.05279222
220	0x3d0329b7	0.032022204
221	0xbd23149a	-0.03981457
222	0xbd06556e	-0.032796316
223	0xbdaa3ce0	-0.08312392
224	0xbcd001b6	-0.02539144
225	0xbd48ab8a	-0.048991717
226	0x3c870096	0.016479772
227	0xbd3be9b7	-0.045877185
228	0x3d92cb60	0.07167697
229	0xbd5c002e	-0.05371111
230	0xbcc0f23d	-0.023553008
231	0xbda1275b	-0.078688346
232	0x3bdb113b	0.0066854036
233	0xbd80bf40	-0.06286478
234	0xbd64d29d	-0.05586492
235	0xbce52213	-0.02797035
236	0x3d18d169	0.037309084
237	0xbd271bd3	-0.04079802
238	0x3d8ac013	0.067749165
239	0x3b53a12f	0.0032292118
240	0x3d774292	0.06036622
241	0xbd9582f2	-0.073003665
242	0xbc62e150	-0.013847664
243	0x3ccc834c	0.024964951
244	0x3d590c35	0.052990157
245	0xbd999eae	-0.07500969
246	0xbbed3406	-0.0072388677
247	0xbd4c8c96	-0.04993876
248	0x3c8c1a82	0.017102484
249	0x3c4b804a	0.012420723
250	0xbdb2d2ec	-0.087316364
251	0x3dabe987	0.08394151
252	0xbda5f5fe	-0.0810356
253	0xbd1e5f39	-0.03866503
254	0x3cfa083e	0.030521508
255	0x3d08d885	0.033409614

network.2.bias f4 [128]
0	0x3db4241f	0.08795952
1	0x3d029cde	0.03188788
2	0xbcf030dd	-0.029320175
3	0xbd3f568f	-0.046713408
4	0xbd304ca6	-0.043041848
5	0xbd230ca8	-0.03980699
6	0xbbe22699	-0.006901574
7	0xbd36c9cc	-0.044626042
8	0xbcec5d1c	-0.028852992
9	0x3bb5df08	0.005550269
10	0xbd653d3c	-0.0559666
11	0x3d2b7aa3	0.041865002
12	0x3d96ba24	0.07359722
13	0x3d975a64	0.073902875
14	0x3d0d869d	0.034552205
15	0xbd7a27ff	-0.0610733
16	0xbb9caf5b	-0.004781646
17	0x3da6e9cd	0.08150063
18	0xbd54b38a	-0.051929034
19	0xbc84b727	-0.016200615
20	0xbbc73f60	-0.006080553
21	0xbd1f2483	-0.03885318
22	0xbcf63ce0	-0.030058324
23	0x3b0899dd	0.0020843663
24	0x3d26a2a8	0.040682465
25	0x3d6cc72c	0.057807133
26	0xbd695b17	-0.056971636
27	0xbbf4e7e5	-0.007473933
28	0x3cbc17d1	0.022960575
29	0x3da9ec04	0.082969695
30	0xbd6df662	-0.058096297
31	0xbda08ccf	-0.07839357
32	0x3da7e556	0.08198039
33	0x3cdf11c8	0.027230158
34	0x3d3b0443	0.04565836
35	0xbda43f06	-0.08019833
36	0xbd5d044e	-0.053959183
37	0xbcb49595	-0.022043983
38	0x3c9eb65e	0.019374069
39	0xbcf21934	-0.029553033
40	0xbd7b9fbe	-0.06143164
41	0x3d86faf5	0.06590835
42	0x3d5e7686	0.05431225
43	0xbda64c8f	-0.08120071
44	0x3d68c77f	0.05683088
45	0x3d127526	0.035756253
46	0xbd3dfb36	-0.04638215
47	0xbd92c809	-0.0716706
48	0xbd997849	-0.07493646
49	0x3da84672	0.082165614
50	0x3cb8b1df	0.022545753
51	0x3d98d53c	0.07462546
52	0xbce51a90	-0.027966768
53	0xbda4c1be	-0.08044766
54	0xbd7da733	-0.06192703
55	0x3d0cb432	0.034351535
56	0xbc48bacf	-0.01225157
57	0xbd94be37	-0.07262843
58	0xbd5a9e6b	-0.053373735
59	0x3d0445f2	0.032293268
60	0x3d135416	0.035968862
61	0xbdb11399	-0.08646316
62	0x3db72c3f	0.08943986
63	0x3d23cd3e	0.039990656
64	0x3d5d0868	0.053963095
65	0xbd27b331	-0.040942375
66	0x3d0ee576	0.0348868
67	0xbd4a04ce	-0.04932099
68	0xbd043636	-0.032278262
69	0x3d822a2e	0.063557014
70	0x3d47a83b	0.04874442
71	0xbc3d0061	-0.011535735
72	0xbbc65985	-0.006053152
73	0x3b95777a	0.004561362
74	0xbdaefd4f	-0.085444085
75	0x3d8156a5	0.06315354
76	0xbd0a4574	-0.033757642
77	0x3c03e2ba	0.008049661
78	0x3da01707	0.07816892
79	0xbd281cca	-0.04104308
80	0xbd6626e8	-0.056189448
81	0xbd887762	-0.066633955
82	0xbc169c6c	-0.009192567
83	0x3ca047fa	0.019565571
84	0xbce10be6	-0.027471494
85	0xba387457	-0.0007036379
86	0xbd655686	-0.05599072
87	0x3b68817e	0.0035477574
88	0x3caeaa62	0.02132148
89	0xbd0bd571	-0.0341391
90	0xbd84a7ef	-0.06477343
91	0x3d17552a	0.036946453
92	0x3d96b13a	0.07358022
93	0xbc65c5d7	-0.0140242195
94	0xbc7637be	-0.015027938
95	0x3dbaaf14	0.09115425
96	0x3d9c13cd	0.07620964
97	0x3c71d287	0.014759666
98	0x3d32b59d	0.04363023
99	0xbd0babde	-0.034099452
100	0xbc24f12e	-0.010067267
101	0x3d0d7721	0.03453744
102	0xbd5d9bd5	-0.05410369
103	0x3ccb5e6e	0.024825301
104	0xbcd1c2d8	-0.025605604
105	0xbd7f3de0	-0.062314868
106	0xbdad4f57	-0.084623985
107	0xbd44ebcb	-0.048076432
108	0xbd8e95e0	-0.0696218
109	0xbdae43c3	-0.08509018
110	0xbb2c2c11	-0.0026271383
111	0x3d8018ca	0.06254728
112	0x3b0411e1	0.0020152258
113	0x3c5675dc	0.013089623
114	0xbda54ee5	-0.080716886
115	0xbba4cfb5	-0.0050296434
116	0x3ba89b05	0.005145433
117	0xbd968bf4	-0.07350913
118	0x3b3d03c1	0.0028841349
119	0xbdb2ff87	-0.08740144
120	0x3d2bf9dc	0.04198633
121	0xbd367914	-0.044549063
122	0xbd9cc2a1	-0.0765431
123	0x3c115bfd	0.008872029
124	0xbd63040e	-0.05542379
125	0x3ce06515	0.02739195
126	0xbba827a3	-0.005131678
127	0xbd82c4ec	-0.06385216
