models_backup/maddpg/checkpoint_ep1600/adversary_1.pth (torch, 764002 bytes, 44 tensors)

network.0.weight f4 [128, 16]
000000 a9 34 14 bd df 2c 7d be 39 63 fa bc 2b af 23 be
       -0.036183033 -0.24724148 -0.030564891 -0.1598479
000010 ce 14 ab bd 92 ee 58 3e 8d 03 29 3d 70 4c 1e 3e
       -0.083535776 0.21184757 0.041263152 0.15458846
000020 a4 cf 98 be a2 58 27 3e 28 0f 49 3e 7b 83 f6 bd
       -0.29845917 0.16342404 0.19634688 -0.12036797
000030 75 47 a3 bc ad 34 71 3d 40 ce cc bd 30 3c 97 3e
       -0.019931534 0.058888126 -0.100002766 0.29538107
000040 b6 13 86 be 98 74 6f 3e 91 23 39 be 18 11 ed 3d
       -0.26186913 0.2338432 -0.18079974 0.11575526
000050 03 c6 d5 3d 82 e9 84 be 25 78 96 be 70 3d 6b be
       0.10438158 -0.25959402 -0.29388538 -0.22972655
000060 06 e8 eb 3d b1 a7 00 3e fb 17 6f 3e b5 5c 2a bd
       0.11518864 0.12563969 0.23348992 -0.04159232
000070 6b 69 88 be e3 bb a0 3d c7 72 3a 3e 7d ba 95 3e
       -0.26642928 0.078483365 0.18207847 0.29243842
000080 4f 09 9d bd b6 dc 28 be fb 43 05 3e 6e 17 75 bd
       -0.07667791 -0.16490445 0.13014214 -0.059836797
000090 55 fd c5 bd 63 a0 2e be 22 12 f5 3d 06 f0 a6 3d
       -0.0966746 -0.1705337 0.11966349 0.081512496
0000a0 d7 a1 8a 3e d3 fd 44 be 96 8b 11 be cc e8 ee bd
       0.270766 -0.19237451 -0.14213404 -0.11665496
0000b0 ae dd 84 3d 4b cc ba 3d f4 07 00 be 25 ed 75 3e
       0.064875945 0.09120997 -0.12503034 0.24016245
0000c0 1d 10 7c bd 91 60 94 be 75 2f fe 3d cb 86 b6 bc
       -0.061538804 -0.28979924 0.124113955 -0.022281071
0000d0 f1 72 5f be cb 0e b1 bc 45 b4 8b bd 47 4c 9b be
       -0.2182119 -0.0216135 -0.06821493 -0.30331632
0000e0 6e e0 05 bd e4 50 01 3e 2e be 82 be f6 da 97 be
       -0.032684736 0.12628514 -0.2553572 -0.2965924
0000f0 2e 4d 8b be 59 42 77 be e0 fb 10 3e 0d 4b 92 3e
       -0.2720732 -0.24146403 0.14158583 0.28572884
000100 44 91 27 3e da dc 3b 3e 35 5c 7a 3e cd 6b c9 3d
       0.16364008 0.18345967 0.24449237 0.098350145
000110 37 bc 8c be 60 8e 93 be cf ad 52 be 01 b9 5d 3e
       -0.27487347 -0.2881956 -0.20574115 0.21652605
000120 0a a5 3b bc 90 2b 27 be d7 d1 04 3c cd 70 84 be
       -0.011452923 -0.16325212 0.00810667 -0.2586731
000130 05 17 84 bd f1 71 79 3d 39 18 14 3e 18 7f 91 bd
       -0.06449703 0.06089968 0.14462365 -0.07104319
000140 89 b4 6f be fb e3 65 be 92 54 22 3e 5c cd 78 bc
       -0.23408712 -0.22450249 0.15852574 -0.01518568
000150 b3 a1 56 3e 3f 78 8e 3d a8 15 ba 3c 6d 23 70 3d
       0.20960121 0.06956529 0.022715405 0.058627535
000160 6d 87 a7 3d ce 63 36 be 8b f3 96 3e 65 ee 2b bd
       0.08180127 -0.1781151 0.29482684 -0.041975398
000170 17 b9 e1 bd ea 3c 00 be e0 2d 85 be fa 09 2b be
       -0.11021631 -0.12523237 -0.26011562 -0.16703025
000180 e3 6e 58 3e f7 54 66 3d fe ba 75 3e 37 6f 8d 3c
       0.2113605 0.056233373 0.23997113 0.017264945
000190 5d 20 a2 3c e1 ad 4a be c1 f8 81 be 30 88 38 be
       0.019790823 -0.19792892 -0.25385097 -0.18020701
0001a0 66 e1 6f be 25 c6 5b 3e da 60 92 3e ba ee 42 be
       -0.23425826 0.21462305 0.28589517 -0.1903638
0001b0 0d 29 27 3e 5c ae 43 be d5 dd 93 3d d0 d6 3f bd
       0.16324253 -0.19109482 0.072200455 -0.04683572
0001c0 a1 7b 91 be 24 96 28 be 29 5c 49 be 25 04 1b 3e
       -0.28414634 -0.16463524 -0.19664063 0.151383
0001d0 c4 4e 09 bd ad 1f 21 bd 5e 18 57 3e 7b bf d0 3d
       -0.033522382 -0.03933685 0.21005389 0.10192772
0001e0 18 be 27 3d 3e 5a 88 bc 9f 16 1a be fa c4 19 be
       0.040952772 -0.016644593 -0.15047692 -0.15016547
0001f0 08 96 8f 3e 6b e6 79 be e7 d1 7a 3e 12 ae 8d 3e
       0.28044152 -0.24404304 0.24494134 0.27671868
000200 57 09 0b 3e 4d 5b 21 bc a5 20 97 3d a0 12 96 3e
       0.13577782 -0.009848428 0.07379273 0.29311085
000210 8e 3f 28 3e e6 7b 0a 3d 0d 53 6e be f6 a5 6a 3e
       0.16430494 0.033809565 -0.23273869 0.22914872
000220 56 27 83 3d 61 be 57 be d2 58 48 3e 65 58 33 bd
       0.06403987 -0.21068718 0.19565132 -0.04378547
000230 22 ad 78 3e 6c 38 78 3c 55 77 41 3e b1 54 19 3e
       0.24284795 0.015150171 0.18893178 0.14973713
000240 6c 35 4f 3e 72 d5 07 3c 07 c7 0b be c7 91 35 3e
       0.20235223 0.008290635 -0.13650142 0.17731391
000250 ea 3f 0f be c2 2f 0b 3e 0a 2c 3c be 19 03 1c be
       -0.13989225 0.13592437 -0.18376175 -0.15235557
000260 e1 26 dd bd 05 46 7c 3e 1d 6b 81 be a1 3d b2 3d
       -0.10798431 0.24636085 -0.25277033 0.08703161
000270 b1 50 63 be b5 3c 8c be 57 01 12 3e 33 d4 9d bd
       -0.2219875 -0.27390066 0.14258324 -0.077064894
000280 02 a9 c8 3d e4 55 03 3d 97 f4 49 bd 51 b6 97 3e
       0.09797861 0.032064334 -0.049305525 0.29631284
000290 79 09 2d be 8f 37 c4 bd 98 de 42 3e d1 ff 49 be
       -0.16898145 -0.095809095 0.19030225 -0.19726492
0002a0 69 c0 7d be ab b5 02 be 92 3f 23 3d 10 7f 76 3c
       -0.2478043 -0.12764613 0.039855547 0.0150449425
0002b0 ae 66 38 bd 48 1b 05 be 0e ac b0 bd 74 b4 70 3e
       -0.045019798 -0.12998688 -0.08626567 0.23506337
0002c0 ce 33 36 bd be f2 0d 3e 5d fc 86 3d 81 cb c9 3d
       -0.044483 0.1386213 0.06591103 0.098532684
0002d0 6d 70 fc bc 7a 39 46 3d 83 1d e5 bd b7 83 83 3c
       -0.030815328 0.048394658 -0.111872695 0.016054017
0002e0 f5 7b 26 be ec 1d 22 3d 54 d1 30 3e b0 48 8c 3e
       -0.16258223 0.039579317 0.17267352 0.27399206
0002f0 7c d2 9d be 94 e1 6b 3e fa 72 02 be 5a da e4 3d
       -0.3082465 0.2303527 -0.12739173 0.1117446
000300 80 e8 c2 3c 4f d3 59 3e a7 b7 8a bd 39 ad 38 3e
       0.023792505 0.21272014 -0.0677331 0.18034829
000310 12 e7 94 bd 73 2a 76 be 47 22 7a 3e da b9 88 be
       -0.07270636 -0.2403963 0.24427138 -0.26704293
000320 40 9d 87 3e b3 96 43 bd 44 d7 cb 3b d7 4f a9 3d
       0.2648716 -0.04775114 0.00622073 0.08267181
000330 06 f8 5b 3e 6a 2d 0b 3e 61 63 32 be 17 8d 11 be
       0.21481332 0.13591543 -0.17420723 -0.14213978
000340 3c 4d 64 be e9 88 cb bd 53 7d 3b be e5 e9 4d be
       -0.22295088 -0.09938223 -0.18309526 -0.20108755
000350 69 c9 dc 3c 76 10 78 3d 47 38 4d be 56 80 80 3d
       0.026951509 0.060562573 -0.20041 0.06274478
000360 8e 0c 86 3e a1 08 93 3e ac 75 00 3e 06 30 af 3d
       0.26181453 0.2871752 0.12544888 0.085540816
000370 48 7e 33 3e 0c e9 27 3c fc 0f 66 3e 25 32 13 be
       0.17528641 0.010248434 0.22467035 -0.14374597
000380 dd 64 52 be df 08 e1 3d f9 ae 28 3e 57 a1 64 be
       -0.20546289 0.1098802 0.16472997 -0.22327171
000390 7e d8 31 3e 1b 22 53 be 14 eb f4 3d e8 e9 72 3e
       0.17367741 -0.20618479 0.119589 0.2372204
0003a0 03 cf 73 3e aa 9c 5f be 1d 39 c0 bd 57 5e 48 bd
       0.23809437 -0.21837106 -0.093858935 -0.048918094
0003b0 6d e6 1e 3d b2 fd 4b be a5 31 4c 3e 9c f7 4e 3d
       0.03879397 -0.19920996 0.19940813 0.050529107
0003c0 4d d9 0e be e3 12 90 be f3 66 d3 bc e3 64 8f bc
       -0.13950081 -0.2813941 -0.025805926 -0.017504161
0003d0 36 ac f7 3c f5 d5 80 be 35 08 51 3d da 98 06 be
       0.030233484 -0.25163236 0.051033217 -0.13144246
0003e0 e9 e1 83 be 40 97 96 be 9e 8f ac 3c a4 a2 09 be
       -0.25758293 -0.2941227 0.021064576 -0.13440949
0003f0 76 0c 91 3e 0b e5 6a be bd 3b 16 3e f3 7c 84 3e
       0.2832982 -0.22938935 0.14671226 0.2587658

network.0.bias f4 [128]
000000 61 23 2c 3e ed b0 f2 bd 68 07 1a 3e e2 f3 d4 bd
       0.16810371 -0.11850152 0.15041888 -0.103980795
000010 07 14 9f 3c 9d dc 83 bd 47 c7 91 3d 5e 60 00 bd
       0.01941873 -0.06438563 0.07118087 -0.031341903
000020 03 ac e4 bd 7f cd 15 be 21 7f 7c 3c c7 e5 1e bd
       -0.11165621 -0.14629172 0.015411169 -0.03879335
000030 76 13 a6 3e be 44 dd 3c 4c 51 9f 3e 2e 61 30 be
       0.32436723 0.027010318 0.31116712 -0.17224571
000040 be ef 17 be f9 7c 2d bd c5 6b eb 3d cc 6d 32 3e
       -0.14837548 -0.04235551 0.11495165 0.17424697
000050 17 09 94 3e 2f 31 94 bd a9 77 88 3e 6a 76 68 3e
       0.28913185 -0.072359435 0.26653793 0.22701421
000060 0e 6e 25 3e 37 5e 02 3e 71 6a fe 3d 2b a8 45 3e
       0.16155264 0.12731253 0.12422646 0.19302432
000070 e9 c0 1d be ab 24 20 3e b7 74 36 be b1 34 43 3e
       -0.1540562 0.15638988 -0.1781796 0.19063069
000080 86 d7 15 3d 7d 48 12 be 4e 4d 98 bd aa 15 9a 3e
       0.036582492 -0.14285465 -0.0743662 0.30094653
000090 95 25 11 be bd 9b 21 3b 95 c9 95 3e 20 93 95 3e
       -0.14174493 0.0024659478 0.29255357 0.2921381
0000a0 f0 66 22 be a5 2d 8e 3c 47 d1 80 3d 3e ce ce 3b
       -0.1585958 0.01735575 0.062899165 0.006311207
0000b0 b5 4c 96 3e e9 62 8a bd 1e a1 0b be 5d ed 4c bc
       0.29355398 -0.06757147 -0.1363568 -0.012507764
0000c0 e9 a4 54 bd f4 7b 83 3e 35 c8 07 3e 3d ef 1f 3e
       -0.051915083 0.25680506 0.13259967 0.15618606
0000d0 db 69 2f be 5b 1a 88 3d 36 21 71 3e b9 73 fd bc
       -0.17130224 0.06645652 0.23547825 -0.03093897
0000e0 fa d3 3e 3e 14 c5 9d 3d d4 52 ec 3b f4 d2 78 ba
       0.1863555 0.07703605 0.0072120223 -0.00094918837
0000f0 98 c9 5d 3e 22 03 cf 3d 88 1b 9f 3e 0b 32 98 3e
       0.21658933 0.101080194 0.31075692 0.2972568
000100 ca 94 46 bd ad 5c a2 3e 88 0d 63 3e 0a 07 43 3e
       -0.04848174 0.3171133 0.2217313 0.19045654
000110 fc 0b 28 bd 38 cd a3 bd 15 92 08 3e e0 52 dc bd
       -0.041027054 -0.07998127 0.13336976 -0.10757995
000120 a6 36 84 3e 0f ab 07 3e 23 e6 39 bb 70 63 84 3e
       0.25822943 0.13248847 -0.0028365932 0.25857115
000130 eb 97 48 3e 22 e9 8c bd 5e b0 ae bd c4 37 05 3e
       0.19589202 -0.06880404 -0.08529733 0.13009554
000140 5b 1c bf bd f5 f3 fa bd 99 0e 68 3e b3 73 34 3e
       -0.0933158 -0.12253562 0.22661819 0.17622261
000150 7b a5 44 3e 9d da 95 3c 19 e7 34 be 7d 4f fa 3d
       0.19203751 0.01829272 -0.17666282 0.122221924
000160 f1 a9 d5 bd c5 1f 9b 3e 4f 7b b2 bc d8 1e e2 3d
       -0.104328044 0.30297676 -0.021787314 0.11041039
000170 f0 a6 fc bd cc fd 4c 3e ba 18 b7 bc 0b 77 e4 3b
       -0.12336528 0.20018691 -0.022350658 0.006972199
000180 88 90 4a 3e 71 88 02 bd d6 95 e1 bd 7b f3 4d 3e
       0.19781697 -0.031868402 -0.11014907 0.20112412
000190 02 2b 6d 3e 1d ae 74 bd e3 7d fd 3c b5 f9 a0 bb
       0.23160937 -0.05973636 0.030943817 -0.00491258
0001a0 c1 10 94 3e ed 75 d5 3d de 27 83 bd cf 63 fa bc
       0.28919032 0.10422883 -0.064040884 -0.03056517
0001b0 2d 6d 1c 3e 0c 5c b4 bd aa 6e 77 3d 59 9d 05 be
       0.15276022 -0.08806619 0.06040827 -0.13048305
0001c0 08 07 85 bd 70 63 75 3e 52 3c 88 3b 68 e0 08 be
       -0.06495482 0.23963714 0.0041575814 -0.13366854
0001d0 6f c6 67 3e f4 06 07 be e6 df 82 3d 7a 5e 96 3e
       0.2263429 -0.13186246 0.063903615 0.29368955
0001e0 74 65 e0 bc b8 03 99 3e 48 45 39 3e f3 2b b7 3d
       -0.027392127 0.2988565 0.18092835 0.089439295
0001f0 48 13 37 3b a3 09 6a bd 4f eb 06 3e d0 6c 2a be
       0.0027935077 -0.057138097 0.131757 -0.16643071

network.2.weight f4 [128, 128]
000000 7e 82 17 3c c7 68 b1 3d fc 96 75 bc ca e0 a8 3d
       0.00924742 0.08662563 -0.014989611 0.08246
000010 a4 54 52 3d 34 a3 a1 3d 9d 7a 87 bc c9 c8 05 bd
       0.05135025 0.07892457 -0.016537959 -0.032662187
000020 22 51 4e 3d f7 0e 59 3d 75 38 b0 3d 05 bb 2d 3d
       0.050370343 0.052992787 0.08604518 0.042414684
000030 9e 9a e3 3d e2 eb 84 bc 26 be 5b bc 94 2e da 3d
       0.11113475 -0.016225759 -0.013412034 0.10653415
000040 a3 2e 45 3c c1 54 be 3b 13 78 0e bd a5 52 af 3d
       0.012035045 0.0058084433 -0.03478248 0.08560685
000050 e6 1e ce 3d 24 c6 a5 3d 6e ae b4 3c 3d fc c4 3b
       0.10064487 0.08094433 0.02205583 0.0060115145
000060 56 06 ba 3d 91 bd ec 3d 56 4e 47 bc 4f 01 66 3d
       0.0908324 0.115595944 -0.012164673 0.05615359
000070 46 fd 64 3d 71 55 ad 3c 9d 59 d4 3d de df b2 3d
       0.055905603 0.021158906 0.10368655 0.087341055
000080 4c 16 99 3d dd 60 04 3c d9 3f 90 3d 6c c7 05 3d
       0.07474956 0.008079735 0.07043428 0.032660887
000090 62 6c 18 bd 26 0a 01 3d cd 3a ed 3d b6 e0 09 bd
       -0.037212737 0.03150382 0.11583481 -0.033661567
0000a0 1e 33 e4 3d ce 75 03 bd 56 fa bd 3d 1c c2 ca 3c
       0.11142562 -0.03209477 0.092762634 0.024750762
0000b0 e1 15 d3 3d f6 88 c2 3c 0e 17 07 3c 08 9b 96 3b
       0.103069074 0.023746949 0.008245243 0.004596118
0000c0 91 d6 44 3d ad a1 9b 3d 40 8e 3c 3d d2 7c 6e bc
       0.04805619 0.075991966 0.046034098 -0.014556127
0000d0 4d 4f 19 bc 2b f6 bb 3d 68 02 9a 3d 69 f8 f4 3d
       -0.009357286 0.09177812 0.0751999 0.11961443
0000e0 d2 4e fe 3d ec fe ce 3d e4 a5 88 3c 33 1f 34 bd
       0.124173775 0.10107216 0.016680665 -0.043975066
0000f0 16 27 c6 3d 06 3e 53 3c f8 71 e6 3c 05 1a ea 3d
       0.09675424 0.0128932055 0.028130516 0.11430744
000100 71 b2 99 3d 2c 5c f3 3d 5a 26 9a 3b 90 6c b4 3d
       0.07504738 0.11882815 0.004704279 0.08809769
000110 50 0a ca 3c 3d 5a 1a bc 64 8a b1 3d c7 3b 80 3d
       0.02466312 -0.009420929 0.08668974 0.062614016
000120 22 cd a3 3d 04 99 18 3c b9 e3 07 3e d4 5c 64 3d
       0.0799811 0.0093138255 0.13270463 0.05575259
000130 9f bb 26 3d 36 b1 c7 3d ac cc 06 3e e2 61 8e 3d
       0.040706273 0.09750597 0.13164014 0.069522634
000140 13 49 5f 3c e3 88 a1 3d 51 b0 b6 bc ad 4b 07 3e
       0.013628262 0.07887437 -0.022300871 0.13212462
000150 82 c8 50 3b 00 e3 0c 3e cd 8f 04 3d 05 e5 0d 3c
       0.0031857793 0.13758469 0.0323637 0.00866056
000160 45 c2 30 3d de df 9c 3c 87 6e d0 3d 06 95 10 3d
       0.04315402 0.019149717 0.101773314 0.03529837
000170 a4 da c9 bc f2 53 a6 bc d4 59 e9 bc f3 02 7e 3d
       -0.024640389 -0.0203037 -0.028485216 0.06201453
000180 40 da 51 3c 88 21 9e 3d 83 48 72 3d 6b fb 06 3e
       0.0128083825 0.07721239 0.059151184 0.13181846
000190 1f ca b8 3d 45 e0 81 bc e1 b7 87 3d f1 cd 0c bd
       0.090229265 -0.01585401 0.06626869 -0.03437609
0001a0 3d 6f b8 3c d9 35 af ba 33 9e 91 3d 72 d3 75 3d
       0.02251398 -0.0013367488 0.07110252 0.060016103
0001b0 f0 08 09 bd b5 d9 af 3d c1 69 3e 3d 9d 8f ea 3d
       -0.03345579 0.08586446 0.046487574 0.11453173
0001c0 8f 16 9b 3d ed 53 ae 3d 08 b9 f5 3d 16 29 8f ba
       0.07572662 0.08512101 0.119981825 -0.0010922279
0001d0 22 81 f4 3d 58 da 60 3d 53 ae 85 3b 38 62 05 bb
       0.11938693 0.05489573 0.004079619 -0.0020352732
0001e0 53 f7 92 bb d1 06 d6 3d 40 b8 eb bb 2b a8 6d bc
       -0.0044850498 0.10450519 -0.007193595 -0.014505426
0001f0 76 70 4b 3d 0c c3 55 3d 87 45 fd bc 75 bd 11 bc
       0.049667798 0.052187964 -0.030916942 -0.008895268
000200 bf da 0d bd 73 a7 de 3d a4 91 6f 3b 18 08 dc 3d
       -0.03463244 0.10871782 0.0036555314 0.10743731
000210 7f 0f 78 3d 0e 90 2a bd ac 4d fa 3d dc 52 81 3d
       0.060561653 -0.041641288 0.12221846 0.06314632
000220 a5 de 6a 3c 0e eb 6a bc 47 a0 ef 3d 4b 40 bc 3d
       0.014335309 -0.014338268 0.11700492 0.091919504
000230 03 3b 8d b9 40 39 6f 3d 53 ef 3c 3d 78 1d 96 3d
       -0.00026937583 0.058404207 0.046126675 0.073298395
000240 7e 29 8c 3d 5f 80 11 3d bd 44 a7 3d ec 2e e9 3d
       0.068438515 0.035522815 0.08167408 0.11385903
000250 6c 0a 2d 3d 49 d6 79 bc 6d e8 3d 3d 1e fd 39 3c
       0.042246267 -0.0152488435 0.046364237 0.011351852
000260 3b 0a e3 3c f8 67 2a bd df 12 90 3c 6b be dc 3d
       0.02771484 -0.04160306 0.017587123 0.10778507
000270 72 cf 95 3c 89 f7 3b bc d9 49 b3 3c d1 a8 d4 3d
       0.018287394 -0.011472591 0.0218858 0.10383762
000280 b5 2b 57 3d ff 64 42 3c 8f cf 00 3e da 27 5a 3d
       0.052531917 0.0118649 0.12579177 0.05326066
000290 dc 3d 33 bd 75 56 7a 3d 2b d4 72 3d 91 6d 3f 3d
       -0.043760166 0.061117608 0.05928437 0.04673535
0002a0 28 b0 16 bd ae 54 89 bc 98 60 5c 3b 0c 2a 41 3b
       -0.03678909 -0.016764011 0.003362691 0.0029474525
0002b0 89 5d c8 3d 5d ed c8 3d 61 c1 47 bd 8a 42 f8 bc
       0.097834654 0.098108985 -0.048768405 -0.030305166
0002c0 43 31 a0 3d 61 d5 28 3d 8a 71 c5 3d 7d e7 9b 3d
       0.07821896 0.04121912 0.096407965 0.07612512
0002d0 fa 91 ae bc 41 e2 1e 3c 03 a3 9b 3a 70 12 86 3d
       -0.021309841 0.009697498 0.0011874143 0.065464854
0002e0 e9 f6 54 3d 12 0d c5 3d da 3e df bb f1 ac c3 3d
       0.051993284 0.096216336 -0.0068129124 0.0955447
0002f0 68 0f 5a 3d 56 9c 62 bd af a2 72 3b 17 f0 85 3b
       0.05323735 -0.055324875 0.0037023237 0.004087459
000300 40 60 ca 3d d4 0d 5d bd 9e 9d 14 3d cc 9f c6 3d
       0.098816395 -0.053968266 0.036283128 0.096984476
000310 0f 58 5c bc 10 ca 46 bb da ce 90 3b bb e5 ec 3d
       -0.013448729 -0.003033284 0.00441919 0.11567255
000320 68 a6 e1 3d 33 f6 3c 3d c5 7c 45 3c 66 90 6b 3d
       0.110180676 0.04613323 0.012053673 0.057510756
000330 37 03 cf bc 98 ed d3 3d 45 ee 5f 3d 21 44 04 3d
       -0.025270088 0.10348052 0.05467059 0.032291535
000340 6a 7e 02 3d 6a 3b 9c 3d d9 f2 6c 3d ec 18 a5 3d
       0.03185884 0.0762852 0.057848785 0.08061394
000350 db 80 bf bc ea 8f 7d ba 71 1a e2 3d 09 d7 e7 3d
       -0.023376873 -0.0009672629 0.110401995 0.113203116
000360 ad dd ad 3d 36 de 85 3d d3 34 95 3d 46 9b c8 3d
       0.08489547 0.06536524 0.07285466 0.09795241
000370 8c 08 77 3d a3 67 e2 3d 84 51 11 3d 44 06 36 bd
       0.060310885 0.110549234 0.03547813 -0.04443957
000380 d1 ee 42 bd 88 d7 97 3d 55 82 07 bd 69 8d 13 bc
       -0.047591034 0.07414156 -0.03308328 -0.009005883
000390 06 c8 25 3d ca 49 fd 3a 1a 6b a2 39 21 6c 0c 3d
       0.04047396 0.0019324359 0.00030978845 0.034282807
0003a0 39 e4 90 3d e8 63 eb 3d b8 f0 c5 3c 77 ef ea bc
       0.0707478 0.11493665 0.024162635 -0.028678639
0003b0 6d 17 49 bc e1 99 19 3d cb 80 af 3b 95 87 94 bb
       -0.012273652 0.037500266 0.0053559295 -0.004532764
0003c0 45 9c 85 3c 18 bd 74 3d 65 3e 50 bd 75 e2 74 bd
       0.016309867 0.059750646 -0.050840754 -0.05978628
0003d0 72 d4 44 3d c8 01 a7 3d 16 70 cb 3d f8 d7 9e 3b
       0.048054166 0.081546366 0.09933488 0.004847523
0003e0 96 9f d9 bc 15 7c 1d 3d 7f b1 d5 bb 16 e4 c8 b9
       -0.026565354 0.038448412 -0.0065214033 -0.0003831691
0003f0 4e 2f 17 3c 1e 0f 18 bd 60 ba 6c 3d f0 ed 21 3d
       0.009227587 -0.037123792 0.05779493 0.039533556

network.2.bias f4 [128]
000000 ec dc c9 3d 22 0a 66 3c 48 77 71 bd e9 dc d6 3d
       0.09856591 0.014040502 -0.058951646 0.10491354
000010 65 08 a4 3d 5e e0 fc 3d ff 7e 6c 3d 90 25 d3 3d
       0.08009414 0.12347482 0.0577383 0.10309899
000020 82 32 97 3d 8d 96 7e bc 47 d7 21 3e 94 94 7b 3d
       0.073826805 -0.015538824 0.15804778 0.061420992
000030 66 85 d5 3d b1 92 f1 b9 d2 c9 16 bd d2 54 8c bc
       0.10425834 -0.00046076396 -0.036813565 -0.01713029
000040 c0 13 ce bc 51 62 6d 3d 87 1b 09 3d 4d 55 d9 3d
       -0.025155902 0.05795509 0.033473518 0.10611973
000050 4e e7 cb 3d 43 36 a0 bc 05 d1 33 3d cf 3e 90 3d
       0.09956227 -0.019557124 0.04390051 0.0704323
000060 b9 d0 52 3d f9 ad 16 3e 50 47 d8 3b b7 8a d8 bc
       0.051468585 0.14714803 0.006600298 -0.026433332
000070 73 a3 11 bd 25 2b a7 bc 0a 6c 99 3c 8f 83 e6 3c
       -0.035556268 -0.020406315 0.018728275 0.028138904
000080 61 b4 f7 bc 96 af 41 bd 9a a7 fe 3d f8 e7 94 3c
       -0.030237379 -0.047286592 0.12434311 0.018177018
000090 94 55 99 bc 98 7d 58 3d 27 5b 71 ba 98 7d 18 3c
       -0.018717565 0.05285415 -0.0009207003 0.009307288
0000a0 22 ec d0 bd ac 08 e0 3d c1 13 d2 3c 24 cb a1 3c
       -0.10201289 0.10939154 0.025644185 0.019750185
0000b0 56 4c 1d 3e 1b fa 33 3e 61 43 88 3d 6b 4f f8 3d
       0.15361151 0.17575876 0.066534765 0.12124523
0000c0 e6 3d a1 bc 3a 8a 33 ba a0 02 44 bd b9 80 d9 bc
       -0.019682836 -0.00068489055 -0.047854066 -0.026550638
0000d0 8f 4f 2d 3c 6b 38 de 3d 58 3c 28 3d 4c d9 b2 3d
       0.01057805 0.108506046 0.041073173 0.08732852
0000e0 4d 5f 39 3d 95 0f 81 bd a4 18 b8 3d b7 1b 15 3d
       0.0452569 -0.063018 0.08989075 0.036403384
0000f0 0c af e1 3d b9 81 c2 3d 2e 90 a4 3d 90 2d ac bd
       0.11019716 0.09497399 0.080353126 -0.08407128
000100 85 c8 af bc 22 d4 48 bb 98 9a 41 3d a9 67 06 bc
       -0.02145792 -0.003064402 0.047266573 -0.008203425
000110 3d 4b 13 3d 4f 35 2e 3c 03 85 cf 3c 60 1e 85 3d
       0.035960425 0.010632827 0.02533198 0.06499934
000120 fc 86 0f 3e 61 08 35 3d 20 f5 06 3e 14 91 46 3c
       0.14016336 0.044197444 0.13179445 0.01211955
000130 c9 6d 70 3d d3 19 cb 3c 39 b6 47 bc 42 ca e8 bc
       0.05869845 0.024792587 -0.012189441 -0.028416757
000140 6f 34 0b 3e ec f2 fb 3d fc 86 6c 3d ef f2 37 3c
       0.1359422 0.12302193 0.05774592 0.0112273535
000150 52 e4 a7 bc 3d 12 83 3d 93 fe 93 3d cc 27 1d bd
       -0.020494614 0.06399963 0.072262906 -0.03836803
000160 30 4f 59 bd 3f 5f 6e 3d 49 f4 65 3d ab 96 49 3d
       -0.053054035 0.058196303 0.05614117 0.049215954
000170 0d e3 b9 3b d9 c5 94 bc b4 c0 a1 3d f0 27 cd 3d
       0.0056728185 -0.018160747 0.07898083 0.10017383
000180 ef 8f c7 3d 32 b1 58 bc 3f 5a e2 bb 52 79 46 3c
       0.0974425 -0.01322584 -0.006907731 0.012113886
000190 27 cb a5 3d 08 18 84 bb 22 82 60 3d 07 97 84 bc
       0.08095389 -0.004031185 0.054811604 -0.016185297
0001a0 5c 43 ab 3d bd 49 73 3d 28 31 84 bc bf b6 c0 bd
       0.08362457 0.059396494 -0.01613672 -0.09409856
0001b0 db 70 38 3d c1 e0 7b 3d d2 2b da 3d 82 01 10 3e
       0.045029502 0.06149364 0.10652889 0.14063075
0001c0 1b 8c 07 3e 2b 81 e7 3d a8 cc bc 3d 23 e5 18 3c
       0.1323704 0.11303934 0.092187226 0.009331974
0001d0 b0 12 f7 3d dc 05 f6 3c 7d 73 bb bd 6e e0 f5 3d
       0.12064111 0.03003209 -0.09152887 0.12005697
0001e0 21 1b ea 3d cf 96 4e 3d 50 80 33 3e 16 61 1a 3c
       0.11430956 0.05043679 0.17529416 0.009422561
0001f0 5e 3b f1 bc 70 df a8 3d 89 cd 91 bd d0 66 e4 bc
       -0.029447254 0.08245742 -0.07119281 -0.027881056

network.4.weight f4 [5, 128]
000000 0a 8a 70 3d f7 a2 07 3e 15 0c 32 bd d7 c7 8c 3d
       0.058725394 0.1324576 -0.043468554 0.06874054
000010 94 a7 a5 3d 95 bc f0 3d 22 1b 06 bd 16 e7 79 3c
       0.080886036 0.11754719 -0.03274072 0.015252849
000020 e8 f9 1b 3d 46 87 a0 3d f8 95 8a 3d 17 1e b2 3d
       0.038080126 0.07838301 0.067668855 0.086971454
000030 62 1e 7e 3c fc ef ef 3c c6 bb 8d 3d cb 4d 5e 3d
       0.0155101735 0.029289238 0.069205806 0.054273408
000040 10 f3 74 3b 9d b0 1b 3e 05 64 92 3c b1 ee 9f 3d
       0.0037376322 0.15204091 0.017869959 0.07809199
000050 05 a5 83 3b 2f 10 44 bd 1e d6 00 bd 84 d3 40 3d
       0.0040174746 -0.047866996 -0.031454198 0.047076717
000060 21 d5 64 3d 1a 59 0e 3e 97 06 c1 3d c8 bb 08 3e
       0.055867318 0.13901177 0.09425085 0.13352883
000070 39 71 2e 3d ef 78 6b 3c 1a ea 9d 3d c8 14 b8 ba
       0.042588446 0.0143720945 0.07710667 -0.0014044279
000080 3d 34 de 3d c6 91 db bb 6e 3f 88 3d d8 90 10 bd
       0.108498074 -0.006700727 0.06652723 -0.035294384
000090 bd 60 e7 3d b1 af 0b 3d 56 bf 0e 3e 39 11 99 3d
       0.11297748 0.0341031 0.13940176 0.07473988
0000a0 3d 36 81 bd dc 17 df bc 48 9c 0a 3e 4b b8 83 3c
       -0.06309173 -0.027233057 0.13536179 0.016079089
0000b0 83 00 87 bb 3a 66 12 3d 9a 4d c7 3d a6 a4 0d 3e
       -0.004119934 0.035742022 0.09731598 0.1383234
0000c0 d2 8f 0c bd c7 cb 16 3e 85 03 dc 3b e6 a3 3d 3d
       -0.034316845 0.14726172 0.0067142867 0.046298884
0000d0 59 b0 11 3e c4 bb 19 3e 0b 7a 8b 3d 49 7d f8 3b
       0.14227428 0.15013033 0.06810387 0.0075832945
0000e0 2f 5f 67 bc c6 a3 6e bd 9c 08 80 3d a3 27 a7 3d
       -0.014121815 -0.058261655 0.06251642 0.08161857
0000f0 6c e6 c6 3c fe e0 0e 3e 1e 84 06 3e df e2 32 bd
       0.024279796 0.13953015 0.13136336 -0.043673392
000100 09 3e 89 3d 64 46 19 bd b3 71 6d 3b 48 88 8c 3d
       0.067012854 -0.037420645 0.00362311 0.06861931
000110 ac 93 eb 3c a4 cb 23 3e ab 2a bb 3c fe 5e 1f 3d
       0.028756939 0.15995651 0.022847494 0.03890895
000120 d9 86 01 3e 00 90 0c bd 29 88 e8 3d eb 9f 89 3d
       0.12649097 -0.034317017 0.113540955 0.06719955
000130 15 b5 a2 bd bc 67 34 bc 6e b5 43 3d 41 ab 13 bd
       -0.07944695 -0.01101106 0.047780447 -0.036051992
000140 cf 7e d1 3d 90 e3 2d 38 77 84 05 3d ed ee 7a bd
       0.10229265 4.145835e-05 0.03259703 -0.061263014
000150 0c 84 05 3e 3e 8a 61 bd 0e d9 cb bc ad 00 49 3d
       0.13038653 -0.05506348 -0.024883773 0.04907291
000160 85 3a 26 3d 64 44 03 3e e9 cb 0a 3e a4 21 c1 bc
       0.040583152 0.12819058 0.13554348 -0.023575611
000170 90 74 8a bc 28 9d f4 ba 74 c8 7b 3d c4 32 ac 3d
       -0.016901284 -0.0018662559 0.061470464 0.0840812
000180 38 8c 1c 3d e3 6c e5 3c 91 8b 89 bc 0c 88 d6 bc
       0.03821966 0.028006023 -0.016790183 -0.02618792
000190 9a 87 06 3e 34 15 2d 3d 06 80 02 bd 05 e0 fa bc
       0.13137665 0.04225655 -0.031860374 -0.030624399
0001a0 44 b5 99 3d ca f3 81 3d 3c 8d 1a bd 69 9b 99 bd
       0.07505277 0.06345327 -0.037732348 -0.07500345
0001b0 56 da e3 3d 39 29 fc 3d 7d 5d 27 bd e6 1e 21 3e
       0.11125629 0.1231255 -0.04086064 0.15734443
0001c0 e4 73 13 3e 3d f6 f8 bc 2f f1 a2 3d ab 61 6c 3d
       0.14399678 -0.030390853 0.07956158 0.05771033
0001d0 b0 05 8f 3d 14 a3 86 bd 64 51 2a bd 14 08 98 3d
       0.06983507 -0.065740734 -0.041581526 0.07423416
0001e0 d2 ae 1c bc cd 88 6b bd 62 30 d1 3d 1f d1 83 3d
       -0.009563165 -0.05750351 0.102143064 0.06436371
0001f0 b2 12 bc 3c 72 16 ba 3b b3 7f 9e 3d b9 07 5d 3c
       0.022958133 0.005678945 0.077392004 0.013490611
000200 93 14 b9 3d 13 ae 6d bb 66 5c 69 3c a6 1a 3b 3c
       0.09037127 -0.0036267086 0.014243221 0.011419928
000210 ee ee da 3d 92 c7 f2 3d b4 77 9d bd 8a 69 33 bc
       0.106901035 0.11854471 -0.07688847 -0.010950455
000220 cb e4 1b 3e a0 75 d2 3c fa 71 4b 3d f8 39 02 3e
       0.15223996 0.025690854 0.049669243 0.12717426
000230 3a b5 5d 3d 44 54 ae 3d 08 c8 ae 3d 01 aa 87 bb
       0.05412791 0.08512166 0.08534247 -0.004140139
000240 bc 9d 5b 3d bf 77 b7 3d cb c6 06 3e 44 19 0c 3e
       0.053617224 0.08958387 0.13161771 0.13681513
000250 f8 a0 08 3e 50 44 2c 3b a7 31 3e b9 81 21 e9 3d
       0.13342655 0.0026285835 -0.00018138309 0.113833435
000260 1b 95 1b 3d 21 39 06 3e 76 da 3f 3d d2 3d ab 3d
       0.037983995 0.1310773 0.0468392 0.08361401
000270 13 e6 af bc 40 4e e6 3d 31 24 68 bc 2e a5 19 3d
       -0.021472013 0.11245394 -0.014168785 0.037511043
000280 90 8e eb 3d ee c0 96 3c 0e 56 d3 3b c5 d9 6d bd
       0.11501801 0.018402543 0.0064494675 -0.05806901
000290 c6 31 a0 3c 45 ae 28 3c f7 47 c0 3d 84 d0 a2 3c
       0.019554984 0.010295455 0.09388726 0.019874819
0002a0 3f 4d 43 3d 92 1e f7 3d 98 e4 e5 3d 1d cb cd 3d
       0.04768109 0.12066378 0.112252414 0.100485064
0002b0 30 ed 0c bb d2 31 f2 3c 75 8b 83 bb 72 4b f4 3d
       -0.002150368 0.029564772 -0.0040144273 0.119284526
0002c0 6b 47 af 3d 31 e0 0c 3c be 87 99 3d 31 30 11 3e
       0.08558544 0.008598373 0.07496594 0.1417854
0002d0 8e 7c 04 3d 04 e3 c2 3c c3 ef 48 3d eb 07 8f 3d
       0.032345347 0.02378989 0.04905678 0.06983932
0002e0 ed e9 61 3d b5 82 de bc a4 58 0a 3d f6 e5 11 3e
       0.05515473 -0.027161935 0.03377594 0.1424788
0002f0 d9 fa ec 3d 17 7d bf bc 05 b6 76 3d 91 1f 4e bd
       0.11571283 -0.023375077 0.06023218 -0.050323073
000300 eb 12 5d 3d 9e 2b 82 3d 74 16 23 3d 58 86 ff 3d
       0.05397312 0.063559756 0.039816335 0.12476796
000310 60 9c f6 bc 6b 2c 1d 3d e7 4d 91 3c 11 3e cf 3d
       -0.030103862 0.03837244 0.017737342 0.1011926
000320 0b 3a eb 3c 8b ed 54 3d 4b 44 b8 3c 70 18 e9 3d
       0.0287142 0.05198435 0.022493502 0.11381614
000330 cc 98 fd 3c 87 8e 59 3d 59 35 b2 3d 5e cc 92 bd
       0.030956648 0.05311444 0.087015815 -0.07167886
000340 cd ab 84 3d 46 c8 e2 bc f5 82 e9 3d d9 44 a1 3d
       0.06478081 -0.027683388 0.11401931 0.0787446
000350 cf 39 d8 3d 7f c1 c4 3d c3 e7 f0 3c 04 29 fe 3d
       0.10557901 0.09607219 0.029407388 0.12410167
000360 5f 2a 61 3d 5e ee cc 39 51 e9 0b 3e e1 a4 97 3d
       0.05497205 0.0003908751 0.13663222 0.07404495
000370 48 07 08 3e 56 fc 81 3d e8 ed 40 3d 05 f0 8c bc
       0.13284028 0.063469574 0.047101885 -0.017204294
000380 4e aa e9 3d cd 8d 64 3d 46 7f 73 bd 3a 80 88 bd
       0.11409436 0.055799294 -0.05944755 -0.06665082
000390 bf 14 31 3b fb 9a bf 3d 9b bf 09 3e ac 54 ae bc
       0.0027020422 0.09355732 0.13451998 -0.02128061
0003a0 31 16 bd 3d f9 76 54 3d e7 56 bf 3d b0 a3 51 3b
       0.09232748 0.051871274 0.09342747 0.0031988434
0003b0 24 8e a8 bc b4 08 2f 3e e6 22 f1 3d eb a1 f6 3d
       -0.02057559 0.17093164 0.117742345 0.12042602
0003c0 3f 93 90 3c 36 fc 86 bb 72 cf f9 bb 27 36 c8 3d
       0.017648337 -0.0041194214 -0.0076236064 0.09775954
0003d0 6c 9a 2c 3c 1e 0f f4 3c b6 31 f9 3c 77 ec 64 3c
       0.010534864 0.029792365 0.030419212 0.013972393
0003e0 5a 97 ee 3d 39 db 5e bd b0 98 d4 3d 4a 74 be 3d
       0.11649962 -0.054408286 0.10380685 0.09299524
0003f0 fc f1 05 3e 59 a1 74 3d 85 71 a1 3c 2b cb a0 3c
       0.13080591 0.059724186 0.01970745 0.019628128

network.4.bias f4 [5]
000000 7e 96 52 3d bd d6 de 3d 91 44 ce 3d 01 a5 b3 3d
       0.05141305 0.10880802 0.10071672 0.08771706
000010 76 f7 fe 3c
       0.031123858

network.0.weight f4 [128, 82]
000000 8c 47 42 3d f0 46 86 3d 58 26 32 bd bd 5c 35 bd
       0.047431514 0.06556499 -0.0434936 -0.044277895
000010 2f 5d cc 3d 52 d3 40 bd 81 88 f9 bc 56 18 c2 bc
       0.09978711 -0.04707653 -0.030460598 -0.023693245
000020 75 52 bf 3d df b3 04 3d 85 28 7a bd 44 d5 6a bd
       0.09341899 0.0323981 -0.0610738 -0.057332292
000030 c9 e9 d9 3d 8b 79 ed 3d 06 4b 00 be 07 e9 7b 3b
       0.10640294 0.11595448 -0.12528619 0.0038438456
000040 6a d3 43 3e 49 ce 55 bd 6d 9c a5 3d 17 c7 9d bc
       0.19123617 -0.052198682 0.080864765 -0.019259972
000050 be 49 20 bc a2 1b 6b 3d 74 12 82 bd fe 73 81 3d
       -0.0097832065 0.0573994 -0.06351176 0.06320952
000060 d3 50 39 3d a1 bf fa 3c 89 25 c4 3d 34 26 73 bd
       0.045243096 0.030608954 0.09577472 -0.059362605
000070 c4 83 1a 3e 51 d1 9f 3d a6 97 d3 bc 06 ab ac bd
       0.15089327 0.07803596 -0.025829148 -0.08431058
000080 29 3b 43 bd 17 8e 1d 3d bd 43 15 3d 13 08 ef bc
       -0.04766384 0.038465586 0.036441553 -0.029178655
000090 96 c8 8e 3d 46 86 1c 3e 3b 00 6a bd ae 01 ac 3d
       0.069718525 0.15285596 -0.057129126 0.08398758
0000a0 3b 71 2e bd d0 f5 61 3d 39 5c b9 bd 86 73 ca 3d
       -0.042588454 0.055166066 -0.09050793 0.098853156
0000b0 9d d0 cd 3d df a7 35 3d 31 92 82 3d 53 7d 70 bb
       0.100495555 0.044349547 0.0637554 -0.0036695793
0000c0 1c 1c 01 be e1 c5 78 3d c2 41 d9 3d 98 8c 0a 3e
       -0.12608379 0.060735587 0.106082454 0.13530195
0000d0 a7 02 9b 3b 13 c3 89 3d 9a e5 2c bd 56 73 e7 3c
       0.004730541 0.067266606 -0.042211153 0.028253239
0000e0 29 c5 a2 bd 61 7d 7b bd ca 6c 13 be 3d a6 34 bb
       -0.079477616 -0.061398868 -0.14396968 -0.0027564906
0000f0 b6 07 1e 3d f3 bd 23 bd 21 a6 b9 bd 1d 84 31 3d
       0.038581572 -0.03997607 -0.0906489 0.043338884
000100 79 d2 9b bd 50 af 82 bd 40 ec 29 bd d2 7c c5 bc
       -0.07608504 -0.063810945 -0.04148507 -0.02410737
000110 9b 6e 9c 3d d2 45 1e bd fa 93 a9 bd 1e 1f fc bb
       0.07638284 -0.038640805 -0.082801774 -0.007694139
000120 4e b3 5e bd 45 09 80 bd 97 0b 86 3c 9e 40 61 bc
       -0.054370217 -0.06251768 0.016362948 -0.013748316
000130 f5 91 0d bd 3c 9e 4b be 84 f2 50 bd c3 21 49 bd
       -0.034563024 -0.1988458 -0.05101253 -0.049104463
000140 7a 2f a7 b9 6c 94 39 be 09 3f 7b 3d 30 36 ec 3d
       -0.00031888095 -0.18123025 0.061339412 0.11533773
000150 1b e3 54 bc e7 19 6f 3d 27 47 12 bd c2 2e 78 bd
       -0.012993599 0.05837431 -0.035712387 -0.060591467
000160 a8 c9 1c be c3 d5 32 3b 0b 05 e1 3d a7 90 f8 3d
       -0.15311301 0.0027288056 0.1098729 0.12136965
000170 cf c0 82 3d 65 7d aa 3d 71 99 1b bd 1e 62 24 3d
       0.063844316 0.08324698 -0.03798813 0.040132634
000180 e1 e7 24 bc be 95 46 ba 14 fe b2 3d 17 96 82 3d
       -0.01006505 -0.0007575414 0.08739868 0.063762836
000190 37 01 91 3d 11 9a 1f 3e 66 f2 03 be a4 39 2e be
       0.0708031 0.15586115 -0.12885436 -0.17014176
0001a0 dc 0d 1d be 37 32 d5 bd bf 7a 97 bd 59 b2 0b 3d
       -0.15337318 -0.10409968 -0.07396459 0.034105632
0001b0 41 a4 c4 bc 2a 10 fb bd 14 e0 c7 bd ff aa 40 bd
       -0.024004104 -0.122589424 -0.097595364 -0.047038075
0001c0 ab b9 be 3d dc 20 f6 bd 28 d5 ba bc 22 6b 0e be
       0.09312757 -0.12017986 -0.022806719 -0.13908055
0001d0 28 75 a9 3d 1a b5 19 3d c4 b4 94 bb 85 58 26 be
       0.08274299 0.037526228 -0.0045381505 -0.16244705
0001e0 ce c8 f9 bd 03 6e c8 bd 77 1f f4 3c 61 ed b7 bd
       -0.121965036 -0.09786608 0.02980016 -0.08980823
0001f0 1d 7e 82 3c ea 34 a2 3d 15 1d a5 bd 1d 62 79 bb
       0.015929276 0.07920249 -0.080621876 -0.0038052865
000200 6a 46 e8 bd b8 18 ee bd 02 f3 79 bc 66 a1 aa bd
       -0.113415554 -0.116258085 -0.0152556915 -0.083315656
000210 41 23 8d 3d f2 6b 78 3d 9d b5 09 be 4b 82 b4 bd
       0.0689149 0.06064982 -0.13448186 -0.08813914
000220 45 0f cb bd 35 ec 29 3d 5d ad ab bd 9d 01 04 3c
       -0.09915022 0.04148503 -0.08382676 0.008057025
000230 8f 46 8b 3c cc 24 15 3e 92 a3 80 bd f6 f3 30 bd
       0.017001418 0.14564818 -0.062811986 -0.04320141
000240 79 70 20 3c 6e 2d 8d 3d f6 17 0e 3d 20 1a 82 3d
       0.009792441 0.06893431 0.03469082 0.06352639
000250 39 28 85 bd 30 d5 1a bd 1d 2b 0a bd ed da 4c 3d
       -0.065018125 -0.037800968 -0.033732522 0.05001347
000260 23 ac 0a 3e 3c 1c ec 3d ae 71 31 bc 3f be 75 bd
       0.13542227 0.11528823 -0.010830326 -0.059995886
000270 13 c6 81 3d 3d d5 aa bd 56 b0 c5 3d 1e 5a 62 3e
       0.06336608 -0.08341453 0.09652774 0.2210469
000280 3f de 02 3e 5e 09 01 3d 8e cd db bb c8 97 88 3d
       0.12780093 0.031503074 -0.0067078536 0.06669575
000290 27 02 8a bd d0 c9 98 bd 28 24 86 3d d0 31 92 3c
       -0.06738692 -0.07460368 0.06549865 0.017846018
0002a0 2a 9a 33 bc 0a 99 14 3d 70 78 f7 bd 84 cc 66 bd
       -0.010962049 0.036278762 -0.120835185 -0.056347385
0002b0 37 89 00 be f0 53 41 bc e2 f7 04 be 30 64 ec bc
       -0.12552343 -0.011799797 -0.12985185 -0.028856367
0002c0 10 de 02 be 6d ea 8e 3d 85 a2 15 3e a8 4f 4c ba
       -0.12780023 0.06978307 0.14612778 -0.0007793852
0002d0 6d e6 bb 3d ef f8 2a 3d f5 89 5b bd b2 53 23 be
       0.091748096 0.041741308 -0.053598363 -0.15949896
0002e0 94 43 fa 3d 8d ce 88 bd d5 2a 60 3d 7a 04 d0 3c
       0.12219921 -0.066800214 0.054728348 0.02539276
0002f0 59 c3 c9 3b a1 68 29 bd a1 24 1c 3e 8b 10 b5 3d
       0.0061573205 -0.041359548 0.15248348 0.08841046
000300 a0 c8 8e 3d a7 7e ed 3d 20 77 ad 3c c6 6e 23 bc
       0.0697186 0.11596423 0.021174967 -0.009975141
000310 2b 9f ee bd 15 2e c4 bd f0 5f b3 36 3f 53 89 bc
       -0.11651453 -0.09579102 5.3457843e-06 -0.016763328
000320 6f 3f 18 bc 18 8d de bd ef bd e9 3b 70 f2 0e 3d
       -0.0092924675 -0.10866755 0.0071332376 0.034899175
000330 0f 3a d9 3d ea f8 25 bd 28 a5 30 bd 07 e9 0e be
       0.10606777 -0.040520586 -0.043126255 -0.1395608
000340 58 d9 76 3d 0f b2 56 bc 8e 9a ba 39 86 5b 12 3e
       0.06026587 -0.013103976 0.00035591837 0.14292726
000350 0c 1f 68 3c 29 1d 4e 3d f1 c3 40 3d f1 84 96 3d
       0.014167558 0.050320778 0.047061864 0.07349575
000360 31 4b e2 bd 44 e7 fb 3c 56 bc 1e be 69 0d 0b be
       -0.11049498 0.030749924 -0.15501532 -0.13579334
000370 db 05 8a 3c 19 3f b3 3b 99 ac 00 be 25 30 b9 bd
       0.016848495 0.0054701683 -0.12565841 -0.09042386
000380 0f 36 c2 bd dc cf d3 3b 98 7b a7 3c 70 1a 2e 3e
       -0.09482967 0.0064639878 0.020444676 0.17002273
000390 5d 40 1b 3e b2 a5 2b 3e be b4 8a 3d b6 58 eb 3d
       0.15161271 0.16762426 0.06772755 0.1149153
0003a0 10 f9 07 3e 5e 15 68 bd 17 65 dc 3d a9 06 d7 3d
       0.13278604 -0.056661002 0.10761469 0.10499317
0003b0 97 32 bb bd af 86 2f 3e f6 36 86 3c 2d 61 e4 3d
       -0.091405086 0.17141221 0.01638363 0.11151347
0003c0 0e 98 b0 bd 18 bd 21 3e da ba bb 3b 37 fd 11 bd
       -0.08622752 0.1579479 0.0057290616 -0.035641875
0003d0 a8 de d0 3d 15 cd a8 3d 0f 12 8d 3d 70 03 1c be
       0.10198718 0.08242241 0.0688821 -0.15235686
0003e0 e7 06 39 be 12 7a f1 bd e4 3b 4c 3c 43 c0 db 3d
       -0.1806904 -0.11790861 0.012465451 0.107300304
0003f0 01 fb 49 3e 3e 53 ba 3d 17 26 79 3c d2 9d 9c bd
       0.19724657 0.090979084 0.015206835 -0.07647289

network.0.bias f4 [128]
000000 67 1c 30 be d5 cd 75 3e b1 b1 29 3e de 82 2e 3e
       -0.17198335 0.240043 0.1657169 0.1704211
000010 23 f9 a8 3e e5 bb 7e 3e 3c 88 ca 3e c2 0c 84 3d
       0.33002576 0.24876364 0.39557064 0.06447746
000020 8b 4e 22 3e d8 e4 21 be 8d fc be 3e d3 35 95 3e
       0.15850274 -0.15809953 0.37302056 0.29142627
000030 ad bf a4 3e ea b7 9f 3d 5e 7c 7d 3e 5d 36 16 3e
       0.32177487 0.07798751 0.24754474 0.14669175
000040 c2 b9 01 3e 5d 1f f3 bd a6 73 29 bd a5 10 84 3e
       0.12668517 -0.118712164 -0.041370057 0.2579395
000050 76 ab b7 3d 16 33 74 3e 03 c0 1e bd 04 e5 48 3e
       0.089682505 0.23847613 -0.038757335 0.19618613
000060 e1 da 32 3e bf 9f 81 bd 3a 22 42 bd 39 5f 16 3e
       0.17466308 -0.06329297 -0.047395922 0.14684762
000070 f6 df 4e 3e 3d 40 c8 3d 9a f4 0f be 71 2e 28 3d
       0.20202622 0.097778775 -0.14058152 0.041059915
000080 bc e7 57 3e 9b 20 22 be 9f 78 be 3e 25 f8 a2 3d
       0.21084493 -0.1583275 0.37201402 0.07957486
000090 a6 66 12 be a6 ef 79 3d be 92 8e bb 38 c5 b3 bd
       -0.1429697 0.061019562 -0.004350989 -0.08777851
0000a0 7c fa 08 3e 63 61 09 be 2b bb 48 3d 1a 41 40 3e
       0.13376802 -0.13416056 0.049006622 0.18774834
0000b0 95 7d 7a 3e 80 86 e6 3d 0c 44 c5 bc 80 15 bb 3d
       0.24461968 0.112561226 -0.024080299 0.0913496
0000c0 10 d1 ce 3e dd 7e cb bd f1 aa 40 3e ea 71 ad bd
       0.40393877 -0.099363066 0.18815209 -0.08468993
0000d0 06 3f 38 3e 76 16 d1 3e 67 e1 c8 bd 63 18 0b 3e
       0.17992792 0.4083745 -0.09808617 0.13583522
0000e0 e5 1e 60 be 6a 8b 12 bd 1f c4 23 3d 7b bd dc 3e
       -0.21886785 -0.035777487 0.039981958 0.43113312
0000f0 d2 7c f9 bd 50 6b 45 3d 34 34 cf 3b 21 79 b1 3b
       -0.12182011 0.048198044 0.006323362 0.005416051
000100 f8 eb a0 bd f7 94 d2 bd 08 08 b9 3e 97 ac 21 3e
       -0.078575075 -0.10282319 0.3613894 0.15788494
000110 26 f4 a1 3d fb 92 4f 3e 99 2a 0c 3e a1 f5 51 be
       0.07907896 0.20270912 0.13688125 -0.20503856
000120 1a 78 b3 bd 58 58 91 3e c6 ff 21 3e 0d f5 86 3e
       -0.08763142 0.28387713 0.15820226 0.26358834
000130 08 70 89 3e 32 7d aa 3e 3d 10 a5 3e b2 5c a1 3e
       0.26843286 0.3329864 0.3223895 0.31516033
000140 e7 f3 31 bd 4a 35 bd bc c4 f2 4f 3b 1a 48 b6 3e
       -0.043445494 -0.0230967 0.0031730393 0.35601884
000150 47 a1 59 3e 13 04 6d 3e d3 8c ba bd d8 94 b3 bd
       0.21252929 0.23146085 -0.09108891 -0.08768624
000160 fb f5 c3 3e 3b b1 45 3e 7a 8b 15 3e 46 60 ba 3d
       0.38273606 0.1930589 0.14603987 0.09100394
000170 d8 0d e4 3c 9e d0 9c 3e 5d ff ca bc 8a ae 50 bd
       0.027838632 0.30627912 -0.02477997 -0.050947703
000180 a9 e0 3c 3e c7 c4 7e 3e 5a c9 9d 3e 21 48 8a 3c
       0.18445076 0.24879752 0.30817682 0.016880097
000190 39 5d b6 3d 27 ae 9e 3e 33 2b 10 be 36 cc 59 3e
       0.089044996 0.30992243 -0.14078979 0.21269307
0001a0 18 0a c1 bc d1 6f 8e 3e a3 c8 23 be 0f 9f 36 3e
       -0.023564383 0.27819684 -0.15994506 0.17834114
0001b0 ed 4d ca 3d 18 8c d2 bd cf 6a ab 3e 3e a4 99 3e
       0.098781444 -0.10280627 0.33479926 0.3000812
0001c0 7a 13 48 3e 17 85 61 3e 71 7b 9d 3d 1b 31 9e 3e
       0.1953868 0.22023426 0.0768956 0.3089684
0001d0 17 bb 6f 3e b3 96 bd 3e bf fb 66 3e 8a b8 21 3e
       0.23411213 0.37029037 0.22556971 0.15793052
0001e0 c9 4f ff bd 2a 88 0d 3e 24 e8 d1 bd 05 85 95 3e
       -0.1246639 0.13821474 -0.102493554 0.29203048
0001f0 6a 62 42 be 9e 93 40 3e 2e 2f dd bd af f8 e3 bd
       -0.18982854 0.18806311 -0.108000144 -0.11131417

network.2.weight f4 [128, 128]
000000 db dd 7d bd bb 7a 44 3d 74 4e 86 3d 36 66 d8 3d
       -0.061979156 0.047968607 0.065579325 0.1056637
000010 60 16 e6 3d 86 94 36 3e 81 a3 18 3e 40 18 cd 3d
       0.112347364 0.17830095 0.14906122 0.10014391
000020 ea b7 92 3c 8d 3f 57 be 05 06 21 3e c0 29 d4 3d
       0.017909963 -0.21020336 0.15724953 0.10359526
000030 b2 05 19 3e fe 65 69 bc cf 3e 5a 3c 27 90 74 3d
       0.14943579 -0.014245508 0.013320639 0.059707787
000040 63 db 55 3e 12 60 26 3c 2d 54 cf 3a 51 21 06 3e
       0.2088447 0.010154741 0.0015817933 0.13098647
000050 47 de 43 3e ba 14 4f 3e e5 a2 8a 3c 36 a0 7c 3d
       0.19127761 0.2022275 0.016923377 0.061676227
000060 66 8d 12 3e cf 65 d0 bd c0 d7 0e be 93 bd fc 3d
       0.14311752 -0.101756684 -0.1394949 0.12340846
000070 39 e8 76 3e c5 26 65 3e 58 3c a0 bd ea 30 87 3e
       0.24112023 0.2237807 -0.0782401 0.26404506
000080 ca cd 06 3e 12 bd 8f bd d0 27 1b 3e 05 f9 50 3e
       0.1316444 -0.07018484 0.15151906 0.20407493
000090 6d 81 5b bd f8 7b 9c 3d 1e 86 bd 3d d2 52 a9 bb
       -0.053590227 0.07640833 0.092540964 -0.0051673437
0000a0 4e 79 30 3d c0 f3 e3 bd b2 65 5e 3e 64 7d 23 3e
       0.043084435 -0.11130476 0.21718481 0.15965801
0000b0 f6 d5 c5 3d 72 56 fb 3d 75 cb 25 be 57 d1 13 3e
       0.096599504 0.122723475 -0.16190894 0.14435326
0000c0 b2 92 28 3e 06 91 c0 bd c1 22 d6 bc 4a 2c 81 bd
       0.1646221 -0.09402661 -0.026139619 -0.063072756
0000d0 23 29 73 3e aa ee 10 3e 28 50 00 be 46 5b 81 3b
       0.23746161 0.14153543 -0.12530577 0.003947648
0000e0 a7 6f 33 be 22 64 35 3e e2 0f c3 bd f4 01 60 3e
       -0.1752306 0.17713979 -0.09524514 0.21875745
0000f0 15 ab 7b bc 1a 52 bc bd 83 71 10 3d 3b 9d c5 3d
       -0.015360613 -0.09195347 0.035264503 0.0964913
000100 31 95 ec bd 67 d3 9c 3c 47 a6 24 3e 91 5f 4a 3e
       -0.115518935 0.019143773 0.16079055 0.19763018
000110 5a 04 52 3e 78 5b 20 3e da 0e c5 3d 1b d1 15 be
       0.20509472 0.15659893 0.09621973 -0.14630549
000120 aa 04 67 3c 71 0c a4 bc 1a 67 0e 3e 13 6d 87 3e
       0.014100233 -0.020025464 0.13906518 0.26450405
000130 3b 17 91 3d 65 f0 5f 3d cf 84 1b 3e 98 36 2a 3e
       0.07084509 0.054672617 0.15187381 0.16622388
000140 a8 57 b7 bd 28 9e 18 ba b7 cb 72 3c 8a 46 87 3d
       -0.08952266 -0.0005821907 0.014819077 0.06605251
000150 57 f3 d9 3d 8a ae 95 3d 8e 75 1f be e9 51 39 be
       0.106421165 0.07308681 -0.15572187 -0.18097652
000160 64 b3 da 3d 84 97 92 bc 90 53 16 3e a6 7d af 3d
       0.10678747 -0.017894514 0.14680314 0.085688874
000170 23 c2 00 3e 9e 0f 07 3e 9e 4c 6c 3c a7 f4 9f bd
       0.12574057 0.13189551 0.014422564 -0.078103356
000180 75 c3 a5 3d f2 3d 86 3d 98 4d 66 bd 43 cd 97 3d
       0.08093921 0.06554784 -0.056226343 0.074121974
000190 8b 62 0c 3e 7d f8 03 3e 18 dd f8 bd 24 2e 21 3e
       0.13709466 0.1288776 -0.12151545 0.15740258
0001a0 93 94 01 be 09 be 34 3e 6d 27 ce bd 1b 18 73 bc
       -0.12654333 0.17650618 -0.100661136 -0.01483729
0001b0 15 49 23 3e 15 59 c2 bd dc 48 1e 3e bd 26 ed 3d
       0.15945847 -0.09489647 0.15457481 0.11579654
0001c0 cc 88 f5 3c 7c b2 04 3d 2a 71 e0 3d e7 93 2b 3e
       0.029972456 0.03239678 0.10959084 0.16755639
0001d0 31 ac 33 3d 6c ac ac 3d 82 dc d4 3d 3b ee f6 3d
       0.043865386 0.08431324 0.10393621 0.120571576
0001e0 92 3b e8 bd a2 f3 7e 3d ab 47 e1 bd 6f 03 85 3d
       -0.11339487 0.062244065 -0.10999998 0.064947955
0001f0 e4 0a e9 bb af 85 b1 3d 22 25 1d be 3d ae e7 bd
       -0.007111894 0.08668076 -0.15346196 -0.1131253
000200 06 f3 0b be 3f e0 8b 3d 92 0d 30 3e f7 95 30 3e
       -0.13666925 0.06829881 0.17192677 0.17244707
000210 e7 45 25 3e 27 9a d1 3d c8 4a c0 3d 34 f9 f8 3d
       0.16139947 0.1023448 0.093892634 0.12156907
000220 2e 60 af 3d 66 1e 0c be e4 5b dc 3d 64 5d 47 3d
       0.08563267 -0.13683471 0.10759714 0.04867305
000230 aa 2b 50 3e 90 41 92 3d f9 40 ca 3d 27 bd 07 3d
       0.20329157 0.07141411 0.09875674 0.033139374
000240 33 6f 13 3e 4a af 77 bd fe 17 e9 bd 09 4f 5a 3d
       0.14397888 -0.060469903 -0.11381529 0.05329803
000250 c5 fb 21 3e 12 93 a1 3d 31 2c 1a bc fa fa 0e 3d
       0.15818699 0.078893796 -0.00940995 0.03490732
000260 52 47 1c 3e 8c 18 7a bd 63 da d8 bd a3 d5 03 3e
       0.15261582 -0.061058566 -0.10588529 0.12874465
000270 9f 51 31 3e 0b 90 33 3e b1 7d fd bc 78 56 82 3e
       0.17316292 0.17535417 -0.030943723 0.25456595
000280 5c d8 e6 3d 99 5d 2a be cf a5 70 3d eb eb e7 3d
       0.11271736 -0.16637267 0.058751877 0.11324295
000290 9d 65 50 be 2f fb 27 3e d5 0d b7 bc 58 bf 15 be
       -0.20351262 0.16404413 -0.022345463 -0.14623773
0002a0 ea 7f 46 3e ec b9 d7 bc e6 0a 5a 3e 41 07 4c 3e
       0.19384733 -0.026333772 0.2129322 0.19924642
0002b0 f0 72 35 3d c9 be 19 3e 05 bb 05 3d cc 5b a8 3d
       0.044299066 0.15014185 0.03264906 0.08220634
0002c0 fd c4 08 3e 19 54 46 be 0a a0 f0 3d b2 ab 74 bd
       0.13356395 -0.19368018 0.11749275 -0.059734054
0002d0 45 86 8d 3e 92 81 01 3e 90 75 57 bd 1e ad cb 3d
       0.27641502 0.12647083 -0.05260235 0.09945129
0002e0 f2 13 ed bd 09 f5 27 3d 94 9a 69 bc 61 9e 7d 3e
       -0.1157607 0.041005168 -0.014258046 0.24767448
0002f0 4d 9b 9d bb 25 9b 9b 3c 33 d9 c1 3d 9b 5f 69 3e
       -0.004809773 0.018994877 0.094652556 0.22790377
000300 61 8f f4 bd c5 9b cc 3c 2e 27 12 3e 32 c5 8d 3e
       -0.1194141 0.02497662 0.14272758 0.2768951
000310 9b fc 01 3e 67 39 d4 3d 09 f4 cd 3d 38 0d b8 bd
       0.12694018 0.10362511 0.10056312 -0.08986896
000320 ad ed 03 bc 8e 1c e0 3d 11 ae e6 3c bf c9 69 3e
       -0.008052272 0.109429464 0.028159173 0.22830866
000330 8c 9c 1b 3e 4b 71 c7 3d c7 9d 0d 3e 61 38 09 3e
       0.15196437 0.09738406 0.13829719 0.13400413
000340 0b 4b 23 3d 48 6b 0b bd 82 60 29 3d 3b 61 8b 3d
       0.03986649 -0.03403786 0.041351803 0.068056546
000350 08 6d 21 3e 2d 14 15 3e c4 1e e1 bd a3 b4 1f be
       0.15764248 0.14558478 -0.10992196 -0.15596251
000360 80 79 5b 3e f9 56 34 3e 08 42 8e 3c 01 96 d7 3d
       0.21433067 0.17611302 0.01736547 0.10526658
000370 2d c7 70 3e ba d9 9d 3c 1d 93 9b 3d c7 22 80 bd
       0.2351348 0.01926886 0.07596419 -0.06256633
000380 53 48 3e 3e a4 60 07 3e 33 eb db 3d cc ce b3 3d
       0.18582277 0.13220459 0.1073822 0.08779678
000390 72 6d 88 3d e6 01 13 3e d7 79 cc bd df 62 ff 3c
       0.066615 0.14356193 -0.099841766 0.031175075
0003a0 5f 45 68 bd 61 0f d9 3d 1e 3e 23 bd 01 54 67 3d
       -0.056706782 0.105986364 -0.03985416 0.056476597
0003b0 5a 01 06 3e e6 7f e2 bd 4e 8e c5 3d de f2 28 3e
       0.13086453 -0.11059551 0.09646283 0.16498896
0003c0 02 f0 03 3e e8 e2 1b 3e 14 0a 85 bc 18 07 0b 3e
       0.12884524 0.15223277 -0.016240157 0.13576925
0003d0 30 94 23 3e 99 c0 09 3e 68 d4 33 3e 77 59 5c 3e
       0.15974498 0.13452376 0.17561495 0.21518503
0003e0 65 fb 09 bd b5 f4 2d 3e a5 78 cc bc bd 71 cc 3d
       -0.033687014 0.1698788 -0.024959872 0.09982631
0003f0 fe 65 14 bd c1 86 e7 3d 2d 7d e7 bd c3 be 18 be
       -0.03623008 0.11304999 -0.11303172 -0.1491652

network.2.bias f4 [128]
000000 48 8b 92 3d e7 e6 07 3e f0 b8 04 be d7 3e 6c 3e
       0.07155472 0.13271676 -0.12961173 0.23070846
000010 9f 7a 56 3e da 05 8a bd 9a a4 24 3e d7 02 b5 bd
       0.20945214 -0.06739397 0.16078416 -0.08838432
000020 6c dc 23 3d 7a fc 04 be bd 28 b5 bd 27 18 8a 3b
       0.040005133 -0.12986937 -0.08845661 0.004214305
000030 ee b5 b1 bd 22 c1 24 be 30 ff 84 bc 4c 37 d2 bd
       -0.086772785 -0.160893 -0.016234964 -0.10264453
000040 0f 42 db 3c 90 c3 36 3e 2a 0d 9a 3e 42 40 60 bc
       0.026764898 0.17848039 0.30088168 -0.013687195
000050 e3 cd a2 bc 5a d7 28 3e c8 c0 11 be 8a f6 fa bb
       -0.019873565 0.164884 -0.14233696 -0.0076587843
000060 65 38 a2 3d ba b4 b3 bc dc 67 31 bb 0b d3 da 3d
       0.07920913 -0.021936763 -0.0027069962 0.106847845
000070 0f 83 07 3a bc f2 3c 3e 03 98 dd bd cf b3 83 3e
       0.00051693706 0.18451971 -0.108200096 0.2572312
000080 52 23 8e bb 9c b4 46 3e 8a fa 26 3e 68 ea 69 3e
       -0.0043377066 0.19404835 0.1630651 0.22843325
000090 4e 93 5b bd 53 a4 86 3e aa c3 6b bd 41 10 24 3e
       -0.053607278 0.26297244 -0.057559647 0.16021825
0000a0 d8 24 5e 3e 3f b8 a6 3b 63 02 46 3e 6a df 0f 3e
       0.21693742 0.005087882 0.19336848 0.1405007
0000b0 a1 93 93 3c 8d f2 5b 3b 36 7e b7 3d 76 af f0 3c
       0.01801473 0.003356132 0.0895962 0.029380541
0000c0 e5 29 89 bd 49 45 49 bc 21 99 72 bd e3 ab 30 bd
       -0.06697444 -0.012284585 -0.059228066 -0.043132674
0000d0 0f b1 b0 bc d0 25 de 3d 21 d6 ea bd c3 a9 4c 3e
       -0.021568803 0.10847056 -0.11466623 0.19986634
0000e0 24 98 fe 3d 16 95 02 be fd 51 ba bd 46 4c 31 be
       0.12431362 -0.12752184 -0.09097669 -0.17314252
0000f0 6c f8 d7 bd 7d 79 ea bd 8b 75 ee bd 08 ef 84 3e
       -0.105454296 -0.11448953 -0.11643513 0.25963616
000100 1b 67 48 bd 74 79 b6 bd 79 6d 56 3e 14 79 1f 3e
       -0.048926454 -0.08909884 0.20940198 0.15573531
000110 ab 32 d4 bd 13 82 09 3e 87 3a 6e 3d a3 77 09 bd
       -0.10361227 0.13428526 0.058161285 -0.03356136
000120 66 bf 33 bb 43 d5 02 3e 23 9b f2 bd cb c4 0d bd
       -0.0027427315 0.12776665 -0.11845996 -0.034611505
000130 18 be 97 bc 83 48 39 bd 69 f4 47 3e 84 eb 45 bd
       -0.018523261 -0.04523517 0.19526829 -0.04832031
000140 3d a8 e9 3d e2 c5 e0 bd 6f e2 15 bd 58 8d f9 bd
       0.11409042 -0.10975243 -0.036592897 -0.12185162
000150 8d 25 1b 3e 43 65 ac bd d6 ce d4 3d 49 a6 76 bd
       0.15151043 -0.08417752 0.10391013 -0.060217176
000160 98 ae c5 bd bb f6 f6 3d 69 57 8c 3e 4a 51 27 bd
       -0.09652442 0.12058779 0.2741044 -0.040849008
000170 e5 1c 1f be 65 18 b6 bd 17 68 40 3e 99 41 80 3e
       -0.15538366 -0.08891372 0.18789707 0.25050047
000180 a5 1c 99 bd 56 53 73 3d d3 ba 2d 3e e4 36 4d bd
       -0.07476167 0.059405647 0.16965799 -0.050101176
000190 24 1b ab bc a7 14 96 bd 09 1a a9 bd 27 cd 36 bc
       -0.020886965 -0.07328158 -0.08256919 -0.011157311
0001a0 02 e9 a1 bd 9b 8d 47 3e 9c a7 dc bb c2 9b 88 3e
       -0.07905771 0.19487612 -0.006733848 0.26681334
0001b0 8d 14 08 3d 20 16 e2 bd ee 28 0d bd 04 e5 15 3e
       0.033222724 -0.11039376 -0.03446286 0.14638144
0001c0 ad f7 78 bc cb 1b 2d 3e 48 27 3b 3e d5 65 21 bd
       -0.015195769 0.16905133 0.18276703 -0.039403755
0001d0 50 e5 91 bd 23 b1 f2 bd 12 c7 0c be 16 05 55 3b
       -0.07123816 -0.118501924 -0.13747814 0.0032504252
0001e0 2b af 82 3e 1a 4f 7d 3e c2 85 0d bd e2 68 2c 3e
       0.25524268 0.24737206 -0.03455139 0.16836885
0001f0 16 24 2d 3e 3a 77 b4 bc d0 62 11 be 73 d2 d3 bc
       0.16908297 -0.022029508 -0.1419785 -0.025857186
