models/actor_episode_400.pt (torch, 277228 bytes, 6 tensors)

net.0.weight f4 [256, 6]
00000000: 9801 d13e 8e57 a33e 5854 763d 878d 89be
00000010: d067 5abe 10c2 19bd 6c32 9dbe c093 89be
00000020: e040 ac3e 5682 c6be 8252 833e fa38 60be
00000030: 4006 8bbd 360c 8b3e 956f 91be 2c9d 6c3e
00000040: 0a12 85be fc02 ad3e 884c d9bd 088f 023e
00000050: 3c23 fabd ded4 31be a653 c43e 1470 903e
00000060: 882f bd3d f051 823c 706d e33d 381c a63d
00000070: 441a 8e3d a2dc a8be 80e4 163d a07e cfbc
00000080: aa53 13be d694 23be 06e4 923e e08c d4bc
00000090: 20c1 5fbc e18a 2ebe 74ae 67be a44c 773e
000000a0: 4caf b3bd e821 01bd f305 27be fd71 babe
000000b0: 54a8 913d c8da 953d a4b5 9b3d 3079 4f3e
000000c0: 8ebb ab3e b438 273e b0ff 933d b4ea 3b3e
000000d0: c8f7 91bd c059 d83d ecd0 d3bd b803 b7bd
000000e0: 4b8a d0be d863 a23d fba5 48be c077 573d
000000f0: 6cc4 4e3e 9834 7b3e 4e2b 8f3e d9c0 51be
00000100: 803d 393b 7cb0 c4bd d858 2fbd b079 8f3c
00000110: 24fd ad3d d06e a2be 5095 453d 321a 7abe
00000120: 583b 043e 304a b43d ea93 cb3e 70af 483e
00000130: 40a3 febd f006 6ebd 58e6 a0bd a008 b0be
00000140: bee1 89be 684d c13d 4cf0 a93d 20e9 bb3c
00000150: c8a2 21bd a426 88be a8d1 113e 24c0 abbd
00000160: c024 f53b e058 8d3e 60c6 cbbe c448 eebd
00000170: a768 adbe fa44 46be 153f c4be e602 813e
00000180: 7c1a 4dbe 5053 d33c 10c6 bd3c b0ea a8be
00000190: 2abc b2be 0076 763e 0005 ca3a d3f2 62be
000001a0: e032 843e b4a1 1e3e 24fd ac3e 35c1 9cbe
000001b0: a6df 873e a02e 833e 1499 7c3e 4c0f d7bd
000001c0: 76b6 b83e 009c 48bb e854 283d dec9 3bbe
000001d0: 5c1d 853e c85b 9a3d 906e e3bc 08cb ec3d
000001e0: 3059 bb3d be65 b23e 570a 80be 4193 93be
000001f0: 90a1 4f3e 3782 38be 3a66 0fbe e00b 083d
00000200: 914f c6be 3c4f bfbd d287 8abe bcba 383e
00000210: b025 f33d f8f8 c2bd 2003 2dbe 3c28 a3bd
00000220: 86c3 b83e 3053 a63e 23c0 95be f0a4 cc3e
00000230: 904d 34be 5cde a6bd 3c29 c1bd 1f5b c4be
00000240: e8e7 0b3e 9414 0b3e d0fb afbe b434 cf3e
00000250: 2013 1a3c b4e8 8abd c149 56be 4ac2 64be
00000260: 5870 953e acc5 153e ce7f 21be 1fc9 babe
00000270: 29cc 7bbe d07d 89be 6015 8abe 680d d33d
00000280: 043d 13be 1413 a73e 901a 20bd 3495 83bd
00000290: f2f1 1cbe c8b9 90be d8e5 5f3e 7086 de3c
000002a0: 9287 89be a0c5 bbbd 0086 9a3b 00ee d5bc
000002b0: a2ad cc3e 105f 773d 0275 9a3e 4a54 94be
000002c0: 84f1 0a3e 4bfa 44be 2ae3 0ebe 0062 aa3e
000002d0: cc93 653e bcb5 dfbd 40ce 8bbb a092 a83d
000002e0: b80b 3a3e 5237 02be 8de1 42be 00ff ba3e
000002f0: c04b be3d 3ca6 8a3d ab2f 22be d067 15bd
00000300: b064 b03e fad8 c93e 2015 0dbc 4e91 bd3e
00000310: 08ba 423d edba 45be 0007 f63a b0e6 ba3c
00000320: 467a 23be bc68 47be f89b 6abd d05e b33e
00000330: e81b d7bd d83b 5cbe fc64 3b3e b444 183e
00000340: 4065 8c3e 28bd 383e f058 a9bd 166a a23e
00000350: 501c 673d 2099 a43d 38d9 c7bd d4ba 31be
00000360: 50df bf3d 0093 f73d 0420 363e d9f5 3ebe
00000370: 9ed9 b63e 708e a3bd 603e b6be b55c a1be
00000380: d4b1 623e 804e 343e 3205 1ebe eacc c2be
00000390: 30a2 52bd 20f0 e33d 10cc e63d 4036 9d3c
000003a0: 0786 84be 3e90 48be 1c06 c3be b8cd 2c3e
000003b0: ec1d cb3e 38f8 b63e 9038 543d 288a cb3e
000003c0: e8b0 dbbd 587a ecbd 2647 923e d2e3 be3e
000003d0: 1009 dabd 3386 36be 0071 9ebd b620 853e
000003e0: 2dc2 67be 101a 52bd 7efd abbe 0087 073e
000003f0: ec36 a1bd 3be3 43be 1aff 823e e0ff 36bc
0.40821528 0.31902736 0.06013903 -0.2686579 -0.21328664 -0.037538588 -0.3070253 -0.26870537
0.33643246 -0.38771313 0.25648886 -0.21896735 -0.067883015 0.27157754 -0.28405443 0.23106831
-0.25990325 0.3379134 -0.106103 0.12749875 -0.12213752 -0.17366359 0.3834507 0.2821051
0.092375815 0.015908211 0.11104858 0.08110851 0.069386035 -0.3298083 0.03683901 -0.025328934
-0.14387384 -0.15974745 0.28689593 -0.02594608 -0.013656884 -0.17045166 -0.22625142 0.2415033
-0.087736696 -0.031526476 -0.16310863 -0.3641509 0.07112184 0.0731712 0.076030046 0.20261073
0.3354153 0.16330224 0.07226503 0.18351251 -0.07127339 0.105639935 -0.10342583 -0.08936256
-0.4073051 0.079292 -0.19594567 0.052604437 0.20192116 0.24531782 0.27962726 -0.20483722
0.0028265417 -0.09603974 -0.042809337 0.01751408 0.08495548 -0.31725168 0.0482381 -0.24424055
0.12913263 0.08803213 0.39761287 0.19598174 -0.12433481 -0.058112085 -0.078564346 -0.3438158
-0.2693004 0.09438592 0.08297786 0.022938311 -0.03946188 -0.2659198 0.14240134 -0.08386257
0.0074811876 0.2760687 -0.39799786 -0.11634973 -0.33868906 -0.1936225 -0.38329378 0.25197524
-0.20029634 0.025796562 0.023165733 -0.32991552 -0.34909183 0.24068451 0.0015412867 -0.22162943
0.25820065 0.15491372 0.3378688 -0.30616155 0.26537818 0.2562151 0.2466777 -0.105009645
0.36076707 -0.0030610561 0.041096598 -0.18338725 0.25998962 0.07537037 -0.027762681 0.11562163
0.091478705 0.34843248 -0.2500789 -0.28823283 0.20276475 -0.18018423 -0.1400384 0.03321445
-0.3873258 -0.09341285 -0.27056748 0.18039984 0.11872423 -0.09520143 -0.16895723 -0.079666585
0.36086673 0.32485342 -0.2924815 0.39969587 -0.17607713 -0.081478804 -0.09431693 -0.3835077
0.13662684 0.13582069 -0.34371805 0.40469897 0.009403974 -0.06782666 -0.20926572 -0.2233974
0.29187274 0.14626187 -0.1577141 -0.36481568 -0.245896 -0.268538 -0.26969433 0.103052914
-0.14378744 0.32631743 -0.039087832 -0.064249426 -0.1532667 -0.2826674 0.21865022 0.027163714
-0.26861244 -0.09168553 0.004715681 -0.026114464 0.3997622 0.060393393 0.30167395 -0.28970557
0.13568693 -0.19236104 -0.13953844 0.33277893 0.22419661 -0.10923335 -0.0042665303 0.082310915
0.18168533 -0.12716416 -0.19031353 0.36522675 0.09291792 0.06769988 -0.15838496 -0.036475956
0.34451818 0.39423352 -0.008610994 0.3702492 0.047540694 -0.19309588 0.0018770397 0.022815078
-0.15964612 -0.19473547 -0.05727765 0.35033274 -0.105033696 -0.21507204 0.18300241 0.14869958
0.27420998 0.18040907 -0.082689166 0.31721562 0.056423485 0.08037019 -0.09758228 -0.17356426
0.09368765 0.12088585 0.1778565 -0.18648471 0.35712904 -0.07986152 -0.35594463 -0.31516042
0.22138149 0.1760807 -0.1543167 -0.38046962 -0.051424205 0.111297846 0.112693906 0.019190907
-0.25883505 -0.19586274 -0.380906 0.1687535 0.39671266 0.3573625 0.051811755 0.39753842
-0.107271016 -0.11546773 0.28569907 0.37283188 -0.1064626 -0.1782463 -0.07736397 0.2600152
-0.22632666 -0.051294386 -0.33591837 0.13235092 -0.07871804 -0.1912965 0.25585252 -0.011169404

net.0.bias f4 [256]
00000000: a074 ed3d 9b51 8dbe f8a8 d93d a0b2 aa3d
00000010: 383e b4bd 5081 f03d e6c9 bdbe 2888 adbe
00000020: ba27 a4be d0a9 d0bd d881 b1be 584a 8bbe
00000030: db39 37be 3c72 94be 9808 6b3e 409d 8c3b
00000040: 9036 793e 209a 653d 8068 08bd 405e 923d
00000050: fc1d 1bbe b38a a8be 140b 973e 5983 5dbe
00000060: aefc b83e f07d cebc cf79 b3be 0616 a0be
00000070: 34cb c53e 244a 243e 3ee6 23be c8cf 5e3e
00000080: 4c7f cfbe 43b4 c8be 889b 31be f3cd c1be
00000090: 0082 8bbe fc8d c83e d052 433d 8cb2 953e
000000a0: f2b9 a3be f495 813e 5804 a83e 2c12 0e3e
000000b0: 6d37 94be c0b1 873e 2018 59bc 19bc 45be
000000c0: 0c59 6ebe 3c0d a0be 16f2 46be 90d0 383d
000000d0: 40c2 953e d622 a1be 004b 093e 5c0b 3c3e
000000e0: caca 913e 32c0 833e 68d3 66bd 9ed0 86be
000000f0: bed1 0cbe ccfc 783e 7ebd c73e 446d 873e
00000100: dc93 2abe c07f 273c 1ce1 a63e 9047 b5be
00000110: f3b6 75be 469c 07be fcf8 903e 9444 b8bd
00000120: d8bb 463e 92cf c23e f02d ee3c 80ac 96bb
00000130: e0d0 9abc 66b4 48be f3fb b6be 9e2a bbbe
00000140: dc62 223e 82ac 813e a8dc a03e 845a b13e
00000150: ac08 17be f8b3 493e b671 bf3e 4a90 1cbe
00000160: 76cd 84be 61a9 79be 1856 323d bc06 80bd
00000170: 5c3e 7d3e da1b d03e e6a5 4fbe a823 4a3d
00000180: ad3c adbe 44ab 703e e0c3 c3bc 5863 623e
00000190: 2adf bf3e 5054 f8bc 26ad be3e f8f9 07bd
000001a0: e271 8bbe 60c3 d63d 807e 8c3d b66c a3be
000001b0: ac4e c63e 7ef5 a83e 8df9 a1be 003e 12bd
000001c0: 480b 013e 00be 17bc 28a1 5fbd 20c2 633e
000001d0: 48ac 1a3e b414 8dbe d02c 133e 8826 c03e
000001e0: 0442 50be 10de e13d 9029 8cbd bc82 623e
000001f0: 12a5 cd3e 3829 ee3d e086 d4bd 80fc 753e
00000200: 88c7 333e 94ec 573e a818 843d c0bb 923b
00000210: a8fc c13d 9879 d73d adb9 87be 8a04 9c3e
00000220: f4ce c2bd c8b2 bd3d e8d1 843d f8a7 d03e
00000230: aa5f a6be d847 693d fde1 cebe 98df 4bbd
00000240: 6f72 4ebe d815 c13e 98f5 0cbe a677 a83e
00000250: 4880 8e3e 307c 30bd 6800 7b3d 641a ae3e
00000260: 8c40 a23e 9537 bfbe b0a8 fa3d 6e83 1fbe
00000270: f0f0 cd3e 4ce4 19be 12f8 a93e 0c23 fabd
00000280: a4f5 3c3e 3861 9ebe 00d3 c83b d838 363d
00000290: 3801 103d 0c89 cebe e8cd 9b3e c4d0 60be
000002a0: 0e66 83be d24d 963e 109c 4c3e e081 983e
000002b0: 7829 253d b0a2 6f3e 887c 0e3d e754 abbe
000002c0: 7e48 903e faea 963e 681e 5c3e 80f6 513e
000002d0: 8c9e 363e c0c4 a63d d89e df3d 02f0 bdbe
000002e0: 7007 a43e 89ea a3be 1045 50be bfb6 b7be
000002f0: 58e9 863d c0ac c4bb b89a 3b3e c40e d6bd
00000300: 3891 a33e 2a24 19be 9824 53bd 9401 6b3e
00000310: 3604 b33e 7005 233e aa6d 2ebe 744f 3e3e
00000320: c5e6 6bbe 6c91 803e 5481 0f3e 72cb c0be
00000330: 24d2 6e3e c4ba 363e 9ace 913e 60f5 babc
00000340: 50e6 113e 6d09 c7be 3ad1 ae3e 7493 9b3d
00000350: 205f d8bd 6918 2cbe a56b 59be d427 6ebe
00000360: 70f7 363e d8ee 56bd fa86 c23e 1ee3 99be
00000370: 4458 133e 3822 103e 81e1 95be 6852 c5be
00000380: 3010 b0be 2938 82be c8a8 7a3e feaf 903e
00000390: a0da ebbd 3a9d ca3e 80ce e1bc 6488 72be
000003a0: 276e 3bbe 984f 2b3e 7827 393d a1a1 32be
000003b0: dc70 3a3e 84f0 85be d8e8 abbe a8e4 3f3e
000003c0: 8087 aebe 3ccf 05be 8249 49be f662 00be
000003d0: a0ab c83e 606a 1ebd 00ac 8f3b 96df 03be
000003e0: 929a a9be ca4e ca3e 4cb8 acbd d6d2 823e
000003f0: d3e2 5ebe f742 87be 38bd 4e3e a069 c5be
0.1159451 -0.27601323 0.10627931 0.08334851 -0.0880093 0.117434144 -0.370681 -0.3389294
-0.3206156 -0.10188639 -0.34669375 -0.27205157 -0.17893164 -0.28993404 0.22952497 0.0042912066
0.2433722 0.05605519 -0.033302784 0.07146883 -0.15148157 -0.3291832 0.2950064 -0.21632136
0.3613028 -0.025206536 -0.3505387 -0.31266803 0.38631594 0.16043907 -0.16005799 0.2175895
-0.40526807 -0.3920003 -0.17344487 -0.3785244 -0.2724762 0.39170825 0.047686398 0.29237783
-0.31977803 0.25309718 0.32815814 0.1387412 -0.28948537 0.265028 -0.013250381 -0.19310035
-0.23276156 -0.31260097 -0.19428286 0.045120776 0.29249763 -0.3147189 0.13407516 0.18363708
0.28475028 0.2573257 -0.056353956 -0.26331037 -0.13751885 0.24315184 0.3901176 0.2645055
-0.16657966 0.010223329 0.3259362 -0.3540616 -0.23995571 -0.13243207 0.2831496 -0.08997455
0.19407594 0.3804899 0.02907464 -0.0045982003 -0.018898427 -0.19600067 -0.35739097 -0.36555952
0.15858024 0.25326926 0.31418347 0.3463937 -0.14749402 0.19697559 0.37391442 -0.15289417
-0.25938004 -0.24381019 0.043539137 -0.062512845 0.2473082 0.4064625 -0.20278129 0.04935041
-0.33835354 0.23502833 -0.023897111 0.22108209 0.37474948 -0.03031364 0.37241477 -0.033197373
-0.27235323 0.104864836 0.068600655 -0.31918877 0.38731897 0.32999796 -0.31635705 -0.03570366
0.1260196 -0.009261608 -0.05459705 0.22242022 0.15104783 -0.27554858 0.14372563 0.37529397
-0.20337683 0.11028683 -0.06843865 0.22120184 0.40165 0.116289556 -0.10377288 0.24022102
0.17556584 0.21086341 0.06450015 0.004477948 0.094720185 0.10521239 -0.26508847 0.30472213
-0.095121294 0.092626154 0.06485349 0.4075315 -0.3249486 0.05695328 -0.4040679 -0.049773782
-0.2016084 0.37711978 -0.13765562 0.32903785 0.27832246 -0.043087184 0.061279684 0.3400451
0.3168987 -0.37347093 0.12239206 -0.1557748 0.40222883 -0.15028495 0.33197075 -0.12213716
0.1845308 -0.30933547 0.006128669 0.044487804 0.035157412 -0.40338933 0.30430532 -0.21954638
-0.256638 0.29356247 0.19981408 0.29786587 0.04032275 0.23401904 0.03478673 -0.33463213
0.28180307 0.29476148 0.21495974 0.20504189 0.17833918 0.08142996 0.10918969 -0.37097174
0.32036924 -0.32014874 -0.20338845 -0.35881612 0.065874755 -0.0060020387 0.1832074 -0.10452035
0.3194673 -0.14955202 -0.05154857 0.22949821 0.3496415 0.15920043 -0.17034021 0.18584996
-0.2303725 0.25110948 0.14014179 -0.37655216 0.2332235 0.17844683 0.28477937 -0.022822082
0.14248013 -0.3887438 0.34144002 0.07596484 -0.10565019 -0.16806187 -0.2123247 -0.2325738
0.17867827 -0.052473873 0.37993604 -0.3005609 0.1438914 0.14075553 -0.29273608 -0.38539433
-0.3438735 -0.25433472 0.24478447 0.2825927 -0.11516309 0.3957308 -0.027564287 -0.23684841
-0.18303739 0.16729581 0.045203656 -0.17444469 0.18207115 -0.2616006 -0.33576083 0.18739569
-0.34087753 -0.13067335 -0.19656947 -0.1253775 0.3919344 -0.038675666 0.0043845177 -0.1287826
-0.3312574 0.39513236 -0.08433589 0.2555148 -0.21766214 -0.26418278 0.20189369 -0.38557148

net.2.weight f4 [256, 256]
00000000: 48e7 ef3c 60ef f63c 300f f83c 0c9f 1e3d
00000010: 2024 61bc bcda adbc feca 0ebd ac5d d23c
00000020: f47f 1bbd 4a4c 4bbd 283d 563d d48a b4bc
00000030: 50fb 193c 5efe 533d 0808 e13c d48e b43c
00000040: 5839 5b3c 206a a83b 2cfa bc3c 181f 74bd
00000050: de6f 79bd 3000 83bb 00a3 e539 3821 e1bc
00000060: eecd 443d a828 75bd 8813 a8bc 002c 623a
00000070: 683d 613d f0f5 8ebb fa0d 093d dc1d 903c
00000080: e2ea 653d 02eb 70bd 402e 76bd ea5c 5d3d
00000090: 0842 c8bc e0f7 913c 2c7c 673d 3094 10bd
000000a0: 4a3f 6e3d 7c94 06bd 0482 b43c 36d2 69bd
000000b0: c8eb 1cbd c09d 763d 4012 833a 30e3 6e3d
000000c0: f8d2 613c 800a 0a3d 7c30 663d e0ec 603c
000000d0: 1e19 74bd a411 75bd 524c 0b3d 403c 55bd
000000e0: 2006 51bc c803 66bc 00cd 6b3a 7af1 3bbd
000000f0: f4b7 54bd 20df c93c b8fc 3dbc 7826 5abc
00000100: 00a7 e8bb e026 213d 32e0 72bd 1414 963c
00000110: 7834 4b3c e0b6 493b 901b 143d 948c 3c3d
00000120: 74b7 d53c c478 56bd 020b 203d 1009 023d
00000130: bab3 33bd 36cb 1b3d 06f7 493d 6e88 0c3d
00000140: 08f8 7e3d 2c3b e43c 8c70 103d 0035 ee39
00000150: 005d d13a a07c 70bc f816 a6bc 4e7c 09bd
00000160: d47c 0ebd 6c3e fbbc c8d1 2a3d 20e5 f2bb
00000170: 2c15 09bd f4ca f53c 5ef2 663d c024 e5bb
00000180: 220e 773d 4c4f 60bd 620b 6e3d 4c6a 433d
00000190: 4e86 433d de79 7d3d 888c 773d 20c6 563c
000001a0: 0836 58bd 40ea 12bc c835 433d c03c a2bc
000001b0: 4a35 48bd eea1 3cbd bca4 b83c 000a 5ab9
000001c0: b865 193d 746f 42bd 98cd 423d de73 47bd
000001d0: 905f 553d 80f3 12ba 8015 48bd c025 f2ba
000001e0: dc36 793d c4f7 c33c ac77 ce3c c4b2 fbbc
000001f0: 0659 793d 943c 52bd f0dd 753c 4004 b9bb
00000200: 1e32 793d ac18 763d 8c24 6a3d 2010 553c
00000210: 66be 773d e0ca a0bc f839 7fbc f0e4 5abc
00000220: f8cf d13c a075 14bc bc86 7b3d be43 43bd
00000230: 5cb5 b6bc 64e2 71bd e009 673b 42c5 023d
00000240: 7c70 16bd a0a6 793b 0cbb 07bd 9039 b13c
00000250: 20bd 173c 40cb 47bd 30ba 53bc 60ac 0b3c
00000260: fe46 403d 5093 873c f2a8 59bd 2630 44bd
00000270: f4d7 da3c 704e a53b c8bc 4fbd 6046 82bc
00000280: 1414 243d c0d5 483b 94f9 9c3c 306d e03b
00000290: c0d1 123d 58fa 023d 001c 213c e491 a13c
000002a0: e8fe 40bc 809e 2d3c 48d5 98bc 6cf4 86bc
000002b0: 7027 c13c bc24 683d 10e8 4cbd 784d 243c
000002c0: 5068 543c a6dc 0abd 30cf c93b d837 20bc
000002d0: 30b9 6a3d eaa7 683d 8059 db3b 441d 61bd
000002e0: 00db 263b 9820 593d 3e2c 593d 74f4 a63c
000002f0: 6a75 263d 5085 7bbd 4497 18bd bc48 b53c
00000300: 403a 97bb 0273 2b3d d8ef 1ebd 06b8 6ebd
00000310: dc2c 37bd b02e d7bb 1edb 3abd 942e dfbc
00000320: f0c8 273c 7c56 913c f4b8 fbbc 3e00 223d
00000330: 881e 33bc c4ec b1bc 8475 c53c 1cbc 893c
00000340: ee29 0b3d f8db b03c 88ac 613c 70d5 743c
00000350: 0c2f 623d c882 1e3d 7eaa 223d 5c58 a4bc
00000360: 50f0 513d dc53 e93c a20b 00bd 16cf 1b3d
00000370: 9a32 28bd c856 abbc f8a0 c7bc 3202 43bd
00000380: d882 8ebc 1c98 eb3c a0d1 f3bb f07d 2ebd
00000390: f026 01bc ccaf 833c 882d f33c b235 7bbd
000003a0: ea9f 623d 106d 15bc 7689 1dbd 007d 883b
000003b0: d4f5 843c 2e1c 1e3d 0091 853a f4ec 423d
000003c0: facd 293d d66f 173d 70e5 293c 0ec8 41bd
000003d0: 8603 1c3d e0a2 4cbb 20e0 88bb d285 763d
000003e0: f02f 003c 7088 c73b 401e c63a d062 533c
000003f0: 1a04 75bd 70c6 f4bc dabb 5ebd 60b7 603d
0.029285088 0.03014344 0.03028068 0.038725898 -0.013741523 -0.021222465 -0.034861557 0.025679432
-0.037963822 -0.0496333 0.052304417 -0.022038855 0.0093982965 0.051756255 0.02746965 0.022040762
0.013380371 0.005139604 0.02306851 -0.059599966 -0.0608977 -0.003997825 0.00043799728 -0.02748166
0.048047952 -0.059853226 -0.020517126 0.00086277723 0.054990202 -0.004362814 0.033460595 0.017592363
0.056132205 -0.05881787 -0.0601027 0.054043688 -0.024445549 0.017818391 0.056514904 -0.035297573
0.058165826 -0.03285645 0.022034653 -0.05708524 -0.038310796 0.060209036 0.0009999946 0.05832213
0.013783209 0.03370142 0.056198582 0.01372835 -0.059594266 -0.059831277 0.03400833 -0.052059412
-0.012757808 -0.014038987 0.0008995086 -0.045884587 -0.051933244 0.024642527 -0.011595897 -0.013314836
-0.007099986 0.039343715 -0.05929584 0.01832012 0.012402646 0.0030779168 0.0361591 0.046032503
0.026088454 -0.052361265 0.039072998 0.031746924 -0.043872572 0.038035594 0.049307846 0.034309797
0.06224826 0.027860247 0.035263583 0.00045434386 0.0015973151 -0.01467815 -0.020274624 -0.03356581
-0.034787014 -0.030669414 0.04170397 -0.0074125677 -0.033467457 0.030004002 0.056383483 -0.0069929063
0.060316212 -0.054763123 0.058116324 0.047708794 0.047735505 0.0618838 0.060436755 0.01310876
-0.052785903 -0.008966982 0.04765871 -0.019804358 -0.048878945 -0.046052866 0.022539489 -0.00020793825
0.037450522 -0.04746957 0.04755935 -0.048694484 0.05209309 -0.00056057423 -0.04884863 -0.0018474385
0.060843334 0.023921855 0.025203548 -0.03072489 0.060875915 -0.051327303 0.015006527 -0.0056462586
0.06083881 0.060082123 0.05716376 0.013004333 0.060484312 -0.019627988 -0.015577786 -0.013360247
0.025611863 -0.009061247 0.06140779 -0.047672026 -0.022303276 -0.059053794 0.0035253689 0.0319264
-0.036728367 0.00380937 -0.033137366 0.021633893 0.0092613995 -0.04877782 -0.0129228085 0.008524984
0.046942703 0.016549736 -0.053139634 -0.04789748 0.026714303 0.005044751 -0.050717145 -0.015902698
0.04005821 0.0030644983 0.019161977 0.0068489537 0.035844564 0.031977028 0.009833336 0.019722886
-0.011779524 0.010596871 -0.018656388 -0.016473971 0.023578376 0.056675658 -0.050026 0.010028236
0.012964323 -0.033901833 0.006158732 -0.009778939 0.057305515 0.05680076 0.006694019 -0.05495955
0.0025460124 0.0530096 0.05302071 0.020380236 0.04063932 -0.061406434 -0.037253633 0.022129409
-0.0046150982 0.041857727 -0.03880295 -0.058280967 -0.044720516 -0.006566845 -0.045619123 -0.02724389
0.010240778 0.017741434 -0.030727841 0.039551012 -0.010932572 -0.021719344 0.024103887 0.01681333
0.033975534 0.021589264 0.013774045 0.014943466 0.05522065 0.03869894 0.039713375 -0.020061664
0.05125457 0.02848237 -0.031261094 0.03803929 -0.041063882 -0.020915404 -0.024368748 -0.047609515
-0.017396376 0.028759055 -0.0074407607 -0.042600572 -0.007882819 0.016075037 0.029684797 -0.061330505
0.055328287 -0.009120241 -0.03846117 0.004165292 0.016230501 0.038601093 0.0010190308 0.047589257
0.0414562 0.03697189 0.010369644 -0.047309928 0.038089298 -0.003122501 -0.0041771084 0.060186215
0.007823929 0.0060892627 0.0015115216 0.012901977 -0.059818365 -0.029879779 -0.054378368 0.05486238

net.2.bias f4 [256]
00000000: 2876 5ebc f0ed 4cbd 3877 79bc 7437 8c3c
00000010: 24ef 573d 9472 9ebc 0ca3 b33c 1cfe b83c
00000020: f835 05bd a8b5 3a3c 6ccc 2d3d e87c bdbc
00000030: f6da 3b3d 405e e1ba 30df 26bc a45b 77bd
00000040: cc15 823c 4cea d93c f85b 4abd ea85 4fbd
00000050: 206d c13b 1048 43bc 5448 64bd 3437 c43c
00000060: d824 633c 1edd 193d f8d6 0bbc 6a1e 4f3d
00000070: 7c2c 51bd 185a 10bc 4a8f 373d 6027 263b
00000080: 42cf 6c3d cc37 5b3d b080 003d a402 ffbc
00000090: fa3c 443d d27d 65bd 4037 cd3c 3818 9fbc
000000a0: e292 4a3d 9048 363d 246f 313d 0c4f 8d3c
000000b0: b26c 613d 20e0 3d3d c402 533d be0d 313d
000000c0: 806c 333b 60cf 9bbb a497 983c 807f 433c
000000d0: 3efe 76bd 0857 743c 72e6 773d 9848 39bd
000000e0: 7a13 1ebd 0e32 6cbd 006e 023b b099 acbb
000000f0: 1443 603d e825 6bbc cae6 3fbd 482d 533c
00000100: 00c0 17bc a0fb acbc 0060 a238 3a27 1d3d
00000110: 1a84 5d3d 6c3c 5e3d 7aea 16bd 82d7 563d
00000120: 18d3 793d a6ee 3a3d 2e3a 3d3d 44b2 2e3d
00000130: 405b 81ba fca5 9d3c d8ea 423d a2cb 36bd
00000140: 9244 0d3d 50d3 1e3c e87e 9dbc 8cc8 593d
00000150: 80b4 153c cc79 b43c c019 c0ba e67c 4abd
00000160: f425 4ebd 28cc 733c 486a 5dbc 2406 a63c
00000170: a885 5d3d 501e d43b a05c 0e3b aac4 3ebd
00000180: 80ac 5e3b 3e4f 483d 5858 de3c 4498 1fbd
00000190: 5ab7 033d 245d 58bd 7489 64bd e474 07bd
000001a0: cc59 fcbc 8010 4b3d fe6f 283d 989c 34bd
000001b0: 60aa 363d 9aff 503d 3a2a 753d 4cc3 cabc
000001c0: c637 47bd 4c1c 983c 202c 113d d6d6 433d
000001d0: 8a3a 783d d841 973c 9e9d 6b3d 801a fb3b
000001e0: 2037 02bd 7a58 023d fc5e 7dbd 004b f8bc
000001f0: 9023 543c ee84 253d 98a7 eb3c bceb cfbc
00000200: a41b 3a3d 2a62 32bd 06e2 093d 7a01 743d
00000210: 8c1a d83c 48c5 133d 3051 16bc a86b 6e3c
00000220: 1806 e33c a072 793d f6e9 433d 2249 66bd
00000230: 00ba f639 c4e7 393d 74ed e0bc de3d 713d
00000240: 9078 f8bc 58fb 34bc 300b 0f3d f001 33bc
00000250: ec65 ea3c da12 5abd 8ec5 1d3d 5af3 2e3d
00000260: 6673 62bd 6679 1b3d fa36 513d 2860 7d3d
00000270: b0be f03c 6a9d 353d 2052 5bbc 10f1 e3bb
00000280: 368a 533d 80d2 793d a009 85bc d4ef 33bd
00000290: feb3 013d e054 1fbc 60fe 44bd 94a9 293d
000002a0: 8080 a0ba 78f7 fbbc 90b3 94bc 02a0 423d
000002b0: 943e 1bbd 087e d1bc 2890 49bc 7c8e d63c
000002c0: 40af 8a3c 54c5 c2bc 2c2b ebbc ae25 6b3d
000002d0: 9abb 0fbd 34b5 373d 10dd a23b 1831 983c
000002e0: 7083 ba3c d06d 163d 80a1 aebc 9676 273d
000002f0: 8035 edbc 4af8 76bd 6851 7a3d 44b1 7dbd
00000300: 9218 443d 2855 7f3d 24ee 8d3c 5a1a 4f3d
00000310: b0d8 183d fad8 243d 16c4 64bd 48c8 2bbc
00000320: 76cd 5d3d 28d7 503c c0bf 12bb a23b 273d
00000330: 00f0 bfbc 2efc 783d 58f1 123c 1e36 643d
00000340: f0ef 37bc de03 0bbd 3cfa 88bc 3026 f2bb
00000350: 70f1 b73c 5846 f7bc 00c9 54ba beff 553d
00000360: e0be b53b 3e49 19bd fea9 22bd 9843 5cbc
00000370: 1016 853b e6ec 793d 9cda 22bd 84d0 053d
00000380: c262 36bd ee92 013d 00e7 67bb 0077 48bb
00000390: 50c7 033c 6259 2d3d 8a1c 74bd 9008 6fbd
000003a0: e05a 203b ae1d 76bd b03e 4dbd 6c76 083d
000003b0: 60b4 7b3c c8da ecbc 78a4 65bc b4a0 1a3d
000003c0: 6403 373d 3e90 7b3d 7ab5 0a3d 3870 23bd
000003d0: 109f 113d bc89 0dbd 541e 52bd 001e 5e3a
000003e0: f479 8d3c f49b fa3c 8061 eb3a d03b c4bc
000003f0: 3ea2 673d 8adb 423d 9cbb 77bd 22f4 45bd
-0.013577975 -0.050031602 -0.015226178 0.017116286 0.052718297 -0.019341744 0.021928333 0.022582106
-0.03252217 0.011395849 0.04243128 -0.023130849 0.045863114 -0.0017194226 -0.010185048 -0.06039013
0.015879534 0.02660098 -0.049404114 -0.05066482 0.0059029013 -0.0119190365 -0.05573304 0.023952104
0.013863765 0.03756439 -0.008535139 0.050566114 -0.051067814 -0.0088105425 0.044814385 0.002535306
0.057814844 0.05352001 0.031372726 -0.031129189 0.047909714 -0.056028195 0.02505076 -0.019420728
0.049456485 0.044502795 0.043318883 0.017249607 0.0550353 0.04635632 0.05151631 0.043225996
0.0027377903 -0.0047549456 0.018626995 0.011932254 -0.060301058 0.014913328 0.060522504 -0.045235246
-0.038592793 -0.057664923 0.001990199 -0.0052673444 0.05475147 -0.014352299 -0.046850957 0.012889214
-0.009262085 -0.021116078 7.742643e-05 0.038367487 0.05408106 0.05425684 -0.036844708 0.052451618
0.06099233 0.04563775 0.046198063 0.042650476 -0.0009869114 0.019244187 0.047587246 -0.044627793
0.034489222 0.0096939355 -0.019225553 0.053169772 0.009137273 0.022030734 -0.0014656112 -0.04943552
-0.050329164 0.014880218 -0.013514109 0.0202666 0.054082543 0.00647334 0.002172269 -0.046574272
0.003397733 0.048903696 0.027141735 -0.03896357 0.03215728 -0.0528232 -0.055795148 -0.03307046
-0.030804537 0.049576283 0.04112243 -0.044094652 0.044596076 0.05102501 0.059854724 -0.024751328
-0.048637174 0.01856818 0.03544247 0.047812305 0.060602702 0.018464014 0.057523362 0.007663071
-0.031790853 0.03182266 -0.061858162 -0.0303092 0.012947932 0.040409975 0.028766438 -0.025380962
0.045436516 -0.043550648 0.03366282 0.05957172 0.026379846 0.036076814 -0.00917463 0.014552034
0.027712867 0.06090033 0.047830544 -0.05622209 0.00047059357 0.045387045 -0.027456976 0.05889689
-0.030330926 -0.011046253 0.03492278 -0.010925755 0.028613053 -0.053240635 0.03851848 0.042712547
-0.055285834 0.03795757 0.05107782 0.06185928 0.029387802 0.044339575 -0.013386279 -0.006956227
0.05164548 0.060991764 -0.016239941 -0.04392989 0.031665795 -0.009724826 -0.048094153 0.041421488
-0.0012245327 -0.03075765 -0.018152028 0.047515877 -0.037901476 -0.025572792 -0.012302436 0.026190989
0.016929269 -0.023775734 -0.02870711 0.05740898 -0.03509102 0.044850543 0.0049702004 0.018578097
0.022767752 0.03672582 -0.021317244 0.040884577 -0.028956175 -0.06029538 0.06111279 -0.06193663
0.047874995 0.06233707 0.017325468 0.05056224 0.037316024 0.040245987 -0.055851065 -0.0104847625
0.05415102 0.01274661 -0.0022392124 0.040828355 -0.02342987 0.060787372 0.008968674 0.055715673
-0.011226639 -0.033939235 -0.016720884 -0.007389806 0.022453994 -0.03018491 -0.00081171095 0.052245848
0.0055464357 -0.037423365 -0.0397129 -0.01344385 0.004061468 0.06101694 -0.039759263 0.03266956
-0.044527777 0.031634264 -0.003538549 -0.0030588508 0.008043125 0.04232157 -0.05959753 -0.058357775
0.0024468228 -0.0600869 -0.05010861 0.03331606 0.015362829 -0.028912917 -0.014016263 0.037750915
0.044680968 0.061416857 0.033864476 -0.039901942 0.035552084 -0.03455518 -0.051298454 0.0008473098
0.017270066 0.030591942 0.0017958134 -0.023954302 0.05655121 0.04757265 -0.060481653 -0.048328526

net.4.weight f4 [4, 256]
00000000: 5a14 65bd 2429 d0bc 54fb 023d 20a2 53bc
00000010: 7082 413c 70f1 c73b 9835 6c3c 5254 193d
00000020: b00c 7f3c 3ce7 8abc e2ff 1f3d ace8 cf3c
00000030: dc98 5ebd b82d 50bd 68cb 643d e46d 45bd
00000040: 645d cabc 449e 9f3c 3453 fdbc 585b 20bd
00000050: 6cf2 e53c d848 f8bc 7ef6 57bd f011 3bbc
00000060: 92b9 043d 4495 b43c a0bf 9fbb 08cb ce3c
00000070: c65d 26bd 5c79 9f3c 40b3 673b 88cd 31bc
00000080: 04fe 04bd 88da 613c 80cd d6bb b42d 543d
00000090: 6028 1abc 1806 50bc f414 fbbc c00f 3dbd
000000a0: d07a c03b 582c f4bc 808d 7dbb 1818 773d
000000b0: bcf5 eb3c e0ea 0bbc 6078 603c 74df 7abd
000000c0: c0b9 59bc 2c49 b9bc d424 ad3c d40c 36bd
000000d0: 9400 51bd 2067 3d3c 18f0 3abc ee24 4d3d
000000e0: 801a a73b 40fd b33c cc6d f0bc f8f8 53bd
000000f0: 3c5d 93bc 0804 c53c 9ecb 463d 4099 d6bb
00000100: f0b6 073c f41b cabc ccb8 3b3d 541a 463d
00000110: fcc4 c93c 9048 1f3c 808f ffbb 38f0 eabc
00000120: 94a8 59bd 7072 76bd 40d2 073c 2865 7cbc
00000130: 2c5f bebc 7a31 2dbd 6ade 343d 3c72 0cbd
00000140: dcea 89bc 307e cf3b b099 65bd 40b7 e93c
00000150: 20f9 27bc 605d 17bd 00c8 e438 0023 ddba
00000160: f0b5 68bd 64ba c13c 4c65 7a3d d6eb 25bd
00000170: e0f0 0ebb 6832 51bd 907c 9d3b 4026 613c
00000180: 1c00 5e3d d8f7 19bc 40a8 783d 30c1 20bc
00000190: 789e 353d 88b0 92bc 6070 5ebd ee74 6f3d
000001a0: 9498 30bd 7c41 cabc cc7e 19bd 10eb f5bc
000001b0: 6064 45bd 96d5 0cbd c04a 84bc 4873 1fbc
000001c0: f6a5 6ebd 2c3b c63c d014 133c 7e05 7c3d
000001d0: 303e 9dbb 80ed ed3c e44f 07bd 807b 98ba
000001e0: 4a84 773d 70a5 6f3c 408f 92bb 643a 58bd
000001f0: e83b 0ebc 9044 c9bb b4c0 d83c a0ad 2ebb
00000200: 38c6 19bc 985d 303d 144c 2cbd c847 cd3c
00000210: b03f d9bc a842 453c 185c ad3c 2279 3dbd
00000220: 18b4 333d 0021 febc 288f 473d 6c49 d1bc
00000230: 0a5b 163d b404 fcbc ea49 6fbd 0831 3bbc
00000240: 4049 3ebb 027b 153d f08b 293c 6040 98bb
00000250: 5e08 39bd c033 073b f47c 57bd 90b8 f2bc
00000260: e8bc fbbc 8232 7bbd ecad 043d 6ca1 69bd
00000270: 6464 24bd 08b1 f2bc 404b 013b 54fa 8e3c
00000280: 440d 6abd f0a8 753c 8ed9 233d c4e5 eabc
00000290: ac5a c7bc 10b0 98bb 3e83 2e3d f4dc 9abc
000002a0: 80da 2bba 7618 463d c868 ecbc ac9c dabc
000002b0: c00a 3d3d 0092 25b9 3643 4e3d 7ad9 0c3d
000002c0: 7ea2 733d 0cbd c6bc 2891 fabc c00c c73a
000002d0: eee7 303d 9e12 493d 2440 71bd b094 4f3d
000002e0: e8c5 683d 205d 653b 6c86 2dbd 2062 1ebb
000002f0: e85d 3b3d 5426 833c 6043 15bb d83f 263d
00000300: c08f fa3c b833 57bd 903a 6d3d 3e38 1abd
00000310: 0801 e23c 762c 3ebd 6ad5 5abd 7ce2 e93c
00000320: 58b9 763c d457 d2bc ec27 f73c 76ec 1cbd
00000330: 981d 38bc 5e1b 0bbd d06e 593d c87c 48bd
00000340: ac64 06bd 1881 e73c 0aed 1fbd 20b8 873c
00000350: 78f9 07bc e8f4 11bd b0bd bb3b 86e5 1ebd
00000360: 0abd 2fbd 043b 073d 9024 79bd 5c78 f6bc
00000370: 92bd 433d 308a a7bc a2a2 413d fc22 833c
00000380: 94d5 7e3d ceb3 6f3d 14e8 51bd 8405 30bd
00000390: 58e1 0d3c 643c f03c 822c 6d3d 607c a83c
000003a0: 70cf 563d 7cda d33c 00e8 2ebc 98a8 29bd
000003b0: 3cbc 893c 8ca9 b3bc ee83 6a3d 2053 5a3c
000003c0: f4c6 cebc 6cf6 2f3d 0062 65b9 e4ca 323d
000003d0: 10f7 13bd d673 21bd 60f6 7f3b 64de f3bc
000003e0: 103c 893c f8bc d93c 605d 79bc a43f 883c
000003f0: 8067 64bb 4439 d6bc 0cd8 ecbc 388e b3bc
-0.055927612 -0.025410242 0.031977966 -0.012917072 0.011810884 0.0061017796 0.014417075 0.03743393
0.01556699 -0.016955964 0.03906239 0.025379501 -0.054344997 -0.05082485 0.055858046 -0.048200503
-0.024702735 0.019484647 -0.030923463 -0.039149612 0.028069697 -0.030308172 -0.052725308 -0.011417851
0.032403536 0.022043832 -0.0048751384 0.025243297 -0.040616773 0.019467048 0.0035354644 -0.010852225
-0.03246881 0.013785012 -0.006555259 0.0518014 -0.00940904 -0.012696765 -0.03064964 -0.0461576
0.0058740154 -0.029806301 -0.0038689077 0.060325712 0.028803699 -0.008539885 0.013700575 -0.061248258
-0.013288915 -0.022617899 0.021135725 -0.044445828 -0.051025942 0.011560231 -0.011409782 0.050084047
0.0050995946 0.021971345 -0.02934923 -0.051751107 -0.017988794 0.024049774 0.04853403 -0.0065490305
0.008283362 -0.024671532 0.045830533 0.048364952 0.024630062 0.00972189 -0.007799089 -0.028678998
-0.053139284 -0.06016773 0.008289874 -0.015404977 -0.02323874 -0.042283513 0.044157423 -0.03428863
-0.016835622 0.0063321814 -0.05605477 0.028529763 -0.010252267 -0.036954284 0.0001090914 -0.0016871393
-0.056814134 0.023648448 0.06113176 -0.040508114 -0.0021811053 -0.05107346 0.004806109 0.01374203
0.054199323 -0.009397469 0.06070733 -0.0098116845 0.04434058 -0.017906442 -0.054306388 0.058461122
-0.04311426 -0.024689429 -0.03747444 -0.030019313 -0.04819143 -0.03438338 -0.016148925 -0.009732075
-0.05826374 0.024198137 0.00897713 0.061528675 -0.004798673 0.029043913 -0.033035174 -0.0011633486
0.060428895 0.014626846 -0.004472643 -0.05279006 -0.008681275 -0.0061422065 0.026459076 -0.0026653782
-0.009385638 0.043058008 -0.04206474 0.025058642 -0.026519626 0.012039818 0.021162078 -0.0462581
0.043872923 -0.031021595 0.04872051 -0.025547706 0.036707915 -0.030763961 -0.0584201 -0.011425264
-0.002903536 0.036494263 0.010348305 -0.004646346 -0.045173995 0.002063021 -0.0526094 -0.029629022
-0.030729726 -0.061327465 0.032392427 -0.05703871 -0.040134802 -0.02962543 0.001972869 0.01745335
-0.057141557 0.014993891 0.0400024 -0.028674014 -0.024335228 -0.00465966 0.04260563 -0.018904187
-0.00065556914 0.04836317 -0.028858557 -0.026686035 0.04615283 -0.00015790015 0.050357066 0.03438709
0.059481137 -0.024260066 -0.030586794 0.0015186295 0.043189935 0.04909002 -0.05889906 0.05067891
0.056829363 0.0034998134 -0.042364523 -0.0024167374 0.045743853 0.016009487 -0.0022775754 0.04058823
0.030586123 -0.052539557 0.057917178 -0.037651293 0.027588382 -0.04642912 -0.053426184 0.028550379
0.015058838 -0.025676645 0.030170403 -0.038311444 -0.011237524 -0.033961646 0.053084195 -0.048947126
-0.032810852 0.028259799 -0.039044417 0.01656729 -0.008299224 -0.03563395 0.0057293996 -0.03879311
-0.04290489 0.033015266 -0.060825884 -0.030086689 0.04778821 -0.020451635 0.04727424 0.016007893
0.062215403 0.058521084 -0.051246718 -0.04297401 0.008659683 0.029325671 0.057903774 0.02056712
0.05244392 0.025861017 -0.01067543 -0.04142055 0.01681339 -0.021931432 0.057254724 0.013325483
-0.025241353 0.042959616 -0.0002187565 0.043650523 -0.03612429 -0.03941711 0.0039056763 -0.02976913
0.016752273 0.026579365 -0.015220016 0.016631909 -0.003485173 -0.026150353 -0.028911613 -0.021918401

net.4.bias f4 [4]
00000000: fce4 7ebd 4225 76bd b454 6ebd f00c 2b3d
-0.062230095 -0.060094126 -0.058186248 0.041760385
