models/Level2/checkpoint_6000/agent_0.pth (torch, 286840 bytes, 10 tensors)

net.0.weight f4 [256, 10]
00000000: f084 c23c 3443 c83d 781f abbe 23af 853d
00000010: 4770 863e fc70 4e3c 165c 3fbd d243 07be
00000020: c700 e5be abc5 383e a6a6 b8bc 110e a9bd
00000030: 759c 5c3c 52fe 76bd 567a 6c3e dfb7 343d
00000040: 2b18 643e 8f73 cd3b b39b 71be ddfb a33e
00000050: 36fd 1cbe 9c50 cb3d 68eb b2be af63 fa3d
00000060: d7a9 87be 26c5 a5bd 26db 1c3c c6d4 423e
00000070: 41c2 fbbd 3f47 97bd 5246 a03e a3f1 db3c
00000080: 7c99 77be 5b19 fe3d 4e8f 43bd d9c4 73be
00000090: ef69 10be 4436 e33d 1bfe e5be 6387 82be
000000a0: 7c72 6d3d 08df 41be 696b 9dbe f694 6bbe
000000b0: 6b1b b4bd 3b89 443d a4ba 91be e19e d8bd
000000c0: 1e73 ce3c ae1c 54be 6478 2b3e cd6e 05bf
000000d0: 2120 9dbd 18aa 903e 324a a43e 4b82 e63d
000000e0: bc60 ffbd 5ecc 873d 41f5 4cbe 8a30 d63e
000000f0: 4111 413e 1238 1ebe 4c61 d3be 0461 103e
00000100: 82b4 2cbe 5d6a 683e 5978 4b3c 9703 88bd
00000110: fecb 953e 24b0 21be 8939 30be 262d 963e
00000120: 4ee4 88be 8d0d 1cbc cf49 7c3c 96c1 373e
00000130: 0e52 9ebd 6cad c8bc e212 503e 753d ae3d
00000140: bcc5 52bc 9f1a 833d 739b 82be 1d6a 5abe
00000150: 00bc 00be 82d3 8abe fac8 823d 9074 653d
00000160: 5273 8f3e c558 3d3e cbc2 833e 2884 923e
00000170: 04f0 6dbe 0279 c93d 0c25 dcbd 9462 243d
00000180: 2a91 5d3d e16c 24be 3218 c5bd 5dba 9bbe
00000190: f1c3 35be 5b0f 3c3e c96e 9bbc 2079 1abe
000001a0: 72d9 183e 5654 bbbc 301f b3bc 68e5 6b3d
000001b0: b320 5b3d 6880 7dbd f1e9 4f3e 9545 1d3e
000001c0: 0a5e cabe 8137 acbb 98ce 99bd e927 663e
000001d0: ec30 9abe b78f e7bd 2f25 0c3f f616 87bb
000001e0: 0c39 9ebe fd38 59be 48d3 88be fcfd 9ebd
000001f0: 2096 313e b567 223c cc8d 8fbe fcc1 503e
00000200: 94d8 8bbe 42a7 86bc d599 4e3e ab05 813e
00000210: c573 ca3e 623d 503e 055a a2bd cd0c 243e
00000220: b8b3 513e 22ea f43b 9aa8 d33d edba 5d3e
00000230: 7085 d5be 8f38 3e3d b8d5 d8be 70e9 1c3e
00000240: 03be 2ebe 58ef 103e 84c5 ab3c c6dc 583e
00000250: a8c5 1a3e deec 6fbe 6123 ae3e f39c 4bbe
00000260: 92dc 133d aef2 3c3d beec 503e c30e 1c3e
00000270: f31f 5abe 54ee 4a3d ddff f63d e711 793e
00000280: 95b8 17be 525b bbbe 1a86 cf3d 2a94 403d
00000290: 5d1e 873e ce05 bfbd 8a34 2dbe 065e 593e
000002a0: 4c10 a83d 4723 67be 2e34 34be ab64 84bd
000002b0: 8b22 c5bc 232c eb3d 8a9b 8c3e 439f 273e
000002c0: b26d 8ebe 544b 3d3d 0db1 cebe b4f4 963e
000002d0: 1d10 f43d 0e1a 9a3e 0925 94be 5d93 303e
000002e0: 63dc 8bbe 548a 4c3e 1695 593e ee4e 02be
000002f0: b43e b93c dd0b 843e f4b4 8bbd 3b63 02be
00000300: b154 91be 3db8 903d bc98 543e 980a 4bbe
00000310: 56b6 cb3c 515e 333e 5347 c2bd d5e6 2cbd
00000320: 669d a53d 04d2 55be f569 a4be 15fa aabc
00000330: c557 babd aee4 bd3b 5e03 1bbe 9329 323e
00000340: b3e0 aebe e52a ddbe 3e5f 423e c1c5 b23d
00000350: 1c5c 8e3c 6f62 353e c868 363d 77fd 843e
00000360: 996f 5b3e d3b4 fbbd a05c ac3d 9be4 ffbc
00000370: 14cb a0bc 5f4c 81be 86b1 cabc c9d1 c63e
00000380: 233a 193e 8d7a a8bb a0f7 983c 3cbf 4f3e
00000390: 3827 77bd e4cc 913e c92f b53c b24f 813d
000003a0: bf10 2a3e b5ac 07be e3c1 e53e 1634 bcbd
000003b0: 5178 98be c761 bb3c 58e3 4f3d 2b8a 143e
000003c0: 8ff4 90bd c6be 293e 62d7 383d 23f8 d4bd
000003d0: 6591 e53d a038 4d3d 561f e03d 8411 253d
000003e0: ae7c 1dbd 68f0 033e 1bda 943e 485b 4a3e
000003f0: 81f5 3f3d e5b0 413e ad07 a0bd fefd 12bc
0.02374503 0.09778443 -0.33422446 0.06527545 0.26257536 0.01260018 -0.04671868 -0.13209465
-0.44727156 0.18044154 -0.022540402 -0.08254636 0.013465037 -0.060301133 0.23093542 0.044120666
0.22274844 0.006269879 -0.23594551 0.32028094 -0.15330967 0.099274844 -0.34945226 0.122260444
-0.26496765 -0.08094244 0.009573733 0.19026479 -0.1229291 -0.07386636 0.3130365 0.02684862
-0.24179643 0.1240718 -0.047744088 -0.2380556 -0.1410291 0.11094335 -0.4492043 -0.25493917
0.05797051 -0.18932736 -0.3074601 -0.23006043 -0.08794292 0.047982436 -0.28462708 -0.10577179
0.025201377 -0.20714065 0.16745144 -0.52122194 -0.07672144 0.2825477 0.32087857 0.1125532
-0.124696225 0.06630777 -0.20015432 0.41833907 0.18854238 -0.15451077 -0.4128517 0.14099509
-0.16865733 0.22696824 0.01241883 -0.0664131 0.29257196 -0.15789849 -0.17209448 0.2933132
-0.26736683 -0.009524715 0.015398457 0.17944941 -0.077304944 -0.024496756 0.20319703 0.08507816
-0.012864526 0.06401562 -0.25509223 -0.21329542 -0.12571716 -0.27114493 0.063859895 0.056019366
0.2801767 0.18490894 0.25734553 0.28616452 -0.2323609 0.098375335 -0.10749254 0.040133074
0.054093517 -0.16057159 -0.096237555 -0.3041562 -0.17750527 0.18365233 -0.018973725 -0.15085268
0.14926699 -0.022867363 -0.021865457 0.057591826 0.05349798 -0.061890036 0.20304085 0.15358575
-0.3952487 -0.00525564 -0.07510108 0.22476162 -0.3011545 -0.11306708 0.5474424 -0.00412261
-0.30902898 -0.21213146 -0.26723695 -0.077632874 0.17342424 0.009912421 -0.2803787 0.20386499
-0.27313673 -0.016437177 0.2017587 0.25199637 0.3954145 0.20335916 -0.07927326 0.16020508
0.20478714 0.0074742 0.103348926 0.21653338 -0.41703367 0.046440657 -0.42350554 0.15323424
-0.17064671 0.14153802 0.020968206 0.21177968 0.15114462 -0.23430201 0.34011367 -0.1988409
0.036099024 0.046129875 0.2040281 0.15240006 -0.2130125 0.049543694 0.12060521 0.24323235
-0.14816506 -0.3659311 0.10133 0.0470163 0.26390353 -0.09327279 -0.16914573 0.21227273
0.082062334 -0.22572051 -0.1759803 -0.064645134 -0.024064323 0.11483028 0.27462417 0.16369347
-0.27818066 0.046214417 -0.40369454 0.2948357 0.11917136 0.30098003 -0.28934506 0.17243715
-0.2731658 0.19974643 0.21248278 -0.12725422 0.022612907 0.257903 -0.068216234 -0.12733166
-0.28384927 0.07066391 0.20761389 -0.1982826 0.024867218 0.17516448 -0.0948626 -0.042212326
0.08086662 -0.20880896 -0.3211209 -0.020871202 -0.09098772 0.005795083 -0.15138003 0.17398672
-0.34155807 -0.43196788 0.18981645 0.08729125 0.017377906 0.1771333 0.04453352 0.25974628
0.2142929 -0.12290349 0.08416104 -0.031236937 -0.019628085 -0.2525358 -0.024742853 0.38831928
0.14963584 -0.0051415623 0.018672764 0.20287794 -0.060340136 0.28476632 0.022117512 0.06314029
0.1660795 -0.13249476 0.44874486 -0.09189622 -0.29779294 0.022873772 0.05075392 0.14505832
-0.07077896 0.1657668 0.04512728 -0.10398891 0.112093724 0.05010283 0.10943477 0.040299907
-0.038448982 0.12884676 0.2907265 0.19761384 0.04686499 0.18915136 -0.07813964 -0.008971689

net.0.bias f4 [256]
00000000: e454 9cbd e4b2 a73d a233 c6be 6c6b 8a3d
00000010: e4d7 59be df17 02be e84b a93e 48f9 9fbe
00000020: 8acc 83be 0714 953d 58d6 c3bd db36 b5bd
00000030: 1ab9 70be 49e7 44be 965b 99be 07fc 913e
00000040: 7517 abbd 6a78 843d b27e 893e 705e 393e
00000050: b7a9 b63e 9b31 96be 5fbc 7e3e 5843 b1be
00000060: 6b57 1ebf b7bc aebc a70d fcbe f41c 483e
00000070: 3f4f 4dbe 91cd 02be be83 213e 9164 8abe
00000080: 2bd3 e7be 569b 803e 911d 46be 7c1f 29be
00000090: d02f efbe 4abd 59bd af68 8e3e d34c 3fbe
000000a0: 9cf9 74be 7e2b 1f3d 0ba1 233c d246 80bc
000000b0: 5fc4 0abe 7fd1 0ebe 2c22 89be 68e4 92be
000000c0: c005 803c 808a d2be 46a6 80be 101f b7be
000000d0: 537a a63e e288 d7be 21f4 00bf 462d 34bd
000000e0: 9ba9 bdbe 8782 a7be 6ecc f9be b839 873d
000000f0: f3b1 fc3d 26a2 98be 50c4 a8bc 6025 333e
00000100: 27ab 92be 2a1d 9dbd 0cd7 8f3d 1bd2 3d3d
00000110: 8bf6 ef3d 9cdb 90be 5124 f0be f290 9dbd
00000120: ac59 9b3e 1114 c0be 8c4a c0be 6493 c4bd
00000130: 193c 7fbe 9a96 b8be 6b3a 133e 2744 f03e
00000140: 99eb 173d eaa1 57be 83d5 c4be 58cb bdbe
00000150: 7758 cbbe 4629 5cbe 69d1 933e f192 df3d
00000160: d50b c73d 4ffb 84be 7bac adbd 6e91 c3be
00000170: 7da5 8bbe f17c f7be dd4d 273d 436b 0ebe
00000180: 1f22 9abe 24d1 97bd d22d af3e 9a2d 46be
00000190: ca44 d0be c0e0 85be f1e8 0b3e 6182 2fbd
000001a0: 47e0 2dbe ba83 87bd ff5d 60be d6cb 483c
000001b0: 5dc7 123e 9353 1bbe 3c1d d3be 9ab0 14be
000001c0: c8a8 50be 0914 ecbd a6b5 f3bd edb8 3bbe
000001d0: 8554 8e3e 89a2 253c 80eb eebd eee4 3dbd
000001e0: ec46 bebe aeed e43d 34b8 cdbd f0e8 b23d
000001f0: fa5a 9e3b 2812 83be 4912 e7be 021e d7bd
00000200: e43e 8bbd e42f 4dbe e4a0 dfbe 1efd a93c
00000210: 15b9 efbd 8470 12bd bdf3 04be cfdb c1be
00000220: 530d 28be 1600 fcbe d8dc 7abe 509d 7c3e
00000230: 4cdd bc3e 175e 0fbf 33ab 8abe 2ff0 113e
00000240: 527d 35be 8917 fbbd ada7 e7bd b484 11bc
00000250: ab96 2f3e 3cf6 79bd 6121 0dbf 539a c8be
00000260: cd09 903e b968 febe 7ed5 88be 774e 27bd
00000270: 6e0f ca3e 7b52 abbe 4df6 8dbe f9f7 673e
00000280: b364 d2be 9a33 123d a5e9 1cbf eafc 89be
00000290: 9210 d7bd aab4 dabe d22e f8be 675f 04bf
000002a0: 52bb bfbd d8d2 493d 1a86 06bf 1cec 4d3d
000002b0: 0f3d a2be e40f fabe 67bc 88be e667 133d
000002c0: 6d45 3c3d 4bab 93be 68eb 83bc 0f5d a0bd
000002d0: 1588 21be 367e 12be 1f84 a0be 7a9c 543c
000002e0: f153 d8bc 2756 043e cc84 00be 5029 9a3e
000002f0: 15c4 8abd 0f42 c4be 3769 f43c 752a 97be
00000300: 488f a6be 209c 223c bf72 babe 73e0 1fbe
00000310: f35e bdbd 6de4 16bf 2557 a9bd cfcc 053e
00000320: 1a46 b2be 7086 a83d ec81 993e d98e f5be
00000330: 1363 3f3e 4bbc 0fbe fa3f 803c ab2b e9be
00000340: 69dd 043e a220 6f3d 653b 3abe 8af6 80bd
00000350: cabb 393e 165c d1be cafb e1be 313c 14be
00000360: 8955 24be a811 e23c c8ab ce3e 11aa 7dbe
00000370: 0544 b73e a83c adbe e59c 013e 368a adbe
00000380: e0cd d5be 3794 793e f77d b63d b15d abbe
00000390: 8f02 2a3e 4f54 00bf 319e 773e b8f2 a2be
000003a0: 5867 b8be 9ecf 06be e364 0abf edcb 27be
000003b0: bf55 43be f550 b13e c412 c53d 73b2 9fbd
000003c0: ba5d 0cbe 67b2 27be 06dc d43e 352e 963e
000003d0: 25ad f9be 852d 933e 2a48 d3be 514b 773e
000003e0: 7d17 103e a68c ad3e cb9f 443e 2ae9 313b
000003f0: 8410 ccbe f3fd bc3d bd66 85be 684d 05bf
-0.07633379 0.081884176 -0.38711268 0.0675877 -0.21273762 -0.12704419 0.33065724 -0.31244874
-0.25741988 0.072792105 -0.09562367 -0.088483535 -0.2350811 -0.19228853 -0.29952687 0.28512594
-0.083540834 0.0646828 0.26854473 0.18102431 0.35676357 -0.2933472 0.24876545 -0.34621692
-0.6185214 -0.02133022 -0.49229166 0.19542295 -0.20049761 -0.1277373 0.15772912 -0.2702985
-0.45278296 0.25118512 -0.19347216 -0.16515917 -0.46716166 -0.053159036 0.27814242 -0.1868165
-0.23923343 0.038859837 0.009987126 -0.01565877 -0.13551472 -0.13947104 -0.26783884 -0.28689885
0.015627742 -0.41121292 -0.25126857 -0.35765886 0.325152 -0.4209662 -0.5037251 -0.04398849
-0.3704346 -0.32716772 -0.4878878 0.06602806 0.123386286 -0.2981121 -0.020601422 0.17494726
-0.28646204 -0.07671578 0.07023439 0.04634295 0.11716946 -0.2829255 -0.46902707 -0.07693662
0.30341852 -0.3751531 -0.37556875 -0.09598425 -0.24925269 -0.360524 0.14377753 0.46926996
0.037089918 -0.21057859 -0.38444147 -0.370692 -0.3971593 -0.2150012 0.28870705 0.10916699
0.09719054 -0.25972983 -0.08480164 -0.38196892 -0.27274695 -0.4833751 0.04084574 -0.13908105
-0.30104157 -0.07412937 0.34214646 -0.19353333 -0.40677482 -0.26148033 0.13663079 -0.04284895
-0.16980086 -0.06616922 -0.21910857 0.0122556295 0.14333864 -0.151686 -0.41233242 -0.14520493
-0.20376885 -0.11527259 -0.11899881 -0.18332262 0.27798858 0.010109552 -0.11666012 -0.046360902
-0.37163484 0.11178146 -0.100448996 0.087358356 0.0048326226 -0.2559979 -0.45131138 -0.105037704
-0.06799105 -0.200378 -0.43677437 0.020750578 -0.117052235 -0.035751835 -0.12983604 -0.37863013
-0.16411333 -0.49218816 -0.24498308 0.24669385 0.36887586 -0.56002945 -0.2708374 0.14251779
-0.17723587 -0.12260348 -0.113112785 -0.008881737 0.17147319 -0.061025843 -0.5512906 -0.3918024
0.28132477 -0.49689272 -0.26725382 -0.040846314 0.39464897 -0.33461365 -0.27726975 0.22653188
-0.41092452 0.035693742 -0.61294013 -0.2695077 -0.105012074 -0.4271596 -0.4847322 -0.5170807
-0.093619004 0.049273342 -0.5254837 0.050274 -0.3168721 -0.4884025 -0.2670624 0.035987757
0.045964647 -0.28841624 -0.016103461 -0.078302495 -0.15774567 -0.14305958 -0.313508 0.01297676
-0.026407214 0.1292349 -0.12550658 0.30109644 -0.06775681 -0.3833165 0.029835327 -0.2952458
-0.3253119 0.009924918 -0.3641567 -0.15612964 -0.09246626 -0.589423 -0.082685746 0.1306641
-0.34819108 0.08228767 0.29981935 -0.47960547 0.18690138 -0.14036672 0.015655506 -0.4554113
0.12975086 0.05838073 -0.1818672 -0.062970236 0.18138042 -0.40890568 -0.44137412 -0.14476086
-0.16048254 0.02759631 0.40365434 -0.24771906 0.35794082 -0.3383534 0.12657507 -0.3389451
-0.41758633 0.24372946 0.08910745 -0.33469918 0.16602539 -0.50128645 0.24181439 -0.31825805
-0.36016345 -0.13165137 -0.5406019 -0.16386385 -0.19075678 0.34632078 0.0962272 -0.07797708
-0.13707629 -0.16376649 0.41574115 0.29332128 -0.4876491 0.28745666 -0.41265994 0.24149825
0.1407146 0.3389637 0.19201581 0.0027147033 -0.3985635 0.092281245 -0.26054946 -0.5207124

net.2.weight f4 [256]
00000000: 3b6e 6b3f 0fd1 4f3f 7132 af3f ccd8 643f
00000010: 06bd 8e3f 0646 923f fd9b 9c3f 4ac0 c03f
00000020: 20a9 723f 1152 853f ed6c 2f3f 66c0 853f
00000030: 7696 9f3f 204c 6d3f a24e 873f b307 6a3f
00000040: e131 633f 906d 703f a4b6 893f 8fe4 503f
00000050: af39 8a3f ebdf 8a3f 72e7 753f 6474 883f
00000060: abdd 8f3f 8a46 3b3f b548 6d3f 6f5f 693f
00000070: fbd4 903f ca6e 783f fc16 4f3f d221 a33f
00000080: ce49 8a3f 8bd5 403f 0179 873f 2f4f 963f
00000090: 80f0 8d3f b9cf 4c3f 7523 663f 9dfb 973f
000000a0: 08e7 723f 0629 663f 3f79 913f 95f5 7e3f
000000b0: 0c28 8a3f 5bec 4c3f 0ef3 7b3f ffcd 913f
000000c0: 66ce 883f b449 853f 7665 853f d262 8f3f
000000d0: 7f40 6d3f 3077 be3f ef0b 993f 96ac 8a3f
000000e0: 5ebf 5f3f 370d 973f 56c8 933f fb0c 883f
000000f0: c748 5f3f 1cea b53f 8d95 6b3f c5b4 8c3f
00000100: d3e6 6d3f 4312 663f faed 503f bdf3 6b3f
00000110: 2ca3 933f 021c 843f b5ea 823f 4ab9 653f
00000120: cf5b 423f 02b7 683f 6144 823f 2bc2 5a3f
00000130: e0e8 413f ca82 b53f bee9 8e3f 1370 8c3f
00000140: 8895 643f dd40 983f 6b8b 873f 3415 833f
00000150: 37d9 8b3f 6109 893f 164e 673f 152f 4d3f
00000160: 4a8a 4e3f c180 833f c71b 8c3f 95ec 713f
00000170: 40b3 893f 4587 583f c96a 6d3f cdc1 3f3f
00000180: dec8 873f 5928 893f a880 783f e3e6 a13f
00000190: 2888 8f3f bba6 723f 7af1 533f dae2 643f
000001a0: 930b 603f 5b16 643f 84fe 703f 4576 8e3f
000001b0: 7ef0 973f 6c55 823f d335 8b3f a864 4d3f
000001c0: 4c30 a33f 1007 813f 0517 7a3f 9de2 803f
000001d0: dc14 533f 96e7 4d3f 08db b33f 3adf 823f
000001e0: 7e5b 963f e189 553f a40d 973f 96f0 553f
000001f0: a907 6d3f 6e7e a03f 0b3a a93f 4e22 7b3f
00000200: 1876 853f e39c 913f 3b03 963f d63e 4d3f
00000210: 7e1e 9d3f e862 8f3f e7a1 963f ae0e 943f
00000220: 6597 883f fe79 b23f 9772 783f 1e53 5f3f
00000230: f09e 7f3f b77a 963f be4d 673f 3744 933f
00000240: 91f4 703f 8325 883f bab2 803f f9ed 573f
00000250: 464f 753f 4a06 753f 3b61 c13f c9a8 af3f
00000260: e30f 473f 14f2 543f f9f5 b03f ab24 993f
00000270: e210 923f 57fa 833f b46a aa3f ce97 613f
00000280: 0a92 823f 9d8f 613f c28e 9c3f 8363 803f
00000290: 9262 923f 3e75 943f 4af7 b73f e974 803f
000002a0: 6877 5a3f d8ac 8a3f 13f7 8b3f 8b29 6f3f
000002b0: 22e4 8d3f 40e8 923f 412f 8d3f ee4b 5b3f
000002c0: 2c9b 853f e49f 803f 075d 3f3f 55b5 793f
000002d0: 9726 973f 44be 5a3f 9570 903f efaf 4b3f
000002e0: 3be0 523f 31e1 583f c13a 4e3f c26f 673f
000002f0: d618 ae3f 5abe 6e3f 55c6 4f3f 03aa 633f
00000300: 65f9 603f 24d7 8e3f 798e 823f 8ec5 493f
00000310: d502 673f fbaf b33f 8e81 833f 0cbf 7c3f
00000320: 87af 713f 26f8 713f 0dd8 883f ad94 bc3f
00000330: 0313 9a3f dc3f 683f e72d 723f e279 8f3f
00000340: c1b5 8c3f 8ba7 673f 765c a13f 84cc 7a3f
00000350: 948a 5d3f a977 8b3f b6f3 6c3f 821a 8d3f
00000360: 6627 7d3f 3746 4e3f 1983 743f b398 9c3f
00000370: eb7e 8f3f d00f 793f 8da1 593f de93 933f
00000380: c757 973f 9487 463f d6ac 383f 3c9c 863f
00000390: 1dd5 5b3f cac0 ab3f c5c5 433f 33fd a13f
000003a0: 20a2 9c3f 8acb 6a3f 44f5 7c3f 32a4 983f
000003b0: 822a 453f 8ac8 553f 5a12 413f 7edb 663f
000003c0: 4f3b 633f e0e3 513f a7e0 8a3f 1e7a 5a3f
000003d0: 2cb4 a13f ff4c 503f 8bb1 973f 0a14 4a3f
000003e0: 9bb9 6b3f 66a3 853f 7303 443f e031 803f
000003f0: 7d92 943f 52be 6e3f 8ab1 963f b01c 7a3f
0.91965073 0.81178373 1.3687268 0.89393306 1.1151435 1.142762 1.2235104 1.5058682
0.94789314 1.041567 0.6852558 1.044934 1.2467792 0.9269428 1.0570872 0.91418
0.88747984 0.9391718 1.0758862 0.8159875 1.0798854 1.0849584 0.9605628 1.066052
1.1239523 0.7315451 0.9268907 0.91161245 1.1314996 0.9704405 0.80894446 1.2744696
1.0803773 0.7532584 1.0583802 1.1742915 1.108902 0.8000446 0.89897853 1.1873661
0.94883776 0.89906347 1.1365126 0.9959348 1.0793471 0.8004815 0.9841775 1.139099
1.0687988 1.0413117 1.0421588 1.1202033 0.9267654 1.4880123 1.1956767 1.0833919
0.8740138 1.1800908 1.1545513 1.0628961 0.87220424 1.421207 0.9202507 1.0992666
0.92930335 0.89871615 0.81613123 0.9216879 1.1534171 1.0321047 1.0227877 0.89735854
0.7592134 0.9090425 1.0177118 0.85452527 0.75745964 1.4180539 1.1165082 1.0971702
0.89290667 1.1894795 1.0589422 1.0240846 1.0925664 1.0705987 0.90353525 0.80149966
0.8067976 1.0273668 1.0945977 0.9450162 1.0757828 0.84581405 0.92741066 0.7490509
1.0608175 1.0715438 0.97071314 1.2648586 1.1213427 0.9478566 0.8279034 0.8940865
0.8751766 0.8909661 0.9413836 1.1129843 1.1870267 1.0182319 1.0875801 0.80231714
1.2749114 1.008028 0.97691375 1.0069157 0.82453704 0.804315 1.4051218 1.0224373
1.1746671 0.8341351 1.1801038 0.8357023 0.92589813 1.2538583 1.3220838 0.9809922
1.0426664 1.1376003 1.1719736 0.80174005 1.227493 1.1202059 1.1768159 1.156698
1.0671202 1.3943479 0.9704985 0.872362 0.99851894 1.17562 0.90353 1.1505193
0.9412318 1.0636448 1.0054543 0.8434749 0.95824087 0.9571272 1.5107797 1.3723384
0.77758616 0.8318188 1.3825065 1.1964315 1.1411402 1.0310773 1.3313813 0.8812226
1.0200818 0.8810976 1.2231066 1.0030369 1.1436331 1.159828 1.4372342 1.0035678
0.8533845 1.0833998 1.0934776 0.93422765 1.1085246 1.1477127 1.1030046 0.85662735
1.043798 1.0048795 0.74751323 0.97542316 1.1808652 0.8544657 1.1284357 0.7956533
0.823734 0.84718615 0.805584 0.90404904 1.3601329 0.93259203 0.81162006 0.8893129
0.87880546 1.1159406 1.0199729 0.7881707 0.90238696 1.403808 1.0273912 0.98729014
0.9440846 0.9451927 1.0690933 1.4732872 1.2037052 0.9072244 0.9460129 1.1209071
1.0992967 0.90490025 1.2606342 0.97968316 0.8653958 1.0895892 0.92559373 1.1023715
0.9888824 0.8057589 0.9551254 1.22341 1.1210607 0.9728975 0.8501213 1.15295
1.1823663 0.77550626 0.72138727 1.0516429 0.8587206 1.341821 0.7647365 1.2655395
1.2236977 0.91716826 0.98811746 1.1925108 0.77017987 0.83509123 0.7541863 0.9017867
0.8876237 0.81988335 1.0849808 0.85342586 1.2633109 0.81367487 1.1851057 0.7893683
0.92080086 1.044049 0.76567763 1.0015221 1.1607205 0.93259156 1.1772931 0.97700024

net.2.bias f4 [256]
00000000: 9710 d43d 0765 bc3d 6c25 b2be f95d 203d
00000010: c1e6 56be 0b09 833d e9d6 0dbe 06e3 d2be
00000020: 015a 81bc aa53 fabd b08a 6b3d b3a5 c4bc
00000030: 385a 13be df96 1cbb 3787 b0bd 613c 31bd
00000040: bba7 ff3d 53b6 243e bb3b c03d 05e2 113e
00000050: 0d2f 37bc 5d05 53be 8cb3 583e 1f19 203e
00000060: fe94 cebd 26a4 083e 8fe8 6e3c 325b da3d
00000070: 1f91 c9bd e174 b9bc 102e 993d 53df ebbd
00000080: 63b1 f039 1992 cf3c 3f10 0b3e bf68 f9bd
00000090: 81f2 023c 43a7 a23b 2652 613e d7bf 89be
000000a0: 9783 b6bd 232b 523d 12d9 52bd 2f86 363d
000000b0: 3408 b1bc 9038 0e3d a327 af3d 0b2d d13d
000000c0: a73d 0b3e ca89 c0bc 1985 ef3c e9c4 4dbe
000000d0: 7d48 e13c b880 61be ef1d 033d 603c fe3d
000000e0: 90f4 a03d c8c3 0d3d 5280 9bbd 7815 a0bd
000000f0: 1c4d a4bd 5710 a4be 7488 88bd a00b a63c
00000100: c0fb 9a3c 3153 4abc f53b 4c3c a02b 193e
00000110: 67b2 56be f9aa 1ebe 652b c1bd 0272 023e
00000120: 5065 20be 7382 423e 8fe4 8abd 7bdc 54bd
00000130: 1c3f 2f3e 1701 75be bf73 86bd 4dcb 66bc
00000140: fe01 93bb 6635 08bd d078 2fbd 31ce 8dbd
00000150: 6036 03bd 084b e6bb 2353 29bb c27b 143e
00000160: 937f a73d 0e10 603e 982a 85be 24bc a03d
00000170: 818a 0e3b aca2 87bc 15d5 373e 6c63 1a3e
00000180: 7554 98ba 3d80 d7bd 4b16 6d3c ef85 debd
00000190: 1bb5 4cbc a7a8 153d e1ac 9f3d 40f6 e13d
000001a0: 4eb2 cabd 2f5d a13d cefd a03d 40a5 ba3d
000001b0: 6a15 0ebe 6d29 3eba 021d 0cbe a852 3a3d
000001c0: c7a9 8dbe ee0f 023d 0914 d3bd 763c 88bd
000001d0: 7850 c83d cb33 02bd f887 69be 033c 22bc
000001e0: e225 3abe 2fde a33d 5e75 17be 1386 3cbc
000001f0: 3b70 88bd ef83 b0bd 9641 bdbd 01b0 3fbe
00000200: a91c d33d 8576 aebd b289 1fbe 1421 263e
00000210: b8ad d8bc 0af4 6b3d a277 0ebe 7730 1abe
00000220: c186 e13d 73ea 87be 3b9a 98bd 150e 2abd
00000230: 6fb0 22bc 71f6 123c c6c0 953c c7f4 e43d
00000240: b964 2b3e 2bd8 48be de2c 6d3d 8e47 c13d
00000250: 932f 5ebd 9187 93bd 7fd5 aabe f484 55be
00000260: b13b ce3c be3e 14bb f47b 91be 77f3 59be
00000270: dbcb 0cbe d899 68bd 4203 8fbe 72ad 703e
00000280: 570c 0fbd bd16 823d dc3d d8bd dd6f abbb
00000290: 22a5 c6bc 373a 9bbd d5c8 8ebe 9eec 073d
000002a0: 8b6d 3b3e 9ae0 61bd db08 dd3d 5afe cdbd
000002b0: a082 c83c fa1b 12bc edcb 073e 64f8 88bc
000002c0: ab50 903c b2a6 72bd 3dec 66bd 6466 72bd
000002d0: b63d 1ebe 22a8 023e 64f7 62bd b830 283d
000002e0: 94cc e73b d08d 0c3e 8b76 1abd bbee f5bd
000002f0: 8764 53be 7bc3 18be 5749 47bd 1812 22bd
00000300: 2a6b 02bb cf7b f33d 1361 7d3c 9eaf 0abd
00000310: e431 a53d 338d 94be 1035 aebd a0aa 5f3d
00000320: 94d5 983e c9f4 043e e487 77bd d3ae a2be
00000330: a176 ac3d 7baa 863e aff2 a13d f625 3e3d
00000340: ee59 b8bd 0d33 b9bd 6c11 0bbe 599b 7d3d
00000350: 33f9 0f3d a008 ce3d 0c7a 103d 5b56 a23c
00000360: 2023 8dbd 357f 43bd 68ab 6dbd 6d5b debd
00000370: e1d2 48bd 8f9e 673c 61f3 0abd ab4a bb3d
00000380: 7066 68be 3aa4 853d 4dcd dcbc 39d6 b53c
00000390: 004a 203c e33b 64be 2ac6 d9bd 305b 52be
000003a0: 8d2e 75bd e5e1 2c3e 9665 a9bb cc4d febd
000003b0: 64bc bc3c 475e 4e3e d3fc ea3d 3714 fe3c
000003c0: 948e 1ebd 6cf1 063d aa3f ffbd 3dfb c0bd
000003d0: bccb 7fbe ab85 8dbd c8c4 c5be d12a 0dbd
000003e0: 3ab8 303c 680d 5c3e 8045 d5bc f501 163d
000003f0: c6be 90bd 2906 4a3d e725 09be 2fa4 df3b
0.10354727 0.09198957 -0.34794176 0.03915212 -0.20986463 0.06398209 -0.13851513 -0.4118883
-0.015789988 -0.12222989 0.05750531 -0.024004793 -0.14389884 -0.0023893637 -0.0861954 -0.043270472
0.12483164 0.16085176 0.09386393 0.14246376 -0.011180651 -0.20607515 0.21162242 0.15634583
-0.10087012 0.13343868 0.0145818135 0.106619254 -0.09842133 -0.02263874 0.07479489 -0.11517205
0.0004590853 0.02533822 0.13580416 -0.12178182 0.007992388 0.004963787 0.22003993 -0.26904175
-0.089118175 0.05131067 -0.051476546 0.04456156 -0.021610357 0.03472191 0.08552482 0.102136694
0.13597737 -0.023503203 0.02923827 -0.20094647 0.027500385 -0.22021759 0.03201097 0.12413859
0.078591466 0.03461054 -0.075928345 -0.07816595 -0.0802252 -0.32043716 -0.06666651 0.020269215
0.018918872 -0.012348936 0.012465467 0.14958048 -0.20966493 -0.15494908 -0.09432105 0.12738803
-0.15663648 0.18995075 -0.06781875 -0.05196808 0.17113918 -0.23926197 -0.065650456 -0.014086557
-0.0044863215 -0.03325405 -0.042839825 -0.069240935 -0.032034278 -0.0070279874 -0.0025836907 0.14500335
0.0817863 0.21881124 -0.2600906 0.07848385 0.0021750035 -0.01655706 0.17952378 0.15076989
-0.001162185 -0.105225064 0.014470647 -0.108653896 -0.012494351 0.036537793 0.07796646 0.110332966
-0.0989729 0.078791015 0.078609094 0.0911355 -0.13875356 -0.0007254098 -0.1368294 0.045488983
-0.27668592 0.031753473 -0.10306556 -0.06652157 0.09780973 -0.031787675 -0.22805774 -0.009902003
-0.18178514 0.080013625 -0.14790866 -0.011506575 -0.06662031 -0.08618914 -0.09241025 -0.18719484
0.10308201 -0.085186996 -0.1557987 0.16223556 -0.026450023 0.05760578 -0.13912824 -0.1505755
0.110120304 -0.26546058 -0.07451292 -0.041517336 -0.00992976 0.008969889 0.018280398 0.111795
0.16737641 -0.19613712 0.057904117 0.09437476 -0.05424459 -0.072035916 -0.3336601 -0.20851499
0.025174947 -0.0022620405 -0.2841488 -0.2128428 -0.1374964 -0.05678734 -0.27932173 0.23503664
-0.034923878 0.06351993 -0.10558674 -0.005231841 -0.024248663 -0.07579463 -0.27887598 0.03318464
0.18303506 -0.055145837 0.10792705 -0.10058279 0.02447635 -0.008917803 0.13261385 -0.016720004
0.01761659 -0.059241004 -0.056377638 -0.05917968 -0.15453228 0.1275945 -0.05541171 0.041062087
0.007073948 0.13725972 -0.037710708 -0.12008425 -0.20643817 -0.1491832 -0.048653927 -0.039568037
-0.00199003 0.11888849 0.015465039 -0.033858888 0.080661565 -0.29013976 -0.085062146 0.05460608
0.29850447 0.12984003 -0.06043233 -0.31774005 0.08421064 0.2630194 0.07907616 0.04642292
-0.09001528 -0.0904294 -0.13580865 0.06191573 0.035149764 0.10060239 0.035272643 0.019816568
-0.06891465 -0.047728736 -0.058024794 -0.10857282 -0.049029235 0.014136924 -0.03392351 0.09145101
-0.22695327 0.06525464 -0.026953364 0.022196876 0.009783268 -0.2228847 -0.106335 -0.20542598
-0.059858847 0.16883047 -0.0051695807 -0.12417182 0.02303905 0.20153151 0.11474004 0.031015499
-0.03871019 0.03294508 -0.12463315 -0.0942292 -0.24980062 -0.06910261 -0.38626695 -0.03446466
0.010786111 0.21489489 -0.026034117 0.03662296 -0.07067637 0.04932228 -0.13393365 0.006824992

net.3.weight f4 [256, 256]
00000000: 5cc8 453d cfb2 5abd 9bc8 9d3d 34c3 2dbe
00000010: 734c 90bc 676f 37bd e03d cb3d 97ac 0b3d
00000020: 0fd5 b03c bb67 cb3c 0c75 82bc 6f18 c63d
00000030: 0cb3 9e3d fa9b 1abd 2a20 e1bd 3cf6 be3d
00000040: 46af 1b3d 7dd4 d2bd 02c5 913d 55c9 f7bc
00000050: 80f4 a93d 266e 06bd 41fc 2cbd 3619 4abe
00000060: 8e0c 063e 55bd 113e 7105 363d 3509 9abd
00000070: 454f 86bd b835 eabd c160 743c 5659 babc
00000080: 8c09 9fbc 1974 70bc 71bd 1a3e 8e66 9e3d
00000090: 94d4 b53d 0e23 023e e000 45bd 30cc 033d
000000a0: 66c7 eb3b ca75 bdbc d889 0d3e 59c0 5bbc
000000b0: 36ea a0bd 19b3 6fbd 229c b7bb 429d 003d
000000c0: c7ca ccbc cfda 533d 0343 c23c b1e6 813b
000000d0: bee8 6fbd 5904 ae3c be15 0e3e eaf9 aebd
000000e0: 31bf 533a e9b6 f73b c247 7a3d 4185 b8bd
000000f0: 8857 b23b 8dd4 d03c d4b0 643d c1ea 133e
00000100: bd16 2b3d 67bc fcba d37b 433d d1d1 173d
00000110: 3a95 97bd b579 4d3d 2af6 b03d ef11 9fbd
00000120: 2dfb 48bc ab5a 19bd cc3e 833c 967a da3d
00000130: f521 92bd 8a86 e83c 0060 b53d 686e 773d
00000140: 93e0 f9bb 7fbb a63c bbde 743c 4722 5fbd
00000150: 9103 563c 76d3 28bd cd59 223c 620a 7dbd
00000160: 1231 7d3d 3e92 17bd 8a0d 7d3d 65f9 8dbc
00000170: 8cad 303d 7529 7ebd cc73 59bd cf57 eabd
00000180: bd0e 3ebd 5f81 c93d bae1 69bd 63fc aebd
00000190: e228 6a3d da2f a4bd 783c 9f3d 412c bbbc
000001a0: 08cb c73b 2909 933d 3723 123c d8c6 e23c
000001b0: 4f43 d83c 7f71 aa3d 84b4 e53d 60a0 133d
000001c0: c487 a1bd b388 0a3d 8bd5 43bc 6cc6 223d
000001d0: 2ee6 f9bc d68a 3c3d 91c2 f03c 9583 b83b
000001e0: 8b2d 553d 944f 8bbc 73c3 b63d d211 233e
000001f0: ae06 733d 9f45 943d 7737 2bbd 4ed2 403d
00000200: e0cf 203c 74ae 41bd d094 433d 5b2e d4bd
00000210: fa28 003e c5fb 94bd 0cdb 10bd 7081 be3d
00000220: ef54 0abe e1c6 89bd f4b6 863b c80d b33d
00000230: 0316 9a3d bb4e febb bb2a 653d 33a7 a7bb
00000240: 6476 c43c b6ad 45bc 66a8 b93c e7ce d1bb
00000250: fe40 0cbe ebd3 013e 394c c13d 7bb2 883d
00000260: e33f bfbc 1683 71bd 6725 023e f9d4 8fbd
00000270: da5e 3bbd 56a3 1a3c bdd5 f23c 02c7 26be
00000280: 9ad1 173c 3162 aabd 9c8e b3bc 9129 febd
00000290: da84 bebc 1a8c 3a3d 1527 ab3d ca7b 8d3c
000002a0: ff39 733d 5672 20bc 5191 e8bc c21d 273d
000002b0: aed1 8cbc 4fe3 65bd c8a6 93bb 4744 a33d
000002c0: aab8 c63d 8608 b73c 5cc1 6c3c 61fb d1bd
000002d0: f6f1 9cbd 3c11 673a b6e4 eb3d 68a8 24bc
000002e0: 1726 3b3d ed2b 10bd b9fe 93bd 9dec 9e3d
000002f0: ca6d 86bc 4aa9 0dbe b80e 8bbc ed85 d63c
00000300: 89bf 853d 668f 0b3c ad2e e3bd 44f3 3b3d
00000310: f226 913d e9e1 193e 92b4 f73d 3f1d 96bc
00000320: a92c 613d 3def f4bc f0ef 053d a0f6 943d
00000330: 316b b23d 5ff2 373b 4c55 3fbd 2bcd 0cbe
00000340: be60 6fbd 94a1 87bd 7030 0b3d 5efd 3c3d
00000350: 3a3d d33c 808e a1bd 6154 33bd 6d45 353d
00000360: a6ea 073e c65a d6bc 3f93 d93c c702 663c
00000370: 0cd3 4e3d 7c4e 8cbd b3fe 6e3d 2bbf a13d
00000380: 11dc 34bc 279b 0cbd 996a 8a3c 0c7e bcbc
00000390: e49f 883b 8a84 4f3a c1f6 1f3d 0933 6e3c
000003a0: f664 97bc 1224 20bc 25ac c13c 884f 103d
000003b0: a5a8 233d 5874 fc3c e3b2 0d3d 1e9b 33bd
000003c0: cbc3 0b3e 5065 bbbb 11ec 6c3d c9b0 a03c
000003d0: 37f9 70bd 6357 783d eff0 383d 31f0 993d
000003e0: 1696 d6bd 9d6a 43bc f777 28bd 0d5b 4abd
000003f0: e1e8 493b f241 3c3d 1705 b6bc 1b2b 923d
0.04828678 -0.05339318 0.07704278 -0.16968995 -0.017614579 -0.044783976 0.09923911 0.03410014
0.02158597 0.024829736 -0.015924953 0.09672629 0.07748994 -0.037746407 -0.10992463 0.09324309
0.03800895 -0.10294435 0.071176544 -0.03024737 0.08298588 -0.03281989 -0.042232756 -0.1973618
0.13090727 0.1423238 0.044438783 -0.07521287 -0.06558088 -0.11436027 0.014915646 -0.022747677
-0.019413732 -0.014676117 0.15111329 0.077344045 0.08878437 0.12708685 -0.048096538 0.03217715
0.007195401 -0.023127455 0.13822114 -0.0134125585 -0.07857172 -0.05852041 -0.0056033293 0.031399973
-0.024999036 0.051722344 0.023713594 0.003964268 -0.05857157 0.021242307 0.13875481 -0.08543761
0.0008077501 0.0075596464 0.06110359 -0.09009791 0.0054425634 0.025491977 0.0558327 0.1444502
0.04176973 -0.0019282222 0.04772551 0.03706533 -0.074015096 0.050164897 0.08640702 -0.077670924
-0.012266916 -0.037439983 0.016021155 0.10667913 -0.07135383 0.028384466 0.08856201 0.060408026
-0.0076256483 0.020353077 0.014945681 -0.05447605 0.013062374 -0.04121729 0.0099091055 -0.06177748
0.061814375 -0.0370047 0.06178049 -0.017330835 0.043134257 -0.062051255 -0.053088948 -0.114425294
-0.046400774 0.09839129 -0.057100035 -0.08544233 0.057167895 -0.080169395 0.077752054 -0.02284825
0.0060972013 0.071794815 0.008919529 0.027682707 0.026399283 0.08322429 0.11216071 0.036041617
-0.07887223 0.033821773 -0.011952768 0.03974001 -0.030505266 0.04603084 0.029389651 0.00563092
0.052045386 -0.01700572 0.08923998 0.15924767 0.059332542 0.07239842 -0.041800942 0.047075562
0.009815186 -0.047285512 0.04774934 -0.10360404 0.12515631 -0.07274584 -0.03536515 0.09302032
-0.13508962 -0.06727386 0.004111165 0.08742863 0.0752373 -0.0077608502 0.055948954 -0.0051163672
0.023982234 -0.012065342 0.022663306 -0.0064028385 -0.13696668 0.12678497 0.094383664 0.066746674
-0.023345893 -0.058962904 0.1270958 -0.07023043 -0.045744754 0.009438356 0.029642934 -0.16286853
0.0092662815 -0.0831951 -0.021918587 -0.12410272 -0.023256708 0.045543768 0.08357064 0.017270941
0.05938148 -0.009792885 -0.028389605 0.040799864 -0.017189827 -0.05612498 -0.004505966 0.07972007
0.097031906 0.022342931 0.014450397 -0.10253025 -0.07663338 0.0008814519 0.115182325 -0.010049917
0.045690622 -0.03519814 -0.07226319 0.07759974 -0.016409773 -0.1383411 -0.016974792 0.026186908
0.06530673 0.008518076 -0.11092887 0.045886293 0.07087506 0.15027584 0.12094988 -0.018324492
0.054974232 -0.029899234 0.032699525 0.072736025 0.087118514 0.0028068048 -0.046712205 -0.1375014
-0.05844187 -0.066226155 0.03398174 0.046140067 0.025786031 -0.07888508 -0.043781642 0.044255663
0.13273105 -0.026166331 0.02655947 0.014038748 0.05049424 -0.06850907 0.05834837 0.078977905
-0.011038796 -0.034327652 0.016896533 -0.023009323 0.004169451 0.0007916173 0.039053682 0.014538535
-0.01848076 -0.009774225 0.023641655 0.035232097 0.039955754 0.030817196 0.034594428 -0.043849103
0.13648908 -0.0057188645 0.057842318 0.019615548 -0.05883142 0.060630213 0.045151647 0.07516516
-0.10477845 -0.011927274 -0.041130032 -0.04940324 0.0030808973 0.045961328 -0.022219224 0.07137128

net.3.bias f4 [256]
00000000: 1c48 9dbd 9f86 8cbd 9870 ec3b 2dca fbbd
00000010: faaf 8bbc 2cfe e4bd c977 83bd ed9d babd
00000020: 6f87 1bbd 6f5c c4bb ebdd 85bd c224 e3bc
00000030: 5cd1 c3bd b908 bcbd 23f7 1fbd b2b7 1abe
00000040: 1073 aabd 038c 94bd dd76 44bd 66b0 f43b
00000050: 469a 14bd d54a cdbd 445c c1bd 2b18 39bd
00000060: e0ea e9bd 842b 293a c007 eabc 174b c6bd
00000070: aba0 56bd fb5d a0bd a38b 42bd 2926 21bd
00000080: 9efd 81bd 22d5 1dbd ebfa 063b 9719 94bd
00000090: c7ff cfbd bdac 2cbd a03d 57bc ed0d 02be
000000a0: fab2 a4bd 7b2d adbd f780 3ebd 22c8 22be
000000b0: 3e5e 6ebd 7621 37bd 3289 a1bc d02c 0bbd
000000c0: f367 f4bd eb4a 9cbd b256 d7bd 8644 a1bc
000000d0: 8c05 b3bd cb27 99bd 732b 36bd 68bf bdbd
000000e0: 1cc8 d9bc 991c 9dbd 55f8 803c a9f8 b0bd
000000f0: d731 febd 72cc ddbb adb1 92bd b1a5 c9bd
00000100: 49d6 febc 1382 cabd aecb a1bd d7f8 dcbd
00000110: 271e 4cbd 0138 a9bd e947 d6bd f443 76bd
00000120: 7b56 b2bd 36ff afbd caae 1abd 1425 dabd
00000130: 0803 cbbc 24c8 80bd edeb 96bd 2e85 2cbd
00000140: cc19 65bd a7b3 44bd 3cc4 53bc 18a4 2abd
00000150: 7005 90bd 9a51 91bd 4510 1abe 3c70 dcbd
00000160: c2a9 8dbd 9b6b 4bbd 412b f8bd e9d2 b9bd
00000170: 041c 83bd e3aa 04be 3b4e f0bd f651 acbd
00000180: 73a7 23bd 8dd3 65bc 1b44 04be 52c2 c0bc
00000190: 4de7 96bd 6af0 b3bd d598 50bd 55bc b6bd
000001a0: c652 e1bd ace4 87ba fef2 03be 9965 c7bd
000001b0: 9c0f abbd c4da a93c 7cf1 27bd 5636 a0bd
000001c0: a08a 98bd b8ef 94bd bf3d cfbd 764d e0bd
000001d0: 6794 b8bc a10b 6fbd 05dc d0bd e132 99bd
000001e0: e645 02bd dff2 833c d9a9 a4bd a7b5 303c
000001f0: d997 08bd 643a d5bd 9c9e e5bd d718 6bbd
00000200: 7b6a a6bd 06c1 e2bc 8d6f de3c cc1a babd
00000210: 011a 4ebd 8117 dcbd 7c52 89bd ba95 adbd
00000220: 4a34 5abd c77b 3fbc f1a5 abbd d684 05be
00000230: 68b5 8bbd a38c 9bbd 8cc8 65bb b1ac a7bd
00000240: 4b0c 7dbd baea 9cbc e5c6 50bd 40af 71bc
00000250: 02a1 13bd 8643 1dbe 7865 c4bd 1c4c ebbd
00000260: 8110 35bd f2ab 04be 73d0 b8bc b629 d8bc
00000270: ce00 dbbd 73dd d7bc 8561 82bd 2184 8dbd
00000280: 7d4d 29bd 4202 08bd 92eb 5ebd 1294 38bd
00000290: 4853 7cbd 6d45 afbd aae7 89bd e929 cabb
000002a0: 8632 d4bd 683a 55bd 6cce a1bd c894 64bd
000002b0: 181a 3bbd ca04 bdbd 8f05 3bbd aa90 30bd
000002c0: d33d 25bd 887f dcbd 8949 a2bd 57e1 71bd
000002d0: 1ab4 19bd 1874 25bd 58b6 40bd 58e9 fbbc
000002e0: 875f b1bd 1f5a babd 7bbf 31bd 8e89 31bd
000002f0: d708 37bd 67b9 9bbd 8ba3 8bbd 74a1 36be
00000300: 2a5b 89bc aaa4 5abd 1235 ebbd f9fa 4bbd
00000310: 8a77 e3bc 517b 68bd 408c 29bc df96 5ebd
00000320: 5ac7 a0bd a419 babd f20c dabd 7612 93bd
00000330: a2ea d0bd 04f4 f8bd 7fa6 cdbd 21e3 54bd
00000340: c364 36bd ddde a9bd 4892 ffbb ec7a 2bbd
00000350: ba80 faba e4dc 92bd c8a7 44bd cb91 01bd
00000360: 9a69 83bd 9dc0 f4bc 0d74 bcbd af66 87bd
00000370: 3a94 9bbd ca94 1b3b fe1c 45bd 756a 0ebd
00000380: 9c56 59bd e616 a5bd eac9 8fbd 5474 e6bb
00000390: 40a2 f7bb bf80 83bd e982 d7bd 6f77 0abd
000003a0: 7fd1 b9bc 9895 2ebd d7d9 5ebd 9c9d 18be
000003b0: 4bfc b6bc 8e6e abbc 07b8 fdbc 7a7a 5a3c
000003c0: f673 47bd 547e d1bd 0aa9 38bd 48e3 3bbc
000003d0: bec5 b0bd 819b f0bd feb7 bebd 1641 27bd
000003e0: 3565 ccbd 5212 89bd 8d98 cbbd 7be2 b8bd
000003f0: 752d 8cbb fb28 293d fc8f bcbc 819b bbbd
-0.076797694 -0.068616144 0.0072155707 -0.12294421 -0.017051686 -0.11181292 -0.064193316 -0.09112153
-0.037970956 -0.0059924643 -0.06536468 -0.027727488 -0.095614165 -0.09181351 -0.039054047 -0.15109137
-0.08322728 -0.072532676 -0.04796492 0.0074673174 -0.03627994 -0.10024039 -0.094414264 -0.045189064
-0.11421752 0.0006453323 -0.028568149 -0.09682291 -0.05239932 -0.07830425 -0.04749645 -0.039343033
-0.06347202 -0.038533337 0.0020596336 -0.072314434 -0.101562075 -0.042156924 -0.013137251 -0.12700625
-0.080419496 -0.0845594 -0.04650971 -0.15896657 -0.058195345 -0.044709645 -0.01971874 -0.033978283
-0.11933889 -0.07631477 -0.10514583 -0.019685995 -0.08741292 -0.07478293 -0.04447503 -0.092650235
-0.026584677 -0.0767147 0.015743414 -0.08641178 -0.1241185 -0.0067687565 -0.07162795 -0.09846056
-0.031108038 -0.09888091 -0.07900177 -0.1078965 -0.049833443 -0.08262635 -0.104629345 -0.0601234
-0.08707901 -0.085935995 -0.037764348 -0.10651603 -0.024781719 -0.06288174 -0.07369218 -0.042119198
-0.055932805 -0.048022892 -0.012925204 -0.0416604 -0.07032287 -0.070956424 -0.15045269 -0.107635945
-0.06917144 -0.049663167 -0.12117625 -0.09073431 -0.06401828 -0.12955813 -0.11733671 -0.0841407
-0.039954614 -0.014027488 -0.12916605 -0.02353016 -0.07368336 -0.0878609 -0.050927002 -0.0892264
-0.11002116 -0.0010367832 -0.12885663 -0.09736175 -0.083525866 0.020734198 -0.04100178 -0.07822864
-0.074483156 -0.07272285 -0.10119199 -0.109522745 -0.022531701 -0.0583607 -0.101982154 -0.074804075
-0.03180494 0.01610702 -0.08040208 0.010785497 -0.03334794 -0.10411528 -0.11211893 -0.057396736
-0.08125778 -0.027679931 0.027152801 -0.09087142 -0.050317768 -0.107466705 -0.06705186 -0.08475824
-0.053272523 -0.011687226 -0.0838126 -0.13038954 -0.0682171 -0.07595184 -0.0035062162 -0.08187235
-0.0617793 -0.019154895 -0.05097093 -0.0147512555 -0.03604222 -0.1535779 -0.09589666 -0.11489126
-0.044205192 -0.12956217 -0.022560334 -0.026387077 -0.10693513 -0.026350712 -0.063662566 -0.06909967
-0.041333664 -0.03320528 -0.054423876 -0.045063086 -0.06160286 -0.08558164 -0.067336395 -0.006169547
-0.10361199 -0.052057654 -0.079007 -0.05580595 -0.04567918 -0.09229429 -0.045659598 -0.043106712
-0.040342163 -0.10766512 -0.07924182 -0.05905279 -0.037525274 -0.04039392 -0.047048897 -0.030750915
-0.086607985 -0.090992205 -0.0433955 -0.043344073 -0.044686165 -0.07603722 -0.06818303 -0.17835027
-0.016767103 -0.053379692 -0.11484732 -0.049799893 -0.027766962 -0.05675823 -0.01034838 -0.0543431
-0.07850523 -0.09086922 -0.10647 -0.071812555 -0.10201003 -0.12155917 -0.10041522 -0.05197442
-0.044529688 -0.08294461 -0.0077994205 -0.041865274 -0.001911185 -0.07171038 -0.04801157 -0.03163318
-0.06416626 -0.029877001 -0.092018224 -0.06611382 -0.07596631 0.0023739808 -0.048123352 -0.034769494
-0.053061113 -0.08061008 -0.07020934 -0.0070329104 -0.0075571835 -0.06421041 -0.10523016 -0.033805307
-0.022682903 -0.042623132 -0.054406967 -0.14903873 -0.0223371 -0.02092674 -0.03097154 0.013334865
-0.048694573 -0.10229173 -0.045083083 -0.011467762 -0.08631466 -0.1174841 -0.093124375 -0.040833555
-0.09980241 -0.066929474 -0.09941206 -0.09027573 -0.00427788 0.041298848 -0.023017876 -0.091605194

net.5.weight f4 [256]
00000000: fb26 ac3f 40a2 a63f 140a c43f c22a cb3f
00000010: 71b3 b23f 8961 b53f 7e40 ac3f a7fa c83f
00000020: 917d b93f 5745 cb3f c3ad b83f bca7 b43f
00000030: 107c b03f e2b1 af3f 3800 a93f 9fa1 aa3f
00000040: 0af9 b33f 2b6f ba3f c9f9 bc3f d435 c03f
00000050: 363d b43f fd04 ca3f 30c3 be3f 0d2a bd3f
00000060: 3f27 b23f 0e5c b13f 1e6f b43f cbe6 da3f
00000070: d78c ad3f 062c b43f 5a00 c43f 671d bc3f
00000080: 880b ae3f 5157 c03f 1a49 b23f accf bb3f
00000090: bb50 b03f 6b5a b43f 439e ba3f 5347 d03f
000000a0: 5bd7 be3f ff82 b43f dbdb b43f 035b d63f
000000b0: 5f45 ae3f 69a0 b13f 1496 c43f 09de b73f
000000c0: 3f4b b33f 934b b83f 8b8a ba3f aa08 b03f
000000d0: 4677 c53f b57e b63f 8e03 ad3f 0b3d b23f
000000e0: 4844 b43f 714a b03f 9115 c43f 4467 bf3f
000000f0: 222c b83f 23bc ba3f f991 bc3f 4f41 9b3f
00000100: e48a b13f 5dc2 bd3f 1e6a c23f 8259 c23f
00000110: 8109 c13f b7a5 bd3f 88cb ac3f e491 bd3f
00000120: 4466 c43f 200a b93f 1b3d b73f a36f a93f
00000130: 971f c13f 9c5e be3f 7bc5 b43f 466a bd3f
00000140: 0423 be3f 4bb7 a63f bddd b73f 76bd c23f
00000150: 17f9 b53f d2de 9d3f bfcd c43f a0dd ae3f
00000160: 02b6 ce3f f25b c03f 99e6 b13f c6d7 c63f
00000170: 20ee b83f 8654 bd3f 1597 b63f ca35 b43f
00000180: 8fbf e73f 04f1 c33f d204 9e3f dde6 b83f
00000190: e6a5 af3f 0fa1 ba3f ab32 bb3f 52e5 cc3f
000001a0: 8951 db3f c872 b93f f287 be3f 97af b93f
000001b0: f2ea c53f eb59 be3f 57b4 b03f 3da3 b83f
000001c0: a1ff b93f 101d ad3f 9ba6 b63f 490f c13f
000001d0: 4366 c13f 6dde c73f d42c c83f da4e c63f
000001e0: ec3c b13f cd03 b13f e117 b03f e564 b33f
000001f0: c4e9 b93f 0e9c c13f 6b09 c53f c85a bf3f
00000200: fad3 ce3f a05f ac3f dba8 bb3f 914f bd3f
00000210: e9cb c23f ded7 b83f 7850 c73f 33ed d63f
00000220: 8c6d a33f 1dd2 b03f 037d aa3f 4aba 913f
00000230: 8720 cb3f b633 ca3f 2f6a bf3f dbfc af3f
00000240: e9c6 b93f 7f77 ba3f 6693 bd3f 10d8 bd3f
00000250: c2b0 af3f 7d2a b23f a298 bc3f 14c9 aa3f
00000260: 7cdc bb3f 0a1b c03f 0125 af3f fe9b a53f
00000270: b058 c43f 3746 ac3f abd8 be3f ead1 ca3f
00000280: 4073 c23f 51d6 c23f 7fb7 c23f 0614 c03f
00000290: d8cf bd3f 643e a13f 63bf b33f d464 ba3f
000002a0: bfff ad3f ec35 ad3f 6104 b53f fa88 c03f
000002b0: 02e0 b13f b95d c33f f319 b83f 7360 b63f
000002c0: cd7d b83f de39 bb3f 5067 c03f 253d bb3f
000002d0: 6c2f ae3f 9f7e b83f 666d b13f be0f aa3f
000002e0: f71a d03f caba cc3f edba b23f c93c c43f
000002f0: f0c6 a73f ba70 b43f 4a6b af3f 9cbb c13f
00000300: ebc3 b33f 4038 c33f 40d8 bb3f 2e84 bd3f
00000310: 9e5d af3f 3651 a83f 6227 b63f e000 cf3f
00000320: ada8 c43f 51dd ac3f 6ef1 c43f b7c3 bd3f
00000330: b68a ab3f 5c94 d43f eea5 b43f fc82 bc3f
00000340: 9463 a83f 55e2 b93f 514b b93f 0900 bc3f
00000350: f7ad ca3f c1d7 b93f db7b b73f 6d25 be3f
00000360: ed82 c93f 13d4 be3f b0fc bf3f 10a2 ac3f
00000370: 0ed8 bd3f 6407 d23f 8cd6 c43f c040 c43f
00000380: 3db0 bb3f 533e af3f 22d4 a93f b3e7 b43f
00000390: 54d9 b43f 94d8 bf3f d009 b83f 44b0 bc3f
000003a0: 192a c23f e2ed bc3f fc8c b13f 1c90 ba3f
000003b0: f585 c83f 6f7b b93f 650c b63f 927a a93f
000003c0: 43e5 bb3f be78 b53f 9db0 ba3f b487 c33f
000003d0: e8b0 bb3f e113 b33f d4d3 c63f dde9 a53f
000003e0: 6f99 bd3f 4b01 b93f 19ba d53f 8e02 bf3f
000003f0: cef0 cf3f 1f27 af3f 9c28 b43f be90 b03f
1.3449396 1.3018265 1.5315576 1.5872424 1.3961011 1.417039 1.3457181 1.5701493
1.4491445 1.5880536 1.4428028 1.4113688 1.3787861 1.372616 1.3203192 1.3330573
1.4060376 1.4565176 1.4763728 1.5016427 1.408118 1.5782772 1.4903316 1.4778458
1.3918227 1.3856218 1.409641 1.7101682 1.3558606 1.4075935 1.5312607 1.4696473
1.3597269 1.5026647 1.3928559 1.4672751 1.3774637 1.4090093 1.4579548 1.6271766
1.4909471 1.4102477 1.4129595 1.6746525 1.361492 1.3877078 1.53583 1.4364635
1.4007338 1.4398063 1.457353 1.3752644 1.5427024 1.4257418 1.351671 1.3924879
1.4083338 1.3772718 1.5319082 1.4953389 1.4388468 1.4588665 1.4732047 1.2129306
1.3870511 1.482494 1.5188634 1.5183566 1.5081025 1.4816197 1.3499613 1.4810147
1.5343709 1.4456215 1.4315523 1.3237194 1.5087765 1.4872622 1.4122766 1.4798057
1.4854436 1.3024687 1.4364544 1.5214069 1.4216641 1.2333624 1.5375289 1.3661385
1.6149294 1.502806 1.3898498 1.5534599 1.444767 1.479142 1.4264857 1.4078915
1.8105334 1.5307927 1.2345221 1.4445454 1.3722503 1.4580401 1.4624838 1.6007483
1.7134258 1.4488153 1.4885237 1.4506711 1.5462325 1.4871191 1.3805035 1.4424816
1.4531137 1.3524494 1.4269594 1.508279 1.5109333 1.5614754 1.563868 1.5492814
1.3846717 1.3829285 1.3757287 1.4015166 1.4524465 1.5125749 1.5393499 1.4949579
1.615844 1.3466682 1.4660906 1.4789907 1.5218478 1.4440877 1.5571432 1.6791137
1.2767806 1.3814121 1.33194 1.1384976 1.5869302 1.5797031 1.495428 1.374904
1.4513828 1.4567717 1.4810607 1.4831562 1.3725817 1.3919216 1.473408 1.3342614
1.4676661 1.5008252 1.3683168 1.293823 1.5339565 1.3458928 1.4909872 1.5845311
1.5191422 1.5221654 1.5212249 1.5006111 1.4829054 1.2597165 1.4042782 1.456202
1.3593673 1.3532081 1.4141961 1.5041802 1.3896487 1.5262977 1.4382919 1.4248184
1.4413391 1.4627035 1.5031528 1.4628035 1.3608222 1.4413642 1.3861511 1.3286054
1.6258229 1.5994503 1.3963295 1.533105 1.3107586 1.4096901 1.3704617 1.5135379
1.4044164 1.5251541 1.4675369 1.4805963 1.3700445 1.3149784 1.4230769 1.6172142
1.5363976 1.350504 1.5386178 1.4825352 1.3401706 1.6607776 1.4113138 1.4727473
1.3155389 1.4522196 1.447611 1.4687511 1.583434 1.4518968 1.4334673 1.4855171
1.574308 1.490847 1.4998989 1.3486958 1.483156 1.6408505 1.5377975 1.533226
1.4663159 1.3690895 1.3267863 1.4133209 1.4128823 1.4987969 1.4377995 1.4741292
1.5169097 1.4760096 1.387115 1.4575229 1.566588 1.4490794 1.4222533 1.324053
1.467934 1.4177473 1.4585148 1.5275788 1.4663363 1.3990442 1.5533395 1.2961994
1.4812449 1.445352 1.6697417 1.4922655 1.6245363 1.3683814 1.4074893 1.3794172

net.5.bias f4 [256]
00000000: cd66 8ebd 4c5f a53d a0b6 14bc 72e1 3ebd
00000010: f97e e03d e0a5 9abc 9b20 13bd 259a 22be
00000020: 2176 233d 8532 1e3c 5e1c f83b 5c29 8f3a
00000030: f1f7 873d e6e9 0f3e ff9d 8abd 4579 3abd
00000040: d2eb 7bbb 4313 a63c 6ec1 07bd 24fc cb3d
00000050: b9d5 9c3d 13bf b3bd d09e aabd 3cef 083d
00000060: fdb0 963c 0963 2a3e 9808 6bbc 71ca ecbc
00000070: 0040 84bd 8fe4 a0bc cc20 35bc e28c f3bd
00000080: 6de8 d5bc 5f3b 6d3d c8e1 a33c 1373 a03a
00000090: cf6a 54bd 020e cfbd 1f3d b13d e17e f43c
000000a0: 30fb ed3d b898 ac3d 803e 963c 045d 15be
000000b0: 4e64 ab3c c252 e23d 8f8b 2d3d b9df 91bc
000000c0: 2a33 45bc 9043 86bb 1365 c73c 31a4 9a3d
000000d0: d4ba 02bd e09b 0abe 54f8 f83d 551b cc3c
000000e0: 2d95 a9bd 3529 68bb ff9a d43d a783 c8bd
000000f0: 969a b5bd 44f5 33bd 941b 3c3d 6027 0dbe
00000100: d6e9 c73d 4849 073d 4c83 9ebd 9fe3 12be
00000110: e0ae 4bbd 8285 4cbd be4e 573a a628 5b3d
00000120: ff4f a03d 3378 16bd 14c0 663d 6579 a8bd
00000130: a724 b43d f7a2 d9bd c647 c83d bd6b ef3d
00000140: f271 a83c ebf9 e13d 3906 f43d 227f 85bd
00000150: 83eb 753d 559b e4bc bfce a03d 3d20 a0bb
00000160: 77ec c43c cdec f5bd cca8 94bc 8a85 82bd
00000170: f049 023e 4c6d 0bbd 3406 173e fb55 abbd
00000180: d503 9cbd 75c0 363e 8721 10bd 9143 413d
00000190: 9bac f7bd c4bf d13c 087d 30bc d51a 3dbd
000001a0: 7310 a13d 7c25 3cbd 5f55 7d3d 4247 cd3c
000001b0: 85e6 0a3e 1813 143d c546 f7bc 9934 0a3d
000001c0: 18f4 143e 35bd 70bd cc77 4b3e 82fd fc3d
000001d0: 8397 51bc 2a74 46bd b385 45bd fe8c b53d
000001e0: 6222 13bd 5007 ad3b 3dd2 d2bc 7cd1 1d3e
000001f0: 06ac d1bd c57f 16be 2a51 7abd 5e2d 483e
00000200: 1b8e 73bd cbad 203c 559d 523d 9d2e 9e3c
00000210: c0a1 a23c 423e 87bd 176a bbbd 2815 e1bd
00000220: 62ce 40bd 165e a83c 4ce5 38be 1459 813d
00000230: b4d1 fcbd 8b2c 81bd 6573 973d c368 07bd
00000240: e4a2 99bd e34b 5f3d 6eb7 b33d 55d2 f4bc
00000250: 294b cabc e3ab ca3d e96d 06be 1088 d1bd
00000260: f375 933d fb19 f0bd 4276 6bbd a493 dc3d
00000270: 39fc de3c 2055 f1bc 0ddc aa3c c224 e93d
00000280: 8a5d b6bd 067e 9ebd 30b9 f7bd 43e7 513d
00000290: 0f29 ea3d 2812 f7bd 3fdc 56bd 3ed2 f2bd
000002a0: a286 fa3d d4f3 293c 9315 09be 3be2 32bd
000002b0: 586f 4bbd fe10 f7bc d3d9 093e 53d0 833c
000002c0: 6fe7 0e3e ba70 66bd 75ba dfbc efa8 12be
000002d0: 6c2c fabc 0711 ea3d ec39 c9bd 3fe1 39bc
000002e0: 6de4 5dbd 79e5 723d a812 e6bb 4a17 903c
000002f0: 14f3 1b3d 5499 01be e818 453d 2161 cdbd
00000300: 3ace 453d 933a 6d3d 27b8 f03c 3e37 133e
00000310: 325f 233d 4954 263e 627c 93bb 244c 8b3d
00000320: 9ebf 84bd a6e2 0eba c22f dabb 93ef 0cbd
00000330: 2da1 34bd 2973 9c3c eb28 14bd 4e07 b23d
00000340: ce23 043e dad3 e33c 9887 ab3d 47d1 933c
00000350: 4422 ee3d 2533 9f3d 9b52 033e 0d3b 013e
00000360: f88a 113d 977f 063d 150a 7bbd eb4b 993c
00000370: 8f66 bdba 8fdf 4a3b e74e 65bd a94d 883d
00000380: b071 673d bc0c 0fbd 32cd 663c 9795 1f3d
00000390: 821d 8b3d 1aae ddbc 15ae e7bd 0a77 bcbc
000003a0: 7517 a43a bce2 003e 0ab6 27bd b663 82bd
000003b0: 28ea 0a3e 2fdc 303d 5aba 25bd e6ea b53d
000003c0: 1a79 0bbe e030 debd d678 d03c 91b5 15bd
000003d0: 0ba2 fa3c 00a3 78bd 15b2 a23d d2ba 2bbd
000003e0: 70ea b83d 1a42 913d 138c bf3c 871f 79bd
000003f0: 9d88 ab3d fb12 153d cdfb 653c 6126 b13d
-0.069532014 0.08074817 -0.009076744 -0.04660172 0.10961718 -0.018877923 -0.035919767 -0.15879114
0.03990758 0.0096555995 0.007571741 0.001092236 0.06639088 0.14054069 -0.067684166 -0.045525808
-0.003844012 0.020272857 -0.033143453 0.099602014 0.07657952 -0.08776679 -0.08331072 0.033431277
0.018394941 0.16639341 -0.014345311 -0.028905125 -0.064575195 -0.019640235 -0.011055183 -0.11892106
-0.026111806 0.05791795 0.020005122 0.0012241326 -0.051859673 -0.10110094 0.08654236 0.029845657
0.11620176 0.08427566 0.01834035 -0.14586264 0.020921852 0.11050941 0.04236942 -0.017806875
-0.012036124 -0.0040974095 0.024340188 0.07550848 -0.031916454 -0.13536024 0.1215674 0.024915377
-0.08280406 -0.0035424952 0.10381126 -0.09790736 -0.088673756 -0.043935075 0.045924738 -0.13784552
0.097613975 0.03302887 -0.07739887 -0.14344643 -0.04972732 -0.04993201 0.00082133326 0.053505562
0.07827758 -0.036735725 0.056335524 -0.08226279 0.087960534 -0.10626786 0.09779315 0.11690471
0.020562146 0.11033996 0.119152494 -0.06518389 0.060039055 -0.0279061 0.07851934 -0.0048866556
0.024038536 -0.12008057 -0.018146895 -0.06373127 0.12723517 -0.03403978 0.1474846 -0.08366009
-0.076179184 0.17846854 -0.035188224 0.047183577 -0.12093469 0.025604136 -0.010771997 -0.046168167
0.078644656 -0.045934185 0.061848994 0.025058392 0.13564499 0.03615102 -0.030185113 0.033741567
0.1454624 -0.058774192 0.19869918 0.1235304 -0.012792471 -0.048450626 -0.04822321 0.08864783
-0.035921462 0.0052804127 -0.025735015 0.15411943 -0.10237889 -0.14697178 -0.06111256 0.19548556
-0.059461694 0.0098070605 0.051419575 0.019309336 0.019852519 -0.066036716 -0.091510944 -0.10990363
-0.047071822 0.020552676 -0.1805622 0.063158184 -0.12344685 -0.06307324 0.07395057 -0.033058893
-0.07501772 0.05451573 0.08775221 -0.02988545 -0.024694042 0.09896066 -0.13127865 -0.1023103
0.072002314 -0.117237054 -0.057485826 0.10770348 0.027219879 -0.029459536 0.020856882 0.11383964
-0.0890456 -0.07738881 -0.120958686 0.05124594 0.114336126 -0.1206401 -0.052456137 -0.11856507
0.122327104 0.010373075 -0.13387136 -0.04367278 -0.049666733 -0.03015947 0.13462 0.016090548
0.13955472 -0.05625985 -0.02731059 -0.14322256 -0.03053876 0.11429029 -0.09825501 -0.011345207
-0.054172922 0.059300873 -0.007021267 0.01758923 0.038073614 -0.12656146 0.048119456 -0.100282915
0.048292376 0.05791719 0.029384686 0.14376542 0.039885707 0.1624309 -0.0045009116 0.06801632
-0.064818606 -0.00054506434 -0.006658525 -0.034408163 -0.04409902 0.019097881 -0.036171835 0.086927995
0.12904283 0.02781098 0.08375472 0.018044127 0.116276294 0.07773427 0.1282448 0.12620182
0.03553292 0.032836523 -0.06128891 0.018712958 -0.001445012 0.0030956005 -0.05598345 0.066554375
0.056504905 -0.034924254 0.014087008 0.03896102 0.067927375 -0.027060557 -0.113125004 -0.023005981
0.0012519198 0.12586492 -0.04094509 -0.063666746 0.13565886 0.043178733 -0.04046092 0.08882694
-0.13620415 -0.10849166 0.025448244 -0.03655011 0.030594846 -0.060702324 0.07944123 -0.041926213
0.090290904 0.07092686 0.023382222 -0.060821082 0.08375666 0.036395054 0.014037085 0.08649898
