models/Level2/checkpoint_6000/critic.pth (torch, 320618 bytes, 9 tensors)

net.0.weight f4 [256, 47]
000000 25 74 73 3e f6 78 d4 3c c8 f7 b1 be e1 01 60 3e
       0.23774774 0.025936585 -0.34759355 0.21875717
000010 d6 01 cd bd 86 f7 17 3f d5 04 77 be 6d 31 93 3e
       -0.10010116 0.59362066 -0.24122937 0.28748646
000020 b2 e7 b1 3e 70 97 a8 bf 6c b4 1d 3f 28 d8 b3 be
       0.34747082 -1.3171215 0.61603427 -0.35125852
000030 3a 0c aa 3e be ac ab bf e0 c9 55 bf 11 26 fa 3e
       0.33212453 -1.3412092 -0.8351116 0.48857167
000040 c1 e1 a2 3e 1b 7a dd be ce 4e 64 be c5 f8 9d 3e
       0.31812862 -0.43257222 -0.22295687 0.3085386
000050 f8 fb 2e 3f 00 c7 9e be 68 86 27 3f 3e ae e5 be
       0.68353224 -0.310112 0.6543946 -0.448595
000060 32 dc f4 be 00 54 53 3f 91 ad 64 3e 07 0c 0c bf
       -0.47824246 0.8255005 0.22331835 -0.5470585
000070 c5 5f 93 3d af 9e 70 be 0a 8f 1e 3e ca eb 93 bf
       0.07196001 -0.23498033 0.15484253 -1.1556332
000080 df 0e 0f bf 4b 07 f8 3e ac 9a 29 3f 3f 59 9c bf
       -0.55882066 0.48443064 0.66251636 -1.2214736
000090 87 5f 18 bf 99 68 19 be 74 33 88 be 27 c2 1a bd
       -0.59520763 -0.14981307 -0.26601756 -0.037782814
0000a0 78 74 c7 3e f9 e1 88 bf a1 e7 87 be 47 9b 69 bf
       0.38956046 -1.0693961 -0.26543906 -0.9125256
0000b0 13 86 8b bf d9 b7 95 3f 18 23 db be 47 33 8d 3f
       -1.0900291 1.1696731 -0.42800212 1.1031274
0000c0 4d c0 f2 bd 6f 69 1b bf 69 8e 3f 3e 16 9c 8b be
       -0.11853085 -0.60707754 0.18706669 -0.27267522
0000d0 82 ff 57 be 65 d2 d8 3d 37 76 6c be 60 f6 be 3e
       -0.21093562 0.105870046 -0.2309197 0.37297344
0000e0 dc 97 fa be 95 48 0a 3f 3c 50 fc be 82 47 53 3e
       -0.48943985 0.54017 -0.49279964 0.20632747
0000f0 43 a0 e0 be 7d 3a 5b bf 30 84 10 3e 4e e1 ba 3d
       -0.4387227 -0.8563612 0.14112926 0.09125005
000100 d3 f9 8b 3e 9e ac a2 3d 3c ec a9 bd 5e 64 0a 3f
       0.27339038 0.0794308 -0.08297011 0.540594
000110 3f d0 e7 be 15 b4 20 3f 23 3b f1 be 2c 4b aa be
       -0.45276067 0.62774783 -0.4711543 -0.33260477
000120 7a d7 41 be bd cc a5 3d cb 17 74 3e 9b a3 93 be
       -0.18929854 0.08095691 0.23837201 -0.2883576
000130 fd 5e 92 3d 00 9a ec 3d bd f0 08 bf fa 68 4b bf
       0.07147024 0.11552811 -0.5349234 -0.79457057
000140 85 a9 e0 be 6b bb 0f 3f e3 50 4e be 61 8b 9f be
       -0.43879333 0.5614535 -0.20148043 -0.31161025
000150 5b 2a 81 bf 32 49 d8 3e 5e 3c 5d 3e 93 47 7c 3f
       -1.0091051 0.42243344 0.2160506 0.98546714
000160 39 8f e0 be 09 4e 36 bf 40 b4 df be 22 fe 1d 3e
       -0.4385927 -0.7121282 -0.43692207 0.15428975
000170 f0 8d 11 3f 4e f2 8e bf ad d7 d9 3f 6b fb 8c 3e
       0.56857204 -1.1167696 1.7018944 0.27535567
000180 66 41 72 3e f4 59 6f 3e c8 4f 31 be 88 f6 cf 3d
       0.2365776 0.23374158 -0.1731559 0.10154444
000190 7a 70 24 3d b8 35 03 be 30 78 f5 3e ff cf 44 be
       0.04014633 -0.12813461 0.47943258 -0.19219969
0001a0 bb 44 3a bd e7 5a 2e bf f0 8f de 3e d3 48 a2 b9
       -0.045475703 -0.68107456 0.4346919 -0.00030953306
0001b0 80 e7 62 3e ed d8 f2 3d f2 3a 09 3e 1a a3 bc bd
       0.22158623 0.118577816 0.13401392 -0.09210797
0001c0 3d 1e eb 3d 99 7e 03 be e9 0f 10 3d 81 e1 47 bf
       0.11480377 -0.12841262 0.035171423 -0.78078467
0001d0 ce 67 9d bd e1 e0 5e bf eb 10 b8 3d c4 f7 08 3e
       -0.07685815 -0.8706189 0.08987602 0.13375765
0001e0 70 e0 2e 3e 8c 78 aa 3d 6b 0b a3 bc 04 ef 8e bd
       0.17077804 0.08323774 -0.019902905 -0.06979182
0001f0 d7 8f 1b 3f 25 66 43 be 9b a9 aa bf dd c2 a7 3f
       0.6076636 -0.19081934 -1.333301 1.3106343
000200 d8 7d bf bf 9b e8 7c 3f 30 fb 11 bf 0e 8f 94 be
       -1.496028 0.9879243 -0.57023907 -0.29015392
000210 33 6d 7c 3f 7f ed 3a 3f dc c4 aa bf 2a e7 4b bf
       0.98604125 0.7301864 -1.3341327 -0.79649603
000220 41 11 ee bc 24 7b 45 bf 89 17 8f bf 02 0c 9d bf
       -0.029060962 -0.7714102 -1.1179057 -1.226929
000230 81 d9 c9 3d f8 e3 bb 3e d0 31 43 be 13 9e 0e 3f
       0.09855939 0.36697364 -0.1906197 0.5570995
000240 44 27 85 bd 85 6e 06 be 6e 6a 93 bd 62 77 52 3c
       -0.0650163 -0.13128097 -0.07198034 0.012845846
000250 05 53 2e 3e 5f 24 3b 3d b0 fa 4d bf 87 7e 7d 3f
       0.17023857 0.045688983 -0.80460644 0.9902119
000260 8a 20 b8 be c8 b4 5e 3e de 02 23 bf 30 66 1c 3f
       -0.35962325 0.2174865 -0.6367625 0.61093426
000270 9f 28 54 3c f2 26 7d 3e e5 89 fd bc eb e4 73 bd
       0.012949138 0.24721888 -0.030949542 -0.059544485
000280 00 da 6f 3e c7 17 6d 3f f0 88 f9 be 7f 00 7e 3f
       0.23423004 0.92614406 -0.48737288 0.99219507
000290 70 c2 ad be b0 59 ab 3e d2 a1 f1 bb b4 09 c3 bc
       -0.33937407 0.33466864 -0.007374027 -0.023808338
0002a0 7e d3 80 bd 36 d6 94 3d b0 d1 11 be 25 ef 3f 3d
       -0.06290339 0.0726742 -0.14240146 0.046858925
0002b0 1e c8 2e bf ef 5f 29 c0 c6 98 bb be 7b 43 e5 be
       -0.68274105 -2.6464803 -0.36639994 -0.44778046
0002c0 9e 0d b0 bf 8b 6e 2c bf c8 5a f0 be 63 73 b8 3d
       -1.3754156 -0.67356175 -0.4694426 0.09006383
0002d0 7b f4 1b bf 03 aa d3 be 6a 09 09 bf 3d cf 30 3f
       -0.6091992 -0.41340646 -0.5352999 0.6906622
0002e0 69 28 ab 3f f5 11 68 3c 0d 41 71 3f e9 de 72 be
       1.3371707 0.014164438 0.94239885 -0.23717846
0002f0 f0 ea f5 bf b6 a2 87 bf 39 cf 40 bf 64 58 b6 3e
       -1.9212322 -1.059653 -0.75316197 0.35614312
000300 2a 0d 84 be 74 3b 44 bd b1 cb 7e be fb 16 74 3e
       -0.25791293 -0.04790826 -0.2488239 0.23836891
000310 9c 47 a9 be 8f 18 ae 3d 84 a1 56 bf e7 24 8f 3e
       -0.33062446 0.08500778 -0.83840203 0.27957842
000320 54 47 b2 be 2a 84 30 3e 43 d4 cf bf 08 0c 8e 3e
       -0.34820044 0.17237917 -1.6236652 0.27743554
000330 61 fb d7 3e 01 9a 4e 3e f7 c6 4e be 99 c1 8c 3e
       0.42183974 0.20175935 -0.20193087 0.27491453
000340 1a 71 80 bf 9c b1 9f 3e 12 af 3d bf 05 55 8e 3e
       -1.0034516 0.31190193 -0.7409526 0.2779924
000350 39 d9 82 bf 86 ad 08 3f fd 30 97 3e 0c f8 8f be
       -1.0222541 0.53389776 0.29529563 -0.28118932
000360 77 5d ce 3c b0 f2 fa bd 9a a6 d0 be 39 e5 97 3e
       0.025191052 -0.1225332 -0.40752107 0.2966707
000370 84 66 58 bf c3 59 59 3f 07 68 13 3f e3 6c ce 3e
       -0.84531426 0.8490259 0.5758061 0.4031745
000380 ec 4e 95 bf 4d a8 b8 bf ae e2 bf 3d 97 96 07 3e
       -1.166471 -1.4426361 0.093694076 0.13241039
000390 dc d3 42 bf 21 7a 20 be 63 2f ee be 9c 0c 9d be
       -0.7610452 -0.15671588 -0.46520528 -0.30673683
0003a0 61 81 00 c0 c3 18 fb 3f 52 0f 83 3f 1f 30 b6 3f
       -2.0078967 1.9616932 1.023905 1.4233435
0003b0 94 50 28 bf 27 1c ac 3e a3 b2 8a 3f ac 6d 4d 3f
       -0.6574795 0.3361523 1.0835766 0.8024547
0003c0 ec ed 4f be 8e 48 90 be 68 c8 03 be 50 19 2f bf
       -0.20305604 -0.28180355 -0.12869418 -0.68398
0003d0 60 c8 25 be 80 a8 91 3d 5d a1 12 be e6 97 4b bf
       -0.16189718 0.07112217 -0.14319368 -0.79528654
0003e0 36 94 47 be cf 99 27 3f c1 93 0a 3f 54 8e 04 bf
       -0.19490132 0.6546907 0.54131705 -0.51779675
0003f0 c2 df 53 3e fb e5 de be 5f 1d e7 3b 02 07 45 be
       0.20690826 -0.43534836 0.007053062 -0.19240955

net.0.bias f4 [256]
000000 89 cb b5 bf be b8 d5 3f 75 a8 aa 3f b2 cb 43 bf
       -1.4202739 1.6697004 1.3332659 -0.7648269
000010 f7 f9 95 bf 84 01 db bf 83 e0 6b 3f 9a 03 8a 3f
       -1.1716908 -1.7109838 0.9213945 1.0782349
000020 2e 6e 25 bd 26 6e 18 bf 43 ad f7 be 43 95 e6 be
       -0.04038828 -0.59543073 -0.48374376 -0.45035753
000030 00 7d 6f c0 8e d1 c1 3f 21 6e ff 3e d8 30 b6 3f
       -3.7420044 1.5142076 0.4988871 1.4233656
000040 c4 f4 09 c0 c0 90 42 bf ce c3 fd bf d9 3a 41 3f
       -2.1555643 -0.7600212 -1.982538 0.7548042
000050 8f 0e 75 be 99 4b 57 3f 19 0c 05 3e 9f e6 21 bf
       -0.23931335 0.8409973 0.12992896 -0.63242525
000060 a5 dd 4d bf 3f 70 2a 40 2d 38 9c be db 0b 3c be
       -0.8041633 2.663101 -0.3051161 -0.18363898
000070 26 2a c9 bf 2f 05 4f 3f 04 80 92 3e 13 47 8d bf
       -1.5715988 0.80867285 0.28613293 -1.1037315
000080 0c 87 a1 bb 58 43 7a 3f 5f 4f cf be 62 1e 2d be
       -0.004929429 0.9775901 -0.40490243 -0.16906121
000090 01 6e 64 3f 18 25 ad 3f 73 82 86 bf 19 10 3a 3e
       0.8923035 1.3526945 -1.050856 0.18170203
0000a0 72 7d 0f 3e 15 a2 94 3f 5a 6e cc bf 65 82 bd be
       0.14012697 1.1611964 -1.5971177 -0.37013546
0000b0 11 2b 8c 3f 04 c5 eb bf 32 34 4d 3f 69 11 86 3f
       1.0950643 -1.8419499 0.8015777 1.0474063
0000c0 e0 ed a4 bf e6 a5 68 bf 73 d1 93 be 7c 59 46 3f
       -1.2885094 -0.9087814 -0.28870735 0.7748029
0000d0 29 ac 4d be 13 2f 3e be 41 88 5a 3f 3c 4d 57 bf
       -0.20085205 -0.18572645 0.85364157 -0.84102225
0000e0 90 01 f8 bf 27 d9 8b bf dc 96 ef bd 36 1b 0b 3f
       -1.9375477 -1.0925645 -0.11698696 0.54338396
0000f0 78 e8 9a bf 63 54 8d 3f 6a 3c a7 bf 13 48 e1 3e
       -1.2102194 1.1041378 -1.3065312 0.440003
000100 46 9d 76 3f 68 8f d4 bf 29 6a a0 bf a3 09 44 bf
       0.9633373 -1.6606264 -1.2532398 -0.76577204
000110 0e e6 ee 3d eb 6f 14 40 40 f2 2e be 14 13 20 40
       0.11664973 2.319331 -0.17084599 2.5011644
000120 e2 b4 16 c0 3a 9e 1f 3f 27 28 c9 3e 65 8b 69 bf
       -2.3547902 0.6235081 0.39288446 -0.91228324
000130 57 b5 b3 3f 72 51 7c bf 8a 08 a2 bf 62 e6 1c bf
       1.4039716 -0.98561776 -1.2658856 -0.61289036
000140 ab ba 36 3f f2 da b3 bf 45 47 81 3e 77 5a 02 c0
       0.7137858 -1.4051192 0.25249687 -2.0367715
000150 3b 64 b8 3e 31 2b aa be ff e3 d0 bf 54 06 19 3f
       0.3601397 -0.33236077 -1.6319579 0.5977528
000160 bb 2d e9 3f 2e 66 36 3f 3a 78 fc be c2 0d 63 bf
       1.8217081 0.71249664 -0.49310476 -0.8869287
000170 53 45 6d be 7f 6b 3a 3f db cd 5c 3e e7 17 eb be
       -0.23170976 0.72820276 0.21562903 -0.45916674
000180 b9 a9 e1 be 08 c6 e8 bf 28 0f b4 3f 70 79 1f c0
       -0.440748 -1.8185434 1.4067125 -2.491787
000190 50 c9 89 3e d3 d6 a9 bc e4 e2 b3 3f d9 d7 3f c0
       0.26911402 -0.020732319 1.4053617 -2.9975493
0001a0 c1 37 3f bf 29 bb 5f 3f b7 41 8e 3e b2 f2 20 3f
       -0.7469445 0.8739496 0.2778451 0.62870324
0001b0 38 c1 14 c0 a7 59 78 be 17 49 59 bf 93 94 c0 3f
       -2.3242931 -0.2425295 -0.8487715 1.5045341
0001c0 c7 b0 08 3f ba d7 ab 3f 62 47 99 be 89 4d 7a 3f
       0.5339474 1.342521 -0.29937273 0.9777456
0001d0 00 6c d7 bf 0a 46 98 3f 2f a9 2b bf c9 63 03 c0
       -1.6829834 1.1896374 -0.6705503 -2.0529654
0001e0 71 5a 27 c0 81 ee 53 bf 83 7b d6 bf da 0b ff bf
       -2.614895 -0.82785803 -1.6756443 -1.9925492
0001f0 69 2b 80 3e 6b 78 c8 be 04 1b bb 3f 77 77 83 bc
       0.2503312 -0.39154372 1.461762 -0.016048176
000200 ae 72 9d 3f 2f a6 e5 bf d8 43 04 c0 78 e8 7f 3e
       1.2300622 -1.794134 -2.0666409 0.24991024
000210 a2 17 64 bf d9 15 39 3f 76 ca 16 3f 64 b9 9c bf
       -0.8909856 0.7229896 0.5890268 -1.2244077
000220 4e fb 27 c0 34 7b 2b bf ca 35 41 be 44 fd 1e bf
       -2.6247134 -0.6698487 -0.18868175 -0.621052
000230 43 59 25 bf d0 03 b4 be cb c4 47 3d ba 90 e9 be
       -0.6458933 -0.3515916 0.04877166 -0.4561823
000240 a1 59 94 3f 3d 00 82 bf 00 21 82 be 9d ba 6d 3f
       1.1589853 -1.0156323 -0.25415802 0.92862874
000250 9a 09 1c c0 da 72 e7 be e3 c3 bc bc 26 6a 76 bf
       -2.438086 -0.45204812 -0.023042625 -0.9625572
000260 bb f0 13 c0 82 c3 cf bf 78 7b 98 bf 0a 5a d6 bf
       -2.311568 -1.6231539 -1.191268 -1.6746228
000270 26 4f ae bf 6f 9f cd bf ab 0d 11 c0 2a ed b9 be
       -1.3617904 -1.606428 -2.2664592 -0.36313754
000280 bf 35 6c be 2d b3 e0 3e 7d 53 d4 3e 68 71 d0 bf
       -0.23067378 0.438867 0.41469947 -1.6284609
000290 c3 3b 87 3f ff c5 d0 bf 63 8c d1 bf 18 23 64 3e
       1.0565113 -1.6310424 -1.6370968 0.22279012
0002a0 16 3b e2 bf 76 74 84 bf 72 c1 50 3f 41 c2 38 c0
       -1.7674282 -1.0348041 0.81545174 -2.8868563
0002b0 81 4e ed bf b4 ff 25 bf 0b c3 b8 bf 7a 64 27 3f
       -1.8539582 -0.64843297 -1.4434522 0.6538769
0002c0 3e 2c b2 3d b9 38 e6 bf 58 90 50 bf 88 c6 57 3f
       0.08699845 -1.798606 -0.8147025 0.8428731
0002d0 ae da 9c be 79 88 c3 bf 25 62 2e bf 32 0e f9 3c
       -0.3063559 -1.5276023 -0.68118507 0.030402277
0002e0 9f d1 81 bf 30 4d db bf f7 b0 7e 3f d8 1d 95 3e
       -1.0142096 -1.7132931 0.99488777 0.2912433
0002f0 a0 4f e1 bf dd 38 52 bd e0 ae 0a bf b1 0d 88 bf
       -1.7602425 -0.05132376 -0.5417309 -1.0629178
000300 21 53 7f 3e 40 9e 1f 3f 1b 3c 7d bf 7f 36 37 3d
       0.24934055 0.62350845 -0.9891984 0.044729706
000310 05 0f b5 3f 57 04 c5 bf 1c ae 09 be 0f 4a 64 bd
       1.4145209 -1.539195 -0.13445324 -0.05573469
000320 cb 36 64 bf 87 53 93 bf 2d 2a 9b bf f4 02 da 3e
       -0.8914611 -1.1509866 -1.2122246 0.42580378
000330 c8 8c bd be 53 92 fd 3d 40 22 9d 3f 01 db 9e 3f
       -0.3702147 0.12381425 1.2276077 1.2410585
000340 a5 5e 5a 3f 0b 51 66 bf 1d 81 de 3e f4 02 9b bf
       0.85300666 -0.8996741 0.4345788 -1.2110276
000350 cc bc 42 bf a7 71 8a bf 13 71 a5 bf 81 f7 c4 3f
       -0.7606933 -1.0815934 -1.2925133 1.5388032
000360 34 dc e3 3f 65 f9 ba bf 28 fb 8d 3e e9 30 3a bf
       1.7801576 -1.4607359 0.2773068 -0.7273088
000370 d0 72 d7 be 0c 82 60 3e 03 8c 60 3e 93 4f 33 3f
       -0.42079782 0.21924609 0.2192841 0.70043296
000380 b9 88 b9 be 38 75 8e be e4 9b e5 be 95 8a 46 3f
       -0.36237124 -0.27823806 -0.44845498 0.7755521
000390 30 78 66 3e 4b 07 c0 3e 05 34 13 c0 fd 85 35 3f
       0.22506785 0.37505564 -2.30005 0.70907575
0003a0 96 69 9b 3f 18 ba 89 bf f8 44 7d c0 16 39 5b c0
       1.2141597 -1.0759916 -3.9573345 -3.4253592
0003b0 36 78 1b 40 aa 40 24 c0 1f 7d c0 3f 26 73 a1 bf
       2.429212 -2.5664468 1.5038184 -1.2613266
0003c0 36 05 a9 bf 8f e1 3b be 0a 44 d6 bf e7 46 43 be
       -1.3204715 -0.18347763 -1.6739514 -0.19070016
0003d0 85 1e 9d bd 4a 80 71 be 2c f1 3f 3f 63 11 58 3f
       -0.07671837 -0.23584095 0.74977374 0.8440153
0003e0 9b dd e6 3e a4 de 2c 3f 38 aa 76 3e ad cc 45 c0
       0.45090947 0.6752722 0.24088371 -3.0906174
0003f0 7c 42 aa 3d 55 42 5b bf 78 13 4e bf c9 f6 88 bf
       0.08313462 -0.8564809 -0.80498457 -1.0700313

net.2.weight f4 [256]
000000 55 7b a8 3f 1c e4 1f 3f 1d 6f ac 3f c6 67 3e 3f
       1.3162638 0.6245744 1.3471409 0.74377096
000010 24 1b 04 40 f2 10 8a 3f d9 3e a6 3f e2 2d 01 40
       2.0641565 1.0786421 1.298793 2.0184255
000020 80 de a9 3f 6d 04 e5 3f fe e0 a7 3f 48 40 3f 3f
       1.3271027 1.7891976 1.3115537 0.7470746
000030 6a 32 c5 3f 30 94 98 3f db 7e 88 3f a8 af 95 3f
       1.540601 1.1920223 1.0663713 1.1694231
000040 4c e0 55 3f 82 f3 67 3f 41 b0 bb 3f 46 dc 71 3f
       0.83545375 0.9060594 1.4663163 0.94476736
000050 35 8f b4 3f 4c 4d c2 3f e4 20 a5 3f 87 6c 7a 3f
       1.4106203 1.5179839 1.2900662 0.9782185
000060 a0 08 c3 3f 47 cc 88 3f 52 9d bc 3f 67 99 9e 3f
       1.5237007 1.068734 1.473551 1.2390565
000070 3a 80 36 3f 3e 88 07 40 31 ba a1 3f b3 40 a9 3f
       0.7128941 2.1176906 1.2634946 1.322287
000080 f0 4b 4a 3f 57 c1 aa 3f 5d 29 8b 3f 8a 11 4b 3f
       0.7902212 1.3340253 1.0871998 0.7932364
000090 ab 66 ae 3f 7b d0 ba 3f db cb b6 3f 3d 8a f8 3f
       1.3625082 1.4594873 1.4280962 1.9417187
0000a0 95 6e cc 3f 8a a2 83 3f fc 9d 43 3f 47 35 52 3f
       1.5971247 1.0283978 0.7641294 0.82112545
0000b0 e4 e1 c8 3f 00 3a 9f 3f 97 f4 c2 3f 01 45 9a 3f
       1.5693936 1.2439575 1.5230893 1.2052308
0000c0 50 bb 9c 3f f1 eb be 3f 65 6b d3 3f 55 e2 a3 3f
       1.2244663 1.4915754 1.6517149 1.2803446
0000d0 5f 0e 37 3f 66 42 3e 3f bc 9b 6b 3f 4a eb e9 3f
       0.71506304 0.74320066 0.92034507 1.827493
0000e0 9b 06 a8 3f f9 88 13 3f c8 b4 a6 3f c5 d9 ad 3f
       1.3127016 0.5763088 1.302392 1.3582083
0000f0 c9 c3 76 3f ef f6 94 3f 6a 35 86 3f e5 a4 a1 3f
       0.96392494 1.1637858 1.0485051 1.2628447
000100 60 7b af 3f d4 14 6d 3f f4 81 71 3f b3 9a af 3f
       1.3709526 0.92609906 0.9433892 1.3719085
000110 3a 5e a4 3f 79 26 a1 3f 00 c2 48 3f 4a 09 98 3f
       1.2841256 1.2589866 0.7842102 1.1877835
000120 14 91 86 3f 6c 07 b2 3f 57 75 43 3f 54 aa 90 3f
       1.0513024 1.3908515 0.7635092 1.130198
000130 f9 1f 00 40 ec 0a a7 3f 1e b0 a3 3f db 8a 86 3f
       2.0019515 1.3050208 1.2788122 1.0511125
000140 93 9d 95 3f 69 8b c5 3f 26 8a c0 3f 68 c6 b5 3f
       1.1688713 1.543317 1.504216 1.4201174
000150 ad 59 8e 3f 2e a3 91 3f d6 81 48 3f 6e 6b db 3f
       1.1121117 1.1377923 0.78323114 1.714216
000160 bb 91 1c 3f 5f ca 3d 3f bc c0 9d 3f 5e 28 d3 3f
       0.6115987 0.7413692 1.2324443 1.6496694
000170 bc 33 7b 3f 86 fa 9a 3f 4b eb a3 3f c6 8e 8f 3f
       0.98125815 1.2107704 1.2806181 1.1215446
000180 24 b5 6e 3f a0 3d 7a 3f 45 38 b7 3f d9 18 29 3f
       0.9324515 0.9775028 1.4314047 0.6605354
000190 69 f4 ba 3f dd 02 c9 3f d2 8f 33 3f be 7e bc 3f
       1.4605838 1.5703999 0.7014133 1.4726179
0001a0 e1 1c e2 3f 7c 72 a8 3f 5c 27 9b 3f 80 1f 85 3f
       1.7665063 1.3159938 1.2121387 1.0400238
0001b0 cc 54 9f 3f 8d 1d b9 3f 91 0f 97 3f 79 7c 8b 3f
       1.2447753 1.4462143 1.1801625 1.0897361
0001c0 d5 54 95 3f 93 f3 1f 3f 06 01 19 3f b3 47 91 3f
       1.1666514 0.6248104 0.59767187 1.1350006
0001d0 8d 51 95 3f db 94 8f 3f bf 6e bb 3f 33 b2 86 3f
       1.1665512 1.1217302 1.4643172 1.0523132
0001e0 cb 04 9c 3f 36 9e 8f 3f 6e 37 a5 3f 2f f6 ce 3f
       1.2188963 1.1220157 1.2907541 1.6168879
0001f0 ec 5a 44 3f be 95 a8 3f a0 d0 ea 3f 4d 53 92 3f
       0.76701236 1.3170698 1.8344917 1.1431671
000200 7e 57 d1 3f b5 08 58 3f ea d7 91 3f d6 ea ac 3f
       1.6354825 0.84388286 1.1394017 1.3509166
000210 4d e2 c4 3f 15 c7 ce 3f 86 e3 8b 3f 09 a9 dd 3f
       1.5381562 1.6154505 1.092881 1.731721
000220 bc 2b 87 3f 3c 85 c6 3f 00 54 07 40 a7 45 55 3f
       1.0560222 1.550941 2.114502 0.83309406
000230 8e 9b 88 3f 56 a7 a4 3f f5 68 87 3f 23 a8 b1 3f
       1.0672472 1.2863567 1.0578905 1.3879436
000240 97 db b8 3f c5 f4 9b 3f dd 3c 21 3f 08 67 82 3f
       1.4442014 1.2184073 0.62983495 1.0187693
000250 b0 c4 f5 3e 5b 93 77 3f 9b 36 9b 3f 49 2a 79 3f
       0.48001623 0.9670922 1.2126039 0.9733015
000260 f1 89 67 3f 19 db e0 3f a4 4d cf 3f 4d 13 5d 3f
       0.90444857 1.7566863 1.6195569 0.86357576
000270 ca 0d 12 3f b5 10 28 3f ba 0d 54 3f 1b 6f d1 3f
       0.5705229 0.6565049 0.82833445 1.6362032
000280 dd da 27 3f a4 45 d4 3f ba b8 35 3f e2 75 88 3f
       0.65568334 1.6583753 0.70984995 1.0660975
000290 5d c4 c1 3f d9 b3 89 3f 39 9a c5 3f ae 9c 8e 3f
       1.513805 1.075801 1.543769 1.1141565
0002a0 db 8c 91 3f 20 2f d4 3f 47 08 a5 3f df 0b 67 3f
       1.1371111 1.6576881 1.2893151 0.9025249
0002b0 cf 6d 5b 3f 64 1f b6 3f 69 32 7b 3f 7d 91 b5 3f
       0.8571443 1.422833 0.98123795 1.4185024
0002c0 3c 6f 95 3f 60 41 67 3f a5 63 ef 3f 28 a0 01 40
       1.1674571 0.9033413 1.8702284 2.0254002
0002d0 53 0c e2 3f 33 c3 8a 3f f8 55 d6 3f 2c a6 c4 3f
       1.7660011 1.084082 1.6744986 1.5363212
0002e0 df 69 45 3f 78 26 b3 3f 5f d8 6e 3f 72 17 a9 3f
       0.7711467 1.3996115 0.93298906 1.321028
0002f0 75 97 a0 3f ca 71 da 3f 43 86 c3 3f c8 9c 98 3f
       1.2546221 1.7065976 1.5275348 1.1922846
000300 8a 84 93 3f c5 e7 a2 3f ea f2 f6 3f 4d 4f a0 3f
       1.1524823 1.272698 1.9292881 1.2524201
000310 36 fa 1e 3f 76 76 c2 3f 5a 40 ce 3f 35 db a4 3f
       0.6210054 1.5192401 1.6113389 1.2879397
000320 10 df 64 3f 2f 51 8e 3f 7f 8a c4 3f da 2c 38 3f
       0.89402866 1.1118525 1.5354766 0.7194344
000330 5d 94 56 3f 26 cc 92 3f d7 ab bb 3f ce 50 c8 3f
       0.83820134 1.1468551 1.4661816 1.564966
000340 07 61 9d 3f a1 b2 1c 40 d2 8d c1 3f 3c 51 b6 3f
       1.2295235 2.4484026 1.5121405 1.4243541
000350 95 82 85 3f 11 43 78 3f 04 92 33 3f 87 7d 98 3f
       1.0430475 0.96977335 0.7014468 1.1913308
000360 83 18 b8 3f 51 fc 53 3f d8 88 9d 3f cd db 9f 3f
       1.438248 0.8280688 1.2307386 1.2488953
000370 2c c9 d4 3f fd 8d c5 3f 2b d5 89 3f 65 9a 92 3f
       1.6623893 1.5433956 1.0768179 1.1453367
000380 99 0f 84 3f 63 b4 a7 3f da e4 d1 3f 5b 09 54 3f
       1.031726 1.3101925 1.6397965 0.82826775
000390 af 1c 73 3f 60 37 7d 3f a4 26 aa 3f 21 bf 9f 3f
       0.9496564 0.9891262 1.3293042 1.2480203
0003a0 78 70 b7 3f a7 ad 88 3f 56 0d 04 40 76 28 f9 3f
       1.4331198 1.0677994 2.063314 1.9465473
0003b0 3b 71 be 3f b2 e6 54 3f 67 ac ab 3f 9d 70 9a 3f
       1.4878305 0.83164513 1.3411988 1.2065617
0003c0 10 2c e2 3f 27 34 a5 3f 22 4b 95 3f 8a f2 98 3f
       1.7669697 1.2906541 1.1663554 1.1949017
0003d0 ee db 58 3f 81 05 9c 3f 81 8c 8a 3f 90 39 af 3f
       0.84710586 1.218918 1.0824128 1.3689442
0003e0 9a 75 56 3f 85 ad 53 3f 83 f6 94 3f 3e 4d 81 3f
       0.83773196 0.82686645 1.163773 1.0101697
0003f0 7a e9 8a 3f 04 27 93 3f 82 c7 c5 3f 7a a4 f6 3e
       1.0852501 1.1496282 1.545151 0.4817236

net.2.bias f4 [256]
000000 69 1a 13 3f 62 e8 2a 3e e2 12 04 3f 24 5e c5 3d
       0.57462174 0.1669021 0.5159131 0.096370965
000010 cf 83 48 3f fa 66 c0 3e 39 c1 c2 3e e9 58 76 3f
       0.78326124 0.37578565 0.38038042 0.96229416
000020 79 f6 e7 3e bb b6 42 3f d7 6e 19 3f 32 55 97 3e
       0.4530523 0.76060075 0.59934753 0.29557186
000030 d6 78 0a 3f c4 1a 17 3f 94 83 b7 3e 5f 28 0e 3f
       0.5409063 0.59025216 0.35842574 0.5553035
000040 7a 25 af 3e 19 fa 30 3e 15 06 02 3f c2 22 87 3e
       0.3420828 0.17282905 0.5079053 0.26393706
000050 c3 69 e1 3e e0 e6 0f 3f 36 95 ff 3e 39 09 c8 3e
       0.44026002 0.5621166 0.49918526 0.39069536
000060 69 4e 19 3f 34 2c ae 3e e5 98 ee 3e ba 2c 01 3f
       0.5988527 0.340181 0.46601024 0.5045887
000070 11 6f fd bc 92 73 64 3f 2e 04 89 3e 2d e9 02 3f
       -0.03093675 0.89238846 0.26761 0.5113705
000080 b3 0b 6a 3e 73 63 0f 3f 18 a2 bf 3e 72 69 8a 3e
       0.22856025 0.5601112 0.37428355 0.27033573
000090 f2 ec 2b 3f 83 28 15 3f b4 15 0a 3f d3 5e 3f 3f
       0.67158425 0.5826494 0.53939366 0.74754065
0000a0 3f 81 08 3f bc ee 82 3e c3 d9 62 3e 4f 8f 93 3e
       0.53322214 0.25572765 0.22153382 0.28820273
0000b0 b7 75 41 3f f6 b3 c4 3e b2 22 21 3f 73 bf 03 3f
       0.75570244 0.3841855 0.62943566 0.51464003
0000c0 2b 47 b5 3e 37 3f 4f 3e 61 74 1a 3f 0b bd e3 3e
       0.3540586 0.20238958 0.6033383 0.44480166
0000d0 af d7 8f 3e 93 ba 95 3e 10 3b d7 3e c8 60 2b 3f
       0.2809424 0.29243907 0.4203725 0.6694455
0000e0 73 76 92 3e 66 1f cb 3d fb a9 b1 3e 32 e7 03 3f
       0.28605995 0.09918098 0.34699997 0.5152465
0000f0 24 a5 e4 3e 99 90 32 3e 34 93 8c 3e 61 98 08 3f
       0.44657242 0.17437972 0.27456057 0.5335751
000100 e7 27 fb 3e 89 0d 94 3e 75 e6 a2 3e 33 c9 a8 3e
       0.4905388 0.28916577 0.3181645 0.32966003
000110 ec fa ec 3e 4f fd 23 3f 16 3a 98 3e 66 ab ee 3e
       0.46285188 0.64058393 0.29731816 0.46615142
000120 aa a3 f6 3e 30 2f 05 3f f8 3d 51 3e 71 65 b1 3e
       0.4817174 0.5202513 0.20433795 0.34647706
000130 c1 0d 2f 3f b8 b9 06 3f 03 1d ca 3e ae fa b2 3e
       0.6838036 0.52627134 0.3947526 0.34956878
000140 87 50 01 3f f5 02 0f 3f 5e fa 18 3f 82 94 75 3e
       0.505135 0.5586389 0.5975703 0.23982432
000150 4d a8 03 3f b5 c1 e9 3e 43 4a ab 3e 45 ce 42 3f
       0.5142868 0.456556 0.33455095 0.7609599
000160 4f 31 8e 3e af 53 86 3e 30 03 ee 3e c0 95 1b 3f
       0.27771994 0.2623572 0.46486807 0.60775375
000170 96 c3 a0 bc f0 a3 06 3f b7 54 a8 3e 7d 0e fb 3e
       -0.019624513 0.525939 0.32877132 0.4903449
000180 02 4d 02 3e 2a 53 67 3e 93 c9 35 3f 78 1b 17 3e
       0.12724689 0.22590318 0.710107 0.14756572
000190 59 ed 27 3f 32 d8 01 3f f2 be 50 3e 3c 79 11 3f
       0.6559654 0.5072051 0.2038534 0.56825614
0001a0 4a 6a 34 3f 54 4f 04 3f 5d 42 dd 3e 8d ea 10 3f
       0.70474684 0.51683545 0.43214694 0.56607896
0001b0 8a a1 cf 3e 96 c3 e4 3e b4 8f 17 3e 88 a6 bd 3e
       0.40552932 0.4468047 0.14800912 0.37041116
0001c0 e1 42 d6 3e 71 86 bc 3e 65 e0 0a 3e 96 3c d2 3e
       0.418479 0.3682132 0.13562162 0.41061848
0001d0 88 de 9d 3e d4 1c fd 3e 6e 09 09 3f 51 7a 8c 3e
       0.3083384 0.49436057 0.53530014 0.2743707
0001e0 85 df ca 3e 72 0d 2c 3e eb 02 5e 3e 82 73 28 3f
       0.39623657 0.16802004 0.216808 0.6580125
0001f0 63 0a d3 3e 6c 03 ee 3e fd 66 2f 3f 27 55 b8 3e
       0.41218862 0.46486986 0.6851652 0.36002466
000200 6d e9 35 3f ff b5 3b 3e ed bc c8 3e 0d 55 0b 3f
       0.71059304 0.18331145 0.3920664 0.5442665
000210 0e 93 19 3f ed 67 13 3f 07 17 10 3f 92 8c 19 3f
       0.5999001 0.57580453 0.56285137 0.5998012
000220 de b2 99 3e 67 55 fc 3e 3f 7f 5e 3f 7c ad 31 be
       0.30019277 0.49283907 0.8691291 -0.17351335
000230 87 36 c3 3e be a6 dc 3e ec 20 bb 3e 5d d1 ce 3e
       0.3812754 0.43095964 0.36548555 0.40394107
000240 35 31 1e 3f b5 44 a7 3e 06 54 7a 3e de 36 d0 3e
       0.61793834 0.32669607 0.24446115 0.4066686
000250 7f 6e 58 3d d5 45 ae 3e 09 a7 67 3e 67 0c a9 3e
       0.052839752 0.34037653 0.22622313 0.33017275
000260 d4 5d 06 be fc b4 13 3f 37 3d b8 3e f7 cb 80 3e
       -0.1312173 0.57698035 0.35984203 0.25155613
000270 26 89 d5 be 58 c9 72 3e 93 89 8c 3e d0 14 17 3f
       -0.41706198 0.23709619 0.2744871 0.5901613
000280 4c cb 82 3e 8a a4 f4 3e 5a ae 65 3e 7f 2e 92 3e
       0.25545728 0.47781783 0.22429791 0.285511
000290 d7 05 04 3f 32 1e a2 3e 3a 06 0b 3f 09 67 c5 3e
       0.5157141 0.31663662 0.54306376 0.38555172
0002a0 db 6c a9 3d 1a 25 2c 3f f9 d9 cf 3e 28 f7 c5 3e
       0.08272716 0.6724411 0.40595987 0.38665128
0002b0 ae ca 9e 3e 9b 87 d7 3e 6f dd a4 3e 1e 75 18 3f
       0.31014007 0.42095646 0.3220019 0.59553707
0002c0 23 39 b6 3e fe 4a af 3e e2 5e 36 3f 0c b3 8a 3f
       0.35590467 0.34236902 0.7123853 1.0835891
0002d0 c4 a6 53 3e f8 43 d2 3e d7 f4 2e 3f 36 a3 f2 3e
       0.20669085 0.4106748 0.68342346 0.47390145
0002e0 77 46 7e 3e 9c 95 e6 3e 76 c9 c0 3e ea 9d 41 3f
       0.24831568 0.45036018 0.37653702 0.7563158
0002f0 24 d3 92 3e 43 69 49 3f 84 a7 63 3e 20 6f d0 3e
       0.28676713 0.7867624 0.22231871 0.40709782
000300 fa 92 d3 3e 86 b0 fc 3e c5 22 37 3f ce 91 d4 3e
       0.41323072 0.49353427 0.7153743 0.4151749
000310 0e fd 25 3e e3 2d fb 3e 31 2b d8 3d 1d c7 9f 3e
       0.16209814 0.49058446 0.10555113 0.312066
000320 e7 98 9d 3e 86 cd b2 3e f9 f7 11 3f dc 47 83 3e
       0.30780718 0.34922427 0.57019 0.25640762
000330 cd ad 95 3e fc ef eb 3e 6b 1e 02 3f 69 4a 20 3f
       0.29234162 0.4608153 0.50827664 0.6261354
000340 0d fa 11 3f 3a d3 66 3f 2f 44 0b 3f fb 68 bd 3e
       0.5702217 0.90166056 0.54400915 0.36994156
000350 73 5b b7 3e 08 32 b0 3e c5 28 b7 bd fc 60 cd 3e
       0.35811958 0.3441317 -0.08943323 0.40113056
000360 3e 88 2b 3f f5 a4 48 3e a5 c7 e3 3e b1 e7 a9 3e
       0.67004764 0.19594176 0.44488254 0.3318458
000370 e9 23 1f 3f 91 bc 82 3e 62 0d bf 3e b3 de dc 3e
       0.6216417 0.2553449 0.37314898 0.43138656
000380 b9 b9 9e 3e fb d7 dc 3e 92 a5 22 3f ff cc 8f 3e
       0.3100107 0.4313353 0.6353389 0.28086087
000390 24 84 be 3e 63 25 18 bd 0b 21 a9 3e d8 23 07 3f
       0.3721019 -0.03714503 0.33033022 0.5278907
0003a0 88 d6 fa 3e dd f9 c7 3e 39 5b 78 3e f6 48 20 3f
       0.489918 0.39057818 0.24253549 0.6261133
0003b0 f7 73 47 3f 45 c6 ee 3d 3a 1e 0c 3f 49 30 96 3e
       0.77911323 0.11658911 0.5473362 0.29333714
0003c0 e2 33 66 be 88 77 be 3e 1f d9 c7 3e 0d 16 ea 3e
       -0.22480729 0.3720057 0.39032838 0.45719948
0003d0 4f 57 36 3e 58 35 99 3e b7 db d5 3e 16 12 f2 3e
       0.17806743 0.2992351 0.41769192 0.47279423
0003e0 5e b6 b3 bb 26 c8 87 3e fe b0 df 3e 3f d7 2e 3e
       -0.0054843863 0.2651989 0.43689722 0.17074297
0003f0 77 f2 56 3e f2 89 ca 3e db ec 1e 3f e1 cd d7 3d
       0.2099093 0.3955837 0.6208016 0.10537315

net.3.weight f4 [256, 256]
000000 88 24 75 3f 6d 88 a1 be 6f 67 21 bf 0d 2d e1 be
       0.9575887 -0.31549397 -0.6304845 -0.43979684
000010 a9 90 11 3f 7e 81 d5 bd 5e 7b 84 bf 1c 72 77 bf
       0.5686136 -0.10425089 -1.0350149 -0.9665849
000020 cd d3 3d bf 6d 6b 6d 3d d8 72 0a 3f bf 14 13 3d
       -0.7415131 0.057963777 0.5408149 0.035908457
000030 98 d3 d6 3d b0 8d d2 bd 42 10 12 3e 85 eb 70 bf
       0.10489577 -0.10280931 0.14264014 -0.94109374
000040 92 5e 56 3d d6 72 ba 3f 81 cd d0 3d e3 99 af be
       0.052336283 1.4566295 0.10195447 -0.34297094
000050 a2 15 ea be d5 96 1c be c1 40 81 be 96 be 24 bf
       -0.4571963 -0.15291913 -0.25244716 -0.6435331
000060 22 8c d0 bf 38 d9 85 3e d3 81 db be e9 ab 27 bf
       -1.6292765 0.26142287 -0.42872486 -0.6549669
000070 7d 38 dd bf 6a 56 22 3e 63 14 42 bf c5 5c c8 be
       -1.7282864 0.15853277 -0.7581236 -0.39133278
000080 d4 07 87 bf 6f 5a 1b bf 33 a0 cd bf 74 78 33 bf
       -1.0549264 -0.60684866 -1.6064514 -0.7010567
000090 ba 73 1a 3e a3 e2 80 3e 74 f3 0c 3e fe 1f 99 3e
       0.15083209 0.2517291 0.13764745 0.2990722
0000a0 f8 e4 cb bd ab a4 8d be 85 1f 06 40 ff 0d bd be
       -0.09955782 -0.27664694 2.0956738 -0.3692474
0000b0 d1 da 0f 3f f3 b9 b2 bd 07 15 91 bd 50 9b 32 3d
       0.5619326 -0.08726873 -0.07084089 0.04360515
0000c0 91 7c 66 bf f2 eb a0 3e a6 92 6e be 4d 3c 00 bf
       -0.90033823 0.31430012 -0.2329813 -0.5009201
0000d0 19 fa a6 3e 8c 36 c4 3e 87 c1 f3 bf 86 7b 19 bf
       0.32612684 0.38322866 -1.9043435 -0.59954107
0000e0 15 25 4e be 2c 76 5c bc 09 a0 be 3c dd 8c 58 3d
       -0.20131333 -0.013455909 0.02326967 0.052868713
0000f0 c6 8c 89 bf e7 55 85 bf 15 46 3e 3d 85 c8 63 bf
       -1.0746086 -1.041684 0.046453554 -0.88977844
000100 83 cd 94 bf 7f 4f 86 3c 25 89 44 bf 09 25 09 3e
       -1.1625217 0.016395329 -0.76771766 0.13393034
000110 50 50 c9 3d 51 e8 4f bf 2e 37 7a be c0 d8 e8 bf
       0.098297715 -0.8121386 -0.24435112 -1.8191147
000120 62 2e 13 3f b7 b7 d1 bf c2 73 0f bf f4 71 34 be
       0.5749265 -1.638419 -0.5603601 -0.17621595
000130 ad 2f 5d bf 0e 6e 51 be e2 73 d8 3d 55 d6 2c bf
       -0.8640087 -0.20452139 0.10568978 -0.67514545
000140 d7 83 a3 bf 6c 92 84 3d d4 9b 68 bf f1 fb ad be
       -1.2774609 0.0647324 -0.90862775 -0.3398128
000150 6b 13 90 bf 6b 8b 0c bf 92 a0 74 3f 19 48 f6 bb
       -1.1255926 -0.54900235 0.9555751 -0.007515919
000160 49 35 3f 3f 87 cb 81 be 26 15 a8 3e bf 02 ab 39
       0.7469068 -0.25350592 0.32828635 0.00032617708
000170 91 26 09 3f 91 37 a5 bf 99 28 10 c0 ef cc 9f bb
       0.5357447 -1.2907583 -2.252478 -0.004876725
000180 ed 20 20 c0 58 84 68 be 24 cf 4a bf 88 0c a3 be
       -2.5020096 -0.22706735 -0.7922232 -0.31845498
000190 1b bf 24 be ec e5 08 bf 72 49 8e 3e 62 d3 da bd
       -0.16088526 -0.5347583 0.2779041 -0.10684849
0001a0 fb ee 00 be 11 01 ac be 53 e8 9a be a7 ee c2 bf
       -0.12591164 -0.33594564 -0.30255374 -1.5229081
0001b0 26 4c 46 3c fe 29 31 bf b0 9c 08 be 6e b4 3e be
       0.012103116 -0.692047 -0.13341022 -0.18623516
0001c0 4c da ba be 31 52 32 3f 32 b3 63 3f 7a f1 a3 3e
       -0.36494672 0.69656664 0.88945305 0.3202017
0001d0 a2 3f d7 bc 61 bb 96 bf 89 b9 4f be 4f 59 1d bd
       -0.02627546 -1.1775934 -0.2028562 -0.03841525
0001e0 43 35 ea 3d 3e 1b 2c bc 02 26 1d 3e be a8 88 3e
       0.1143594 -0.010504542 0.1534653 0.2669124
0001f0 e6 96 87 3d ad aa 60 bc fe 29 f7 be 22 d2 5f 3e
       0.066205785 -0.013712567 -0.48274225 0.21857503
000200 a2 d3 a5 bf fa 49 09 bf 15 e0 2f 3e f0 a6 55 ba
       -1.295521 -0.53628504 0.17175324 -0.0008150181
000210 43 ee 94 3e 21 c9 9e bf 1c da b4 3e b0 8e 2c 3e
       0.2908803 -1.240513 0.35322654 0.16851306
000220 28 dc 4f bd 53 46 d5 bf 2a c6 a5 3e c6 de b6 be
       -0.050747067 -1.6662086 0.3237775 -0.35716838
000230 7e 88 0e bf 6d 55 1a 3f 07 18 27 3e a0 81 c8 bd
       -0.5567702 0.602866 0.1631776 -0.09790349
000240 c4 d4 98 bf 82 da 9e bf 1a d3 98 3e f4 34 2f bf
       -1.1939931 -1.2410433 0.29848558 -0.68440175
000250 1e 74 c0 bc 63 2a 00 bf 9c c1 2a bd a3 81 4d 3e
       -0.023492869 -0.50064677 -0.041688547 0.20068984
000260 b0 a9 68 be 96 51 0a 3e dc bb 0d be 19 50 bc be
       -0.2272098 0.13507685 -0.13841194 -0.3677986
000270 f1 cc dd 3d c7 c3 3e bd 3a 2a 39 bf 3f a0 a0 3e
       0.10830105 -0.046573427 -0.7233006 0.31372258
000280 22 df 84 3e 0c e3 44 be a9 99 93 3e c2 df 87 bf
       0.25951487 -0.19227237 0.2882817 -1.061516
000290 91 7b 93 bf a3 f2 ce be 24 e0 be 3e 11 92 14 3e
       -1.1522084 -0.40419492 0.3728038 0.14508845
0002a0 5a c9 13 be b2 2e 71 3e 1b 9c 15 c0 cb e7 3f be
       -0.14432278 0.23552969 -2.337653 -0.18740766
0002b0 f1 c4 d0 3d ab 97 91 bf 5a 99 15 3e 9c f9 38 3e
       0.101938136 -1.137441 0.1460928 0.18063968
0002c0 b5 d2 8a 3e b8 3f 13 3f b8 1e b8 3f d7 36 9b bf
       0.27113882 0.575191 1.4384375 -1.2126111
0002d0 5a 0e 98 3d c7 0c db bd 5a d7 04 bf 39 e3 19 be
       0.07424612 -0.106957965 -0.518911 -0.15028085
0002e0 1f 8f a4 bf d2 b0 70 3f 32 8f e5 be e1 68 d1 3d
       -1.2856177 0.94019806 -0.44835812 0.10225082
0002f0 6e 58 97 be 78 29 d4 3e a8 c3 c1 be 09 df 7c 3e
       -0.29559654 0.41437888 -0.37844586 0.24694456
000300 52 a1 01 bf fe f5 1c bf 2f 33 00 3f 8b 86 f6 bd
       -0.5063678 -0.61312854 0.500781 -0.12037381
000310 0f 6f ff be 28 46 be bb 80 1e 40 bf 68 d5 16 3d
       -0.49889418 -0.005806703 -0.7504654 0.036824614
000320 52 a7 6c bf 28 db f1 bf e1 3e 88 bd ce 24 05 c0
       -0.9244281 -1.8895006 -0.06652618 -2.0803714
000330 a1 60 c3 3f 7e d0 41 bd 83 48 27 bd 65 6f 8e be
       1.5263864 -0.047317974 -0.040840637 -0.27819362
000340 53 d7 2e 3f 83 a3 03 40 51 45 70 bf d1 22 e1 3d
       0.6829731 2.056855 -0.9385577 0.10992969
000350 33 a1 64 3e d5 dd dd 3d c8 20 49 be b3 8d 14 3e
       0.22327118 0.10833327 -0.19641411 0.14507179
000360 88 68 e2 3e d6 49 ea be c5 80 8c 3e e3 d4 26 bf
       0.44220376 -0.45759457 0.27441993 -0.6516859
000370 3d 9b 02 c0 f4 5d fd be b4 bf ab bf 45 17 10 be
       -2.040725 -0.49485743 -1.3417878 -0.14071377
000380 a1 c1 b3 bc d4 fc 87 bf f7 77 89 3e f5 d8 bf bf
       -0.021942915 -1.0624032 0.26849338 -1.4988085
000390 9e 61 e2 3e a3 3a ed 3a 90 db 0f 3e 60 26 86 3e
       0.442151 0.001809914 0.140486 0.26201153
0003a0 6d e2 a0 3c 6e dc 45 bf 55 09 bd 3d c2 4c 41 3d
       0.019639218 -0.77289474 0.092302956 0.047192343
0003b0 a0 a9 bb bf 88 f5 29 bf eb 7d b8 bd 3d 90 77 3f
       -1.466114 -0.66390276 -0.09008392 0.96704465
0003c0 73 1d 21 3e 6a 98 f3 bd c7 fa 98 3e 4b 73 89 bf
       0.1573389 -0.11894305 0.29878828 -1.073831
0003d0 93 34 e2 be 17 d9 75 be 43 39 81 bf d5 ec db bf
       -0.44180736 -0.24008594 -1.00956 -1.718165
0003e0 24 ef 42 3c 70 31 7e 3b 75 0f 0a c0 f1 0f c4 bd
       0.011897836 0.0038786791 -2.1571934 -0.09573353
0003f0 47 12 80 3d e5 cd bf 3f 56 68 43 be 76 70 c7 bf
       0.06253486 1.4984709 -0.1908277 -1.5581195

net.3.bias f4 [256]
000000 5a 92 8d be 28 c6 3b be 91 7b 8b be cb a7 ff be
       -0.2765072 -0.1833731 -0.2724271 -0.49932703
000010 84 21 25 bf 8d b4 49 bf 92 54 8d 3d 2b ce 17 bf
       -0.64504266 -0.78791124 0.06900896 -0.5929896
000020 01 9b 0f bf 11 33 19 bf 3e 67 7f bf c7 fb fb be
       -0.5609589 -0.59843546 -0.9976691 -0.49215528
000030 5d 04 1a bf 7c 04 17 bf eb 56 33 bf 32 c3 02 bf
       -0.6016291 -0.5899122 -0.700545 -0.51079094
000040 de 7f 6d be 23 91 42 bf 26 05 3a be 4c 11 34 bf
       -0.23193309 -0.7600271 -0.18166026 -0.7033889
000050 8b 95 84 be 9a 07 18 bf a4 f9 1d bf 6f 5e 8b be
       -0.25895342 -0.593866 -0.61709046 -0.27220485
000060 c1 17 45 bf d5 7a cc bd 98 54 2a be d2 6e 28 bf
       -0.7698937 -0.09984366 -0.16633832 -0.657941
000070 b3 26 10 bf e7 0b c2 be ce dc 6c be 44 29 1d bf
       -0.5630905 -0.37899706 -0.23131105 -0.6139109
000080 93 47 0d bf fe 14 00 bf e7 4e de be b2 30 3f bf
       -0.5518734 -0.5003203 -0.43419573 -0.7468368
000090 a7 45 51 be 49 e2 01 bf 1f 81 22 bf fe 9a c4 bf
       -0.20436727 -0.5073591 -0.63478273 -1.53598
0000a0 c6 17 7a be 37 18 0c bf 75 6b 91 be 55 6c 19 bf
       -0.24423131 -0.5472445 -0.28402296 -0.59930927
0000b0 d7 b9 28 bf 8d ce 92 be c9 03 04 bf 16 15 04 bf
       -0.6590857 -0.2867321 -0.51568276 -0.51594675
0000c0 81 c9 50 bf 82 b3 91 be 4d 40 bc be 6e 63 d4 be
       -0.8155747 -0.28457266 -0.36767808 -0.4148211
0000d0 e4 57 d1 be d3 2f 03 bf 3f 64 0b bf 14 bc 3e bf
       -0.40887368 -0.5124485 -0.5444984 -0.74505734
0000e0 db 1a a7 be ee de 5a bf 57 53 0e bf c4 fe a2 be
       -0.32637677 -0.85496414 -0.55595917 -0.31834996
0000f0 c8 5a 5a be f3 4d 08 bf 40 78 b5 be fd 2b cc b9
       -0.21323693 -0.5324394 -0.35443306 -0.00038942686
000100 07 9e b4 be 91 4c 81 bf 15 e7 1f bf 25 1c 66 be
       -0.35276815 -1.0101491 -0.6246198 -0.22471674
000110 f0 89 48 bf 4b 03 10 bf 6d 3c 14 bf a5 00 52 bf
       -0.78335476 -0.56255025 -0.579047 -0.82032233
000120 89 99 44 bf 4c 56 c6 be 65 03 54 bf 35 de 46 bf
       -0.76796776 -0.38737714 -0.8281768 -0.7768281
000130 1f 60 1c bf 4a ae cd be 9d 36 25 bf 85 0c 94 be
       -0.6108417 -0.40172035 -0.6453646 -0.28915802
000140 7b e7 71 bf 8d 62 29 bf 03 3c ea be 0b 18 11 bf
       -0.94493836 -0.66166 -0.4574891 -0.5667731
000150 d2 0a a4 be f3 11 06 3e b1 cf f6 be 26 0f d2 be
       -0.32039505 0.13092785 -0.4820533 -0.41027182
000160 08 18 34 3e 7e a3 52 bf f5 5a b6 be f6 88 ec be
       0.17587292 -0.8228072 -0.3561627 -0.46198243
000170 e7 73 20 bf f1 eb d5 be 9b 48 56 be 19 32 56 be
       -0.6267685 -0.41781572 -0.20926134 -0.20917548
000180 d1 d0 f5 be ff d1 0f bf 82 76 2d bf 91 b8 b6 bd
       -0.48010877 -0.56179804 -0.67758954 -0.08921922
000190 60 a0 0f bf d7 4d 4a bf 91 c0 a0 be 50 8d 18 bf
       -0.5610409 -0.79025024 -0.31396917 -0.59590626
0001a0 c0 0d f6 be 26 9c 03 3e 9c eb e5 be f0 a3 ce be
       -0.48057365 0.12852535 -0.44906318 -0.4035945
0001b0 93 a5 db be f3 8d 25 bf 20 e8 1d bf 1c 48 2d bf
       -0.4289976 -0.6466972 -0.6168232 -0.67688155
0001c0 89 54 3b bf e3 fd 7c be f2 a7 1e bf 1b d9 0f bf
       -0.73175865 -0.24706225 -0.61975014 -0.5619065
0001d0 b3 f5 60 be 69 58 cb be c3 53 89 be 73 9f 3b bf
       -0.21968727 -0.3971589 -0.26821718 -0.73290175
0001e0 78 ff ac be 8a f9 07 bf b8 e5 5c bf 67 12 c3 be
       -0.33788657 -0.5311514 -0.86288023 -0.38099977
0001f0 de bb 6a be 50 a7 0c bf 9a 49 10 bf 7d c4 d0 be
       -0.22923228 -0.549428 -0.5636231 -0.4077491
000200 1b 93 2a be 90 00 2c bf 7f 9b d8 be e9 1d d9 be
       -0.16657679 -0.6718836 -0.42306134 -0.42405632
000210 bf a4 0c bf 6e 78 ed be 2e 80 d0 be 05 ff a1 be
       -0.5493888 -0.46380943 -0.40722793 -0.31639877
000220 41 cf 01 bf 87 29 0a bf 83 3c 62 bf e4 a1 40 bf
       -0.5070687 -0.53969616 -0.88373584 -0.75247025
000230 6c e1 97 be a8 49 e4 be 38 a3 ab be bb 57 18 bf
       -0.2966417 -0.44587445 -0.33522964 -0.59508866
000240 ef be 58 be 4c 4c 29 bf 38 29 2b bf 9c 89 33 bf
       -0.21166585 -0.66132045 -0.6685977 -0.7013185
000250 a1 9a 2b bf 9c 7a 23 bf dc 5e 5d bf bd 83 09 bf
       -0.6703282 -0.6385896 -0.8647287 -0.5371664
000260 35 da 22 bf 12 11 11 bf 65 2f df be 16 22 b4 be
       -0.6361421 -0.5666667 -0.43590847 -0.35182256
000270 cf 76 07 bf 34 14 11 bf 5b 68 06 bf ae b4 14 be
       -0.5291566 -0.5667145 -0.52502984 -0.14522049
000280 f2 65 10 bf ff 83 d1 be cb 7a a0 bd 44 ed ff bc
       -0.56405556 -0.40921018 -0.07835921 -0.031241067
000290 4b 71 0f 3e f5 ae 50 bf 73 fe 1c bf bf 78 3b bf
       0.14008062 -0.81516963 -0.6132576 -0.7323112
0002a0 d0 19 a0 be fc c2 0e bf 56 03 58 bf 2b 9e 3d bf
       -0.31269693 -0.5576627 -0.8438009 -0.7406947
0002b0 6d 9d 1c bf 47 b3 1e bf 6a bb 0f bf b5 43 28 bf
       -0.6117771 -0.61992306 -0.56145346 -0.6572831
0002c0 2b c1 7c be b8 3c f9 be 83 84 89 bd 20 70 c8 bd
       -0.24683063 -0.48679137 -0.06714728 -0.09787011
0002d0 a6 ef 09 bf 65 96 39 bf 48 52 67 bf 76 f3 c7 be
       -0.538813 -0.7249511 -0.90359926 -0.39052933
0002e0 81 5c d1 3c e8 ce 9c be 3a 9c 4e bf e6 de ef be
       0.025556805 -0.30626607 -0.8070713 -0.46849746
0002f0 0e 84 0c bf e7 12 e3 be cb 1a e6 be db ce 76 bf
       -0.54889 -0.4435036 -0.44942316 -0.96409386
000300 3f 21 85 be 2a 71 4b bf 06 7b e6 be c4 e1 9d 3d
       -0.26001927 -0.7946955 -0.45015734 0.07709077
000310 55 c7 2f bf be 1e c5 be c6 a3 d9 be bb 61 55 bf
       -0.6866353 -0.38500017 -0.42507762 -0.8335225
000320 61 d9 5b bf 69 9f 52 bf 2d 1d ca be 29 be 61 bf
       -0.8587857 -0.8227449 -0.39475384 -0.88180786
000330 1e 25 3f bf 7a 3a d2 be 58 f6 e7 be 03 52 c4 be
       -0.7466601 -0.4106024 -0.45305133 -0.3834382
000340 e8 b2 d7 be 52 41 7d bf 20 0a 04 bf 13 84 cc be
       -0.42128682 -0.98927796 -0.5157795 -0.39944515
000350 0b 68 1b bf 2d fa 39 bf ed f1 03 bf 8a 1f 2a bf
       -0.6070563 -0.7264736 -0.51541024 -0.66454375
000360 82 2d 90 3e 37 34 45 bf 9d 7f 8a bd aa a9 16 bf
       0.2815972 -0.770328 -0.067626216 -0.58852637
000370 48 9d 0c bf bc 20 36 bf 22 0c 0c be 32 5e b0 bc
       -0.5492749 -0.711437 -0.13676503 -0.02152929
000380 11 95 40 be 51 47 a0 3e 13 b2 54 bf 1a a8 f9 be
       -0.18806864 0.3130441 -0.8308422 -0.48761064
000390 cc db c9 be 84 01 00 bf 07 e5 92 3d 72 94 01 bf
       -0.39425504 -0.5000231 0.0717259 -0.50617135
0003a0 9c 67 44 bf 3c e8 2b bf 07 b3 56 bf 5e 3a 62 bf
       -0.76720595 -0.67151237 -0.83866924 -0.8837031
0003b0 81 f6 1b bf 38 48 05 bf 67 b1 1d bf a5 52 e4 be
       -0.6092301 -0.5206332 -0.6159882 -0.44594303
0003c0 0b 80 07 be 3f 78 e8 be f1 4b 52 bf f5 4b 44 bf
       -0.13232438 -0.4540424 -0.8214713 -0.766784
0003d0 50 2a 25 bf a8 89 ac be d7 0d 8a bf bc 02 b3 be
       -0.6451769 -0.33698773 -1.0785474 -0.34963024
0003e0 d7 ec aa be a0 05 18 bf 1f 55 07 bf 04 8d aa be
       -0.3338382 -0.59383583 -0.5286426 -0.3331071
0003f0 f1 3b ae be 3a ca 57 bf db bf 3d bf 9e 81 8d bd
       -0.34030107 -0.8429295 -0.74120873 -0.06909488

net.5.weight f4 [256]
000000 38 54 97 40 fd a0 17 3f 17 0c af 40 aa 06 85 40
       4.7290306 0.59230024 5.470226 4.1570635
000010 6d 7b 89 40 bf 41 b9 40 40 b9 1e 41 76 c3 c2 40
       4.2963166 5.7892756 9.920227 6.08636
000020 9f eb c1 40 be 7d cd 40 4c 91 e6 40 dc 90 71 40
       6.0600123 6.4215994 7.2052364 3.7744665
000030 cb b3 f3 40 21 ed d0 40 a5 80 c2 40 82 ff aa 40
       7.6156974 6.5289464 6.0782037 5.34369
000040 c1 e8 1b 40 77 9c a0 40 da 86 d0 40 19 1f c7 40
       2.4360812 5.0190997 6.5164614 6.222546
000050 5a 31 a7 40 0e a6 b9 40 65 0b e9 3f 48 c8 d6 40
       5.2247744 5.8015203 1.8206602 6.7119484
000060 7c 49 65 40 f0 a7 a7 be a0 fc c4 40 10 43 cd 40
       3.5826101 -0.32745314 6.155838 6.4144363
000070 f7 96 74 40 8f d4 a4 40 7d 2e a8 40 f3 1c c9 40
       3.8217142 5.150947 5.255675 6.284784
000080 51 18 8e 40 05 6d be 40 ba 8e 36 40 0d 75 5c 40
       4.4404683 5.950808 2.8524613 3.4446442
000090 91 5d 84 40 5b f5 a6 40 4d 73 be 40 4e b5 e6 3f
       4.1364217 5.2174506 5.951575 1.802408
0000a0 cd 02 9d 40 73 22 df 40 8f c6 8f 40 b9 d0 b7 40
       4.906592 6.972955 4.492988 5.744229
0000b0 b6 b2 e4 40 86 d3 a6 40 61 37 e6 40 b7 c7 c0 40
       7.1468153 5.2133207 7.19426 6.0243793
0000c0 34 86 83 40 4b 67 3b 40 68 62 cc 40 6b 25 af 40
       4.110132 2.9281795 6.3870125 5.4733176
0000d0 a3 e9 ab 40 bc 9e bf 40 44 39 37 40 7f d2 77 40
       5.37227 5.9881268 2.8628702 3.8722227
0000e0 91 2e 88 40 01 8a b3 40 13 e4 55 40 a3 ae 97 40
       4.2556844 5.610596 3.3420455 4.740068
0000f0 27 a7 a1 40 67 1e 89 40 71 b7 81 40 2b 31 11 41
       5.0516543 4.284961 4.0536427 9.074504
000100 ae 02 d5 40 35 44 ba 40 f3 84 c3 40 a3 5f c0 40
       6.656577 5.820826 6.109979 6.0116744
000110 8e 22 96 40 de 9a 8a 40 73 2e e1 40 c9 c2 85 40
       4.691718 4.3314047 7.03692 4.1800275
000120 7a 23 ae 40 1b 7c 7e 40 03 ea 30 40 77 5a cf 40
       5.4418306 3.9763248 2.764283 6.479793
000130 9c 71 c5 40 a4 4b 09 40 ab 12 22 40 df c7 3d 40
       6.1701183 2.1452417 2.5323894 2.9653242
000140 9b f5 98 40 ca 5d ae 40 e2 15 99 40 a1 a7 a9 40
       4.779981 5.448949 4.7839212 5.3017125
000150 1a 66 2b bf 71 97 39 41 77 9d 0d 40 d9 c6 b8 40
       -0.6695267 11.599473 2.212736 5.7742734
000160 4a f7 3a 41 ea 2d ed 40 90 d8 a2 40 16 35 23 40
       11.685373 7.4118547 5.088936 2.550115
000170 5c a5 47 40 82 65 4f 40 45 2f 35 3f 3c b3 1e 40
       3.1194677 3.2405705 0.7077525 2.4796896
000180 03 df 1d 3f ad ea e5 40 b2 c8 b5 40 cb b5 48 40
       0.61668414 7.184897 5.680749 3.1360958
000190 21 46 72 40 ca 00 f7 3f 46 72 a9 40 cb 1f a8 40
       3.7855303 1.9297116 5.2951994 5.253881
0001a0 31 93 a0 40 56 ff 3f bf 98 e7 f9 40 55 6b 94 40
       5.0179677 -0.74998987 7.8095207 4.638102
0001b0 e5 c8 c3 40 eb ec 86 40 c4 05 99 40 f6 a8 e9 40
       6.1182733 4.2164207 4.781954 7.301875
0001c0 1e 79 f0 40 b6 4e 88 40 4b 83 c8 40 1a 7c f2 40
       7.514785 4.2596083 6.266027 7.577649
0001d0 aa 9a 36 40 42 d6 da 3f 17 5e 88 40 07 d4 d2 40
       2.85319 1.7096636 4.2614856 6.5883822
0001e0 ee 2a c1 40 81 a1 aa 40 f4 46 98 40 35 33 fd 40
       6.0364904 5.332215 4.7586613 7.912501
0001f0 1b 06 e6 3f c4 96 d1 40 90 11 99 40 32 fc 11 3f
       1.7970613 6.549654 4.783394 0.57025445
000200 7d a7 b5 3e 94 82 8c 40 4a 84 74 40 98 d3 b9 40
       0.35479346 4.3909397 3.8205743 5.8070793
000210 1e 10 80 40 1d 15 f8 3f 2d b6 a7 40 22 c0 b4 3d
       4.0019674 1.9381443 5.2409883 0.08825709
000220 35 08 a0 40 a5 b6 52 40 0e 2a 67 40 37 52 cd 40
       5.001002 3.2923977 3.6119418 6.416286
000230 f3 75 e9 40 96 73 1b 40 9e 48 87 40 79 d2 b7 40
       7.295648 2.4289298 4.2276144 5.7444425
000240 8a a6 cf 40 94 50 f9 40 c3 d1 a0 40 d6 16 a5 40
       6.4890795 7.791086 5.0256057 5.1590376
000250 b5 6f c3 40 86 db a1 40 a6 66 f8 40 b0 37 c7 40
       6.107386 5.0580473 7.7625303 6.225548
000260 0d 67 f5 40 62 a3 b9 40 1a 3b f5 40 e9 11 1a 3f
       7.6688294 5.801194 7.6634645 0.6018358
000270 1d ea 34 40 d1 2e c6 40 5f 6a a6 40 0b 61 25 41
       2.8267891 6.193215 5.2004848 10.336192
000280 9d f8 98 40 e9 e5 a5 40 5b 93 04 40 e2 a6 36 41
       4.7803483 5.184315 2.0714939 11.415743
000290 d7 2d 43 41 23 bd d7 40 48 f6 da 40 70 df a3 3f
       12.198691 6.741838 6.8425636 1.2802563
0002a0 b4 93 7c 40 29 a2 bc 40 4f e3 45 40 7c b5 80 40
       3.946515 5.894795 3.0919988 4.022154
0002b0 0a 9c b7 40 52 ed d0 3f 24 7d ad 40 79 eb e2 40
       5.7377977 1.6322424 5.421526 7.091244
0002c0 c9 73 fa 3f 85 30 e0 40 ce ee 77 40 2c 57 28 41
       1.9566585 7.005923 3.8739505 10.521282
0002d0 f5 a1 d5 40 08 bf 3a 40 a2 44 d9 40 b9 1e d1 40
       6.67602 2.9179096 6.789628 6.5350003
0002e0 1c 3f 17 41 98 d2 fa 40 7e 14 aa 3f ab cb c3 40
       9.452908 7.8382072 1.3287504 6.118612
0002f0 77 13 ed 40 87 cf db 40 8f 77 52 3f d8 50 b7 40
       7.408626 6.869083 0.8221368 5.7286186
000300 33 e1 26 40 69 f1 e0 40 1a df d7 40 88 7a de bf
       2.607495 7.029469 6.745984 -1.7381144
000310 e3 ae d9 40 e7 1f b1 40 18 59 de 40 90 f8 aa 40
       6.8025985 5.5351443 6.9483757 5.342842
000320 02 63 aa 3f ef 6f c3 40 22 a5 05 40 59 57 da 40
       1.3311465 6.107414 2.088204 6.8231626
000330 f2 cc cf 40 d6 d2 12 bd 06 ae ee 40 99 67 a1 40
       6.4937677 -0.0358456 7.458743 5.043896
000340 d6 30 dd 40 1b 6e e9 40 24 ac 66 40 2d 6a 0c 40
       6.9122114 7.2946906 3.6042566 2.1939805
000350 d0 2d 9a 40 53 37 99 40 e5 e8 08 41 49 7f d2 40
       4.8180923 4.7880034 8.556859 6.5780377
000360 93 78 3b 41 a8 23 bd 40 95 f0 b3 40 e8 52 9a 40
       11.716937 5.9106026 5.623118 4.8226204
000370 16 18 fd 40 8a 2f 91 40 c4 99 00 bf 67 6c 8c 3f
       7.90919 4.537053 -0.5023463 1.0970582
000380 af e2 9e 3f 86 d6 39 41 38 5e e2 40 c1 7a 8f 40
       1.2412928 11.614874 7.0740013 4.4837346
000390 d8 36 91 40 c2 36 9d 40 66 9e 23 41 8f 00 b2 40
       4.537945 4.9129343 10.2261715 5.562568
0003a0 c5 cd ce 40 ad 7d 6a 40 c0 e6 83 40 12 6a 57 40
       6.4626184 3.6639206 4.1219177 3.365849
0003b0 4d 5b bb 40 13 c8 a6 40 fd 81 a5 40 ec 13 e1 3f
       5.854895 5.211923 5.1721177 1.7584205
0003c0 06 af 6e be 6d 44 42 40 11 2c e5 40 e1 8c 9a 40
       -0.23308954 3.0354264 7.161629 4.829697
0003d0 98 0e a1 40 5e f0 d5 40 54 71 bc 3f 91 41 1b 40
       5.0330315 6.6855917 1.4722085 2.4258769
0003e0 39 cb fb 40 98 0c c4 40 f9 b9 19 40 57 85 26 40
       7.8685575 6.1265373 2.4019759 2.6018884
0003f0 7a 9e d1 40 c9 1c 70 40 35 ef da 40 a6 11 a4 40
       6.5505953 3.751757 6.8417 5.1271544
